ddqn_out/dqn_ep5200.pt (torch, 464501 bytes, 24 tensors)

net.0.weight f4 [128, 77]
1.6410791 0.04327184 -0.09904269 -0.06790917 -0.053441245 0.03445095 0.0064176777 0.045146152
-0.056744326 0.108598456 0.051379487 -0.005778409 -0.06338329 -0.051480196 0.0577701 0.03721167
0.048600834 0.084548496 -0.072412215 -0.06748834 0.023531111 0.07495001 -0.010980313 0.06258941
-0.040645752 0.07119901 0.085993476 -0.16037291 -0.01608259 0.048865173 -0.0075047323 0.06662483
-0.008169317 0.0074886563 -0.039856497 -0.085348755 -0.031306762 0.11289139 0.032989837 0.037372105
-0.01929107 -0.075896606 0.0025307804 -0.09890853 -0.026959926 -0.037504215 0.01474746 0.063003
0.018592088 -0.011003944 0.074205 0.12852468 0.030843858 0.035846952 0.05820911 -0.028622415
0.039911993 -0.106217146 -0.09684737 -0.052103028 0.055126607 0.03221237 -0.12882166 0.05317232
0.07593065 -0.032907367 0.13282634 0.048688505 0.030431116 0.11824152 -0.014834406 -0.021158483
0.071754 0.12447488 0.099689946 0.11355495 0.004818065 1.1772963 0.016766481 -0.045056775
0.033292603 0.09713958 0.07246156 -0.15319714 0.02754423 -0.018985538 -0.05987131 -0.06816237
0.12074266 0.010100691 -0.02288104 0.07506492 -0.0031234405 0.036049496 -0.10908292 -0.050188012
0.06318534 0.030134901 -0.089118116 0.02661359 0.1619345 0.117365025 -0.23183069 0.012870404
-0.057406764 0.0036242881 -0.021187143 -0.041778833 0.11142637 -0.043556113 0.030602345 -0.0030049677
-0.0703776 0.06641381 0.06530706 -0.08981799 -0.022080064 -0.031684086 0.08699874 0.06691568
0.10901609 -0.14411347 -0.046815794 0.123366445 -0.13508213 -0.08698429 0.00012403059 -0.0038878191
-0.028237732 0.009959536 -0.046547025 0.036706977 -0.06970918 0.03375166 0.0878618 -0.005432269
-0.045728203 0.054054923 0.112391844 0.13312493 -0.0276068 -0.014408488 0.2597286 0.012882336
-0.12510598 -0.004266501 0.1035977 -0.040540617 -0.016659418 -0.07031034 -0.10074648 -0.07847819
-0.026362747 0.068779774 2.3102245 -0.09369395 0.0717094 -0.049193967 0.011698884 -0.049910612
0.03182211 -0.005030517 -0.0486442 -0.042170245 -0.014822037 0.047061816 -0.042768124 0.020174548
-0.063987166 0.023154803 0.10956519 -0.04580688 0.10533429 0.057484157 -0.08663171 0.096644044
0.012535778 -0.03703028 0.064371385 -0.04240285 0.035414085 0.0067959893 0.095864676 0.044399727
0.10532286 0.02917538 -0.024824008 0.0013082398 -0.07804169 0.0732592 0.098705135 0.10296231
-0.06417205 0.021295492 -0.054198623 -0.023422383 -0.04958696 0.032335773 -0.018855086 0.015802084
0.02480866 0.061592713 -0.03012023 0.022578306 -0.06637963 0.04691749 -0.031197093 0.10861379
0.05046656 0.041617416 0.030979132 -0.0063147354 0.03051119 0.03810922 -0.0013787871 0.024770178
-0.080080085 0.00014721742 0.126422 -0.067815125 -0.045056075 0.13312064 0.16123293 -0.041731015
-0.12112603 0.08436141 -0.10367681 -0.027001172 -0.014244403 0.031313688 0.017459616 0.8899078
0.043186534 0.02413497 0.05082857 0.010883698 -0.018634671 -0.041742336 -0.02767818 -0.012186398
-0.017988678 0.013427 -0.026032405 -0.027385676 -0.04251002 -0.09030823 0.07097372 -0.003540818
-0.00016306822 0.0049425154 -0.031060532 0.044021916 0.03940657 -0.008835309 -0.036992446 -0.02488074
00000000: e10e d23f d03d 313d e5d6 cabd f713 8bbd
00000010: 35e5 5abd 701c 0d3d 624b d23b 2ceb 383d
00000020: bd6c 68bd de68 de3d 4c73 523d cf58 bdbb
00000030: 19cf 81bd e6dc 52bd 57a0 6c3d 446b 183d
00000040: ab11 473d c327 ad3d db4c 94bd 5437 8abd
00000050: 51c4 c03c 647f 993d c5e6 33bc e02e 803d
00000060: 297c 26bd c9d0 913d 591d b03d cc38 24be
00000070: a3bf 83bc d926 483d 42ea f5bb 9972 883d
00000080: 99d8 05bc 6763 f53b 9140 23bd 54cb aebd
00000090: 853b 00bd 9a33 e73d 5a20 073d 7e13 193d
000000a0: 4e08 9ebc ae6f 9bbd 73db 253b 8e90 cabd
000000b0: 10db dcbc 059e 19bd 559f 713c b807 813d
000000c0: 6f4e 983c e349 34bc cbf8 973d f99b 033e
000000d0: 42ac fc3c 41d4 123d ad6c 6e3d 8e79 eabc
000000e0: c27a 233d 6088 d9bd ea57 c6bd fc69 55bd
000000f0: 70cc 613d 1ef1 033d d3e9 03be 38cb 593d
00000100: 8781 9b3d e0c9 06bd a103 083e 996d 473d
00000110: ad4a f93c 9c28 f23d 020c 73bc 8e54 adbc
00000120: c3f3 923d b0ec fe3d 3e2a cc3d 7f8f e83d
00000130: dce0 9d3b a5b1 963f dc59 893c 748d 38bd
00000140: d35d 083d 1ef1 c63d ba66 943d b6df 1cbe
00000150: 70a4 e13c 8f87 9bbc 9e3b 75bd b698 8bbd
00000160: ed47 f73d 5e7d 253c 0571 bbbc a3bb 993d
00000170: a3b2 4cbb a3a8 133d de66 dfbd f291 4dbd
00000180: 5167 813d 78dd f63c 8f83 b6bd be04 da3c
00000190: 28d2 253e 135d f03d 0665 6dbe 63de 523c
000001a0: 5b23 6bbd 7785 6d3b a990 adbc 4820 2bbd
000001b0: 8233 e43d e567 32bd c5b1 fa3c feee 44bb
000001c0: 2222 90bd f703 883d b5bf 853d 7ff2 b7bd
000001d0: 40e1 b4bc 2cc7 01bd 652c b23d 170b 893d
000001e0: d443 df3d 7b92 13be ebc1 3fbd 8ca7 fc3d
000001f0: f852 0abe d224 b2bd 350e 0239 c8ca 7ebb
00000200: d152 e7bc 522d 233c 18a8 3ebd 0e5a 163d
00000210: b0c3 8ebd 2e3f 0a3d e3f0 b33d 2d01 b2bb
00000220: 7f4d 3bbd b268 5d3d b22d e63d e751 083e
00000230: a827 e2bc 9411 6cbc 26fb 843e 6f10 533c
00000240: c81b 00be 01ce 8bbb 082b d43d eb0d 26bd
00000250: 5579 88bc defe 8fbd 2c54 cebd 2cb9 a0bd
00000260: b0f6 d7bc 69dc 8c3d b8da 1340 9de2 bfbd
00000270: 61dc 923d 9d7f 49bd adac 3f3c 126f 4cbd
00000280: e757 023d 09d7 a4bb 243f 47bd b5ba 2cbd
00000290: 21d8 72bc e4c3 403d a12d 2fbd 1845 a53c
000002a0: b40b 83bd 24af bd3c b763 e03d ff9f 3bbd
000002b0: 81b9 d73d 8274 6b3d f76b b1bd 50ed c53d
000002c0: dd62 4d3c 10ad 17bd 25d5 833d 9cae 2dbd
000002d0: 5c0e 113d e4b0 de3b b354 c43d 7ddc 353d
000002e0: 83b3 d73d 3501 ef3c b85b cbbc 3e79 ab3a
000002f0: 52d4 9fbd eb08 963d eb25 ca3d e7dd d23d
00000300: a36c 83bd e273 ae3c 60ff 5dbd 4ce0 bfbc
00000310: b21b 4bbd 8472 043d fb75 9abc 5f73 813c
00000320: 883b cb3c a448 7c3d b3be f6bc 24f6 b83c
00000330: 0bf2 87bd 8e2c 403d 0c91 ffbc e870 de3d
00000340: 06b6 4e3d 0677 2a3d f3c7 fd3c d7eb cebb
00000350: 9af2 f93c 6a18 1c3d 6bb8 b4ba d4ea ca3c
00000360: 0701 a4bd 605e 1a39 c574 013e a8e2 8abd
00000370: b88c 38bd c750 083e 3f1a 253e 24ee 2abd
00000380: ed10 f8bd adc5 ac3d 8254 d4bd 9031 ddbc
00000390: 5b61 69bc c842 003d 7807 8f3c ffd0 633f
000003a0: 5de4 303d b3b6 c53c 9e31 503d 8a51 323c
000003b0: bda7 98bc 03fa 2abd 5abd e2bc 75a9 47bc
000003c0: fe5c 93bc ebfc 5b3c e941 d5bc ed57 e0bc
000003d0: fd1e 2ebd 85f3 b8bd ab5a 913d 120d 68bb
000003e0: 4bfd 2ab9 d3f4 a13b a872 febc 5350 343d
000003f0: c968 213d f9c1 10bc 6485 17bd b2d2 cbbc

net.0.bias f4 [128]
-0.041674525 -0.0400673 -0.061959535 0.064841345 0.0018514261 -0.05540267 0.06856171 -0.046229493
0.020668296 0.0023728032 0.09973673 0.088714324 -0.041685063 -0.055664714 0.10152116 0.031913754
0.010855169 0.092719205 0.16360685 0.01432115 -0.050701927 0.12003596 -0.09845137 -0.066082135
0.03423498 -0.065565 -0.07799164 0.117463954 0.028971009 -0.06934895 0.09931191 0.10526882
-0.012563869 0.08633684 0.058879953 0.053742554 -0.08943178 -0.099040255 -0.04334692 0.017516593
-0.08691823 -0.08252264 -0.035691135 0.031502258 -0.013709031 -0.0988762 0.028721245 -0.010510458
-0.072813906 0.07171265 0.038967203 0.07797739 0.10857593 0.04516718 -0.031307492 -0.010646196
0.06719745 -0.035474103 0.029167706 0.12723254 0.0027219998 0.043635573 0.022920547 0.06893351
-0.068830475 0.13703464 -0.038535815 0.036083583 -0.13718124 0.077046834 -0.035957154 -0.037690576
-0.07958913 0.021468021 0.057970047 0.03989249 -0.07764025 0.040941805 -0.04917378 0.07754947
0.1518871 -0.11134484 0.0749463 -0.04971114 0.051392272 -0.028038245 0.019615341 -0.054974854
0.08279592 0.047921397 -0.103760555 -0.087184146 0.0990553 -0.08319588 0.05484575 -0.025819393
-0.09104569 0.08356069 -0.036064148 -0.043487877 0.0653891 0.07139009 0.13281667 0.123133555
0.05074016 -0.045012087 0.016960206 0.09118317 -0.071173035 0.0833051 0.021314487 0.068709984
0.027970472 -0.077805385 0.03730662 0.020500893 0.03334473 -0.036756497 0.067818895 0.022319017
0.034186672 -0.10038313 0.14317128 -0.09154904 0.086235546 0.08359593 0.0229448 -0.08910796
00000000: e8b2 2abd 9c1d 24bd 48c9 7dbd 8acb 843d
00000010: 8dab f23a e9ed 62bd 156a 8c3d 235b 3dbd
00000020: 8f50 a93c 0881 1b3b c542 cc3d dbaf b53d
00000030: f5bd 2abd af00 64bd 53ea cf3d ffb7 023d
00000040: e1d9 313c 91e3 bd3d 8e88 273e 42a3 6a3c
00000050: d3ac 4fbd 6ad5 f53d dfa0 c9bd 1256 87bd
00000060: fa39 0c3d f146 86bd 15ba 9fbd f190 f03d
00000070: 9c54 ed3c d306 8ebd 0b64 cb3d 2e97 d73d
00000080: b0d8 4dbc 5fd1 b03d 1b2c 713d 2721 5c3d
00000090: 0228 b7bd 9ed5 cabd 8a8c 31bd f57e 8f3c
000000a0: 2f02 b2bd a101 a9bd de30 12bd 8308 013d
000000b0: d89b 60bc 9b7f cabd d148 eb3c 0e34 2cbc
000000c0: 751f 95bd 15de 923d 139c 1f3d 9cb2 9f3d
000000d0: 0f5d de3d 3901 393d 493c 00bd 626d 2ebc
000000e0: d19e 893d 4b4d 11bd 1df1 ee3c 3f49 023e
000000f0: 9463 323b 37bb 323d dfc3 bb3c 032d 8d3d
00000100: fef6 8cbd cf52 0c3e bbd7 1dbd 61cc 133d
00000110: 3d79 0cbe bbca 9d3d cf47 13bd 6f61 1abd
00000120: a0ff a2bd b4dd af3c 0072 6d3d 4f66 233d
00000130: da01 9fbd 98b2 273d 726a 49bd 42d2 9e3d
00000140: 4b88 1b3e c308 e4bd 727d 993d e99d 4bbd
00000150: b480 523d 76b0 e5bc 5ab0 a03c 502d 61bd
00000160: e890 a93d 3a49 443d 6a80 d4bd 9a8d b2bd
00000170: 81dd ca3d 9a62 aabd f0a5 603d 3183 d3bc
00000180: 2a76 babd de21 ab3d 00b8 13bd 5820 32bd
00000190: b8ea 853d f834 923d 1801 083e 722d fc3d
000001a0: ead4 4f3d 985e 38bd 21f0 8a3c 3ebe ba3d
000001b0: 2bc3 91bd dd9b aa3d b89b ae3c d2b7 8c3d
000001c0: 5522 e53c 6e58 9fbd d4ce 183d 7df1 a73c
000001d0: 7c94 083d fb8d 16bd a2e4 8a3d 5fd6 b63c
000001e0: 5307 0c3d ac95 cdbd 7e9b 123e 107e bbbd
000001f0: 439c b03d 5834 ab3d bcf6 bb3c 3c7e b6bd

net.2.weight f4 [128, 128]
-0.09292766 -0.17872539 -0.029763535 0.069455355 0.040424827 0.11414986 0.22577873 0.02196877
-0.049055688 0.13054192 0.031640865 0.03199402 0.07588233 -0.15547544 -0.03169558 0.05871007
0.061528716 -0.0225761 0.15764832 -0.13342088 -0.004747893 0.054486025 -0.0049588615 0.095382966
-0.05260132 0.004108149 0.035606474 -0.22026533 -0.03491314 -0.10149535 0.118575595 0.24378207
-0.0727044 0.028099073 0.14327809 0.12946668 -0.08484912 -0.19577265 -0.09545024 -0.010430911
-0.030348284 -0.059720173 0.24262428 0.07644044 0.0061375448 0.008554503 -0.0013815005 0.013238284
-0.088922516 -0.03266666 0.0045243064 0.08664967 -0.08545457 0.022485893 0.06150589 -0.06339632
-0.09749665 -0.0034154255 0.0011182417 -0.06573151 -0.10724301 -0.004966009 0.20344014 0.022626968
-0.022426967 0.01605578 -0.09903681 -0.20891838 -0.37694708 0.17938454 -0.11083678 0.064119525
-0.07215229 -0.002987388 0.048410576 0.05305055 0.021889737 0.12998901 0.10179576 -0.04001051
-0.14786804 -0.055081625 -0.112702236 0.03030469 -0.022220207 -0.07974719 -0.0077494015 -0.16264802
-0.0327588 0.06543109 0.17327343 -0.08260604 0.060625825 -0.007823993 0.05352831 0.13801001
-0.10137149 -0.07961803 -0.049427427 0.024901822 -0.19882737 -0.0461373 0.0054028584 -0.041130047
0.17982712 0.12072445 0.13948792 0.078693315 0.019467061 0.12410482 -0.19472337 0.09973434
-0.0042513506 -0.06339913 -0.101767205 0.051609844 -0.035926417 -0.08337682 -0.06444849 0.068555996
-0.09030113 0.022193536 0.15768148 -0.079112485 -0.14167158 0.024615051 0.039883725 0.16080515
-0.028799832 0.1297023 0.06580518 -0.03293332 0.08971694 -0.027651126 -0.0437253 -0.035127327
0.107595615 0.04185539 0.1071535 -0.029044168 0.06927075 0.07314933 0.0055755894 0.031705637
-0.003051227 -0.040778667 0.11277559 -0.09428273 -0.04862761 0.1356666 0.12515208 -0.041490756
0.013610898 0.010447599 0.14454529 -0.043889534 -0.0070737395 0.05894262 0.08946187 0.0030820959
0.008204581 0.065684676 -0.005375001 0.10905593 0.047503665 -0.022401463 -0.015405074 0.11685797
0.09643842 -0.0020175513 -0.016121164 0.11032469 0.021721277 -0.047138475 0.15950944 0.072478004
0.051701516 0.04674732 0.11874344 0.10715546 0.04500501 0.11381717 -0.017254446 0.21548772
0.07716682 0.15032277 -0.008434905 -0.19834742 -0.09065722 -0.050993726 0.09605921 0.17672601
0.038915202 -0.025335107 -0.048798013 -0.00026369165 0.029617166 0.12921925 0.082800925 0.10106062
0.07466737 0.07192352 0.02248312 0.073675305 0.056985553 0.118869536 0.046717647 0.018562071
0.18633628 0.16013643 0.043845467 0.008686969 0.026434548 0.07590306 -0.0052639605 0.078907914
0.017984672 0.047354035 -0.018842263 0.04574995 0.058729228 -0.0015894605 0.10168842 0.14563784
0.05846289 -0.005196272 0.024695465 0.11948035 0.0598236 -0.06761348 0.009040842 0.074494645
-0.04733857 -0.016725196 -0.0094718905 -0.0037936843 0.005789166 0.12998588 -0.049581215 0.12465519
-0.057961453 0.006965279 -0.07974331 0.087077774 -0.033872902 0.017257726 0.005559359 0.041221175
0.08685058 0.09528748 0.14359131 0.069355465 -0.033702314 0.09801963 0.07519286 0.1266404
00000000: db50 bebd ca03 37be a8d2 f3bc 9c3e 8e3d
00000010: 8194 253d 67c7 e93d 8a32 673e daf7 b33c
00000020: 9eee 48bd c8ac 053e da99 013d 290c 033d
00000030: 3268 9b3d f434 1fbe 39d3 01bd f879 703d
00000040: 8905 7c3d 83f1 b8bc 906e 213e 7c9f 08be
00000050: 3794 9bbb bd2c 5f3d f27d a2bb 2558 c33d
00000060: 7b74 57bd a79d 863b 18d8 113d 3c8d 61be
00000070: 1501 0fbd cbdc cfbd c3d7 f23d 02a2 793e
00000080: 0be6 94bd 0730 e63c 7eb7 123e ea92 043e
00000090: 60c5 adbd a078 48be 6a7b c3bd 69e6 2abc
000000a0: f79c f8bc 249d 74bd 8072 783e ce8c 9c3d
000000b0: 751d c93b 3028 0c3c 7713 b5ba 63e5 583c
000000c0: 021d b6bd 7acd 05bd a240 943b 6275 b13d
000000d0: ce02 afbd 5634 b83c 9aed 7b3d eed5 81bd
000000e0: 53ac c7bd 55d5 5fbb f791 923a 3e9e 86bd
000000f0: 39a2 dbbd e7b9 a2bb 9d52 503e 315c b93c
00000100: c2b8 b7bc 6987 833c d0d3 cabd b3ee 55be
00000110: 35ff c0be 95b0 373e 65fe e2bd 1951 833d
00000120: 94c4 93bd 0ec8 43bb 2b4a 463d 894b 593d
00000130: 1b52 b33c d71b 053e 4c7a d03d 0fe2 23bd
00000140: b86a 17be 459d 61bd 6ed0 e6bd 8b41 f83c
00000150: 2707 b6bc 7f52 a3bd b1ee fdbb 348d 26be
00000160: 172e 06bd bc00 863d 976e 313e 5b2d a9bd
00000170: c952 783d 3530 00bc 8040 5b3d 7f52 0d3e
00000180: db9b cfbd c70e a3bd 6a74 4abd e8fe cb3c
00000190: 6799 4bbe 77fa 3cbd 760a b13b fb77 28bd
000001a0: 9a24 383e 613e f73d ecd5 0e3e f629 a13d
000001b0: 6379 9f3c ab2a fe3d 9065 47be 8541 cc3d
000001c0: ea4e 8bbb 67d7 81bd 536b d0bd d864 533d
000001d0: 9427 13bd 77c1 aabd 92fd 83bd 1667 8c3d
000001e0: cdef b8bd 38cf b53c 4177 213e ba05 a2bd
000001f0: 5b12 11be 81a5 c93c 1e5d 233d 1baa 243e
00000200: a0ed ebbc aed0 043e dec4 863d 17e5 06bd
00000210: 84bd b73d 9d84 e2bc 4d19 33bd ace1 0fbd
00000220: 175b dc3d 8f70 2b3d 4b73 db3d 09ee edbc
00000230: d3dd 8d3d 51cf 953d 6fb3 b63b c5dd 013d
00000240: 18f7 47bb 8807 27bd e3f6 e63d 4e17 c1bd
00000250: bf2d 47bd 2fec 0a3e de27 003e 36f2 29bd
00000260: 3e00 5f3c 682c 2b3c ae03 143e 83c5 33bd
00000270: d4ca e7bb d16d 713d c937 b73d fdfc 493b
00000280: 826c 063c b085 863d c720 b0bb b758 df3d
00000290: 3493 423d 4683 b7bc 9065 7cbc 3b53 ef3d
000002a0: 8281 c53d e538 04bb 8810 84bc e9f1 e13d
000002b0: d2f0 b13c 4614 41bd 7156 233e 596f 943d
000002c0: f8c4 533d 1e7a 3f3d c32f f33d 5274 db3d
000002d0: 2c57 383d fa18 e93d 3259 8dbc d0a8 5c3e
000002e0: a309 9e3d 36ee 193e 8e32 0abc 961b 4bbe
000002f0: 7eaa b9bd ccde 50bd b1ba c43d aaf7 343e
00000300: 8c65 1f3d 928b cfbc 6de0 47bd 1840 8ab9
00000310: b39f f23c 0d52 043e 8893 a93d dff8 ce3d
00000320: 35eb 983d a34c 933d 852e b83c 14e3 963d
00000330: af69 693d df71 f33d 015b 3f3d 7c0f 983c
00000340: f0ce 3e3e cefa 233e 4e97 333d ca53 0e3c
00000350: 448d d83c 1073 9b3d 4d7d acbb 799a a13d
00000360: 9754 933c 4ef6 413d 175b 9abc 4d64 3b3d
00000370: 0f8e 703d 7255 d0ba 0542 d03d 1622 153e
00000380: c976 6f3d 7d45 aabb 254e ca3c 1db2 f43d
00000390: 9709 753d f078 8abd 0a20 143c a690 983d
000003a0: 17e6 41bd 4703 89bc fd2f 1bbc 769f 78bb
000003b0: 0bb3 bd3b 051b 053e ac15 4bbd 384b ff3d
000003c0: fd68 6dbd ff3c e43b 7650 a3bd d555 b23d
000003d0: 50be 0abd 1360 8d3c 492b b63b 89d7 283d
000003e0: b8de b13d 1526 c33d 9a09 133e 3d0a 8e3d
000003f0: 700b 0abd 84be c83d b7fe 993d 05ae 013e

net.2.bias f4 [128]
0.011987847 0.008523167 0.102183305 0.11037874 0.05958684 0.04126239 0.089197636 -0.042944767
-0.023021337 0.09554617 0.15051812 -0.024437752 0.15935521 0.00521628 0.04973898 -0.019284884
0.06634735 0.17169513 -0.032001242 0.14064471 0.10108109 0.025447622 0.012904341 -0.03803197
0.1085675 0.062182683 -0.0836727 0.05761064 0.1344782 0.06523793 0.04503337 0.06570777
-0.048586447 -0.07689272 0.16714175 0.026495347 0.002930723 0.1022118 0.07448316 0.09231066
0.045035563 0.06800945 0.017960768 -0.035352424 0.0945947 0.033840474 0.13624784 0.07697
0.1277638 -0.050300464 0.119480334 0.034443326 0.010266552 0.15655588 0.0047730557 0.09548598
-0.03709434 -0.05960045 0.05950302 0.075460844 0.07328827 0.04347232 -0.040623236 0.018404583
0.05912164 -0.0764901 0.059695844 -0.0024941075 0.01687204 -0.030006493 0.10985092 -0.06037922
0.047388144 -0.044507608 -0.061710373 0.10182575 -0.06312098 0.008846283 0.10895171 -0.087287255
0.104733974 0.03820319 -0.05593279 0.09951381 0.122175634 0.02416526 0.010089708 0.10980045
0.017448869 0.024450341 0.035463143 0.027366448 0.029363493 -0.03346299 -0.04725903 0.010745414
0.023433015 0.030313801 -0.024121866 -0.003493182 0.0027193488 0.032676175 0.045060866 -0.051423524
0.059125002 0.014865426 0.09429622 0.04887725 0.026073143 0.014487171 0.07851681 0.057527773
0.1500889 0.092876814 0.051841166 -0.046481863 0.074398465 0.010715521 0.0557754 -0.0017980403
0.14634635 0.1018772 0.07845265 0.10014378 0.13754739 -0.004599638 0.031673282 0.14168574
00000000: ad68 443c c1a4 0b3c 7b45 d13d 400e e23d
00000010: 5511 743d c002 293d 40ad b63d dae6 2fbd
00000020: 3e97 bcbc b6ad c33d 6c21 1a3e ae31 c8bc
00000030: 032e 233e 54ed aa3b 1abb 4b3d 55fb 9dbc
00000040: 1fe1 873d d9d0 2f3e bc13 03bd 2b05 103e
00000050: 9a03 cf3d 8877 d03c bb6c 533c 69c7 1bbd
00000060: a358 de3d 45b3 7e3d 985c abbd 22f9 6b3d
00000070: a7b4 093e 779b 853d e974 383d cc91 863d
00000080: 9502 47bd ee79 9dbd 3527 2b3e c50c d93c
00000090: 5f11 403b 6c54 d13d a18a 983d 5f0d bd3d
000000a0: 3677 383d 8a48 8b3d 7622 933c b4cd 10bd
000000b0: deba c13d 4f9c 0a3d 8e84 0b3e 73a2 9d3d
000000c0: 83d4 023e dc07 4ebd 1bb2 f43d 7214 0d3d
000000d0: 0a35 283c 2f50 203e 4b67 9c3b 278e c33d
000000e0: 3cf0 17bd 9a1f 74bd 70b9 733d 378b 9a3d
000000f0: 2918 963d 0810 323d 8d64 26bd 35c5 963c
00000100: 8829 723d d7a6 9cbd a183 743d 2e74 23bb
00000110: 3c37 8a3c 2dd0 f5bc 85f9 e03d 3350 77bd
00000120: 121a 423d 9c4d 36bd 04c4 7cbd 058a d03d
00000130: 9345 81bd 00f0 103c 1322 df3d a9c3 b2bd
00000140: c47e d63d f37a 1c3d c819 65bd e5cd cb3d
00000150: 3837 fa3d 39f6 c53c 4d4f 253c 0fdf e03d
00000160: eef0 8e3c 154c c83c cd41 113d 9a2f e03c
00000170: b58b f03c 7d10 09bd af92 41bd 880d 303c
00000180: 98f6 bf3c a654 f83c 389b c5bc deed 64bb
00000190: 1a37 323b 74d7 053d be91 383d 79a1 52bd
000001a0: 0f2d 723d 1e8e 733c 601e c13d 8333 483d
000001b0: 5897 d53c 995b 6d3c 6ccd a03d 3ea2 6b3d
000001c0: e8b0 193e 3336 be3d 6757 543d c463 3ebd
000001d0: 395e 983d 2790 2f3c bf74 643d 39ac ebba
000001e0: d1db 153e fea4 d03d c8ab a03d 2f18 cd3d
000001f0: 39d9 0c3e 8fb8 96bb d8bb 013d 1116 113e

net.4.weight f4 [15, 128]
0.3036279 0.052449156 0.0565812 -0.12592499 0.058833264 -0.38374284 -0.21980484 0.06274414
0.08784657 0.05932243 -0.3711742 0.22447972 -0.42911422 0.122113064 0.029679958 0.12738225
0.03400328 -0.3902133 -0.12296405 -0.22206698 0.084436685 0.1305582 0.11740067 0.13210541
0.066157155 0.1497282 0.21920729 0.11687678 0.059732478 -0.0002847373 -0.2677901 -0.30050975
-0.016442744 -0.062163334 -0.35225153 0.093842946 0.09121172 0.11856354 -0.25592136 0.086016536
0.101287775 0.09263489 0.08421421 0.3026889 0.07865328 0.056381706 -0.39963585 -0.00045017627
-0.22924587 0.14368589 0.022214578 -0.06579166 -0.28810343 0.119132206 -0.24451244 0.099878564
0.088666566 -0.23925361 0.116519876 -0.25206727 0.100792795 0.029538678 0.1932384 0.00081048004
0.10057782 0.113797456 0.074212044 0.073422134 0.056480784 0.16878332 -0.0045454195 0.12981685
-0.36806107 0.05284139 0.28706154 -0.17023896 -0.06635407 0.07403065 0.09474784 0.040364098
-0.0008962638 0.102157354 0.12899095 0.10979906 0.091431625 0.13949211 0.028840998 0.06666013
0.14698498 0.17677091 0.05198751 0.15076667 0.08795331 0.14877844 -0.19282171 0.14044504
-0.3212824 -0.32727012 -0.11864267 0.14059268 -0.080955625 0.11195356 0.14031322 -0.22568804
0.1286654 0.13990264 0.09657099 0.050756477 0.080162145 -0.12987642 -0.21314421 0.047186088
0.11273522 0.10462217 0.084916316 0.054895286 0.02186199 -0.17041568 0.15547653 0.12986533
0.09602939 0.04991979 -0.3026557 -0.004809397 -0.2938858 0.081708826 0.02032161 0.103150845
0.24960764 0.1465084 0.019982012 -0.037598148 0.1073398 -0.32115242 -0.23000377 0.079825275
0.10492059 0.15033823 -0.37913308 0.07600364 -0.27469778 0.15013646 0.11718085 0.07172205
0.117692046 -0.40247226 -0.23545311 -0.2800377 0.028096715 0.022796474 0.061758533 0.15507294
0.026145443 0.09838556 0.14260058 0.18001597 0.0864442 -0.023610638 -0.26328176 -0.37321833
0.16179718 -0.042330686 -0.27797464 0.06412612 0.14936005 0.008322466 -0.27935806 0.08365318
0.017519195 0.08432914 0.09924255 0.2692501 0.04886424 0.067416444 -0.37731737 0.1109285
-0.234831 0.19280991 0.103904255 -0.07694137 -0.19955705 0.098207995 -0.2043489 0.09102784
0.15139854 -0.15337561 0.0026386047 -0.27226183 0.07748943 0.02932863 0.22960141 0.048492346
0.070292056 0.10368484 0.088294186 0.10722899 0.13296443 -0.038368516 0.029645601 -0.023706052
-0.4836365 0.14658536 0.30062327 -0.44265658 -0.033778332 0.1950385 0.14821431 0.049526222
0.10033765 -0.016511396 0.04093935 0.10647466 0.0086904885 0.1320056 -0.050307725 0.008802366
0.091961816 0.111996874 0.0433814 0.050231762 0.09390718 0.18224147 -0.21571836 0.17208967
-0.35090846 -0.26235613 -0.09550369 0.17996143 0.0022501568 0.07676418 0.07769972 -0.14095992
0.1181063 0.06796851 0.023675105 0.17570026 0.092683256 0.09027332 -0.23923586 0.009149363
0.10563161 0.06762031 0.1778343 0.033403173 0.06343386 -0.098501675 0.041871123 -0.0008273223
0.08585935 -0.0008856833 -0.3326463 0.08814859 -0.31476793 0.034226067 0.03985559 0.006046025
00000000: 1e75 9b3e edd4 563d b0c1 673d 7bf2 00be
00000010: 26fb 703d f179 c4be 8514 61be 0080 803d
00000020: e7e8 b33d 14fc 723d 8b0a bebe 03de 653e
00000030: dcb4 dbbe 6a16 fa3d 6223 f33c 7e70 023e
00000040: 0647 0b3d 0aca c7be 93d4 fbbd 8765 63be
00000050: 24ed ac3d 0cb1 053e c36f f03d a446 073e
00000060: 677d 873d 5952 193e e077 603e 185d ef3d
00000070: 0baa 743d cb48 95b9 c91b 89be 6adc 99be
00000080: efb2 86bc fb9e 7ebd 505a b4be bb30 c03d
00000090: 36cd ba3d 71d1 f23d 2008 83be 7029 b03d
000000a0: f76f cf3d 5cb7 bd3d 8078 ac3d 0afa 9a3e
000000b0: f914 a13d 81f0 663d 129d ccbe a305 ecb9
000000c0: 6ebf 6abe 6522 133e 59fb b53c c7bd 86bd
000000d0: 4b82 93be 96fb f33d 7861 7abe 228d cc3d
000000e0: d196 b53d e6fe 74be f9a1 ee3d f60e 81be
000000f0: 746c ce3d 19fb f13c 4ae0 453e 6576 543a
00000100: befb cd3d a40e e93d 7cfc 973d 585e 963d
00000110: 6558 673d 89d5 2c3e bef1 94bb b5ee 043e
00000120: 8072 bcbe 3770 583d bbf9 923e 1f53 2ebe
00000130: a5e4 87bd 629d 973d 280b c23d d354 253d
00000140: 3ff3 6aba e037 d13d 3416 043e 54de e03d
00000150: 8140 bb3d 05d7 0e3e f543 ec3c 1b85 883d
00000160: 3b83 163e 6f03 353e dbf0 543d 9462 1a3e
00000170: dd20 b43d 6059 183e 0e73 45be d3d0 0f3e
00000180: 207f a4be f38f a7be eefa f2bd 87f7 0f3e
00000190: 10cc a5bd e847 e53d 45ae 0f3e c41a 67be
000001a0: ddc0 033e a342 0f3e 03c7 c53d 06e6 4f3d
000001b0: 0d2c a43d 53fe 04be 7a42 5abe 3346 413d
000001c0: b9e1 e63d 2644 d63d 9be8 ad3d e1d9 603d
000001d0: eb17 b33c 7381 2ebe 3d35 1f3e 6bfb 043e
000001e0: 0fab c43d b278 4c3d b0f5 9abe 2598 9dbb
000001f0: 3378 96be f556 a73d 8179 a63c c040 d33d
00000200: 2599 7f3e 4c06 163e 51b1 a33c 8400 1abd
00000210: f8d4 db3d 176e a4be 1c86 6bbe 6f7b a33d
00000220: 9be0 d63d 44f2 193e bb1d c2be cca7 9b3d
00000230: 30a5 8cbe 5fbd 193e 83fc ef3d 03e3 923d
00000240: 8708 f13d d810 cebe 9f1a 71be 1a61 8fbe
00000250: 152b e63c acbf ba3c 84f6 7c3d 71cb 1e3e
00000260: f82e d63c 5e7e c93d e305 123e 1b56 383e
00000270: a809 b13d 196b c1bc decc 86be 7916 bfbe
00000280: 29ae 253e f162 2dbd b152 8ebe 8e54 833d
00000290: d7f1 183e f45a 083c 0508 8fbe 5c52 ab3d
000002a0: 6a84 8f3c c2b4 ac3d ae3f cb3d 26db 893e
000002b0: df25 483d a211 8a3d be2f c1be 7b2e e33d
000002c0: 8a77 70be f66f 453e c1cb d43d 7093 9dbd
000002d0: af58 4cbe 4621 c93d d740 51be ce6c ba3d
000002e0: 3808 1b3e 7f0e 1dbe 71ec 2c3b e765 8bbe
000002f0: c7b2 9e3d 9842 f03c a21c 6b3e e99f 463d
00000300: 48f5 8f3d b858 d43d 95d3 b43d df9a db3d
00000310: d427 083e 4e28 1dbd 55db f23c 3233 c2bc
00000320: 349f f7be 791a 163e 4beb 993e e2a3 e2be
00000330: 265b 0abd 2cb8 473e 7ec5 173e 02dc 4a3d
00000340: d37d cd3d e842 87bc 05b0 273d 630f da3d
00000350: 8d62 0e3c 7a2c 073e 790f 4ebd cd37 103c
00000360: 7a56 bc3d 9e5e e53d b2b0 313d d2bf 4d3d
00000370: 6852 c03d 829d 3a3e 46e5 5cbe 4638 303e
00000380: 46aa b3be 8b53 86be 7097 c3bd cf47 383e
00000390: 5e77 133b 8a36 9d3d 0821 9f3d cc57 10be
000003a0: b7e1 f13d 1333 8b3d 4bf2 c13c c5ea 333e
000003b0: b8d0 bd3d 38e1 b83d 3ffa 74be 36e7 153c
000003c0: 6355 d83d 847c 8a3d 321a 363e c4d1 083d
000003d0: 9de9 813d 3fbb c9bd 0e81 2b3d a9e0 58ba
000003e0: 07d7 af3d 332d 68ba 9e50 aabe 3f87 b43d
000003f0: 4329 a1be a230 0c3d 9d3f 233d bc1d c63b

net.4.bias f4 [15]
-0.01873721 0.11410565 0.02649766 0.0042880205 0.032539506 0.06607773 0.077969916 -0.025722668
0.067830965 0.09479242 0.045495987 0.08422875 0.04449693 0.06752442 0.029094879
00000000: c77e 99bc 39b0 e93d 9f11 d93c 8682 8c3b
00000010: 2548 053d c353 873d b1ae 9f3d 58b8 d2bc
00000020: f6ea 8a3d 8722 c23d 005a 3a3d 1f80 ac3d
00000030: 6a42 363d 3e4a 8a3d 6258 ee3c

net.0.weight f4 [128, 77]
1.6407003 0.043333635 -0.09931863 -0.06782983 -0.05345888 0.03470698 0.0064331614 0.04467716
-0.057823353 0.108456485 0.05162286 -0.005384907 -0.0628818 -0.051363938 0.057636235 0.037097465
0.048332438 0.085114755 -0.07208743 -0.06742656 0.023592895 0.074819535 -0.010465875 0.062091492
-0.040221468 0.0714087 0.08636033 -0.16030236 -0.016258223 0.04873547 -0.0073938756 0.065435626
-0.008031865 0.007458597 -0.0398913 -0.08513697 -0.030917896 0.11300026 0.033051632 0.0374339
-0.01938456 -0.07592351 0.0028952013 -0.09892978 -0.027001383 -0.03763798 0.015172758 0.0620865
0.018576048 -0.011874751 0.07414521 0.12891741 0.030864604 0.035424117 0.05807071 -0.028509395
0.04029876 -0.106155366 -0.09678559 -0.052159954 0.055409804 0.0322703 -0.12931284 0.05312547
0.07586139 -0.032576934 0.13215657 0.048525672 0.02953041 0.11811274 -0.015280817 -0.021380348
0.07186822 0.12451262 0.09993651 0.113649465 0.004879853 1.1777931 0.016728852 -0.044897337
0.033237547 0.097300634 0.073072135 -0.15262759 0.02729373 -0.019374948 -0.06012289 -0.06869831
0.12024632 0.0110728955 -0.021879308 0.07491152 -0.0037076648 0.035374682 -0.10925567 -0.04974603
0.063147716 0.030097272 -0.08917112 0.027044814 0.1617846 0.118448235 -0.23092021 0.012913602
-0.05721008 0.0037142795 -0.021631824 -0.042288892 0.11115622 -0.043381892 0.030887727 -0.0032108247
-0.070199534 0.066765614 0.065210484 -0.08985562 -0.022117693 -0.031706095 0.087164134 0.06750438
0.10941955 -0.14365286 -0.047291875 0.1237913 -0.13567513 -0.08697841 -0.0004532211 -0.0029176525
-0.027553394 0.010549237 -0.046870437 0.03643303 -0.06992996 0.033780918 0.08782417 -0.0054698996
-0.045845386 0.05409222 0.11252717 0.13319181 -0.02709536 -0.014649362 0.26059425 0.012431786
-0.12526515 -0.0047309706 0.10411785 -0.040238775 -0.016306218 -0.07035965 -0.100727476 -0.0783072
-0.026403299 0.06874215 2.3097904 -0.09382123 0.071334496 -0.049489073 0.011313812 -0.0495689
0.031800333 -0.0057565803 -0.050335478 -0.042225234 -0.014600194 0.04753657 -0.042590193 0.020479118
-0.064469226 0.023215815 0.10925845 -0.045384847 0.10543505 0.057356875 -0.086758986 0.096430734
0.01283501 -0.03768215 0.065022565 -0.042231977 0.035614293 0.0064303554 0.09597387 0.04423762
0.1055036 0.027900228 -0.024873037 0.0013644412 -0.07789374 0.07351635 0.099098526 0.10293559
-0.06429933 0.021168217 -0.054432586 -0.023610981 -0.049282588 0.03253471 -0.019006548 0.0151819615
0.02474027 0.060678154 -0.030180238 0.021760618 -0.06633108 0.047203727 -0.031169077 0.108501375
0.050298847 0.041686647 0.03110774 -0.0064420113 0.030383915 0.037907217 -0.0015016235 0.02461723
-0.080572166 -0.00021994306 0.12624533 -0.0676843 -0.04566302 0.13276513 0.16042258 -0.04200404
-0.121807255 0.08402525 -0.10361721 -0.027122399 -0.0139953075 0.031133225 0.017332342 0.8897729
0.04307844 0.02433055 0.051106732 0.010864205 -0.017955113 -0.041057624 -0.028214037 -0.013101641
-0.01868041 0.013483763 -0.02564599 -0.027589425 -0.042730626 -0.09106677 0.07069467 -0.003718402
0.00042513298 0.005067751 -0.031168645 0.043913823 0.039663162 -0.008302025 -0.037256397 -0.023776589
00000000: 7802 d23f 9c7e 313d 9167 cbbd 5eea 8abd
00000010: b3f7 5abd e828 0e3d 45cd d23b 66ff 363d
00000020: 2ed8 6cbd 6f1e de3d 7e72 533d e073 b0bb
00000030: 2cc8 80bd fe62 52bd f913 6c3d 83f3 173d
00000040: 3cf8 453d a550 ae3d 93a2 93bd f016 8abd
00000050: e345 c13c fc3a 993d 1079 2bbc a653 7e3d
00000060: 44bf 24bd b93e 923d afdd b03d 4d26 24be
00000070: f72f 85bc d89e 473d 5348 f2bb 1d03 863d
00000080: 1598 03bc 3f67 f43b 0f65 23bd 4b5c aebd
00000090: 8747 fdbc ae6c e73d 2661 073d 4a54 193d
000000a0: 5ecc 9ebc c97d 9bbd 6bbd 3d3b b29b cabd
000000b0: 0132 ddbc 482a 1abd 2997 783c 6a4e 7e3d
000000c0: cc2c 983c 518e 42bc 72d9 973d ed02 043e
000000d0: c4d7 fc3c e118 113d 8edb 6d3d 898c e9bc
000000e0: 5010 253d fc67 d9bd 8637 c6bd ada5 55bd
000000f0: 64f5 623d dd2d 043d 966a 04be 189a 593d
00000100: 375d 9b3d 646f 05bd 0d54 073e dbc2 463d
00000110: c2e9 f13c 18e5 f13d 645c 7abc d725 afbc
00000120: a52f 933d 7900 ff3d 83ab cc3d 0dc1 e83d
00000130: 2de7 9f3b edc1 963f f20a 893c 45e6 37bd
00000140: 1824 083d 8e45 c73d d8a6 953d 684a 1cbe
00000150: 1a97 df3c 36b8 9ebc 6b43 76bd b3b1 8cbd
00000160: b443 f63d 176b 353c 3c3c b3bc 366b 993d
00000170: 4bfc 72bb 0be5 103d 70c1 dfbd 7ec2 4bbd
00000180: 9753 813d 8e8e f63c 599f b6bd 168d dd3c
00000190: ddaa 253e fd94 f23d 5976 6cbe 9393 533c
000001a0: 1e55 6abd 456b 733b 3935 b1bc 1e37 2dbd
000001b0: dfa5 e33d 36b1 31bd 4208 fd3c b36c 52bb
000001c0: c6c4 8fbd 69bc 883d 138d 853d 3906 b8bd
000001d0: 2a30 b5bc 40de 01bd 1c83 b23d bd3f 8a3d
000001e0: 5b17 e03d bc19 13be 20b5 41bd 4b86 fd3d
000001f0: 6cee 0abe bd21 b2bd 4e9e edb9 1636 3fbb
00000200: a8b7 e1bc b5d6 2c3c 37fb 3fbd cd3a 153d
00000210: 7037 8fbd dc5d 0a3d 29dd b33d d83c b3bb
00000220: 5fc8 3bbd ce8f 5d3d a574 e63d 6f63 083e
00000230: 17f7 ddbc e103 70bc 9c6c 853e b1ae 4b3c
00000240: 8245 00be 4206 9bbb bd3b d53d 6ad1 24bd
00000250: 9e94 85bc b818 90bd 354a cebd 865f a0bd
00000260: bb4b d8bc afc8 8c3d 9bd3 1340 5825 c0bd
00000270: d217 923d 0eb5 4abd 915d 393c c208 4bbd
00000280: 1141 023d b2a1 bcbb 932c 4ebd 5ef4 2cbd
00000290: a735 6fbc b5b5 423d 0e73 2ebd d3c3 a73c
000002a0: 7108 84bd 182f be3c e5c2 df3d 76e5 39bd
000002b0: 55ee d73d 0bef 6a3d b2ae b1bd 7a7d c53d
000002c0: ef49 523c 9958 1abd 8d2a 853d 70fb 2cbd
000002d0: 4be0 113d bbb5 d23b f38d c43d 8232 353d
000002e0: 4512 d83d 058f e43c 8ac2 cbbc 0dd7 b23a
000002f0: c186 9fbd bd8f 963d 2bf4 ca3d e5cf d23d
00000300: 5eaf 83bd f868 ad3c b4f4 5ebd d16b c1bc
00000310: 8adc 49bd 1e43 053d 9fb3 9bbc c3bd 783c
00000320: 1bac ca3c a889 783d 8c3c f7bc 5343 b23c
00000330: 97d8 87bd b258 413d 4b56 ffbc f835 de3d
00000340: 2a06 4e3d 9ebf 2a3d a9d5 fe3c 8217 d3bb
00000350: b0e7 f83c 9944 1b3d 20d2 c4ba 13aa c93c
00000360: 0503 a5bd 84a0 66b9 7546 013e 119e 8abd
00000370: 2609 3bbd 95f3 073e d145 243e 6e0c 2cbd
00000380: 1576 f9bd 6e15 ac3d 4335 d4bd cb2f debc
00000390: 934c 65bc 1b0b ff3c 8efc 8d3c 28c8 633f
000003a0: 0573 303d dd50 c73c 4b55 513d c7ff 313c
000003b0: 9a16 93bc 0a2c 28bd 2021 e7bc 44a8 56bc
000003c0: a907 99bc 00eb 5c3c 8a17 d2bc 3803 e2bc
000003d0: 4f06 2fbd 3781 babd 5ec8 903d 6fb0 73bb
000003e0: 62e4 de39 600f a63b 6355 ffbc fbde 333d
000003f0: d775 223d 3705 08bc 2a9a 18bd 1fc7 c2bc

net.0.bias f4 [128]
-0.04161273 -0.04010494 -0.062086817 0.064733244 0.0017758711 -0.05580442 0.068402976 -0.045980792
0.020334272 0.0016676983 0.09970556 0.08863715 -0.041852355 -0.05603119 0.10180178 0.031061383
0.010867368 0.09306828 0.16363722 0.014373487 -0.05064968 0.11980261 -0.09848417 -0.06467474
0.034236155 -0.06587319 -0.07808784 0.117515124 0.028858438 -0.06920849 0.09918426 0.105422094
-0.01452604 0.08606797 0.059184175 0.053623334 -0.08932144 -0.09926545 -0.043336183 0.017433846
-0.08693279 -0.082753 -0.035824057 0.031396735 -0.013752691 -0.0988762 0.028674437 -0.010595594
-0.07277854 0.07162724 0.03883225 0.077131 0.10903262 0.04519574 -0.03102874 -0.009799643
0.06714031 -0.03577362 0.029268254 0.12696542 0.0028236094 0.04366777 0.022570863 0.06883813
-0.068560176 0.13710172 -0.038368326 0.035600707 -0.13695759 0.0773041 -0.03608523 -0.03799127
-0.079773225 0.021750493 0.05795577 0.039897814 -0.07718584 0.040840942 -0.048756205 0.077277884
0.15245554 -0.11121859 0.074964345 -0.049813647 0.051343758 -0.028038245 0.01897971 -0.055136535
0.08305648 0.047520995 -0.103577 -0.08695863 0.09893724 -0.08293822 0.05471175 -0.02597271
-0.09123084 0.08343125 -0.036962274 -0.043600325 0.06537277 0.0713533 0.13275133 0.12307959
0.050817393 -0.044163425 0.016758623 0.09128006 -0.07128762 0.08342544 0.021189334 0.069024734
0.028041614 -0.077862665 0.037900645 0.020517936 0.03337109 -0.03674352 0.0672526 0.021687279
0.03421238 -0.10017023 0.14292407 -0.09177367 0.08626266 0.08355951 0.022432808 -0.08879925
00000000: 1c72 2abd 1445 24bd bf4e 7ebd dd92 843d
00000010: 59c4 e83a 2d93 64bd dc16 8c3d 5b56 3cbd
00000020: 0f94 a63c ab96 da3a 6e32 cc3d 6587 b53d
00000030: 606d 2bbd f680 65bd 747d d03d 7174 fe3c
00000040: 0c0d 323c 959a be3d 8490 273e c67e 6b3c
00000050: 0a76 4fbd 125b f53d 12b2 c9bd 3174 84bd
00000060: 363b 0c3d 86e8 86bd 84ec 9fbd c5ab f03d
00000070: 8868 ec3c 2ebd 8dbd 1e21 cb3d 8ae7 d73d
00000080: a1fe 6dbc 6744 b03d 1b6b 723d 24a4 5b3d
00000090: 29ee b6bd af4b cbbd 4881 31bd 6dd1 8e3c
000000a0: d209 b2bd 687a a9bd 3fbc 12bd dd99 003d
000000b0: f852 61bc 9b7f cabd a7e6 ea3c 2499 2dbc
000000c0: ea0c 95bd 4db1 923d 910e 1f3d dcf6 9d3d
000000d0: 7f4c df3d 2b1f 393d fc2f febc af8e 20bc
000000e0: dc80 893d 5c87 12bd fac3 ef3c 3903 023e
000000f0: 4e0c 393b fadc 323d 88e6 b83c 01fb 8c3d
00000100: 4769 8cbd 6564 0c3e 1b28 1dbd 0cd2 113d
00000110: 9c3e 0cbe 9d51 9e3d 1bce 13bd bc9c 1bbd
00000120: 2560 a3bd 172e b23c 0863 6d3d e46b 233d
00000130: 9c13 9ebd d548 273d 96b4 47bd de43 9e3d
00000140: 4e1d 1c3e 92c6 e3bd e886 993d 6509 4cbd
00000150: d54d 523d 76b0 e5bc 567b 9b3c d9d6 61bd
00000160: 8419 aa3d 60a5 423d 2e20 d4bd 5e17 b2bd
00000170: 9c9f ca3d 83db a9bd 6e19 603d b9c4 d4bc
00000180: 3cd7 babd 01de aa3d c165 17bd 4196 32bd
00000190: 29e2 853d ae21 923d f7ef 073e 2711 fc3d
000001a0: e625 503d b5e4 34bd 6149 893c 0af1 ba3d
000001b0: 3eff 91bd f5da aa3d 4195 ad3c d75c 8d3d
000001c0: 87b7 e53c 7676 9fbd b53d 1b3d 3b15 a83c
000001d0: 20b0 083d 6080 16bd bbbb 893d 85a9 b13c
000001e0: 4822 0c3d 0d26 cdbd b05a 123e d5f3 bbbd
000001f0: 7aaa b03d 4021 ab3d 02c5 b73c 62dc b5bd

net.2.weight f4 [128, 128]
-0.09187764 -0.17890666 -0.028918602 0.0695994 0.04110675 0.113669135 0.22609758 0.022321155
-0.049054585 0.13030556 0.031849947 0.03206932 0.07525022 -0.15626127 -0.031642802 0.058116987
0.06219781 -0.022512987 0.15832265 -0.13258651 -0.0048222556 0.05462439 -0.0048467256 0.09579849
-0.052173622 0.0029758208 0.03560817 -0.21965474 -0.034823388 -0.10179565 0.11888408 0.24445619
-0.07178633 0.028130122 0.1434284 0.12907057 -0.08521715 -0.1944376 -0.0962718 -0.010380678
-0.030366497 -0.059424784 0.24293105 0.07686644 0.0065659066 0.008554503 -0.0016509638 0.013209413
-0.087588854 -0.032467745 0.0048519 0.08683884 -0.08589615 0.022787293 0.05938135 -0.06328262
-0.09810732 -0.0035476282 0.00034705014 -0.065757565 -0.10820295 -0.0050564283 0.20317143 0.023235459
-0.02138181 0.016520375 -0.09858954 -0.2094556 -0.37613875 0.1786102 -0.1101545 0.06419214
-0.07146566 -0.0029018018 0.048767485 0.053602044 0.022779044 0.12986463 0.101534136 -0.040680137
-0.14711118 -0.055299863 -0.11232265 0.030688284 -0.02239489 -0.07974719 -0.006468631 -0.16217098
-0.032347128 0.06515356 0.17362599 -0.08275487 0.06072527 -0.0073003657 0.053703427 0.13833714
-0.101102106 -0.079851575 -0.048282024 0.025241591 -0.19899951 -0.04598621 0.0053826943 -0.040813588
0.1806768 0.11915228 0.13826041 0.07860278 0.019919295 0.12364312 -0.1939952 0.09956091
-0.0034840973 -0.063658945 -0.09973387 0.05165918 -0.03555857 -0.0827953 -0.063592024 0.06800088
-0.09023076 0.023567209 0.15854473 -0.07854307 -0.14140075 0.025560068 0.039787844 0.16110122
-0.028731449 0.13037129 0.06598657 -0.031815432 0.08924462 -0.027455615 -0.043822628 -0.035123765
0.10799108 0.042463064 0.10721729 -0.028932171 0.06889383 0.07332583 0.004445497 0.031758323
-0.0027861083 -0.040720075 0.11297457 -0.093765706 -0.048583325 0.13578948 0.12514311 -0.041774474
0.013770674 0.010616484 0.14490564 -0.04371404 -0.0069427206 0.058904167 0.08959843 0.0026918198
0.009703138 0.06553043 -0.0050395727 0.10878673 0.047458537 -0.021618279 -0.0153025985 0.11692479
0.09654605 -0.0020041063 -0.01629579 0.110491395 0.021884847 -0.047138475 0.15967298 0.07276505
0.05217693 0.047161724 0.119262934 0.10635042 0.045209166 0.11416905 -0.019069595 0.21583235
0.077536926 0.15052561 -0.008275355 -0.19838853 -0.09212793 -0.051010314 0.096078 0.17689897
0.039180897 -0.025165174 -0.04901813 -0.00016518589 0.029517544 0.12903053 0.08298693 0.100740984
0.075194106 0.07221803 0.022689246 0.07389757 0.057740428 0.118992664 0.04736398 0.01791305
0.18642771 0.16021733 0.045336355 0.009042042 0.026039192 0.07590306 -0.0048168777 0.079167776
0.018124005 0.04728714 -0.017968029 0.04578606 0.05881259 -0.001216116 0.10129219 0.14537486
0.058545318 -0.0051896223 0.024778828 0.11936261 0.0604044 -0.06761248 0.008911265 0.0747769
-0.047526676 -0.017658066 -0.01000202 -0.0045450814 0.0061274203 0.12952554 -0.049601674 0.12492269
-0.05706258 0.006862301 -0.07919731 0.08711182 -0.033661082 0.017279025 0.0054327217 0.04175733
0.08692988 0.09546215 0.14355801 0.06971491 -0.0334541 0.09853198 0.07593793 0.12659489
00000000: 582a bcbd 4f33 37be b4e6 ecbc 218a 8e3d
00000010: 8d5f 283d 5dcb e83d 2086 673e dbda b63c
00000020: 76ed 48bd d26e 053e 1775 023d 1f5b 033d
00000030: ca1c 9a3d f402 20be e29b 01bd 140c 6e3d
00000040: 21c3 7e3d 286d b8bc 551f 223e c2c4 07be
00000050: 0304 9ebb d3bd 5f3d 48d1 9ebb 0032 c43d
00000060: 02b4 55bd fd05 433b dfd9 113d 2ced 60be
00000070: f8a2 0ebd 3d7a d0bd 7f79 f33d b952 7a3e
00000080: b604 93bd 2471 e63c e5de 123e 132b 043e
00000090: 5486 aebd a61a 47be 262a c5bd b813 2abc
000000a0: 29c3 f8bc 6767 73bd ebc2 783e 276c 9d3d
000000b0: d126 d73b 3028 0c3c 2765 d8ba 4b6c 583c
000000c0: c961 b3bd e6fc 04bd b0fc 9e3b 90d8 b13d
000000d0: 52ea afbd 6bac ba3c dc39 733d 519a 81bd
000000e0: 7eec c8bd 537f 68bb 48f4 b539 e7ab 86bd
000000f0: 8299 ddbd 65b0 a5bb 2c0c 503e 4a58 be3c
00000100: e828 afbc bd55 873c 50e9 c9bd 877b 56be
00000110: 4295 c0be 98e5 363e af98 e1bd 2b77 833d
00000120: 975c 92bd 282c 3ebb 6ac0 473d d18d 5b3d
00000130: 1e9b ba3c 3cfb 043e 21f1 cf3d 37a0 26bd
00000140: 50a4 16be 1c82 62bd 6b09 e6bd ff65 fb3c
00000150: 7d75 b7bc 7f52 a3bd cff6 d3bb 2610 26be
00000160: 6c7e 04bd 3b6f 853d 03cb 313e 637b a9bd
00000170: 10bb 783d e837 efbb 20f8 5b3d 40a8 0d3e
00000180: 9f0e cfbd 3989 a3bd 5fc3 45bd 74c7 ce3c
00000190: 87c6 4bbe 095c 3cbd 5061 b03b 262c 27bd
000001a0: 5703 393e 1c06 f43d 2394 0d3e 7ffa a03d
000001b0: ca2d a33c 9b38 fd3d ada6 46be 97e6 cb3d
000001c0: 7455 64bb 9f5f 82bd 4541 ccbd 9498 533d
000001d0: dda5 11bd 9590 a9bd 893c 82bd 0c44 8b3d
000001e0: e8ca b8bd 0510 c13c 8d59 223e 30db a0bd
000001f0: 5ccb 10be 5963 d13c 94f8 223d b8f7 243e
00000200: 375e ebbc 0d80 053e f823 873d e650 02bd
00000210: e2c5 b63d 99ea e0bc 5b7f 33bd f0dd 0fbd
00000220: 6d2a dd3d c0ed 2d3d bd94 db3d 2903 edbc
00000230: 3518 8d3d da2b 963d 88ab 913b 0415 023d
00000240: 2497 36bb 18ca 26bd 365f e73d 3c08 c0bd
00000250: 4fff 46bd 660c 0b3e 8425 003e b61b 2bbd
00000260: 659e 613c c3f0 2d3c 2562 143e 7e0d 33bd
00000270: c37f e3bb 7f45 713d 627f b73d 3e69 303b
00000280: e9f9 1e3c d134 863d 0023 a5bb 94cb de3d
00000290: e263 423d d118 b1bc c0b7 7abc 4476 ef3d
000002a0: efb9 c53d 5357 03bb c07e 85bc 5049 e23d
000002b0: da47 b33c 4614 41bd 5081 233e d805 953d
000002c0: 7ab7 553d a72c 413d 2040 f43d 40ce d93d
000002d0: 3f2d 393d 76d1 e93d d737 9cbc 2803 5d3e
000002e0: aecb 9e3d 6323 1a3e 5b95 07bc 5d26 4bbe
000002f0: 91ad bcbd 31f0 50bd 8bc4 c43d 0125 353e
00000300: 267c 203d 3227 cebc 3cc7 48bd c035 2db9
00000310: c7ce f13c 9420 043e 0df5 a93d 4a51 ce3d
00000320: 5eff 993d 0ce7 933d ccde b93c 9c57 973d
00000330: 3a81 6c3d 6db2 f33d bc00 423d 63be 923c
00000340: e8e6 3e3e 0310 243e 9db2 393d 1325 143c
00000350: 2550 d53c 1073 9b3d e6d6 9dbb b722 a23d
00000360: cb78 943c 29b0 413d b031 93bc 2a8a 3b3d
00000370: 78e5 703d 1566 9fba 4872 cf3d 26dd 143e
00000380: 37cd 6f3d b50d aabb f8fc ca3c 6274 f43d
00000390: 9b6a 773d 6978 8abd 8e00 123c a224 993d
000003a0: 55ab 42bd a6a7 90bc 83df 23bc e8ee 94bb
000003b0: 87c8 c83b 58a2 043e 202b 4bbd 78d7 ff3d
000003c0: 74ba 69bd 27dd e03b 3332 a2bd af67 b23d
000003d0: 34e0 09bd be8c 8d3c f904 b23b bc09 2b3d
000003e0: 4b08 b23d a981 c33d df00 133e b1c6 8e3d
000003f0: 2b07 09bd 22cb c93d 5885 9b3d 17a2 013e

net.2.bias f4 [128]
0.01206686 0.008552336 0.10189838 0.11065109 0.05919604 0.041617997 0.08923881 -0.04325562
-0.023337949 0.095178716 0.15019578 -0.024457473 0.15932493 0.0046511353 0.04966454 -0.019296994
0.065669514 0.17190373 -0.031803127 0.1411849 0.10083834 0.025219696 0.01249381 -0.037860315
0.10829244 0.062223345 -0.08348482 0.05709605 0.13421437 0.06509457 0.044383235 0.06636968
-0.04873356 -0.076448716 0.16681205 0.025954787 0.002683733 0.10215597 0.0744435 0.09213627
0.04456406 0.06814518 0.01827288 -0.03547576 0.094395444 0.033572063 0.13599716 0.07679477
0.12799647 -0.050483335 0.119354434 0.034415424 0.010134053 0.15631226 0.004630524 0.09614399
-0.036972888 -0.058602512 0.05909556 0.0750784 0.07301798 0.043534026 -0.040295534 0.01805022
0.058809955 -0.076452404 0.06003408 -0.0027683377 0.01671604 -0.029961117 0.10980144 -0.061118297
0.04725961 -0.04473173 -0.061357703 0.10205832 -0.06312098 0.008724809 0.10898394 -0.087287255
0.1046084 0.038168725 -0.055929024 0.09913818 0.12212488 0.024065971 0.010130926 0.11002542
0.017374597 0.025190463 0.035174623 0.027644612 0.029238036 -0.033563346 -0.04650271 0.010339972
0.0238179 0.030628365 -0.024373174 -0.0037502076 0.0027193488 0.03266048 0.045781936 -0.050812922
0.058851417 0.014573089 0.09418249 0.04864492 0.026107224 0.014833475 0.07851372 0.057644323
0.14980654 0.09256618 0.051699642 -0.04680197 0.07425909 0.011058793 0.055649437 -0.002232397
0.14597149 0.1018836 0.07850056 0.09986149 0.13735822 -0.0049905437 0.032586824 0.14139028
00000000: 14b4 453c 191f 0c3c 19b0 d03d 0a9d e23d
00000010: 8c77 723d a277 2a3d d6c2 b63d ce2c 31bd
00000020: 3a2f bfbc 0fed c23d eccc 193e 0a5b c8bc
00000030: 1326 233e 8d68 983b 0b6d 4b3d bb14 9ebc
00000040: bd7d 863d 8807 303e ff43 02bd c692 103e
00000050: 5584 ce3d 8999 ce3c d6b2 4c3c 6b13 1bbd
00000060: 6dc8 dd3d e8dd 7e3d 17fa aabd 8cdd 693d
00000070: 7e6f 093e 4d50 853d 32cb 353d d4ec 873d
00000080: d79c 47bd 2591 9cbd c7d0 2a3e 229f d43c
00000090: 91e1 2f3b 2637 d13d d575 983d f1b1 bc3d
000000a0: ce88 363d b38f 8b3d 02b1 953c 084f 11bd
000000b0: 6652 c13d dc82 093d d742 0b3e 9446 9d3d
000000c0: 8211 033e 9dc7 4ebd 1970 f43d 30f7 0c3d
000000d0: 4d09 263c 5210 203e a7bb 973b 24e7 c43d
000000e0: e270 17bd 3009 70bd 300e 723d b4c2 993d
000000f0: 738a 953d bc50 323d ee0c 25bd 0ede 933c
00000100: b5e2 703d 1493 9cbd 4ce6 753d 006d 35bb
00000110: 14f0 883c 0471 f5bc 94df e03d 2e57 7abd
00000120: 4b93 413d 9e38 37bd 3752 7bbd f403 d13d
00000130: 9345 81bd 80f2 0e3c f932 df3d a9c3 b2bd
00000140: ee3c d63d cf56 1c3d d515 65bd f508 cb3d
00000150: 9c1c fa3d 0026 c53c 2ffc 253c 0255 e13d
00000160: 2c55 8e3c 3b5c ce3c 4413 103d f476 e23c
00000170: 9b84 ef3c b879 09bd a079 3ebd fc68 293c
00000180: c21d c33c 56e8 fa3c 40aa c7bc 0bc6 75bb
00000190: 1a37 323b ffc6 053d d785 3b3d 3621 50bd
000001a0: 2f0e 713d f7c3 6e3c c0e2 c03d e53f 473d
000001b0: d1de d53c 1b08 733c cdcb a03d 741c 6c3d
000001c0: e366 193e 5693 bd3d 01c3 533d 6cb3 3fbd
000001d0: 2615 983d f12f 353c aaf0 633d 684d 12bb
000001e0: 8d79 153e 59a8 d03d e7c4 a03d 2e84 cc3d
000001f0: a2a7 0c3e b787 a3bb c379 053d 9dc8 103e
