ddqn_out/dqn_ep1250.pt (torch, 464501 bytes, 24 tensors)

net.0.weight f4 [128, 77]
0.6541782 0.058442567 -0.09884811 -0.08766203 -0.032889962 0.020322977 0.003902306 0.078909464
-0.024698153 0.08927331 -0.020910023 -0.036019128 -0.1047443 -0.098085985 -0.03244883 -0.003232979
0.045691464 0.065412894 -0.08071284 -0.05231646 0.038701568 0.08938199 -0.044889558 0.097562954
-0.03698417 0.03826601 0.08415393 -0.12329471 -0.017854583 -0.026682446 -0.0875394 0.07009001
-0.08524051 -0.053515837 -0.089310475 -0.10300559 -0.07378877 0.09460618 0.048160437 0.052542705
0.007730602 -0.03131086 0.021544108 -0.117886044 -0.04605021 -0.06645705 0.0414891 0.104810335
-0.009960996 -0.06935285 0.07024363 0.097545445 -0.0043211896 0.018482147 0.07476798 -0.07338113
0.017167227 -0.09104492 -0.08167514 -0.054092597 0.10596975 0.06368088 -0.108334236 0.047263112
0.070537634 -0.03812141 0.1365313 0.03066861 -0.0063054087 0.10845947 -0.084225535 -0.08689986
0.039771132 0.0959736 0.09509995 0.09782542 0.019989045 0.27940622 0.012436909 -0.08812186
-0.03686501 0.10743898 0.08762037 -0.1392476 0.018583177 -0.033193786 0.0075890804 -0.00679864
0.07676596 -0.061398737 0.042016298 0.062258605 0.084366776 0.038798355 -0.12632601 -0.06849642
0.058855392 0.025805442 -0.112723924 0.00069226616 0.10353221 0.07867001 -0.1353087 -0.030251624
-0.12234704 -1.9075946e-05 -0.06349713 -0.1048776 -0.0031207742 0.015517411 -0.017200157 0.068804964
-0.081371196 0.08745156 0.079321615 -0.09414726 -0.02640968 -0.009875858 0.06048298 0.015846668
0.045013428 -0.009570374 -0.052778486 0.040918835 -0.12989931 -0.041742984 -0.02073517 -0.048364587
-0.037420616 -0.0415004 -0.016870923 0.005331334 -0.091612786 -0.0044564335 0.083532535 -0.009761835
0.013394654 -0.012166722 0.019443337 0.063265525 0.13488097 0.10771878 0.09908824 0.014484558
-0.07541661 -0.046300672 0.06327175 -0.0068314513 -0.058890995 -0.079864755 -0.13138568 -0.115984276
-0.024675537 0.06445016 1.1199392 -0.098362096 0.07841422 -0.06542845 -0.002993443 -0.038568396
0.019957446 -0.009789259 -0.095247515 -0.08099972 -0.018904665 0.042787276 -0.045290943 0.020918144
-0.099061236 0.0017811959 0.110357374 -0.0372644 0.11369542 0.052816235 -0.091299854 0.06956542
-0.011169311 -0.047630828 0.09726691 -0.07377125 0.016481034 -0.028607728 0.077329256 0.049093574
0.08750046 0.041475125 -0.035818033 -0.009283552 -0.10541204 0.077069476 0.10073283 0.08938572
-0.0688402 0.016627584 -0.07596274 -0.029301893 -0.05766174 0.04782107 -0.041242633 -0.0028407692
-0.008511629 0.04650023 -0.049258757 -0.006264825 -0.056885425 0.05472906 -0.03386388 0.11114829
0.042968076 0.02343412 0.010109964 -0.01098285 0.025843285 0.0019210717 -0.008612133 0.016958766
-0.065738246 -0.029668465 0.12005525 -0.09823513 -0.058742967 0.12951328 0.12107892 -0.007601384
-0.13046284 0.08478492 -0.13950041 -0.045728426 -0.0326184 -0.0043206476 0.012791575 0.112562634
0.011856012 0.09974334 0.10597476 -0.077659026 0.033337805 -0.075940385 -0.05116819 0.029176425
0.054696787 0.08816558 -0.07493744 0.007952264 0.05953384 -0.10126987 0.07980739 -0.10182807
0.0016215038 -0.021100556 -0.062390562 0.012691537 0.081071235 -0.013330946 -0.06382428 -0.06913372
00000000: 3978 273f 7961 6f3d e170 cabd 2688 b3bd
00000010: a0b7 06bd 5f7c a63c d5bd 7f3b 499b a13d
00000020: c853 cabc edd4 b63d 7f4b abbc cb88 13bd
00000030: 2e84 d6bd 4ee1 c8bd 10e9 04bd 63e0 53bb
00000040: f926 3b3d 32f7 853d c64c a5bd c949 56bd
00000050: 8985 1e3d e80d b73d 1dde 37bd 16cf c73d
00000060: b77c 17bd d2bc 1c3d e558 ac3d f081 fcbd
00000070: c643 92bc 2595 dabc db47 b3bd 5a8b 8f3d
00000080: 9492 aebd 6c33 5bbd 69e8 b6bd 98f4 d2bd
00000090: 911e 97bd e3c0 c13d e143 453d 0537 573d
000000a0: fd50 fd3b d13f 00bd 457d b03c 3d6e f1bd
000000b0: 259f 3cbd a21a 88bd 79f0 293d cda6 d63d
000000c0: 7233 23bc de08 8ebd e4db 8f3d e8c5 c73d
000000d0: c498 8dbb df67 973c f41f 993d d948 96bd
000000e0: 49a2 8c3c c275 babd 4c45 a7bd 3390 5dbd
000000f0: ab06 d93d 1f6b 823d 57de ddbd f796 413d
00000100: 0976 903d 3225 1cbd dcce 0b3e bd3c fb3c
00000110: 9a9d cebb 0020 de3d 707e acbd 8ef8 b1bd
00000120: 0ee7 223d cf8d c43d c3c3 c23d b258 c83d
00000130: 11c0 a33c 550e 8f3e 2dc4 4b3c 3c79 b4bd
00000140: c4ff 16bd f808 dc3d 4f72 b33d ec96 0ebe
00000150: bf3b 983c 35f6 07bd d2ad f83b 20c7 debb
00000160: 7937 9d3d 3e7d 7bbd 4819 2c3d e102 7f3d
00000170: 7dc8 ac3d 06eb 1e3d 9b5b 01be da47 8cbd
00000180: 5a12 713d ef65 d33c cddb e6bd 3279 353a
00000190: b208 d43d be1d a13d 5d8e 0abe 41d2 f7bc
000001a0: 1691 fabd 4805 a0b7 c90a 82bd 11ca d6bd
000001b0: e785 4cbb bd3c 7e3c 58e7 8cbc 9ee9 8c3d
000001c0: f1a5 a6bd ce19 b33d 5f73 a23d 47d0 c0bd
000001d0: 1d59 d8bc 5ace 21bc 00bd 773d dfd0 813c
000001e0: 0060 383d 0fcd 1cbc 412e 58bd 829a 273d
000001f0: 5304 05be b1fa 2abd cedc a9bc f219 46bd
00000200: 5c46 19bd 53fc 29bd e434 8abc 79b2 ae3b
00000210: 7c9f bbbd 4607 92bb 1b13 ab3d 1bf0 1fbc
00000220: 4075 5b3c ee56 47bc a247 9f3c 5b91 813d
00000230: 3d1e 0a3e aa9b dc3d c6ee ca3d a450 6d3c
00000240: 0674 9abd c6a5 3dbd 9f94 813d 5eda dfbb
00000250: af37 71bd 2290 a3bd f889 06be 2a89 edbd
00000260: 5a24 cabc 72fe 833d 2b5a 8f3f 1172 c9bd
00000270: a297 a03d 5aff 85bd a42d 44bb e5f9 1dbd
00000280: cc7d a33c 2163 20bc 2111 c3bd 2ee3 a5bd
00000290: f5dd 9abc b641 2f3d ff82 39bd 875c ab3c
000002a0: 9ee0 cabd 0477 e93a 0c03 e23d 8ea2 18bd
000002b0: 25d9 e83d d655 583d 6bfb babd 5178 8e3d
000002c0: 7cff 36bc 8b18 43bd e033 c73d 6215 97bd
000002d0: 3c03 873c c15a eabc cd5e 9e3d 5816 493d
000002e0: 7133 b33d d2e1 293d eeb5 12bd 0a1a 18bc
000002f0: 45e2 d7bd 9ad6 9d3d 044d ce3d dc0f b73d
00000300: 17fc 8cbd 9236 883c 5a92 9bbd 860a f0bc
00000310: b72e 6cbd 07e0 433d 09ee 28bd 332c 3abb
00000320: 5c74 0bbc 0677 3e3d 8dc3 49bd 2949 cdbb
00000330: b100 69bd 942b 603d dab4 0abd b7a1 e33d
00000340: 4bff 2f3d e9f8 bf3c 43a4 253c 69f1 33bc
00000350: 4cb5 d33c 78cc fb3a e719 0dbc 1ced 8a3c
00000360: c6a1 86bd 480b f3bc 87df f53d 802f c9bd
00000370: 779c 70bd 219f 043e 3af8 f73d 0815 f9bb
00000380: 0d98 05be b7a3 ad3d 32d9 0ebe bb4d 3bbd
00000390: df9a 05bd 3894 8dbb c193 513c 3d87 e63d
000003a0: b83f 423c 3c46 cc3d 4c09 d93d b20b 9fbd
000003b0: 398d 083d a286 9bbd bc95 51bd 6603 ef3c
000003c0: bd09 603d 2890 b43d cd78 99bd 364a 023c
000003d0: c1d9 733d 9466 cfbd 0f72 a33d 3c8b d0bd
000003e0: a488 d43a 13db acbc 3f8d 7fbd 2af0 4f3c
000003f0: ad08 a63d 0a6a 5abc 4eb6 82bd fb95 8dbd

net.0.bias f4 [128]
-0.02650362 -0.04439696 -0.066627175 0.033510424 -0.040601168 -0.057217266 0.03966788 -0.036416356
0.018187348 -0.008162356 0.04742178 0.07562018 -0.10015575 -0.04897047 0.11173366 0.01040073
-0.024058815 0.08982502 0.12405718 0.03421553 -0.0817344 0.116413556 -0.103410184 -0.09864059
0.012125353 -0.03434205 -0.114195436 0.09004865 0.023111707 -0.065895565 0.03743757 0.080036774
-0.0034156332 0.08769639 0.062159788 0.040345334 -0.05404828 -0.08594543 -0.0021816434 -0.03782975
-0.11258842 -0.10588832 -0.06345907 0.017134033 -0.03758411 -0.095747836 -0.019667171 -0.029238598
-0.03238956 0.074989535 0.053928476 0.076092556 0.11264936 0.0017548258 -0.059939902 -0.009401417
0.030195534 -0.036845475 0.08547405 0.054881036 -0.08554599 0.025427263 0.0070511266 0.052606527
-0.05894716 0.10232152 -0.035171166 0.048379574 -0.056262534 0.034182772 -0.033923108 -0.04938429
-0.09173758 0.040548876 0.02536939 0.030094896 -0.062699646 0.025070637 -0.0551105 0.030073795
0.10923295 -0.094137385 0.044418298 -0.07635252 0.037869036 -0.024862498 0.04247871 -0.081960276
0.07937539 0.07188987 -0.07711898 -0.073613964 0.07332836 -0.0766311 0.041290738 -0.044145264
-0.097852185 0.028775742 -0.034909375 -0.057624213 0.042496122 0.04313672 0.0812398 0.10814768
0.03960727 -0.032929912 -0.010386505 0.081386395 -0.1000839 0.09203788 0.048617482 0.040600006
0.034082644 -0.09576391 0.038214944 -0.012786331 0.0057338164 -0.057503402 0.0857668 -0.011837249
-0.012077675 -0.091772474 0.09707788 -0.106905654 0.07685342 0.04629408 0.015648 -0.110335335
00000000: 1f1e d9bc 96d9 35bd d473 88bd 3a42 093d
00000010: 694d 26bd a75c 6abd c97a 223d 5129 15bd
00000020: a2fd 943c 67bb 05bc 573d 423d c1de 9a3d
00000030: 751e cdbd 4295 48bd 9ed4 e43d d367 2a3c
00000040: fe16 c5bc 2ef6 b73d b111 fe3d 9525 0c3d
00000050: 5d64 a7bd 3b6a ee3d b8c8 d3bd 1404 cabd
00000060: 6ba9 463c 40aa 0cbd 4cdf e9bd 6d6b b83d
00000070: c354 bd3c 41f4 86bd 2358 193d 52ea a33d
00000080: d1d8 5fbb 2a9a b33d 439b 7e3d 2641 253d
00000090: bb61 5dbd 2804 b0bd e7f9 0ebb 5ef3 1abd
000000a0: c294 e6bd fadb d8bd d4f6 81bd ac5c 8c3c
000000b0: ccf1 19bd 7117 c4bd 0c1d a1bc c985 efbc
000000c0: eaaa 04bd 1d94 993d 1be4 5c3d 6ad6 9b3d
000000d0: b5b4 e63d 2f02 e63a 8b83 75bd 6708 1abc
000000e0: a05c f73c 48eb 16bd 050d af3d f0ca 603d
000000f0: bc32 afbd d64c d03c 230d e73b f179 573d
00000100: 9472 71bd f28d d13d a40f 10bd a929 463d
00000110: 8b73 66bd 3c03 0c3d f5f2 0abd 2e47 4abd
00000120: eae0 bbbd 9416 263d 78d3 cf3c 9289 f63c
00000130: ac68 80bd f060 cd3c 8cbb 61bd 525d f63c
00000140: 86b5 df3d 1acb c0bd f6ef 353d b65e 9cbd
00000150: 901c 1b3d 70ac cbbc 28fe 2d3d cada a7bd
00000160: 918f a23d ff3a 933d 8ef0 9dbd ebc2 96bd
00000170: 2e2d 963d c4f0 9cbd 7a20 293d aad1 34bd
00000180: ba66 c8bd 1bbb eb3c 22fd 0ebd 5e07 6cbd
00000190: 6a10 2e3d 21b0 303d 0d61 a63d 887c dd3d
000001a0: 3c3b 223d 84e1 06bd 292c 2abc e9ad a63d
000001b0: caf8 ccbd 5b7e bc3d 2023 473d 314c 263d
000001c0: 3e9a 0b3d de1f c4bd 4687 1c3d c27d 51bc
000001d0: bde2 bb3b b088 6bbd 81a6 af3d 05f1 41bc
000001e0: 71e1 45bc 35f3 bbbd c4d0 c63d 5af1 dabd
000001f0: 5365 9d3d dc9e 3d3d 3c30 803c 7ef7 e1bd

net.2.weight f4 [128, 128]
-0.02973263 -0.056873236 -0.020345021 0.02433739 -0.00675459 -0.024403568 0.042369664 0.053201277
-0.08015773 0.037181456 -0.008919096 0.07122545 -0.07708759 -0.07101523 -0.01770679 0.12767014
0.0581764 -0.015656687 -0.014330053 -0.020848723 0.007462881 -0.0128485495 -0.020165278 0.07962689
0.031881437 0.081152946 -0.052522786 -0.0710558 -0.0018494545 0.0030137214 0.05585159 0.08336521
-0.06309179 0.089473374 0.06577232 0.08526731 0.030351302 -0.027359605 -0.01889391 0.00196561
-0.062909536 -0.036912616 0.07102268 0.046695314 0.02314207 0.008554503 0.019070521 -0.007855753
-0.052483782 -0.0041416055 -0.031191058 -0.0126320645 -0.0129100075 0.0057659936 -0.07281599 -0.0325395
-0.036307085 -0.003591777 -0.07686882 0.075340435 -0.046060454 0.08268785 -0.107076705 -0.004977588
-0.022654355 -0.03830093 -0.027508333 -0.073561266 0.03919678 0.07539593 -0.073231764 -0.019625936
-0.06275197 0.026017945 -0.053774882 0.09755125 -0.0048186677 0.018079465 0.09484866 -0.073871456
-0.04578986 -0.010398339 -0.085909076 0.020977534 -0.008629075 -0.082909614 -0.034041725 -0.060262438
0.03381816 0.0878072 0.08647528 -0.07469453 0.041961227 0.008662587 0.038352534 0.040669944
-0.08706164 -0.07086137 -0.0465236 0.0018065625 0.047912396 -0.03490994 -0.000631264 -0.04450421
0.1031202 -0.08103891 -0.040132437 0.0432124 -0.07993744 0.07202467 -0.08973577 -0.022394577
-0.030784108 0.0025093257 -0.039825242 0.044478696 -0.055348687 -0.041346226 -0.012802276 -0.0672143
-0.09451535 0.06339109 0.11083072 -0.016252652 -0.0119526135 0.033544544 0.027940523 -0.07932501
0.00104265 0.12277049 0.056115802 -0.049072772 0.014249538 -0.01995429 -0.12196408 -0.04014006
0.109312005 0.038175993 0.059672564 -0.07333011 -0.0060805604 0.098849915 -0.019846506 -0.017802956
-0.04670962 -0.06925488 -0.016929425 -0.039496735 -0.067257695 0.09370012 0.09509916 -0.1135326
-0.025431864 0.06409942 0.08584599 -0.07321786 -0.04406329 0.048818283 -0.012868092 -0.025855735
-0.008028545 0.039633743 -0.04027959 0.10791936 0.06967001 -0.009451027 -0.045071688 0.06628142
0.03153913 -0.0567465 -0.0697998 0.05057702 -0.036548276 -0.044149287 0.06898259 0.011558387
0.08822798 0.033807114 0.09847796 0.08604746 0.03410584 0.08412517 -0.057976518 0.0825351
0.016454728 0.1000017 -0.04174362 -0.060041346 0.06756535 -0.065519795 0.023037568 0.15474246
0.05308303 -0.051630348 -0.049618404 -0.043134987 -0.08039163 0.056900844 0.06316495 0.07474717
0.06566914 0.08393283 -0.04226329 0.0663243 -0.008984382 0.062421463 0.024988882 -0.015485229
0.06256523 0.12375738 0.050482888 -0.016646339 -0.016192572 0.07275795 -0.025470236 0.03617416
-0.019921301 0.06337676 -0.023570871 0.07049649 0.002650247 0.02577387 0.05903483 0.055641353
0.048118606 -0.060820345 -0.0015734847 0.09225775 0.09321756 -0.11366552 -0.057274826 0.039634325
-0.07948363 -0.046770103 -0.050623566 -0.05458789 -0.030278854 0.12342017 -0.08186645 0.059140492
-0.058728077 -0.018611949 -0.02953967 0.042047895 -0.04146917 -0.021757973 -0.03495286 -0.015518634
0.038541842 0.07734903 0.04866245 0.029381035 -0.06861048 0.035428412 0.04338781 0.07918117
00000000: d891 f3bc e9f3 68bd 9aaa a6bc 355f c73c
00000010: 9c55 ddbb fee9 c7bc d08b 2d3d 95e9 593d
00000020: bc29 a4bd 954b 183d 6621 12bc a6de 913d
00000030: 19e0 9dbd 6f70 91bd d40d 91bc f6bb 023e
00000040: 604a 6e3d 7442 80bc 99c8 6abc f1ca aabc
00000050: 2f8b f43b b982 52bc a731 a5bc 6c13 a33d
00000060: 1c96 023d 8433 a63d 2222 57bd b485 91bd
00000070: 6569 f2ba db81 453b a3c4 643d 61bb aa3d
00000080: 4536 81bd d13d b73d a3b3 863d a1a0 ae3d
00000090: 4ba3 f83c 4021 e0bc 67c7 9abc 77d1 003b
000000a0: b7d6 80bd af31 17bd 5774 913d 9643 3f3d
000000b0: 7094 bd3c 3028 0c3c c839 9c3c 6bb5 00bc
000000c0: 3cf9 56bd 4eb6 87bb 6484 ffbc b8f6 4ebc
000000d0: 7f84 53bc a9f0 bc3b 8d20 95bd 2448 05bd
000000e0: bdb6 14bd 0564 6bbb 666d 9dbd 164c 9a3d
000000f0: e3a9 3cbd 3f58 a93d 084b dbbd 091b a3bb
00000100: a095 b9bc 70e1 1cbd 2859 e1bc 4aa7 96bd
00000110: ce8c 203d 2e69 9a3d 89fa 95bd 92c6 a0bc
00000120: 1b84 80bd 9623 d53c 0d43 5cbd f3c8 c73d
00000130: eae5 9dbb 631b 943c 0440 c23d eb49 97bd
00000140: 268e 3bbd cb5d 2abc 19f1 afbd 14d9 ab3c
00000150: f760 0dbc 84cc a9bd 566f 0bbd bfd5 76bd
00000160: e984 0a3d 43d4 b33d f419 b13d 72f9 98bd
00000170: 89df 2b3d 86ed 0d3c 8c17 1d3d 8795 263d
00000180: 604d b2bd c41f 91bd 888f 3ebd 2eca ec3a
00000190: ca3f 443d bafd 0ebd 697b 25ba 0c4a 36bd
000001a0: af30 d33d baf7 a5bd e961 24bd 7cff 303d
000001b0: 3eb6 a3bd ac81 933d 63c7 b7bd d574 b7bc
000001c0: f42e fcbc 8073 243b cb1f 23bd 4b2f 363d
000001d0: 4eb5 62bd a95a 29bd a3c0 51bc a7a7 89bd
000001e0: 4491 c1bd 30d3 813d 37fb e23d 4824 85bc
000001f0: e5d4 43bc 0166 093d 86e3 e43c 2775 a2bd
00000200: 87a9 883a 186f fb3d afd9 653d 8800 49bd
00000210: e576 693c 2e77 a3bc 4ec8 f9bd e769 24bd
00000220: f9de df3d 6e5e 1c3d 386b 743d 192e 96bd
00000230: 703f c7bb d371 ca3d 2495 a2bc 81d7 91bc
00000240: 9652 3fbd 81d5 8dbd 94af 8abc 54c7 21bd
00000250: 67be 89bd d9e5 bf3d 59c3 c23d c883 e8bd
00000260: 7c56 d0bc 8f46 833d 06d0 af3d 3ff3 95bd
00000270: b57b 34bd aef5 473d b1d4 52bc 68cf d3bc
00000280: 298a 03bc fe56 223d 36fc 24bd d304 dd3d
00000290: 26af 8e3d 7bd8 1abc 179d 38bd 8ebe 873d
000002a0: 2d2f 013d 056f 68bd 33f3 8ebd d929 4f3d
000002b0: a5b3 15bd e2d5 34bd bf46 8d3d 645f 3d3c
000002c0: dfb0 b43d 5479 0a3d d0ae c93d a739 b03d
000002d0: 91b2 0b3d d149 ac3d c978 6dbd 2a08 a93d
000002e0: 11cc 863c b1cd cc3d 5cfb 2abd eaed 75bd
000002f0: b45f 8a3d 3e2f 86bd 48b9 bc3c cf74 1e3e
00000300: 976d 593d 587a 53bd ab3c 4bbd 50ae 30bd
00000310: 5ea4 a4bd dc10 693d a05c 813d 0b15 993d
00000320: 8b7d 863d fae4 ab3d 461c 2dbd 09d5 873d
00000330: 3b33 13bc a6ad 7f3d 7cb5 cc3c c2b5 7dbc
00000340: 3322 803d 8274 fd3d 25c7 4e3d e75d 88bc
00000350: 49a6 84bc 1f02 953d f5a6 d0bc 5b2b 143d
00000360: ff31 a3bc adcb 813d b317 c1bc 7760 903d
00000370: c4af 2d3b b923 d33c 82ce 713d 30e8 633d
00000380: 0418 453d c11e 79bd 633d ceba a2f1 bc3d
00000390: d9e8 be3d 78c9 e8bd 0299 6abd 9a57 223d
000003a0: 50c8 a2bd 0292 3fbd a85a 4fbd 8d97 5fbd
000003b0: 5c0b f8bc b7c3 fc3d 99a9 a7bd 4d3d 723d
000003c0: da8c 70bd 1678 98bc 2efd f1bc 6a3a 2c3d
000003d0: 94db 29bd c73d b2bc bb2a 0fbd de41 7ebc
000003e0: 0dde 1d3d 2b69 9e3d 4752 473d 7fb0 f03c
000003f0: a783 8cbd 621d 113d 6bb7 313d bd29 a23d

net.2.bias f4 [128]
-0.027220607 -0.0498162 0.07479546 0.07174771 0.017891109 -0.048059274 0.03539597 -0.049091507
-0.07569236 0.082578965 0.048808042 -0.032104436 0.06913127 0.0067306184 0.032133933 0.001197764
0.068443306 0.06339251 -0.010248948 0.04970229 0.040616997 0.050494462 -0.015034948 -0.03971317
0.07428247 0.052899837 -0.081972346 0.01995944 0.08687803 0.057075247 0.055807732 0.056689665
-0.07674956 -0.054063883 0.077795535 0.026394691 -0.030429706 0.08387661 -0.019083587 0.06627696
-0.0058940114 0.062365364 0.031044632 -0.09188136 0.04068661 -0.018035213 0.038222894 0.030420383
0.042583667 -0.04442826 0.06602072 0.04324504 -0.07901636 0.09326165 0.010015039 0.08059348
-0.033854213 -0.064905874 0.009715318 0.01941153 0.01461793 -0.0042367266 -0.058603752 -0.006994738
0.070716 -0.0691678 0.07106368 0.006056164 -0.031117378 -0.038800854 0.07495473 -0.08166624
-0.0619823 -0.074777864 -0.07318767 0.038741518 -0.06312098 0.013051154 0.05315181 -0.070192486
0.058787066 -0.012462625 -0.0705838 0.041720837 0.08419495 -0.017412737 0.0041372916 0.05361071
-0.03731224 0.02076425 0.015460648 0.02471265 -0.0015602185 -0.064272106 -0.050264236 -0.013579687
-0.055872314 -0.038181927 0.015533152 0.0070768655 0.008561219 -0.026008418 0.03460762 -0.07335434
0.05281045 0.01979456 0.052256986 0.039374366 0.021026311 -0.019619368 -0.005672846 0.036180437
0.09254441 0.04986419 0.0048186425 -0.04138115 0.04039868 0.041201975 0.05743902 0.0028110293
0.08844579 0.06475016 -0.01978267 0.0642063 0.052136976 -0.027532399 0.04883225 0.081537716
00000000: c0fd debc 120c 4cbd 5d2e 993d 77f0 923d
00000010: 6090 923c cdd9 44bd 5dfb 103d 2d14 49bd
00000020: 9904 9bbd 291f a93d f1ea 473d f17f 03bd
00000030: b294 8d3d 858c dc3b df9e 033d 4afe 9c3a
00000040: 012c 8c3d efd3 813d 34eb 27bc a194 4b3d
00000050: 025e 263d 48d3 4e3d 2455 76bc 47aa 22bd
00000060: 6821 983d 80ad 583d 1ee1 a7bd fb81 a33c
00000070: 1ced b13d bcc7 693d a696 643d 6c33 683d
00000080: e02e 9dbd 1772 5dbd 4453 9f3d ae39 d83c
00000090: b847 f9bc 80c7 ab3d 2f55 9cbc 37bc 873d
000000a0: 8d22 c1bb d372 7f3d 5051 fe3c 4b2c bcbd
000000b0: 01a7 263d 95be 93bc 9c8f 1c3d 2b34 f93c
000000c0: 366c 2e3d 68fa 35bd df35 873d b621 313d
000000d0: 54d3 a1bd f7ff be3d 1e16 243c 320e a53d
000000e0: b7aa 0abd 5fed 84bd ff2c 1f3c ee04 9f3c
000000f0: 0b80 6f3c 3dd4 8abb 7d0a 70bd 1d34 e5bb
00000100: 8dd3 903d d9a7 8dbd d689 913d c972 c63b
00000110: dfe9 febc a5ed 1ebd de81 993d a140 a7bd
00000120: 27e1 7dbd 2325 99bd 6be3 95bd 6daf 1e3d
00000130: 9345 81bd 82d4 553c b6b5 593d 14c1 8fbd
00000140: b5ca 703d 0a30 4cbc 3d8e 90bd 78e3 2a3d
00000150: 676e ac3d 28a5 8ebc 1e92 873b e796 5b3d
00000160: b8d4 18bd ca19 aa3c a84e 7d3c 2f72 ca3c
00000170: 3f80 ccba 18a1 83bd dfe1 4dbd 567d 5ebc
00000180: 5eda 64bd a764 1cbd c37e 7e3c 0de5 e73b
00000190: 5b44 0c3c 9b0f d5bc b8c0 0d3d cd3a 96bd
000001a0: c54f 583d 3328 a23c 6c0b 563d 0447 213d
000001b0: 5f3f ac3c ccb8 a0bc 48e3 b9bb f031 143d
000001c0: ec87 bd3d 653e 4c3d b4e5 9d3b 487f 29bd
000001d0: 1679 253d 67c3 283d 2e45 6b3d 3f39 383b
000001e0: 1123 b53d bb9b 843d 440f a2bc 987e 833d
000001f0: 958d 553d a08b e1bc 5304 483d 3ffd a63d

net.4.weight f4 [15, 128]
0.10827669 0.008424844 0.0075115683 0.0033890747 0.029037572 -0.060282387 -0.025787387 0.059132196
0.06661103 0.006448382 -0.01062602 0.07470411 -0.064952165 -0.0043242075 -0.031967644 0.051735263
-0.032582086 -0.07657461 0.031588726 -0.011249713 0.062305246 0.07866195 0.035685126 0.0014803326
0.043695588 0.07178496 0.13819034 -0.039658323 0.023215478 -0.034102283 0.019990511 -0.029473128
-0.07227041 -0.07266424 -0.08467047 0.08323534 0.030944748 0.052473273 0.030516973 0.049844608
0.07374705 0.029174877 0.036011692 0.042636447 0.056451526 0.02917663 -0.09698424 -0.043364465
0.051228777 0.047557432 -0.0033055944 -0.06271071 0.009404035 0.08741183 -0.05775712 0.015017409
0.024357986 -0.09370865 0.081072755 -0.08721407 0.04112376 -0.006471218 -0.026387595 -0.022865037
0.055396006 0.020934347 0.032297768 0.0032095043 -0.010626681 -0.011984417 -0.04609888 0.05751566
-0.014603691 -0.01318296 0.08334484 0.06434368 -0.06635407 -0.020488378 0.0697337 -0.0058638602
-0.03621683 0.08041903 0.05300142 0.08811102 0.047935132 0.08817665 0.060416218 -0.010979641
0.082926415 0.10778062 -0.008162698 0.05497869 0.026011467 0.053663433 -0.018144662 0.050975293
-0.024234103 -0.047118478 -0.043858048 0.080433965 -0.080955625 0.08960067 0.088862136 0.001607878
0.075064294 0.061972775 0.0806051 0.008897884 0.0011721544 -0.05995346 0.03740502 0.026207836
0.0906886 0.08856385 0.029622769 0.038733806 -0.008072142 0.03543516 0.13239811 0.07416688
0.076856844 -0.00814327 0.025419546 -0.06861582 0.031268373 0.063703306 0.0132790655 0.082126275
-0.029472657 0.09498497 -0.07146983 0.044364 0.08087793 0.008498852 -0.07801492 0.023388922
0.08665252 0.08790088 -0.06479021 -0.07748285 0.063622646 0.036718447 0.10013933 0.0054650437
0.08433899 -0.09514789 -0.014940946 -0.05143106 -0.009012916 -0.016172394 -0.018720224 -0.03201138
-0.06035353 -0.022979576 0.040093362 -0.0234818 0.052582983 -0.0639068 0.078153186 -0.06240335
0.048613314 -0.062899426 -0.056796003 0.04701047 0.111019224 -0.06534386 -0.04672348 0.047873896
-0.03198113 0.023631085 0.0629111 0.028543927 0.006846974 0.050961573 0.0066885967 0.06964638
0.020083835 0.11382782 0.08177827 0.004357697 0.046190362 0.06854701 0.030274935 -0.030535696
0.097816736 -0.008284997 -0.03867541 -0.048306625 -0.016139627 -0.010547164 0.0043151905 -0.018858852
0.06872438 -0.009725782 0.023671674 0.05760739 0.08349304 -0.14523925 -0.0021609399 -0.07978726
-0.10688073 0.11358051 0.06834441 -0.071897574 -0.033778332 0.12021749 0.12158168 0.07537078
0.07345864 -0.049325954 -0.033672843 0.08136204 -0.058542643 0.019922886 -0.07915104 -0.06724756
0.044526014 0.0504696 -0.0032935683 -0.05298007 0.08854232 0.17915784 0.027035153 0.10912775
-0.107787296 -0.036657657 0.028474906 0.08753367 0.0022501568 0.05073128 -0.016472211 -0.06328389
0.04870485 -0.031296562 0.008943073 0.102369644 -0.033021864 -0.0055268044 -0.03705149 -0.013008337
0.07752544 0.047210652 0.15533067 0.02088341 0.04665987 0.016850244 0.008201347 -0.0819242
0.06419467 -0.040654425 -0.049574714 0.001740962 -0.088358335 0.052821953 0.01184029 -0.028749933
00000000: 2bc0 dd3d 5b08 0a3c 9a23 f63b 3d1b 5e3b
00000010: 34e0 ed3c aaea 76bd 1240 d3bc 9a34 723d
00000020: 5d6b 883d f34c d33b c218 2ebc 78fe 983d
00000030: a405 85bd 15b2 8dbb 81f0 02bd 5be8 533d
00000040: cb74 05bd 26d3 9cbd 2e63 013d b750 38bc
00000050: c933 7f3d 8419 a13d 912a 123d b807 c23a
00000060: 25fa 323d fe03 933d c581 0d3e c470 22bd
00000070: 632e be3c d6ae 0bbd 24c3 a33c a171 f1bc
00000080: 8202 94bd fdd0 94bd b667 adbd 4a77 aa3d
00000090: d77f fd3c 37ee 563d bbfe f93c dc29 4c3d
000000a0: b108 973d 2700 ef3c ff80 133d 8ea3 2e3d
000000b0: b739 673d d403 ef3c ac9f c6bd f09e 31bd
000000c0: 44d5 513d 95cb 423d aca2 58bb 796e 80bd
000000d0: 6213 1a3c f904 b33d bb92 6cbd 940b 763c
000000e0: 668a c73c 52ea bfbd 7909 a63d 4a9d b2bd
000000f0: 6371 283d 830c d4bb cc2a d8bc 754f bbbc
00000100: ece6 623d 827e ab3c aa4a 043d 8c56 523b
00000110: 881b 2ebc 4a5a 44bc 2ed2 3cbd 8a95 6b3d
00000120: 5244 6fbc 58fd 57bc b3b0 aa3d 9fc6 833d
00000130: a5e4 87bd 3ed7 a7bc 8bd0 8e3d a025 c0bb
00000140: 1958 14bd bbb2 a43d 0418 593d 8d73 b43d
00000150: a157 443d f695 b43d ff76 773d f4e3 33bc
00000160: 53d5 a93d 16bc dc3d d6bc 05bc 5631 613d
00000170: 0016 d53c 30ce 5b3d 1da4 94bc 78cb 503d
00000180: 9986 c6bc 4eff 40bd 7fa4 33bd 90ba a43d
00000190: 10cc a5bd 8e80 b73d 5afd b53d 6fbf d23a
000001a0: 4fbb 993d 2ad7 7d3d 4914 a53d 6ec8 113c
000001b0: faa2 993a c291 75bd 0236 193d d1b1 d63c
000001c0: f2ba b93d f760 b53d 73ab f23c 57a7 1e3d
000001d0: 0441 04bc 7524 113d 5f93 073e cee4 973d
000001e0: 1f67 9d3d 5a6b 05bc a73c d03c 7386 8cbd
000001f0: 4413 003d e176 823d 7090 593c d231 a83d
00000200: a470 f1bc 7b87 c23d c65e 92bd 07b7 353d
00000210: 54a3 a53d c53e 0b3c 49c6 9fbd 209a bf3c
00000220: e076 b13d 6005 b43d bbb0 84bd 54af 9ebd
00000230: 974c 823d 1566 163d d915 cd3d 1c14 b33b
00000240: ecb9 ac3d e6dc c2bd dfca 74bc 60a9 52bd
00000250: e9aa 13bc f87b 84bc 285b 99bc 5d1e 03bd
00000260: 4335 77bd aa3f bcbc f038 243d e75c c0bc
00000270: 4161 573d 91e1 82bd c70e a03d a89a 7fbd
00000280: c11e 473d 6ad1 80bd eda2 68bd 0d8e 403d
00000290: 0c5e e33d 00d3 85bd 1f61 3fbd 6b17 443d
000002a0: a5fe 02bd fa95 c13c 89d7 803d f4d4 e93c
000002b0: 955c e03b 15bd 503d 042c db3b c3a2 8e3d
000002c0: db86 a43c 8f1e e93d 5e7b a73d 03cb 8e3b
000002d0: 1b32 3d3d 6062 8c3d 2403 f83c ff25 fabc
000002e0: 2454 c83d ccbd 07bc 1b6a 1ebd 2bdd 45bd
000002f0: 4037 84bc 03ce 2cbc 7166 8d3b e17d 9abc
00000300: 5ebf 8c3d e358 1fbc 19eb c13c baf5 6b3d
00000310: 66fe aa3d 99b9 14be 8e9e 0dbb 8167 a3bd
00000320: 49e4 dabd e69c e83d 27f8 8b3d 093f 93bd
00000330: 265b 0abd 9634 f63d d1ff f83d ff5b 9a3d
00000340: 7c71 963d 030a 4abd 89ec 09bd 24a1 a63d
00000350: 69ca 6fbd 5235 a33c f119 a2bd 17b9 89bd
00000360: e960 363d 36b9 4e3d e8d8 57bb a101 59bd
00000370: ad55 b53d 2775 373e d378 dd3c 5f7e df3d
00000380: 96bf dcbd 5726 16bd 3544 e93c da44 b33d
00000390: 5e77 133b 9acb 4f3d bbf0 86bc fc9a 81bd
000003a0: bd7e 473d d330 00bd f885 123c 2da7 d13d
000003b0: ef41 07bd 321a b5bb 4ec3 17bd eb20 55bc
000003c0: a8c5 9e3d f55f 413d 010f 1f3e af13 ab3c
000003d0: 6b1e 3f3d 8609 8a3c f15e 063c e0c7 a7bd
000003e0: 7f78 833d 4185 26bd db0e 4bbd fe30 e43a
000003f0: 37f5 b4bd d55b 583d c7fd 413c fb84 ebbc

net.4.bias f4 [15]
-0.051084742 0.08757969 -0.01793572 -0.02948276 0.008712212 0.033588406 0.06265276 -0.04603152
0.057873324 0.076323 0.022400819 0.074062325 0.023362167 0.04951461 0.019680835
00000000: 3c3e 51bd fb5c b33d eeed 92bc d485 f1bc
00000010: aabd 0e3c ff93 093d 1750 803d 8c8b 3cbd
00000020: 940c 6d3d 3c4f 9c3d ec81 b73c fdad 973d
00000030: 0462 bf3c d5cf 4a3d b439 a13c

net.0.weight f4 [128, 77]
0.6470209 0.0579858 -0.0993263 -0.08628711 -0.03293374 0.019593976 0.0038613381 0.07838393
-0.02404861 0.08871944 -0.020499462 -0.035769973 -0.10505628 -0.09895276 -0.034247156 -0.0038319218
0.045279086 0.06494851 -0.08112871 -0.052773226 0.038244803 0.088786624 -0.044289276 0.09704974
-0.038066994 0.038569935 0.08394602 -0.12276978 -0.019420015 -0.02632496 -0.086641565 0.07062518
-0.08595643 -0.054897614 -0.08977934 -0.103434585 -0.074319184 0.09419221 0.047703672 0.05208594
0.00731473 -0.030906152 0.021234147 -0.119154274 -0.045491196 -0.06674685 0.042291418 0.1037079
-0.010072626 -0.06920384 0.07097791 0.0966948 -0.0049828975 0.018175606 0.074254885 -0.073793076
0.016777543 -0.09150169 -0.082131915 -0.054617275 0.106233746 0.06324956 -0.109238416 0.047923554
0.07095664 -0.037287325 0.1351918 0.03101181 -0.005880534 0.10807309 -0.08507209 -0.088087514
0.039330002 0.095346585 0.09469776 0.09741264 0.01953228 0.27345306 0.013176499 -0.087638915
-0.036144547 0.10790707 0.08831525 -0.13634138 0.018941263 -0.031922624 0.009020491 -0.0063771643
0.0757281 -0.06097819 0.042644184 0.062908724 0.08509256 0.039763074 -0.12588814 -0.06793646
0.059595 0.026545037 -0.113046534 0.0005869585 0.10410976 0.07952327 -0.13191241 -0.029339973
-0.121101834 0.0013262734 -0.0632702 -0.10445925 -0.0027760756 0.016030189 -0.016820615 0.069645375
-0.0804371 0.088005595 0.08018114 -0.09340766 -0.025670085 -0.00861734 0.061499633 0.016159706
0.046110477 -0.008232775 -0.051585145 0.041865338 -0.12874001 -0.040920287 -0.020176703 -0.048491072
-0.037201673 -0.04144475 -0.016136026 0.0060863458 -0.090830185 -0.0035626353 0.08427213 -0.009022245
0.014270946 -0.011703883 0.020366596 0.06453532 0.13561709 0.10866285 0.100190595 0.015265894
-0.07485311 -0.045386218 0.062899396 -0.006408383 -0.058222435 -0.078920275 -0.13077636 -0.11502702
-0.023725256 0.06518976 1.1107887 -0.09843251 0.078848585 -0.066944994 -0.0030510228 -0.038539384
0.019824658 -0.010457513 -0.09522305 -0.08089507 -0.018692655 0.041547466 -0.045309007 0.020946547
-0.09952167 0.0016505271 0.11028321 -0.037420984 0.11362503 0.05274586 -0.09137027 0.06978321
-0.012286237 -0.04781648 0.09730544 -0.07278426 0.016385764 -0.028494744 0.07679122 0.049170464
0.08628907 0.041123573 -0.035722043 -0.009707335 -0.10541355 0.0770051 0.10067239 0.08931533
-0.06891061 0.016557202 -0.075317405 -0.029986922 -0.05792433 0.04776294 -0.040604085 -0.0026374757
-0.008365241 0.046444945 -0.04928362 -0.0071439184 -0.057062037 0.054954667 -0.033591412 0.11087667
0.042967748 0.023374617 0.010039579 -0.011053231 0.025772903 0.0016122672 -0.009907717 0.016760292
-0.06567233 -0.028804446 0.12056858 -0.09811308 -0.0586454 0.12957594 0.121053666 -0.008079187
-0.12980112 0.085076906 -0.1395422 -0.04562744 -0.03269632 -0.004391116 0.012721194 0.109941795
0.011408137 0.09932161 0.10471518 -0.07808535 0.033510976 -0.076893084 -0.051834933 0.029083163
0.054199595 0.08850798 -0.07553014 0.007978651 0.059243366 -0.10230677 0.07950329 -0.10208716
0.0011806199 -0.021588195 -0.06283846 0.012243662 0.08036935 -0.014494799 -0.0638051 -0.06887794
00000000: 29a3 253f 8582 6d3d 966b cbbd 4cb7 b0bd
00000010: 88e5 06bd 8c83 a03c 810e 7d3b c187 a03d
00000020: 9701 c5bc 8ab2 b53d 7dee a7bc 8983 12bd
00000030: bf27 d7bd bfa7 cabd bf46 0cbd fb20 7bbb
00000040: 9076 393d b903 853d cf26 a6bd bd28 58bd
00000050: 95a6 1c3d c3d5 b53d ac68 35bd 04c2 c63d
00000060: 23ec 1bbd 82fb 1d3d e4eb ab3d b96e fbbd
00000070: b916 9fbc 71a7 d7bc 2271 b1bd efa3 903d
00000080: ed09 b0bd 52dc 60bd 3bde b7bd 83d5 d3bd
00000090: a834 98bd d8e7 c03d ed64 433d 1158 553d
000000a0: 67b0 ef3b e62e fdbc 3cf3 ad3c 2807 f4bd
000000b0: fa54 3abd 93b2 88bd c439 2d3d cf64 d43d
000000c0: a807 25bc beba 8dbd de5c 913d ec07 c63d
000000d0: 9347 a3bb 02e5 943c f212 983d d320 97bd
000000e0: 0f71 893c 3d65 bbbd c734 a8bd 5db6 5fbd
000000f0: 1491 d93d fc88 813d 64b8 dfbd 7d4b 443d
00000100: b751 913d 98ba 18bd b86f 0a3e 7b0c fe3c
00000110: 7fb1 c0bb 6d55 dd3d 473a aebd 3a67 b4bd
00000120: 7f18 213d 1245 c33d e6f0 c13d 4780 c73d
00000130: 2902 a03c 0a02 8c3e 3ee2 573c 087c b3bd
00000140: 4e0c 14bd 62fe dc3d a0de b43d 139d 0bbe
00000150: b52a 9b3c 4cc1 02bd aeca 133c 88f7 d0bb
00000160: 5617 9b3d 44c4 79bd abab 2e3d 4ad6 803d
00000170: 0245 ae3d 9bde 223d d2e8 00be 4522 8bbd
00000180: e319 743d fa74 d93c f184 e7bd 1ede 193a
00000190: 7f37 d53d 19dd a23d 0c14 07be 625a f0bc
000001a0: 3d04 f8bd 5ad6 ad3a ce93 81bd bbee d5bd
000001b0: d2ee 35bb be51 833c 63cb 89bc 3ca2 8e3d
000001c0: 35bc a4bd 473c b43d 0236 a43d 844c bfbd
000001d0: 124a d2bc be2f 0dbc 0ae7 7b3d 5c61 843c
000001e0: 57de 3c3d c3e2 06bc f24a 53bd fd7a 2b3d
000001f0: 6cd4 03be 089c 27bd 9d49 a5bc 939e 46bd
00000200: c860 18bd f8c1 29bd b32f 84bc f86f c73b
00000210: 2d05 babd 1a7b 69bb de96 ac3d 0ad2 13bc
00000220: b0d0 693c a5c1 3fbc d9d7 a63c 182b 843d
00000230: 35df 0a3e a18a de3d ba30 cd3d cd1d 7a3c
00000240: 964c 99bd e6e6 39bd 66d1 803d 6afd d1bb
00000250: a67a 6ebd f4a0 a1bd 3dea 05be 4993 ebbd
00000260: 785b c2bc 3582 853d 532e 8e3f fc96 c9bd
00000270: 5e7b a13d 751a 89bd abf3 47bb 79db 1dbd
00000280: 5267 a23c fd55 2bbc 4d04 c3bd 51ac a5bd
00000290: 5721 99bc ad2d 2a3d f095 39bd 1898 ab3c
000002a0: 04d2 cbbd 8056 d83a 2adc e13d bf46 19bd
000002b0: 3db4 e83d 0b0c 583d 5620 bbbd 80ea 8e3d
000002c0: 374c 49bc 37db 43bd 1348 c73d ea0f 95bd
000002d0: 703b 863c cf6d e9bc b744 9d3d f866 493d
000002e0: 53b8 b03d 3171 283d 4751 12bd 840b 1fbc
000002f0: 0fe3 d7bd dab4 9d3d 532d ce3d f5ea b63d
00000300: 0221 8dbd f8a2 873c 0340 9abd 22a7 f5bc
00000310: 1042 6dbd 13a3 433d 7850 26bd 80d9 2cbb
00000320: 5d0e 09bc 0e3d 3e3d 9fdd 49bd 8817 eabb
00000330: e2b9 69bd 2518 613d 2697 09bd 4f13 e33d
00000340: f3fe 2f3d 207c bf3c 0c7d 243c 9c18 35bc
00000350: b221 d33c b652 d33a fa53 22bc e14c 893c
00000360: 377f 86bd 4df7 ebbc a9ec f63d 83ef c8bd
00000370: 2936 70bd 8eaf 043e fcea f73d 915e 04bc
00000380: 96ea 04be cd3c ae3d 27e4 0ebe d7e3 3abd
00000390: 94ec 05bd 5ae3 8fbb 8e6c 503c 2a29 e13d
000003a0: 32e9 3a3c 2169 cb3d ea74 d63d 36eb 9fbd
000003b0: ce42 093d 1f7a 9dbd de50 54bd d03f ee3c
000003c0: 6500 5e3d ac43 b53d 8caf 9abd e3b8 023c
000003d0: 2ca9 723d 3686 d1bd 9fd2 a23d 1313 d1bd
000003e0: 08bf 9a3a bad9 b0bc 73b1 80bd a499 483c
000003f0: b098 a43d 987b 6dbc 40ac 82bd e10f 8dbd

net.0.bias f4 [128]
-0.026960386 -0.04365735 -0.06669759 0.033062547 -0.040693067 -0.057230063 0.039157107 -0.035980087
0.017779017 -0.007098221 0.04713478 0.07571562 -0.10015575 -0.048772898 0.11173366 0.011161267
-0.024180155 0.08970234 0.12343187 0.034368776 -0.08160338 0.116123326 -0.10321296 -0.099354476
0.012641298 -0.035431825 -0.11527057 0.089693286 0.022935946 -0.06581806 0.036294322 0.080036774
-0.0034101491 0.08754489 0.06218321 0.040443633 -0.05446081 -0.08588084 -0.0014114782 -0.037230376
-0.11293001 -0.1058875 -0.06352217 0.017453203 -0.037800677 -0.095747836 -0.019667171 -0.029126551
-0.032013815 0.07494881 0.054463103 0.07674755 0.11161186 0.0020541467 -0.058809355 -0.00782577
0.030499373 -0.037633646 0.08608403 0.054881036 -0.08554599 0.02349742 0.0073139425 0.05219037
-0.058855504 0.10250476 -0.035184044 0.04848681 -0.0562061 0.03402474 -0.034216166 -0.049730446
-0.09152218 0.040608 0.025266735 0.029593643 -0.062424578 0.02524657 -0.056013685 0.02923633
0.10923289 -0.09371604 0.044343878 -0.07680759 0.03767387 -0.024862498 0.042859536 -0.0825357
0.07941519 0.0710019 -0.07742683 -0.07351128 0.073529236 -0.0765356 0.04182169 -0.043865513
-0.097002685 0.029044656 -0.03465892 -0.057495132 0.04234518 0.04308021 0.080066495 0.108420186
0.039542165 -0.032929912 -0.0102408845 0.082498744 -0.10013984 0.09172928 0.048546124 0.040421274
0.03414626 -0.095851 0.038214944 -0.01302712 0.005208265 -0.05780082 0.086111836 -0.012439345
-0.011757812 -0.09208401 0.0980232 -0.10739344 0.077160776 0.046235975 0.015251268 -0.110335335
00000000: 07dc dcbc 0dd2 32bd bf98 88bd 986c 073d
00000010: c6ad 26bd 126a 6abd 3463 203d db5f 13bd
00000020: 4da5 913c 3298 e8bb 6610 413d ca10 9b3d
00000030: 751e cdbd 17c6 47bd 9ed4 e43d bfdd 363c
00000040: 7615 c6bc dcb5 b73d d9c9 fc3d 46c6 0c3d
00000050: ac1f a7bd 11d2 ed3d 5161 d3bd 5c7a cbbd
00000060: 721d 4f3c f620 11bd fa12 ecbd 1db1 b73d
00000070: 2ae4 bb3c 9ecb 86bd 5ba9 143d 52ea a33d
00000080: cf7c 5fbb bc4a b33d d2b3 7e3d 39a8 253d
00000090: 4c12 5fbd 4be2 afbd 5901 b9ba e17e 18bd
000000a0: d947 e7bd 8cdb d8bd e917 82bd 05fa 8e3c
000000b0: e2d4 1abd 7117 c4bd 0c1d a1bc ce9a eebc
000000c0: eb20 03bd c37e 993d b414 5f3d d22d 9d3d
000000d0: c294 e43d dd9e 063b 14e2 70bd a937 00bc
000000e0: d2d9 f93c bd25 1abd d34c b03d f0ca 603d
000000f0: bc32 afbd a97d c03c cca9 ef3b 92c5 553d
00000100: 7812 71bd 04ee d13d 251d 10bd 1b9a 463d
00000110: 5e38 66bd 875d 0b3d 4026 0cbd 27b2 4bbd
00000120: fb6f bbbd 9354 263d 2ffc ce3c 5e6e f23c
00000130: eab0 7fbd e5d1 ce3c 9b6e 65bd 0781 ef3c
00000140: 7eb5 df3d 32ee bfbd eda1 353d 4c4d 9dbd
00000150: ea4f 1a3d 70ac cbbc 7b8d 2f3d 7a08 a9bd
00000160: 6ea4 a23d 7269 913d f591 9ebd 158d 96bd
00000170: 7f96 963d b2be 9cbd 384d 2b3d 53ac 33bd
00000180: 58a9 c6bd 0fef ed3c 83f6 0dbd 0480 6bbd
00000190: 2472 2d3d e074 303d e7f9 a33d 670b de3d
000001a0: f7f6 213d 84e1 06bd 62c9 27bc 1af5 a83d
000001b0: 1e16 cdbd 90dc bb3d 4dd8 463d c790 253d
000001c0: f3dc 0b3d 874d c4bd 4687 1c3d b46f 55bc
000001d0: 18aa aa3b 8dc0 6cbd 675b b03d 65ce 4bbc
000001e0: d7a3 40bc 8b96 bcbd 63c0 c83d 18f1 dbbd
000001f0: 7806 9e3d ef61 3d3d 74e0 793c 7ef7 e1bd

net.2.weight f4 [128, 128]
-0.029630434 -0.056959406 -0.021119032 0.02368722 -0.0071836966 -0.024441894 0.042212073 0.053321805
-0.079768166 0.037063275 -0.009059057 0.07078682 -0.07708759 -0.07135478 -0.01770679 0.1271932
0.05753538 -0.016343787 -0.014145568 -0.02143385 0.006706491 -0.012925689 -0.020090219 0.07948576
0.030801436 0.081155196 -0.052430883 -0.07130646 -0.0015496372 0.0027898548 0.055680785 0.08336521
-0.06309179 0.089473374 0.06601767 0.08492346 0.029967727 -0.028164156 -0.018810708 0.0014261792
-0.06257483 -0.037437327 0.07111956 0.046756588 0.023065548 0.008554503 0.019070521 -0.007881988
-0.052394576 -0.00451094 -0.031578153 -0.013393844 -0.01268153 0.0052114814 -0.07313879 -0.03253197
-0.036422238 -0.00436546 -0.07678703 0.075340435 -0.046060454 0.08274688 -0.10716764 -0.0060169203
-0.022741433 -0.038635124 -0.027755352 -0.073990144 0.039201666 0.07483844 -0.07323969 -0.019416697
-0.06285606 0.025658187 -0.05354637 0.09708463 -0.0048186677 0.018169427 0.094487764 -0.07405256
-0.04578986 -0.010306979 -0.08664728 0.02054281 -0.008704113 -0.082909614 -0.03415386 -0.060293704
0.03288563 0.087742105 0.086459614 -0.0751242 0.042256244 0.008038547 0.03845533 0.04133098
-0.086974226 -0.07147044 -0.04660191 0.0022638652 0.0484036 -0.036040165 -0.0011739788 -0.044733774
0.102331005 -0.08103891 -0.040036045 0.042880226 -0.08062233 0.07133975 -0.089878544 -0.02256628
-0.031113446 0.002456865 -0.039825242 0.044067025 -0.055634115 -0.04263138 -0.0131465895 -0.06713083
-0.095327295 0.06287376 0.110410795 -0.016165027 -0.012630599 0.03334722 0.02758175 -0.07932501
0.0010563317 0.12222341 0.05495894 -0.048952024 0.014257698 -0.020325564 -0.1214626 -0.03980054
0.10943188 0.037848193 0.059888437 -0.07344092 -0.0060805604 0.0989862 -0.019846506 -0.017037673
-0.04674448 -0.06917869 -0.018126333 -0.039029688 -0.0663825 0.09297587 0.095041506 -0.11216027
-0.024860313 0.06398319 0.08562547 -0.07373789 -0.0439302 0.04829998 -0.0116938185 -0.025855735
-0.008028545 0.039418507 -0.040969085 0.10724531 0.07007999 -0.009654565 -0.04482461 0.066168346
0.031850096 -0.05701828 -0.06939126 0.05066981 -0.03759161 -0.044149287 0.06898259 0.010898238
0.08794635 0.03330835 0.09844879 0.08494496 0.033546045 0.084235504 -0.058666743 0.08035137
0.016049026 0.10004887 -0.041377418 -0.060041346 0.06756535 -0.06547698 0.022756312 0.15421763
0.052474126 -0.05154122 -0.049546547 -0.043162163 -0.081396565 0.057503525 0.06407242 0.07614745
0.065374464 0.084369205 -0.04289596 0.06631495 -0.008099398 0.062140003 0.024921853 -0.015476146
0.06256523 0.123529896 0.050464313 -0.016195819 -0.016313992 0.07275795 -0.025501264 0.036934033
-0.02055084 0.0628253 -0.023691254 0.07061272 0.0029688526 0.025613012 0.058753796 0.05526179
0.04802963 -0.06091119 -0.0025369853 0.09191213 0.093458824 -0.11316848 -0.05724431 0.039144438
-0.07948925 -0.046770103 -0.05084592 -0.055702128 -0.030190866 0.12254828 -0.08219169 0.059311025
-0.058730993 -0.019369725 -0.02953967 0.04201243 -0.042282645 -0.02135198 -0.034907244 -0.014744349
0.038574416 0.07710819 0.04747306 0.02909335 -0.06873742 0.034998305 0.042805687 0.07918117
00000000: 86bb f2bc 444e 69bd d201 adbc b30b c23c
00000010: 3765 ebbb 5e3a c8bc 91e6 2c3d f767 5a3d
00000020: 7e5d a3bd a9cf 173d 706c 14bc aef8 903d
00000030: 19e0 9dbd 7422 92bd d40d 91bc ef3e 023e
00000040: 38aa 6b3d 68e3 85bc d0c2 67bc 0b96 afbc
00000050: 20c2 db3b 45c6 53bc 3e94 a4bc 6ec9 a23d
00000060: 4b53 fc3c b234 a63d c4c1 56bd 1f09 92bd
00000070: 321d cbba ffd5 363b 8911 643d 61bb aa3d
00000080: 4536 81bd d13d b73d 4634 873d 5aec ad3d
00000090: e17e f53c 84b8 e6bc ea18 9abc a2ee ba3a
000000a0: 3c27 80bd e257 19bd 22a7 913d d683 3f3d
000000b0: f6f3 bc3c 3028 0c3c c839 9c3c 7423 01bc
000000c0: b29b 56bd 82d0 93bb 1858 01bd da71 5bbc
000000d0: 31c6 4fbc 13c5 aa3b cac9 95bd 3e40 05bd
000000e0: 7c2f 15bd 220c 8fbb 8542 9dbd 164c 9a3d
000000f0: e3a9 3cbd 3277 a93d b57a dbbd 9629 c5bb
00000100: 3e4c babc dd3f 1ebd 315f e3bc 2588 97bd
00000110: ed91 203d e544 993d b1fe 95bd c40f 9fbc
00000120: aeba 80bd 1e31 d23c 7053 5bbd 4ed4 c63d
00000130: eae5 9dbb 0dd8 943c cd82 c13d dea8 97bd
00000140: 268e 3bbd 9ade 28bc 2174 b1bd 6549 a83c
00000150: b29b 0ebc 84cc a9bd ebe4 0bbd 88f6 76bd
00000160: 15b3 063d 22b2 b33d bd11 b13d b7da 99bd
00000170: e214 2d3d 1cb4 033c 5683 1d3d ac4a 293d
00000180: 8b1f b2bd 185f 92bd a5e1 3ebd 5b5d 143b
00000190: da42 463d da9e 13bd 31e0 99ba c33a 37bd
000001a0: eb92 d13d baf7 a5bd d6fc 23bd 2da3 2f3d
000001b0: 521d a5bd 931a 923d 3e12 b8bd ebdc b8bc
000001c0: a0e1 febc 5b03 213b cb1f 23bd a07f 343d
000001d0: 99e0 63bd 3e9e 2ebd cb64 57bc e37b 89bd
000001e0: f53a c3bd f5c3 803d 0e1f e23d 856c 84bc
000001f0: 92f0 4ebc 1897 083d 1ff3 e13c 2775 a2bd
00000200: 9c74 8a3a 4450 fa3d a01c 613d eb81 48bd
00000210: 1f99 693c cc81 a6bc 62c1 f8bd e405 23bd
00000220: d21d e03d b506 1b3d 944d 753d 3168 96bd
00000230: 703f c7bb 47b9 ca3d 2495 a2bc 9792 8bbc
00000240: 2477 3fbd 8fad 8dbd ad7d 94bc 98dd 1fbd
00000250: 8cf3 87bd 226a be3d 1fa5 c23d 49b4 e5bd
00000260: dba7 cbbc 9e09 833d 685c af3d e403 97bd
00000270: 27f0 33bd 33d6 453d 6e97 3fbc 68cf d3bc
00000280: 298a 03bc 4d75 213d 33cf 27bd 6ea3 db3d
00000290: 1986 8f3d 2e2e 1ebc 039a 37bd 4583 873d
000002a0: 3f75 023d 008c 69bd 011d 8ebd 268b 4f3d
000002b0: a9f9 19bd e2d5 34bd bf46 8d3d 868e 323c
000002c0: 371d b43d 566e 083d 859f c93d a0f7 ad3d
000002d0: 9467 093d aa83 ac3d 8a4c 70bd 428f a43d
000002e0: 3f79 833c 6ce6 cc3d 5e7b 29bd eaed 75bd
000002f0: b45f 8a3d cb18 86bd 726b ba3c 3aeb 1d3e
00000300: 1cef 563d e31c 53bd 52f1 4abd cfca 30bd
00000310: 3eb3 a6bd d188 6b3d 6738 833d 32f3 9b3d
00000320: 0ce3 853d c3c9 ac3d adb3 2fbd 22d0 873d
00000330: 56b3 04bc 8486 7e3d ea28 cc3c a98f 7dbc
00000340: 3322 803d 3efd fc3d abb3 4e3d 18ad 84bc
00000350: eca4 85bc 1f02 953d 07e8 d0bc 2448 173d
00000360: 3c5a a8bc 8daa 803d 2914 c2bc 679d 903d
00000370: 1591 423b 61d2 d13c d2a7 703d 305a 623d
00000380: b8ba 443d 037e 79bd 8d43 26bb 6d3c bc3d
00000390: 5767 bf3d e0c4 e7bd 0279 6abd eb55 203d
000003a0: 43cb a2bd 0292 3fbd d043 50bd ea27 64bd
000003b0: d652 f7bc 98fa fa3d 1e54 a8bd 1ef0 723d
000003c0: e98f 70bd 42ad 9ebc 2efd f1bc 3a15 2c3d
000003d0: 9130 2dbd 59ea aebc e6fa 0ebd 4892 71bc
000003e0: 3500 1e3d e6ea 9d3d 1d73 423d 2d55 ee3c
000003f0: 34c6 8cbd 625a 0f3d 0455 2f3d bd29 a23d

net.2.bias f4 [128]
-0.02757586 -0.049804073 0.075055525 0.071265906 0.017063776 -0.047085855 0.034735892 -0.04900214
-0.075293906 0.08301609 0.04851438 -0.032007925 0.06929817 0.006717439 0.031985633 0.00092168385
0.06922461 0.063992485 -0.010248948 0.05049918 0.04079179 0.050796412 -0.015909819 -0.039242007
0.07457966 0.052980315 -0.08223398 0.019351436 0.087193616 0.056691885 0.05507918 0.05812875
-0.078075185 -0.053814348 0.07763516 0.026678046 -0.030261798 0.08427968 -0.019599723 0.06643491
-0.0057732067 0.06253486 0.03129891 -0.09188136 0.040662408 -0.0175976 0.038012214 0.030837556
0.0428205 -0.044718422 0.06638951 0.0428965 -0.07941904 0.09346955 0.010244444 0.0825651
-0.034551702 -0.06359658 0.009928065 0.019909702 0.014401735 -0.0046261144 -0.05823443 -0.005824393
0.07054012 -0.070106275 0.07120436 0.0063654943 -0.030944215 -0.038942497 0.07496109 -0.080652975
-0.062040195 -0.07515059 -0.07318767 0.03828992 -0.06312098 0.013999135 0.05341753 -0.070192486
0.059264112 -0.012171206 -0.068814136 0.04173289 0.08410867 -0.018053988 0.0030146176 0.055321295
-0.03651971 0.021192592 0.016016042 0.025024662 -0.0012886714 -0.06372449 -0.050570212 -0.013429344
-0.05542458 -0.03851002 0.016836874 0.0070988997 0.008561219 -0.025614955 0.03436956 -0.073235884
0.05314334 0.019542094 0.052591782 0.039980393 0.02118132 -0.021903787 -0.0057650306 0.035923243
0.092898905 0.05023473 0.0050275666 -0.041413516 0.040888857 0.041201975 0.05791942 0.0020480638
0.088228226 0.06449505 -0.018867262 0.064247325 0.053014483 -0.025998244 0.049099192 0.081728056
00000000: c5e6 e1bc 5bff 4bbd b6b6 993d dcf3 913d
00000010: 55c9 8b3c 19dd 40bd 3947 0e3d 78b6 48bd
00000020: b133 9abd 5704 aa3d 04b7 463d be1a 03bd
00000030: 33ec 8d3d f61d dc3b 5e03 033d 289d 713a
00000040: a2c5 8d3d 7e0e 833d 34eb 27bc 3ad8 4e3d
00000050: 4b15 273d e60f 503d 4f55 82bc 3abc 20bd
00000060: 39bd 983d e301 593d 4a6a a8bd e786 9e3c
00000070: 9192 b23d c035 683d b59a 613d 6a18 6e3d
00000080: e2e5 9fbd 6f6c 5cbd 2fff 9e3d eb8b da3c
00000090: 97e7 f7bc d39a ac3d 998f a0bc 070f 883d
000000a0: 2b2d bdbb 4712 803d 4933 003d 4b2c bcbd
000000b0: a08d 263d d828 90bc b2b2 1b3d 0b9f fc3c
000000c0: 8c64 2f3d aa2a 37bd 39f7 873d 3eb4 2f3d
000000d0: 73a6 a2bd f76c bf3d 50d8 273c e417 a93d
000000e0: 1686 0dbd ec3e 82bd 53a9 223c ac19 a33c
000000f0: 41f5 6b3c a996 97bb 3a87 6ebd 8dda bebb
00000100: 5777 903d e193 8fbd 97d3 913d a395 d03b
00000110: b97e fdbc 2b82 1fbd 3385 993d 632d a5bd
00000120: dc1d 7ebd 8de8 99bd 6be3 95bd e4d5 1c3d
00000130: 9345 81bd a15c 653c 57cc 5a3d 14c1 8fbd
00000140: edbe 723d bd69 47bc 6dee 8cbd 1bf0 2a3d
00000150: 2b41 ac3d f5e5 93bc e490 453b 9598 623d
00000160: b195 15bd 169c ad3c 1334 833c 8500 cd3c
00000170: a3e8 a8ba fc81 82bd b622 4fbd c006 5cbc
00000180: e204 63bd afbc 1dbd 7ced 893c e39d e83b
00000190: 5b44 0c3c 74d6 d1bc 19c7 0c3d b2fc 95bd
000001a0: d5ac 593d be16 a03c 7b6a 573d 7bc2 233d
000001b0: 7384 ad3c 926f b3bc 95e8 bcbb 4024 133d
000001c0: c841 be3d efc2 4d3d 49be a43b 38a1 29bd
000001d0: 137b 273d 67c3 283d ea3c 6d3d cf38 063b
000001e0: 00b1 b43d fb15 843d 848f 9abc 1a94 833d
000001f0: b725 593d 45fa d4bc 3c1c 493d 0a61 a73d
