ddqn_out/dqn_ep1100.pt (torch, 464501 bytes, 24 tensors)

net.0.weight f4 [128, 77]
000000 3b b8 0f 3f ca 18 6c 3d 19 3f cb bd 11 dd a6 bd
       0.5614049 0.05764083 -0.09924144 -0.08147634
000010 74 ff fd bc b7 c2 b0 3c 9e be d9 3b 43 e1 a1 3d
       -0.031005599 0.021577222 0.006645038 0.079042934
000020 5c 99 b2 bc c2 73 b0 3d b6 59 c6 bc 5f 0c 12 bd
       -0.021801643 0.08615829 -0.0242127 -0.03565633
000030 78 05 d7 bd 93 7e ca bd 41 bf 0c bd 45 fb 68 bb
       -0.1049909 -0.09887423 -0.03436208 -0.003555016
000040 92 4f 34 3d 97 e3 83 3d 95 b8 a6 bd 78 92 59 bd
       0.044021197 0.06439894 -0.08140675 -0.0531182
000050 da 3c 1b 3d 47 47 b6 3d 6c 35 27 bd 1d c4 c9 3d
       0.03789983 0.08900314 -0.04082243 0.09851859
000060 c4 0b 1a bd 9a 59 25 3d 87 3b ac 3d dc bc f1 bd
       -0.037608877 0.040368654 0.084097914 -0.118036
000070 30 6e a6 bc 9a a7 e9 bc ff 88 b6 bd 95 c5 97 3d
       -0.020316213 -0.028522301 -0.08912849 0.07410733
000080 5c 07 b0 bd 98 b5 5b bd 74 b2 b5 bd 0d c1 d4 bd
       -0.08595154 -0.05363998 -0.08871928 -0.10388384
000090 b0 db 97 bd d7 39 c0 3d 32 fb 41 3d 56 ee 53 3d
       -0.07414949 0.09386032 0.0473587 0.051740967
0000a0 91 e9 fa 3b 6c 65 f4 bc 06 57 b5 3c 5c ce f3 bd
       0.007657238 -0.029833518 0.022136223 -0.11904594
0000b0 1e 22 40 bd ba e4 87 bd b3 7c 47 3d 33 89 db 3d
       -0.046907537 -0.06635423 0.048702907 0.10719528
0000c0 3f 06 2c bc 64 95 8a bd 06 79 91 3d 16 22 c6 3d
       -0.010499536 -0.06766775 0.071031615 0.0967447
0000d0 45 9c 1d bb 06 2e 91 3c 89 23 96 3d b3 df 97 bd
       -0.0024049443 0.017722141 0.073309965 -0.07415714
0000e0 c0 a9 86 3c 31 1a bc bd bb e9 a8 bd fb 6b 64 bd
       0.016438365 -0.09184683 -0.082477055 -0.05576704
0000f0 ee ed df 3d 64 f4 81 3d 18 05 dd bd f6 2e 4b 3d
       0.10934053 0.06345442 -0.10791987 0.049605332
000100 e3 62 91 3d 09 0b 06 bd 11 fa 04 3e 9c b2 0d 3d
       0.07098939 -0.032725368 0.12986018 0.034594163
000110 b2 8a 9b 3a a3 48 dc 3d bd 07 b3 bd 85 ff b3 bd
       0.0011866896 0.10756042 -0.0874171 -0.08788971
000120 96 49 1e 3d b3 6c c1 3d 87 d6 c1 3d e6 cf c6 3d
       0.038644396 0.09444561 0.09464746 0.09707622
000130 97 2e 9d 3c 2e b8 5f 3e 4d fa 38 3c 16 64 b9 bd
       0.019187255 0.21847603 0.011290145 -0.09052293
000140 5c c4 3f bd 58 86 d6 3d f6 31 b2 3d de 7a 0c be
       -0.046818122 0.10474843 0.087009355 -0.13718745
000150 6f 13 81 3c 90 b6 0a bd fb 6f df 3b 4f 7f 52 bc
       0.015756337 -0.03386551 0.006818769 -0.012847736
000160 79 b4 8f 3d c9 e9 81 bd 33 8f 20 3d af 74 83 3d
       0.07016844 -0.06343419 0.039199065 0.0641874
000170 20 e9 ab 3d 08 13 1d 3d e7 51 03 be 59 84 8d bd
       0.083940744 0.038348228 -0.12824212 -0.06910009
000180 f2 5f 6c 3d fb 00 ca 3c 7f dd e7 bd f5 22 ae bb
       0.057708688 0.02465867 -0.11321544 -0.005314226
000190 2a 46 cc 3d 02 d9 9e 3d ce 26 fc bd b5 5d fe bc
       0.0997432 0.07756235 -0.12312089 -0.031050542
0001a0 d6 54 fd bd 9b b3 10 ba f1 42 8c bd 56 84 d6 bd
       -0.12369697 -0.00055199274 -0.068487056 -0.1047446
0001b0 f5 78 ed bb e5 4e 8e 3c 7f 16 96 bc 88 8c 8a 3d
       -0.007247085 0.017371604 -0.018321274 0.067650855
0001c0 2e ac a5 bd b5 a9 b5 3d 15 fb a0 3d 81 29 c3 bd
       -0.08089481 0.0887026 0.0786039 -0.095294006
0001d0 11 be e1 bc 04 5a f8 bb 87 02 6a 3d d3 30 4f 3c
       -0.027556451 -0.00757909 0.057131317 0.012645918
0001e0 48 32 37 3d 2b a1 08 bc 16 c0 53 bd 0d 28 21 3d
       0.044725686 -0.008339207 -0.05169686 0.039344836
0001f0 fe 9a 04 be 39 58 38 bd 9c dc e1 bc 9a 55 58 bd
       -0.1294975 -0.04500601 -0.027571015 -0.05281601
000200 05 07 22 bd a9 e7 30 bd 36 c8 97 bc 97 12 c2 3b
       -0.039557476 -0.04318968 -0.018528085 0.0059226262
000210 d8 e2 b9 bd aa 3a b6 bb e1 b9 a8 3d fb b9 32 bc
       -0.0907647 -0.0055611925 0.082385786 -0.010908599
000220 d3 d7 4d 3c 1d d6 42 bc 07 66 65 3c 72 26 85 3d
       0.012563664 -0.011891869 0.014001376 0.065014735
000230 a7 b2 09 3e 4e 0f db 3d 8d 49 cc 3d 96 73 9f 3c
       0.13447057 0.106962785 0.09974966 0.019464295
000240 91 ad a1 bd 89 1b 2f bd ad 04 80 3d af e5 dc bb
       -0.07894433 -0.04275087 0.06250892 -0.0067412476
000250 be ad 77 bd 74 99 a8 bd 37 b7 06 be f9 05 ea bd
       -0.060468428 -0.08232394 -0.13155828 -0.114269204
000260 e4 78 c8 bc 3b a5 81 3d d1 2c 7f 3f 4c a3 ca bd
       -0.024471708 0.06330343 0.9967776 -0.09894428
000270 fc 01 a2 3d e7 f3 82 bd f4 e4 bd bb 00 66 18 bd
       0.07910535 -0.06394177 -0.0057951156 -0.03720665
000280 e6 1a 80 3c 49 82 1c bc 88 3c c2 bd 62 51 a7 bd
       0.015637826 -0.009552547 -0.09484202 -0.081698194
000290 50 af 90 bc 3c 8f 1c 3d 1f 2b 30 bd 0c 66 a3 3c
       -0.01766172 0.038222536 -0.043009873 0.01994612
0002a0 d7 42 cd bd 6c 85 1a 3b 5f de e0 3d 83 29 1b bd
       -0.10022514 0.002357806 0.10979914 -0.037881386
0002b0 da 20 e8 3d 77 f3 55 3d a6 2c bc bd 87 c5 8f 3d
       0.11334391 0.05223414 -0.091882035 0.07020097
0002c0 cc 28 07 bc f9 e8 4f bd 53 86 ca 3d 08 0b 93 bd
       -0.008249473 -0.05075929 0.098889016 -0.071798384
0002d0 48 0d 79 3c a6 3c e3 bc 6a f7 9d 3d 51 e1 4d 3d
       0.01520092 -0.02773888 0.07713206 0.050263707
0002e0 77 36 a7 3d cd 40 2a 3d 50 a8 0b bd f1 79 3c bc
       0.08164685 0.041565705 -0.034096062 -0.0115036825
0002f0 6c 46 d5 bd 46 44 9d 3d 65 d3 cd 3d 1b fc b5 3d
       -0.104138225 0.07679038 0.10050086 0.08885976
000300 52 2d 8e bd c2 71 83 3c a9 a7 9a bd f0 22 fd bc
       -0.06942238 0.016045455 -0.0755151 -0.030900449
000310 9e fd 73 bd 47 8b 49 3d 24 91 32 bd 04 d4 32 39
       -0.05956804 0.04920509 -0.043595448 0.00017054385
000320 0a 5a 03 bc 39 f8 3f 3d a2 ec 4d bd f5 cf e8 bb
       -0.008017072 0.046867583 -0.0502745 -0.0071048685
000330 3d 7e 66 bd 88 5e 72 3d 75 22 0b bd 6f 40 e2 3d
       -0.056272734 0.059172183 -0.033968408 0.11047446
000340 ab 4b 35 3d 20 20 bf 3c 64 97 1d 3c 1f 7b 3d bc
       0.044261616 0.023330748 0.009618614 -0.011564999
000350 79 f0 ce 3c 37 cf 33 bb 2d 2f 20 bc 90 94 6a 3c
       0.02526115 -0.0027436742 -0.009776873 0.014317647
000360 dc fb 84 bd 04 fe 08 bd 98 6b f8 3d f8 2d c8 bd
       -0.06493351 -0.033445373 0.12129897 -0.09774393
000370 16 fb 64 bd 25 53 07 3e be cd 02 3e 09 d7 b0 bb
       -0.055903517 0.13215311 0.12773797 -0.005396728
000380 58 b4 fc bd ae 40 af 3d a8 76 0f be 8e 62 31 bd
       -0.12339085 0.085572585 -0.14010108 -0.04330688
000390 e0 82 04 bd 96 29 9a bb 0b 0a 48 3c 84 73 7e 3d
       -0.032351375 -0.0047046645 0.012209426 0.062121883
0003a0 b4 fe 50 3c 65 f0 d4 3d fa 26 d7 3d 10 bf 9c bd
       0.012756038 0.10397414 0.10505481 -0.0765363
0003b0 35 f3 0d 3d 34 3d a3 bd 44 1f 56 bd fd b4 03 3d
       0.03465577 -0.07970658 -0.05227591 0.032155026
0003c0 4e 7d 6c 3d a2 37 af 3d 95 56 8d bd 18 b3 51 3c
       0.057736687 0.08555533 -0.0690128 0.012799047
0003d0 2f 9d 5f 3d 7a f1 d4 bd 5d 94 a4 3d ae af cb bd
       0.05459326 -0.103976205 0.080361106 -0.099456176
0003e0 ac 05 2e 3b 2f 78 a4 bc 71 dd 7b bd 27 af 5e 3c
       0.0026553674 -0.02007684 -0.06149048 0.013591564
0003f0 b5 ff a8 3d 56 47 64 bc 4b 38 7e bd a6 51 87 bd
       0.08251897 -0.013933023 -0.062065404 -0.0660737

net.0.bias f4 [128]
000000 97 af df bc fe 8b 3a bd 0f a5 89 bd f6 f1 0c 3d
       -0.027305407 -0.045543663 -0.067209356 0.03441044
000010 fc c0 23 bd 85 68 66 bd 0b 91 17 3d 43 f0 14 bd
       -0.039978966 -0.05625202 0.037003558 -0.036361944
000020 74 85 95 3c f4 3c 07 bc 01 08 41 3d 28 3a 9e 3d
       0.018252112 -0.008254278 0.047126774 0.07725936
000030 75 1e cd bd 48 ff 44 bd 9e d4 e4 3d 7f b4 3f 3c
       -0.10015575 -0.048095018 0.11173366 0.0117007485
000040 d6 ed cd bc 5c 78 b5 3d be a9 f8 3d f5 c9 0c 3d
       -0.025137823 0.08860847 0.12141751 0.03437229
000050 d0 3e a7 bd a0 2e ed 3d 90 ad d4 bd 66 1b ca bd
       -0.081662774 0.11581159 -0.10384667 -0.09868507
000060 94 16 55 3c f7 b6 07 bd a2 e2 e8 bd d4 86 b6 3d
       0.013005871 -0.033133473 -0.11371352 0.08912435
000070 fc a2 b2 3c b6 4a 83 bd 5d a9 13 3d 52 ea a3 3d
       0.021806233 -0.06410734 0.03605019 0.080036774
000080 cb 9d 84 bb 45 f1 b7 3d ce 7a 7f 3d f9 91 22 3d
       -0.0040471307 0.089815654 0.062372975 0.03968999
000090 cd c8 5f bd 14 51 af bd 53 23 56 ba 3c 59 1c bd
       -0.054634858 -0.08560386 -0.0008168716 -0.038171038
0000a0 52 ac e6 bd 43 2e d8 bd 62 84 80 bd 1a c3 87 3c
       -0.11263336 -0.10555699 -0.0627525 0.016572524
0000b0 52 aa 1c bd 71 17 c4 bd 0c 1d a1 bc fc 10 03 bd
       -0.038248368 -0.095747836 -0.019667171 -0.03199862
0000c0 a2 3f 06 bd 3a 0c 9b 3d 44 13 64 3d 4b 4c 9b 3d
       -0.03277553 0.075706914 0.055682436 0.07582911
0000d0 d6 31 e6 3d 7f 1b 9c 3a 1f 4f 73 bd 0c ca 0f bc
       0.11239974 0.001191005 -0.059401628 -0.008776199
0000e0 2a 65 f3 3c ee 6e 15 bd 6c 61 ad 3d f0 ca 60 3d
       0.029711325 -0.036482744 0.084658474 0.054881036
0000f0 fa 47 a9 bd b4 0f c5 3c 87 49 06 3c 43 f3 50 3d
       -0.082656816 0.02405534 0.008196241 0.051013242
000100 1a b0 72 bd b8 b0 d0 3d 9d ad 0e bd c0 4e 45 3d
       -0.059249975 0.101899564 -0.03483354 0.048170805
000110 02 70 67 bd 49 63 08 3d 6e d5 0a bd 62 ee 4c bd
       -0.056503303 0.03329781 -0.03389495 -0.050032027
000120 ab 50 bd bd bd af 27 3d 20 bc cd 3c a2 ac f8 3c
       -0.09243902 0.04093908 0.025114119 0.030355755
000130 97 40 80 bd 94 9f d9 3c b9 1a 5e bd 5b d3 ff 3c
       -0.062623195 0.02656535 -0.054224703 0.031228712
000140 54 67 da 3d dc 03 c1 bd 04 5c 2d 3d 38 27 9d bd
       0.106642395 -0.09424564 0.04232408 -0.07673496
000150 61 ad 1b 3d 70 ac cb bc 96 05 33 3d ac 2a a8 bd
       0.038007144 -0.024862498 0.0437065 -0.08211264
000160 a6 e5 a0 3d c0 a0 93 3d 74 9f 99 bd a2 e4 93 bd
       0.07856302 0.07208395 -0.075011164 -0.072213426
000170 19 54 95 3d 80 e0 9d bd c3 c0 2d 3d a2 e4 3f bd
       0.07291431 -0.077088356 0.04242016 -0.0468489
000180 22 7b c9 bd f4 09 f0 3c 0c f3 0f bd f7 de 71 bd
       -0.09837939 0.029301621 -0.035143897 -0.059050526
000190 89 0b 28 3d d9 bc 32 3d 74 22 a5 3d a7 51 dd 3d
       0.041026626 0.04363713 0.08063212 0.108065896
0001a0 ed 12 1e 3d 84 e1 06 bd 0d b4 25 bc 4f 9b a9 3d
       0.038592268 -0.032929912 -0.010113728 0.08281576
0001b0 82 e8 cd bd 02 21 bb 3d e9 73 4b 3d dc 23 25 3d
       -0.10054113 0.09137155 0.049671087 0.0403174
0001c0 f8 1f 0f 3d 12 9e c4 bd 46 87 1c 3d 34 d4 58 bc
       0.034942597 -0.09600462 0.038214944 -0.013234187
0001d0 67 ad bd 3b 2a 61 71 bd 96 b9 ad 3d 48 e1 70 bc
       0.0057884934 -0.058930553 0.08482663 -0.014702149
0001e0 3d e7 37 bc 9d ad bb bd 25 a4 c5 3d 84 27 dc bd
       -0.011224565 -0.091639735 0.09650449 -0.107497245
0001f0 3d 93 9c 3d a2 43 3f 3d 19 71 81 3c 7e f7 e1 bd
       0.07645271 0.04669536 0.015801 -0.110335335

net.2.weight f4 [128, 128]
000000 31 0a ce bc c6 5e 58 bd ac 27 7d bc 59 64 c1 3c
       -0.025151344 -0.052824758 -0.015451353 0.02360742
000010 a5 e5 a3 bb 2d 30 b3 bc d6 30 3c 3d 98 da 6c 3d
       -0.005001741 -0.021873558 0.04594501 0.057825655
000020 15 01 a9 bd 4b 30 2d 3d 81 81 d5 3a 67 90 9b 3d
       -0.082521595 0.042282384 0.0016289206 0.07595902
000030 19 e0 9d bd 83 20 88 bd d4 0d 91 bc ed 7e 09 3e
       -0.07708759 -0.06646826 -0.01770679 0.13427325
000040 98 e2 7b 3d 96 04 4e bc 78 f2 74 bc 03 82 a0 bc
       0.061495394 -0.012574336 -0.014950387 -0.019593244
000050 55 d4 70 3b 08 a1 4b bc 63 c8 90 bc 2a 78 ac 3d
       0.0036747654 -0.01242853 -0.017673677 0.08421357
000060 f7 02 e5 3c 31 97 b0 3d 54 e0 46 bd 73 9b 8a bd
       0.027955515 0.086225875 -0.04855378 -0.06767931
000070 04 47 a9 3b bc b3 b0 3b 64 2f 77 3d 61 bb aa 3d
       0.0051659364 0.0053925198 0.06034793 0.08336521
000080 e1 1f 8d bd ca 94 b9 3d c7 86 83 3d bb 35 b1 3d
       -0.06890846 0.090615824 0.06422191 0.086528264
000090 92 3e 12 3d 60 11 d8 bc 1d 12 5d bc 84 96 95 ba
       0.035704203 -0.026375473 -0.013493088 -0.0011412655
0000a0 ef d3 87 bd 4d ce ff bc a5 2f aa 3d 86 75 57 3d
       -0.0663222 -0.031226302 0.08309869 0.052602313
0000b0 0f ad c5 3c 30 28 0c 3c c8 39 9c 3c 2d 7b ba bb
       0.024130372 0.008554503 0.019070521 -0.005690953
0000c0 8d c0 42 bd 1e 73 ff ba 17 f9 d8 bc 1b 73 7b bc
       -0.047546912 -0.0019489264 -0.026485963 -0.0153472675
0000d0 88 ba 03 bc 4b 5a fb 3b 04 f9 8e bd 34 95 13 bd
       -0.008040078 0.007670676 -0.0698109 -0.036030963
0000e0 48 3c 0d bd d6 cb 11 b9 f7 aa 98 bd 16 4c 9a 3d
       -0.034481317 -0.00013904212 -0.07454484 0.075340435
0000f0 95 5d 41 bd e2 62 a3 3d 46 2e d7 bd ac dc 64 bb
       -0.047208387 0.07977845 -0.10506873 -0.003492157
000100 4a cc e1 bc 35 9c 11 bd f2 e9 b3 bc 97 30 8b bd
       -0.027563233 -0.03554936 -0.02196214 -0.06796377
000110 46 fa 1e 3d 2d 45 9c 3d d6 a9 87 bd 69 fa 38 bc
       0.038812898 0.07630382 -0.066241905 -0.011290171
000120 a7 59 75 bd 43 35 c6 3c fe 87 57 bd 7d 0a ce 3d
       -0.059899952 0.024195319 -0.052619927 0.10060594
000130 44 5a ad bb 26 5d ba 3c 56 24 c7 3d 65 1c 94 bd
       -0.0052903015 0.022749495 0.097237274 -0.07231978
000140 7a 32 33 bd 6d 92 d6 bb 77 cf af bd 43 39 9f 3c
       -0.04374931 -0.006548217 -0.08584493 0.019436484
000150 48 d8 93 bb 84 cc a9 bd 3b 93 eb bc 1b af 7c bd
       -0.0045118667 -0.082909614 -0.028756728 -0.06169043
000160 57 07 14 3d 6f ef b5 3d 42 76 b1 3d b9 1b 96 bd
       0.036139812 0.08883559 0.08665134 -0.073295064
000170 85 e5 2d 3d 25 5b a9 3b ab 22 29 3d 9e 67 3a 3d
       0.042455215 0.005168336 0.041292828 0.045508973
000180 a0 d6 be bd d7 6e 86 bd 4a 15 42 bd 66 d8 d3 3b
       -0.0931828 -0.0656411 -0.047383584 0.0064650057
000190 22 9c 67 3d 2d da 13 bd 59 3c bd 3a ee 34 27 bd
       0.056545384 -0.03609674 0.0014437541 -0.040821962
0001a0 e4 25 d2 3d ba f7 a5 bd 97 a6 0c bd 55 c6 2b 3d
       0.10261133 -0.08103891 -0.03433856 0.04193719
0001b0 70 38 a6 bd fe 3e 8c 3d 62 25 ad bd e4 be 9a bc
       -0.08116233 0.06847952 -0.08454396 -0.018889852
0001c0 f9 c4 eb bc 34 b3 9a 3b cb 1f 23 bd 85 e1 54 3d
       -0.028780447 0.0047210697 -0.039825242 0.051972885
0001d0 6e f4 59 bd 1c ff 1a bd 21 ca 00 bc 1b df 9d bd
       -0.053211622 -0.037840948 -0.007860691 -0.077085696
0001e0 b1 04 b7 bd a3 f3 85 3d 1e 37 ee 3d 6b f3 0a bc
       -0.08936442 0.06540611 0.116316065 -0.008480887
0001f0 fb f2 43 bc 70 37 02 3d ca 0e 0d 3d 27 75 a2 bd
       -0.0119597865 0.03179115 0.034437932 -0.07932501
000200 e7 64 aa ba 46 70 f6 3d 73 b9 4f 3d e6 0e 4f bd
       -0.0013000042 0.12033133 0.050713968 -0.050551318
000210 18 55 78 3c 9d 12 af bc c4 cc f9 bd c3 3d 23 bd
       0.015157007 -0.02137118 -0.12197259 -0.039853822
000220 c5 c7 d6 3d 2f 77 0e 3d 0c a7 80 3d 6a 75 96 bd
       0.10487322 0.03478163 0.06281862 -0.07346614
000230 70 3f c7 bb 36 bf c6 3d 24 95 a2 bc dd 3a 40 bc
       -0.0060805604 0.09704439 -0.019846506 -0.011732784
000240 4f a0 2e bd d4 e5 8b bd 9f a1 a9 bc 9b 70 19 bd
       -0.04263335 -0.068309456 -0.02070695 -0.037460905
000250 1a a0 7d bd 0b 86 b6 3d e3 31 bb 3d 9f 8a d5 bd
       -0.061920263 0.089122854 0.091403745 -0.104268305
000260 2c c7 99 bc 46 b6 6d 3d 78 26 ad 3d b7 d7 9c bd
       -0.01877173 0.058035158 0.08454603 -0.07658332
000270 ba 0f 3d bd 0f f9 47 3d 87 5e 60 bc 68 cf d3 bc
       -0.046157576 0.048821505 -0.013694412 -0.025855735
000280 56 f1 ec bb 1e 28 38 3d 60 f8 3b bd 16 bd e5 3d
       -0.007230918 0.044960134 -0.045891166 0.11217706
000290 e2 08 90 3d 8e c9 ef bb cb 35 33 bd a0 6c 8b 3d
       0.07032944 -0.0073177284 -0.043752473 0.06807828
0002a0 38 89 13 3d 0b 8f 6c bd 52 74 94 bd f3 fa 41 3d
       0.036019534 -0.057753604 -0.07248749 0.047358464
0002b0 7c 1d 1f bd e2 d5 34 bd bf 46 8d 3d a7 17 fc 3b
       -0.038846478 -0.044149287 0.06898259 0.0076932493
0002c0 c6 be aa 3d 3a 9d 05 3d fe c9 ca 3d 44 ca a4 3d
       0.083371684 0.032620646 0.09901808 0.080463916
0002d0 39 b8 d6 3c 42 a1 b2 3d 3b 78 80 bd 96 b5 97 3d
       0.026210891 0.08722164 -0.06272932 0.07407682
0002e0 4e a7 7c 3c a3 50 cd 3d db 9d 2a bd ea ed 75 bd
       0.015420748 0.10025146 -0.04165445 -0.060041346
0002f0 19 b7 83 3d de 8e 71 bd 6b ea 83 3c 7e 59 19 3e
       0.064314075 -0.05897414 0.01610299 0.14975545
000300 5d 4d 59 3d fa b0 50 bd c7 c9 4b bd cf 4f 35 bd
       0.053052295 -0.050950028 -0.049752977 -0.044265565
000310 8a 89 a3 bd ca 86 7a 3d 81 4e 84 3d c2 78 9e 3d
       -0.07985218 0.0611637 0.06460286 0.077378765
000320 c9 c3 81 3d fe 0d a7 3d 36 2b 41 bd 77 02 8a 3d
       0.06336171 0.08156966 -0.04716035 0.067387514
000330 fa d7 db bb 19 84 76 3d 5d 32 cc 3c fe 80 63 bc
       -0.006709096 0.060184572 0.024926359 -0.013885735
000340 a5 3f 82 3d f7 47 f9 3d ed ea 3a 3d 99 e8 48 bc
       0.063597955 0.12171929 0.0456342 -0.012262487
000350 8c 28 73 bc 1f 02 95 3d 35 cd c2 bc f9 fc 18 3d
       -0.01484121 0.07275795 -0.023779491 0.03735063
000360 0f 09 d2 bc 9c 43 66 3d bb 14 d0 bc 67 13 93 3d
       -0.025639085 0.05621682 -0.02540051 0.07181435
000370 18 8b 19 3b 10 1c c8 3c 93 88 6a 3d 38 3c 58 3d
       0.0023428854 0.024427444 0.057259154 0.052791804
000380 7b 00 35 3d 53 89 74 bd ce f0 31 3a 15 d4 b5 3d
       0.04418991 -0.059701275 0.0006787897 0.08878342
000390 de 57 c2 3d 1d aa e0 bd 40 c3 61 bd d9 9f 13 3d
       0.094894156 -0.109699465 -0.055117846 0.036041114
0003a0 9e 2d bb bd 02 92 3f bd 4c 26 5f bd 83 38 6e bd
       -0.0913956 -0.046770103 -0.054479882 -0.058159363
0003b0 01 0e e9 bc 04 e1 f6 3d 03 fa a5 bd 13 d0 7a 3d
       -0.02844906 0.12054637 -0.081043266 0.06123359
0003c0 70 0a 6e bd 2c 75 ad bc 2e fd f1 bc 73 f6 35 3d
       -0.058115423 -0.021174036 -0.02953967 0.044424485
0003d0 f3 9c 2c bd 1f 9b 8f bc 6a 86 15 bd c4 f7 af bc
       -0.042141866 -0.017530022 -0.03650514 -0.021480449
0003e0 ba 6f 2a 3d 03 bc 99 3d 8e 1f 40 3d a3 6e dc 3c
       0.041610457 0.075065635 0.046905093 0.026908224
0003f0 5e af 87 bd 8c 0e 1c 3d 99 ca 2e 3d bd 29 a2 3d
       -0.066252455 0.03809981 0.04267368 0.07918117

net.2.bias f4 [128]
000000 a7 76 bb bc 72 ac 45 bd 8d f7 95 3d 93 60 92 3d
       -0.022883726 -0.04826016 0.07322607 0.07147326
000010 6e 42 9a 3c cb 09 44 bd 76 33 0c 3d b8 1f 4a bd
       0.018830504 -0.0478609 0.034228764 -0.049346656
000020 b2 0c 99 bd 0b 6b ad 3d cb ca 42 3d 25 c4 00 bd
       -0.074731246 0.084676825 0.04755668 -0.031437058
000030 d4 cf 87 3d 18 26 05 3c 44 9d 0a 3d 10 50 f2 3a
       0.06631437 0.008126758 0.033841386 0.0018486995
000040 90 75 93 3d 8b 96 82 3d 60 2c 15 bc 68 f4 48 3d
       0.07200158 0.0637637 -0.009104818 0.04906121
000050 01 f4 28 3d cd 4d 52 3d 10 13 5b bc 28 d7 11 bd
       0.041248325 0.051343728 -0.013371244 -0.03560558
000060 1f a0 98 3d 00 80 58 3d 91 04 ac bd 5b 56 ae 3c
       0.07452416 0.052856445 -0.083993085 0.021281412
000070 7f bd b5 3d 44 f1 69 3d 12 81 4e 3d b8 87 6e 3d
       0.08874034 0.057114854 0.05041606 0.0582349
000080 ad 39 9f bd 71 19 5b bd 92 ac 9b 3d c9 37 df 3c
       -0.07774673 -0.05349106 0.076012745 0.02724828
000090 53 2a e3 bc d3 a1 ad 3d bc d1 95 bc 8a 50 8a 3d
       -0.027730143 0.08478131 -0.018288486 0.06753643
0000a0 11 fb 9d bb 53 28 82 3d 0f 25 08 3d 96 b6 b4 bd
       -0.004821189 0.063553475 0.033238467 -0.08823888
0000b0 e8 6f 2a 3d 74 4c 8d bc 66 ca 13 3d a7 83 00 3d
       0.04161063 -0.01724837 0.036081694 0.031375553
0000c0 58 b6 2d 3d f0 05 37 bd 78 d1 88 3d c6 30 32 3d
       0.042410225 -0.044683397 0.06680578 0.043503545
0000d0 f4 4a a3 bd 6c 24 c0 3d 3a cd 14 3c 49 de 9f 3d
       -0.079732805 0.09381947 0.009082133 0.078060694
0000e0 2f 8a 09 bd b1 c2 81 bd d2 b5 32 3c a2 8b a2 3c
       -0.033579048 -0.063359626 0.010907607 0.019841973
0000f0 2a 15 7b 3c de 0f 7e bb 80 7d 6f bd 01 cd ff bb
       0.01532487 -0.0038766782 -0.058469296 -0.007806421
000100 c8 d1 91 3d 67 b2 8e bd f9 dd 93 3d 19 1f f8 3b
       0.07120091 -0.06967621 0.07220072 0.0075720665
000110 ad 83 f2 bc b3 c0 1b bd 46 2c 9c 3d 5b fb a7 bd
       -0.029603804 -0.03802557 0.07625632 -0.08202239
000120 3f c5 85 bd 36 04 97 bd 6b e3 95 bd b7 d3 0c 3d
       -0.06531762 -0.0737385 -0.07318767 0.034381595
000130 93 45 81 bd 81 56 7a 3c a5 67 5f 3d 85 50 89 bd
       -0.06312098 0.015279413 0.054542203 -0.06704811
000140 d5 90 74 3d 9d 79 3e bc 7d 9f 90 bd 22 c1 2d 3d
       0.059708435 -0.011625675 -0.0706167 0.042420514
000150 91 f8 ac 3d 7f 9f 93 bc 53 59 99 3b b3 4e 63 3d
       0.08445848 -0.01802039 0.0046798377 0.055494975
000160 b9 94 0f bd 6c b1 ac 3c d5 87 81 3c d4 af d3 3c
       -0.035053942 0.021080695 0.01581184 0.025840677
000170 33 5e a6 ba 65 15 7e bd 47 18 43 bd 54 81 32 bc
       -0.0012692868 -0.062032122 -0.047630575 -0.010895092
000180 59 36 62 bd f8 06 19 bd 4d ee 8d 3c 06 60 dd 3b
       -0.05522761 -0.03736016 0.017325545 0.0067558317
000190 5b 44 0c 3c 0e 6c ca bc 35 61 0d 3d 31 2e 97 bd
       0.008561219 -0.024709728 0.034516532 -0.07381857
0001a0 95 c8 5c 3d 69 da a9 3c 46 57 58 3d 2a dd 23 3d
       0.053902227 0.020734029 0.052817605 0.04000584
0001b0 51 fd a9 3c ad 55 a5 bc d6 b5 bd bb d8 5e 14 3d
       0.020750673 -0.020182455 -0.005789499 0.036223263
0001c0 95 68 bf 3d a8 97 54 3d b5 af ab 3b 40 28 27 bd
       0.09346119 0.051902443 0.005239452 -0.04080987
0001d0 e2 81 2c 3d 07 3e 39 3d 28 81 73 3d 3c 19 3c 3b
       0.042116053 0.04522517 0.059449345 0.0028701564
0001e0 02 9f b6 3d 44 10 86 3d 27 9f 9e bc 0c 5d 84 3d
       0.08917047 0.06546071 -0.019363 0.0646306
0001f0 93 ae 4d 3d 9b e7 c8 bc 5e bd 4e 3d 7a 39 a8 3d
       0.050215315 -0.0245245 0.050473563 0.08214088

net.4.weight f4 [15, 128]
000000 31 e0 e2 3d 22 0f e9 3b 31 6e 08 3c 77 5d 59 3b
       0.11077917 0.0071123997 0.008327053 0.0033167282
000010 ed 11 db 3c f8 bd 7e bd 7a 53 e0 bc 67 82 69 3d
       0.026741946 -0.062192887 -0.027383555 0.057009127
000020 0c 97 88 3d 71 8d a1 3b 5e a8 f6 bb cb d3 98 3d
       0.06669435 0.004930191 -0.007527395 0.07462271
000030 05 62 80 bd 61 98 ab b9 92 10 01 bd 98 a2 40 3d
       -0.06268696 -0.00032729193 -0.031509943 0.04703006
000040 32 f1 0e bd b8 be 97 bd 2e 63 01 3d 24 7f 86 bc
       -0.03489799 -0.074094236 0.031588726 -0.016418047
000050 8a 9e 7c 3d 3a e4 a1 3d cc 81 15 3d 7e 8a f0 ba
       0.061674632 0.07904859 0.036500737 -0.0018351821
000060 3e fd 32 3d 75 a4 90 3d 5d d2 07 3e 31 75 35 bd
       0.04369854 0.07062618 0.13263841 -0.044301216
000070 65 ca c3 3c 3f 77 04 bd 8b 89 9c 3c 9a 2b f3 bc
       0.02390022 -0.032340284 0.019108554 -0.029683877
000080 26 91 93 bd 74 af 95 bd 3d d7 a2 bd 6e fb a7 3d
       -0.07205419 -0.07308856 -0.0795121 0.08202253
000090 45 26 dd 3c 51 b2 4f 3d 56 e4 09 3d 2a 65 45 3d
       0.026995787 0.050707165 0.033665024 0.04819218
0000a0 05 9f 96 3d 61 35 db 3c d3 33 05 3d 18 cc 2e 3d
       0.07354549 0.026758851 0.032520127 0.042675108
0000b0 79 eb 65 3d 19 24 e6 3c 11 2d c3 bd 1d 60 33 bd
       0.056132767 0.028093385 -0.0953008 -0.043792833
0000c0 0e 4a 5a 3d 83 46 2c 3d 5a ff 67 bb c9 70 80 bd
       0.05329328 0.042059433 -0.0035400004 -0.06271512
0000d0 42 4b 20 3c 57 63 b1 3d 61 7b 64 bd 96 88 4f 3c
       0.009783568 0.08661526 -0.055781726 0.012666842
0000e0 89 9e a6 3c fc 79 cd bd 26 a7 a8 3d 2d 61 ac bd
       0.020339267 -0.10033032 0.08235006 -0.08416972
0000f0 cc 02 21 3d 1b b8 02 bc a9 98 ec bc c7 ef c3 bc
       0.039309308 -0.0079784645 -0.028881388 -0.023918046
000100 58 b2 5d 3d ee 11 9f 3c e6 9a fd 3c de f8 02 3b
       0.05412516 0.01941773 0.03095765 0.0019984762
000110 20 bd 45 bc 91 54 5b bc 07 bc 43 bd 2d 5f 75 3d
       -0.012069017 -0.013386861 -0.04778674 0.05990522
000120 84 d6 2d bc 32 87 30 bc b3 b0 aa 3d cb f0 83 3d
       -0.010610227 -0.010774421 0.08334484 0.06442412
000130 a5 e4 87 bd 18 a6 d9 bc b4 5c 8d 3d a0 25 c0 bb
       -0.06635407 -0.026568457 0.06902447 -0.0058638602
000140 87 bd 19 bd 95 0d a2 3d 9a 2c 18 3d af a5 b4 3d
       -0.037534263 0.07912747 0.03715191 0.08820664
000150 3b ce 43 3d 04 6d af 3d 27 c9 64 3d 09 fc 22 bc
       0.0478041 0.08565715 0.055855896 -0.009947785
000160 12 a7 a4 3d 55 07 d7 3d f4 49 61 bc 9e 0d 65 3d
       0.08039679 0.10499445 -0.013750542 0.05592119
000170 6d 53 c1 3c 03 77 5b 3d 7d 0b 8c bc 28 5b 57 3d
       0.02359935 0.053580295 -0.017095322 0.052577168
000180 6b 8e d9 bc 63 16 45 bd 50 a3 41 bd 62 d8 9a 3d
       -0.026557168 -0.048117053 -0.047274888 0.07560803
000190 10 cc a5 bd 8f f5 b5 3d 62 4d b8 3d bc 91 b2 bb
       -0.080955625 0.08884727 0.089991346 -0.005449502
0001a0 33 bd 97 3d 8c fa 57 3d 70 ea a3 3d c0 8a d8 3b
       0.07409134 0.052729174 0.080037 0.006608337
0001b0 e0 69 3f 3b 83 1b 7c bd 8e 0e 1d 3d 6b b9 cd 3c
       0.0029207394 -0.061549675 0.03834396 0.025112828
0001c0 63 b7 b7 3d 45 b3 b2 3d fe 74 cf 3c e5 64 18 3d
       0.08970525 0.08725599 0.02532434 0.037205596
0001d0 8f 9f 1d bc 58 f7 03 3d db 2e 08 3e 98 46 a0 3d
       -0.009620561 0.032218307 0.13299124 0.07825965
0001e0 7b 34 9d 3d ae f3 0e bc 53 3e e2 3c 92 ec 8e bd
       0.076760255 -0.00872509 0.02761761 -0.06978716
0001f0 03 fc 04 3d da fe 6e 3d 41 f7 3d 3c 1b 62 a6 3d
       0.0324669 0.058348514 0.011594594 0.08124181
000200 44 c0 07 bd 4c 48 c5 3d 04 84 91 bd c6 fb 3b 3d
       -0.033142343 0.0963293 -0.07105258 0.045894407
000210 27 6b a1 3d 95 e6 22 3c 44 4c 9a bd 54 cd a8 3c
       0.07881766 0.00994267 -0.07534078 0.02060572
000220 59 78 b3 3d 1e 18 b6 3d 6e b6 7a bd ae 8d 9e bd
       0.08763189 0.08891319 -0.061209135 -0.07741867
000230 cd f4 89 3d 54 1b 23 3d 1f 7c c8 3d be e8 ee 3a
       0.06736145 0.039820984 0.09789299 0.0018227322
000240 7f 08 ac 3d 38 8b c0 bd df ca 74 bc 9a ce 48 bd
       0.08400058 -0.09401554 -0.014940946 -0.049025156
000250 44 9a 1d bc 8c 00 8a bc ad 6f e0 bc 39 a5 e1 bc
       -0.009619299 -0.016845964 -0.027397001 -0.027544605
000260 20 89 74 bd 9a 69 b5 bc 96 04 0f 3d 9c ba ed bc
       -0.059701085 -0.022145081 0.034916483 -0.029019646
000270 16 1d 56 3d 5c 4c 7a bd 94 81 a7 3d 7a 13 81 bd
       0.052273832 -0.06110798 0.08179012 -0.06302543
000280 a9 c1 56 3d 8b ff 81 bd 44 64 4c bd 21 5b 46 3d
       0.052430782 -0.06347569 -0.04990031 0.04842675
000290 76 fd e0 3d f7 f8 8b bd 0d 0d 45 bd 2d c3 41 3d
       0.10985844 -0.06834596 -0.04810815 0.047305275
0002a0 39 c8 07 bd 70 58 c3 3c 7d 61 7a 3d 10 6f e9 3c
       -0.03314993 0.023845881 0.06112813 0.028495342
0002b0 7d 33 f0 3b 06 7f 4e 3d d9 b2 22 3c 12 a9 8e 3d
       0.0073303566 0.050414108 0.009930336 0.06965841
0002c0 e4 0e c1 3c c6 43 de 3d 0f 4a a7 3d 7d 1d c2 3b
       0.02356667 0.108527705 0.081684224 0.0059239254
0002d0 91 01 4e 3d 0b 18 8b 3d 9c e5 04 3d 89 6f 0a bd
       0.050294463 0.06791695 0.032445535 -0.033797774
0002e0 cc 5e bb 3d 71 9f e8 bb a4 1e 1e bd 24 0a 2e bd
       0.091489404 -0.007099085 -0.03860344 -0.04249014
0002f0 de 4b 72 bc 89 16 2b bc b7 3a b2 3b 44 15 6c bc
       -0.014788596 -0.0104423845 0.0054391283 -0.014409367
000300 3c 45 8c 3d 98 49 6f bc 3c d3 bf 3c 5f 40 6c 3d
       0.06849143 -0.014604948 0.023416154 0.057678577
000310 c5 26 a4 3d df 7a 12 be 3a 14 62 bb 61 d6 a0 bd
       0.08015207 -0.14304684 -0.003449692 -0.078533895
000320 3a d8 d2 bd e8 4e df 3d 27 f8 8b 3d 59 9e 81 bd
       -0.10295148 0.10903722 0.06834441 -0.063290305
000330 26 5b 0a bd 6d 8c ef 3d 39 63 f9 3d ff 5b 9a 3d
       -0.033778332 0.11696706 0.12177128 0.07537078
000340 2e ac 93 3d d1 5e 4c bd c0 c2 f9 bc a2 a0 a7 3d
       0.07210575 -0.04989511 -0.030488372 0.08184935
000350 12 89 71 bd 7f 23 42 3c d4 d7 a0 bd 5b ac 77 bd
       -0.05896861 0.011849283 -0.07853666 -0.060467105
000360 bf dd 2c 3d f2 e2 42 3d 18 c0 fc bb 41 08 68 bd
       0.04220366 0.047579713 -0.007713329 -0.056648497
000370 77 96 bf 3d 56 c4 32 3e d1 68 ee 3c 82 d3 dd 3d
       0.09354871 0.17457709 0.029102715 0.108313575
000380 ba de da bd cf ca 0d bd e3 63 f1 3c d4 85 a7 3d
       -0.10687013 -0.03461724 0.029466575 0.081798226
000390 5e 77 13 3b 2b 54 50 3d 5c 72 8e bc 83 22 78 bd
       0.0022501568 0.05086152 -0.017388515 -0.060579788
0003a0 da 11 4b 3d 2b 57 19 bd bb 55 1e 3c 8f 9d d7 3d
       0.04957757 -0.037436645 0.009663994 0.10528099
0003b0 2b 89 0a bd 36 7f 0a bc 50 1a 0b bd cd 49 44 bc
       -0.03382222 -0.008453181 -0.03396064 -0.011980486
0003c0 56 a6 9f 3d 28 4c 3f 3d 0c a6 1a 3e fc d6 a5 3c
       0.07795398 0.046703488 0.15102404 0.020244114
0003d0 f6 37 3a 3d e4 a6 9f 3c ca 29 d1 3b 8c e3 b4 bd
       0.045463525 0.01948876 0.0063831555 -0.088324636
0003e0 90 4f 84 3d 6e 19 20 bd ac ce 32 bd 14 db 0c 3b
       0.06460488 -0.03908675 -0.04365413 0.0021492885
0003f0 42 fd a6 bd 36 95 66 3d fa 1f 30 3c 6c b5 ea bc
       -0.08153774 0.056294642 0.010749811 -0.028650962

net.4.bias f4 [15]
000000 68 85 4f bd ae 67 b6 3d 6a 17 98 bc 2e 77 f2 bc
       -0.050664335 0.08906494 -0.018565852 -0.029597845
000010 51 94 03 3c bc 17 0a 3d 07 54 82 3d 7e 01 40 bd
       0.008030967 0.03371404 0.06363683 -0.046876423
000020 67 27 6e 3d dd c6 9d 3d 7b 4d be 3c 4c 29 97 3d
       0.058143046 0.07703946 0.023230305 0.07380924
000030 0a 60 c5 3c 41 90 4c 3d 81 eb a3 3c
       0.024093647 0.04994226 0.020009758

net.0.weight f4 [128, 77]
000000 d0 90 0d 3f 64 e1 69 3d a6 91 cc bd 88 f0 a7 bd
       0.5529909 0.057099715 -0.09988718 -0.082001746
000010 35 ba 01 bd d0 b9 ac 3c 4c a9 c1 3b 10 b1 a2 3d
       -0.03167172 0.021084696 0.0059100743 0.07943928
000020 47 d6 ad bc aa a5 b0 3d 69 e9 d5 bc dd 5c 10 bd
       -0.02122034 0.08625348 -0.026112275 -0.03524481
000030 22 8f d7 bd 2b 4e cb bd 17 bf 0d bd 87 bb 83 bb
       -0.10525347 -0.09927019 -0.034606066 -0.0040201577
000040 02 4a 31 3d b7 c4 82 3d c0 d7 a7 bd de c9 5b bd
       0.04328347 0.06385177 -0.08195448 -0.053659312
000050 74 05 19 3d ce e3 b4 3d 9a 66 27 bd a6 19 c9 3d
       0.037358716 0.08832513 -0.040869333 0.09819345
000060 50 0e 1d bd 08 97 22 3d 99 ba ac 3d 47 29 f1 bd
       -0.038343728 0.039694816 0.08434028 -0.11775451
000070 03 56 a6 bc 7d cf f2 bc 89 aa b7 bd 25 30 99 3d
       -0.020304685 -0.029639954 -0.08968074 0.07479886
000080 ec e1 b1 bd 2b a2 5c bd 1e 9b b6 bd 92 ea d5 bd
       -0.08685669 -0.053865593 -0.08916305 -0.10445131
000090 cc a7 98 bd f7 2c bf 3d cc c3 3f 3d f0 b6 51 3d
       -0.0745388 0.09334748 0.046817586 0.051199853
0000a0 7a c6 e3 3b 15 27 fa bc 03 c2 b0 3c a6 3b f5 bd
       0.0069511505 -0.030536214 0.021576887 -0.11974268
0000b0 32 67 42 bd 8e 75 88 bd 69 7a 4a 3d bd 6f d9 3d
       -0.047461696 -0.06663047 0.049433146 0.106170155
0000c0 90 44 39 bc 6d 59 89 bd 97 0b 92 3d 64 4a c6 3d
       -0.0113078505 -0.0670651 0.07131117 0.09682158
0000d0 6c 9c 37 bb a8 68 8c 3c 36 14 95 3d da bb 98 bd
       -0.0028016819 0.017139748 0.072792456 -0.07457705
0000e0 73 1a 82 3c dd 35 bd bd 67 05 aa bd 2e dc 66 bd
       0.015881753 -0.09238789 -0.08301812 -0.056362323
0000f0 7c 99 de 3d e4 3a 80 3d 0a aa dd bd 91 af 4a 3d
       0.108691186 0.062612325 -0.10823448 0.04948384
000100 25 5c 8f 3d 71 80 04 bd 43 05 03 3e 91 43 0a 3d
       0.06999997 -0.032349054 0.12794976 0.033755843
000110 4e 55 d2 3a 7e df db 3d 7e 98 b3 bd 6c 6d b5 bd
       0.0016047151 0.10735987 -0.0876932 -0.08858761
000120 ca a3 1c 3d b2 cb bf 3d b8 d5 c0 3d 3d b5 c5 3d
       0.03824214 0.09365024 0.094157636 0.09653709
000130 d4 bf 98 3c 9c c0 5a 3e f4 d9 55 3c ff 21 b3 bd
       0.018646158 0.21362537 0.013052452 -0.087467186
000140 0c bf 42 bd b5 fd d9 3d 5d cd b5 3d a1 2d 0e be
       -0.047545478 0.10644094 0.088770606 -0.13884594
000150 77 eb 8f 3c b1 b2 03 bd a6 36 0c 3c e8 a6 43 bc
       0.017568333 -0.032152835 0.008557951 -0.011941649
000160 18 f8 8f 3d 58 3c 7c bd 46 78 25 3d 29 94 87 3d
       0.07029742 -0.061580986 0.040397905 0.06620056
000170 41 6a af 3d 70 2b 26 3d 46 39 01 be 0b 6e 89 bd
       0.08565188 0.04056877 -0.12619504 -0.06710442
000180 e1 97 73 3d d5 70 d8 3c c6 e8 e4 bd 0c 25 d6 bb
       0.059471015 0.02642099 -0.111772105 -0.006535178
000190 87 2c cf 3d 22 75 a2 3d aa bc fc bd 1d da f0 bc
       0.10115915 0.079324976 -0.12340672 -0.02940088
0001a0 3c 2c fa bd 4e f5 0c 3a a3 d6 8a bd b9 2a d3 bd
       -0.12215468 0.00053771294 -0.0677922 -0.10310883
0001b0 56 76 c7 bb ee 4a 9e 3c b9 2d 89 bc f8 04 8e 3d
       -0.006087105 0.019322839 -0.016745435 0.069345415
0001c0 90 37 a0 bd ca f7 ba 3d 2e b1 a4 3d 8b 8d bf bd
       -0.07823098 0.09129293 0.08041607 -0.09353169
0001d0 37 4e d3 bc d7 70 b0 bb 12 e8 6a 3d 34 92 6c 3c
       -0.025794132 -0.0053845453 0.057350226 0.014439154
0001e0 72 39 3f 3d 36 e3 ca bb 1c d5 4b bd a1 86 27 3d
       0.046685643 -0.0061916364 -0.049763784 0.040899877
0001f0 7f c8 02 be 90 43 32 bd 5f 10 d4 bc 44 e3 52 bd
       -0.12771796 -0.043521464 -0.025886713 -0.05148627
000200 b6 2a 1c bd bf f7 2d bd 1d c8 8a bc bf 98 03 3c
       -0.03812667 -0.042472597 -0.016941125 0.008032023
000210 33 c5 b5 bd 9e ab 74 bb d7 55 ac 3d 54 da 15 bc
       -0.088755034 -0.0037333737 0.0841481 -0.009146292
000220 e7 e0 5b 3c 1a cf 2f bc 82 b6 7c 3c b5 6e 89 3d
       0.01342032 -0.010730529 0.015424373 0.06710569
000230 2a 53 0a 3e 99 d1 de 3d 73 46 d1 3d 30 de b0 3c
       0.13508287 0.10879821 0.10218515 0.021590322
000240 43 13 a0 bd 56 53 27 bd 27 8e 83 3d 7f 18 a3 bb
       -0.07816174 -0.04085096 0.06423598 -0.0049772854
000250 7b 55 74 bd 00 0b a5 bd 62 3c 04 be 4c b3 e4 bd
       -0.059651833 -0.08058739 -0.12913659 -0.11167011
000260 0b 9f b9 bc 31 41 85 3d 08 b9 7c 3f 34 d2 cb bd
       -0.022658845 0.06506575 0.98719835 -0.099522024
000270 09 a1 a0 3d 21 01 85 bd 00 82 d9 bb 71 9e 19 bd
       0.07843215 -0.06494356 -0.0066378117 -0.037504617
000280 5b 6d 81 3c 9f 2d 17 bc 13 93 c3 bd 24 ed a8 bd
       0.015799215 -0.0092271855 -0.095495366 -0.08248356
000290 13 b3 99 bc 1f 14 1a 3d 65 7d 32 bd df e6 a0 3c
       -0.018762147 0.037616845 -0.043576617 0.019641338
0002a0 38 6c cd bd e3 4d 04 3b 6d ad df 3d 1e c0 1d bd
       -0.10030407 0.0020188026 0.1092175 -0.038513295
0002b0 dc 0d e7 3d a5 95 53 3d 8e 5b bd bd e4 d6 8d 3d
       0.1128194 0.051656384 -0.09245978 0.06925753
0002c0 02 fd fe bb 7c 56 52 bd f7 db c9 3d 76 2c 92 bd
       -0.0077816257 -0.05135201 0.09856408 -0.071373865
0002d0 3d 58 71 3c 0e 23 ec bc 6e 30 9b 3d ec ca 4b 3d
       0.01473051 -0.02882531 0.075775966 0.04975407
0002e0 db 12 a7 3d a1 98 27 3d 1e 40 0c bd ff 3e 35 bc
       0.08157893 0.040917043 -0.034240834 -0.011062383
0002f0 36 e6 d5 bd a5 45 9c 3d 08 9e cc 3d 31 cd b4 3d
       -0.104443 0.07630471 0.099910796 0.088282
000300 3a 5c 8f bd 33 6c 7d 3c 11 1b 9d bd df 74 fd bc
       -0.07000013 0.015467691 -0.07671178 -0.030939518
000310 1d 7e 75 bd a4 9c 47 3d 7d 11 37 bd 48 a5 c5 b8
       -0.059934724 0.04873337 -0.044694412 -9.424478e-05
000320 86 32 12 bc 7c 71 3d 3d b6 50 51 bd c6 c9 e3 bb
       -0.008923179 0.046250805 -0.051102363 -0.0069515435
000330 9c 03 69 bd f8 1e 71 3d 5f 4a 09 bd 44 2a e1 3d
       -0.056888208 0.058867425 -0.03351819 0.1099439
000340 96 d7 32 3d 8e 92 ba 3c 58 20 14 3c 6f f2 46 bc
       0.04366263 0.02277496 0.0090409145 -0.012142762
000350 cf 34 ca 3c dc 19 81 bb 4b 95 1d bc 02 25 5b 3c
       0.024683384 -0.0039398503 -0.009618114 0.013375523
000360 00 de 85 bd 3c d0 10 bd 24 43 f7 3d f8 f1 c9 bd
       -0.06536484 -0.035354838 0.12073353 -0.09860605
000370 96 7e 68 bd 8f 25 06 3e f5 5d 02 3e 73 75 bc bb
       -0.056761347 0.13100265 0.12731154 -0.0057513057
000380 83 b2 fc bd d3 7a b0 3d bb 16 10 be 27 47 32 bd
       -0.12338736 0.08617177 -0.14071171 -0.043524887
000390 aa 87 06 bd 57 18 ad bb bb 92 3e 3c 64 63 67 3d
       -0.032844223 -0.0052824426 0.011631663 0.05649127
0003a0 e0 04 5e 3c c8 d8 d6 3d 44 24 d6 3d 44 4c 9c bd
       0.013550967 0.104905665 0.10456136 -0.07631734
0003b0 1b a1 15 3d e2 4a a2 bd 6f d5 51 bd 67 d8 06 3d
       0.036530595 -0.07924439 -0.051228937 0.03292122
0003c0 67 b3 6c 3d 30 e0 ab 3d 91 6d 8c bd a0 e1 4b 3c
       0.05778828 0.0839237 -0.06856836 0.01244393
0003d0 6f ec 63 3d c1 cb d4 bd 75 ec a5 3d 37 9e c9 bd
       0.055645403 -0.103904255 0.08101741 -0.0984463
0003e0 e4 bf 65 3b 39 89 9d bc e9 9b 78 bd 53 b5 6b 3c
       0.0035057003 -0.019230472 -0.060695563 0.014386493
0003f0 82 6b aa 3d 8a 9f 61 bc f2 53 7b bd 63 06 82 bd
       0.08321287 -0.013770947 -0.061359353 -0.063488744

net.0.bias f4 [128]
000000 5a 1e e4 bc 0f 54 33 bd f7 d3 8a bd 7e 33 10 3d
       -0.027846504 -0.043781336 -0.0677871 0.035205357
000010 9d 61 25 bd 00 e8 65 bd 08 f1 1a 3d d2 14 16 bd
       -0.040376294 -0.056129456 0.03782752 -0.03664095
000020 7c 16 96 3c ac e6 0c bc ca ad 3e 3d 2f 50 9e 3d
       0.018321268 -0.008599918 0.046552457 0.077301376
000030 75 1e cd bd cd 92 48 bd 9e d4 e4 3d 1b 3b 44 3c
       -0.10015575 -0.048968125 0.11173366 0.0119769825
000040 d4 b5 ca bc 4a c2 b4 3d 32 91 f9 3d 7b 20 0f 3d
       -0.024744906 0.0882612 0.12185897 0.034943085
000050 7a 22 a6 bd 69 2c ed 3d c8 47 d3 bd fc 68 cc bd
       -0.08112045 0.11580736 -0.103164256 -0.09980962
000060 54 f5 50 3c 22 8d 00 bd af d6 e7 bd 03 c8 b6 3d
       0.012753803 -0.031384595 -0.113202445 0.08924868
000070 98 1e af 3c 48 82 83 bd ce 61 14 3d 52 ea a3 3d
       0.021376893 -0.064213336 0.036226086 0.080036774
000080 63 4a 72 bb 17 d5 b8 3d 11 e5 80 3d 06 3d 21 3d
       -0.0036970607 0.09025019 0.06293691 0.039364837
000090 6a 1c 63 bd b0 5b af bd e0 d6 23 ba 03 dc 19 bd
       -0.05544702 -0.0856241 -0.00062499754 -0.037563335
0000a0 d9 28 e7 bd 34 ba d6 bd 46 38 82 bd 61 ea 89 3c
       -0.11287088 -0.10484734 -0.063583896 0.016835393
0000b0 fd 23 1c bd 71 17 c4 bd 0c 1d a1 bc ca 9d 03 bd
       -0.03812026 -0.095747836 -0.019667171 -0.0321329
0000c0 a0 94 06 bd 61 39 9b 3d c2 f9 64 3d b9 6c 9c 3d
       -0.032856584 0.075793035 0.05590225 0.07637925
0000d0 a7 c3 e4 3d 7e f6 ed 3a b2 15 72 bd 94 19 31 bc
       0.1117013 0.0018155125 -0.05910272 -0.010809321
0000e0 9c e6 ed 3c 16 c5 16 bd 49 89 ae 3d f0 ca 60 3d
       0.029040627 -0.03680905 0.08522279 0.054881036
0000f0 fa 47 a9 bd ff df c6 3c 75 72 02 3c 23 75 4f 3d
       -0.082656816 0.024276732 0.007961859 0.05064882
000100 4d c0 6f bd f8 71 d1 3d b9 4e 0e bd 2f e9 44 3d
       -0.058533 0.10226816 -0.034743045 0.048073944
000110 d4 fd 68 bd 32 70 07 3d e0 54 0a bd 20 69 4f bd
       -0.056882694 0.033065982 -0.03377235 -0.050637364
000120 1c f3 bc bd 79 a4 25 3d 52 8a ce 3c d5 2e fa 3c
       -0.09226057 0.040440056 0.02521244 0.03053991
000130 97 40 80 bd d0 20 d8 3c 47 e2 5b bd 1f 19 fc 3c
       -0.062623195 0.026382834 -0.05368259 0.030773697
000140 82 23 df 3d b5 ae c0 bd 0e 4d 2c 3d 1d 48 9f bd
       0.108954445 -0.09408323 0.042065673 -0.077774264
000150 23 8b 19 3d 70 ac cb bc 95 df 33 3d 3b fe a7 bd
       0.037486207 -0.024862498 0.043914396 -0.082027875
000160 e6 6f a1 3d ca 6c 94 3d d8 ec 9a bd a1 b1 93 bd
       0.07882671 0.07247312 -0.075647056 -0.072116144
000170 fb 7a 95 3d 4f b6 9e bd f6 de 2e 3d 18 ae 3c bd
       0.07298847 -0.07749616 0.0426931 -0.046064466
000180 be f3 c8 bd dd b9 f4 3c 42 37 0d bd d5 c6 70 bd
       -0.09812115 0.029873783 -0.034476526 -0.05878337
000190 25 78 26 3d a9 9b 31 3d ea 21 a5 3d d5 63 dd 3d
       0.040641923 0.04336134 0.08063109 0.10810057
0001a0 60 f4 1e 3d 84 e1 06 bd f4 e3 1c bc 31 8b aa 3d
       0.038807273 -0.032929912 -0.009575833 0.0832733
0001b0 c8 88 cd bd 9b d4 b9 3d f8 fc 4a 3d cf f0 26 3d
       -0.100358546 0.090737544 0.049557656 0.040756997
0001c0 99 c4 0e 3d e9 b0 c4 bd 46 87 1c 3d 15 1e 59 bc
       0.03485546 -0.096040554 0.038214944 -0.013251801
0001d0 ef 4f bc 3b 11 3c 72 bd a2 66 ad 3d cf 0d 84 bc
       0.0057468335 -0.059139315 0.08466841 -0.016119866
0001e0 f2 08 42 bc 7a c8 bc bd ef ce c4 3d 9a 7a dc bd
       -0.011842953 -0.09217925 0.09609782 -0.10765572
0001f0 31 04 9c 3d d8 b9 3e 3d 7f 74 7f 3c 7e f7 e1 bd
       0.07617987 0.046563953 0.01559174 -0.110335335

net.2.weight f4 [128, 128]
000000 40 5e d4 bc ae 50 57 bd 2b 81 82 bc 8d 63 c1 3c
       -0.025923848 -0.052567177 -0.015930733 0.02360704
000010 f8 3d ae bb a3 d2 b4 bc c1 6d 39 3d 7e 3f 6d 3d
       -0.005317446 -0.022073096 0.045270685 0.05792188
000020 af 8d a8 bd 74 e6 2b 3d f9 16 8e 3a 3f 42 9a 3d
       -0.08230149 0.041967824 0.0010840587 0.07532167
000030 19 e0 9d bd 4b 3b 88 bd d4 0d 91 bc 6b 52 09 3e
       -0.07708759 -0.06651934 -0.01770679 0.13410346
000040 d8 ae 79 3d c9 44 52 bc ad 1a 80 bc 21 32 a8 bc
       0.06095776 -0.0128337825 -0.01563772 -0.020531716
000050 2b 1a 7e 3b ce 51 4b bc 3a 0a 95 bc f2 49 ab 3d
       0.0038772922 -0.0124096405 -0.018193353 0.08363713
000060 dd 8e e6 3c a1 b1 ae 3d 3d 22 45 bd b8 7a 8a bd
       0.028144294 0.08529974 -0.048128355 -0.06761688
000070 d4 11 94 3b b4 64 ac 3b e6 a1 77 3d 61 bb aa 3d
       0.004518727 0.005261028 0.060457133 0.08336521
000080 4e fb 8c bd 55 8e b9 3d ed 51 82 3d fa 18 b3 3d
       -0.0688387 0.09060351 0.06363282 0.08744998
000090 90 c8 0d 3d 65 73 da bc 07 60 60 bc 2f ab 9c ba
       0.0346151 -0.026666353 -0.01369477 -0.0011952872
0000a0 37 a1 86 bd ac f0 02 bd 80 47 ab 3d e2 89 59 3d
       -0.06573718 -0.031967804 0.08363247 0.05311001
0000b0 0a 55 bf 3c 30 28 0c 3c c8 39 9c 3c 0c e0 82 bb
       0.02335598 0.008554503 0.019070521 -0.0039939936
0000c0 ac b4 43 bd ae 73 3a bb 0c 5f df bc 43 88 84 bc
       -0.047779724 -0.0028450298 -0.027267002 -0.016178256
0000d0 e6 bd ed bb 50 36 e9 3b 4c e0 8d bd 2f 4c f5 bc
       -0.0072553037 0.0071170703 -0.06927547 -0.029943554
0000e0 f6 0d 0e bd 27 59 87 ba 24 33 99 bd 16 4c 9a 3d
       -0.034681283 -0.0010326252 -0.074804574 0.075340435
0000f0 95 5d 41 bd c6 39 a4 3d 06 21 d9 bd d4 47 61 bb
       -0.047208387 0.08018832 -0.10602002 -0.0034375088
000100 02 9e dd bc 92 a2 15 bd c6 50 bd bc 5f 78 8b bd
       -0.027052883 -0.036531992 -0.023109805 -0.06810068
000110 5a 12 20 3d c6 1d 9c 3d 0d 82 87 bd a9 14 2d bc
       0.03908 0.07622866 -0.06616602 -0.010564008
000120 0e a7 76 bd 01 ef c0 3c b3 3c 57 bd 97 96 cd 3d
       -0.06021791 0.023551466 -0.05254812 0.10038488
000130 44 5a ad bb 81 f8 b9 3c 4e 60 c6 3d 76 29 92 bd
       -0.0052903015 0.022701504 0.096863374 -0.07136814
000140 57 24 2e bd 80 88 ec bb e4 06 b2 bd fa 86 9f 3c
       -0.042515125 -0.0072184205 -0.086927205 0.019473542
000150 3a 3f 66 bb 84 cc a9 bd 80 5f ef bc 8c f6 7a bd
       -0.00351329 -0.082909614 -0.029220343 -0.06127028
000160 fa 56 12 3d 76 53 b6 3d d8 a3 b1 3d 81 b6 96 bd
       0.03572748 0.08902638 0.08673829 -0.073590286
000170 fa 53 30 3d 52 df c4 3b fd ed 25 3d db c4 3b 3d
       0.043048836 0.006008067 0.040510166 0.045842033
000180 3c 82 bc bd 30 8d 87 bd 79 5b 3c bd 81 77 d4 3b
       -0.09204528 -0.06618726 -0.045985673 0.0064839725
000190 f6 a9 67 3d 83 87 15 bd 96 a0 e4 3a a5 3a 29 bd
       0.05655857 -0.036506187 0.0017442878 -0.041315693
0001a0 9a e3 d2 3d ba f7 a5 bd 1b 38 0e bd 9d 43 2b 3d
       0.10297318 -0.08103891 -0.034721475 0.041812528
0001b0 35 2a a7 bd 80 3b 8f 3d 6c 2a ae bd 96 0d 9f bc
       -0.08162347 0.069937706 -0.08504185 -0.019415658
0001c0 97 ee f1 bc 97 be a0 3b cb 1f 23 bd 07 1d 54 3d
       -0.029532714 0.0049055326 -0.039825242 0.051785495
0001d0 67 fd 5a bd d7 8b 1c bd 77 bd f0 bb 1b df 9d bd
       -0.05346432 -0.0382193 -0.0073468047 -0.077085696
0001e0 c6 f2 b6 bd 12 0c 84 3d 43 67 eb 3d 65 1d 0d bc
       -0.08933024 0.06447615 0.11494305 -0.008612965
0001f0 27 3a 4f bc a4 08 01 3d 59 5c 09 3d 27 75 a2 bd
       -0.012648142 0.03150238 0.033535335 -0.07932501
000200 91 12 f8 ba 6e 05 f6 3d e1 52 50 3d d2 33 51 bd
       -0.0018926432 0.120127544 0.05086029 -0.05107481
000210 90 1b 74 3c 72 b3 b1 bc bd 3c f9 bd 03 75 25 bd
       0.01489915 -0.021692012 -0.12169788 -0.040394794
000220 e3 88 d5 3d a9 30 0f 3d 96 31 82 3d aa 76 96 bd
       0.104265 0.034958515 0.06357114 -0.07346852
000230 70 3f c7 bb 86 b7 c7 3d 24 95 a2 bc 33 19 20 bc
       -0.0060805604 0.09751801 -0.019846506 -0.009771633
000240 4b 0a 2c bd 9f 78 8b bd b7 2a a5 bc 4f 27 19 bd
       -0.042002004 -0.06810116 -0.02016197 -0.037391003
000250 08 03 81 bd 3e 48 b6 3d 91 6e b8 3d d4 07 ce bd
       -0.06299406 0.08900498 0.09005464 -0.10060087
000260 a7 5e 99 bc 3c fb 6c 3d 9e ed ab 3d c4 54 9c bd
       -0.018721892 0.057856783 0.08394931 -0.07633355
000270 2f 45 40 bd 7c b1 47 3d d5 87 47 bc 68 cf d3 bc
       -0.04694098 0.048753247 -0.012178381 -0.025855735
000280 69 bd f0 bb d7 2e 3a 3d 39 b1 3f bd b3 43 e7 3d
       -0.007346798 0.045454826 -0.046799872 0.112922095
000290 34 0b 8f 3d a2 fb e5 bb d3 c5 36 bd 6b 85 8b 3d
       0.06984559 -0.0070185224 -0.044622254 0.06812557
0002a0 ed 41 12 3d 22 c1 6f bd 6a 88 96 bd 5f be 3a 3d
       0.035707403 -0.058533795 -0.07350238 0.04559171
0002b0 ea 5b 22 bd e2 d5 34 bd bf 46 8d 3d 96 bb ec 3b
       -0.039638437 -0.044149287 0.06898259 0.0072245104
0002c0 e1 49 ab 3d 9e 60 06 3d ca 8a ca 3d fc 88 a4 3d
       0.08363701 0.032806985 0.09889753 0.0803394
0002d0 c9 3a ca 3c ba 73 b1 3d 87 fb 82 bd 5c d0 8f 3d
       0.024686234 0.08664651 -0.06395631 0.07022163
0002e0 ce f1 86 3c e1 6e cd 3d 1d a6 2b bd ea ed 75 bd
       0.016472723 0.10030914 -0.041906465 -0.060041346
0002f0 19 b7 83 3d f3 a0 75 bd 40 a2 7b 3c 71 26 18 3e
       0.064314075 -0.059967946 0.015358508 0.14858414
000300 19 d5 55 3d 85 1f 52 bd 7f 90 4b bd 59 19 33 bd
       0.05220518 -0.05129959 -0.04969835 -0.043725345
000310 9c 70 a1 bd 14 6a 77 3d 04 8a 81 3d 1e 92 97 3d
       -0.07882807 0.0604039 0.063251525 0.074009165
000320 2b 30 82 3d c9 bf a7 3d fb c4 40 bd b8 54 8a 3d
       0.063568436 0.08190877 -0.047062855 0.0675444
000330 fa d7 db bb 9d b8 73 3d 6b 2c d0 3c c9 82 6c bc
       -0.006709096 0.059502233 0.025411805 -0.0144354785
000340 b8 9a 7f 3d 47 d0 f8 3d c6 e6 3e 3d d1 da 53 bc
       0.06240341 0.12149101 0.0466068 -0.012930588
000350 7a e8 77 bc 1f 02 95 3d 7b 34 c4 bc 0e 4a 18 3d
       -0.01513111 0.07275795 -0.023950806 0.03718
000360 c0 b6 d3 bc 7e b8 62 3d ee 34 d5 bc 15 7e 93 3d
       -0.025843978 0.055351727 -0.026026215 0.072017826
000370 63 82 c3 3a aa a7 c6 3c 34 fb 66 3d 53 aa 59 3d
       0.0014916178 0.02424987 0.05639191 0.05314095
000380 4c 1c 38 3d 18 e6 74 bd 55 fe ab 3a 33 ff b4 3d
       0.04494886 -0.059789747 0.0013122062 0.08837738
000390 60 ef c0 3d 52 50 de bd 6d 86 63 bd 91 22 11 3d
       0.09420657 -0.10855164 -0.05554812 0.035433356
0003a0 21 1c b9 bd 02 92 3f bd 36 35 63 bd 1d b3 6b bd
       -0.09038568 -0.046770103 -0.055470668 -0.057543863
0003b0 8b 5d ef bc 72 00 f5 3d bd b4 a5 bd ce 69 7a 3d
       -0.02921941 0.119629756 -0.08091114 0.06113606
0003c0 34 61 6e bd 4d 4b a9 bc 2e fd f1 bc 5f 93 33 3d
       -0.05819817 -0.020665789 -0.02953967 0.043841716
0003d0 07 4c 28 bd c4 12 8d bc fc dd 18 bd b7 41 bb bc
       -0.04108813 -0.017220862 -0.037321076 -0.022858484
0003e0 5e 91 2b 3d eb f3 9b 3d 89 56 43 3d af 6f d5 3c
       0.04188668 0.07614883 0.04768995 0.026054231
0003f0 2f a6 84 bd 6f 24 1a 3d d2 7a 33 3d bd 29 a2 3d
       -0.064770095 0.037632402 0.043818302 0.07918117

net.2.bias f4 [128]
000000 d2 3a bf bc fd d5 45 bd 88 7e 95 3d 27 7f 92 3d
       -0.023343477 -0.04829978 0.072995245 0.07153159
000010 8b ac 95 3c 65 ee 44 bd 5e a4 08 3d ad 7e 4b bd
       0.018270751 -0.048078913 0.033359878 -0.049681354
000020 6b 6a 99 bd 46 40 ad 3d d5 0a 42 3d 6b ad f8 bc
       -0.07491001 0.08459525 0.04737361 -0.03035613
000030 74 aa 89 3d b2 5f 05 3c ea 94 0a 3d 7c 9e 12 3b
       0.067219645 0.008140491 0.03383342 0.0022372296
000040 a4 31 94 3d fe 8f 82 3d 60 2c 15 bc 41 0f 4d 3d
       0.07236031 0.063751206 -0.009104818 0.050063375
000050 e1 cf 28 3d b6 d8 52 3d 0e 7b 53 bc f1 0d 10 bd
       0.041213874 0.051476203 -0.0129077565 -0.035169546
000060 f9 36 99 3d a5 10 59 3d 55 20 aa bd 37 b8 9c 3c
       0.07481188 0.05299439 -0.08306948 0.01913081
000070 99 cb b5 3d 9a 62 69 3d 12 81 4e 3d 3a 1f 68 3d
       0.08876724 0.0569788 0.05041606 0.056670405
000080 69 cb 9d bd 77 6f 5b bd 3d 1e 9c 3d 36 7f e5 3c
       -0.07704813 -0.053573098 0.07622955 0.02801476
000090 b1 22 e1 bc 66 e4 ac 3d e8 0b 97 bc e0 31 8a 3d
       -0.027482362 0.08442001 -0.018438295 0.06747794
0000a0 18 39 9c bb 2f f5 82 3d 9b 4b 07 3d 16 0b b8 bd
       -0.0047675483 0.06394421 0.033031087 -0.089864895
0000b0 f0 a8 2a 3d de 9b 8f bc 56 4d 14 3d dd bb fc 3c
       0.041665018 -0.017530378 0.036206566 0.030851299
0000c0 df 5d 2e 3d 41 69 38 bd 57 8a 88 3d 57 b2 32 3d
       0.04256999 -0.045022253 0.06667011 0.04362711
0000d0 8d 9b a3 bd 54 58 c0 3d 01 7c 19 3c a2 5b a0 3d
       -0.07988653 0.09391847 0.009367944 0.078299776
0000e0 78 21 0a bd 4a 59 7f bd 45 3b 36 3c 14 34 a9 3c
       -0.033723325 -0.062341012 0.011122529 0.020654716
0000f0 c3 ca 7c 3c 3a c3 6f bb 48 1d 73 bd 06 5e e6 bb
       0.015429202 -0.003658487 -0.059354097 -0.0070302514
000100 84 8c 91 3d 5c d9 8c bd 52 a4 93 3d b1 d7 f3 3b
       0.07106879 -0.068773955 0.07209076 0.007441484
000110 0b 62 f0 bc 82 32 1a bd c9 69 9c 3d 8c f0 aa bd
       -0.029343626 -0.037645824 0.076373644 -0.08346662
000120 c0 60 86 bd 3a b0 95 bd 6b e3 95 bd 9b c5 10 3d
       -0.06561422 -0.07309003 -0.07318767 0.0353447
000130 93 45 81 bd 54 36 78 3c 8f 8f 5f 3d 85 50 89 bd
       -0.06312098 0.015149672 0.054580268 -0.06704811
000140 f6 bc 72 3d 50 c7 3a bc 04 15 8e bd 6a 61 2e 3d
       0.05926224 -0.011400059 -0.06937602 0.04257337
000150 74 ea ac 3d b8 22 8f bc 3e fa 9e 3b c7 f4 67 3d
       0.08443156 -0.01747261 0.0048516085 0.056629922
000160 59 39 11 bd 44 2d a9 3c 10 c8 7a 3c c2 39 d0 3c
       -0.03545508 0.020651467 0.015306488 0.025418166
000170 d9 7e ab ba 70 fd 7e bd 16 83 47 bd ae 9f 53 bc
       -0.0013084068 -0.062253416 -0.048708998 -0.012916489
000180 b1 48 62 bd 43 ce 16 bd 66 03 91 3c 06 d3 d6 3b
       -0.055245105 -0.0368178 0.017701816 0.0065559177
000190 5b 44 0c 3c b6 9e c8 bc de ba 0e 3d 0c bf 96 bd
       0.008561219 -0.024489742 0.03484618 -0.07360658
0001a0 65 de 5d 3d 5e 57 a2 3c ce ca 59 3d 3e 8a 21 3d
       0.05416717 0.01981705 0.053171925 0.03943848
0001b0 46 76 a8 3c c3 4b 93 bc f4 c5 c0 bb 0c 9c 13 3d
       0.02056421 -0.017980462 -0.005882973 0.03603749
0001c0 73 50 bf 3d ff 4c 55 3d f1 c4 d1 3b c9 73 27 bd
       0.09341516 0.052075382 0.006401651 -0.040881906
0001d0 7d ae 2d 3d ae cf 37 3d 4e f7 75 3d f8 82 35 3b
       0.042402733 0.044875793 0.0600503 0.0027696472
0001e0 a3 b0 b6 3d 73 12 86 3d 7b 19 9f bc b4 da 83 3d
       0.089204095 0.06546488 -0.01942133 0.06438199
0001f0 c4 61 50 3d 60 31 b0 bc 9e cb 4e 3d 90 77 a8 3d
       0.050874487 -0.021507919 0.050487153 0.0822593
