ddqn_out/dqn_ep4600.pt (torch, 464501 bytes, 24 tensors)

net.0.weight f4 [128, 77]
00000000: 40df c83f cb94 3f3d db93 c6bd ac89 84bd
00000010: cd9d 49bd 81e6 e83c eadc 93ba c467 893d
00000020: c362 fbbc b14d dc3d ec32 673d c4c4 f6bb
00000030: 3fac 6fbd 98f1 4bbd 6841 6f3d 4a1c 103d
00000040: f667 523d 3b81 993d b04b 8dbd a70b 83bd
00000050: 7772 dd3c 16fa 9d3d 1902 7dbc a06f 863d
00000060: ddee 47bd 63c1 663d f9be ce3d f333 1bbe
00000070: 5326 9bbc 7122 233d 914f 79bc 57d9 913d
00000080: e1b1 5dbc 8256 113b eb9d 1dbd 4bb9 a8bd
00000090: 536b 38bd ba13 e73d 5577 153d 796a 273d
000000a0: 2cf6 e0bb 8a1e 9cbd c249 51ba 499a d5bd
000000b0: 92a5 1fbd 371c a4bc 3c9c ac3c 7dc4 723d
000000c0: 45dc 973c cb95 ba39 b4ec 833d 9acc f33d
000000d0: d4f0 c33c 2061 263d 4db4 8c3d 7906 38bd
000000e0: de91 0c3d b35c d2bd 3d2c bfbd e83d 4cbd
000000f0: 3fe1 443d db97 e63c 63fe 00be ec1a 353d
00000100: 5901 d83d ea93 14bd a443 143e 7cc8 623d
00000110: abee 353d 2543 ec3d d184 91bc bca5 13bd
00000120: 1837 a93d e5b9 073e f869 bc3d 2c59 e43d
00000130: de4c 083c 46b5 8a3f c099 cb3b 1625 7abd
00000140: 773e e53c 5f27 ff3d 4c39 ab3d 826e 10be
00000150: f489 df3c 1470 a5bc e784 23bd 530e 94bd
00000160: 5345 e93d 72f5 b8bc 0d57 c4bc bb19 923d
00000170: f425 803c 6c2d 323d d3c7 cabd c84e 47bd
00000180: fd94 573d db69 a03c ff7f e8bd 21a1 e63c
00000190: 8eb0 273e 8714 f53d 7890 77be 9122 903a
000001a0: e40c 6abd c145 783b f63c 40bd 2b39 36bd
000001b0: 05cf 253d 91a9 47bd 725d f33c 77c2 9e3c
000001c0: 9b01 70bd 1f57 b63d 8912 873d 648f cdbd
000001d0: 55aa 05bd a94a 29bd 1d84 b63d 0b78 6c3d
000001e0: 0d0c d43d c4e2 18be ad10 72bd a4c6 fb3d
000001f0: 352e e9bd 254a b5bd a2c4 da3c c4bd 23bd
00000200: 9431 d3bc 954f 56bb daa8 f8bc 86c4 fb3c
00000210: 011d 65bd b8dc c13c fe53 9e3d b1f3 82bc
00000220: 2dba 70bd 16a5 813d eea3 d73d bd8e d63d
00000230: d373 81bc 7911 85bc 27d8 863e 36d1 253c
00000240: 67a6 e6bd 8bf1 3539 6161 893d 948e dabc
00000250: 1cea 21bc cf2e 8fbd c7cb c7bd 3e34 aabd
00000260: 736b d7bc 037f 6e3d d52b 1140 3514 bebd
00000270: c12d 9f3d 1415 53bd 365e 423c e594 46bd
00000280: 888c 073d ae36 cc3b e87b 4abd 00c0 09bd
00000290: 3790 68bc ee09 4d3d f22a f0bc 0e5f fd3c
000002a0: d0aa 82bd ca71 be3c 9662 d93d 8d01 39bd
000002b0: 1443 df3d b011 6f3d 8f9d afbd cdec ca3d
000002c0: c9fc f83b 6f8e 13bd 62be 8e3d 59e7 3fbd
000002d0: e8be 1f3d 6c8e d93b bec5 d23d 2aba 393d
000002e0: 4745 dd3d 8801 2c3d f3e7 93bc e694 9c3b
000002f0: 6796 a1bd 1300 9e3d a8d9 c93d b08e d03d
00000300: 3b9e 81bd 9fae b53c 0a3a 57bd 43c5 c6bc
00000310: 0d4c 5cbd b500 223d 7391 b3bc f48c 773c
00000320: e099 c43c 8bfb 8b3d a274 dfbc 3a41 d03c
00000330: a5e5 6dbd cc0a 523d 31e7 fcbc 31dc e83d
00000340: b6c3 593d 2763 1e3d c9ea d73c e101 b2bb
00000350: 9c96 003d 2411 0e3d df34 cfbb f54d bd3c
00000360: 1ab6 9cbd ffd2 6cbb a8ee 043e f4eb 8fbd
00000370: 8caf 11bd 590a 093e 6a8c 213e 7d78 08bd
00000380: bb7e f3bd 4045 b23d 93fa ccbd eaa7 b4bc
00000390: 5189 9bbc 4274 de3c 3342 963c 50de 563f
000003a0: bb5a e73c f5ff fa3c 4550 7d3d 7f1c 37bc
000003b0: 5a73 01bc f665 4abd 58bc 07bd 81e4 eabc
000003c0: 6e26 8ebc 443f 493c caba 51bc 063b e4bc
000003d0: d5f5 46bc b6c9 c1bd 6839 953d ecc3 93bc
000003e0: d56a 8dba dd7f 55bb 5a70 3cbd c932 ee3c
000003f0: 0a0d 593d d31c 5bbc c7e4 52bd 31a4 a5bc
1.569313 0.04677276 -0.0969617 -0.06471571 -0.049222756 0.028430225 -0.0011281047 0.06709245
-0.030686742 0.10757006 0.056445047 -0.0075307805 -0.058513876 -0.04979095 0.058411986 0.03518323
0.051368676 0.07495352 -0.06899202 -0.06398707 0.02703212 0.07713716 -0.015442395 0.065642595
-0.048811782 0.05633677 0.10095019 -0.15156536 -0.018939173 0.039827768 -0.015216724 0.071215324
-0.013531179 0.0022176807 -0.03848068 -0.08238467 -0.045024227 0.112830594 0.036490757 0.040873025
-0.0068652835 -0.07623012 -0.0007983708 -0.10429818 -0.03897626 -0.020032985 0.021070592 0.059269417
0.01853765 0.0003558829 0.06441632 0.11904259 0.023918547 0.04061997 0.06870327 -0.044928048
0.034318797 -0.10271587 -0.0933461 -0.049863726 0.048066374 0.028148582 -0.12597041 0.044215128
0.10547132 -0.036273874 0.14478928 0.055366978 0.044417065 0.11536244 -0.017763527 -0.03604673
0.082624614 0.13254507 0.091998994 0.11149821 0.008319108 1.083657 0.006213397 -0.061070524
0.027983887 0.12458681 0.08360538 -0.14104655 0.02728746 -0.020195045 -0.039921667 -0.07229295
0.11390176 -0.022577975 -0.02396729 0.07133814 0.015643097 0.04350035 -0.09901395 -0.048659116
0.05263232 0.019581726 -0.11352538 0.028153004 0.16375944 0.11966806 -0.24176204 0.001099663
-0.0571412 0.0037883373 -0.046933137 -0.044488113 0.040480632 -0.048745696 0.029707644 0.019379837
-0.05859528 0.08903336 0.06595332 -0.10037115 -0.032633144 -0.041330967 0.08911917 0.05773167
0.10353861 -0.14930254 -0.059097935 0.12293747 -0.113857664 -0.088520326 0.02670509 -0.039975896
-0.025780477 -0.0032701243 -0.030353952 0.030733358 -0.055935863 0.023664817 0.07730864 -0.015985342
-0.0587713 0.06330316 0.10529314 0.10476444 -0.0158023 -0.016243683 0.26336786 0.010120681
-0.112622075 0.00017351487 0.06708027 -0.026679315 -0.009882476 -0.0699135 -0.09755664 -0.08310746
-0.026296353 0.058226597 2.2683003 -0.09281198 0.07772399 -0.051533774 0.011863282 -0.04848184
0.033093005 0.0062321043 -0.049434572 -0.03363037 -0.01419454 0.050058298 -0.029317353 0.030929115
-0.06380236 0.023247618 0.10614507 -0.045167495 0.10901466 0.058366477 -0.08574974 0.099084474
0.0075984937 -0.036024507 0.069699064 -0.04685149 0.03900042 0.0066392925 0.102916226 0.045343556
0.10804229 0.041993648 -0.018054938 0.0047784923 -0.07890015 0.07714858 0.09855968 0.101834655
-0.06329008 0.022177992 -0.052545585 -0.024263984 -0.053783465 0.039551456 -0.021919942 0.015109289
0.023999155 0.068350874 -0.027277295 0.025421727 -0.058080334 0.051279828 -0.03087196 0.11370123
0.05316516 0.038668778 0.026357071 -0.005432353 0.031393632 0.034684315 -0.0063234414 0.023108462
-0.076519206 -0.0036136506 0.12981665 -0.07027426 -0.035567805 0.13382854 0.1577622 -0.03331803
-0.11889406 0.08704615 -0.10008731 -0.022052724 -0.018986376 0.027155045 0.018342113 0.8393297
0.028241506 0.030639628 0.06184413 -0.011176228 -0.007901037 -0.049413644 -0.033138603 -0.028673412
-0.01735231 0.01228315 -0.012800882 -0.027860176 -0.012143572 -0.094623014 0.0728634 -0.018037759
-0.0010789285 -0.0032577433 -0.046005584 0.02907695 0.05299095 -0.013373571 -0.05148771 -0.020219894

net.0.bias f4 [128]
00000000: ec5b 1cbd 6557 4fbd 362c 7abd e55f 4c3d
00000010: 576b 6abc a5d9 6abd 43dc 7f3d b63c 46bd
00000020: 45ad b13c b49c b2bb 3200 be3d f6e3 ab3d
00000030: 179b 1cbd d4c0 72bd 3260 e13d 7b8f d23c
00000040: e231 0f3c 73c7 c93d fa1a 1e3e 3cab 3c3c
00000050: d03d 5dbd b06e f13d 1cd0 cbbd d805 9ebd
00000060: 20be e13c 1b9d 84bd 19fa b2bd 527b e43d
00000070: 6b5d d13c 9f53 88bd a2e5 ae3d 7d98 d73d
00000080: 5c9f 81b9 0e2e a83d 99f9 5f3d 030d 503d
00000090: bc23 a3bd 42eb bebd 3a71 0abd 0b8a 243c
000000a0: cbbc b6bd 90e2 a8bd 7e48 23bd 93b6 de3c
000000b0: 05b3 99bc 9b7f cabd f14a e53c 34f5 86bc
000000c0: a5a5 89bd beef 903d 359c 2f3d 3f5b 9c3d
000000d0: dbb4 db3d 68a8 253d 1c80 f7bc 57e8 1cbc
000000e0: eb68 833d 5eee 0abd 1112 253d 9e99 023e
000000f0: 85b4 5ebc e88d 083d 46ed 943c bbe7 863d
00000100: 4ef5 80bd 3d9c 0b3e c062 0abd 2848 1b3d
00000110: 143e f4bd 2fe4 8a3d 8382 11bd bb80 10bd
00000120: 8edd a5bd b679 e23c 5b51 703d e675 0f3d
00000130: 7f10 9cbd 0230 103d 9b4a 47bd 4f8b 893d
00000140: 2d66 163e e94f d6bd b0d6 883d 5e22 55bd
00000150: 8a2d 443d 76b0 e5bc 1f18 953c 11e7 6fbd
00000160: 556d a93d 5e2d 543d 81db c1bd 47da acbd
00000170: 8683 bc3d 4004 97bd 4049 503d 4d7f cdbc
00000180: 1d68 b0bd a83f 9b3d 4d84 23bd 7e4d 33bd
00000190: 8fea 813d 6a58 8c3d 2f6d fc3d 8754 f53d
000001a0: f819 1f3d 828e e5bc a7d2 813c 9ff4 a63d
000001b0: 7799 93bd 1707 b43d ea89 f83c fc5e 783d
000001c0: 1bc1 c23c 7346 a5bd ba74 1d3d 3a02 8f3c
000001d0: 4ad0 ec3c 008e 1fbd 5da5 903d f85c b73c
000001e0: 68f4 ea3c b737 cebd 12ad 083e 02fb b6bd
000001f0: 31dc aa3d 122e 903d 6675 b43c 5ff2 b2bd
-0.0381736 -0.050620455 -0.06107732 0.04989614 -0.014307818 -0.05733647 0.062465917 -0.048397742
0.021689067 -0.0054508094 0.09277381 0.083930895 -0.038233843 -0.059265926 0.11004676 0.025703182
0.00873992 0.09852495 0.15439978 0.011515435 -0.054014027 0.1178869 -0.09951803 -0.07715958
0.027556479 -0.06475278 -0.087391086 0.11156334 0.02555724 -0.066565745 0.08539893 0.10527132
-0.0002472353 0.08211909 0.054681394 0.05079366 -0.079658 -0.093222156 -0.033799388 0.010042678
-0.08922728 -0.08246338 -0.039864056 0.027186668 -0.018762121 -0.0988762 0.027989836 -0.016474344
-0.06721047 0.07076977 0.04287358 0.07634591 0.10727855 0.040443808 -0.030212454 -0.0095768785
0.06416496 -0.03391873 0.040300433 0.12753913 -0.013592844 0.033338457 0.018179547 0.06587168
-0.06296788 0.13633819 -0.03378558 0.03791061 -0.11925903 0.06781804 -0.035524856 -0.035279017
-0.08098899 0.027645927 0.058671337 0.035024546 -0.07620334 0.035202034 -0.048655134 0.06716024
0.14687414 -0.104644604 0.066815734 -0.05203473 0.047894992 -0.028038245 0.018199978 -0.05856997
0.082728066 0.051801078 -0.09465695 -0.084400706 0.092047736 -0.073738575 0.050851107 -0.025085116
-0.08613608 0.07580501 -0.039921094 -0.043775074 0.063435666 0.06852801 0.123255126 0.11979013
0.038843125 -0.028022055 0.015847517 0.081521265 -0.072070055 0.08790415 0.0303392 0.06063746
0.02377372 -0.08070078 0.038441397 0.017457116 0.028907914 -0.03895378 0.070627905 0.022383198
0.028680995 -0.100692205 0.13347271 -0.08934595 0.083427794 0.07040037 0.022028636 -0.08737635

net.2.weight f4 [128, 128]
00000000: f5a4 a1bd b384 03be d705 883b 50af 8c3d
00000010: 28bd 3f3d 2386 d33d 0ed1 1b3e c851 073d
00000020: 2b38 5dbd 5ff6 1b3e 9594 dd3c 4a30 f03c
00000030: 82bd 613d 8843 ffbd cc68 51bd 8f78 a53d
00000040: 80af 833d 298d 86bc e3b6 a33d 98d2 01be
00000050: c11d 3cbc 5fae 413d dcf1 3b3c 290c 433d
00000060: 4899 24bc 2bc5 303d e56d 6a3c 93e4 43be
00000070: cbe2 cebc 80c4 c3bd 4784 c73d 3675 153e
00000080: e8bf ddbd 49e7 913c ec81 1d3e 4ccd 063e
00000090: d89f 84bd 1a26 1ebe 3bd4 d9bd 1e30 d2bc
000000a0: 8536 f3bc 9eef 88bd ab8a 463e b107 a53d
000000b0: ee24 113b 3028 0c3c 4b9b cfbc 8777 113c
000000c0: 3482 c2bd 6a49 053c 1526 843a 89f7 b03c
000000d0: 6876 51bc bbf7 c53c 9ce9 573d 9531 f3bd
000000e0: 6872 b3bd acb9 61bc fde1 d93b 2648 57bd
000000f0: 50f6 abbd 94f8 0dba 76c0 3b3e f072 1e3d
00000100: 8a5d 23bd 8503 103c 1166 a8bd dad8 42be
00000110: e260 7fbe 3740 283e fb98 b5bd 0800 5a3d
00000120: e01e 90bd 108c 2a3c cce8 263d f0e4 c13d
00000130: 676d 99bc 89a5 ff3d 3729 f03d ba7c 88bd
00000140: 5e43 2ebe 3973 48bd 23c1 b7bd 6b2c cd3b
00000150: df46 d8bc 7f52 a3bd a6ef f239 5cc6 02be
00000160: 7588 b4bc 4f67 b93d d4ce 3a3e cb30 81bd
00000170: f5b1 863d f842 393c 0f31 4b3d 6719 b13d
00000180: ac97 4cbd bb86 adbd e676 39bd d885 1f3d
00000190: 1243 35be c6fc 60bd b8b0 8bbc bbcc a5bc
000001a0: 2dfe 2d3e 980e 1f3d aaa5 bc3d c173 863d
000001b0: b3a9 5b3c d42a 163e 91d2 5abe f2c6 823d
000001c0: 5f97 e53b 408b 32bd 228c d2bd 39ab 553d
000001d0: c97a e1bc 26fd a7bd cd3d 60bd dc32 693d
000001e0: cd25 bcbd 7cef f53c bbb4 063e 0152 89bd
000001f0: b156 b7bd 1eaa b53c 54db cc3c 9d5a fe3c
00000200: f627 84bc 1f7e 103e 3115 9e3d 1710 ecbc
00000210: 6287 a43d fe67 97bb e77d a3bd 212c fcbc
00000220: 2dcf f63d 0aca 983d d05f b73d ea66 f2bc
00000230: 6f4b 923d a5f3 ce3d b688 6cbd f998 e33c
00000240: 54e5 bfbc 58af f1bc 822b 843d a678 a7bd
00000250: 1bae 8cbd b9f2 093e 4553 033e 3e85 9abd
00000260: 0ad3 55bb be52 453c fc91 fa3d 00b5 94bc
00000270: e609 a4bb 73b3 8c3d 3640 863d 2403 02bb
00000280: bfda 1fbd 8a7c a83d 00f4 6f3b 5422 023e
00000290: c38c 833d 8120 86bc 4ba1 61bc 41fb c53d
000002a0: 314d a93d bc39 023b dfd8 81bc 50ce e93d
000002b0: a45c d13c 4614 41bd 2178 113e 29db a23d
000002c0: c2cc 8f3d 7170 5f3d bf65 f53d 45eb bf3d
000002d0: afb0 583d cef6 c93d f8ba c7bc f53b 443e
000002e0: 1052 8b3d 08c4 1c3e 6836 ccbb cdcf 4dbe
000002f0: c615 a3bc 1706 90bd 2e3f 8a3d 7c9c 3c3e
00000300: 30f3 473d e235 24bd 69df 0abd 699e 793c
00000310: 3445 af3c 8a1f de3d e6ea b23d 315f d73d
00000320: bfd5 b73d 1bbd a73d 092f 113c e2dc b73d
00000330: f1a0 8b3d 6e05 f33d 30ae 473d 26b9 b9bb
00000340: 8be1 723e 1f55 2a3e 1d91 6e3d b555 2abc
00000350: 24e6 ea3c 1073 9b3d 9c2e f0bb d661 ad3d
00000360: 451c 983c fce7 3a3d bd34 26bc 2a1f 773d
00000370: 3868 743d 5128 953c e966 db3d 4a0d 003e
00000380: a1e8 8e3d 107c b4bc c599 a93c c864 f33d
00000390: 4a4c b03d fbfe c2bd 2962 56bc d500 9e3d
000003a0: eaa3 47bd 41af 1fbd 7018 93bc dfa3 9c3b
000003b0: a63b 75bc b655 163e 5f6b 49bd a3a3 d03d
000003c0: f9aa 5dbd 1619 6d3c 98b4 d3bd 9ea9 833d
000003d0: 9b43 08bd cfa5 3fbb 3643 7f3c ee6e 893d
000003e0: 67da 893d 44fb cd3d ac97 e43d 60d8 923d
000003f0: 660e bfbb e0fe 933d 6e4e 533d 5062 be3d
-0.07892791 -0.1284359 0.004151087 0.06869376 0.046811253 0.10328319 0.15216467 0.033036977
-0.054008644 0.15230702 0.027048388 0.029319901 0.05511237 -0.124640524 -0.051125333 0.08079635
0.06429958 -0.016424732 0.07993867 -0.12677991 -0.011481703 0.047285434 0.011471238 0.04761902
-0.010046311 0.043156784 0.014308427 -0.19130163 -0.025254628 -0.09558964 0.09742027 0.14595494
-0.10827619 0.01781048 0.15381593 0.13164252 -0.064758 -0.15444222 -0.10636183 -0.02565771
-0.029689083 -0.06686328 0.19388835 0.08058108 0.0022147256 0.008554503 -0.025342604 0.008878595
-0.094974905 0.008135179 0.001008215 0.021602409 -0.012784578 0.024165979 0.05271302 -0.118746914
-0.08762056 -0.013777178 0.0066492544 -0.05255904 -0.0839659 -0.0005415764 0.18335137 0.03868383
-0.039884128 0.008789902 -0.082225926 -0.19028035 -0.24939302 0.16430746 -0.08867069 0.053222686
-0.07037139 0.01040937 0.040749356 0.094674945 -0.018728925 0.12482745 0.11726611 -0.06664415
-0.17017886 -0.04893801 -0.08972385 0.0062613986 -0.026400981 -0.07974719 0.0004633639 -0.1277098
-0.022037724 0.09052908 0.18242961 -0.06308135 0.06576911 0.0113074705 0.049607333 0.08647423
-0.049949333 -0.084729634 -0.045279406 0.038946003 -0.17701367 -0.054928564 -0.01705204 -0.020239225
0.16991492 0.038832277 0.092112854 0.06565047 0.013407159 0.14664775 -0.21369387 0.06385602
0.00700657 -0.04358983 -0.102806345 0.052165244 -0.027524369 -0.08202581 -0.054746438 0.05693327
-0.091868974 0.030021422 0.1315488 -0.06705094 -0.08952082 0.022175845 0.025006928 0.031049067
-0.016132336 0.14110611 0.07718886 -0.028816266 0.08033635 -0.004620551 -0.07982998 -0.030782761
0.120512344 0.07460411 0.08953822 -0.029590089 0.07143294 0.10105065 -0.057747565 0.027782904
-0.023424782 -0.029502556 0.06453611 -0.08177309 -0.068691455 0.13471498 0.12824734 -0.07544945
-0.003262701 0.012043653 0.122348756 -0.018152714 -0.005006063 0.06870165 0.06555216 -0.0019838298
-0.039026972 0.08226879 0.0036613941 0.12708408 0.064233325 -0.016372921 -0.013771365 0.096670635
0.08266676 0.0019870838 -0.015850483 0.11416304 0.02555687 -0.047138475 0.14205982 0.07951958
0.07021476 0.05455059 0.11982297 0.09371046 0.052902874 0.098615274 -0.024381146 0.19163497
0.068027616 0.15309155 -0.0062320717 -0.20098801 -0.019907843 -0.070324115 0.06750332 0.18419069
0.048815906 -0.04009045 -0.033904467 0.015235522 0.021395303 0.10845859 0.087362096 0.10516203
0.08976316 0.08190366 0.008861312 0.08977677 0.068178065 0.1186627 0.048750103 -0.0056678234
0.2371885 0.16634034 0.05824386 -0.010396411 0.028674193 0.07590306 -0.007329775 0.08465926
0.018568167 0.045631394 -0.01014441 0.060332455 0.059669703 0.0182077 0.10712988 0.1250507
0.06977964 -0.022031814 0.020703206 0.11884457 0.08608301 -0.0952129 -0.013084927 0.077150024
-0.048740305 -0.038985495 -0.017955989 0.004780277 -0.014967835 0.14681134 -0.049174663 0.10187461
-0.05411813 0.014471313 -0.1033718 0.06428836 -0.0332676 -0.0029243117 0.015579989 0.06710611
0.0673111 0.10057691 0.111617416 0.071701765 -0.005830574 0.07226348 0.05158847 0.09296095

net.2.bias f4 [128]
00000000: b9a1 953b eb9a d0bb aaec b73d 0c13 d73d
00000010: e10c 3b3d f799 093d ebbb a73d ac01 57bd
00000020: 0fde 1cbd f6e0 b63d 528c 153e b27f e0bc
00000030: 73b5 1c3e 5993 eeba be3a 2b3d ea83 c7bc
00000040: f198 7b3d 2910 2a3e 4a1e 88bc d799 083e
00000050: a714 ac3d 1671 f13c 6aec e93b 7c94 37bd
00000060: 9741 cd3d 4430 703d 2a14 b5bd cfd8 3b3d
00000070: 6786 f93d 2386 793d e01e 603d 686e 813d
00000080: a480 65bd 279f a6bd c5fb 243e edf6 9a3c
00000090: 8af6 58bc e3aa ca3d 207e 883d 2917 9d3d
000000a0: c370 053d baa6 713d 38b8 5d3c d4a2 2ebd
000000b0: 41b7 9f3d e3c5 8f3c 4962 083e aad1 7c3d
000000c0: 1a59 fb3d 6f2c 68bd 2480 d33d 573b 1a3d
000000d0: 51e4 2b3b 7cb1 0e3e 185b 6c3c 00c1 b83d
000000e0: 3931 34bd ea59 80bd c84a 463d 40e6 8e3d
000000f0: 6cbd 6f3d 4ff9 073d 2e49 39bd dad9 413c
00000100: c764 553d efb7 a6bd 04f5 733d 1886 17bc
00000110: 0946 5639 ceec 0dbd 02b5 cd3d ec25 8cbd
00000120: 6f6d 303d 2874 71bd d0dd 8ebd 0f3c c23d
00000130: 9345 81bd 3f77 523b c970 bc3d a9c3 b2bd
00000140: f067 ba3d b62a cc3c cf94 7fbd 7fcb a93d
00000150: e14e dd3d 4732 3b3c cbc2 813c 5da3 c53d
00000160: f6fd 1c3b 1f0a b43c e071 c93c 8bc8 bd3c
00000170: 6d31 8d3c c38c 29bd dad3 2cbd e506 3dbb
00000180: 61f7 943c c219 ca3c e9f6 6ebc 651b 0fbc
00000190: 1a37 323b ddfc 8f3c 2b6d 213d 55a2 69bd
000001a0: c9af 5c3d e86c e63b e452 aa3d b8f9 353d
000001b0: 3413 7e3c 2f38 ab3b 7b47 8f3d 9b54 2e3d
000001c0: 77c3 093e ee4c a73d 2bdd 083d 4d9e 51bd
000001d0: af9a 793d 55ed f33c bc87 523d 3541 e4bb
000001e0: 3364 073e f15f b33d 37ec 963d 5a38 af3d
000001f0: ee9d 043e 4633 66bc ae15 023d b679 013e
0.004566398 -0.006366124 0.08980687 0.1050168 0.04566658 0.033594098 0.081901394 -0.05249183
-0.03829771 0.08929627 0.14604309 -0.02740464 0.15303592 -0.0018201872 0.041804068 -0.024354894
0.061425153 0.16607727 -0.016616005 0.13339935 0.084023766 0.029472869 0.0071387785 -0.04481934
0.10022276 0.05863978 -0.088417366 0.04586106 0.12183838 0.06091894 0.054716945 0.063198864
-0.056030884 -0.08135825 0.16111667 0.018916572 -0.013242373 0.09895875 0.066646814 0.07670433
0.03257824 0.058996893 0.013532691 -0.042635754 0.07798625 0.017550414 0.13318743 0.06172339
0.12272854 -0.056683 0.10327175 0.037654247 0.0026228616 0.13934892 0.014426015 0.09021187
-0.043992255 -0.0626715 0.04841116 0.069775105 0.058530256 0.033196744 -0.045235805 0.011831725
0.052098062 -0.08140551 0.059559837 -0.009248279 0.0002043472 -0.034649663 0.1004429 -0.068431705
0.043073114 -0.058948666 -0.06975901 0.094841115 -0.06312098 0.0032114533 0.092011996 -0.087287255
0.09101856 0.02492271 -0.062397774 0.08290767 0.108060606 0.011425561 0.015839955 0.096503
0.0023955083 0.021977482 0.024590433 0.023166915 0.017235482 -0.041394006 -0.042194225 -0.002884322
0.018184366 0.024670485 -0.014585235 -0.008734559 0.0027193488 0.01757663 0.03941075 -0.057039578
0.05387858 0.0070320256 0.083165914 0.044427603 0.015507508 0.0052252035 0.06996056 0.042561155
0.1345347 0.0816897 0.033414047 -0.051176358 0.060938533 0.029776255 0.051398978 -0.006965781
0.13221817 0.08758534 0.07369273 0.0855567 0.1295087 -0.0140503105 0.031758957 0.12644085

net.4.weight f4 [15, 128]
00000000: 2a7f 6e3e e56c 583d aadd 6e3d 6640 ecbd
00000010: b833 733d 6247 b2be e184 2ebe 949c a53d
00000020: 9765 ad3d 71a4 433d 2ba3 b2be 0887 793e
00000030: f30b d3be 34ef ca3d f3e6 fd3c f872 0b3e
00000040: 60a8 233d 24b3 b8be 16c7 4abd d8ac 55be
00000050: 780f b03d be91 073e c535 ec3d 419d a33d
00000060: b275 8a3d 8fa0 033e 4740 6b3e a0c4 823d
00000070: 3848 713d 3a2a 84bc b0b4 5cbe f01b 69be
00000080: dbbc 10bd 1a36 b7bd 36a3 a3be a76c db3d
00000090: c60f ba3d 4cd8 c33d b613 6bbe 2bfd bb3d
000000a0: e66c cf3d 4b99 a43d 6d43 b93d 76aa 9b3e
000000b0: de75 9d3d 4fe6 633d e916 c1be 0399 443a
000000c0: e394 4dbe 71c4 133e 7c99 af3c e81f 54bd
000000d0: 6302 71be 35ac f43d 49f4 68be 2f3a 933d
000000e0: 5bfd c93d c72b 5dbe 1393 f03d 57d0 7dbe
000000f0: b079 c53d 2b5a cb3c 6b77 393e 1ba9 3dbb
00000100: a5a3 c93d a27f f73d e4f5 a53d cd0a 8f3d
00000110: da26 713d 712b cc3d 06f3 06bc b1b3 f23d
00000120: a9a9 adbe 4b83 603d 7ec7 6e3e 424b 03be
00000130: a5e4 87bd cd48 b33d cf9d c53d d354 253d
00000140: 2123 f6b8 3db6 d33d 3713 123e 7aa7 e03d
00000150: 555c b73d d632 0d3e eaf4 223d 813c 703d
00000160: 67c9 173e cfaf 3b3e 2834 843d 7bb7 033e
00000170: 6cf8 c63d 7064 fe3d 3cf2 1abe f1b8 f53d
00000180: 5c49 9ebe 1e8c 95be b601 febd 156a 183e
00000190: 10cc a5bd eba5 e73d c5a9 f13d 2c0c 4cbe
000001a0: e015 113e 45ae 133e 4f34 b23d d1cd 973d
000001b0: 8fe8 453d ca68 56be 189e 30be 568e 193d
000001c0: 0075 e63d ab37 d73d 860c a63d faee 673d
000001d0: 0a39 933c 48c2 d5bd 9553 2e3e 1016 123e
000001e0: da1b c53d e005 3a3d d63f 90be eb4e a7bb
000001f0: 2363 89be b86a 5c3d fb4f ac3c ec71 d53d
00000200: 0765 413e 455c 143e 7875 c03a 55f1 bbbb
00000210: 16bb e43d a1a8 9abe 34d3 72be aae8 983d
00000220: ccfd d53d 2506 093e 6b31 b1be 2156 8a3d
00000230: de69 78be 0c8b 963d e457 f03d 1255 a43d
00000240: 29b9 0b3e 0dbf bebe d5b6 1ebe 3349 80be
00000250: 190c d13c fbe8 e43c a0e8 583d 3503 253d
00000260: 9092 d6ba 3ccf 2e3d b25a 153e f4ad fa3d
00000270: e446 ac3d aaa4 11bd c869 50be e72d 95be
00000280: 136d 073e 1cbb 67bd 19a5 8bbe c77a a83d
00000290: cbcf 1b3e 911d 25bd 6cf1 8cbe b907 b13d
000002a0: a495 6a3c 118f 963d 4403 da3d fd4a 573e
000002b0: dd73 433d 164e 8e3d aff4 b2be 7db4 de3d
000002c0: 1f71 59be 31e1 593e 263b d33d bcbe bcbd
000002d0: 7cce 41be c8b3 c43d 80f0 3dbe fbcd 8c3d
000002e0: bd0d 293e 64e4 eabd 506c 11ba 0d4c 88be
000002f0: 9189 9b3d 2a68 ea3c 2d7a 373e 45c5 053d
00000300: 1d02 ab3d 24ad d83d 7c60 c53d 93c5 fa3d
00000310: a9a4 0a3e 8614 14be ddf4 e13c 86d8 c9bd
00000320: d4cd e8be 295a 173e d8ed 753e 555b ccbe
00000330: 265b 0abd a291 4e3e 115c 173e 02dc 4a3d
00000340: d056 c93d 6adc a5bc df72 4e3d 4a81 d93d
00000350: ba1a f33b 480b 073e ede5 c2bc d224 cf3b
00000360: 9fb2 b93d 1883 f73d 5fa4 5b3d c9a4 303d
00000370: 706a c83d 0ea1 2a3e 63ee 13be 5a55 193e
00000380: 9aee a6be 96b0 6fbe 7e2a 37bd fb90 3b3e
00000390: 5e77 133b dcd7 993d ca46 743d 14c0 f0bd
000003a0: 8409 fb3d c6a7 9e3d 048a 903c a239 3e3e
000003b0: ce63 813d e87b 393c 2584 5abe 8f11 b73c
000003c0: ac07 de3d f556 8a3d f932 323e 4e50 3d3d
000003d0: c70b 803d b854 d9bc 4694 5c3d de3d 653c
000003e0: ca02 ae3d 5c8a 7ab9 644a 9abe 3edb b53d
000003f0: 777c 94be 7a92 623b 0904 4a3d 6c47 c23b
0.23290697 0.052838225 0.058316864 -0.115357205 0.059375495 -0.34820086 -0.17042877 0.080865055
0.08466642 0.047764245 -0.34890112 0.24367917 -0.41220054 0.099089056 0.030993914 0.13618076
0.039955497 -0.36074173 -0.04950627 -0.20866716 0.085967004 0.1323919 0.11533693 0.07988978
0.0676073 0.12854217 0.22973739 0.063851595 0.058906764 -0.016133416 -0.21553302 -0.22764564
-0.035336357 -0.08945866 -0.31960458 0.10714083 0.0908504 0.0956274 -0.22956738 0.09179147
0.101281926 0.08037051 0.090460636 0.3040349 0.07688497 0.05563956 -0.37712792 0.0007499607
-0.20076327 0.14430405 0.021435492 -0.05178824 -0.23536067 0.119469084 -0.22749437 0.07188832
0.09862777 -0.21598731 0.11746802 -0.24786507 0.09642351 0.024823269 0.1811196 -0.0028939906
0.09845666 0.12084891 0.081035405 0.06984482 0.058874942 0.09969223 -0.008236652 0.1185068
-0.33918503 0.05481271 0.23318288 -0.12821677 -0.06635407 0.0875412 0.0964924 0.040364098
-0.00011736737 0.103374936 0.14265142 0.109694436 0.08953158 0.13788924 0.03978435 0.05865145
0.14822923 0.18328784 0.064552605 0.12862961 0.097153515 0.12421501 -0.15131468 0.119981654
-0.30915344 -0.29208463 -0.1240267 0.14884217 -0.080955625 0.11310943 0.11799959 -0.19926518
0.14168501 0.14421947 0.08701383 0.07412303 0.04831749 -0.20938411 -0.17247808 0.037489258
0.11252785 0.10508665 0.081078574 0.05662439 0.017971534 -0.10437447 0.17024072 0.14266229
0.09624453 0.04541576 -0.28173703 -0.0051058433 -0.26833448 0.053812712 0.021034231 0.104221195
0.18886195 0.14488323 0.0014683446 -0.005735556 0.11168496 -0.3020678 -0.2371338 0.07466252
0.104487985 0.1338125 -0.34608015 0.06754709 -0.24259135 0.0735074 0.11735514 0.080240384
0.13644852 -0.37255135 -0.15499432 -0.25055847 0.025518464 0.027943125 0.052956223 0.04028626
-0.0016370583 0.042678103 0.14585379 0.1224021 0.08411959 -0.035557427 -0.20352852 -0.29136583
0.13225202 -0.056574926 -0.27274397 0.08226543 0.15215985 -0.0403114 -0.2752794 0.08644051
0.014317904 0.073515065 0.10645154 0.210247 0.047717918 0.069484875 -0.34952304 0.10874269
-0.21234559 0.2127731 0.10314016 -0.09216067 -0.18926424 0.09604603 -0.18548775 0.06875225
0.16509147 -0.11469343 -0.0005547451 -0.26620522 0.07594598 0.028614122 0.179177 0.032658834
0.083500125 0.10579899 0.096375436 0.122447155 0.13539375 -0.14460954 0.02758258 -0.09855752
-0.45469534 0.14780487 0.24016511 -0.3991343 -0.033778332 0.20172742 0.14781214 0.049526222
0.09831011 -0.020246703 0.05040252 0.10620363 0.0074189575 0.13187897 -0.023791278 0.006321528
0.090672724 0.12085551 0.053623553 0.0431259 0.09785926 0.16663 -0.14446406 0.14973965
-0.32603914 -0.23407206 -0.044718258 0.18317024 0.0022501568 0.07511875 0.059637822 -0.11755386
0.12257674 0.07746844 0.017643936 0.18576673 0.06317864 0.011321045 -0.21339472 0.02234724
0.10841307 0.06754867 0.17402257 0.046219163 0.06252246 -0.026529655 0.053852342 0.013991801
0.08496626 -0.00023893401 -0.3013488 0.08879708 -0.2900121 0.003457217 0.049320254 0.0059289243

net.4.bias f4 [15]
00000000: a31a ddbc 8143 d73d 24b0 653c c2b5 83bb
00000010: f68f d93c 2ea7 753d 2db8 963d b940 08bd
00000020: 9afe 723d b72e bd3d 7806 283d 5049 ab3d
00000030: 3cd7 193d 65a2 8d3d 6a63 c83c
-0.02699024 0.10510922 0.014019046 -0.00401947 0.026557904 0.059973888 0.073593475 -0.03326485
0.05932484 0.09237426 0.041021794 0.083635926 0.03755878 0.0691574 0.024461467

net.0.weight f4 [128, 77]
00000000: 82d6 c83f 8f52 3f3d 3345 c6bd 8579 84bd
00000010: 7a37 4cbd ab9c e63c 809c b9ba 580d 8a3d
00000020: 0028 fcbc f313 dd3d bb41 6b3d 5b26 febb
00000030: 9b70 6ebd f619 4bbd 1cb2 6e3d d852 123d
00000040: 078c 543d 906d 993d ce80 8dbd c92c 83bd
00000050: fded dc3c 26b5 9d3d 8a74 7cbc 8687 863d
00000060: 49e9 47bd 9245 663d 40a6 cf3d 5515 1bbe
00000070: ae5f 9dbc 6e7e 263d 6831 69bc 4540 923d
00000080: 588b 50bc 3b70 ec3a c9e8 1fbd f8cc a8bd
00000090: ea31 38bd c12d e63d 1935 153d 3d28 273d
000000a0: 3c9d ebbb b99f 9dbd 3c0e deb9 d9d4 d5bd
000000b0: dfb6 20bd c0a9 a5bc fe3e ae3c 1231 743d
000000c0: 1d99 973c f4d8 6e39 f871 843d 4503 f33d
000000d0: a73f c43c 63c3 263d a9d5 8c3d 5766 37bd
000000e0: 9a40 0d3d d57d d2bd 5f4d bfbd 3869 4cbd
000000f0: 91f2 433d b5f7 e43c a369 01be 983f 363d
00000100: adf8 d83d 9ec2 14bd 1502 143e 64d8 663d
00000110: e702 373d e3a8 ec3d e569 8fbc 4a09 12bd
00000120: 1c37 aa3d 8796 073e b164 bc3d 0913 e43d
00000130: ed43 073c 68ac 8a3f 0b00 c33b f2b0 7abd
00000140: c1c2 e53c f832 fe3d 2db5 aa3d 2181 10be
00000150: 1b57 dd3c ea3a a6bc a1f3 23bd ced3 94bd
00000160: 65ac eb3d 9f1f bebc 759d c5bc 176f 8e3d
00000170: b53b 813c 5c17 333d 9704 cbbd 502e 48bd
00000180: c281 563d 6d43 9e3c b49a e9bd 7fae e93c
00000190: 6527 273e a76a f53d 3716 78be e368 cd3a
000001a0: 44db 69bd 54a3 2b3b 6b3d 42bd b542 33bd
000001b0: 4831 243d 0674 45bd b003 e73c bcdd 9a3c
000001c0: 7399 71bd 64fe b53d efaf 853d fa18 cebd
000001d0: 90bd 06bd 3fee 2bbd 10fa b53d 2a44 6b3d
000001e0: 311a d33d 0301 19be c546 72bd eb60 fb3d
000001f0: d1c1 e7bd de42 b6bd 051d d83c 2fa0 25bd
00000200: ad69 d7bc 0088 8cbb 5e76 fabc 43fb f73c
00000210: 94f8 64bd 49e6 be3c 68ca 9d3d 1f1a 85bc
00000220: 5959 72bd f8d7 813d 1c8c d73d 9f63 d53d
00000230: f784 73bc e304 7ebc 4ee8 863e 3321 203c
00000240: 20e4 e7bd 6792 dfb9 79cf 863d 2cc7 d9bc
00000250: d5d0 24bc 593f 8fbd 7502 c8bd eb01 aabd
00000260: b2eb d8bc c86b 6d3d 6a29 1140 c0d0 bdbd
00000270: 2dcd 9f3d 74b2 51bd 7275 383c 6722 47bd
00000280: e9bf 063d 33d2 d53b 5989 4bbd f785 07bd
00000290: 5522 59bc 9fa6 4d3d 7e84 ecbc be65 ff3c
000002a0: 2211 83bd 8bf6 c13c d07c da3d e114 39bd
000002b0: 5687 df3d a698 6f3d 1a5a afbd 04a6 ca3d
000002c0: 49ff ff3b e486 12bd 9d47 8f3d 04bf 3fbd
000002d0: 0ff9 213d 93c2 dc3b 575f d23d 6df7 3c3d
000002e0: 262e e03d dfbc 2e3d 72d5 8bbc 501a 923b
000002f0: 9ed4 a2bd 118f 9d3d 51ee c93d 2c23 d03d
00000300: c65a 81bd 85bc b63c 52f6 57bd 31f7 cabc
00000310: d240 5abd 9d79 223d 08a2 b4bc 3242 773c
00000320: 02f8 c53c 14ff 8c3d 5461 debc ca31 d03c
00000330: 9392 6abd 8430 503d 756a febc 8b9b e83d
00000340: fc5c 593d 620c 1f3d 187b da3c 47ca adbb
00000350: 921d 013d 6970 0e3d 293d cebb 811c bd3c
00000360: 90b3 9cbd 369b 48bb 537e 053e 7ef0 8fbd
00000370: 507b 12bd cade 093e 7cd3 213e 9c9e 05bd
00000380: 4d86 f2bd 4336 b33d b69f ccbd 6c24 b6bc
00000390: e308 9abc eaa0 df3c 1950 973c 03b3 563f
000003a0: 95af e73c 747e fd3c abf6 7c3d 9059 46bc
000003b0: 523a 01bc f40e 4bbd 422e 0abd 7d1d efbc
000003c0: dc20 94bc 0005 503c 194f 52bc 452a e2bc
000003d0: 6698 4cbc 3866 c4bd 1798 953d 0e9e 90bc
000003e0: 18e5 5cba 105a 4ebb eb45 3cbd a387 ee3c
000003f0: 87f5 593d 3ed9 5cbc 6b67 54bd 8734 a5bc
1.5690463 0.046709593 -0.096811675 -0.064684905 -0.049857594 0.028150877 -0.001416102 0.06740826
-0.030780792 0.10794821 0.057435732 -0.007756037 -0.058212858 -0.049585305 0.058275327 0.035723537
0.051891353 0.074916005 -0.06909333 -0.064050265 0.02696895 0.07700567 -0.015408644 0.06568818
-0.048806462 0.05621869 0.101391315 -0.15144856 -0.019210663 0.040647916 -0.014232971 0.07141165
-0.012728535 0.0018038818 -0.03904036 -0.0824222 -0.044969477 0.112391956 0.03642759 0.04080986
-0.0071903747 -0.0769648 -0.00042353745 -0.10440988 -0.0392369 -0.020222545 0.021270271 0.05961711
0.018505627 0.0002277827 0.0646705 0.11865858 0.023956133 0.04071368 0.0687669 -0.044775333
0.034485437 -0.10277907 -0.09340929 -0.049905032 0.04783875 0.027950147 -0.12637953 0.04449424
0.10594306 -0.036318414 0.14453919 0.05635871 0.044680502 0.1155565 -0.01750655 -0.03565339
0.083112925 0.13241015 0.09198893 0.11136443 0.008255941 1.0833864 0.005950933 -0.061203904
0.028046967 0.12412065 0.08335338 -0.14111759 0.027019074 -0.020291764 -0.040027265 -0.07266961
0.11507491 -0.023208437 -0.024122933 0.069547825 0.01577554 0.04372345 -0.09912985 -0.048872292
0.05236984 0.01931926 -0.114064604 0.028525589 0.16323622 0.11983233 -0.24227224 0.0015671517
-0.057093874 0.002618988 -0.047421854 -0.04376479 0.04008606 -0.04820635 0.0282 0.01890456
-0.05898423 0.08886412 0.06527697 -0.10063358 -0.032895625 -0.041975256 0.08885586 0.057438053
0.1030773 -0.14941792 -0.059149522 0.12274345 -0.113162644 -0.08899473 0.026381025 -0.040435966
-0.026295507 -0.0042886734 -0.03057402 0.030271178 -0.055901125 0.023303168 0.077046216 -0.016247807
-0.05916724 0.06340021 0.105247706 0.10419392 -0.014863244 -0.015504095 0.2634911 0.00977354
-0.11322808 -0.00042642953 0.06582541 -0.02658423 -0.010059555 -0.069945045 -0.09766094 -0.08301147
-0.026479576 0.057964116 2.2681527 -0.092683315 0.07802806 -0.051195577 0.01125847 -0.048616793
0.032897864 0.006525302 -0.04969153 -0.033086743 -0.013252814 0.05020773 -0.028871771 0.031176444
-0.06399752 0.023677131 0.10668337 -0.045185927 0.10914485 0.058495186 -0.085621074 0.09894946
0.007812415 -0.035773173 0.06996081 -0.046813026 0.03954416 0.0067370622 0.10272091 0.0461344
0.10946302 0.04266059 -0.017069552 0.004458703 -0.0795071 0.076933034 0.09859908 0.101629585
-0.06316142 0.02230669 -0.052725144 -0.024776073 -0.053284474 0.03966676 -0.022049919 0.015091466
0.02416611 0.0688459 -0.027146019 0.025414366 -0.05726869 0.050827518 -0.031056622 0.113577925
0.053067192 0.03883017 0.026670024 -0.0053036544 0.03152234 0.03477517 -0.006293912 0.02308488
-0.07651436 -0.003061009 0.1303647 -0.07028292 -0.03576213 0.13463894 0.15803331 -0.032621965
-0.11842022 0.08750584 -0.099914 -0.022234164 -0.018803066 0.02729841 0.01847081 0.838669
0.028281966 0.030944087 0.06175868 -0.012106314 -0.00788744 -0.049574807 -0.03373552 -0.029188866
-0.018082075 0.012696505 -0.012836241 -0.027608046 -0.0124875065 -0.09589809 0.073043995 -0.017653491
-0.00084264716 -0.0031486787 -0.045965116 0.029117411 0.05321267 -0.013479529 -0.05185644 -0.020166649

net.0.bias f4 [128]
00000000: 289e 1cbd a06a 50bd 40a5 79bd 548a 4c3d
00000010: 24e8 71bc 9269 69bd e004 803d 826f 44bd
00000020: e01b b13c c606 a0bb a9c6 bd3d 03f1 ab3d
00000030: 094b 21bd 5228 72bd bb3e e13d c7c1 d03c
00000040: 30cb 0c3c fcf8 c93d 2fef 1e3e 1692 373c
00000050: 31e8 5dbd 6f9a f13d 6fb6 cbbd 414a 9dbd
00000060: 4e33 e03c 97fb 82bd 8318 b3bd a874 e43d
00000070: 1889 d13c 27b4 88bd eceb ae3d 3383 d73d
00000080: 32fd cf39 fadc a63d 2d75 5f3d e5b9 4f3d
00000090: 36f5 a3bd d8fc bebd 085d 09bd 5e9d 213c
000000a0: 345a b7bd bce7 a8bd deb1 22bd c728 df3c
000000b0: 35c7 99bc 9b7f cabd 89bd e73c 239b 86bc
000000c0: cd33 89bd ad54 913d 0bb8 303d 08a2 9a3d
000000d0: 51f8 db3d ad0c 253d 54b6 00bd cc55 06bc
000000e0: 56d7 823d e1bc 0abd bdfe 263d a21e 023e
000000f0: 3a09 64bc 4525 083d 8790 973c 4320 873d
00000100: c9f9 80bd 4880 0b3e 46a6 0cbd b586 1a3d
00000110: 7524 f3bd a249 8b3d 3379 11bd 9063 10bd
00000120: 80d6 a5bd bd70 e43c a7c5 703d 343b 0f3d
00000130: c36f 9cbd 072f 103d 3dc1 44bd 1d00 8a3d
00000140: 16d2 163e a5b8 d5bd cf98 883d cd78 55bd
00000150: dd65 443d 76b0 e5bc 85d5 8e3c 16b2 6fbd
00000160: c273 a93d 0c80 553d 9aee c1bd e57b adbd
00000170: bc86 bc3d dae6 96bd cb3e 503d 87f1 cfbc
00000180: 6784 b0bd 1ff7 9a3d e68c 22bd 74e1 33bd
00000190: 3c4e 823d 7440 8c3d 0b41 fc3d 0a4f f53d
000001a0: c985 1f3d d142 e6bc 0abd 7e3c 1a4e a63d
000001b0: 99df 93bd acfc b33d 664d f53c 96ac 763d
000001c0: 185d c03c 7d49 a5bd 334b 1e3d 240c 8f3c
000001d0: af5e ec3c 812c 1fbd f4aa 903d c96d b83c
000001e0: 8386 e93c 4c4b cebd 9697 083e f3f6 b6bd
000001f0: 0b89 aa3d a91c 903d f34b b53c e0ae b3bd
-0.038236767 -0.050882936 -0.06094861 0.049936607 -0.014764819 -0.056985445 0.0625093 -0.047957905
0.021619737 -0.00488362 0.09266407 0.08395579 -0.0393782 -0.059120484 0.10998293 0.025483025
0.008593366 0.09861943 0.15520929 0.011204263 -0.054176513 0.11797034 -0.09946906 -0.076801784
0.027368214 -0.06395643 -0.087449096 0.11155063 0.025578067 -0.06674986 0.08541092 0.10523071
0.00039670762 0.08147617 0.054555107 0.050714392 -0.08005755 -0.0932557 -0.033535987 0.009864179
-0.08952752 -0.08247325 -0.03972041 0.027241124 -0.018771747 -0.0988762 0.02828862 -0.016431397
-0.06699333 0.07096229 0.043144267 0.07550436 0.10740722 0.04029529 -0.03142388 -0.0081991665
0.06388728 -0.033871535 0.04077028 0.12706998 -0.013918215 0.033238668 0.018501533 0.0659795
-0.06297643 0.13623154 -0.03433826 0.037726123 -0.11872188 0.06801154 -0.035515975 -0.0352512
-0.08097553 0.027885789 0.058782246 0.03496857 -0.07638504 0.0352011 -0.04803585 0.06738303
0.14728579 -0.10435609 0.06669771 -0.052117158 0.047948707 -0.028038245 0.017435798 -0.058519445
0.08274032 0.05212407 -0.09469338 -0.08470897 0.09205386 -0.0736825 0.050841134 -0.025383724
-0.08619004 0.07566666 -0.039685152 -0.04391618 0.06362578 0.06848231 0.123170935 0.11977966
0.038945947 -0.028108032 0.015548 0.081203654 -0.07220382 0.08788428 0.029944133 0.060223185
0.02348189 -0.080706574 0.038645934 0.017461844 0.028853742 -0.0388608 0.07063857 0.022513287
0.028506523 -0.100729555 0.13339075 -0.089338206 0.0832692 0.070367165 0.022130942 -0.08773589

net.2.weight f4 [128, 128]
00000000: c9db a0bd 3dda 02be 8ae9 993b b8ed 8e3d
00000010: c9ca 413d 4a3e d33d f822 1c3e e09c 0a3d
00000020: d4a5 5cbd 91db 1c3e 7f13 e13c 3360 f33c
00000030: 629d 5f3d 9107 fdbd 74a8 4ebd 1f06 a63d
00000040: f84f 843d fe23 83bc 472c a43d 78c7 00be
00000050: fd03 3cbc f8da 423d e797 463c af59 473d
00000060: bdb5 22bc 68c7 343d 1018 663c 4271 43be
00000070: 9ace c6bc 4fdb c2bd 6561 c83d 01bc 143e
00000080: 7ef7 dcbd b73e 943c 36e0 1d3e 64f7 053e
00000090: 1052 84bd d1d8 1ebe f167 d9bd 4b4e d1bc
000000a0: 7882 f2bc 15a6 88bd eb19 473e d218 a63d
000000b0: 4113 243b 3028 0c3c 49ca c4bc 8dae 183c
000000c0: 5153 c1bd a120 153c dabd ee3a 373b b23c
000000d0: 9187 4ebc 0779 c93c aedd 553d d51c f6bd
000000e0: 6c2d b2bd 4d20 5ebc 6809 d53b 8501 56bd
000000f0: a04e abbd e0f8 393a e24b 3c3e a87c 1f3d
00000100: 3d7b 22bd d63e 113c cc36 a8bd 0735 43be
00000110: dda2 7fbe 0c11 283e a244 b4bd 1d77 593d
00000120: daaa 90bd d165 303c 45c9 273d a27c c33d
00000130: 3089 9bbc 6309 003e 9482 f13d 33be 86bd
00000140: b4c2 2dbe 94d9 45bd 9235 b7bd 18ac c23b
00000150: f66c d3bc 7f52 a3bd 1299 e739 1905 02be
00000160: 8a44 b3bc ee5a ba3d 59b8 3b3e 71b6 82bd
00000170: e980 873d f9e2 3d3c daca 4c3d a32a b13d
00000180: 71bb 4cbd ace2 acbd df54 37bd 4b72 223d
00000190: 48ea 33be 4f0f 5ebd 0961 88bc d5d6 a1bc
000001a0: 8e5f 2e3e ed3a 1b3d ebf2 bc3d 9821 883d
000001b0: c75d 5c3c c311 163e ae0a 5bbe 646b 823d
000001c0: 1648 df3b 7c81 2fbd 5cdd d2bd 68ee 573d
000001d0: 3984 e1bc 29ce a7bd 74e2 5ebd fa1e 6b3d
000001e0: 508b bbbd 2544 f53c 02aa 063e 914d 88bd
000001f0: b0c1 b7bd 3859 b53c 9cd6 cd3c 8cf4 fa3c
00000200: d996 83bc d3ad 0f3e 289a 9e3d 48ec eabc
00000210: ea14 a53d 4d0e 92bb e13a a4bd 2aad fbbc
00000220: fbb5 f63d 0548 983d 41e8 b63d 6e52 f0bc
00000230: 436f 913d c6b5 cd3d 6142 72bd 03bb e03c
00000240: bbfa bebc f340 f0bc 7993 813d acad a7bd
00000250: b450 8cbd df75 093e 843f 033e bdc3 99bd
00000260: ef68 2bbb 5277 3e3c f5b5 fa3d 5d9c 95bc
00000270: bd5d a2bb 0a16 8c3d 620c 863d 3883 4fbb
00000280: 804d 22bd 70eb a53d ac4a 433b 8c16 023e
00000290: 614a 833d 8fef 82bc e5f0 58bc ec9c c63d
000002a0: d857 aa3d 562a f33a 7441 7ebc b035 ea3d
000002b0: 0778 ce3c 4614 41bd eee3 113e f217 a33d
000002c0: 8be5 903d b9e0 5d3d 8375 f53d 78b9 c23d
000002d0: e88a 573d 51d6 c93d d69f c7bc 0e5d 453e
000002e0: 80d7 893d 00b5 1c3e 6816 bdbb 2a65 4dbe
000002f0: dc8d 9fbc b960 8fbd 8209 893d b671 3c3e
00000300: 925e 483d 2a93 25bd 78b2 0abd a169 813c
00000310: ee58 b63c d41e de3d 8925 b33d 0f0e d63d
00000320: 9f1d b73d 9449 a83d aee6 113c 89cd b83d
00000330: 9b66 8a3d 3cd7 f23d 6013 483d 1da1 b7bb
00000340: 3285 723e 896f 2a3e c148 6d3d 36e7 24bc
00000350: 43c3 ec3c 1073 9b3d 2b2f 00bc 9f0c ae3d
00000360: 55b6 a03c dcd9 3b3d df3a 20bc db22 763d
00000370: 274f 753d 2cc9 983c 9f1b db3d 129e fe3d
00000380: 4721 8f3d 5c40 b3bc 72a1 ae3c 0e2c f33d
00000390: c068 b13d b427 c2bd f64d 54bc 06ed 9d3d
000003a0: c341 46bd 6b8e 1ebd f6e9 90bc 4969 a53b
000003b0: 0e2b 75bc 11a4 163e b3ad 4abd 0fc9 cf3d
000003c0: 5622 5dbd ec20 6e3c 01ad d5bd 8a89 833d
000003d0: 5a68 09bd 0c58 24bb 5a29 823c d3d7 893d
000003e0: 47ff 893d 8487 cd3d d11e e43d 0068 923d
000003f0: dc8d cabb d134 933d 4998 523d 07e9 bc3d
-0.07854421 -0.12778564 0.0046970295 0.06978935 0.04731253 0.10314615 0.15247715 0.033841014
-0.053869084 0.15318133 0.027475117 0.029708957 0.05459345 -0.12354959 -0.05045362 0.08106636
0.06460565 -0.016008373 0.08016258 -0.12576091 -0.01147556 0.047572106 0.012121177 0.048669513
-0.009931025 0.04413548 0.014043823 -0.19086173 -0.024268437 -0.09514486 0.097842015 0.14524843
-0.10789393 0.018096311 0.15417561 0.13082653 -0.06460965 -0.15512396 -0.106155284 -0.025550028
-0.029603228 -0.06672303 0.1944348 0.08110203 0.002503589 0.008554503 -0.024022238 0.00931896
-0.094397195 0.009102018 0.0018214539 0.021756751 -0.012605564 0.024593843 0.052213363 -0.12017218
-0.0870007 -0.013557506 0.0065013655 -0.052247543 -0.08364606 0.0007094275 0.18388322 0.03893724
-0.03966831 0.008865079 -0.08213577 -0.19063197 -0.24964471 0.16412753 -0.08802153 0.05309211
-0.07063837 0.010766462 0.04096343 0.09545256 -0.018986315 0.12503581 0.11792484 -0.06579246
-0.16968805 -0.0483032 -0.089457646 0.0059409253 -0.025808793 -0.07974719 0.000441738 -0.12697257
-0.021883268 0.09099375 0.18332042 -0.06382454 0.066163845 0.011589759 0.04999814 0.086507104
-0.049983446 -0.08441672 -0.044758674 0.03965978 -0.1756984 -0.05421382 -0.016647832 -0.01975576
0.17028639 0.037897993 0.092260204 0.066470325 0.013450093 0.14655213 -0.21390793 0.063681394
0.0068140132 -0.042848095 -0.10296127 0.052717596 -0.027528869 -0.08193619 -0.05441518 0.05740259
-0.09157431 0.02993972 0.1315079 -0.066554196 -0.0897249 0.02213727 0.025126748 0.030634187
-0.01606314 0.14031152 0.07744247 -0.02867712 0.0806063 -0.004457271 -0.08019043 -0.03072222
0.12046429 0.07435612 0.08931018 -0.02933618 0.071012996 0.10044436 -0.059145335 0.027432924
-0.023312917 -0.029327845 0.06326956 -0.08187422 -0.068513304 0.1342387 0.12817198 -0.07508037
-0.0026155075 0.011625128 0.12241737 -0.018263036 -0.004955022 0.06840141 0.065453306 -0.0031663906
-0.03962469 0.08101547 0.0029799147 0.12703913 0.06410671 -0.015983371 -0.0132410275 0.09697899
0.08317536 0.0018552046 -0.015518535 0.11436021 0.025203718 -0.047138475 0.14247105 0.079635516
0.07075032 0.05416939 0.11985304 0.095080316 0.052622706 0.09855331 -0.024368208 0.19273779
0.067305565 0.15303421 -0.0057704933 -0.20058122 -0.019476824 -0.0700087 0.066912666 0.18402752
0.048918314 -0.04042355 -0.033861607 0.015797438 0.022259202 0.10845724 0.08747394 0.104519
0.08941197 0.08217159 0.008905096 0.09023578 0.06757852 0.11857459 0.048846602 -0.005603923
0.23683622 0.1664411 0.05793071 -0.010064891 0.028901702 0.07590306 -0.007823746 0.08498501
0.019618193 0.045862064 -0.009779661 0.060091835 0.05988994 0.018650614 0.10698628 0.12432493
0.06988769 -0.021881275 0.021317217 0.11873637 0.086625576 -0.09480229 -0.01295804 0.07711224
-0.04840256 -0.03871004 -0.017689686 0.0050479514 -0.014963878 0.14711024 -0.04948206 0.10145771
-0.053987823 0.014534216 -0.104333885 0.06422718 -0.033546783 -0.0025076894 0.015888859 0.06730618
0.067381434 0.10035613 0.1113869 0.07148743 -0.0061814617 0.07187808 0.05141476 0.09224134

net.2.bias f4 [128]
00000000: 2d88 a33b 0823 d1bb 5c87 b83d cc5f d63d
00000010: d0a4 3b3d fa58 073d 53d6 a63d 0a64 57bd
00000020: d126 1cbd 9e51 b73d 6a5a 153e 954e d6bc
00000030: cbfa 1c3e 94cc d7ba 1d95 2b3d e22e cabc
00000040: 98a2 7b3d 768b 293e c2ae 8bbc 50d4 073e
00000050: e4c4 ab3d 23c9 f03c 89cc e13b 52f1 31bd
00000060: d9ae cc3d 477e 733d 4f38 b6bd 8868 3c3d
00000070: c526 fa3d 2b48 7b3d 8173 5e3d c759 803d
00000080: 1ad1 64bd c6ce a5bd 51bb 243e 1709 983c
00000090: 9155 56bc d289 c83d 896c 883d c8ff 9c3d
000000a0: 8fb3 063d 9975 733d 252b 583c 69ae 2ebd
000000b0: 459c 9f3d 71fe 8e3c e192 083e 0371 7d3d
000000c0: daa6 fa3d fb94 69bd a138 d33d 79b0 183d
000000d0: f46d 1b3b 1cbd 0e3e 703d 793c 73b3 b83d
000000e0: a9b5 34bd 8c45 7dbd b4e9 463d 385d 8e3d
000000f0: 0218 6f3d 8603 093d af0b 3abd 1462 413c
00000100: a83e 563d 35cc a6bd 8b75 713d b07c 18bc
00000110: 36cd 3039 514a 0bbd a81b ce3d 4baf 8bbd
00000120: b2d5 313d f68a 71bd 9847 8dbd 89bd c23d
00000130: 9345 81bd b66c 453b fbf6 bb3d a9c3 b2bd
00000140: d0d5 ba3d 3093 c83c ca57 80bd c372 aa3d
00000150: 956f dd3d 0d75 3a3c 2135 863c 962d c53d
00000160: b0f3 123b a427 af3c d9ed ca3c f9b3 bd3c
00000170: 91ee 913c 4df4 28bd 5d48 2ebd 573d 58bb
00000180: 77a9 8d3c 178e c93c 6949 62bc 31f7 0ebc
00000190: 1a37 323b 441d 8b3c 1049 1f3d 7543 69bd
000001a0: f06e 5c3d afb7 e63b 9ecb a93d fb7a 373d
000001b0: a671 743c 1d9b ba3b bc16 8f3d 4c44 2c3d
000001c0: aefa 093e 4f56 a73d 0e21 093d 28b1 51bd
000001d0: ff7c 7a3d 6f19 f43c 9669 523d 55ea e1bb
000001e0: 478a 073e 60d3 b23d 2d75 953d e7c6 af3d
000001f0: 5a7b 043e 4649 62bc a27e fe3c 818f 013e
0.0049905987 -0.00638235 0.09010193 0.104674906 0.045811474 0.03304384 0.08146348 -0.05258564
-0.038122956 0.08951114 0.14585271 -0.026160518 0.15330045 -0.0016464167 0.041890252 -0.024680559
0.06143436 0.16557106 -0.017051104 0.13264585 0.08387163 0.029392784 0.0068908376 -0.04344303
0.09994287 0.0594466 -0.08897459 0.045998126 0.12214426 0.06134812 0.05430937 0.06267124
-0.055863477 -0.080960795 0.1608708 0.018559022 -0.013081924 0.09791912 0.066613264 0.07665974
0.032886084 0.05943832 0.01319388 -0.0426468 0.07793478 0.017455311 0.1333728 0.061875354
0.12238856 -0.057026844 0.103135355 0.037277672 0.002371666 0.13939327 0.015212402 0.09018602
-0.044118557 -0.061833903 0.04856272 0.06951374 0.058372505 0.033450626 -0.0454213 0.011803169
0.052305847 -0.08144418 0.05894999 -0.009307072 0.00016861115 -0.03400642 0.10063869 -0.06820544
0.043416686 -0.058970414 -0.06898421 0.09508807 -0.06312098 0.0030124611 0.09177967 -0.087287255
0.09122813 0.024484247 -0.062667444 0.0832267 0.10812298 0.011380446 0.016382756 0.096278355
0.002242308 0.021381207 0.024771618 0.023157107 0.017813953 -0.04124861 -0.04254948 -0.0032995546
0.017292721 0.024603887 -0.013811448 -0.008725927 0.0027193488 0.016981728 0.038888037 -0.056949098
0.053816736 0.0070409398 0.0829079 0.044795018 0.014919674 0.0056947605 0.06986758 0.04205732
0.13474533 0.08170759 0.03347879 -0.05119434 0.06115436 0.029797284 0.051370226 -0.0068943896
0.13236342 0.08731723 0.0729774 0.085828595 0.1293768 -0.013811415 0.031066243 0.12652399
