ddqn_out/dqn_ep1850.pt (torch, 464501 bytes, 24 tensors)

net.0.weight f4 [128, 77]
000000 c7 4e 8a 3f 9a 4b 7f 3d fa 30 ca bd 21 6d a2 bd
       1.0805291 0.06232796 -0.09872623 -0.07930971
000010 96 94 34 bd 5c 01 9d 3c 30 50 a6 3b 79 ec a1 3d
       -0.044087015 0.019165687 0.005075477 0.07906432
000020 7b d0 fc bc fe 99 d1 3d 38 e1 ae ba 7a c6 38 bd
       -0.03086113 0.1023445 -0.0013342267 -0.045111157
000030 59 17 cf bd a8 5c d1 bd 46 06 dd bc 71 ef 79 3b
       -0.10111875 -0.10222751 -0.02698053 0.0038137103
000040 a8 39 3b 3d a2 6f 8b 3d e6 73 a1 bd ae 5f 46 bd
       0.045709282 0.06808402 -0.07883434 -0.04843109
000050 a4 6f 2e 3d 69 89 ad 3d 32 96 d8 bc 4d 73 ac 3d
       0.042586938 0.084734745 -0.026438806 0.084204294
000060 7c aa 41 bd 42 72 3a 3d c5 60 c7 3d f9 7c 0a be
       -0.047281727 0.04551912 0.09735254 -0.13524236
000070 c8 ea ac bc 23 89 99 bc 92 9b ae bd 09 7d 50 3d
       -0.021108046 -0.01874215 -0.085257664 0.050900493
000080 6e 51 b9 bd ba fb 5e bd 80 8b aa bd 85 d4 cb bd
       -0.090487346 -0.054439284 -0.08327389 -0.09952644
000090 d5 6b 87 bd d4 4a c6 3d fc 2d 55 3d 20 21 67 3d
       -0.06612364 0.09682241 0.052045807 0.056428075
0000a0 25 89 1c 3c 98 25 d4 bc 92 37 43 3c 94 8a f3 bd
       0.009554182 -0.025896832 0.011915104 -0.11891666
0000b0 03 da 1f bd 20 b0 51 bd 4c c7 c5 3c 53 1b b1 3d
       -0.03902627 -0.051193357 0.024142884 0.0864779
0000c0 92 19 08 bc 91 78 9e bd aa 1f 79 3d b2 3f cd 3d
       -0.008306878 -0.0773784 0.060821213 0.100219145
0000d0 84 d7 c4 bc b9 cc 93 3c 6f ef a1 3d 75 47 8f bd
       -0.024028547 0.018041955 0.079069965 -0.06996051
0000e0 69 e5 ad 3c df 80 b2 bd 69 50 9f bd 6e 71 62 bd
       0.021227555 -0.087159865 -0.07779009 -0.055283956
0000f0 5f 58 cc 3d d5 06 67 3d bc 8e ec bd 72 01 27 3d
       0.09977793 0.056403 -0.11550662 0.040772863
000100 a8 c7 9f 3d de 24 88 bd 4c 5b 05 3e 49 6f 58 3c
       0.07801753 -0.06647657 0.13023108 0.013210126
000110 e4 e3 0d bd 98 7d dc 3d 08 91 94 bd 27 0d a8 bd
       -0.03464116 0.107661426 -0.07254225 -0.082056336
000120 12 0b 26 3d c1 30 cf 3d a5 f4 c0 3d 2b 27 ce 3d
       0.0405379 0.10116721 0.09421662 0.100660644
000130 0b 94 c3 3c 1f 31 13 3f a0 4f 4e 3c c8 48 8e bd
       0.023874303 0.5749683 0.012592226 -0.06947476
000140 33 91 7d bc 18 d8 dd 3d 87 69 a6 3d 38 9b 09 be
       -0.015476513 0.10832232 0.081255965 -0.13438118
000150 04 d4 27 3c 1e 2d 13 bd 91 a9 0e bc 2c 30 14 bc
       0.01024342 -0.0359317 -0.00870742 -0.009044688
000160 ea 50 b8 3d 5a 5c 7d bd 91 45 27 3d ee 56 64 3d
       0.08999808 -0.06185565 0.040837828 0.055746965
000170 92 03 af 3d 46 68 10 3d b2 73 fb bd 2f 9c 93 bd
       0.08545603 0.035255693 -0.122779265 -0.07207524
000180 3c b5 71 3d a8 ab d4 3c d2 13 d5 bd 84 95 04 3b
       0.05901073 0.025960758 -0.10404171 0.002023072
000190 cd ca ed 3d 8e 38 9b 3d 55 d3 21 be 05 09 12 bd
       0.11610947 0.07579146 -0.15803273 -0.035653133
0001a0 34 c3 02 be d4 b6 81 bc e0 87 7c bd a0 c4 ef bd
       -0.12769777 -0.01583425 -0.061653018 -0.11707425
0001b0 44 3a be ba c6 78 c3 3b a0 90 73 bc 29 03 95 3d
       -0.0014513214 0.005965325 -0.014866024 0.072759934
0001c0 07 20 ab bd b7 bb b0 3d 07 df 98 3d d1 7e c0 bd
       -0.08355718 0.08629554 0.07464414 -0.09399188
0001d0 64 13 d7 bc fb a3 d1 bc 6e b8 80 3d 88 da 8e 3c
       -0.026254363 -0.025590887 0.06285177 0.017438188
0001e0 ae 88 43 3d 86 45 89 bc ee 18 91 bd 27 b6 16 3d
       0.04773777 -0.016756784 -0.07084833 0.036794808
0001f0 af ed 08 be ba ff 29 bd db 28 c3 bc 44 6e 14 bd
       -0.13371919 -0.041503645 -0.023823192 -0.03623797
000200 bb 7d 09 bd 9d 84 d5 bc 3e bd 51 bc c5 e5 c6 3b
       -0.03356717 -0.026064212 -0.0128014665 0.006069871
000210 9c 9e c0 bd e8 b5 34 bb 91 64 ab 3d ab 64 1d bc
       -0.09405252 -0.0027574245 0.08368791 -0.009606521
000220 f4 58 a0 3b 1c 53 03 bc 18 52 34 3d b9 12 6f 3d
       0.0048934165 -0.00801542 0.044023603 0.058367465
000230 99 4a 05 3e 56 85 c8 3d 58 a4 ba 3d 1b 87 4e bc
       0.13016738 0.09791057 0.09113377 -0.012605454
000240 bc e0 8f bd 8a fd 71 bd e5 2f 90 3d 7b 22 1d bc
       -0.070252866 -0.059079684 0.07040385 -0.00959074
000250 c3 e8 5f bd 75 5a 9d bd 53 47 00 be 5c 57 fa bd
       -0.05466534 -0.07683269 -0.12527208 -0.12223694
000260 36 e4 f1 bc e7 4f 84 3d 7a a0 d5 3f 98 0d c3 bd
       -0.029527765 0.06460553 1.6689599 -0.09524077
000270 4f d0 9e 3d ce f9 63 bd de 23 c4 3a bc 6d 1a bd
       0.077545755 -0.055658154 0.0014964303 -0.037702307
000280 a5 a0 cd 3c f0 a0 00 bc 1b ce bb bd 08 91 8e bd
       0.025101015 -0.0078508705 -0.09170171 -0.06961256
000290 09 e1 9a bc 93 e0 51 3d 5d 46 56 bd a6 0b f1 3c
       -0.018906133 0.05123956 -0.052313197 0.0294245
0002a0 7e 67 bb bd b6 38 ac 3b a3 a0 df 3d be ec 10 bd
       -0.09150599 0.005255784 0.10919311 -0.035382025
0002b0 40 d0 ed 3d dc 1e 65 3d f2 96 b4 bd 3c 78 92 3d
       0.11611986 0.055937633 -0.08817853 0.07151839
0002c0 92 93 bd bb a6 d2 29 bd eb 34 bb 3d 60 c2 78 bd
       -0.005785414 -0.041460656 0.09140953 -0.060732245
0002d0 20 c5 be 3c 8b 3f 00 bd 0f 43 b3 3d 83 cd 34 3d
       0.023287356 -0.0313106 0.08753025 0.044141304
0002e0 d1 56 d4 3d 09 58 1d 3d fc e3 c8 bc e5 b0 3a bc
       0.103681214 0.038414035 -0.024522774 -0.011394714
0002f0 4e 14 d1 bd 98 ae 9d 3d 8a 8e d2 3d c1 cd bb 3d
       -0.10208951 0.07699317 0.102810934 0.09170104
000300 9e 97 86 bd fb c8 a1 3c d9 67 98 bd a3 5c cc bc
       -0.065718874 0.019749155 -0.07441682 -0.024946516
000310 79 93 57 bd 42 75 41 3d ab bc ef bc 70 12 8d bb
       -0.052630875 0.047230966 -0.029264769 -0.0043051764
000320 37 d7 98 bc 1f e9 4f 3d b2 c0 4d bd 10 e4 0e 3c
       -0.01865731 0.05075943 -0.050232597 0.0087213665
000330 c8 61 73 bd b8 9e 81 3d 26 3a 25 bd 37 74 ef 3d
       -0.059419423 0.06329101 -0.040338658 0.11692088
000340 f6 f0 26 3d 04 54 d0 3c 33 5f 57 3c 05 cd 00 bc
       0.040757142 0.025430687 0.013145256 -0.00786138
000350 b5 47 ed 3c 1a fe fa 3b 34 69 0c bc a0 5e d4 3c
       0.028964857 0.007659686 -0.008570004 0.025924027
000360 86 a0 87 bd 2e 9e a1 bc 58 1a fa 3d de 25 f5 bd
       -0.06622414 -0.019728746 0.12212056 -0.11970113
000370 ec 57 a2 bd 3e 2b f2 3d ee d9 02 3e 91 d9 42 bc
       -0.07926926 0.11824654 0.12778446 -0.011892692
000380 b6 4e 06 be d6 68 9e 3d 10 15 06 be 39 66 47 bd
       -0.13115963 0.077348396 -0.13093972 -0.04868147
000390 29 98 14 bd 22 a4 70 ba 26 5c 82 3c 09 01 c6 3e
       -0.036277924 -0.0009179731 0.01591308 0.38672665
0003a0 cf ca 59 3c ba 19 c1 3d e7 19 dd 3d 79 60 9a bd
       0.013292982 0.09428735 0.10795956 -0.07537932
0003b0 70 a5 e0 3c 36 cd 9d bd 42 39 4b bd a6 91 11 3d
       0.027422637 -0.077051565 -0.049615152 0.03553929
0003c0 f7 73 39 3d 92 e3 bd 3d 19 29 90 bd db c6 44 3a
       0.04527661 0.09271921 -0.07039089 0.00075064384
0003d0 65 4e a9 3d 09 b4 b8 bd 45 77 9d 3d cd 21 d5 bd
       0.08266906 -0.09018714 0.076887645 -0.104068376
0003e0 5f 3e 50 3b 8f a1 b2 bc b2 aa 79 bd 45 7b 67 3c
       0.0031775457 -0.021805553 -0.060953803 0.014128511
0003f0 7f e5 93 3d 67 c7 03 bc ce 3a 77 bd ee 9d 86 bd
       0.07221507 -0.008043147 -0.060358815 -0.065730914

net.0.bias f4 [128]
000000 20 4a b9 bc b4 36 35 bd 59 0f 82 bd b8 24 0f 3d
       -0.022618353 -0.044241622 -0.063505836 0.034947127
000010 d6 37 3a bd 45 5a 68 bd 35 6d 26 3d d7 e8 10 bd
       -0.045463406 -0.056726713 0.04063149 -0.035378303
000020 d6 5b 9d 3c e5 af 1e bc 44 90 44 3d 47 23 94 3d
       0.01920883 -0.009685491 0.047989145 0.07233291
000030 75 1e cd bd b9 d8 4c bd c5 8d f6 3d b9 cf 40 3c
       -0.10015575 -0.05001137 0.12038759 0.011768275
000040 36 4c a1 bc d1 96 b9 3d 4d 25 00 3e 12 fb 1b 3d
       -0.01968966 0.09061969 0.12514229 0.038081236
000050 09 02 a5 bd ca 87 f1 3d cc ba cf bd 55 12 cd bd
       -0.08057029 0.11793478 -0.101430506 -0.10013262
000060 cc ee 84 3c 01 c6 eb bc c3 dc e7 bd 9c 9a ba 3d
       0.016227148 -0.028780939 -0.11321404 0.09111521
000070 16 d0 c6 3c e6 a6 84 bd 05 22 21 3d e8 97 9f 3d
       0.024269145 -0.06477146 0.039339084 0.07792646
000080 9d d3 d7 bb a2 12 ae 3d 33 4c 80 3d b1 dc 29 3d
       -0.0065865056 0.08499648 0.06264534 0.041470233
000090 ed e8 5b bd ff e9 ab bd d1 d7 9d ba 09 35 0e bd
       -0.053688932 -0.083942406 -0.0012042468 -0.034718547
0000a0 86 fc e7 bd 0c 27 d0 bd 34 48 7c bd 84 4d a8 3c
       -0.11327462 -0.101636976 -0.061592296 0.020544775
0000b0 f4 9f 05 bd 71 17 c4 bd 0c 1d a1 bc 6b bf e9 bc
       -0.032623246 -0.095747836 -0.019667171 -0.028533658
0000c0 8b 6c 02 bd 06 ec 96 3d 25 b8 42 3d 8f 28 9e 3d
       -0.031841796 0.07369237 0.047538895 0.0772258
0000d0 72 15 ed 3d d3 9e b0 3b 44 b5 66 bd cc c6 2c bc
       0.11576356 0.005390027 -0.056325212 -0.010545444
0000e0 39 58 f7 3c 43 cb 13 bd 0d 7d ad 3d f0 ca 60 3d
       0.030193435 -0.036082517 0.08471117 0.054881036
0000f0 02 94 9f bd bf 50 c2 3c 8b 5f a4 3b d5 e7 61 3d
       -0.07791902 0.023720143 0.0050162724 0.055152733
000100 20 bc 6a bd ad 99 d3 3d dd 5a 07 bd 3d 2c 4e 3d
       -0.057308316 0.10332046 -0.03304564 0.050335158
000110 94 9a 6e bd dc 15 27 3d 00 83 f3 bc f5 e5 2d bd
       -0.058252886 0.04079233 -0.029725552 -0.042455632
000120 4e 70 b5 bd f7 b9 2d 3d 63 8f e4 3c fa 32 01 3d
       -0.08859311 0.042413678 0.027900403 0.031542756
000130 95 51 66 bd 1e 52 bc 3c ab 05 7b bd dd 10 f5 3c
       -0.056230146 0.022988375 -0.061284702 0.029915268
000140 51 c0 e6 3d 5f d4 bc bd 10 68 2b 3d a0 b4 93 bd
       0.1126715 -0.09220194 0.04184729 -0.07212186
000150 4b 34 26 3d 70 ac cb bc 28 1f 11 3d a1 ce a1 bd
       0.040577214 -0.024862498 0.035430104 -0.079007395
000160 3f 40 a8 3d 7f 97 95 3d b5 e0 9b bd 93 79 9c bd
       0.08215379 0.07304286 -0.07611219 -0.07640376
000170 58 6c 98 3d 25 28 96 bd d7 c1 31 3d fd 5d 26 bd
       0.0744254 -0.07331876 0.04339775 -0.040616978
000180 08 1f c2 bd 9c 92 fe 3c 9a 68 19 bd dd 99 57 bd
       -0.09478575 0.031075768 -0.03745327 -0.05263697
000190 2c a2 46 3d a8 1f 36 3d 7a d1 a8 3d 35 90 e3 3d
       0.048494503 0.044463784 0.082430795 0.1111149
0001a0 e8 7a 25 3d 70 8c 8a bc 8c d5 25 bc 9c 16 aa 3d
       0.040400416 -0.016912669 -0.010121714 0.08305094
0001b0 f3 b4 c1 bd 86 71 c0 3d d5 19 32 3d fe e6 23 3d
       -0.094583414 0.09396653 0.043481667 0.040015213
0001c0 d0 47 ee 3c 67 82 be bd 6a 0b 10 3d 3d 01 0b bc
       0.029086977 -0.09302216 0.035167135 -0.008484182
0001d0 24 df d7 3b 9e 03 52 bd a5 f8 b3 3d de 1f 5b bb
       0.0065878797 -0.05127298 0.087876596 -0.0033435742
0001e0 d0 e8 fe bb 66 52 b7 bd 27 ec c6 3d 00 bb d3 bd
       -0.0077792183 -0.08951263 0.09713011 -0.10338402
0001f0 c9 ea 96 3d 81 8e 3a 3d 6c 10 9e 3c 7e f7 e1 bd
       0.073690005 0.04554606 0.01929494 -0.110335335

net.2.weight f4 [128, 128]
000000 e6 46 f0 bc 66 69 9d bd bb b0 95 bc f2 ed 8f 3d
       -0.029330682 -0.07686119 -0.018272748 0.07027806
000010 ff 56 8a bb 3f 93 2f bc 4f 19 5b 3d 4e 48 73 3d
       -0.0042217965 -0.010716259 0.053490933 0.059395127
000020 18 3d 89 bd be 07 86 3d ef ee ba bb 71 e0 8e 3d
       -0.06701106 0.065444455 -0.0057047526 0.069764026
000030 19 e0 9d bd 69 a3 98 bd 0f 47 16 bd 33 56 fd 3d
       -0.07708759 -0.07453043 -0.03668886 0.12369957
000040 4f d3 66 3d eb 31 d0 bc 7f e3 26 3c 77 d4 81 bc
       0.056353863 -0.025414428 0.010186075 -0.015848381
000050 b3 95 08 3c 66 66 60 3b b4 85 37 bc 0f b0 ba 3d
       0.008336472 0.0034240722 -0.011201311 0.09115612
000060 e6 a8 41 3d 2d c7 d9 3d 4c fa 4e bd 6f 9c a0 bd
       0.047280215 0.10633693 -0.05053167 -0.07842337
000070 97 53 55 bb 64 29 38 bc 9c fb 71 3d f3 be aa 3d
       -0.0032551044 -0.011240337 0.059077844 0.08337202
000080 4e de 6f bd b8 ee b2 3d 69 9a b5 3d a8 62 a6 3d
       -0.058561616 0.08736938 0.08867342 0.08124286
000090 53 bc c2 3c b5 30 09 bd ce de f5 bc be e1 94 bb
       0.02377144 -0.033493716 -0.030013468 -0.004543512
0000a0 23 8f 07 bd b5 64 22 bd 69 f2 ae 3d 0e a0 58 3d
       -0.03309549 -0.039646823 0.0854233 0.052887015
0000b0 ef 0a e3 3c 30 28 0c 3c c8 39 9c 3c f5 e6 53 bb
       0.027715174 0.008554503 0.019070521 -0.0032333706
0000c0 ba 15 81 bd 98 ac e1 bb 32 46 c4 bc c0 04 38 bc
       -0.06302972 -0.00688703 -0.023959253 -0.011231601
0000d0 0a d3 dd 3a ef ed a4 3b b9 49 87 bd 03 9a 67 bd
       0.0016923856 0.0050332467 -0.06605858 -0.05654336
0000e0 06 1f 08 bd b3 81 81 bb c0 c6 49 bd 16 4c 9a 3d
       -0.03323271 -0.003952229 -0.04926181 0.075340435
0000f0 3f 94 5b bd a8 df cf 3d b3 6d b7 bd 59 7b a8 bb
       -0.053608175 0.10150081 -0.0895647 -0.0051416573
000100 cb 8b 8e bc b0 9e f6 bc d6 b4 9f bc 89 73 c5 bd
       -0.017400643 -0.030104965 -0.019495409 -0.09641177
000110 82 4b 3d 3d c9 94 97 3d 38 00 8c bd f2 94 c6 bc
       0.046214588 0.074014254 -0.06835979 -0.024240945
000120 a4 09 a1 bd 2d 49 4d 3d a1 95 18 bd 92 33 bc 3d
       -0.07863167 0.050118614 -0.037252072 0.09189524
000130 5d 94 99 3c ec a6 fd 3c c3 2b ce 3d 99 7e b5 bd
       0.018747503 0.030963384 0.10066941 -0.08862037
000140 fb 25 1b bd 6e 7c 0f bb 2a 7a 9f bd fb 0b d6 3c
       -0.037878018 -0.0021894234 -0.07786973 0.02612876
000150 c0 a4 55 bc 84 cc a9 bd d1 20 da bc 24 43 48 bd
       -0.013039768 -0.082909614 -0.026626976 -0.048892155
000160 bd f4 0f 3d fe 73 c7 3d 95 5f d0 3d 79 53 9a bd
       0.03514551 0.09738921 0.10174481 -0.075354524
000170 65 fc 63 3d dd 33 19 3c a8 ec 4c 3d 53 ed 17 3d
       0.055660624 0.009350744 0.05003038 0.037091564
000180 f7 65 60 bd f8 6f 9d bd ea 4a 08 bd 04 af c5 3b
       -0.05478474 -0.07687372 -0.03327457 0.0060328264
000190 84 16 59 3c 59 77 01 bd 96 3e 9c 3b 25 56 fc bc
       0.013249997 -0.03160796 0.004768203 -0.030802796
0001a0 de 5c cd 3d e1 a5 e2 bd 7b f9 07 bd 17 2a 42 3d
       0.10027479 -0.11066795 -0.033196907 0.04740342
0001b0 e6 bf 8f bd e0 4f 91 3d 1c f4 c6 bd 2a a3 05 bc
       -0.070190236 0.07095313 -0.09714529 -0.008156577
0001c0 65 ce d0 bc ef af 0f bc cb 1f 23 bd 9e 72 4b 3d
       -0.025489042 -0.008769973 -0.039825242 0.049669854
0001d0 cd fd 61 bd da 77 13 bd e9 04 ec bc 84 e1 8f bd
       -0.055173684 -0.03600297 -0.028810935 -0.070254356
0001e0 03 a0 b7 bd 9e 38 81 3d 0b b8 fb 3d 0e dd 98 bc
       -0.08966067 0.06309627 0.12290963 -0.018660095
0001f0 6d d4 2d bc b7 2e 3f 3d fb 6a da 3c 27 75 a2 bd
       -0.010609728 0.04667541 0.02666234 -0.07932501
000200 87 c4 f7 3b c3 de 00 3e d4 81 98 3d 44 22 e4 bc
       0.0075612697 0.12584977 0.07446638 -0.02784837
000210 c6 35 60 3c 31 ee 15 bc 61 9a f7 bd e4 88 1e bd
       0.013684696 -0.009151028 -0.12089992 -0.038704768
000220 49 ac f2 3d 5e 25 78 3d 62 fe 40 3d ab 16 77 bd
       0.11849267 0.06058251 0.0471176 -0.060324352
000230 70 3f c7 bb 23 f8 d8 3d 6f 0b 06 bd ed d4 25 bc
       -0.0060805604 0.10594203 -0.032725748 -0.010121566
000240 12 87 8a bd e3 5b 84 bd 32 bf 8f bc be 33 23 bd
       -0.06764044 -0.064628385 -0.017547224 -0.039844267
000250 f5 e1 ce bd cf 70 e4 3d 98 7f f6 3d 40 0c fc bd
       -0.10101692 0.11154329 0.12036055 -0.12307024
000260 c0 c0 25 bd c5 8a cc 3d 3a e9 9d 3d c2 96 88 bd
       -0.040467024 0.09987406 0.077105 -0.0666938
000270 56 42 05 bd 25 82 85 3d 73 d6 d0 bc 13 c6 d1 bc
       -0.032533966 0.06518964 -0.025492882 -0.025607144
000280 44 0b 9a bc e4 8a b8 3c 3d 2f c5 bb 5c ce c3 3d
       -0.0188042 0.022527166 -0.006017594 0.09560844
000290 34 3e a7 3d 39 f5 98 bc b8 f7 10 bd 35 aa 46 3d
       0.08166161 -0.018671619 -0.035392493 0.048502166
0002a0 2e 31 c8 3c 01 b2 11 bd 92 2d 9e bd ae 8b 80 3d
       0.024437513 -0.03557015 -0.077235356 0.06276642
0002b0 30 d6 51 bc e2 d5 34 bd bf 46 8d 3d b3 3e 04 3d
       -0.012807414 -0.044149287 0.06898259 0.032286357
0002c0 d9 1b a4 3d c4 15 2d 3d 44 a9 d3 3d ce 43 a9 3d
       0.08013124 0.042257085 0.10335019 0.08264886
0002d0 fb 7d 62 3d f0 28 8e 3d ab f6 80 bd 7f 12 e2 3d
       0.055295926 0.06941402 -0.06297048 0.11038684
0002e0 ff 43 8a 3a ce a3 d6 3d 60 91 17 bd ea ed 75 bd
       0.0010548829 0.10480462 -0.037003875 -0.060041346
0002f0 96 d1 98 3d 31 0a b0 bd 31 20 11 3d e6 5e 37 3e
       0.0746185 -0.08595694 0.03543109 0.17907295
000300 57 f3 58 3d fd 2c 93 bd 03 e2 39 bd 80 11 cc bc
       0.052966442 -0.07186315 -0.045381557 -0.024910688
000310 ca 63 97 bd 06 4c 2c 3d 5c 8d 95 3d 2a 6c a2 3d
       -0.0739208 0.04206469 0.07302353 0.07930787
000320 29 fe a7 3d 30 a9 b1 3d 72 c5 34 bd 12 25 ad 3d
       0.08202774 0.08674848 -0.04413361 0.08454336
000330 bc e6 45 3c 9c b1 93 3d 8f e7 b6 3c 33 60 19 bd
       0.012078937 0.07211611 0.022327213 -0.03744526
000340 45 0f b1 3d c6 f9 0e 3e ed 1b 84 3d c5 ca 2d bd
       0.086454906 0.13962469 0.06450639 -0.042429704
000350 bf 8e dd bb 1f 02 95 3d c5 63 dd bc 84 3f 45 3d
       -0.0067614014 0.07275795 -0.027025113 0.048156276
000360 65 34 a7 3b dd 96 81 3d d5 de 9a bc 4d b4 9e 3d
       0.0051026815 0.06327603 -0.018905083 0.077492334
000370 e3 b7 32 3c 50 16 8f 3c 2c 98 8b 3d 36 8a a2 3d
       0.0109081 0.017466694 0.06816134 0.07936518
000380 7f 5c 63 3d 01 33 8c bd 7a d8 0d bc 3b 9d c4 3d
       0.055508133 -0.06845666 -0.008657569 0.09600302
000390 a3 97 c3 3d 0c 60 08 be 4d 47 91 bd a3 d4 75 3d
       0.09550407 -0.13317889 -0.07093678 0.06001724
0003a0 3f 88 6e bd d2 cc 3e bd b9 08 5b bd 79 25 15 bd
       -0.058235403 -0.04658205 -0.053475115 -0.03641269
0003b0 25 0c 45 bd 64 34 09 3e f8 4e 96 bd e8 96 2c 3d
       -0.048107285 0.13398892 -0.07339281 0.042136103
0003c0 23 a9 6b bd fb fc f8 bb 88 bf d9 bc 32 e9 e1 3c
       -0.05753435 -0.007598517 -0.026580587 0.027577017
0003d0 89 58 22 bd 24 11 26 bd 3f 85 4a bc e7 e2 8d 3c
       -0.039635215 -0.04054369 -0.01236087 0.01732011
0003e0 d7 7b e2 3c d1 1f ae 3d 3c 8a 56 3d 26 48 11 3d
       0.027646942 0.08502162 0.052377924 0.035469197
0003f0 a8 d5 9c bd 6d 18 a7 3c cf 3f 2d 3d bd 29 a2 3d
       -0.07657939 0.02039739 0.04229718 0.07918117

net.2.bias f4 [128]
000000 ce fd c3 bc c8 bf 6a bd 9c 13 91 3d 21 34 89 3d
       -0.023924734 -0.057311803 0.07083818 0.06699396
000010 4b 5c 87 3c 43 ee 35 bd a6 21 0b 3d e3 e3 5b bd
       0.0165235 -0.044416677 0.033967637 -0.053684127
000020 71 6a a2 bd f3 ce 9d 3d 06 c9 70 3d 67 04 10 bd
       -0.07930458 0.07705488 0.05878546 -0.03516045
000030 e0 fc 96 3d 30 e9 3f 3a d4 a6 e1 3c ed 56 20 bb
       0.07372451 0.00073208194 0.02754537 -0.0024465874
000040 19 b7 86 3d ab 25 90 3d f8 74 d4 ba 23 21 67 3d
       0.06577892 0.070384346 -0.0016209176 0.056428086
000050 14 30 17 3d 2e 2a 34 3d af 4e 86 bc 02 a5 52 bd
       0.036911085 0.04398554 -0.016394941 -0.051426895
000060 06 14 93 3d e8 2f 47 3d 1c d8 9f bd ff 52 a7 3c
       0.071815535 0.04862967 -0.078048915 0.020425318
000070 c6 43 a6 3d 5a 85 58 3d 76 b3 5a 3d 52 16 7f 3d
       0.081183955 0.05286155 0.053393804 0.062277146
000080 68 ca 9c bd ec 4f 6c bd 79 20 b6 3d 35 38 85 3c
       -0.076557934 -0.057693407 0.088929124 0.016262153
000090 3a 78 09 bd eb db a3 3d c9 5b 31 bc 64 31 6e 3d
       -0.033561923 0.080009304 -0.010825106 0.05815257
0000a0 41 b0 19 bc 3e c4 5c 3d 80 3c bb 3c 41 71 b1 bd
       -0.009380401 0.05389809 0.022855997 -0.086641796
0000b0 79 b0 0e 3d 60 e6 bc bc 73 b7 45 3d 92 e5 d5 3c
       0.034836266 -0.02305907 0.048270654 0.026110444
0000c0 44 cc 3d 3d ab e1 2d bd 76 09 76 3d d5 0d 35 3d
       0.04633738 -0.042451542 0.060067616 0.044202644
0000d0 13 5b 91 bd 74 d4 b2 3d 91 b7 99 3c d4 82 aa 3d
       -0.07097449 0.087319285 0.01876429 0.08325735
0000e0 9e bf 17 bd 2e 78 82 bd 77 5b f9 3b cf f7 d4 3c
       -0.037047975 -0.06370579 0.0076097804 0.02599707
0000f0 6e 59 1f 3c e2 d3 10 bc 62 53 6e bd 20 0c 06 bc
       0.009725912 -0.008839579 -0.05818499 -0.008181602
000100 c8 f7 83 3d 8e ce 8e bd a7 cc 84 3d 26 0d cf ba
       0.06443745 -0.06972991 0.06484347 -0.0015796765
000110 64 a5 0e bd 64 b1 21 bd cf 6c 8d 3d c0 67 a8 bd
       -0.034825698 -0.039475814 0.06905519 -0.08222914
000120 02 25 4a bd f7 70 a3 bd 29 d2 a2 bd 08 92 13 3d
       -0.0493517 -0.07980531 -0.07950241 0.036027938
000130 93 45 81 bd 41 96 e7 3b cd f7 3d 3d 0e ba 9f bd
       -0.06312098 0.007067472 0.0463789 -0.07799159
000140 7c 40 5b 3d 71 6c 88 bc fb 16 94 bd 66 1f 15 3d
       0.053528294 -0.016653271 -0.07230946 0.036406897
000150 41 93 a0 3d c0 24 a1 bc d5 7a 8f 3b 73 c5 44 3d
       0.078405865 -0.019670844 0.0043786564 0.048039865
000160 d2 45 14 bd db 86 9e 3c 9d ff 6c 3c 94 62 99 3c
       -0.0361994 0.019351413 0.01446524 0.018723764
000170 84 63 04 3a d2 81 7c bd e0 fa 37 bd 6d 81 94 bc
       0.00050502294 -0.061647244 -0.044916987 -0.018128121
000180 66 92 4b bd 92 63 1a bd 9a 80 b4 3b fd 7b 7c 3b
       -0.049700163 -0.037692614 0.0055084946 0.0038526051
000190 ab b7 bf 3b d8 74 01 bd 72 dd e5 3c 6c 24 8e bd
       0.0058507523 -0.03160557 0.028059695 -0.06940541
0001a0 eb 01 49 3d 26 4a 88 3c 4e 4f 4f 3d 79 aa 24 3d
       0.049074095 0.01663692 0.05061274 0.040201638
0001b0 f7 1d 71 3c 5e a1 8b bc 71 8a 1a 3a 18 7c 05 3d
       0.014716617 -0.01704472 0.0005895263 0.03258905
0001c0 e5 b9 b2 3d 82 c9 34 3d 9e 72 13 bb 7f 91 46 bd
       0.08726863 0.044137485 -0.0022498737 -0.0484786
0001d0 d6 f3 13 3d 3c 53 3e 3d 50 df 4b 3d bc b9 9a b9
       0.036121212 0.046466097 0.049773514 -0.00029511552
0001e0 76 7d ab 3d bc c8 6e 3d 5c 58 74 bc 2d 4c 7b 3d
       0.08373539 0.058296904 -0.014913645 0.061351944
0001f0 69 a4 5e 3d 0a a2 b9 bc 64 0c 31 3d 3b 90 9e 3d
       0.054356012 -0.022660274 0.043224707 0.077423535

net.4.weight f4 [15, 128]
000000 6a f2 c8 3d 12 03 02 3d 17 60 85 3c 56 6d 58 bb
       0.09811862 0.03174121 0.01628117 -0.0033024154
000010 93 86 1a 3d 5e 47 75 bd 37 00 54 bc f7 21 9f 3d
       0.037725996 -0.059882514 -0.012939504 0.0777015
000020 5c 78 91 3d 89 cb 8d 3c 2f d7 04 bd 8e ae be 3d
       0.07103035 0.017308967 -0.032431778 0.093106374
000030 cf a0 b4 bd 24 ed f2 ba 9e 0f 00 bd 3d 34 a4 3d
       -0.08819734 -0.0018533808 -0.031264894 0.08017776
000040 9c d7 54 bc 2b e7 c8 bd ae dc 12 3d 40 f6 9c bc
       -0.012990858 -0.09809717 0.035854988 -0.01916039
000050 68 8b 8e 3d 88 0c b0 3d f4 2b 31 3d 19 95 ab bb
       0.069601834 0.0859614 0.043254808 -0.0052362797
000060 d3 fc 36 3d c3 9c 94 3d 19 45 31 3e 73 24 34 bd
       0.044674706 0.072564624 0.17311515 -0.043980073
000070 fe 28 fc 3c 9c f0 05 bd da 3c 2e 3c 3f a7 12 bd
       0.030781265 -0.032700166 0.010634625 -0.03580403
000080 98 75 ab bd 89 d6 86 bd 4c 34 e7 bd a5 df c3 3d
       -0.083720386 -0.06583888 -0.11289272 0.09564141
000090 cc 79 53 3d 2f ac 42 3d d8 a0 97 3c c0 51 82 3d
       0.051629826 0.04752749 0.018509313 0.06363249
0000a0 9f 41 aa 3d a0 ce 3e 3d 96 c4 81 3d 9c 28 31 3d
       0.083132975 0.04658377 0.06336324 0.04325162
0000b0 19 87 8a 3d b7 1f 19 3d 16 ab e2 bd a1 3d 14 bd
       0.06764049 0.03738376 -0.11067788 -0.036191586
0000c0 87 3c 05 3d cd 28 b8 3d 18 5d e2 38 f8 0d 79 bd
       0.032528426 0.08992157 0.0001079386 -0.060804337
0000d0 b8 f5 b1 ba dc 90 c2 3d 03 06 96 bd e2 6e 23 3c
       -0.0013577258 0.09500286 -0.073253654 0.009975167
0000e0 d8 08 3d 3d 7e d1 f1 bd 37 74 b1 3d 16 f8 a3 bd
       0.046151012 -0.118075356 0.08664744 -0.08006303
0000f0 e9 79 40 3d 43 b8 7f 3b a5 d9 88 bc 0c 61 b2 bc
       0.046991263 0.003901974 -0.016705343 -0.021774791
000100 28 1e 8e 3d bc 8e 81 3d 4b 03 39 3d 4d da c7 3c
       0.069393456 0.063260525 0.045169156 0.024396086
000110 2d d1 82 3c cb ca 78 3b 23 d5 20 bd 9c 2e 59 3d
       0.015968883 0.003796267 -0.039265763 0.053022966
000120 3f d9 2f bd 77 b3 95 3a b3 b0 aa 3d 69 64 86 3d
       -0.04293179 0.0011421283 0.08334484 0.065621205
000130 a5 e4 87 bd e3 a4 4f 3c 79 6c 9c 3d 2b 8a 8a 3b
       -0.06635407 0.012673589 0.07637877 0.0042278967
000140 b6 88 da bc dc 80 b8 3d 24 86 b0 3d a4 89 c0 3d
       -0.026676517 0.09008953 0.08619335 0.09401253
000150 27 17 58 3d ab 34 dd 3d 94 24 75 3d 4e 5b 87 3c
       0.052756455 0.10801061 0.059849337 0.01652303
000160 30 fa d6 3d 37 25 07 3e af 93 51 3c 5c a2 94 3d
       0.10496938 0.1319779 0.012791558 0.0725753
000170 f5 80 0a 3d f9 8e 84 3d 6b e2 d5 bc 71 f1 5e 3d
       0.03381439 0.06472582 -0.026108941 0.054429475
000180 3d 20 d3 bc fc b4 3c bd d3 22 72 bd 54 3f e6 3d
       -0.025772208 -0.046071038 -0.059115242 0.11242548
000190 10 cc a5 bd a2 25 c1 3d bd cf bb 3d bc b7 9a bc
       -0.080955625 0.09431006 0.09170482 -0.01888644
0001a0 76 bd a8 3d c2 a7 c2 3d 37 3d c6 3d b5 fc 08 3d
       0.08239262 0.095046535 0.096796446 0.033444125
0001b0 f4 a0 0d 3c 11 1b 30 bd 7d 78 c6 3c c6 17 00 3d
       0.008644331 -0.042994563 0.024227375 0.031272672
0001c0 67 05 cb 3d 5b 4d be 3d 46 2e 18 3d 77 40 57 3d
       0.0991314 0.09292098 0.037153505 0.052551713
0001d0 1a fd d4 3a 05 5a 2f 3d 44 87 1a 3e c8 12 bd 3d
       0.0016249747 0.04281046 0.15090662 0.09232098
0001e0 6d 88 a5 3d 96 42 ee ba f1 a1 05 3c 4a e1 51 bd
       0.08082662 -0.0018177803 0.008156286 -0.051240243
0001f0 cb c1 8c 3c 0b bc 6d 3d 65 a9 c5 3c 80 c6 b1 3d
       0.017182251 0.05804066 0.024128625 0.08680439
000200 ec a8 a1 b9 d5 00 e1 3d d2 cf 6c bd 69 6a 16 3d
       -0.0003083417 0.10986487 -0.05781538 0.036722574
000210 68 19 c4 3d 1e 6a 53 bc 87 eb c9 bd b4 ca 3c 3d
       0.09575158 -0.012903718 -0.098593764 0.04609175
000220 d1 03 b7 3d 88 32 c7 3d 8e ab a5 bd 74 fc 85 bd
       0.08936275 0.09726435 -0.08089362 -0.06542292
000230 47 80 2e 3d f5 78 dd 3c 33 b5 d6 3d 3f 47 11 3d
       0.042602804 0.027035216 0.1048378 0.035468336
000240 57 55 df 3d 13 0e cc bd 28 73 56 bc ff 4b 8f bd
       0.10904949 -0.09963622 -0.013088979 -0.06996917
000250 f3 75 9c 3b 98 45 83 bb 12 dc 33 bb 39 d9 0c bd
       0.004774803 -0.004006099 -0.0027444405 -0.034386847
000260 74 0f 6a bd 11 c2 88 bc c7 a3 9a 3d f8 5e 9c bc
       -0.057143643 -0.0166941 0.07550769 -0.019088253
000270 fc 08 78 3d 76 81 83 bd 12 c2 6e 3d a9 4f 2a bd
       0.060555443 -0.06421177 0.05829055 -0.041579876
000280 c7 36 45 3d 9a e8 60 bd 05 72 c9 bd 8e 07 5b 3d
       0.048147943 -0.054909326 -0.098362006 0.053474
000290 9f bc 02 3e 36 6c 8f bd 92 31 90 bd 88 00 72 3d
       0.12767266 -0.070030615 -0.07040705 0.059082538
0002a0 d4 df 9b bc 35 56 2e 3d 6e 0f b2 3d 14 b8 4b 3d
       -0.019027628 0.042562682 0.08694349 0.049736097
0002b0 4a 78 7f 3c e3 16 6d 3d bc 69 36 bc b7 14 9d 3d
       0.015592644 0.057883155 -0.0111336075 0.07669967
0002c0 a0 62 0c 3c 90 31 2d 3e c0 f0 ae 3d c2 ec 09 bb
       0.008568436 0.16913438 0.08542013 -0.002104566
0002d0 5e e6 03 3d 6a e3 9a 3d 2a aa 78 3c 66 38 95 bc
       0.032202117 0.07562907 0.015177289 -0.01821537
0002e0 7f ac f8 3d 5b 24 f6 3b dd 6c 09 bd 2b ea 91 bd
       0.12142276 0.007511658 -0.033551086 -0.07124742
0002f0 7e 52 b6 3b 3c d1 28 38 1d de a1 3c a5 ad ef bb
       0.005564033 4.0249186e-05 0.019759232 -0.007314401
000300 d9 83 9b 3d 91 1d fe 3c 32 69 31 3d 98 c9 9e 3d
       0.07593507 0.031019958 0.043313213 0.07753295
000310 12 93 d9 3d c1 8d 1d be 16 78 bf 3b f4 43 ba bd
       0.106237546 -0.15386106 0.005843173 -0.09094992
000320 ff 4d 01 be 93 bc fa 3d 27 f8 8b 3d 16 93 c3 bd
       -0.1262741 0.12242999 0.06834441 -0.09549539
000330 26 5b 0a bd 8d ec 17 3e a8 df 04 3e 8f 97 92 3d
       -0.033778332 0.1483633 0.12975943 0.07157814
000340 7a 60 a3 3d 05 35 24 bd b2 b7 6e bc b8 d2 af 3d
       0.07977386 -0.040089626 -0.014570164 0.08585113
000350 ab ae 33 bd 4d 5a 94 3d 23 4f 8b bd b4 59 0b bd
       -0.04386775 0.07243786 -0.068022035 -0.034021094
000360 0b 5b 87 3d 7b ab 9a 3d cd 54 05 3c 03 cb c4 bc
       0.06609162 0.075522386 0.008137894 -0.024022585
000370 73 ea ba 3d 05 ce 42 3e 36 54 a6 3c b2 6d db 3d
       0.09126749 0.19023903 0.020303827 0.10714282
000380 9a d6 e8 bd d1 7d 35 bd a3 0e 34 3d 14 8d f7 3d
       -0.11369057 -0.04430944 0.04395927 0.120874554
000390 5e 77 13 3b b6 7c 67 3d 24 88 02 bc 55 b7 84 bd
       0.0022501568 0.056515418 -0.007967029 -0.0648028
0003a0 8c e0 92 3d d8 9f b6 3c 89 b8 43 3c 8f dc fd 3d
       0.07171735 0.022293016 0.011945852 0.12395584
0003b0 fa 67 b8 bc cd ed 43 3d d5 94 46 bd 0e 1e d8 bb
       -0.022510517 0.047834206 -0.04848178 -0.0065953797
0003c0 37 26 ad 3d 2d a7 5a 3d d8 89 23 3e eb f3 07 3d
       0.084545545 0.053382087 0.15970552 0.033191603
0003d0 b8 5f 78 3d 66 26 08 3d 38 9a bc 3c 48 78 4f bd
       0.06063816 0.033239745 0.023022756 -0.05065182
0003e0 f0 07 8d 3d f0 e5 19 bd fe 88 99 bd 85 c4 9a 3c
       0.068862796 -0.0375728 -0.07496832 0.018892536
0003f0 22 4e dc bd 47 bd 81 3d 62 5f c0 3c 44 26 a9 bc
       -0.1075709 0.0633493 0.023482982 -0.02064813

net.4.bias f4 [15]
000000 71 08 57 bd ad df a9 3d 87 2a 94 bc e3 72 fc bc
       -0.052498285 0.08294616 -0.018086685 -0.030816501
000010 98 68 0d 3c 2f 56 05 3d 9c 98 79 3d 60 3f 42 bd
       0.008630894 0.032552894 0.060936555 -0.04742372
000020 d8 99 68 3d 47 e9 99 3d d7 a2 b8 3c 14 f6 8d 3d
       0.05678734 0.07515197 0.022538586 0.06931701
000030 16 3b bf 3c f0 23 4b 3d 5f 86 a3 3c
       0.023343604 0.04959482 0.019961534

net.0.weight f4 [128, 77]
000000 d5 9a 89 3f 6a 98 7d 3d 64 04 cb bd d9 ef a4 bd
       1.0750376 0.06191293 -0.09912947 -0.0805356
000010 cd a5 34 bd 03 a5 9a 3c 3b 6c ae 3b 23 56 a1 3d
       -0.044103432 0.018877512 0.0053229607 0.078777574
000020 8c bb 02 bd 8b d1 cf 3d 5d a4 33 bb 35 99 38 bd
       -0.03191714 0.10147389 -0.00274112 -0.045067985
000030 f3 45 ce bd c4 c0 d2 bd 16 c6 d7 bc 08 94 67 3b
       -0.100719355 -0.102906734 -0.026339572 0.0035336036
000040 38 72 3a 3d fc f8 8a 3d 64 50 a2 bd de 12 48 bd
       0.045519084 0.06785771 -0.079254895 -0.04884612
000050 74 bc 2c 3d 00 43 ad 3d 51 e7 e5 bc 91 ad ab 3d
       0.04217191 0.08460045 -0.028064402 0.083827145
000060 b3 e0 41 bd 63 54 39 3d 70 3f c7 3d 6c cf 0a be
       -0.04733343 0.045246493 0.097288966 -0.13555688
000070 d7 a4 b2 bc 57 a2 a5 bc 02 db af bd 08 f1 51 3d
       -0.021807117 -0.020219011 -0.08586694 0.051255256
000080 28 98 ba bd 2e ea 5d bd bc 8c ab bd 3a 1f cc bd
       -0.09111053 -0.05417841 -0.08376452 -0.099668935
000090 ae 4e 88 bd 94 76 c5 3d cc 7a 53 3d f0 6d 65 3d
       -0.06655632 0.096417576 0.05163078 0.056013048
0000a0 72 6b 12 3c 14 c7 db bc 79 00 3b 3c 5d 20 f4 bd
       0.00893675 -0.026828326 0.011413687 -0.11920235
0000b0 67 e5 20 bd b6 1a 53 bd 56 a1 c2 3c 32 d0 b0 3d
       -0.039281275 -0.051539145 0.023758572 0.0863346
0000c0 6d 26 19 bc b0 f7 9f bd ea 60 79 3d 57 84 cc 3d
       -0.00934754 -0.078109145 0.06088344 0.09986179
0000d0 46 47 c6 bc c8 dd 92 3c 59 fb a0 3d fc 94 8f bd
       -0.024203908 0.01792802 0.07860441 -0.070108384
0000e0 52 37 aa 3c 79 5a b3 bd 03 2a a0 bd c0 ba 64 bd
       0.020778332 -0.08757491 -0.07820513 -0.05584216
0000f0 5d cf c9 3d 4c 49 66 3d b6 11 ed bd d8 08 26 3d
       0.098540045 0.056222245 -0.11575644 0.040535778
000100 bf 25 9f 3d 69 1e 89 bd 4b 92 05 3e a2 54 47 3c
       0.07770871 -0.066952534 0.13044088 0.012166174
000110 e4 0a 0e bd 22 ca db 3d 82 bb 95 bd 87 20 a7 bd
       -0.034678355 0.10731913 -0.07311155 -0.08160501
000120 40 6f 24 3d 22 26 ce 3d 21 49 c0 3d 8f 47 cd 3d
       0.04014516 0.10065867 0.09388948 0.10023414
000130 a9 2d c0 3c e3 89 12 3f 2b ca 39 3c 17 3e 90 bd
       0.023459272 0.5724165 0.0113397045 -0.07043093
000140 5c 47 89 bc c7 9d db 3d 5c cf a3 3d 5b f0 09 be
       -0.01675766 0.10723453 0.07998535 -0.13470595
000150 52 97 11 3c b6 82 18 bd 74 06 20 bc db 2e 2d bc
       0.008886175 -0.03723403 -0.009767164 -0.010570253
000160 e9 aa b7 3d 52 7f 81 bd 1b 8c 20 3d 92 b5 5f 3d
       0.089681454 -0.063231125 0.039196115 0.05461652
000170 ce 3e ac 3d 6c 5b 09 3d 5e fa fd bd 29 de 95 bd
       0.084104165 0.033534452 -0.124012694 -0.07317764
000180 e2 93 6c 3d ec 68 ca 3c a4 18 d5 bd fa d0 87 3a
       0.05775822 0.024708234 -0.104050905 0.0010361962
000190 c6 fd ea 3d e6 9f 98 3d 26 cd 21 be 02 09 17 bd
       0.11474185 0.07452373 -0.15800914 -0.036873825
0001a0 67 23 04 be cf 9e 86 bc e3 36 81 bd 13 48 f1 bd
       -0.1290413 -0.016433148 -0.06309297 -0.11781325
0001b0 95 55 38 bb 30 03 a5 3b 53 9d 85 bc f7 4a 92 3d
       -0.0028127183 0.0050357804 -0.01631037 0.07143205
0001c0 56 44 ad bd 0c 72 ad 3d 7b 89 96 3d 7a 0f c3 bd
       -0.084603 0.08469018 0.07350441 -0.09524436
0001d0 20 56 e1 bc 9c 64 d7 bc 55 a8 7e 3d fc de 83 3c
       -0.027506888 -0.026293091 0.062172253 0.016097538
0001e0 e1 b0 3c 3d f1 90 89 bc 12 7b 93 bd 1c 37 10 3d
       0.046067122 -0.016792746 -0.07201208 0.035208806
0001f0 67 ab 0a be 91 f6 2f bd e8 8d cd bc 39 99 19 bd
       -0.13541947 -0.042959753 -0.02509208 -0.03749964
000200 cc de 10 bd 11 4c df bc 30 c1 66 bc de 4e a6 3b
       -0.035368726 -0.027257951 -0.014084145 0.0050753197
000210 75 7e c3 bd a2 ee 8c bb e8 d3 a8 3d 20 ea 31 bc
       -0.09545604 -0.004300908 0.08243543 -0.010859042
000220 bd 8f 7e 3b 46 f1 14 bc 7f 33 2e 3d b3 b6 68 3d
       0.0038843 -0.009090727 0.04252958 0.05681486
000230 00 e5 04 3e 49 8a c5 3d b6 eb b7 3d 1a d2 65 bc
       0.12977982 0.096455164 0.08980505 -0.014027143
000240 37 21 93 bd aa a0 75 bd f1 90 8b 3d 35 74 33 bc
       -0.071840696 -0.059967674 0.06814755 -0.010952999
000250 7a 79 65 bd 20 26 a1 bd 38 f2 01 be f4 5c fd bd
       -0.056024052 -0.078686 -0.12690055 -0.12371245
000260 3e 59 fc bc 3e bf 81 3d 57 de d4 3f af 57 c3 bd
       -0.030804273 0.06335305 1.6630353 -0.09538209
000270 c3 6f 9e 3d 55 6d 65 bd 8d d1 b2 3a 43 6c 1a bd
       0.077361606 -0.05601247 0.0013642773 -0.037700903
000280 d2 89 d1 3c 51 6e 03 bc 34 fe bd bd a1 90 8e bd
       0.025578413 -0.008021907 -0.09277001 -0.069611795
000290 9e 65 9b bc 30 19 51 3d 4d fe 54 bd 74 0e ef 3c
       -0.018969353 0.05104941 -0.052000333 0.029181696
0002a0 7f 60 bb bd ef f0 a7 3b 60 81 df 3d 71 b9 10 bd
       -0.091492645 0.005125157 0.10913348 -0.0353331
0002b0 24 9d ed 3d aa 8a 64 3d 09 e1 b4 bd 81 95 92 3d
       0.11602238 0.055796303 -0.088319845 0.07157422
0002c0 bc 94 d7 bb b8 d1 2a bd e6 6c bb 3d a6 05 79 bd
       -0.00657901 -0.04170391 0.0915163 -0.060796402
0002d0 95 6b bd 3c 8e 27 02 bd 95 76 b3 3d 9e c3 32 3d
       0.023122588 -0.031776004 0.08762852 0.043643586
0002e0 e0 a7 d2 3d 67 64 1d 3d ff b8 ca bc d1 4d 3e bc
       0.10285926 0.03842583 -0.024746416 -0.011615233
0002f0 86 76 d1 bd 60 b4 9d 3d 6f 70 d2 3d 2b 81 bb 3d
       -0.10227685 0.077004194 0.10275351 0.09155496
000300 b5 e1 86 bd 9a a0 a0 3c 06 82 98 bd 18 bc ca bc
       -0.06586019 0.01960783 -0.07446675 -0.024747893
000310 c2 dc 58 bd 12 57 41 3d 46 98 ef bc dc 6f 90 bb
       -0.052944906 0.047202177 -0.029247414 -0.004407866
000320 c5 2b 9a bc a4 3c 4f 3d 9b bf 4e bd 7e 1a 07 3c
       -0.018819699 0.05059494 -0.050475698 0.008246062
000330 c5 49 73 bd 16 61 81 3d ac e7 25 bd a7 70 ef 3d
       -0.059396524 0.06317346 -0.040504143 0.116914086
000340 1a 9f 26 3d 5a 1c d0 3c 99 a6 54 3c cc 1d 03 bc
       0.040679075 0.025404144 0.012979173 -0.00800271
000350 54 1f ec 3c 43 f7 f0 3b 52 eb 14 bc 10 56 d3 3c
       0.028823532 0.0073536946 -0.009089308 0.025797874
000360 12 64 87 bd 3b 35 a4 bc 4c ac f9 3d 6d 73 f5 bd
       -0.06610884 -0.020044914 0.12191066 -0.11984906
000370 de 75 a1 bd 56 6f f1 3d 4d bb 02 3e 18 dd 49 bc
       -0.078838095 0.11788814 0.12766762 -0.012320779
000380 b3 51 06 be c3 ba 9d 3d 7c 64 06 be f9 c4 48 bd
       -0.13117103 0.077016376 -0.13124269 -0.049015973
000390 0c df 14 bd 74 87 95 ba c5 33 81 3c da ce c3 3e
       -0.036345527 -0.0011408166 0.015771756 0.38243753
0003a0 75 62 4c 3c 11 81 c0 3d bf 1d db 3d 31 a5 9b bd
       0.012474646 0.093996175 0.10699033 -0.07599867
0003b0 fb 71 db 3c 0d ae 9b bd f5 6c 4d bd a8 71 0c 3d
       0.026787749 -0.07601557 -0.050152738 0.03428808
0003c0 ce 0d 35 3d a5 6f bc 3d 20 9b 90 bd d3 e2 d8 b9
       0.04420262 0.09200982 -0.07060838 -0.00041367728
0003d0 7c 76 a7 3d 87 e9 b9 bd cf 63 9c 3d f5 63 d6 bd
       0.08176896 -0.09077745 0.076362245 -0.10468284
0003e0 15 a1 27 3b 21 51 b9 bc c7 04 7d bd eb 12 5a 3c
       0.002557819 -0.022621693 -0.061772134 0.013310174
0003f0 48 81 92 3d 2a 63 0b bc 66 1c 7b bd d6 fd 87 bd
       0.07153565 -0.008507529 -0.06130638 -0.06640212

net.0.bias f4 [128]
000000 82 b0 bc bc 0e 58 3a bd 70 59 82 bd a3 ca 0b 3d
       -0.023033384 -0.04549413 -0.06364715 0.034128796
000010 b2 9f 3b bd 01 fc 67 bd a9 22 26 3d 24 e6 0f bd
       -0.045806594 -0.056636814 0.0405604 -0.03513159
000020 89 b7 9a 3c 6a 35 17 bc e2 5c 44 3d ba 71 94 3d
       0.018886345 -0.0092290435 0.047940142 0.07248254
000030 75 1e cd bd 57 fa 4c bd 1e eb f5 3d 52 3e 3d 3c
       -0.10015575 -0.05004343 0.12007736 0.011550503
000040 6b b7 a1 bc 01 54 b9 3d a7 3e ff 3d c6 67 1d 3d
       -0.01974078 0.090492256 0.12463122 0.038429044
000050 18 47 a5 bd e8 8a f1 3d 28 43 d0 bd 44 42 cc bd
       -0.08070201 0.117940724 -0.10169059 -0.09973577
000060 60 e9 86 3c 40 66 f5 bc 04 af e7 bd d1 29 ba 3d
       0.016468704 -0.029955983 -0.113126785 0.09090007
000070 13 d6 c8 3c a4 37 85 bd 08 b2 1d 3d e8 97 9f 3d
       0.024516141 -0.06504753 0.038499862 0.07792646
000080 e5 3e cc bb 77 fe b0 3d f7 26 81 3d cb 41 29 3d
       -0.0062330835 0.08642285 0.0630626 0.04132251
000090 ab 76 5a bd 33 22 ac bd 5a 80 0d ba e2 52 0d bd
       -0.053335827 -0.084049605 -0.0005397849 -0.03450287
0000a0 a4 76 e8 bd 42 16 cf bd 9c 24 78 bd 14 2e a8 3c
       -0.11350754 -0.10111667 -0.06058179 0.020529784
0000b0 bd 1c 06 bd 71 17 c4 bd 0c 1d a1 bc 5a bb eb bc
       -0.03274225 -0.095747836 -0.019667171 -0.02877586
0000c0 44 a1 00 bd ce c1 96 3d fc 06 43 3d c5 10 9d 3d
       -0.031403795 0.07361184 0.047614083 0.07669214
0000d0 55 27 ec 3d e5 32 b5 3b 65 b3 69 bd 03 c6 35 bc
       0.115309395 0.0055297487 -0.05705585 -0.011094573
0000e0 2c 65 fd 3c e8 ff 14 bd 59 ff ac 3d f0 ca 60 3d
       0.030932032 -0.036376864 0.08447141 0.054881036
0000f0 e8 a7 9c bd 49 6a b9 3c ea c1 95 3b 2d 47 61 3d
       -0.07649213 0.022633689 0.0045702355 0.05499952
000100 c4 57 6a bd 00 09 d3 3d 5a 1a 07 bd 14 43 4d 3d
       -0.057212606 0.10304451 -0.032984115 0.0501128
000110 d3 60 6e bd 3b eb 26 3d 0e 6b f2 bc 96 a1 2d bd
       -0.058197808 0.040751677 -0.029592063 -0.04239043
000120 ea 12 b6 bd 5c 65 2e 3d d3 91 e2 3c ab 8a ff 3c
       -0.08890326 0.042577133 0.027657425 0.031194052
000130 68 b5 65 bd 56 08 bc 3c aa 90 7c bd b4 fa f1 3c
       -0.056081206 0.022953194 -0.0616614 0.02953849
000140 d4 61 e6 3d 4b fc bc bd ba 8f 2c 3d c9 cc 93 bd
       0.11249128 -0.092278086 0.042129256 -0.07216794
000150 a8 31 26 3d 70 ac cb bc e4 c4 11 3d 70 5b a2 bd
       0.0405747 -0.024862498 0.03558816 -0.079275966
000160 6a 22 a8 3d 46 1b 96 3d ef 29 9c bd 34 b9 9c bd
       0.08209689 0.07329421 -0.07625186 -0.07652512
000170 61 e1 98 3d e5 bb 96 bd 04 b4 32 3d de 7d 27 bd
       0.074648626 -0.07360057 0.043628708 -0.04089152
000180 16 4d c2 bd 6a 14 00 3d 2f 19 15 bd b9 75 57 bd
       -0.09487359 0.03126947 -0.03640097 -0.052602503
000190 15 4b 47 3d 84 82 36 3d f3 6f a8 3d 20 f0 e3 3d
       0.04865559 0.044558063 0.082244776 0.111297846
0001a0 a2 f7 24 3d 6a cd 8e bc db cc 2e bc d0 51 a9 3d
       0.040275224 -0.017431933 -0.010668959 0.082675576
0001b0 a7 d7 c1 bd 3d 1f c1 3d 49 dd 33 3d 77 04 24 3d
       -0.094649605 0.09429786 0.043912206 0.04004332
0001c0 8b 33 f0 3c 08 4d bf bd 6a 0b 10 3d 2a 5e 0c bc
       0.029321453 -0.093408644 0.035167135 -0.008567372
0001d0 4e 20 e0 3b 71 57 52 bd c1 6b b4 3d 29 49 88 bb
       0.0068397885 -0.051352922 0.08809615 -0.004159112
0001e0 3b 75 03 bc 2f 8f b6 bd 37 0a c8 3d 9a c1 d3 bd
       -0.008023555 -0.08914029 0.09767573 -0.10339661
0001f0 4d 29 97 3d e7 06 3b 3d ae 85 9e 3c 7e f7 e1 bd
       0.073809244 0.04566088 0.019350853 -0.110335335

net.2.weight f4 [128, 128]
000000 29 a9 f3 bc df fe 9d bd c0 61 a0 bc a5 c0 8e 3d
       -0.029743748 -0.077146284 -0.01957786 0.06970338
000010 fb 90 5c bb 4b b1 24 bc 5c 56 57 3d 84 1c 71 3d
       -0.003365575 -0.010052036 0.052572593 0.058865085
000020 28 9d 88 bd 4e ef 82 3d a3 6b d3 bb 52 73 8f 3d
       -0.066706 0.063933 -0.0064520403 0.070044175
000030 19 e0 9d bd 80 8b 99 bd da 98 16 bd 1d 94 fe 3d
       -0.07708759 -0.07497311 -0.036766864 0.12430594
000040 f8 79 69 3d 0b 67 cd bc 04 0f 1c 3c 18 b0 80 bc
       0.057001084 -0.025073549 0.009525064 -0.015708968
000050 a6 2c 0b 3c 44 b1 97 3b b3 ac 3c bc 8b 92 b8 3d
       0.008494532 0.004629286 -0.011515784 0.09012326
000060 3e 70 46 3d ea 23 dc 3d 6e ae 50 bd b3 9a 9e bd
       0.048446886 0.107490376 -0.0509476 -0.0774435
000070 7d 5e 64 bb b8 21 3a bc 7d 7a 75 3d f3 be aa 3d
       -0.0034846358 -0.011360578 0.059931267 0.08337202
000080 11 64 6e bd 2d b3 b1 3d 42 51 b5 3d 72 c7 a8 3d
       -0.0582009 0.08676753 0.08853389 0.08241166
000090 74 85 c4 3c d8 e4 02 bd 2c 9a f5 bc b6 68 70 bb
       0.023989417 -0.031956524 -0.029980741 -0.0036683506
0000a0 c5 bd 06 bd a0 a2 1f bd 14 75 aa 3d 2a ff 59 3d
       -0.032895822 -0.03897345 0.08323112 0.05322186
0000b0 2d 54 e8 3c 30 28 0c 3c c8 39 9c 3c ce 71 02 bb
       0.02836045 0.008554503 0.019070521 -0.0019904259
0000c0 ae 13 7f bd c9 1a d9 bb a2 e8 c2 bc 19 e6 3f bc
       -0.062274627 -0.0066255075 -0.023792569 -0.011712574
0000d0 ed da e7 3a 1b 81 a4 3b 50 9d 87 bd ca bd 66 bd
       0.0017689146 0.0050202734 -0.06621802 -0.05633334
0000e0 4c 25 07 bd 51 b7 78 bb bd f3 4b bd 16 4c 9a 3d
       -0.032994553 -0.0037951062 -0.049792994 0.075340435
0000f0 e9 e8 5b bd 53 1d d1 3d ba 07 b9 bd f9 65 85 bb
       -0.053688917 0.10210671 -0.09034677 -0.004070994
000100 83 d4 72 bc 83 74 ef bc fc 21 9f bc b2 9d c2 bd
       -0.014821175 -0.029230362 -0.019425385 -0.09502734
000110 2e cc 38 3d f1 3f 99 3d 8a 94 8a bd 5c 94 bf bc
       0.045116596 0.07482899 -0.06766613 -0.023386173
000120 30 df 9d bd a6 27 4f 3d 0e 83 19 bd fa 4f bd 3d
       -0.07708585 0.05057492 -0.0374785 0.0924377
000130 a0 bc 91 3c f2 6d fe 3c 23 fe cf 3d bf 92 b5 bd
       0.017790139 0.031058285 0.101558946 -0.0886588
000140 d2 d4 14 bd 82 08 0c bb 80 bd 9e bd ae fe e3 3c
       -0.036335774 -0.0021367376 -0.07750988 0.027831402
000150 31 6e 35 bc 84 cc a9 bd cb f3 d9 bc 5f 09 44 bd
       -0.011073635 -0.082909614 -0.026605507 -0.0478605
000160 f4 7a 13 3d ca c5 c9 3d a8 de d1 3d 52 82 9a bd
       0.03600593 0.098521784 0.102475464 -0.07544388
000170 fd 4e 64 3d c7 be 37 3c d9 92 4d 3d 24 14 1b 3d
       0.05573939 0.011214918 0.050188873 0.037861004
000180 48 63 5c bd 86 57 9c bd 8f fc 06 bd 84 01 bb 3b
       -0.05380562 -0.07633881 -0.032955702 0.005706968
000190 2f ed 61 3c 48 fa f9 bc 15 6c 9c 3b a6 d1 f7 bc
       0.013789459 -0.030514851 0.0047736266 -0.030251335
0001a0 a8 3b cf 3d 9f 2b e1 bd 73 1e 0c bd 69 96 45 3d
       0.101188004 -0.10994648 -0.034208726 0.048239145
0001b0 00 07 8e bd 00 c8 94 3d d0 47 c4 bd f5 91 f6 bb
       -0.06934929 0.072647095 -0.0958401 -0.0075247237
0001c0 79 6a ce bc f9 f0 26 bc cb 1f 23 bd 24 93 4e 3d
       -0.025197254 -0.010189288 -0.039825242 0.050433293
0001d0 30 f1 60 bd b0 13 13 bd 20 6b e4 bc f2 86 8d bd
       -0.054917514 -0.035907447 -0.027883112 -0.069105044
0001e0 cb 07 b6 bd 06 71 81 3d 27 5a fc 3d 2e 42 9e bc
       -0.08888205 0.06320386 0.12321883 -0.019318666
0001f0 a8 d3 1f bc bf 11 3f 3d e6 19 d6 3c 27 75 a2 bd
       -0.009755053 0.046647783 0.026135396 -0.07932501
000200 65 9f d3 3b ed 15 00 3e 74 29 98 3d 36 27 f2 bc
       0.0064582103 0.12508364 0.074297816 -0.029559713
000210 3b 21 59 3c 4f f9 15 bc 96 3e f7 bd cd 7c 21 bd
       0.013252552 -0.009153678 -0.12072484 -0.03942566
000220 04 3c f2 3d 18 52 78 3d 78 81 41 3d f4 b8 78 bd
       0.11827853 0.060625166 0.04724261 -0.06072326
000230 70 3f c7 bb 96 c6 d7 3d 4c 91 00 bd ee 41 32 bc
       -0.0060805604 0.10535924 -0.031388566 -0.010879977
000240 2e e1 8a bd 79 58 85 bd 48 88 92 bc 06 76 24 bd
       -0.06781231 -0.065110154 -0.01788725 -0.04015162
000250 c5 3c cf bd 68 5d e2 3d 95 bc f4 3d 2c 22 fd bd
       -0.10119013 0.11052972 0.11950032 -0.123600334
000260 44 9d 25 bd 46 20 cb 3d aa 00 9d 3d 23 a9 8b bd
       -0.040433183 0.09918265 0.07666142 -0.0681937
000270 09 a3 08 bd 60 57 83 3d 92 96 cf bc 13 c6 d1 bc
       -0.033358607 0.0641315 -0.025340352 -0.025607144
000280 44 0b 9a bc ba e8 af 3c 02 e1 ce bb 76 6f c4 3d
       -0.0188042 0.021473277 -0.006313444 0.09591572
000290 5c 8e a6 3d 0f db 99 bc cf 4d 12 bd e7 cb 44 3d
       0.08132622 -0.018781213 -0.035718735 0.04804602
0002a0 96 69 c0 3c fe af 11 bd d7 ff 9d bd 33 67 7e 3d
       0.023487847 -0.03556823 -0.07714813 0.062110137
0002b0 84 00 57 bc e2 d5 34 bd bf 46 8d 3d f2 88 01 3d
       -0.0131226815 -0.044149287 0.06898259 0.03162474
0002c0 63 7e a5 3d 56 d0 29 3d 6f 11 d3 3d 5c 0e aa 3d
       0.08080747 0.04145845 0.103060596 0.0830352
0002d0 f6 1e 62 3d 13 a1 8d 3d 9c d5 7e bd 99 34 e1 3d
       0.055205308 0.06915488 -0.062215433 0.1099636
0002e0 52 7f 83 3a 83 bb d5 3d 1f 33 1a bd ea ed 75 bd
       0.0010032451 0.10436156 -0.03764641 -0.060041346
0002f0 76 73 99 3d 84 21 af bd 66 49 0f 3d 1e c2 36 3e
       0.074927256 -0.085513145 0.034982108 0.17847487
000300 b2 c6 5b 3d 49 c8 92 bd 13 48 3b bd 83 db d1 bc
       0.053656287 -0.071671076 -0.045723032 -0.025617367
000310 37 12 9a bd 57 1b 2b 3d 1e 3a 93 3d 54 af a1 3d
       -0.075230055 0.04177412 0.07188819 0.07894769
000320 17 30 a8 3d a9 ca b0 3d a1 f5 34 bd 6e f1 aa 3d
       0.082122974 0.08632404 -0.044179562 0.0834683
000330 81 f6 53 3c 93 8c 92 3d 68 99 b0 3c 07 e7 1a bd
       0.012937189 0.07155719 0.021557525 -0.03781798
000340 b8 f5 b1 3d ee 19 0e 3e d9 9d 83 3d 81 fe 2d bd
       0.08689445 0.13877079 0.064265914 -0.042479042
000350 4a 94 f4 bb 1f 02 95 3d 7e 44 de bc c9 76 42 3d
       -0.0074639665 0.07275795 -0.027132269 0.047476564
000360 6b a8 88 3b 22 d2 81 3d 2c fb 9f bc c8 e2 9d 3d
       0.0041704676 0.06338908 -0.019528948 0.07709271
000370 2f 0a 28 3c 58 1f 84 3c b7 0c 8c 3d f7 73 a1 3d
       0.010256334 0.016128227 0.06838363 0.07883447
000380 df bd 5e 3d 39 d6 8c bd a0 9f ff bb d7 e1 c3 3d
       0.054380294 -0.06876797 -0.007801011 0.0956456
000390 d9 8e c1 3d 68 3c 09 be 71 0c 93 bd 39 60 73 3d
       0.09451074 -0.1340195 -0.071801074 0.059417937
0003a0 06 9f 72 bd 24 cb 3a bd 8b 1c 58 bd fe c7 17 bd
       -0.059233688 -0.045603886 -0.052761596 -0.03705596
0003b0 2c 3d 45 bd 0c f6 08 3e 83 43 96 bd 45 da 2d 3d
       -0.04815404 0.1337511 -0.073370956 0.042444486
0003c0 2c e1 6c bd b5 b9 10 bc 88 bf d9 bc bc 7c de 3c
       -0.057831928 -0.0088333385 -0.026580587 0.027159087
0003d0 ea 05 22 bd 88 6b 26 bd 95 3e 52 bc 3c af 85 3c
       -0.03955642 -0.040629894 -0.0128323035 0.01631891
0003e0 0b 11 e1 3c 69 b3 ad 3d f6 03 56 3d 9e a4 0e 3d
       0.027473947 0.084814854 0.05224987 0.03482496
0003f0 e1 e8 9c bd e9 0e a6 3c f3 da 2b 3d bd 29 a2 3d
       -0.076616056 0.020270782 0.041956853 0.07918117

net.2.bias f4 [128]
000000 6a 55 bf bc a3 fd 6b bd 11 9d 91 3d 01 5b 88 3d
       -0.023356158 -0.057614934 0.07110036 0.066579826
000010 c6 15 87 3c 16 bc 36 bd ea 3d 0d 3d 73 29 59 bd
       0.016489875 -0.044612966 0.034482874 -0.053018045
000020 1c bb a2 bd 65 06 9e 3d 0c 4a 71 3d dc 31 17 bd
       -0.079458445 0.077160634 0.058908507 -0.036912784
000030 25 48 96 3d 97 f1 c5 3a 44 3b e0 3c 59 9e 1d bb
       0.07337979 0.0015101907 0.02737201 -0.0024050681
000040 db c7 87 3d 3c 82 8f 3d cb 7a 2b bb e7 a0 63 3d
       0.06629916 0.07007262 -0.002616572 0.05557337
000050 0c 7a 17 3d b3 b0 33 3d a7 06 82 bc 3c 29 50 bd
       0.036981627 0.043869685 -0.015872313 -0.050820574
000060 40 10 93 3d 2a 34 47 3d 04 de 9f bd c2 1c 9f 3c
       0.07180834 0.048633732 -0.07806018 0.019422892
000070 ef 2c a6 3d b2 5a 58 3d b1 39 63 3d 1e 01 81 3d
       0.08114039 0.05282087 0.05547494 0.06299041
000080 52 b8 9c bd 1b 64 6d bd 76 fc b5 3d 9e 78 86 3c
       -0.07652344 -0.057956796 0.08886044 0.016414937
000090 26 be 09 bd fd 8d a4 3d f3 2c 33 bc 6c 00 6f 3d
       -0.033628605 0.080348946 -0.01093601 0.05835001
0000a0 70 bc 17 bc 4a 5f 5f 3d 24 73 b9 3c 63 f5 b6 bd
       -0.009261236 0.054534234 0.022637911 -0.089335226
0000b0 0e 81 0e 3d 93 1e bd bc 37 d1 45 3d 03 80 d6 3c
       0.034791045 -0.023085868 0.048295226 0.026184088
0000c0 9d c8 3b 3d 49 9e 2d bd 27 3f 76 3d 64 52 34 3d
       0.045845617 -0.04238728 0.06011882 0.044023886
0000d0 4a 5d 91 bd fd 7e b2 3d f6 f7 9c 3c 7a 70 a9 3d
       -0.070978716 0.08715627 0.019161206 0.08273406
0000e0 82 ad 15 bd 86 6a 83 bd 83 77 05 3c b7 15 cb 3c
       -0.036542423 -0.06416802 0.00814617 0.024790628
0000f0 d3 9f 1c 3c 60 72 15 bc 4f 93 6e bd b9 ce 0a bc
       0.009559589 -0.009121507 -0.058245953 -0.008472138
000100 6f ce 83 3d df 99 8e bd 50 f9 84 3d 94 7d 8d ba
       0.064358585 -0.06962942 0.06492865 -0.0010794871
000110 60 21 0f bd be d2 21 bd fb 17 8d 3d ba 4b a6 bd
       -0.03494394 -0.03950762 0.068893395 -0.081199124
000120 27 fa 4a bd fb f7 a3 bd 29 d2 a2 bd 2e da 19 3d
       -0.04955497 -0.08006283 -0.07950241 0.037561588
000130 93 45 81 bd 80 ce eb 3b 59 60 3d 3d 0e ba 9f bd
       -0.06312098 0.0071962476 0.046234462 -0.07799159
000140 9e aa 5a 3d ea cd 84 bc 33 ec 94 bd 57 d5 14 3d
       0.05338537 -0.016211469 -0.07271614 0.03633627
000150 c5 7c a0 3d d1 9c 9f bc 25 9f a3 3b 68 d8 45 3d
       0.07836298 -0.019483956 0.0049933367 0.048302084
000160 5c 86 14 bd fb 3c 9a 3c 2d ec 6b 3c 15 b4 98 3c
       -0.036260948 0.018827906 0.01439957 0.018640557
000170 9e cb 3d 3a a3 ba 75 bd e5 18 3d bd 16 21 90 bc
       0.0007240119 -0.059992444 -0.04616632 -0.017593902
000180 28 6b 49 bd 0f 6d 17 bd 81 7e ae 3b ee c6 83 3b
       -0.049174458 -0.03696924 0.005325139 0.004021517
000190 ab b7 bf 3b 73 b7 01 bd 48 1c e8 3c 4d db 8c bd
       0.0058507523 -0.03166909 0.028333798 -0.06877766
0001a0 de 9a 49 3d 5e 91 86 3c 8e cd 51 3d 80 14 29 3d
       0.04921996 0.016426738 0.051221423 0.041279316
0001b0 3f 99 74 3c eb 02 8a bc 6a 73 b2 39 ba c0 05 3d
       0.014929115 -0.016847095 0.00034036796 0.0326545
0001c0 a5 89 b2 3d 32 29 36 3d a9 a9 08 bb 49 56 47 bd
       0.0871766 0.04447288 -0.0020853078 -0.048666272
0001d0 89 60 13 3d 79 bc 3f 3d 06 90 4a 3d 24 6f 93 ba
       0.035980735 0.0468106 0.049453758 -0.0011248332
0001e0 21 da ab 3d 30 40 70 3d 29 95 66 bc 58 c7 7b 3d
       0.08391214 0.058654964 -0.0140736485 0.061469406
0001f0 97 11 5f 3d 51 b2 b3 bc 3e 6a 31 3d 00 a5 9e 3d
       0.054460134 -0.021935614 0.04331421 0.07746315
