ddqn_out/dqn_ep1400.pt (torch, 464501 bytes, 24 tensors)

net.0.weight f4 [128, 77]
000000 0d 12 41 3f e2 fe 74 3d 44 f5 c7 bd be 48 b9 bd
       0.7541817 0.059813388 -0.097635776 -0.090470776
000010 2d 8c 10 bd df d8 a6 3c ad e8 ed 3b 7b 67 a2 3d
       -0.035289932 0.020367084 0.007260403 0.079298936
000020 78 cd fd bc 76 2f c1 3d b3 f6 74 bc 68 d2 23 bd
       -0.030981764 0.094328806 -0.014951396 -0.03999558
000030 74 56 d6 bd 87 cd c8 bd 5a 5b 03 bd 1b fb a8 39
       -0.104657084 -0.09804826 -0.03206954 0.00032230545
000040 dd d0 40 3d 08 62 88 3d a5 af a3 bd 60 ac 50 bd
       0.047074188 0.06659323 -0.07992486 -0.05094564
000050 f2 22 24 3d ed cf ba 3d c3 ed 3b bd 3e 6f c3 3d
       0.04007239 0.0912169 -0.045881044 0.09542702
000060 38 9d 1c bd f8 cd 33 3d 9e ce b3 3d 5e 42 04 be
       -0.038235873 0.0438976 0.087796435 -0.12915942
000070 da 6c 95 bc 65 54 be bc 10 21 b4 bd 0d 36 84 3d
       -0.018240381 -0.023233602 -0.08795369 0.06455622
000080 40 a4 ac bd d9 25 61 bd 02 b4 b1 bd b2 ba cf bd
       -0.08429766 -0.054967735 -0.08676912 -0.10143031
000090 a2 19 94 bd a3 1f c4 3d 4a e1 4a 3d 6e d4 5c 3d
       -0.072314516 0.09576347 0.04953126 0.053913526
0000a0 8e 09 1a 3c be 2a f2 bc f2 ec a5 3c 7a f0 ec bd
       0.009401692 -0.029561397 0.020254586 -0.11569305
0000b0 ed 97 29 bd 54 2c 82 bd c7 31 05 3d 2b 5c c9 3d
       -0.041404653 -0.06356111 0.032518174 0.09832033
0000c0 2f 00 08 bc 47 ec 9a bd 5c de 8e 3d 4b a3 cc 3d
       -0.008300825 -0.075645976 0.069760054 0.09992083
0000d0 5f 24 5b bc 7b 85 a2 3c 0c 7b 9d 3d d6 8b 94 bd
       -0.013375371 0.01983904 0.07689485 -0.07253234
0000e0 06 9d 97 3c 0e a7 b7 bd 98 76 a4 bd 93 28 51 bd
       0.018507492 -0.0896741 -0.080304325 -0.051064085
0000f0 e8 de d5 3d ad c8 82 3d 37 9f de bd a7 51 3c 3d
       0.104429066 0.06385932 -0.108702116 0.045976307
000100 27 b8 90 3d 2a a8 41 bd 9b 58 0b 3e f0 b6 e2 3c
       0.07066374 -0.047279514 0.13608019 0.027675122
000110 fc df 70 bc e0 4d e0 3d 6e 39 a6 bd 8c 07 aa bd
       -0.01470184 0.109523535 -0.081164226 -0.08302221
000120 cb 5e 29 3d ce f9 c8 3d 84 a7 c2 3d cf 98 ca 3d
       0.041350167 0.098132715 0.09504607 0.09892427
000130 f0 fa ae 3c 8b e6 b6 3e 78 2e 4c 3c 66 04 ab bd
       0.02135989 0.35722765 0.012462251 -0.08350448
000140 c7 ac 00 bd 51 6c dc 3d fb 60 b0 3d a4 02 0a be
       -0.031414773 0.10762847 0.086122476 -0.1347757
000150 6c 2f 8f 3c fb 43 08 bd ca e0 56 3b 47 d4 f7 bb
       0.017478667 -0.033267956 0.0032787793 -0.007563147
000160 ed 36 a9 3d 56 11 79 bd a3 4c 28 3d d2 bf 79 3d
       0.082624294 -0.06080755 0.04108871 0.06097395
000170 02 92 b1 3d 59 ed 11 3d 40 e7 00 be 78 82 8d bd
       0.08670427 0.035626743 -0.12588215 -0.069096506
000180 f6 2c 71 3d 12 9b d3 3c b9 d5 ea bd 2c 0a 1f 3b
       0.05888077 0.02583078 -0.114665456 0.0024267538
000190 8e ce d8 3d 96 ab 9f 3d 3e 58 0b be 67 16 ff bc
       0.10586272 0.07796399 -0.1360788 -0.031138612
0001a0 d9 60 fd bd c6 8d d7 bb ef ce 80 bd ad 39 dd bd
       -0.12371988 -0.00657818 -0.062894695 -0.108020164
0001b0 03 d9 c2 3a c5 2b 61 3c 2f 45 73 bc 7e d1 90 3d
       0.00148657 0.013743346 -0.014848038 0.070712075
0001c0 87 99 ab bd 7a 5b ae 3d 17 63 a0 3d 10 c3 c0 bd
       -0.083788924 0.085135415 0.078314 -0.09412205
0001d0 fa 23 d8 bc ca 46 98 bc 39 a2 72 3d 38 6f 85 3c
       -0.026384342 -0.018588442 0.05923674 0.016288385
0001e0 dc 22 41 3d 3a f6 0a bc 8f 8b 5b bd 18 99 20 3d
       0.047152385 -0.008481557 -0.05359989 0.0392085
0001f0 2c 61 06 be 71 f6 35 bd 9d 70 93 bc 85 56 21 bd
       -0.13123006 -0.044424478 -0.017998034 -0.039389152
000200 9a 9d 15 bd 30 8d 14 bd ec b5 6c bc 97 2a b7 3b
       -0.036527254 -0.03626746 -0.01444767 0.005589794
000210 27 9a c1 bd d8 38 aa bb 52 20 ab 3d d0 85 1f bc
       -0.0945323 -0.0051947646 0.08355774 -0.009736493
000220 67 2d d6 3b 21 28 41 bc 0a db d6 3c 3f 8b 81 3d
       0.006536174 -0.011789353 0.026227493 0.06325387
000230 b2 ef 0a 3e 5a 69 de 3d e7 d8 c5 3d 5c d1 99 3b
       0.13567999 0.10859938 0.096605115 0.004694147
000240 ea f6 9b bd 85 85 45 bd 3c 52 87 3d a3 2a d6 bb
       -0.076154545 -0.048223037 0.06607482 -0.0065358444
000250 02 cb 6d bd b7 b2 9e bd 36 02 06 be 1c 85 f3 bd
       -0.05805493 -0.07748931 -0.13086781 -0.11890623
000260 e0 93 d9 bc a8 0b 84 3d 8d cd a1 3f 31 be c8 bd
       -0.02655977 0.06447536 1.2640854 -0.09801901
000270 ee 85 a1 3d 99 6f 7f bd 8d 77 25 bb 00 0a 26 bd
       0.07886873 -0.062362287 -0.002524826 -0.04053688
000280 4d 34 af 3c e9 6c 2b bc ef 6b c4 bd 0e 43 9e bd
       0.021387244 -0.010462978 -0.09590899 -0.077276334
000290 47 31 91 bc d4 b1 4a 3d 9b f4 3d bd 65 8f c1 3c
       -0.017723693 0.049485996 -0.046375852 0.023627946
0002a0 e7 4d c9 bd a2 07 04 3b c3 41 e0 3d 9a e6 16 bd
       -0.09829312 0.002014615 0.10950043 -0.036841013
0002b0 2c 46 e9 3d be bd 59 3d 8b 47 ba bd 52 a6 8d 3d
       0.11390337 0.053159468 -0.09095677 0.06916489
0002c0 ea cc 33 bc 3e 5e 42 bd 3d e6 c1 3d d6 fa 95 bd
       -0.010974148 -0.047453158 0.094677426 -0.07323234
0002d0 a6 b0 90 3c 30 e6 03 bd 90 00 a8 3d 3e 06 4c 3d
       0.017662358 -0.032201946 0.08203232 0.04981064
0002e0 5c eb c6 3d e1 9f 2a 3d ac a8 03 bd 49 f1 14 bc
       0.0971286 0.04165638 -0.03214328 -0.00909073
0002f0 2c 6d d9 bd fd 59 9e 3d 15 4e ce 3d 28 91 b7 3d
       -0.10616526 0.07732008 0.10073487 0.08963233
000300 37 48 8c bd 5c 06 8b 3c 3e c8 9d bd 96 73 db bc
       -0.068497114 0.016970806 -0.07704209 -0.026788514
000310 0b 4a 66 bd 92 4a 44 3d 90 d9 28 bd c6 0c b2 bb
       -0.056222957 0.04792268 -0.04122311 -0.0054336516
000320 34 de 53 bc 41 ad 41 3d 0e 57 40 bd 3e 71 79 b8
       -0.012931395 0.04728437 -0.04695802 -5.947169e-05
000330 aa 68 6b bd c6 00 66 3d 44 88 12 bd a8 5b e4 3d
       -0.057472862 0.05615308 -0.035774484 0.111502945
000340 c6 99 2c 3d da fe bb 3c f0 42 29 3c df 51 2e bc
       0.042138837 0.022948671 0.010330901 -0.010639637
000350 16 85 d6 3c f0 33 2b 3b 15 c8 e3 bb 40 c4 a0 3c
       0.026186507 0.0026123486 -0.006951342 0.01962483
000360 d5 ba 86 bd 6b d5 fb bc 47 ad f2 3d 23 21 d7 bd
       -0.06578604 -0.030741414 0.11849456 -0.10504367
000370 74 e9 88 bd 79 22 05 3e 93 d1 f9 3d 68 7f 15 bc
       -0.06685153 0.13001432 0.12198176 -0.009124614
000380 7c 81 08 be 03 e6 ac 3d bf ad 0f be 6b 66 46 bd
       -0.13330644 0.08442309 -0.14031123 -0.048437517
000390 71 60 0c bd 77 78 7d bb 4b 33 57 3c ed a5 36 3e
       -0.03427166 -0.003867654 0.013134788 0.17836733
0003a0 28 30 5c 3c 86 78 cb 3d d6 64 da 3d 95 bd 99 bd
       0.013439216 0.099350974 0.10663764 -0.07506863
0003b0 6d 99 14 3d 94 87 99 bd b2 69 4d bd d1 42 f0 3c
       0.03627913 -0.074965626 -0.050149627 0.029328736
0003c0 27 8d 5e 3d a0 c8 b8 3d f6 0d 99 bd ad 7c df 3b
       0.054333832 0.09022641 -0.07473366 0.0068202824
0003d0 8d ca 8e 3d 47 cb ca bd 86 f4 a5 3d 55 d7 d1 bd
       0.06972227 -0.09902053 0.0810328 -0.102461495
0003e0 b5 b8 40 3b 38 5a a3 bc 48 11 79 bd 9a e0 69 3c
       0.002940697 -0.01994048 -0.060807496 0.014274741
0003f0 a0 49 a1 3d 64 25 52 bc 4c 6d 77 bd 5d 3b 86 bd
       0.07875371 -0.012826297 -0.060406968 -0.065542914

net.0.bias f4 [128]
000000 3f e3 cd bc fa be 35 bd f4 bf 87 bd 32 be 0f 3d
       -0.025132773 -0.044371583 -0.06628409 0.035093494
000010 cd 95 27 bd 3f cf 63 bd 07 53 1c 3d 12 8c 0d bd
       -0.040914346 -0.055617567 0.03816512 -0.03455741
000020 fc 18 9a 3c 3d f8 f7 bb 89 a8 3d 3d 3e 61 99 3d
       0.018810742 -0.007567434 0.046303306 0.074892506
000030 75 1e cd bd d4 db 4a bd 9e d4 e4 3d 7c 17 42 3c
       -0.10015575 -0.04952605 0.11173366 0.011846419
000040 6d 02 c8 bc a7 e1 b6 3d 3a ff fc 3d 65 a7 13 3d
       -0.02441522 0.089297585 0.12353368 0.03604831
000050 60 8d a8 bd 96 77 f0 3d f5 59 d0 bd 90 82 d1 bd
       -0.0823009 0.11741559 -0.10173408 -0.10229981
000060 1e 34 59 3c b9 70 0a bd 55 16 ea bd 1f ea b8 3d
       0.013257055 -0.033798907 -0.11430041 0.0902903
000070 a6 c4 c2 3c 2a 34 87 bd 98 33 18 3d 52 ea a3 3d
       0.02377541 -0.066017464 0.03715858 0.080036774
000080 77 f5 46 bb 42 ee b5 3d 46 a7 7a 3d 73 ae 28 3d
       -0.003035871 0.08883335 0.06119468 0.041181993
000090 c8 b6 5a bd f9 58 b0 bd 32 80 1b bb 3d a2 1d bd
       -0.05339697 -0.0861072 -0.0023727533 -0.0384848
0000a0 c5 ff e6 bd c4 7a d5 bd c5 80 7f bd 36 2d a2 3c
       -0.11279253 -0.10423806 -0.062378664 0.019796949
0000b0 29 88 15 bd 71 17 c4 bd 0c 1d a1 bc 63 2e e3 bc
       -0.036506806 -0.095747836 -0.019667171 -0.02773208
0000c0 ea 83 fe bc 4c 01 99 3d 35 19 5a 3d c7 b2 9d 3d
       -0.03106876 0.074709505 0.053246696 0.07700115
0000d0 76 d5 ea 3d a7 b0 27 3a 82 1e 6d bd a4 16 05 bc
       0.11466496 0.00063968677 -0.057890423 -0.008123074
0000e0 f4 9a e0 3c a7 2b 14 bd fd d2 ae 3d f0 ca 60 3d
       0.027417637 -0.036174443 0.085363366 0.054881036
0000f0 bc 32 af bd c4 ec cf 3c dd bd e6 3b b2 2a 5d 3d
       -0.08554599 0.025381453 0.0070416764 0.053995796
000100 0c ad 6c bd 05 9b d0 3d 73 fc 0c bd 12 55 49 3d
       -0.057782218 0.10185818 -0.03442044 0.049153395
000110 02 e0 6a bd 6d cb 0c 3d 2e 4e 08 bd 83 8a 3e bd
       -0.057342537 0.03437369 -0.033277683 -0.046518814
000120 21 83 b9 bd 57 d2 2a 3d 0e 4e d3 3c 5b 42 f3 3c
       -0.09058214 0.041704502 0.025794055 0.029694727
000130 22 9a 6c bd 46 07 ca 3c 64 d9 72 bd d3 bc f3 3c
       -0.05776418 0.024661671 -0.05928935 0.029753124
000140 42 dd e0 3d 2a 9b be bd 35 00 33 3d ed 62 9b bd
       0.109797016 -0.09306939 0.04370137 -0.07587228
000150 fa 0d 23 3d 70 ac cb bc f3 ba 29 3d 82 13 a6 bd
       0.03980825 -0.024862498 0.041438054 -0.081091896
000160 b1 3c a5 3d 14 68 95 3d 3a 02 9d bd be 46 97 bd
       0.080682166 0.07295242 -0.0766644 -0.0738654
000170 e3 54 98 3d 1a b8 9a bd 00 46 2d 3d 0b d2 2c bd
       0.07438066 -0.07554646 0.042303085 -0.0421925
000180 b1 65 c5 bd 5b 47 e9 3c 48 eb 0f bd dc 70 65 bd
       -0.09638537 0.028476408 -0.03513649 -0.056015834
000190 14 b8 37 3d 7c 87 30 3d 74 37 a5 3d b0 7f e0 3d
       0.044853285 0.043097958 0.080672175 0.109618545
0001a0 b3 db 25 3d 84 e1 06 bd 2c 18 35 bc 48 f3 ac 3d
       0.040492725 -0.032929912 -0.011053126 0.0844484
0001b0 c5 8a cc bd 13 17 bc 3d 42 12 3f 3d 44 d8 22 3d
       -0.09987406 0.091840886 0.04664827 0.03975703
0001c0 0f 59 0c 3d 77 41 c2 bd 46 87 1c 3d 8f 4f 45 bc
       0.03426462 -0.09485143 0.038214944 -0.012042894
0001d0 f0 14 c7 3b f4 c5 62 bd 7b 09 b1 3d 80 f8 09 bc
       0.006075494 -0.055364564 0.086443864 -0.008421063
0001e0 78 c3 40 bc 53 09 b8 bd a9 03 c8 3d 7f 89 d8 bd
       -0.011765353 -0.089861535 0.09766323 -0.105731
0001f0 56 d6 99 3d dc 04 37 3d fe 78 7d 3c 7e f7 e1 bd
       0.075115845 0.04468237 0.015470741 -0.110335335

net.2.weight f4 [128, 128]
000000 f8 31 ec bc 49 7d 87 bd ce 99 cd bc 52 57 21 3d
       -0.02883242 -0.06615693 -0.025097754 0.039389916
000010 63 b6 41 bc a1 80 b1 bc a7 a9 3a 3d 7c c7 59 3d
       -0.01182327 -0.02166778 0.04557195 0.05316876
000020 51 ec 9f bd fc 2d 14 3d f1 a8 31 bc 99 fe 8a 3d
       -0.07808746 0.036176667 -0.010843501 0.06786842
000030 19 e0 9d bd f0 9f 9a bd d4 0d 91 bc 3d 1d 00 3e
       -0.07708759 -0.07550037 -0.01770679 0.12511154
000040 27 7f 56 3d 26 ef b6 bc 12 f7 42 bc 86 e1 e0 bc
       0.052367356 -0.022330832 -0.011899726 -0.027451288
000050 43 4e fa 3b 1b 10 c2 bb a5 97 88 bc b4 89 a5 3d
       0.007638724 -0.00592233 -0.016673872 0.080829054
000060 50 78 0a 3d 04 7f b0 3d f8 42 5d bd f8 11 a6 bd
       0.033806145 0.08617976 -0.054018945 -0.08108896
000070 70 fd 02 bc c7 61 cd ba b2 1e 4e 3d 61 bb aa 3d
       -0.0079949945 -0.0015669399 0.050322242 0.08336521
000080 69 7e 7b bd 51 6a b9 3d e3 1c 85 3d c7 47 ab 3d
       -0.06139985 0.09053481 0.0649965 0.083633
000090 0c 56 b9 3c 6a 9b f7 bc 14 aa a2 bc c0 79 8e bb
       0.022624038 -0.030225474 -0.01985649 -0.00434801
0000a0 ae 86 79 bd 20 28 22 bd 10 37 90 3d 7e 55 46 3d
       -0.060919456 -0.039589047 0.07041752 0.048421375
0000b0 2b 18 a9 3c 30 28 0c 3c c8 39 9c 3c 46 cf 9c ba
       0.020641407 0.008554503 0.019070521 -0.0011963628
0000c0 4c eb 68 bd 22 01 1f bc 37 0b 04 bd 1d 47 7e bc
       -0.05686502 -0.00970486 -0.032237258 -0.015519884
0000d0 b2 f6 95 bc ce cd cc 39 97 6d 95 bd e8 17 0b bd
       -0.01830611 0.0003906325 -0.07296293 -0.033958346
0000e0 08 bd 02 bd 40 de 03 bc d5 92 97 bd 16 4c 9a 3d
       -0.031918555 -0.008048594 -0.07401053 0.075340435
0000f0 e3 a9 3c bd cf 00 ac 3d 86 d2 dc bd e3 ad d2 bb
       -0.046060454 0.08398592 -0.10782342 -0.0064294203
000100 84 f5 a3 bc bd 8b 2d bd a4 bf f3 bc 9a be a3 bd
       -0.020014532 -0.042369593 -0.029754467 -0.07995339
000110 f3 ee 29 3d 6f d7 8b 3d ad 15 a3 bd c6 b3 98 bc
       0.041487645 0.068282 -0.07963119 -0.01864041
000120 09 a8 81 bd 10 b8 bc 3c 01 b3 4e bd 7f c8 ba 3d
       -0.06330878 0.023036987 -0.05046368 0.09120273
000130 06 85 01 bc 6f bb 9e 3c e1 fd b9 3d 7b 48 ac bd
       -0.00790525 0.019376485 0.09081627 -0.08412262
000140 1f 25 49 bd 8c 58 6d bc c4 d1 ae bd 94 24 cb 3c
       -0.049107667 -0.014486443 -0.08536103 0.024797715
000150 21 ff 31 bc 84 cc a9 bd 82 d4 0c bd 09 cd 81 bd
       -0.01086405 -0.082909614 -0.03438235 -0.063379355
000160 e2 af 01 3d 19 9a ae 3d eb 54 ba 3d 54 78 9e bd
       0.031661876 0.085254855 0.09098228 -0.077377945
000170 44 76 2f 3d fd 2b 1f 3c 9d 72 1d 3d 36 22 3a 3d
       0.042837396 0.0097150775 0.038439382 0.045442782
000180 75 57 a8 bd c2 ad 9f bd 1a 04 25 bd 5a 23 a2 b9
       -0.08219806 -0.077968135 -0.040287115 -0.00030925387
000190 1f 40 2e 3d 87 61 28 bd 82 e5 f8 bb bc f9 32 bd
       0.04254162 -0.041108634 -0.007595719 -0.043695197
0001a0 61 ed c0 3d ba f7 a5 bd c9 ad 21 bd 01 56 21 3d
       0.094202764 -0.08103891 -0.039472375 0.03938866
0001b0 86 38 98 bd 0d 7f 97 3d 0f f8 bc bd 9c 77 a4 bc
       -0.07432656 0.0739728 -0.09227001 -0.020076565
0001c0 52 5d 0b bd 32 21 65 3a cb 1f 23 bd ab a5 23 3d
       -0.034024544 0.0008740603 -0.039825242 0.039952915
0001d0 c0 18 66 bd ab ee 39 bd a5 83 a8 bc 5a 6a 85 bd
       -0.056175947 -0.045393627 -0.020570586 -0.065144256
0001e0 86 31 c3 bd 18 92 72 3d 72 2a de 3d 96 c5 75 bc
       -0.0953093 0.059221357 0.108479396 -0.015000721
0001f0 dd 16 5d bc aa 8e 0b 3d c5 a2 ab 3c 27 75 a2 bd
       -0.013494221 0.034071602 0.020951638 -0.07932501
000200 26 1c d2 3b ca 13 06 3e be 5b 85 3d 6f d6 37 bd
       0.006412047 0.13093486 0.06511639 -0.044882234
000210 a1 97 7b 3c 5a fd 89 bc 0b b4 f6 bd 25 57 1b bd
       0.015355975 -0.01684444 -0.12046059 -0.037924904
000220 46 d6 dd 3d f1 33 27 3d 01 fd 63 3d c3 dc 90 bd
       0.10831885 0.04082102 0.055661205 -0.07073357
000230 70 3f c7 bb 3a ac d0 3d 24 95 a2 bc ff e0 8e bc
       -0.0060805604 0.101890996 -0.019846506 -0.01744127
000240 2f f9 56 bd 5e 32 8b bd 7b 94 83 bc 68 b9 1c bd
       -0.052483734 -0.06796716 -0.016062012 -0.038262755
000250 5a 49 91 bd f5 a0 c6 3d 7c 42 d5 3d ac d8 ee bd
       -0.07094069 0.09698669 0.104130715 -0.11662421
000260 88 8e f5 bc 88 99 90 3d 80 97 ae 3d 18 b6 8f bd
       -0.02997519 0.07060534 0.0852499 -0.070171535
000270 0d 3d 29 bd bb b1 5e 3d 6b fc 52 bc 68 cf d3 bc
       -0.04131799 0.054368716 -0.012877564 -0.025855735
000280 88 bc 81 bc e7 0a 03 3d 72 d4 00 bd 24 7d e0 3d
       -0.015836969 0.03199282 -0.031452604 0.10961369
000290 18 7b 94 3d 46 db 3a bc 67 a9 33 bd 96 56 83 3d
       0.07250041 -0.011404818 -0.043862727 0.06412999
0002a0 fc 0b f7 3c 07 f7 5f bd 0c a9 94 bd 3b 00 5b 3d
       0.030157082 -0.054678943 -0.07258806 0.053467017
0002b0 03 d9 06 bd e2 d5 34 bd bf 46 8d 3d c9 90 89 3c
       -0.032921802 -0.044149287 0.06898259 0.016792672
0002c0 1e 00 b0 3d fc 0d 1f 3d 6e 18 c8 3d 78 95 b9 3d
       0.08593772 0.038831696 0.097702846 0.09061712
0002d0 25 06 24 3d 2d f4 a4 3d 24 64 6e bd a6 51 be 3d
       0.040044922 0.08054385 -0.05820097 0.09292917
0002e0 d9 66 63 3c 94 37 cd 3d f0 49 23 bd ea ed 75 bd
       0.013879501 0.10020366 -0.039865434 -0.060041346
0002f0 b4 5f 8a 3d 1a fd 82 bd 23 fe ea 3c 18 27 24 3e
       0.06756535 -0.063959315 0.028685635 0.16030538
000300 91 94 5c 3d 95 d1 60 bd 38 d7 4e bd 67 5b 18 bd
       0.05385262 -0.054887373 -0.050498217 -0.037196543
000310 19 91 a4 bd 40 fe 5a 3d b6 16 7a 3d 26 de 96 3d
       -0.08035488 0.053465128 0.061056815 0.0736659
000320 46 92 8b 3d 9c 00 b2 3d 2b c7 1c bd 31 bf 8f 3d
       0.06815009 0.086915225 -0.03827588 0.07018889
000330 28 15 f1 bb e8 0c 83 3d 8a 86 db 3c 9f ff a2 bc
       -0.0073572583 0.06398946 0.026797552 -0.01989728
000340 c0 42 89 3d f1 32 00 3e 00 8e 66 3d 47 63 ae bc
       0.06702185 0.12519433 0.056287766 -0.021287574
000350 d2 f7 89 bc 1f 02 95 3d 1a ca d4 bc 8f b7 18 3d
       -0.016841803 0.07275795 -0.025975276 0.03728443
000360 aa 6e 24 bc de 15 84 3d 5b a4 b4 bc 37 b2 94 3d
       -0.01003615 0.06449483 -0.022051027 0.07260554
000370 bb e5 d4 3b 8d 85 de 3c f7 1b 84 3d cf b8 82 3d
       0.0064971126 0.027163291 0.06450646 0.06382906
000380 87 71 4d 3d 54 48 7b bd d8 f5 23 bb 21 a3 cb 3d
       0.050157096 -0.061348274 -0.002501836 0.09943224
000390 91 4a c2 3d 21 da f2 bd c1 2a 79 bd e2 6d 3b 3d
       0.09486879 -0.11858011 -0.06083179 0.04575909
0003a0 64 52 8d bd 02 92 3f bd b1 fd 44 bd 5d 72 38 bd
       -0.069004804 -0.046770103 -0.0480935 -0.04503094
0003b0 1c b5 0f bd f8 40 01 3e 0e 92 a4 bd 3d fd 60 3d
       -0.03508483 0.1262244 -0.0803567 0.054929007
0003c0 e9 60 70 bd 8b a9 61 bc 2e fd f1 bc 53 fa 21 3d
       -0.05868617 -0.013773332 -0.02953967 0.03954537
0003d0 38 f1 19 bd a1 07 cd bc 90 3b d7 bc d1 d2 27 bc
       -0.03758356 -0.025028052 -0.026273519 -0.010243134
0003e0 73 78 11 3d 21 b7 a3 3d dc 4b 4f 3d 0f 5f e8 3c
       0.03551526 0.079939134 0.050609455 0.02836564
0003f0 b3 5d 8d bd 6d a9 f8 3c 7f 95 3e 3d bd 29 a2 3d
       -0.06902637 0.030354226 0.04652929 0.07918117

net.2.bias f4 [128]
000000 2a b7 f9 bc 56 64 50 bd 00 f1 93 3d 81 9f 91 3d
       -0.030482847 -0.050876938 0.072237015 0.07110501
000010 02 dd 9a 3c ad 93 42 bd a7 3b 08 3d af fa 44 bd
       0.018904213 -0.047504116 0.033260014 -0.048090633
000020 2d dd 9a bd 07 ed a5 3d 57 b5 4d 3d e1 50 e1 bc
       -0.07561717 0.0810185 0.050221767 -0.027504386
000030 67 bc 8b 3d a2 b9 be 3b ef fb 03 3d 15 41 a7 3a
       0.06823044 0.005820469 0.032222684 0.0012760485
000040 e9 fd 8d 3d 4a b5 85 3d 2e f3 c2 ba cc 86 4d 3d
       0.06933195 0.06528719 -0.0014873499 0.05017738
000050 31 94 26 3d 68 a0 4d 3d c5 0b 8d bc de f1 2d bd
       0.04066867 0.050201803 -0.017217526 -0.04246699
000060 64 2c 98 3d be ad 53 3d 5f af a2 bd 90 e3 90 3c
       0.07430342 0.051679365 -0.07943606 0.017686635
000070 3e 5b af 3d ac 18 67 3d 31 52 5d 3d 90 18 74 3d
       0.08562325 0.056420013 0.054033462 0.059593737
000080 9a 0f 9f bd 0a b9 5f bd ed 2e a5 3d 52 a9 d3 3c
       -0.07766648 -0.054619826 0.08065591 0.025837574
000090 36 a8 ff bc da 44 a8 3d d7 30 88 bc 43 59 86 3d
       -0.031208139 0.082162574 -0.016624851 0.06559994
0000a0 10 ab cf bb 81 d0 7a 3d 17 0e f2 3c 92 8e b5 bd
       -0.006337531 0.061234 0.029547734 -0.08865084
0000b0 98 c0 22 3d 1f 63 94 bc 4e 31 27 3d 77 a4 f9 3c
       0.039734453 -0.01811367 0.040818505 0.03047393
0000c0 03 b1 29 3d 99 60 33 bd e2 b4 86 3d be 2e 34 3d
       0.041428577 -0.043793295 0.065774694 0.04398989
0000d0 4b f3 9b bd 2c 29 bd 3d c3 23 56 3c 9b 8c a3 3d
       -0.07614764 0.092363685 0.01307005 0.07985803
0000e0 d1 21 0d bd 0e d1 75 bd 06 45 28 3c ed 46 9d 3c
       -0.034456078 -0.060013823 0.010270363 0.01919886
0000f0 9c ff 4c 3c 3c e2 b1 bb fc 13 71 bd d5 27 f0 bb
       0.012512114 -0.0054285806 -0.05885695 -0.007328967
000100 9a e4 8f 3d 60 8e 8b bd 86 c4 8e 3d e5 21 a6 3b
       0.07026024 -0.06814265 0.069710776 0.0050699585
000110 d7 db 00 bd 89 ef 23 bd 94 87 97 3d da b8 a0 bd
       -0.031459656 -0.04002336 0.07398906 -0.07847758
000120 43 3a 6d bd d4 68 9f bd 42 55 9c bd 3a 60 1d 3d
       -0.05791689 -0.07783666 -0.07633449 0.038421847
000130 93 45 81 bd f9 c1 45 3c 47 a3 54 3d 5c 35 96 bd
       -0.06312098 0.0120701725 0.051913526 -0.07334396
000140 f7 11 6f 3d 26 cc 4e bc 96 6b 94 bd 7c ef 27 3d
       0.058366742 -0.012621915 -0.07247083 0.040999874
000150 af 8d aa 3d 8f 87 90 bc cd a3 b5 3a 44 a9 5a 3d
       0.08327805 -0.017642764 0.001385802 0.05338408
000160 d7 98 09 bd e9 1b aa 3c 3a df 85 3c 56 d6 be 3c
       -0.033593025 0.020765262 0.016341794 0.023295563
000170 24 f6 d2 ba e3 c9 81 bd 4a ee 49 bd 2b a0 6f bc
       -0.0016095084 -0.06337335 -0.049299516 -0.014625589
000180 29 16 62 bd 21 25 21 bd 88 ce 8a 3c 36 f7 dc 3b
       -0.055196915 -0.03934205 0.016944185 0.006743337
000190 ab b7 bf 3b cf 52 d8 bc 2e d9 04 3d bc 12 96 bd
       0.0058507523 -0.026406674 0.03243368 -0.07327792
0001a0 bf 04 58 3d 22 8c a6 3c 37 92 54 3d 55 72 2a 3d
       0.0527389 0.020330492 0.051897254 0.04161294
0001b0 1d 20 a7 3c e4 e7 b6 bc ae b5 39 bb 6a bd 12 3d
       0.020401055 -0.022327371 -0.002833705 0.03582517
0001c0 38 71 bc 3d 28 5f 49 3d ab 3b 7f 3b 83 2b 2d bd
       0.09201282 0.049163014 0.0038945477 -0.042277824
0001d0 e9 88 23 3d f5 55 36 3d f3 d7 67 3d 25 c7 28 3b
       0.03992549 0.04451557 0.05660243 0.0025753465
0001e0 62 47 b4 3d 2d 41 82 3d 4c 1e 90 bc 81 20 82 3d
       0.08802678 0.063600875 -0.017592572 0.06353856
0001f0 f5 7b 50 3d 60 5e f4 bc 7e 6b 45 3d 3b 8a a6 3d
       0.050899465 -0.029830158 0.048198216 0.08131834

net.4.weight f4 [15, 128]
000000 6f 4f cb 3d 10 83 6f 3c 96 51 f8 3b f3 3c b8 3a
       0.0992726 0.01461865 0.007578085 0.001405625
000010 e8 3a e2 3c 9f e7 74 bd 31 0c f6 bc c1 82 82 3d
       0.02761598 -0.059791204 -0.03003511 0.063725956
000020 85 92 89 3d 0d e9 cb 3b c5 db 6d bc bd 56 a1 3d
       0.067173995 0.00622285 -0.014517729 0.07877872
000030 24 29 8e bd 15 30 82 bb e1 af 0c bd ec e3 6c 3d
       -0.06941441 -0.003973017 -0.03434742 0.05783455
000040 3d 94 e0 bc fd 05 a5 bd fb 19 e0 3c 8f 2c 83 bc
       -0.027414436 -0.08057783 0.027356138 -0.016012458
000050 d0 f4 82 3d 47 1b a4 3d fd 34 0b 3d 22 ed f1 bb
       0.063943505 0.08013015 0.03398608 -0.0073830048
000060 85 37 36 3d 46 c0 90 3d 13 74 16 3e 2e df 29 bd
       0.04448654 0.07067923 0.14692716 -0.041472606
000070 54 52 cc 3c af 76 0d bd b1 da 8c 3c 5f c7 0a bd
       0.0249416 -0.034537014 0.017194124 -0.03388154
000080 7b a1 9f bd 29 f0 93 bd e0 68 bb bd 3f 07 af 3d
       -0.07794472 -0.07223541 -0.09150863 0.08546304
000090 cf b5 27 3d 80 b1 53 3d 1b c1 ec 3c 19 47 58 3d
       0.04094487 0.05168295 0.028900674 0.05280218
0000a0 6e a8 99 3d e2 6a 05 3d ac 31 34 3d af 8e 41 3d
       0.075028285 0.032572635 0.043992683 0.047255214
0000b0 2a a8 71 3d 57 98 fb 3c 02 e6 ca bd c1 ca 2f bd
       0.058998264 0.03071229 -0.09907152 -0.04291797
0000c0 c1 51 3a 3d b4 49 65 3d 9b 71 20 bb ca 6f 7a bd
       0.045488123 0.055978492 -0.0024481777 -0.061141767
0000d0 06 30 df 3b fd da b5 3d 9f 82 70 bd 2e ff 96 3b
       0.0068111448 0.08879659 -0.05871832 0.0046080565
0000e0 68 6f e0 3c b6 46 c6 bd 90 a5 a7 3d 46 26 b0 bd
       0.027396873 -0.09681456 0.081858754 -0.0860105
0000f0 9f 05 2c 3d 0e 49 76 bb c8 f6 c3 bc dd 47 9e bc
       0.04199755 -0.0037580165 -0.023921385 -0.019321376
000100 27 4e 73 3d 83 28 04 3d 58 3b 11 3d 8d 95 b6 3b
       0.059400704 0.032265197 0.035456985 0.005572027
000110 1d 51 a1 bb c0 58 ab bb 1d f7 39 bd 16 e2 69 3d
       -0.0049229995 -0.0052290857 -0.04540168 0.057100378
000120 da ec b7 bc a2 cb 70 bc b3 b0 aa 3d 54 18 7d 3d
       -0.022451807 -0.014696987 0.08334484 0.06179078
000130 a5 e4 87 bd 5a f8 70 bc 7c 27 92 3d a0 25 c0 bb
       -0.06635407 -0.014707649 0.07136437 -0.0058638602
000140 92 db 0c bd 2f da a8 3d 74 ef 83 3d 1e 11 b8 3d
       -0.034389086 0.0824474 0.064421564 0.0898764
000150 e8 b1 42 3d 22 37 c0 3d 3b 85 74 3d fa b8 97 bb
       0.047532946 0.09385516 0.05969737 -0.004630205
000160 74 71 bc 3d ae 66 e6 3d 1c 1e a4 bb 83 60 84 3d
       0.09201327 0.11250053 -0.005008472 0.06463721
000170 7d b9 e5 3c 1d 2a 64 3d e6 bc 81 bc e5 e2 70 3d
       0.02804255 0.055704225 -0.015837144 0.058810133
000180 dd 73 e3 bc 72 e2 4d bd 7b 46 53 bd 1a af b7 3d
       -0.027765209 -0.050264783 -0.051580887 0.08968945
000190 10 cc a5 bd f7 1a b8 3d 4e 8d b5 3d 00 c7 c1 b9
       -0.080955625 0.08989518 0.08864842 -0.00036960095
0001a0 fc 4f 99 3d 65 cd 90 3d ea cc ac 3d 4b ae a5 3c
       0.07485959 0.07070426 0.08437522 0.02022471
0001b0 3d d2 31 3b 74 df 5f bd 60 23 05 3d 18 86 d6 3c
       0.0027133368 -0.05465646 0.03250444 0.026186988
0001c0 ae f2 bc 3d b9 3b b6 3d a2 e2 d0 3c 52 13 2a 3d
       0.09225975 0.0889811 0.025498692 0.04152233
0001d0 dd 6e c3 bb c8 cd 12 3d 8d b0 0c 3e 0a cb a5 3d
       -0.0059641437 0.03584078 0.13739224 0.08095367
0001e0 29 7b 9f 3d 67 a2 a2 bb 29 6b a8 3c 9a e9 86 bd
       0.07787163 -0.0049632075 0.02055891 -0.06587525
0001f0 c4 52 ec 3c 0d 84 79 3d 67 c4 80 3c 05 ac aa 3d
       0.02884806 0.06091695 0.015718652 0.08333591
000200 26 19 e6 bc 23 3e cb 3d cb 56 8e bd 01 8f 35 3d
       -0.028088164 0.09923961 -0.06950148 0.044325832
000210 82 06 ad 3d 14 ca b9 3b 5e 26 a8 bd 6f 8e f1 3c
       0.08448507 0.0056698415 -0.08210443 0.029486863
000220 79 9c b1 3d 13 0f ba 3d ba 71 8d bd 4d e9 8d bd
       0.08672423 0.090849064 -0.06906457 -0.06929264
000230 44 81 77 3d e8 17 0d 3d 56 3a cc 3d 3e 25 30 3c
       0.06042601 0.034446627 0.09972064 0.010751067
000240 2f 7e b1 3d 76 8e c4 bd 50 e3 61 bc 07 44 65 bd
       0.08666646 -0.09597485 -0.013787106 -0.05597308
000250 5a 39 ad bb 92 70 6b bc 80 19 70 bc c5 c2 eb bc
       -0.005286378 -0.014370101 -0.014654517 -0.028779397
000260 ec 94 7b bd 0a 13 af bc 96 68 40 3d 02 ee ba bc
       -0.06142132 -0.021371383 0.04697474 -0.02281857
000270 e2 d0 5b 3d b6 3d 84 bd c4 79 8e 3d 76 0c 6f bd
       0.053666003 -0.06457083 0.06956819 -0.058361493
000280 82 e7 3b 3d 0d 42 7c bd 85 4d 84 bd c7 90 3e 3d
       0.04587508 -0.06158643 -0.06460098 0.04652479
000290 98 8f ec 3d 91 ec 80 bd ea 2d 4a bd 16 61 4c 3d
       0.11550826 -0.062951215 -0.049360193 0.049897276
0002a0 87 95 ee bc ab 93 f3 3c 4f 45 8a 3d ee 11 28 3d
       -0.029124035 0.0297335 0.06751501 0.041032724
0002b0 f7 99 13 3c 04 7a 57 3d 5f c5 c6 3a f6 f9 8e 3d
       0.009008876 0.052606598 0.0015165022 0.0698127
0002c0 83 62 69 3c e6 c7 fd 3d ed 3b a9 3d 54 d8 4d 3b
       0.014244678 0.12391643 0.08263383 0.003140946
0002d0 9b fa 3b 3d 18 c2 91 3d 4c b7 da 3c a2 da 02 bd
       0.045893293 0.071170986 0.02669873 -0.031946786
0002e0 5d fe cd 3d c5 4e 54 bc dc 87 1f bd 5a 98 71 bd
       0.100582816 -0.012958233 -0.038947925 -0.058983184
0002f0 f2 f0 40 bc 15 1e f4 bb 8b 22 e4 3b 63 63 86 bc
       -0.011776196 -0.007449875 0.0069621257 -0.016404813
000300 83 a7 8f 3d 59 87 ea ba 34 7e da 3c ef 24 73 3d
       0.07014372 -0.001789312 0.026671506 0.059361394
000310 06 0b b6 3d 5b 5c 14 be 8f d0 1b ba 5c 90 b0 bd
       0.08888821 -0.14488356 -0.00059438584 -0.08621284
000320 7c 41 e6 bd a2 ae f3 3d 27 f8 8b 3d 8d 21 9f bd
       -0.11242959 0.11898543 0.06834441 -0.07770071
000330 26 5b 0a bd 0d 51 fd 3d 96 e1 fb 3d ff 5b 9a 3d
       -0.033778332 0.12368975 0.122988865 0.07537078
000340 dd f8 99 3d 72 a8 3e bd 30 71 05 bd 15 58 a8 3d
       0.0751817 -0.04654736 -0.032578647 0.08219925
000350 74 8c 65 bd 3c d9 f7 3c 9f 5d 9d bd 77 7b 68 bd
       -0.05604215 0.030254953 -0.076838724 -0.05675837
000360 23 eb 39 3d 14 0e 59 3d 91 66 45 bb 9d 3e 2c bd
       0.04539026 0.05299194 -0.0030120949 -0.0420519
000370 d1 da a8 3d 22 02 3b 3e 0c 8b e7 3c cc 24 eb 3d
       0.08244861 0.18262532 0.028264545 0.11481628
000380 fa 43 d7 bd 23 9d 19 bd 8c 18 14 3d 6f c0 c3 3d
       -0.105110124 -0.037503373 0.036156222 0.09558188
000390 5e 77 13 3b 49 7c 55 3d 38 b8 80 bc 4f e2 7d bd
       0.0022501568 0.05212048 -0.015712842 -0.061983403
0003a0 52 e7 50 3d 8e 33 a4 bc 0c ae 18 3c 4f 8e dc 3d
       0.051001854 -0.020044114 0.00931884 0.10769331
0003b0 39 71 fb bc f3 b6 b9 ba 88 3c 22 bd d4 e0 3c bc
       -0.030693637 -0.0014168903 -0.03960851 -0.011528213
0003c0 a2 1f a2 3d 75 28 47 3d 39 f6 27 3e a7 fe c6 3c
       0.0791619 0.048622567 0.1640252 0.02429135
0003d0 31 cc 4b 3d 98 59 44 3c 5b e6 39 3c ac 68 a6 bd
       0.04975528 0.011984251 0.011346425 -0.08125433
0003e0 58 d3 84 3d 2c 35 2c bd 82 65 60 bd 14 d8 63 3b
       0.06485623 -0.042042896 -0.054784305 0.0034766244
0003f0 d1 e5 b7 bd d5 5b 58 3d cb bf 76 3c 51 53 d9 bc
       -0.08979381 0.052821953 0.015060375 -0.026528986

net.4.bias f4 [15]
000000 0f 06 52 bd fb 6f b1 3d 77 a8 93 bc e1 a3 ed bc
       -0.05127531 0.08663937 -0.018024666 -0.029008808
000010 5d 0d 16 3c ce 5f 0b 3d 9e c3 7e 3d e5 e9 39 bd
       0.0091584595 0.034026913 0.062198274 -0.045389075
000020 a7 61 6a 3d da 02 9b 3d fd 64 ba 3c e4 90 94 3d
       0.057222035 0.07568903 0.022753233 0.07254198
000030 2b 74 c7 3c 87 81 4b 3d 2f ff a9 3c
       0.024347385 0.049684074 0.020751564

net.0.weight f4 [128, 77]
000000 54 28 3e 3f 36 d1 71 3d e6 d7 c8 bd 40 63 b9 bd
       0.74280286 0.05903741 -0.09806804 -0.090521336
000010 cc 56 12 bd 70 bd a0 3c 2f ec fc 3b c5 19 a1 3d
       -0.035727307 0.01962158 0.007718585 0.07866243
000020 2f ea fb bc a4 8a be 3d e3 2d 85 bc 72 60 25 bd
       -0.030751316 0.09303787 -0.016257232 -0.04037518
000030 2a d5 d7 bd ce 08 ca bd 46 f0 0c bd 84 fa e3 b8
       -0.10538705 -0.098649606 -0.03440883 -0.00010870866
000040 cb 27 3e 3d 27 d9 86 3d 1f f6 a4 bd 0c da 53 bd
       0.04642467 0.06584387 -0.080547564 -0.051721618
000050 46 f5 20 3d c3 68 b9 3d 00 a0 37 bd 99 8f c2 3d
       0.03929641 0.09053185 -0.044830322 0.09500045
000060 06 6f 1f bd 4e 1d 34 3d 90 aa b2 3d 9c 35 04 be
       -0.03892424 0.04397326 0.087239385 -0.12911075
000070 04 07 98 bc f2 b0 c3 bc 70 12 b4 bd 68 77 84 3d
       -0.018558033 -0.023888085 -0.08792579 0.064680874
000080 ec 29 ae bd 50 c1 69 bd bb 72 b3 bd 61 92 d1 bd
       -0.0850409 -0.057069123 -0.087621175 -0.10232998
000090 f6 27 95 bd 8e c0 c2 3d 9e b3 47 3d c2 a6 59 3d
       -0.072830126 0.09509383 0.04875528 0.05313755
0000a0 39 8e 0b 3c e9 c2 e7 bc 1a 89 a2 3c 6c 89 ed bd
       0.008517795 -0.028291183 0.019840766 -0.11598477
0000b0 17 80 2e bd d3 4c 84 bd 23 64 05 3d 6f 71 c8 3d
       -0.042602625 -0.064599656 0.0325662 0.09787261
0000c0 bc 1a 19 bc d5 3f 9b bd 0e 6e 8c 3d 4d 94 cb 3d
       -0.009344753 -0.07580534 0.06856929 0.099403955
0000d0 e5 0b 54 bc 5f 99 9b 3c 63 c6 9b 3d 5d 70 96 bd
       -0.012942289 0.018994031 0.07606199 -0.0734565
0000e0 84 51 92 3c e7 3d b9 bd 71 0d a6 bd 7b 9f 56 bd
       0.017861135 -0.0904501 -0.081080325 -0.052398186
0000f0 c0 5b d7 3d 62 5a 80 3d cf 24 e0 bd a1 85 39 3d
       0.10515547 0.06267239 -0.10944521 0.045293454
000100 af 81 8f 3d 61 99 41 bd c9 6f 09 3e 9a 8c df 3c
       0.07007157 -0.047265414 0.13421549 0.027288724
000110 74 81 6e bc 19 6f de 3d b2 fe a7 bd c9 05 a9 bd
       -0.014557231 0.10861034 -0.08202876 -0.082530566
000120 45 ba 26 3d 30 ee c6 3d 5a 81 c1 3d c9 4e c9 3d
       0.040704984 0.097133994 0.094485 0.0982948
000130 90 9f a8 3c 1a 78 b4 3e 59 d4 56 3c 63 66 ab bd
       0.020583898 0.3524788 0.013112151 -0.08369138
000140 d5 d2 f6 bc 16 84 dd 3d dd cc b1 3d 8e 9e 0b be
       -0.03012983 0.10816209 0.08681653 -0.13634703
000150 b5 c0 92 3c c7 5c 06 bd c5 e9 90 3b 5f 7a d3 bb
       0.017914155 -0.032803323 0.0044223987 -0.0064537968
000160 4b 44 aa 3d a8 0d 7a bd 2b d8 2a 3d c1 b9 7f 3d
       0.08313807 -0.06104818 0.04171006 0.062433008
000170 c6 87 b2 3d 38 4b 17 3d 4c 66 00 be b9 d2 8b bd
       0.08717303 0.03693697 -0.12539023 -0.068273015
000180 70 d6 73 3d 02 ee d8 3c af 94 e8 bd eb 2d 9c 3b
       0.059530675 0.026480678 -0.11356484 0.004766216
000190 6b 1c d9 3d 07 50 a1 3d 40 38 0d be a6 79 fa bc
       0.106011234 0.07876592 -0.13790989 -0.030575585
0001a0 c7 1f fc bd 47 40 b5 bb 78 d4 7b bd c0 91 d9 bd
       -0.123107485 -0.005531344 -0.061481923 -0.10623503
0001b0 4a c4 c4 3a aa 98 68 3c 33 cb 5d bc 36 6c 92 3d
       0.0015012112 0.014196554 -0.013537216 0.07149546
0001c0 d4 5b a9 bd b2 c8 b0 3d 0c e0 a1 3d 54 6e bf bd
       -0.08269468 0.086320296 0.07904062 -0.09347215
0001d0 0a d1 d2 bc 47 ae 8e bc ca d6 78 3d 69 ca 89 3c
       -0.025734443 -0.017417086 0.060751714 0.01682015
0001e0 48 7a 42 3d 26 9e 2b bc de e2 59 bd 32 df 21 3d
       0.047479898 -0.010474717 -0.053194873 0.039519496
0001f0 4c ee 05 be c0 6f 31 bd bb 3f 95 bc 5d ed 21 bd
       -0.13079184 -0.043319464 -0.018218866 -0.039533008
000200 f6 f3 12 bd a6 a7 13 bd 0d f2 63 bc 7e 86 d4 3b
       -0.03587719 -0.036048554 -0.01391269 0.0064857593
000210 c2 bc c0 bd fd 51 92 bb 0e 75 ac 3d ef df 14 bc
       -0.09411003 -0.00446534 0.08420764 -0.009086593
000220 fe 13 fe 3b d0 cf 29 bc e2 a1 d3 3c 56 19 83 3d
       0.007753848 -0.010364488 0.025834028 0.06401317
000230 db 6e 0a 3e 46 c1 de 3d 4e 4e c6 3d 46 9e af 3b
       0.1351885 0.10876708 0.09682904 0.005359444
000240 da fa 99 bd e9 ce 46 bd f6 06 88 3d 05 b6 e1 bb
       -0.07518549 -0.04853717 0.06641953 -0.0068881535
000250 10 2e 6b bd eb 30 9e bd f2 1b 05 be fc 53 f2 bd
       -0.057416975 -0.07724174 -0.12998942 -0.11832425
000260 8b 1b d3 bc 64 60 85 3d 6c 6d a0 3f 64 ba c8 bd
       -0.02576997 0.06512526 1.2533393 -0.09801176
000270 dc e8 a1 3d 17 00 80 bd 0c 0d 14 bb fa 33 25 bd
       0.079057425 -0.06250017 -0.0022590784 -0.04033277
000280 24 6e ad 3c 92 a0 28 bc 93 dc c3 bd af 8b 9f bd
       0.021170683 -0.010292189 -0.095635556 -0.077903144
000290 5e 97 91 bc 37 36 46 3d f5 40 3d bd 6c 79 be 3c
       -0.017772373 0.048391547 -0.046204526 0.023251258
0002a0 6f d1 c8 bd db de 2a 3b 2a 56 e0 3d a6 c3 16 bd
       -0.09805571 0.0026072774 0.109539345 -0.03680768
0002b0 ff 56 e9 3d 5a c5 59 3d be 43 ba bd ef 66 8d 3d
       0.11393546 0.053166725 -0.09094952 0.06904399
0002c0 e4 a2 26 bc 0a d5 42 bd bd 6c c2 3d 8e bf 94 bd
       -0.010170672 -0.04756645 0.094933964 -0.07263099
0002d0 bd 45 91 3c 96 6f 02 bd d0 6b a6 3d 47 03 4c 3d
       0.01773345 -0.031844698 0.08126032 0.049807813
0002e0 0f 15 c5 3d cd aa 2b 3d 81 7a 05 bd c0 85 18 bc
       0.09623157 0.041910935 -0.032587532 -0.009309232
0002f0 5f b0 d8 bd fa 11 9e 3d 64 76 ce 3d 64 95 b7 3d
       -0.10580515 0.077182725 0.10081175 0.08964041
000300 6a 44 8c bd 93 15 8b 3c 7e 17 9e bd 31 aa d9 bc
       -0.068489864 0.01697806 -0.077193245 -0.026570411
000310 ef b2 66 bd 2f 0e 45 3d 23 c9 27 bd 84 36 a7 bb
       -0.056322988 0.04810923 -0.040963303 -0.0051029343
000320 5f 07 4b bc 0c ca 40 3d 5b 0c 42 bd 42 10 85 36
       -0.012391894 0.047067687 -0.047375064 3.9656015e-06
000330 a3 19 6b bd 66 69 67 3d c0 45 13 bd 23 3c e4 3d
       -0.057397496 0.056497 -0.03595519 0.11144283
000340 e6 9a 2c 3d f4 22 bc 3c 94 26 2a 3c 69 33 2e bc
       0.04213991 0.022965886 0.010385174 -0.010632374
000350 4d 94 d6 3c 38 aa 14 3b 62 4c e9 bb 2a a4 a0 3c
       0.026193762 0.0022684466 -0.0071197012 0.01960953
000360 4d e4 86 bd 03 8d f7 bc be a7 f2 3d be e8 d5 bd
       -0.06586514 -0.030218607 0.118484005 -0.10444783
000370 96 3c 88 bd aa 1a 05 3e e5 74 fa 3d 8f fe 14 bc
       -0.06652181 0.12998453 0.12229327 -0.009093895
000380 c6 84 08 be 0a 6a ad 3d e6 9a 0f be 6d 2f 46 bd
       -0.13331899 0.08467491 -0.14023933 -0.048385072
000390 8d 1d 0c bd e1 62 77 bb c1 51 57 3c f9 07 30 3e
       -0.03420787 -0.0037748145 0.01314205 0.17190541
0003a0 6a f6 5b 3c 16 a5 cb 3d d2 c0 da 3d 73 77 99 bd
       0.013425449 0.09943597 0.10681309 -0.07493486
0003b0 08 2d 12 3d e2 83 9c bd 10 26 4f bd 99 fc ee 3c
       0.035687476 -0.07642342 -0.05057341 0.029173182
0003c0 c3 7b 61 3d db 9e b7 3d cb 2c 98 bd ab 0e f1 3b
       0.05504967 0.08965846 -0.074304186 0.007356485
0003d0 ae 45 8d 3d 71 cd c9 bd bc da a6 3d c0 ea d0 bd
       0.06898056 -0.09853638 0.08147189 -0.10201025
0003e0 1f 46 38 3b 10 39 a3 bc be 1f 79 bd dc a6 69 3c
       0.0028117967 -0.01992467 -0.060821287 0.014260974
0003f0 cd 3a a3 3d b0 77 4a bc 56 59 78 bd 03 44 86 bd
       0.079702 -0.012357637 -0.060632072 -0.06555941

net.0.bias f4 [128]
000000 9f 3e d4 bc 80 15 33 bd 27 bc 87 bd bc af 0f 3d
       -0.025908766 -0.043721676 -0.06627684 0.035079703
000010 db 39 27 bd 0e 45 64 bd 9e 18 1d 3d 6f f9 0d bd
       -0.04082666 -0.05572992 0.038353555 -0.034661707
000020 7c 32 9b 3c a9 ff 02 bc 22 74 3e 3d fe 70 99 3d
       0.018944971 -0.007995524 0.04649747 0.07492255
000030 75 1e cd bd e4 cd 49 bd 9e d4 e4 3d e6 5d 41 3c
       -0.10015575 -0.04926862 0.11173366 0.011802172
000040 b5 34 c9 bc 16 6f b6 3d 86 6b fe 3d c7 4a 12 3d
       -0.024561265 0.08907907 0.12422852 0.035715844
000050 a6 8a a7 bd 63 ac ef 3d 9f 4e cf bd 13 95 d2 bd
       -0.08180742 0.11702802 -0.10122418 -0.1028234
000060 0c 0f 57 3c 3b e4 05 bd 63 45 ea bd 9d 5e b9 3d
       0.013126146 -0.03268836 -0.11439016 0.09051249
000070 d3 d0 c1 3c de 43 87 bd 5e 9b 14 3d 52 ea a3 3d
       0.023659145 -0.066047415 0.036280982 0.080036774
000080 7c d8 3e bb 58 41 b4 3d 46 aa 7c 3d 9f 49 29 3d
       -0.0029120734 0.08801526 0.061685823 0.041329976
000090 71 5a 59 bd 19 64 af bd e8 81 e9 ba 5c 2b 1d bd
       -0.053064767 -0.08564014 -0.0017815204 -0.03837143
0000a0 1a d5 e6 bd b4 e7 d6 bd 45 4f 81 bd ae c9 a2 3c
       -0.11271115 -0.104934126 -0.063139476 0.019871559
0000b0 96 bf 15 bd 71 17 c4 bd 0c 1d a1 bc 9e 99 e5 bc
       -0.036559664 -0.095747836 -0.019667171 -0.028027352
0000c0 a2 35 01 bd 67 67 99 3d 3c 6b 5a 3d 40 91 9c 3d
       -0.03154529 0.074904256 0.053324923 0.07644892
0000d0 bf a0 ea 3d 28 52 cc 39 35 b6 6c bd 0b e5 09 bc
       0.11456441 0.00038971123 -0.057790954 -0.0084164245
0000e0 11 f7 e0 3c e8 7c 14 bd 05 ec ad 3d f0 ca 60 3d
       0.02746156 -0.036251932 0.08492283 0.054881036
0000f0 bc 32 af bd 9a 62 c4 3c db 67 f5 3b 81 86 5c 3d
       -0.08554599 0.023972798 0.007489187 0.05383921
000100 8f 28 6d bd 70 cb d0 3d 95 25 0e bd f0 c3 48 3d
       -0.057900008 0.101950526 -0.03470381 0.049014986
000110 f0 40 69 bd 92 f3 0c 3d e1 8a 0a bd 7b 69 41 bd
       -0.056946695 0.034411974 -0.03382385 -0.047219735
000120 02 b5 b9 bd a7 4d 2b 3d 34 e9 d2 3c 17 63 f3 3c
       -0.090677276 0.041822102 0.025745966 0.029710336
000130 2a d9 71 bd a9 6b ca 3c 8c 4d 71 bd a6 d4 f0 3c
       -0.059044994 0.02470954 -0.058911845 0.029398274
000140 e5 ee dc 3d c4 c0 be bd 60 39 33 3d 11 2a 9b bd
       0.10787753 -0.09314111 0.04375589 -0.07576383
000150 f6 d5 21 3d 70 ac cb bc 54 3c 2a 3d c6 d7 a6 bd
       0.03951069 -0.024862498 0.04156144 -0.08146624
000160 06 4a a4 3d 6d 5f 94 3d 78 8f 9e bd 9b 4f 97 bd
       0.08021931 0.072447635 -0.07742208 -0.073882304
000170 17 92 98 3d db a5 9a bd f1 ef 2b 3d c7 5c 30 bd
       0.074497394 -0.07551166 0.041976873 -0.04305723
000180 d4 de c4 bd 7d 0f e9 3c f5 48 10 bd 29 e4 68 bd
       -0.096128136 0.028449768 -0.035225827 -0.056858215
000190 bc c3 37 3d b4 74 2f 3d 97 c2 a4 3d 7d bd e0 3d
       0.0448644 0.042835906 0.080449276 0.10973642
0001a0 e3 d8 25 3d 84 e1 06 bd 0f a8 31 bc 2a 22 ac 3d
       0.040490042 -0.032929912 -0.010843291 0.08404954
0001b0 fd 4b cd bd 38 81 ba 3d 07 b5 40 3d 70 f9 22 3d
       -0.10024259 0.09106678 0.04704764 0.039788663
0001c0 ae 7f 0b 3d f6 07 c3 bd 46 87 1c 3d 44 66 44 bc
       0.03405731 -0.09523003 0.038214944 -0.011987273
0001d0 9f e8 bb 3b 46 29 63 bd fc 18 b1 3d 05 72 12 bc
       0.0057345177 -0.055459283 0.086473435 -0.008938317
0001e0 2b 95 3a bc 64 07 b9 bd dd 67 c7 3d 95 fc d9 bd
       -0.0113881035 -0.09034613 0.09736607 -0.10643879
0001f0 31 53 9a 3d 75 47 39 3d 85 6e 75 3c 7e f7 e1 bd
       0.07535399 0.045234162 0.014979963 -0.110335335

net.2.weight f4 [128, 128]
000000 b6 09 e7 bc 03 e2 84 bd 8d 88 cf bc df 3f 19 3d
       -0.028202873 -0.06488421 -0.025333667 0.037414428
000010 6c 9a 47 bc b7 8b b0 bc 2c a2 3c 3d d7 f2 56 3d
       -0.012182813 -0.021550996 0.046053097 0.052477684
000020 9a d5 9e bd ac 11 14 3d a7 e6 29 bc a5 bf 8a 3d
       -0.07755585 0.036149666 -0.010369933 0.067748345
000030 19 e0 9d bd 30 40 9b bd d4 0d 91 bc bd a7 00 3e
       -0.07708759 -0.07580602 -0.01770679 0.12563987
000040 f0 66 55 3d 1e 57 b9 bc fd 9d 4d bc dd 18 df bc
       0.052100122 -0.022624549 -0.012549874 -0.027233535
000050 5b 5d ce 3b d3 4e bf bb 9d 16 87 bc e6 06 a6 3d
       0.00629775 -0.005838254 -0.016490275 0.081067845
000060 17 92 07 3d f0 7f b0 3d 4b e3 5c bd cb 28 a8 bd
       0.033098307 0.08618152 -0.0539277 -0.08210906
000070 80 63 f7 bb 8b c2 98 ba cc 8c 4c 3d 61 bb aa 3d
       -0.007549703 -0.0011654658 0.049938962 0.08336521
000080 a8 d7 7a bd 51 6a b9 3d bf d9 82 3d 38 08 a9 3d
       -0.061240822 0.09053481 0.06389188 0.08253521
000090 48 8f bf 3c f2 76 fa bc a2 de 9c bc d3 47 96 bb
       0.023383752 -0.030574296 -0.019149128 -0.004586199
0000a0 af 87 79 bd 45 5c 25 bd 79 d6 8f 3d 0c 55 44 3d
       -0.060920414 -0.0403712 0.07023329 0.04793267
0000b0 b7 76 a2 3c 30 28 0c 3c c8 39 9c 3c 7c 44 df ba
       0.019831998 0.008554503 0.019070521 -0.001703396
0000c0 b7 14 67 bd 9e 4e 24 bc 5e 43 03 bd f7 32 84 bc
       -0.05641624 -0.010028509 -0.03204667 -0.016137583
0000d0 ae b1 89 bc 1d 96 2b 3a f1 15 95 bd e8 17 0b bd
       -0.016808357 0.0006545501 -0.072795756 -0.033958346
0000e0 23 c2 02 bd 39 4f 03 bc bf f9 97 bd 16 4c 9a 3d
       -0.031923424 -0.008014494 -0.07420682 0.075340435
0000f0 e3 a9 3c bd 46 6c aa 3d ba fd dc bd 8c e4 db bb
       -0.046060454 0.08321433 -0.10790582 -0.0067105945
000100 33 e1 a4 bc a9 37 2f bd 32 55 fb bc 20 18 a2 bd
       -0.020126915 -0.04277769 -0.030680273 -0.07914758
000110 df b8 27 3d 2e 4b 8c 3d 39 b5 a1 bd 6c 2c 97 bc
       0.04094779 0.06850277 -0.078958936 -0.0184538
000120 84 e2 81 bd af c9 bd 3c d6 c8 51 bd 76 c8 ba 3d
       -0.063420326 0.02316746 -0.051216923 0.09120266
000130 eb 56 2e bc 1b d5 9a 3c 29 e4 b9 3d 7f 88 aa bd
       -0.01064084 0.018900445 0.09076721 -0.08326816
000140 1f 25 49 bd 07 d8 5e bc 4c 20 ae bd d4 35 c9 3c
       -0.049107667 -0.01360131 -0.08502254 0.0245618
000150 e7 94 39 bc 84 cc a9 bd 71 14 0d bd 48 13 7f bd
       -0.011327005 -0.082909614 -0.034443323 -0.062274247
000160 49 ff f6 3c 3a e0 af 3d 08 8f ba 3d 5a af 9f bd
       0.030151026 0.0858769 0.09109312 -0.077971175
000170 f5 57 29 3d ba 69 12 3c 7a 60 1c 3d d4 7b 3c 3d
       0.041343648 0.00893634 0.038177945 0.04601653
000180 e0 71 ac bd 1e ee 9f bd bb 9a 2b bd 4e 4f a5 b9
       -0.084201574 -0.07809089 -0.04189561 -0.0003153034
000190 6e 16 31 3d c6 fd 28 bd bf b8 f0 bb 2b 83 30 bd
       0.04323428 -0.041257642 -0.007346242 -0.04309384
0001a0 57 36 c0 3d ba f7 a5 bd d3 9e 1f bd ee e7 1e 3d
       0.093853645 -0.08103891 -0.038969826 0.038795404
0001b0 e6 26 98 bd c8 f3 94 3d 58 fb bd bd e2 e5 a7 bc
       -0.07429294 0.0727306 -0.09276456 -0.020495359
0001c0 78 d5 0c bd 84 de ce 3a cb 1f 23 bd 5f 23 26 3d
       -0.034383267 0.0015782868 -0.039825242 0.040561076
0001d0 70 7f 67 bd 16 3c 3a bd 55 c1 a8 bc 28 98 85 bd
       -0.05651802 -0.04546746 -0.0206 -0.06523162
0001e0 47 da c2 bd 42 43 70 3d 82 bd dd 3d 7e e4 72 bc
       -0.09514289 0.058657892 0.10827161 -0.014824985
0001f0 e1 91 70 bc b7 f9 0b 3d e3 8b a9 3c 27 75 a2 bd
       -0.014683218 0.034173694 0.020696586 -0.07932501
000200 0d 3b ab 3b 4f 3f 06 3e b7 3c 83 3d 4d 3f 3d bd
       0.0052255453 0.13110088 0.06408065 -0.046202946
000210 d7 19 81 3c a0 73 86 bc 1e c1 f8 bd b1 39 21 bd
       0.015759392 -0.016412556 -0.12146209 -0.03936166
000220 94 66 de 3d 90 f4 25 3d 14 16 61 3d 37 2a 91 bd
       0.10859409 0.040516436 0.054952696 -0.0708813
000230 70 3f c7 bb 03 5c d0 3d 24 95 a2 bc 5f c0 8c bc
       -0.0060805604 0.101738 -0.019846506 -0.017181573
000240 6c a3 56 bd c5 01 8c bd 85 c7 8b bc a8 2b 1e bd
       -0.052401945 -0.06836275 -0.017062912 -0.038615853
000250 ac 10 92 bd 1a 8e c4 3d b8 de d2 3d 21 53 ec bd
       -0.07132086 0.09597416 0.102963865 -0.11539293
000260 ab 24 eb bc be ab 91 3d 98 eb af 3d 6e 30 90 bd
       -0.028704008 0.07112835 0.08589858 -0.07040487
000270 f8 79 2d bd 5e 04 5a 3d 8a 9f 46 bc 68 cf d3 bc
       -0.042352647 0.05322682 -0.012122998 -0.025855735
000280 50 cb 80 bc ec 03 ff 3c f1 f9 05 bd 59 f2 e0 3d
       -0.015721947 0.0311298 -0.032709066 0.10983724
000290 87 67 94 3d 81 94 27 bc 63 b3 33 bd 72 86 84 3d
       0.07246309 -0.010228277 -0.04387225 0.06470956
0002a0 41 06 fe 3c 78 95 66 bd 19 44 93 bd 16 b3 5a 3d
       0.031008841 -0.05629489 -0.07190723 0.053393446
0002b0 8c df 0b bd e2 d5 34 bd bf 46 8d 3d 70 29 8b 3c
       -0.034148738 -0.044149287 0.06898259 0.016987532
0002c0 d0 12 b1 3d a6 09 1c 3d a2 58 c8 3d 6b 47 b9 3d
       0.08646166 0.03809514 0.0978253 0.09046825
0002d0 7d 03 21 3d be 25 a5 3d a2 d2 68 bd 7d 49 b9 3d
       0.039309967 0.080638394 -0.0568415 0.0904722
0002e0 df e8 5c 3c 83 92 cd 3d f9 19 21 bd ea ed 75 bd
       0.013483255 0.100377105 -0.03933141 -0.060041346
0002f0 b4 5f 8a 3d 15 8f 7f bd 08 09 eb 3c f0 4b 24 3e
       0.06756535 -0.062392313 0.02869083 0.16044593
000300 46 0a 62 3d 52 9a 61 bd 82 93 52 bd 0d 45 16 bd
       0.05518558 -0.055078812 -0.051410206 -0.036686946
000310 6c 85 a5 bd a7 69 5d 3d 7b 88 7c 3d 58 5a 95 3d
       -0.08082089 0.054055836 0.061653595 0.07292622
000320 55 a9 8b 3d 0e e5 b5 3d 64 44 1d bd c7 58 8f 3d
       0.06819407 0.08881579 -0.0383953 0.06999355
000330 d0 cf 8d bb fa fe 82 3d 88 24 dd 3c 8d 6f aa bc
       -0.0043277517 0.06396289 0.026994959 -0.020805145
000340 b6 5e 86 3d 98 2a 00 3e b7 18 67 3d 56 67 a0 bc
       0.065610334 0.12516248 0.056420054 -0.019580524
000350 f6 26 81 bc 1f 02 95 3d 48 a6 d2 bc 2b 94 1b 3d
       -0.015765648 0.07275795 -0.025714055 0.0379831
000360 86 8d 26 bc 64 75 82 3d a3 55 b4 bc 2a f7 95 3d
       -0.010165578 0.06370047 -0.022013491 0.073225334
000370 8f dd c1 3b 41 f6 ef 3c d5 bb 82 3d f2 12 82 3d
       0.0059163044 0.029292228 0.06383482 0.0635127
000380 c2 1c 56 3d e1 28 7a bd 40 08 07 bb 9c 64 c8 3d
       0.05227352 -0.06107414 -0.0020604283 0.09784815
000390 14 40 c1 3d 43 92 f3 bd 98 36 78 bd 15 fd 3c 3d
       0.0943605 -0.118931316 -0.06059894 0.046139795
0003a0 82 76 8c bd 02 92 3f bd bb d0 41 bd 11 d3 3c bd
       -0.06858541 -0.046770103 -0.0473182 -0.046099726
0003b0 2f bd 0c bd 3e 58 01 3e c3 fa a3 bd e6 70 61 3d
       -0.034360107 0.12631318 -0.080068134 0.05503931
0003c0 55 ec 6f bd ad 02 76 bc 2e fd f1 bc 2f 25 26 3d
       -0.058574993 -0.015015286 -0.02953967 0.040562805
0003d0 ec 70 19 bd 31 99 c4 bc d3 fd d5 bc 68 02 36 bc
       -0.037461206 -0.023998829 -0.02612201 -0.011108972
0003e0 b5 ae 13 3d 08 99 a2 3d 04 ad 50 3d 83 61 e3 3c
       0.036055285 0.07939345 0.05094625 0.027756458
0003f0 b2 49 8d bd 1a 4e fb 3c 32 d8 3a 3d bd 29 a2 3d
       -0.06898822 0.03067689 0.045616336 0.07918117

net.2.bias f4 [128]
000000 76 23 fb bc f2 7d 4f bd f1 0e 95 3d c6 a5 91 3d
       -0.030656558 -0.05065722 0.072782405 0.07111697
000010 ff 51 9c 3c ac ab 41 bd a8 91 0a 3d 8c 5f 46 bd
       0.019082068 -0.04728286 0.033830315 -0.048430964
000020 c8 e1 9a bd ac 4d a6 3d 5e 84 4e 3d a1 73 e9 bc
       -0.075625956 0.081202835 0.050419204 -0.028497519
000030 77 b5 8c 3d ea 52 c0 3b 26 9c 02 3d ad 9a 8d 3a
       0.06870549 0.005869259 0.031887196 0.0010803543
000040 1c 33 8d 3d b3 61 84 3d 3f 2c 7b ba dc 16 4d 3d
       0.06894514 0.06463947 -0.00095814833 0.05007063
000050 d9 03 26 3d 1f 72 4d 3d fe 53 89 bc 42 db 2f bd
       0.040531013 0.050157662 -0.016763683 -0.04293371
000060 d2 e0 97 3d 5a 2e 50 3d 47 f1 a2 bd 56 15 8d 3c
       0.07415928 0.050825454 -0.07956176 0.017222088
000070 e4 be af 3d 7a c3 66 3d f0 cf 5b 3d 9c e4 6a 3d
       0.08581331 0.056338765 0.0536651 0.057346925
000080 7a 5f 9f bd 52 70 5f bd 90 40 a5 3d eb b0 d0 3c
       -0.077818826 -0.054550476 0.08068955 0.025474986
000090 d1 3c 00 bd ca 0e aa 3d e4 0f 90 bc 1d 48 86 3d
       -0.031308 0.08303602 -0.017585702 0.06556723
0000a0 85 01 cf bb 33 06 7c 3d bb be f7 3c 1c 7b b2 bd
       -0.00631732 0.06152935 0.030242315 -0.087148875
0000b0 b6 24 24 3d e3 1e 96 bc b0 0a 25 3d 44 5f f9 3c
       0.040074073 -0.018325275 0.040293396 0.030440934
0000c0 23 81 2a 3d ec f8 33 bd 1c f1 85 3d 20 6f 32 3d
       0.04162706 -0.043938562 0.065401286 0.04356301
0000d0 18 ad 9b bd 64 e4 bc 3d 8b 3f 5b 3c e0 f8 a4 3d
       -0.076013744 0.092232496 0.013381849 0.08055282
0000e0 a0 c6 0a bd f0 89 73 bd 54 31 28 3c 33 d2 ad 3c
       -0.03388083 -0.05945772 0.010265667 0.021218395
0000f0 09 9a 53 3c e1 40 a6 bb 5d 15 72 bd 50 43 fa bb
       0.012915143 -0.005073652 -0.059102405 -0.007637419
000100 09 15 90 3d 03 de 8a bd ab b8 8f 3d 4a ad a7 3b
       0.07035262 -0.067806266 0.070176445 0.005117093
000110 9b 7f ff bc 6b 29 22 bd 30 2d 98 3d a7 b4 a1 bd
       -0.031188777 -0.03959028 0.07430494 -0.07895785
000120 c5 4a 6f bd 5f 22 9f bd 42 55 9c bd 78 e1 1f 3d
       -0.058420915 -0.07770228 -0.07633449 0.039033383
000130 93 45 81 bd 2d eb 47 3c f7 f1 55 3d 5c 35 96 bd
       -0.06312098 0.012202066 0.05223271 -0.07334396
000140 c2 7e 6e 3d 2b 1b 4b bc c1 ab 92 bd f5 01 28 3d
       0.058226354 -0.012396614 -0.07161666 0.04101749
000150 10 e1 aa 3d 83 a6 82 bc 30 05 e6 3a d2 06 5d 3d
       0.083437085 -0.01594854 0.0017549153 0.053961582
000160 c9 25 0e bd e7 01 ac 3c 96 f5 82 3c 5a 43 bf 3c
       -0.034704003 0.020997 0.015986245 0.023347545
000170 b8 bc 90 ba 20 28 81 bd 06 c5 4a bd 2e 52 67 bc
       -0.0011042571 -0.06306481 -0.049504302 -0.014118714
000180 cd 62 60 bd f6 e1 1e bd a4 bc 82 3c 7f 9b dc 3b
       -0.054781724 -0.038789712 0.015959091 0.0067324038
000190 ab b7 bf 3b be 32 d9 bc 71 bd 03 3d 81 8e 95 bd
       0.0058507523 -0.026513454 0.032163087 -0.07302571
0001a0 19 69 57 3d 36 3c a4 3c 29 39 54 3d 19 5b 2d 3d
       0.052590463 0.020048242 0.051812325 0.042323206
0001b0 8d da a4 3c 0e 57 c6 bc f9 c5 37 bb d1 f2 14 3d
       0.020123744 -0.024211433 -0.0028041585 0.03636438
0001c0 d6 b3 bb 3d 07 be 49 3d 09 4f 86 3b 51 cf 2b bd
       0.0916516 0.04925349 0.004098777 -0.04194576
0001d0 d6 78 23 3d 2e ec 35 3d 27 b8 68 3d e5 f8 0f 3b
       0.03991016 0.04441469 0.056816246 0.002196842
0001e0 46 16 b4 3d 54 b9 82 3d ee c2 93 bc f1 d8 80 3d
       0.08793311 0.06383005 -0.018037286 0.06291378
0001f0 f5 c9 53 3d 38 0f ea bc c1 02 47 3d ed 49 a6 3d
       0.051706273 -0.02857171 0.04858661 0.08119569
