ddqn_out/dqn_ep2500.pt (torch, 464501 bytes, 24 tensors)

net.0.weight f4 [128, 77]
00000000: ffb9 ba3f 0326 683d ff2c c1bd aac0 93bd
00000010: 8645 2fbd 3d80 823c ea8e bbba 2a79 893d
00000020: 8b02 babc 5de0 d63d f689 ca3c 1f7b 0fbd
00000030: 993b b2bd 67fc bbbd 6232 d4bb 2338 4a3c
00000040: ab77 263d 59f7 853d f3d9 a0bd 1d85 5dbd
00000050: 354a 173d 08e1 983d 9cac 1ebc b80d a83d
00000060: f9aa 51bd 53b3 2b3d 9df3 c73d fe6d ffbd
00000070: e84c 02bd 6a2c ba3b c195 84bd 1524 2b3d
00000080: 68ef 97bd 73cb 49bd a14b 90bd 7bef cfbd
00000090: 2fab 78bd 09f6 c33d 8d08 3e3d b1fb 4f3d
000000a0: 0c14 023b 1dd5 10bd 7315 6c3c 1995 f7bd
000000b0: 8d1e 47bd 13e3 0bbd 2432 083d debf 5c3d
000000c0: 16b5 d3bb a275 52bd 75a2 1f3d fd45 ce3d
000000d0: cb2e 9cbc 3a01 cb3c 74fd 913d 2141 84bd
000000e0: 6733 b73c cf13 bebd 59e3 aabd 2410 56bd
000000f0: 7860 b63d 5b6c 613d 9946 f5bd 4d77 0e3d
00000100: ced2 c53d 2606 3fbd 5093 ea3d 63bd 523c
00000110: 1d0c acbc cad5 c83d 4646 33bd fc04 a2bd
00000120: fddf 583d 0abe d83d a786 bd3d c5cf c93d
00000130: a848 953c c026 4e3f 0dee 5e3c 4192 7cbd
00000140: dfcd 3dbc d437 db3d 990b ab3d 9439 1bbe
00000150: 531a dd3c cdb2 efbc e68e 5bbc 9e42 56bd
00000160: 214b dc3d 07d8 5fbd cea0 423d 9357 893d
00000170: ed25 a43d aaf2 4c3d a10b ecbd fcea 91bd
00000180: c9dc 753d ebfa dc3c e1df acbd 4873 34bb
00000190: d448 023e 256b 983d 94d9 51be f432 36bc
000001a0: 635c fabd c053 dcbc fe16 b1bd e4d9 febd
000001b0: abd1 143b 8cdf f8ba 5f6f 97bb 38b5 933d
000001c0: e055 a0bd 303e bc3d e77d 993d 3e6b bebd
000001d0: 21c4 cebc 28c2 5cbc 9f4e 203d 3cff 6e3c
000001e0: a95c 5c3d 6693 73bd 3468 79bd 8e9b 423d
000001f0: 5973 04be a0be 6bbd 1835 dabc 71c4 fbbc
00000200: e7bd cfbc c35e aabc 2608 61bc 14b8 803c
00000210: 9eb3 a3bd a14b 09b9 2478 ad3d 41c6 0cbc
00000220: 2b1d 92bb 3a6e 9ebc bf8f 6e3d aafc 863d
00000230: 1c39 fb3d 58ec e03d 5ab4 fc3d 710e 6e3b
00000240: 34e8 99bd 4fd9 aabd 27b5 a93d e00c dbbb
00000250: 56c4 11bd 1d00 9abd 504c e2bd 7826 cdbd
00000260: c5f4 9fbc 7f63 863d 6da7 0840 2085 c7bd
00000270: 7a4f 9b3d e193 4cbd ce01 073c fadb 06bd
00000280: ba3e d83c 7b0f a1bb 4da2 a9bd 7b11 8cbd
00000290: 66dc 98bc 9b7e 623d 72fb 39bd 7e31 243d
000002a0: d8ab a1bd abef 1f3c 958c d83d df2e 22bd
000002b0: d220 e93d d52f 5c3d 7a0e b9bd 6473 993d
000002c0: 15a2 1c39 975f 05bd 1afc c03d 7c57 6abd
000002d0: 4369 da3c e1f0 40bc 736d bc3d 44da 3e3d
000002e0: 811c df3d 9d62 f93c 4ea0 4ebc bea4 dbb9
000002f0: 1cb5 bebd 628c 983d 248b ce3d b691 bb3d
00000300: 260f 8bbd d3ea 8f3c 821e 92bd c44e b9bc
00000310: 277e 3dbd 46a7 453d c31e d4bc 0e5a 8dbb
00000320: 33da c6ba abb7 673d b397 3fbd 4e37 993c
00000330: a302 83bd 8ea0 913d 9174 fdbc 9e60 fd3d
00000340: 0e70 333d f207 003d a95a 7c3c 2d89 24bc
00000350: 8d69 db3c 7075 583c 0456 72bc c617 073d
00000360: 66d3 85bd a2bf 60bc 371c 023e 6ee8 d1bd
00000370: c281 a4bd 2a9b ef3d 46c9 0b3e 664c 5abc
00000380: 6275 eabd 7f2f b83d 186c f6bd 7505 24bd
00000390: 4770 eabc 39b1 d23b 73fc 603c 40d2 283f
000003a0: a7e8 0a3c 4c65 a43d 6cf9 e03d 186b a1bd
000003b0: 95f4 c13c 2ed6 89bd 70bc 1abc 9fae 0b3d
000003c0: 852e 103d 5113 b43d ad8d 20bd b27e 743a
000003d0: 4b15 c33d 5f6c bbbd df25 963d dc2e b4bd
000003e0: 7b5d 5d3c d0ca 34bc c4b1 86bd 1999 183c
000003f0: 3221 3c3d 6d4b ad3b e003 91bd 0c3a 64bd
1.4588012 0.056676876 -0.094324104 -0.07214482 -0.042790912 0.01593029 -0.001430956 0.06712563
-0.02270629 0.10492013 0.024723988 -0.035029527 -0.087027736 -0.09179001 -0.0064757327 0.012342486
0.040641468 0.065413184 -0.078540705 -0.054082025 0.036936004 0.07464796 -0.009684708 0.08205742
-0.051188443 0.041919064 0.097632624 -0.12472151 -0.031811625 0.005681564 -0.06473876 0.041782457
-0.0741871 -0.04926629 -0.07045675 -0.10153099 -0.06071013 0.09568412 0.046394873 0.05077714
0.0019848375 -0.03535949 0.014409411 -0.12088985 -0.04861312 -0.0341521 0.033250943 0.053893916
-0.006460796 -0.051381715 0.03897329 0.10071943 -0.019065281 0.024780858 0.071284205 -0.06457735
0.022363378 -0.09281122 -0.083441444 -0.052261487 0.08905119 0.055034976 -0.11976356 0.034781743
0.096593484 -0.046636723 0.11453879 0.012862536 -0.02100187 0.09806402 -0.04376819 -0.07911107
0.052947987 0.10583122 0.092541985 0.09854082 0.018223122 0.8052788 0.01360656 -0.061662916
-0.011584728 0.10704008 0.083518215 -0.15158683 0.026990091 -0.029260064 -0.013400769 -0.052309625
0.10756517 -0.05464938 0.047516637 0.067061566 0.08015046 0.05003611 -0.115256555 -0.07124898
0.06002501 0.026975116 -0.08441139 -0.0027534533 0.12723094 0.07442311 -0.20493156 -0.011120547
-0.122246526 -0.026895404 -0.086469635 -0.12443903 0.002270798 -0.0018987521 -0.0046214308 0.07212299
-0.07828879 0.09191549 0.07494717 -0.092977986 -0.025240006 -0.013474025 0.03913748 0.01458722
0.053799305 -0.059466742 -0.06089039 0.04751163 -0.12934627 -0.05755484 -0.026636645 -0.030733319
-0.025359107 -0.020797139 -0.013734853 0.015712775 -0.07993244 -0.00013093512 0.08470181 -0.008592189
-0.0044590435 -0.01933967 0.058242556 0.065911606 0.12266752 0.10982579 0.12339087 0.0036324526
-0.07514992 -0.083422296 0.08286505 -0.0066848844 -0.03558763 -0.07519553 -0.11049712 -0.10017103
-0.019525895 0.06561946 2.1352189 -0.097421885 0.07583518 -0.049945716 0.008240176 -0.03292463
0.026397098 -0.0049151755 -0.082829095 -0.06839272 -0.018659782 0.05529652 -0.045405813 0.040086262
-0.07894105 0.009761731 0.10573689 -0.03959548 0.11383213 0.053756554 -0.09035964 0.07492712
0.000149377 -0.032561865 0.094230846 -0.057212338 0.02666152 -0.01177618 0.09200563 0.046594873
0.108941086 0.03044253 -0.012611462 -0.00041893678 -0.093118876 0.07448651 0.10085133 0.091586515
-0.06789999 0.017568028 -0.07134725 -0.022620566 -0.046262886 0.048255228 -0.025893575 -0.004313714
-0.001517123 0.056571644 -0.04677553 0.01870313 -0.06396987 0.071107015 -0.030939372 0.12371944
0.043808036 0.031257577 0.015402474 -0.010042471 0.026783729 0.013211593 -0.014791016 0.032981656
-0.06534462 -0.013717564 0.12706076 -0.102494106 -0.08032562 0.11699517 0.13650998 -0.013323879
-0.1144817 0.08993434 -0.12032336 -0.040044267 -0.028617991 0.006429818 0.013732064 0.65945816
0.00847832 0.08027133 0.109850734 -0.07881755 0.023676196 -0.06730305 -0.009444341 0.03410208
0.035200614 0.08792747 -0.039197613 0.00093267404 0.09525546 -0.091515295 0.07331442 -0.08798
0.013511057 -0.011034682 -0.06576875 0.009313845 0.045930095 0.0052885325 -0.07080817 -0.05571942

net.0.bias f4 [128]
00000000: 7e95 e7bc 230f 31bd de86 86bd 9cd8 f63c
00000010: f759 50bd 7a9e 72bd 4633 413d f0e4 1dbd
00000020: c42b a23c 5ea1 64bc 6bbb 733d 1429 883d
00000030: 2097 b0bd 5082 5dbd a35a 063e 3172 003c
00000040: 25a6 e5bb ad5e b03d beb6 0b3e 97f8 0e3d
00000050: aabe 81bd 7a34 ec3d c66f d9bd 888f b9bd
00000060: 12dd e03c 2740 26bd a99b dabd b5e7 bd3d
00000070: 3c90 af3c 0ded 8abd 071c 513d e8cd d23d
00000080: 3e80 17bc 1734 ac3d f50d 6d3d aa27 2e3d
00000090: 7882 63bd c4a4 9bbd 6cbd 23bc 869e babc
000000a0: 7bde c6bd 7981 cfbd b2d3 66bd 7943 923c
000000b0: 8934 14bd 7117 c4bd 737a ddbb cef9 01bd
000000c0: f5fe 16bd 8d96 8c3d 0a40 303d f63d 943d
000000d0: d11b e93d 6736 8f3c 1de4 46bd 10f2 50bc
000000e0: 8ba6 2f3d 627d 20bd 2dea a13d 70e5 7d3d
000000f0: 7b17 6bbd f77e d73c ecb1 443b ad89 533d
00000100: a714 5bbd 65ea e53d 300c 0cbd 4821 3a3d
00000110: f9c4 80bd def1 543d 9057 02bd a03a 3abd
00000120: 1f4b b8bd 069a 333d aab7 313d 5d64 d73c
00000130: 6426 87bd a398 923c 0828 67bd 7b81 383d
00000140: bb87 f33d dbe7 bfbd 864d 213d 7add 76bd
00000150: dd86 143d 70ac cbbc a77c dc3c d719 a0bd
00000160: 3417 a43d cc4b 8b3d 141b a7bd 8980 a0bd
00000170: b6da 953d b725 9bbd 5cc6 203d 27b4 3abd
00000180: 7790 c0bd 18a9 303d 23d9 1dbd 6efc 47bd
00000190: acc0 3a3d b12a 603d 7719 ba3d c74f df3d
000001a0: 1635 1c3d 7b90 febb 28d5 17bb 2595 9f3d
000001b0: be23 a6bd 7a06 c13d d43e 2a3d a9e3 3f3d
000001c0: e9b9 a33c c89c bfbd 9281 103d e508 7c3b
000001d0: 704e ae3b 5bf5 1dbd 7976 aa3d 1b4a cfbb
000001e0: c8fa 9b3b 1ede c0bd 69b1 ca3d 8ead d6bd
000001f0: 21a4 ab3d 4d27 583d 9034 e23c 7ef7 e1bd
-0.028269526 -0.043227326 -0.065686926 0.030132584 -0.050867047 -0.059233166 0.04716804 -0.03854841
0.01979626 -0.013954489 0.059504908 0.0664846 -0.08622575 -0.054079354 0.13120513 0.007839725
-0.0070083314 0.08611808 0.1364393 0.034905042 -0.063351944 0.115334466 -0.10617022 -0.090605795
0.027449165 -0.040588524 -0.10674221 0.0927271 0.021431081 -0.06783495 0.05105212 0.1029318
-0.009246884 0.08408373 0.05787464 0.042518295 -0.055544347 -0.07599786 -0.009993892 -0.022780668
-0.097104035 -0.10132117 -0.056354232 0.01785444 -0.036182914 -0.095747836 -0.006758982 -0.031732373
-0.03686424 0.06864653 0.043029822 0.072383806 0.11382259 0.017481996 -0.04855739 -0.012753025
0.042883437 -0.039182074 0.079059936 0.061986387 -0.05739544 0.026305659 0.0030013276 0.05164497
-0.053486492 0.11226348 -0.03419131 0.045441896 -0.062875696 0.051988475 -0.031821787 -0.045466065
-0.08998703 0.04384806 0.043388046 0.026292974 -0.06599119 0.017895048 -0.05643466 0.045045357
0.11891123 -0.09370395 0.039380573 -0.06026981 0.03626143 -0.024862498 0.026914908 -0.078174286
0.08012238 0.068015665 -0.081594616 -0.07837016 0.073171064 -0.07575553 0.03925167 -0.045581963
-0.094025545 0.04313001 -0.038537156 -0.04882472 0.045593902 0.054728214 0.09086888 0.10903888
0.038136564 -0.0077686883 -0.0023167823 0.07792119 -0.08112286 0.094250634 0.041563824 0.046847973
0.01998611 -0.093560755 0.035279818 0.003845745 0.005319409 -0.038564067 0.08323378 -0.0063259727
0.00476012 -0.094173655 0.098971196 -0.10482322 0.083809145 0.052771855 0.027612954 -0.110335335

net.2.weight f4 [128, 128]
00000000: 4c8c ccbc 470a a9bd 9719 9cbb ec29 b53d
00000010: 1674 bebb d618 34bc ef63 773d 89ae 843d
00000020: 1106 9abd 52b6 dd3d 49ed 033c 5212 793d
00000030: 519e a5bd c57c c0bd e51b 50bd b4cc fa3d
00000040: 9827 893d 4a38 c0bc aefd e73c 4c5e f2bb
00000050: fe90 723c 8f3d 3e3b 1d24 263c d846 d73d
00000060: 55ef f33c c4d6 fc3d acf9 2dbd 9816 a9bd
00000070: ec53 703c d255 21bb 8c9c 413d 9d36 743d
00000080: 8434 87bd 4dfa 8c3d 2fee d43d c173 743d
00000090: a0a6 b83c 2a1d cdbc e58b 70bd 3a84 8739
000000a0: 93f8 e3bc f90e f5bc ddf9 b63d 2b2e 3b3d
000000b0: d139 be3c 3028 0c3c cbc4 283c 43cb 6fbc
000000c0: 672c a0bd c61d 583c 2c47 ddbc 1a3b 0dbc
000000d0: 5b77 273c f3f8 ab3c f564 87bd 17ef a3bd
000000e0: 1d76 5dbd 332a 503c c038 15bd b0c1 5a3d
000000f0: 9820 68bd 88d0 9a3d cde1 2abd 1521 1d3b
00000100: f7aa 11bd f526 a0bc cd62 fc3b 271b e2bd
00000110: a856 743d c151 a93d f790 65bd 9d5f f1bc
00000120: bac0 a3bd e1ab 533d dae3 36bd c3d4 c93d
00000130: c11f 263d 7401 053d ae04 e63d 7ee3 89bd
00000140: 5076 0bbd a068 1d3c 4683 95bd 6f24 8d3c
00000150: f902 5dbd 84cc a9bd a2f2 eabc 1351 59bd
00000160: cb2a 043d 16c7 af3d 1c2f e43d 7ad6 97bd
00000170: 5ee0 483d 2fdd 72bc 9074 343d 734f 6c3b
00000180: 1cc0 51bd eb0b 88bd a034 3cbd a194 4a3c
00000190: 70eb c53c b8e5 c1bc 27b4 533c 689e c5bc
000001a0: 9f49 693d f30c 0bbe 74a6 aebc 8cf8 b43c
000001b0: 9b9e 79bd b19f 8d3d 18ab 06be 6579 60bb
000001c0: 1cf3 f9bc 20cd e83b cb1f 23bd 82f9 533d
000001d0: 0f87 58bd af41 0cbd 27d3 4fbd 6745 aabd
000001e0: 8eb8 bdbd 5311 893d e99e 013e 0542 82bc
000001f0: 04c4 b1bc 4e6f 5a3d 149c 293d 2775 a2bd
00000200: f84e b5ba eade e93d da0a b73d 1d68 94bc
00000210: e49e 633c bd2f 8abb 844d ffbd 2736 e9bc
00000220: d904 0a3e 0870 8f3d e725 f63c 80c3 34bd
00000230: ce1f 613c 4944 ce3d 958d 58bd 3e96 db3a
00000240: 7a5d adbd 3dd0 67bd e3ef 00bc 9168 1ebd
00000250: a9b7 fdbd 49dc 0a3e b39a 073e a462 ddbd
00000260: cdac 69bd 0675 a33d 33b7 7d3d 59d6 8bbd
00000270: 24bd 96bc 3172 a53d a1eb 1bbd c52b 60bd
00000280: eee4 c33b b6e1 ad3c c6b5 cc3b 2cb3 c13d
00000290: 3144 aa3d 09ea 12bd 2937 71bc 8470 e03c
000002a0: 333d e13c 04ef 37bc 619f aabd 7f8b a63d
000002b0: 7df3 2f3a e2d5 34bd a47f b93d f93c 413d
000002c0: ca53 943d f394 4b3d 79c4 f93d 7d5f 9d3d
000002d0: 8faa 493d ee9b 623d 0abe a3bd 7cea 093e
000002e0: 0161 623c 0b85 f23d 2a45 c0bc 0980 a9bd
000002f0: ca91 753d 7b91 c5bd edcb 703b 9e1f 453e
00000300: bd54 813d baf1 c3bd f0fa 56bc 082e aeba
00000310: 8ae5 62bd c289 cc3c c8a2 b43d 8bc9 c43d
00000320: 036f dd3d 8197 c13d 4ac7 7ebd 0ba8 e13d
00000330: b52c 2a3d b385 bd3d 13a7 883b 9d73 5bbd
00000340: 71aa d33d cbf7 2e3e 5870 743d 6796 7bbd
00000350: 7d98 1e3c 1f02 953d 4d4e aebc 37c7 9b3d
00000360: 288a 6f3c 261b 273d a6b8 8e3b bfb2 b83d
00000370: 78d4 cc3c 3127 0a3c 7145 b73d 9329 623d
00000380: 941f 953d df92 a8bd 34f1 9d38 46a6 c53d
00000390: 651c bd3d 8427 24be 0f4c b7bd 7e62 993d
000003a0: f69a 88bd 00d0 84bd 68f8 81bd 91c2 d2bc
000003b0: d051 7ebd a3f2 043e cb85 39bd a7f3 d93c
000003c0: c7ce 14bd 1d9c df3b ea92 e8bc 0dc9 b43b
000003d0: 2b41 1fbd 0030 68bd 8288 90ba 2a2e 603c
000003e0: 4f9f 2e3c 3dcc cf3d f648 6d3d 6f47 5f3d
000003f0: 0be3 aabd fbbc df3b 7a27 be3c bd29 a23d
-0.024969243 -0.082539134 -0.0047637927 0.088458866 -0.0058121784 -0.0109922495 0.06039804 0.064786024
-0.07520688 0.108257905 0.008052179 0.060808487 -0.08086837 -0.09398798 -0.050807852 0.12246075
0.06697005 -0.02346434 0.028319206 -0.007396495 0.014805077 0.002902839 0.010140446 0.10511559
0.029777208 0.12345651 -0.042474434 -0.082562625 0.014668446 -0.0024617803 0.047268435 0.059622396
-0.066018134 0.068836786 0.103969924 0.059680704 0.02254039 -0.02503832 -0.058727164 0.00025847723
-0.02782849 -0.029914366 0.089343764 0.045698326 0.023220928 0.008554503 0.010300825 -0.014635864
-0.07820969 0.013190692 -0.027011476 -0.008620048 0.010221328 0.020992732 -0.06611053 -0.08004587
-0.05406772 0.012705374 -0.036431074 0.05340737 -0.05667171 0.075593054 -0.041719247 0.0023976017
-0.035563435 -0.019549826 0.0077022077 -0.11040335 0.059652954 0.082675464 -0.056046452 -0.029464537
-0.07995744 0.05167759 -0.04465089 0.09855034 0.040557627 0.03247209 0.11231361 -0.06732844
-0.03404838 0.009607464 -0.07300429 0.017229287 -0.053957913 -0.082909614 -0.02868015 -0.053055834
0.032267373 0.085828945 0.11141798 -0.07413955 0.0490421 -0.014823242 0.044056475 0.0036058098
-0.0512086 -0.06642898 -0.045948625 0.012364537 0.024160117 -0.023669109 0.01292137 -0.024123386
0.056954976 -0.13579158 -0.021319605 0.022091173 -0.060942274 0.06915224 -0.13151205 -0.0034252044
-0.030511431 0.007104531 -0.039825242 0.05175162 -0.052863177 -0.03424233 -0.05073848 -0.08314019
-0.09263717 0.066927575 0.12658276 -0.015900621 -0.021699913 0.053328805 0.041408613 -0.07932501
-0.0013832739 0.114194706 0.08937617 -0.018116051 0.013892863 -0.0042171166 -0.12465957 -0.028468205
0.13478412 0.0700379 0.03004737 -0.044131756 0.013740493 0.10071618 -0.0528694 0.001675315
-0.08465095 -0.056595076 -0.007869693 -0.03867394 -0.12388546 0.13560595 0.13242607 -0.1080983
-0.05704956 0.07981305 0.06194229 -0.06827993 -0.018400736 0.08078421 -0.03806651 -0.054729242
0.0059782183 0.021225791 0.006247255 0.094580024 0.08313788 -0.035867725 -0.014722624 0.027397402
0.027495002 -0.011226419 -0.0833118 0.081320755 0.0006712003 -0.044149287 0.09057549 0.04717729
0.07242544 0.049702596 0.12195677 0.076842286 0.049234923 0.055324487 -0.079952314 0.13468355
0.013817073 0.11841782 -0.02347048 -0.08276374 0.05995349 -0.09646889 0.0036742643 0.19250342
0.06314991 -0.0956759 -0.013121352 -0.0013288865 -0.055394687 0.024968032 0.088201106 0.09608754
0.108121894 0.09452725 -0.062201776 0.1101838 0.041546542 0.09254017 0.0041703074 -0.053577054
0.103352435 0.17086713 0.05967745 -0.06142273 0.009679911 0.07275795 -0.021277571 0.076063566
0.014620341 0.040797375 0.004355508 0.09018468 0.025003657 0.0084321955 0.08948792 0.05521543
0.07281414 -0.082311384 7.531271e-05 0.09650855 0.092339315 -0.16030699 -0.08950054 0.07489489
-0.066701815 -0.06484985 -0.06346208 -0.025727542 -0.06208974 0.12983184 -0.04529361 0.02660544
-0.03633001 0.00682403 -0.028390367 0.005517131 -0.03888051 -0.0566864 -0.0011027011 0.013682881
0.010658099 0.10146377 0.05793091 0.054511484 -0.08344086 0.006827948 0.023212183 0.07918117

net.2.bias f4 [128]
00000000: 908d edbc 8933 8abd cff2 843d fe22 8d3d
00000010: bab4 e63b 172a 1abd beaf 313d eeb1 87bd
00000020: 3299 b8bd 899c 8b3d dbeb 913d 9530 fbbc
00000030: 8f3e b63d d179 53bc 2e2d 863c a839 96bc
00000040: b254 573d 636c b63d a465 57ba 7893 8d3d
00000050: 0623 e33c abed 003d 6857 aabc 4d58 86bd
00000060: 9023 933d c573 393d ddc7 b6bd fdf2 723c
00000070: 1ab9 923d 84ab 3c3d d756 7a3d df64 653d
00000080: 702c a0bd bad1 7dbd 9d65 cd3d 4558 443b
00000090: c4a5 38bd e334 a63d f612 413b c9d8 2e3d
000000a0: 364b 8ebc 7a3d 403d 522d 433c b43c aabd
000000b0: d241 c23c 3a67 09bd b48c 763d 07f1 733c
000000c0: deda 5e3d 3932 69bd a30b 4a3d 3640 283d
000000d0: b139 77bd 4630 9e3d 3b52 b53c 3bc1 a13d
000000e0: a62f 4fbd 81aa 7dbd 11f3 b8ba e50b e13c
000000f0: ed20 17ba e2ba 88bc 740e 81bd 4096 8abc
00000100: 9f4c 4f3d 6616 b0bd f881 5a3d 6326 58bc
00000110: 6f96 40bd 0fcd 26bd 57ee 773d 4241 a1bd
00000120: 09c6 0cbd 8119 b9bd a345 a5bd acc0 2b3d
00000130: 9345 81bd f800 9cbb 96cc 113d 865a 96bd
00000140: 268b 313d 8d1c cfbc fca6 abbd 2ec7 d43c
00000150: 674c 883d 2f26 00bd 434a 3a3c 8fe1 2d3d
00000160: e26c 49bd c1dc 323c 293b 373b 6f49 b13b
00000170: 45d9 2dbc 5328 8fbd 7a4c 18bd 3439 debc
00000180: 8927 1ebd 77a6 fbbc 4137 bb3b e88b 0abc
00000190: abb7 bf3b 9503 2bbd 6d2a 993c 9130 74bd
000001a0: bb2e 273d 860c 923b 96c0 343d 3d42 003d
000001b0: 6f89 363b a172 80bc 2bbf 4c3c fa90 ac3c
000001c0: fc2f 9d3d 6242 073d 7dbe 80bc d504 7cbd
000001d0: 8195 d43c c7a1 673d 5df7 213d 8d6e 44bc
000001e0: 443c 963d 6545 433d 477f 81bb 1533 5e3d
000001f0: e405 773d 3705 86bc 9068 e73c 34e6 8a3d
-0.028998166 -0.06748111 0.064916246 0.0689144 0.0070405873 -0.037637796 0.04338049 -0.06625734
-0.09013595 0.06816966 0.07125064 -0.030662814 0.08898651 -0.012907461 0.016378965 -0.01833804
0.052571006 0.08907392 -0.0008216745 0.06912893 0.027726661 0.031476658 -0.020793632 -0.06559811
0.071845174 0.045276422 -0.0892484 0.014828441 0.071642116 0.046062008 0.061117973 0.0560044
-0.07820976 -0.06196759 0.10029147 0.002995984 -0.04507996 0.08115556 0.0029460764 0.04268721
-0.017369848 0.04693363 0.011912661 -0.083123595 0.023713026 -0.03354571 0.06019278 0.014889008
0.054407947 -0.05693266 0.049327504 0.04107686 -0.060357753 0.07724051 0.022133937 0.07898184
-0.05058255 -0.061930183 -0.0014110525 0.027471492 -0.0005765099 -0.016690675 -0.06301585 -0.016917348
0.05061018 -0.08598022 0.053346604 -0.013192746 -0.047018465 -0.040722903 0.060530033 -0.07873775
-0.03436855 -0.090380676 -0.08069923 0.041931793 -0.06312098 -0.0047608577 0.0355955 -0.07341485
0.043345593 -0.025282169 -0.08381459 0.025973883 0.066551976 -0.031286415 0.011370244 0.042451438
-0.049176104 0.01091689 0.0027958846 0.0054103653 -0.010610883 -0.06990113 -0.03718231 -0.027126886
-0.038611922 -0.030719025 0.005713374 -0.008456208 0.0058507523 -0.041751463 0.018696988 -0.05961663
0.04081605 0.0044570593 0.044128977 0.03131317 0.0027852913 -0.01567966 0.01249675 0.021065224
0.07675168 0.033022292 -0.015715832 -0.061528046 0.025950195 0.056550767 0.039542545 -0.011989248
0.073357135 0.0476736 -0.00395194 0.054247934 0.060308352 -0.016359909 0.028248101 0.06782189

net.4.weight f4 [15, 128]
00000000: 07a8 dc3d 5d91 653d 8c04 213d 2c6f 95bc
00000010: f3ff 773d 61cd b0bd 775f 03bd 35c0 da3d
00000020: 60a5 a23d 3e59 013d c378 86bd 90ba f63d
00000030: 0fcb edbd 09f1 783c 4dc2 68bb a3f2 0e3e
00000040: 7000 2b3d 490e 04be 8c3b 863d fb79 46bd
00000050: ffd7 b23d 081e ff3d 1970 ae3d d2ad e83a
00000060: 5aeb 433d fccd 873d eca6 733e 7d2c 9bbd
00000070: 6ab1 383d 407d eebc 1155 e3bc a2c7 58bd
00000080: 2347 bcbd 6df9 5ebd 946d 07be 7b39 003e
00000090: 4eea be3d bff5 ce3c 2cbd a8bc bad1 c63d
000000a0: 2426 c53d c707 983d 4905 d73d e563 603d
000000b0: ade3 a33d 3214 4c3d 7e92 09be 104d 2fbc
000000c0: 69d5 3f3c 2cbd 233e ff68 293c dacb 71bd
000000d0: 93ea dbbc 9c6d eb3d 58ba d8bd 34b9 be3c
000000e0: d464 c43d ba3a 1abe 1049 d63d 1202 94bd
000000f0: e45e 9c3d e984 8f3c e764 513c 700f d1ba
00000100: d34f d53d f927 063e 1496 dc3d 6068 b23d
00000110: aec4 903d cc3f 063d 0247 b9bc 03c3 a73d
00000120: 79d0 90bd 1426 6a3d 6ced 9d3d 25b6 3d3d
00000130: a5e4 87bd 0b1a aa3d b3f4 b63d 1cee 0f3d
00000140: cee8 48bc cd2b ca3d 8aa2 113e dcd7 d53d
00000150: 4b57 9e3d e2ae 103e 753e 073d b92f 503d
00000160: 7037 123e 89d3 413e 269c 603d bd07 fc3d
00000170: 26db ab3d a9a5 be3d 1d6f 3bbd d6b5 be3d
00000180: d247 4dbd ea78 89bd c459 87bd 9f0b 2e3e
00000190: 10cc a5bd ac4b d33d 699e cc3d ae46 88bd
000001a0: 3c18 113e d489 2b3e 0392 d63d d9f2 a43d
000001b0: 1bb1 593d 6549 7fbd 1747 70bb da7d 4e3d
000001c0: 8b0a eb3d 7309 d33d 0157 8a3d c80e 9d3d
000001d0: 12d8 d03c 11b0 be3c e492 3c3e 8f16 163e
000001e0: ab85 b73d 6710 1b3d 5a0b bdbc 97e8 f6bb
000001f0: 7a8d b3bc ca04 8c3d c4ac 493d 960f c83d
00000200: 8abd ee3c 895e 0f3e dddd e2bc 8f27 c33c
00000210: ce02 f13d f296 17bd e25f fcbd dedc a13d
00000220: 349d c93d d6a6 f73d a4c2 cfbd 2998 063c
00000230: a07c 573c 89f4 173d d71e 013e f76a ad3d
00000240: e353 213e 877c edbd 4a36 28bd a134 acbd
00000250: 7fdc d03c 9082 d43c de52 033d b179 5ebd
00000260: 2337 b7bc 4d5f 41bc 14aa 1b3e f068 e9bc
00000270: f19e 933d 8b3d 57bd 0d86 2e3c 0df9 3fbd
00000280: d9ef 653d 0239 2abd 265c 0cbe 9a54 b23d
00000290: c35b 263e 1b28 e9bd dc99 c2bd 0b0f b33d
000002a0: a754 143a 6279 a83d 6ba4 f93d 427b 203d
000002b0: 91c1 203d ad92 883d b2af 4ebd b034 d03d
000002c0: 4dc5 b3bb ca97 6c3e 82ea bc3d 79ad e6ba
000002d0: 2fc1 babb 89c6 be3d 0a00 51bc e2ea 523c
000002e0: 1ebe 2c3e dbf7 943c 3969 a0bc ae41 bbbd
000002f0: 8abc 813d a351 9a3c 9a7c 6f3d 658e 2f3d
00000300: 8eb3 c93d 90f4 dc3d 0542 d73d 8885 0c3e
00000310: bdcf 143e 9e34 2bbe 49ab b73c 99ff a7bd
00000320: 7a80 15be 7b0a 1b3e fa2f 9c3d e0e6 11be
00000330: 265b 0abd 3d9e 513e 2af6 143e a4fb 913d
00000340: 9b85 bb3d a879 fabc 61f0 483d 6b3d c93d
00000350: 385e ecbb 71db 073e 7bac 91bd d4cd 88bb
00000360: 7567 bb3d 4a11 013e 3c4f 1e3d 9dc3 c63c
00000370: 10c6 f73d e564 4e3e 0b30 3ebc 8110 ed3d
00000380: 4eb2 03be f0f6 42bd 4ce4 853d de1f 3b3e
00000390: 5e77 133b c6f2 8b3d d839 0c3d 482e aabd
000003a0: 5dc3 063e a434 ba3d a2ed bd3c 8f24 333e
000003b0: a9cd 8f3c d8e4 0c3d 810d 6abd 0874 8f3c
000003c0: a3e1 cc3d 8a0e 823d b86d 3b3e 36cf 5f3d
000003d0: 208d b03d 35c5 1a3d a1d7 803d e0e7 f13b
000003e0: ed56 a03d 6037 abbb b924 b4bd 319a 863d
000003f0: d54e 0abe 686b 403d ea28 4d3d a6a2 41bb
0.10774236 0.056046832 0.039310977 -0.018241487 0.060546827 -0.08632923 -0.032073464 0.10681192
0.07941699 0.03157925 -0.06566002 0.12047303 -0.11610996 0.015194186 -0.0035516203 0.13959746
0.041748464 -0.12896074 0.065543264 -0.048456173 0.08732604 0.124569 0.08517475 0.0017751998
0.04783187 0.06631085 0.23794144 -0.07576845 0.04509107 -0.029112458 -0.027750524 -0.05292476
-0.09193256 -0.05443709 -0.13225394 0.12521927 0.09322034 0.025263665 -0.020598017 0.09707971
0.09626415 0.074233584 0.10499055 0.054782767 0.0800241 0.049823947 -0.13434789 -0.0106995255
0.011708596 0.15990132 0.010339974 -0.0590323 -0.026845252 0.11495516 -0.10582417 0.023281671
0.09589544 -0.15061465 0.10463154 -0.072269574 0.076352865 0.017519431 0.012780405 -0.0015950035
0.10415616 0.13101186 0.10770813 0.08711314 0.07068764 0.032775685 -0.022616867 0.081914924
-0.07071013 0.05716522 0.077113 0.046316285 -0.06635407 0.083057486 0.089333914 0.03513919
-0.012262536 0.098716356 0.1422216 0.104415625 0.077314936 0.14129212 0.033018548 0.050826762
0.1427896 0.1892835 0.054836415 0.123061635 0.083914086 0.09308941 -0.045760263 0.09312026
-0.05011732 -0.06712516 -0.06608918 0.1699662 -0.080955625 0.10317168 0.09991152 -0.06654106
0.14169401 0.16751796 0.10477068 0.08054132 0.053147417 -0.062325854 -0.0036663467 0.05041299
0.1147662 0.10304537 0.06754876 0.07668835 0.025493655 0.023277314 0.1841541 0.14657043
0.08961042 0.03785744 -0.023076702 -0.007535051 -0.021918047 0.06836851 0.049237028 0.09768598
0.029143114 0.14000906 -0.027693683 0.023822574 0.11768113 -0.037009187 -0.12322976 0.07903455
0.09844437 0.12092368 -0.10144547 0.008214989 0.0131522715 0.03709844 0.1260942 0.084676675
0.15754656 -0.11596017 -0.0410674 -0.08408476 0.025495766 0.025941163 0.03206145 -0.054315273
-0.022365158 -0.011802507 0.15201598 -0.02849242 0.0720805 -0.052548926 0.010652077 -0.046868373
0.05613694 -0.041558273 -0.13707027 0.08707543 0.16245942 -0.11384603 -0.095020026 0.087431036
0.0005658366 0.08226277 0.12189563 0.039180048 0.0392471 0.06668601 -0.050460525 0.10166299
-0.0054861666 0.23104778 0.09224416 -0.0017599306 -0.005699299 0.09315211 -0.012756357 0.012873383
0.16869399 0.018184593 -0.019581424 -0.09143387 0.06334789 0.018837756 0.05846844 0.042860407
0.098487005 0.10788834 0.10510639 0.13722813 0.14532371 -0.1671929 0.022420542 -0.08203048
-0.14599791 0.15140717 0.07626338 -0.14248228 -0.033778332 0.2047052 0.14547029 0.07128075
0.091563426 -0.030575588 0.04905737 0.09826168 -0.00721338 0.13267304 -0.07112976 -0.0041749272
0.09150592 0.12604252 0.038649783 0.024263198 0.12098324 0.20155676 -0.011608134 0.115754135
-0.12860987 -0.04759878 0.06537685 0.18273875 0.0022501568 0.06833415 0.03423485 -0.08309609
0.13160463 0.09092072 0.023184601 0.17494415 0.017554121 0.03439793 -0.057141785 0.017511383
0.10003974 0.06350429 0.18303573 0.05464097 0.086206675 0.037785728 0.06291128 0.007382378
0.0782908 -0.005225107 -0.08796067 0.065723784 -0.13506635 0.04697743 0.050087847 -0.002954641

net.4.bias f4 [15]
00000000: 6524 63bd d7ff 9e3d b007 bcbc e133 10bd
00000010: e48c cd3b be93 ea3c 4deb 723d 3407 4dbd
00000020: 4fef 5d3d ac80 983d b922 b13c 1afd 8b3d
00000030: 83cc 9a3c 95ee 3e3d bc47 823c
-0.05545463 0.07763641 -0.022952884 -0.035205726 0.006272899 0.028634902 0.05930643 -0.050055698
0.0541833 0.07446417 0.021623002 0.06835385 0.018896347 0.04661425 0.015903346

net.0.weight f4 [128, 77]
00000000: c87a ba3f 1a70 673d 33db c1bd 0ca0 94bd
00000010: c00b 30bd 7871 803c c4e9 d4ba dbfc 883d
00000020: 60ec babc ce7e d63d 76e6 c63c 718a 10bd
00000030: ae89 b3bd 63f5 bdbd c82c e8bb b74b 473c
00000040: 19f0 243d f60b 853d 7a64 a1bd 063b 5ebd
00000050: 4c94 163d 5745 983d 2d77 27bc fe6c a73d
00000060: ab29 53bd 8368 2a3d fd59 c73d 446c 00be
00000070: 202a 02bd e62a a73b e9b7 84bd 98d3 2b3d
00000080: 005f 99bd 3769 4cbd dc14 91bd ba76 d0bd
00000090: a8af 7abd a126 c33d a452 3d3d c845 4f3d
000000a0: c895 db3a ddbf 12bd 4403 6b3c 20ce f7bd
000000b0: 9810 49bd cae5 0cbd 1720 043d e6de 5c3d
000000c0: 4dda dcbb 94c7 53bd 8f8d 1e3d c579 cd3d
000000d0: 4f12 9fbc d862 c83c 8eb9 913d 9834 85bd
000000e0: 063c b53c be6e bebd 483e abbd 47af 56bd
000000f0: 9818 b63d 0040 623d d49f f5bd 6746 0c3d
00000100: b891 c43d 3d8e 42bd 20bd ea3d 3301 4e3c
00000110: 9e35 b0bc 5383 c93d 1a6b 33bd 0261 a2bd
00000120: 0232 573d 0523 d83d cfdb bc3d 510f c93d
00000130: e3dc 933c 66be 4d3f ed40 553c 8b2b 80bd
00000140: 9a58 49bc cd3f da3d 7a45 a93d 8739 1cbe
00000150: 1912 d23c 262c f5bc 5da6 6bbc b58b 55bd
00000160: 8b63 db3d 547f 63bd 1777 3f3d 9e33 873d
00000170: f911 a33d 067c 493d 0390 edbd 3c25 93bd
00000180: 8471 733d 5c24 d83c c1c8 aebd ab88 5abb
00000190: 7eed 013e 9673 973d 24f5 51be 2c5a 50bc
000001a0: 692d fcbd b42b dfbc 9296 b1bd 33de 00be
000001b0: 293f b73a 81a7 10bb 2e8b c1bb ca4d 923d
000001c0: 059b a1bd df0a bb3d c14b 983d dea0 bfbd
000001d0: b09a d3bc 1253 67bc 4ac7 1d3d f5b9 6c3c
000001e0: c139 5a3d c3c9 76bd 7f40 7dbd b713 403d
000001f0: 55c1 04be f386 6dbd 1b6d e2bc 9e60 01bd
00000200: 5316 d5bc d447 afbc dc25 6cbc bb61 773c
00000210: 88ce a5bd cef7 2cba 8442 ac3d 6173 16bc
00000220: 0e0c a8bb 4e02 a4bc 97f3 6d3d beb1 853d
00000230: 0c6a f83d 9f7b dd3d 0779 f93d 8d17 5c3b
00000240: 3680 9abd 7f7a abbd 820c a83d a88b ebbb
00000250: e523 14bd d1f6 9abd 58f4 e2bd 6d78 cfbd
00000260: cde4 a5bc df2d 853d 6e88 0840 9c6b c7bd
00000270: 6c41 9b3d c1eb 4bbd c1bb 063c 6473 07bd
00000280: d529 da3c 2964 a9bb b574 a9bd 6325 8cbd
00000290: ea67 98bc b61b 623d 7358 3cbd bf02 223d
000002a0: 3dfd a1bd 17d7 203c 02b8 d83d 49ac 22bd
000002b0: 5c14 e93d d962 5c3d f6f4 b8bd 8a3d 993d
000002c0: 6759 2c39 7fbd 05bd fed0 c03d 29f4 69bd
000002d0: d330 d83c 7496 46bc 46ec bc3d 119d 3e3d
000002e0: 8ea5 de3d 54db fb3c fbcc 4ebc 70b8 6fba
000002f0: 67ce bebd e9d8 983d 1468 ce3d 136d bb3d
00000300: a2f5 8abd dc50 903c a90d 92bd 9370 b8bc
00000310: f542 3cbd 4c87 463d dc24 d3bc ca15 8fbb
00000320: a4dc 00bb db52 683d db00 40bd 5fd9 993c
00000330: cb51 83bd 0464 913d 0603 febc 533c fd3d
00000340: 4783 333d 2bac fe3c 5488 7d3c 17bd 23bc
00000350: 96cf db3c ade1 593c 4d3e 6dbc be89 083d
00000360: e085 85bd 2822 60bc fdb8 013e c404 d3bd
00000370: 0bb2 a4bd dd66 ef3d eec5 0b3e e86b 55bc
00000380: f64e eabd f613 b83d 01a3 f6bd 04ed 23bd
00000390: 35bd ebbc 1bc9 d13b 89c8 613c eecd 283f
000003a0: d675 0c3c ed38 a43d c6cd e13d 3de6 a1bd
000003b0: 37cf bc3c 2c5e 8abd 3796 21bc fd31 0c3d
000003c0: d582 0f3d 668c b33d c6a0 1fbd 9fd7 653a
000003d0: 573c c13d 395b bbbd 7c8b 953d dbfc b3bd
000003e0: 1bbe 503c 30c7 35bc 1f80 86bd 4826 1a3c
000003f0: 7e5d 3b3d 8f09 b63b af44 91bd bf97 65bd
1.456872 0.056503393 -0.09465637 -0.07257089 -0.042979956 0.015679106 -0.0016243984 0.06688853
-0.02281779 0.10473405 0.024279814 -0.035288278 -0.08766495 -0.092753194 -0.0070854165 0.012164048
0.040268037 0.06496422 -0.078804925 -0.054255508 0.03676252 0.074351005 -0.010221285 0.081750855
-0.05155341 0.041603576 0.09733961 -0.125413 -0.031778455 0.0051015494 -0.064803906 0.04194984
-0.07488823 -0.04990503 -0.07084057 -0.10178895 -0.061202675 0.09528852 0.04622139 0.050603658
0.0016753012 -0.035827506 0.01434404 -0.12099862 -0.04908809 -0.03439883 0.032257166 0.05392351
-0.0067398907 -0.051704004 0.03870922 0.10032991 -0.01941791 0.024461195 0.0711547 -0.06504172
0.022123348 -0.09298466 -0.083614886 -0.05241325 0.0889141 0.055236816 -0.119933754 0.03424683
0.09598106 -0.04749893 0.11461854 0.012573528 -0.021509942 0.09839501 -0.043803312 -0.07928659
0.052537926 0.105535544 0.09221613 0.098173745 0.018049663 0.8036865 0.013015968 -0.06258305
-0.012289191 0.106567 0.08265205 -0.1525632 0.025643395 -0.029928278 -0.014382926 -0.052135188
0.10712346 -0.05554135 0.046744432 0.06601642 0.079624124 0.049190544 -0.11599734 -0.07184836
0.05943443 0.026384525 -0.085343845 -0.003334562 0.12688252 0.07395093 -0.2050367 -0.012716811
-0.12313349 -0.027242519 -0.08671297 -0.12584762 0.0013980615 -0.0022072496 -0.005906484 0.07143743
-0.07890896 0.09132933 0.07436324 -0.09356855 -0.025830597 -0.014118927 0.038520135 0.0144486325
0.053277735 -0.06025101 -0.061829086 0.0468938 -0.12964375 -0.057990026 -0.027639916 -0.031586282
-0.026011622 -0.021396555 -0.014413323 0.015098984 -0.08096033 -0.0006598205 0.08411124 -0.009182782
-0.00512839 -0.02002063 0.058093634 0.06528042 0.12129602 0.108145945 0.12181287 0.0033583373
-0.075439855 -0.08372974 0.08205511 -0.007188279 -0.036167044 -0.07566608 -0.11081761 -0.10130391
-0.020250702 0.0650289 2.133327 -0.09737322 0.075808376 -0.04978538 0.008223475 -0.03306903
0.026631275 -0.0051694107 -0.08274213 -0.068430685 -0.018604238 0.05520221 -0.04598279 0.0395534
-0.079096295 0.009816906 0.10581972 -0.039715085 0.11380836 0.053805206 -0.090310976 0.07482441
0.00016436503 -0.03265142 0.09414862 -0.057117615 0.026390469 -0.012120832 0.09224753 0.04653651
0.10871421 0.030744232 -0.012622113 -0.000914461 -0.09316712 0.07463247 0.10078445 0.09151664
-0.06785132 0.017616682 -0.07131512 -0.022514617 -0.045962293 0.048468873 -0.025774412 -0.004366611
-0.0019662762 0.056719642 -0.046875816 0.018780408 -0.06412085 0.070991546 -0.031007301 0.123650216
0.043826368 0.031087955 0.015474398 -0.009993813 0.026832383 0.013298434 -0.014480186 0.033334486
-0.06519675 -0.0136800185 0.12668224 -0.10303643 -0.080417715 0.116895415 0.13649723 -0.013026215
-0.11440842 0.08988182 -0.12042809 -0.040020958 -0.028776744 0.0064021475 0.013780721 0.65939224
0.008573016 0.0801867 0.11025576 -0.079052426 0.023048026 -0.06756243 -0.009862474 0.03422736
0.03503688 0.08767013 -0.038971685 0.0008767787 0.09435337 -0.09148259 0.07301995 -0.08788463
0.012740637 -0.011094853 -0.06567406 0.009408541 0.045743458 0.0055553387 -0.070931785 -0.05605292

net.0.bias f4 [128]
00000000: 4301 e9bc 687a 33bd 5a6d 86bd 349f f73c
00000010: 54cf 50bd 7a6a 72bd 1a29 423d 42aa 1dbd
00000020: ec93 a23c a13f 6bbc 5e7b 733d af47 883d
00000030: dac7 b0bd 9264 5bbd 3592 063e 6213 f63b
00000040: 1ab5 e8bb a297 b03d 4cce 0b3e d6e8 0e3d
00000050: d8e2 81bd 9e4e ec3d d33c d9bd 42c2 babd
00000060: 1ab0 e13c 6d00 23bd 3472 dabd 2ef1 bd3d
00000070: a968 b03c 98d3 8abd 01a8 503d 7b9a d23d
00000080: 9e64 e8bb 7eff ab3d 3d34 6e3d 89ab 2d3d
00000090: 10b4 62bd 6eb9 9bbd 5d77 1fbc c579 bbbc
000000a0: 884e c7bd fd36 cfbd 2d15 68bd 0dc7 923c
000000b0: 01ff 13bd 7117 c4bd b45e ebbb 899f 01bd
000000c0: 00bc 15bd 3a8e 8c3d e01b 303d b07d 933d
000000d0: 1e94 e93d 96aa 8e3c dac5 47bd 6259 55bc
000000e0: c0bc 2e3d 8cf9 1fbd 7a0a a23d af1b 7e3d
000000f0: 557a 68bd c4f0 d43c 32a9 4b3b a3bd 533d
00000100: 5945 5bbd 2160 e53d eaa1 0bbd cafc 3a3d
00000110: 0af6 80bd c7bc 543d ed15 02bd de13 3abd
00000120: 3c5a b8bd d3ba 333d b9a0 313d 412d d83c
00000130: 4dbd 87bd 2f6e 933c 3231 64bd 11f2 373d
00000140: d4a2 f53d 28fa bfbd 2529 213d 0e51 77bd
00000150: ac55 143d 70ac cbbc 0f2a da3c 7526 a0bd
00000160: 6661 a43d c478 8a3d 3028 a7bd af9e a0bd
00000170: c1f2 953d 2427 9bbd 8eff 203d 1245 3cbd
00000180: a3bf c0bd 4f73 303d 972d 1fbd 7f8a 47bd
00000190: 1769 3b3d cc0d 603d 69a5 b93d a860 df3d
000001a0: 25ab 193d c288 0cbc c419 0cbb e07a 9f3d
000001b0: 7a3e a6bd badd c03d 0f3d 2a3d 6163 3f3d
000001c0: cb0d a53c 888a bfbd 9281 103d f559 783b
000001d0: d3c7 a93b 8731 1ebd 7acc aa3d aa0f c9bb
000001e0: 28c4 983b 13b2 c0bd 9f54 cb3d 34d7 d6bd
000001f0: 156b ac3d d6f2 573d 7859 e23c 7ef7 e1bd
-0.028442984 -0.043817908 -0.06563826 0.030227281 -0.050978974 -0.059183575 0.04740248 -0.03849245
0.019845925 -0.014358432 0.059443824 0.066542976 -0.08631869 -0.05356271 0.13141711 0.007509635
-0.007101667 0.08622672 0.13652915 0.03489002 -0.06342095 0.115384325 -0.106073044 -0.09119083
0.027549792 -0.039795328 -0.10666314 0.09274517 0.02153428 -0.067786396 0.05094147 0.10283371
-0.0070920726 0.08398341 0.058155287 0.042399917 -0.055347502 -0.07603727 -0.009733048 -0.022885213
-0.097317755 -0.1011791 -0.05666082 0.01791718 -0.036131863 -0.095747836 -0.0071829204 -0.031646285
-0.036556244 0.06863065 0.042995334 0.07201707 0.11405204 0.017415326 -0.04877267 -0.013021799
0.042660475 -0.039056346 0.079121545 0.06203812 -0.05675729 0.025993712 0.003107619 0.051694524
-0.053532932 0.11199976 -0.03408996 0.045651235 -0.06296928 0.051937845 -0.03175919 -0.045429103
-0.09001586 0.04387934 0.043366168 0.026388766 -0.06627903 0.017996876 -0.05571098 0.044908587
0.119939476 -0.093738854 0.03934588 -0.060380034 0.036214516 -0.024862498 0.026631383 -0.07819835
0.0802639 0.067613155 -0.08161962 -0.078427665 0.07321692 -0.07575825 0.039306216 -0.045964308
-0.09411552 0.043078717 -0.038861837 -0.048716065 0.04575452 0.054700658 0.090647526 0.109071076
0.03751673 -0.0085775275 -0.0021377662 0.077871084 -0.08117385 0.09417291 0.041562136 0.046725634
0.020148179 -0.093525946 0.035279818 0.0037895415 0.0051812916 -0.03862145 0.08339782 -0.0061359005
0.0046620555 -0.09408965 0.099282496 -0.104902655 0.08418862 0.05272182 0.027630553 -0.110335335

net.2.weight f4 [128, 128]
00000000: 2a8a cfbc 496c a8bd 492c 9fbb 725b b53d
00000010: 92cd c0bb 1f99 34bc 67ba 773d 314f 843d
00000020: 6d1a 9abd f39d da3d 0a4f 023c 6893 7a3d
00000030: 39a6 a5bd 93e1 bfbd b91a 4fbd 8605 fa3d
00000040: 6247 893d 9672 c2bc 6a64 e33c 1e70 f5bb
00000050: f194 7b3c 1af7 353b f1e0 223c 1ff6 d63d
00000060: 6cf1 f93c e0dd fb3d 271b 2bbd 74fa a8bd
00000070: 5bea 6d3c 0547 27bb 7b77 403d 2b5c 743d
00000080: e3ec 82bd 49d4 8c3d 4fb3 d43d 9e8d 753d
00000090: d93a b83c 1f9c c6bc 8373 71bd 5f5b 423a
000000a0: 9488 dfbc 6b02 f6bc 5e2e b73d 3735 3b3d
000000b0: b9d5 bc3c 3028 0c3c 2172 2b3c a01e 67bc
000000c0: 196b a1bd 049f 563c fe3e debc 8fb2 0abc
000000d0: 5eba 2d3c a406 ae3c c445 88bd 8aa8 a2bd
000000e0: 9e04 5fbd 0bba 503c 9d44 15bd 3549 5a3d
000000f0: f13f 67bd f1ec 993d e6ac 2fbd 2f14 133b
00000100: 2acb 11bd 53f4 9ebc 85de fa3b 4cf5 e0bd
00000110: 3516 6e3d 4308 aa3d 3c79 64bd 7a36 f4bc
00000120: 7ec7 a4bd cee4 533d 7d59 37bd e2a0 ca3d
00000130: b7ba 273d 7f43 033d ab94 e63d eb42 8abd
00000140: 2741 0dbd 915b 223c 484e 93bd e0ed 913c
00000150: bc4c 5ebd 84cc a9bd b4c8 edbc 675a 57bd
00000160: aee8 043d 16d6 af3d f163 e43d 5e62 97bd
00000170: eae6 483d ad2d 6dbc f8a2 333d d2ae 633b
00000180: 315d 50bd 7efd 87bd 1344 3dbd d09d 433c
00000190: 1f3b c13c 9fa4 bfbc e00e 5c3c cec9 c5bc
000001a0: 182a 6e3d 3d5c 0abe 4975 afbc 6b06 be3c
000001b0: 7e96 79bd 6df2 8d3d 9b01 07be 07b5 57bb
000001c0: 670d fbbc 01a9 f03b cb1f 23bd 33be 543d
000001d0: ec4d 5abd 751a 0cbd 1726 4fbd 4f56 aabd
000001e0: 6e3a bdbd bd45 883d 99a3 013e afc2 85bc
000001f0: 4e56 b1bc 1d9d 5a3d 6f1f 2a3d 2775 a2bd
00000200: a754 e1ba 8418 e93d 04e9 b53d 705a 8ebc
00000210: af76 5c3c 54c4 96bb 3e84 00be 3660 eebc
00000220: 1c77 093e 985f 8f3d 2191 f73c 2340 37bd
00000230: 80dd 653c a6fc ce3d d257 58bd 83e6 f23a
00000240: a9f2 adbd 9f27 69bd d6f2 09bc 95bb 1ebd
00000250: da56 febd 1c70 0a3e 845e 073e 564b e0bd
00000260: edf6 6abd e63d a53d 581b 7c3d 9816 8cbd
00000270: 6064 9abc 6cbc a43d 85ed 1cbd f947 60bd
00000280: ceba 403b eba2 a43c 9309 c23b 47c5 c03d
00000290: 9385 aa3d 8287 14bd 8e92 79bc 1c2b dd3c
000002a0: 892e dc3c 4b35 3cbc 2169 a8bd 8777 a53d
000002b0: 476b c139 e2d5 34bd b834 b73d bc4d 3e3d
000002c0: f97f 923d 6862 4a3d b318 f93d 68ad a03d
000002d0: fab1 473d 186c 613d 6764 a2bd f597 073e
000002e0: 54f1 583c e16e f23d adf9 c4bc 2970 a9bd
000002f0: 6131 713d d46b c5bd 88ce 6f3b 5aa0 443e
00000300: adba 7f3d 61fb c3bd ec17 5dbc c80a 02bb
00000310: e6ea 64bd bbde c93c 8432 b33d 5985 c43d
00000320: b963 dc3d 7950 c03d 4416 80bd 27fc e03d
00000330: 2e27 273d bf9b bb3d 45e2 743b c0cd 5cbd
00000340: 5283 d33d 4070 2e3e cd6c 763d b388 7dbd
00000350: 8fea 123c 1f02 953d 9491 b4bc 695d 9a3d
00000360: 3ee4 6c3c 03cf 213d e70e 803b b555 b73d
00000370: ed96 c83c 0ddb 003c 43c5 b63d 3325 603d
00000380: 16e3 933d ed46 a9bd 3a03 48ba e29b c43d
00000390: 2072 bc3d 5855 24be 4813 b8bd 3d34 983d
000003a0: 8a10 8bbd b996 84bd a62c 84bd 5971 d0bc
000003b0: 9bac 7fbd 6805 043e d6ed 3bbd dea7 d93c
000003c0: bbe8 16bd 6f1f d73b ea92 e8bc 582a aa3b
000003d0: 4562 21bd 1597 69bd f5e6 d1ba 038c 613c
000003e0: ac99 2a3c 44af cf3d 95a8 6c3d 509a 5d3d
000003f0: 7578 acbd 18b6 d13b 5af2 bf3c bd29 a23d
-0.025334436 -0.08223779 -0.004857574 0.088553324 -0.005883881 -0.011022835 0.0604805 0.06460417
-0.075245716 0.10674658 0.007953415 0.061175734 -0.08088345 -0.09369197 -0.050562594 0.12208085
0.06703068 -0.02373628 0.027757842 -0.007490172 0.015355335 0.0027765692 0.0099413255 0.104961626
0.030510627 0.12298179 -0.04177394 -0.08250895 0.014521207 -0.0025524509 0.046988945 0.05965821
-0.06392839 0.06876428 0.10385763 0.05994951 0.022488998 -0.024244366 -0.05894805 0.0007414128
-0.027286805 -0.03003045 0.08944391 0.045705047 0.02305113 0.008554503 0.010464222 -0.014106423
-0.078817554 0.013099436 -0.027129646 -0.008465423 0.010603515 0.0212434 -0.06653932 -0.079423025
-0.054447763 0.012739669 -0.036442388 0.053292472 -0.056457464 0.07515896 -0.0428895 0.002244245
-0.035594143 -0.019403612 0.007655921 -0.10984287 0.058126647 0.08302357 -0.05577968 -0.029811133
-0.080458626 0.051731877 -0.044763077 0.09893967 0.04094955 0.03204679 0.11258825 -0.06751045
-0.034485962 0.009909526 -0.07192665 0.017813623 -0.0542724 -0.082909614 -0.029026367 -0.05257645
0.032448463 0.085857555 0.11151875 -0.07391809 0.04904834 -0.014476222 0.04385659 0.0034741652
-0.050870124 -0.06640147 -0.0462075 0.011939481 0.023587761 -0.023393927 0.013431281 -0.02414408
0.058145612 -0.13511749 -0.02141823 0.02319642 -0.060934536 0.06931005 -0.13184206 -0.0032914297
-0.03064604 0.0073443656 -0.039825242 0.0519392 -0.05329697 -0.03420492 -0.050573435 -0.08317243
-0.0923966 0.066539265 0.12660064 -0.016328184 -0.021647599 0.05337249 0.041533884 -0.07932501
-0.0017191366 0.11381629 0.08882335 -0.017377108 0.013456031 -0.004601041 -0.12550446 -0.029098611
0.13424343 0.07000655 0.03022057 -0.0447389 0.0140298605 0.101067826 -0.052818127 0.0018531833
-0.084935494 -0.05692255 -0.008419713 -0.03875311 -0.12418909 0.13519329 0.13219649 -0.10951869
-0.057364393 0.08068447 0.061549515 -0.06840247 -0.01884669 0.08043751 -0.038312454 -0.05475614
0.002940822 0.020097217 0.0059215515 0.09412628 0.083262585 -0.036262043 -0.015232695 0.026998095
0.026877658 -0.011487315 -0.08223177 0.08079439 0.00036891756 -0.044149287 0.08945602 0.046460852
0.07153315 0.049410254 0.12162914 0.078455746 0.048753716 0.055034727 -0.079293065 0.13241561
0.013241131 0.11837555 -0.024044836 -0.08273346 0.058884982 -0.09639707 0.0036591608 0.19201794
0.062433887 -0.09569431 -0.013494473 -0.0019842852 -0.05588808 0.024642339 0.087498695 0.095957465
0.10761208 0.09390349 -0.06254247 0.10985594 0.04080885 0.091605656 0.0037366312 -0.053907156
0.10327782 0.17035007 0.060162354 -0.061897945 0.008967056 0.07275795 -0.022042073 0.07537348
0.014458714 0.039504062 0.0039080265 0.08951894 0.02448603 0.007864726 0.089243434 0.054722976
0.072210476 -0.08265481 -0.00076298753 0.09600045 0.09201455 -0.16048181 -0.089880526 0.07431839
-0.06790264 -0.064740606 -0.064538285 -0.025444673 -0.06242047 0.12892687 -0.045881115 0.026569303
-0.036843043 0.0065650265 -0.028390367 0.005193036 -0.039400358 -0.05702885 -0.0016014265 0.013766292
0.010412615 0.10140851 0.05777796 0.054102242 -0.08421413 0.006399881 0.023430992 0.07918117

net.2.bias f4 [128]
00000000: d93c edbc edeb 8abd 6637 863d 5070 8c3d
00000010: f90f ee3b 67bf 1abd 4f24 323d af10 87bd
00000020: e14a b7bd 3d03 8c3d 8d56 923d a1b9 f2bc
00000030: 468c b43d 94aa 46bc aeee 853c 6dca 95bc
00000040: e8e4 583d 99ec b53d 082f 93ba 791d 8d3d
00000050: 43c0 e33c a67f 003d 8ac5 a8bc 9e1a 86bd
00000060: 45d1 923d 7596 3c3d a1c7 b6bd 4aa3 763c
00000070: b989 923d 2617 3d3d bb8b 763d afe9 623d
00000080: 868e 9dbd 4e26 80bd 0522 cd3d 335f 3f3b
00000090: 52e6 37bd 54cc a43d 8ec3 263b 9cfb 2e3d
000000a0: 72ea 8bbc 0ab7 403d d242 413c 3d60 abbd
000000b0: 576d c43c 0fa9 08bd 8d72 753d 6fac 753c
000000c0: 53de 5e3d e84c 68bd 51aa 493d 4e65 273d
000000d0: 7ade 75bd 14c3 9d3d 16a2 b83c 82e1 a13d
000000e0: f774 4fbd 2f8c 7dbd ec8f 40ba 0bde dd3c
000000f0: 9779 0fba 64e2 8abc de5e 82bd 2264 89bc
00000100: 3fcb 4f3d dad6 afbd 0db0 593d c8c0 51bc
00000110: 110f 40bd d880 23bd f2d6 773d 4ecf 9fbd
00000120: 9589 0cbd 52f8 b8bd d8c0 a6bd 23ff 2b3d
00000130: 9345 81bd 8a70 97bb 4c9a 113d 5b81 97bd
00000140: bd6f 313d cb18 cdbc 6040 acbd 67ec d53c
00000150: dc81 883d 286c 00bd 51a4 413c 8a10 2d3d
00000160: 64de 48bd 3fbe 2f3c f44b 2c3b a637 b53b
00000170: 2f53 2fbc 4165 8fbd f15a 1abd 22ed dbbc
00000180: 0b49 1fbd d00e ffbc 0684 af3b 68e9 05bc
00000190: abb7 bf3b 749f 2abd b8fd 983c 4d19 74bd
000001a0: 2a26 263d d9e2 a13b cb9a 343d d6b3 fe3c
000001b0: 9df7 3c3b 524a 77bc 0b6a 513c d95d ac3c
000001c0: 457e 9d3d 5a89 093d 1f43 80bc fdd5 7bbd
000001d0: f684 d53c d0de 693d 102c 223d 0f03 43bc
000001e0: a7ee 963d ca6e 433d 47df 83bb de87 5d3d
000001f0: 0f80 773d 98b2 6fbc a5d3 e73c 1300 8b3d
-0.028959678 -0.067832805 0.06553535 0.068573594 0.0072650877 -0.03778019 0.043491658 -0.06594979
-0.08949829 0.06836555 0.071454145 -0.02962953 0.088158175 -0.01212563 0.016349163 -0.018285
0.052952677 0.08883018 -0.0011229226 0.06890387 0.027801638 0.031371735 -0.020602006 -0.065480456
0.07168821 0.046041925 -0.08924795 0.01505358 0.07155175 0.046164654 0.06019185 0.05539864
-0.076932 -0.06257306 0.10016254 0.002920103 -0.044897385 0.08046785 0.002544615 0.042720422
-0.017079566 0.04704956 0.011795716 -0.08367965 0.023977919 -0.03336435 0.059923697 0.014994725
0.054411244 -0.05671397 0.049234692 0.040868096 -0.060026623 0.07703224 0.022538226 0.0790434
-0.050648656 -0.061901268 -0.0007345665 0.027083417 -0.00054731354 -0.016953655 -0.06365751 -0.01677138
0.05073094 -0.085859016 0.05314641 -0.01280231 -0.04688937 -0.039917797 0.060507722 -0.07803212
-0.034310896 -0.09031738 -0.08142251 0.041991364 -0.06312098 -0.00462157 0.03554754 -0.073977195
0.043319453 -0.025036236 -0.08410716 0.026113702 0.06665394 -0.031353146 0.011818961 0.0422521
-0.049040213 0.010726511 0.0026290389 0.0055303155 -0.010700985 -0.070017345 -0.037684385 -0.026846472
-0.03888802 -0.031134993 0.0053563146 -0.008173324 0.0058507523 -0.041655973 0.01867567 -0.05959444
0.04056374 0.0049403724 0.044092935 0.031091612 0.0028834112 -0.015093403 0.01278163 0.021040844
0.076900996 0.033578254 -0.015657006 -0.061483372 0.026064377 0.057097256 0.039592803 -0.011902585
0.07369738 0.04771308 -0.0040244195 0.05408465 0.06042486 -0.014629982 0.028299162 0.067871235
