ddqn_out/dqn_ep200.pt (torch, 464465 bytes, 24 tensors)

net.0.weight f4 [128, 77]
000000 1b ee 12 bc fb fe 62 3d 32 1f cb bd 1f 67 ad bd
       -0.008967902 0.05541895 -0.099180594 -0.084669344
000010 d0 7d 53 bd 51 c3 c3 3c 83 2c a8 bb 27 af a9 3d
       -0.051633656 0.023896845 -0.0051322593 0.08285361
000020 74 aa 47 bc 88 12 d9 3c cf 2d 1c bd 90 8c e3 bc
       -0.012186635 0.026498094 -0.038129624 -0.027776986
000030 e9 00 e1 bd 78 46 a8 bd 79 2d 53 bd 9c 35 96 ba
       -0.10986502 -0.08216566 -0.051557038 -0.0011460069
000040 d8 7c 1f 3d dc 45 80 3d e4 ed a9 bd 47 ac 62 bd
       0.03893742 0.062633246 -0.08297327 -0.055340078
000050 0b 23 12 3d a3 92 b4 3d 02 ea f1 bc 42 6b a2 3d
       0.03567795 0.08817031 -0.029530529 0.07930614
000060 5d 7a cb bc 57 79 0b 3c 72 85 c4 3d 10 1b dd bd
       -0.02483862 0.008512816 0.09595765 -0.107961774
000070 e0 de 9a bd 2f 61 07 bd 40 24 50 bd 9c c3 c6 3d
       -0.07562041 -0.033051666 -0.05081582 0.09705278
000080 d7 de a5 bd a9 7e 69 bd 03 1f ae bd 52 2f e7 bd
       -0.08099144 -0.05700556 -0.08502009 -0.112883225
000090 be 04 94 bd 40 eb bc 3d 63 e1 38 3d 87 d4 4a 3d
       -0.07227467 0.09224558 0.04513682 0.049519088
0000a0 b5 a6 79 39 a5 39 88 bd 86 dc 5c 3c 74 04 e5 bd
       0.00023808594 -0.0665162 0.013480311 -0.1118249
0000b0 a8 c4 b0 bd b9 bb 85 bd f3 4c 8e 3d d8 77 7b 3d
       -0.08631259 -0.06529946 0.06948271 0.06139359
0000c0 89 e3 64 bd 64 31 4a bc 80 b5 90 3d 0b 16 da 3d
       -0.055881057 -0.012340877 0.070658684 0.106487356
0000d0 7f be 28 3d 6c e8 2a 3c 51 e3 8f 3d 53 4e 95 bd
       0.041197296 0.01043139 0.07025779 -0.0729033
0000e0 75 4d 7e 3c 3d a7 c0 bd c8 76 ad bd a7 d5 87 bd
       0.015521397 -0.09406898 -0.08469921 -0.06632548
0000f0 37 90 39 3d e0 3f 24 3d bc d1 93 bd d3 90 e9 3c
       0.04530355 0.04009998 -0.07217738 0.02851144
000100 2e 53 64 3d a4 bb 89 bc 04 b2 06 3a 42 39 a7 3c
       0.05574339 -0.016813107 0.0005138221 0.020413045
000110 ab 33 89 3d a9 2f de 3d 69 18 c0 bd 8a c4 3c bd
       0.06699308 0.10848934 -0.09379656 -0.04608587
000120 9d a1 1e 3d 0a bd b4 3d 50 58 bf 3d 0a 3b c2 3d
       0.038728345 0.08825119 0.09343016 0.09483917
000130 d7 fa 8a 3c a9 af bd bd d1 49 b0 3b f3 96 9c bd
       0.016965313 -0.0926202 0.0053798934 -0.07645979
000140 39 b9 de bd d3 0d c5 3d 00 0d a7 3d f4 57 ee bd
       -0.10875172 0.096217774 0.081567764 -0.116378695
000150 fb 08 84 3c e0 fd c4 bc c0 dc c5 bc 69 9f 5d bd
       0.016117563 -0.024046838 -0.024153113 -0.054107103
000160 a0 eb 08 3d b6 5c 94 bd 12 dc 09 3d 8c 4c 62 3d
       0.033427835 -0.07244246 0.03365714 0.055248782
000170 a3 a7 9d 3d d0 04 17 3d 7e 7d f1 bd b8 18 a1 bd
       0.0769799 0.036869824 -0.11791514 -0.07866043
000180 b8 2a 54 3d 53 96 99 3c 41 98 bd bd 4d 70 7c bd
       0.051798552 0.018748438 -0.09257556 -0.061630536
000190 03 e5 cf 3d 60 b8 92 3d 6e 75 57 bd d0 c7 06 bd
       0.101511024 0.07164073 -0.052602224 -0.0329054
0001a0 58 d0 e7 bd 66 fc e5 bb b1 1f b2 bd 18 af c6 bd
       -0.11319035 -0.0070186136 -0.08697451 -0.09701365
0001b0 90 80 3a bc aa dd 2f 3c da 12 3c bd df 1f 7f 3d
       -0.011383191 0.010734001 -0.045916416 0.062286254
0001c0 29 ed 99 bd 9a 44 c9 3d ad 7d 95 3d 57 44 cf bd
       -0.07515938 0.09827538 0.072993614 -0.10120457
0001d0 5e 14 09 bd b2 ca a5 3b 4b c0 87 3c 9d 02 a9 3c
       -0.03346669 0.0050595636 0.016571185 0.020631129
0001e0 99 17 22 3d 34 99 38 3b 13 3c 7e bd 0a 1d 49 3d
       0.039573286 0.0028167488 -0.06206901 0.04909996
0001f0 07 be ec bd 72 38 92 bd 2b 8c 14 bd c9 63 75 bd
       -0.11559682 -0.07139672 -0.036266487 -0.059909616
000200 51 9b 3c bd 4d bb c2 bd 73 28 f2 bc 12 c5 98 3c
       -0.04604656 -0.09508381 -0.029560303 0.018648658
000210 fd e9 a1 bd 03 70 33 bc 0b 9f 9c 3d a5 c7 89 bc
       -0.07905958 -0.010951999 0.076475225 -0.01681883
000220 1f d9 3a 3b 90 4c ed bb 3d e2 87 3c 3b f0 89 3d
       0.0028510762 -0.007241793 0.016587371 0.067352735
000230 03 d7 e0 3d a8 8b 91 3d bc 20 d2 3d 32 f8 3f bc
       0.1097851 0.071067154 0.1026015 -0.011716889
000240 4e a5 d7 bd 95 1c 7b bd ec c3 95 3d 22 ed eb bb
       -0.10529576 -0.061306555 0.0731276 -0.0071998993
000250 50 19 6f bd 58 d0 bc bd 3b 7c e7 bd aa 74 cf bd
       -0.05837375 -0.09219426 -0.11302992 -0.10129674
000260 ad 2b e7 bc ef 14 6b 3d 6b 8e 3a 3e bb 2e ce bd
       -0.028219068 0.05739301 0.1821839 -0.10067507
000270 59 a9 98 3d 17 d0 c1 bd c0 4f 92 bc 77 32 26 bd
       0.074541755 -0.09463518 -0.017860293 -0.04057547
000280 1d 69 33 bb 70 d2 6d bc 29 12 bd bd c8 a2 a8 bd
       -0.0027375885 -0.014515504 -0.092319794 -0.08234173
000290 a9 aa 6f bb 4f 37 07 3d 87 a1 36 bd 6a ef 3c 3d
       -0.0036570227 0.03301173 -0.04458764 0.04612676
0002a0 8d 80 bc bd 4f 2f ca ba 47 4a df 3d 96 52 1a bd
       -0.092042066 -0.0015425476 0.10902839 -0.037676416
0002b0 14 a9 e5 3d 80 dc 4e 3d 14 b8 bf bd 49 c7 9c 3d
       0.1121389 0.050503254 -0.09361282 0.07655198
0002c0 b9 f3 ba bc 07 bb 2d bd b7 4f cb 3d 44 fe 9f bd
       -0.022821294 -0.04241469 0.09927314 -0.07812169
0002d0 53 7f 5a 3c e9 c1 5e bc 40 cc b8 3d 1a 6a 57 3d
       0.0133360205 -0.0135960365 0.090233326 0.05259142
0002e0 59 65 85 3d b6 36 53 3d 3a ee 8e bc cc 04 92 bc
       0.06513471 0.05156585 -0.01744758 -0.017824553
0002f0 d4 e7 be bd d4 a9 91 3d eb 27 cc 3d 7c 99 b2 3d
       -0.093215615 0.0711247 0.09968551 0.08720681
000300 c1 b8 91 bd 55 88 6a 3c 71 8c aa bd 7e b7 58 bd
       -0.07115317 0.014314731 -0.08327568 -0.052909367
000310 b2 c7 6c bd b6 6d 3a 3d 3a 65 86 bd d7 6a d3 3b
       -0.05780763 0.045514785 -0.06562276 0.0064519453
000320 ad 5b 6e 3c 57 16 a0 3d 7c c4 95 bd d8 ea 1d bd
       0.014548224 0.07816761 -0.07312867 -0.038554043
000330 8d 63 62 bd ec 5f ba 3d 61 ed 06 bd be ca d6 3d
       -0.05527072 0.09100327 -0.032941226 0.10487889
000340 62 d0 4a 3d f2 06 c2 3c 1d 5c 09 3c 95 d6 59 bc
       0.049515136 0.023684952 0.008383778 -0.013295789
000350 c2 c2 c0 3c d0 fb e8 bc 8c 64 c1 3b 79 32 ac 3c
       0.023530368 -0.028440386 0.0059018787 0.021020161
000360 75 fa a2 bd 80 94 52 bd b2 4f cf 3d 7d 0a a8 bd
       -0.07957927 -0.051411152 0.101226225 -0.082051255
000370 92 48 38 3b ea b0 e7 3d 5a 80 b8 3d ba a9 6d 3c
       0.0028119427 0.113130406 0.09008856 0.014505798
000380 2b 01 bc bd 87 5c 8b 3d f1 c3 db bd be cc c8 bc
       -0.0917991 0.068047576 -0.10730732 -0.024511691
000390 53 f5 ef bc ed 64 ed bb 95 ae 2b 3c 17 ea bb 3d
       -0.029291784 -0.0072446973 0.010478635 0.091755085
0003a0 c7 92 84 3c 54 0c dd 3d 7f bf ae 3d 8c 38 9b bd
       0.01618327 0.10793367 0.08532619 -0.07579145
0003b0 bd 3d 5b 3d eb ad 80 bd 17 23 45 bd 74 0b 3e 3d
       0.053525675 -0.06283172 -0.048129167 0.04639764
0003c0 67 8e 3b 3d 10 2c b2 3d 63 92 f6 bc 85 42 7b 3c
       0.045790102 0.086998105 -0.0300991 0.015335684
0003d0 ad 87 5b 3d 44 dc dd bd 24 96 ab 3d 06 2f bb bd
       0.053596187 -0.10833028 0.083782464 -0.091398284
0003e0 38 9d 71 3b 58 89 8e bc c9 d3 6d bd 17 6b 8b 3c
       0.0036867391 -0.017399475 -0.058063302 0.017018838
0003f0 c1 9b bf 3d 41 3c bd bc 1c 86 8b bd 18 6a 2c bd
       0.093558796 -0.02310002 -0.06812689 -0.042093366

net.0.bias f4 [128]
000000 51 e3 f1 bc 39 c1 52 bd 7c 30 8d bd 9f fb 1a 3d
       -0.029527338 -0.051453803 -0.06894013 0.03783762
000010 24 a5 14 bd 23 ed 6b bd ec b3 c8 3c 41 ce 0f bd
       -0.036290303 -0.057599198 0.024499856 -0.03510881
000020 53 31 99 3c c4 00 bb bb 06 80 18 3d 19 ad a3 3d
       0.018700277 -0.0057068784 0.037231468 0.07992
000030 75 1e cd bd 47 38 4a bd 9e d4 e4 3d 40 a4 42 3c
       -0.10015575 -0.049370077 0.11173366 0.011879981
000040 85 de c5 bc 67 c7 af 3d cc 4a cb 3d 94 0a 06 3d
       -0.024153957 0.08582955 0.09926376 0.03272493
000050 c6 ed b8 bd 67 f7 ea 3d 59 9d cc bd c1 06 e1 bd
       -0.09029727 0.114729695 -0.09990949 -0.10987616
000060 1f 2f 7e 3c e0 2d 0b bd 9f 25 e2 bd d5 b1 ae 3d
       0.015514164 -0.033979297 -0.11042332 0.085300125
000070 54 2a bf 3c 31 18 75 bd e9 54 1e 3d d8 ec a9 3d
       0.023335613 -0.059837524 0.038655195 0.082971275
000080 c0 ec 45 bc 97 8b b9 3d 31 29 93 3d 77 64 0e 3d
       -0.012080371 0.09059828 0.07185591 0.03476378
000090 0b 2e 68 bd d8 58 ae bd 37 3f 8c 3a 44 05 0f bd
       -0.056684535 -0.08513039 0.0010699992 -0.03491713
0000a0 84 8c da bd 16 b8 dc bd 76 f1 87 bd 6c cc 05 3c
       -0.106713325 -0.10777299 -0.06637852 0.008166414
0000b0 9d c9 30 bd 71 17 c4 bd 0c 1d a1 bc 80 fd 2a bd
       -0.043161023 -0.095747836 -0.019667171 -0.041745663
0000c0 5a 02 06 bd c3 70 9b 3d 37 6b 85 3d fe c9 9b 3d
       -0.032717086 0.07589867 0.0651459 0.07606886
0000d0 80 e4 eb 3d 66 c2 df 3b cb 87 74 bd fc bb 88 bc
       0.11518192 0.006828594 -0.059699815 -0.0166912
0000e0 07 63 8e 3c 30 6c 22 bd 90 30 bb 3d 8c 34 75 3d
       0.017381204 -0.039653957 0.09140122 0.059864566
0000f0 fa 47 a9 bd 00 c9 15 3c 04 dc 92 3b bc b6 26 3d
       -0.082656816 0.00914216 0.0044817943 0.040701613
000100 d4 5d 83 bd 9d 64 d9 3d c2 b9 07 bd 5b e2 38 3d
       -0.06414381 0.106148936 -0.033136137 0.045137744
000110 fd 0d 6b bd cb ea 12 3d 41 86 16 bd 8d cf 70 bd
       -0.057386387 0.035868447 -0.03674913 -0.058791686
000120 ea 2f cd bd fe 2f 29 3d 97 f9 8d 3c 32 54 19 3d
       -0.100189045 0.041305535 0.017330928 0.03743381
000130 b9 26 80 bd fd b6 d2 3c 8c db 43 bd 36 be eb 3c
       -0.06257386 0.025722021 -0.047816798 0.028777223
000140 26 e8 d9 3d 74 a9 c9 bd ee 3d 3a 3d cf 9f 9b bd
       0.10639982 -0.09846774 0.045469217 -0.075988404
000150 bc 20 0e 3d 70 ac cb bc 6a 65 45 3d a3 e0 b4 bd
       0.034699187 -0.024862498 0.04819242 -0.088319086
000160 28 36 9f 3d ac 3f 89 3d 4f b2 95 bd da 56 95 bd
       0.07774001 0.067015976 -0.073094 -0.07291956
000170 45 02 92 3d 9d 65 b3 bd 47 5c 3e 3d 59 59 64 bd
       0.07129339 -0.087596156 0.04647472 -0.05574927
000180 c0 af cf bd 46 e4 03 3d a4 70 3b bd e6 87 84 bd
       -0.101409435 0.03220012 -0.04576172 -0.06471233
000190 89 65 2a 3d b9 20 45 3d 08 5e b2 3d 03 d5 e5 3d
       0.041600738 0.04812691 0.08709341 0.112222694
0001a0 49 8c 2d 3d 84 e1 06 bd b6 f5 4f bc a0 e9 b0 3d
       0.042370114 -0.032929912 -0.012692859 0.086383104
0001b0 4b f3 be bd a1 8f ac 3d 8c 7d 5e 3d 20 0c 36 3d
       -0.09323748 0.084258325 0.05431895 0.044445157
0001c0 3f 79 13 3d 6a 2b bf bd dc 30 29 3d 80 18 4a bc
       0.0360043 -0.093344525 0.04130636 -0.012334943
0001d0 d0 cd 35 3b a8 07 68 bd d5 3a a4 3d 24 ee 9b bc
       0.0027741082 -0.056647927 0.08019034 -0.019034453
0001e0 71 85 a1 bb ba 7a b8 bd de e4 ae 3d ac 4a d2 bd
       -0.0049292375 -0.09007783 0.08539747 -0.10268149
0001f0 51 72 9c 3d 20 b4 55 3d 66 bb 8a 3c 7e f7 e1 bd
       0.076389916 0.052173734 0.016935062 -0.110335335

net.2.weight f4 [128, 128]
000000 d4 cf 4b bd da a7 f7 bb 01 f6 3f bd a5 22 b4 bc
       -0.049758747 -0.0075578513 -0.046865467 -0.021989176
000010 8e 00 32 bc 84 d0 ef bc 4c 94 43 3d ea 60 a8 3d
       -0.01086439 -0.029274233 0.04774885 0.0822161
000020 63 db 26 bd 19 82 75 3d 28 72 df bb 0e ef 90 3d
       -0.040736567 0.059938524 -0.0068190284 0.07076846
000030 19 e0 9d bd ca 8e 23 bd d4 0d 91 bc 4a bb de 3d
       -0.07708759 -0.039931096 -0.01770679 0.10875566
000040 db eb a4 3d 26 ea ae bb 03 2b 5f bd 26 ae 19 bd
       0.08052798 -0.0053379713 -0.05448438 -0.037519597
000050 a8 1b 32 3c 11 8f b9 3b 1f 03 4a bd f3 f9 fd 3c
       0.010870852 0.005662807 -0.049319383 0.031002974
000060 4c b9 a4 3b 45 5b 7b 3d 73 8b 05 bd ce b2 3a bd
       0.005026972 0.06136634 -0.032603692 -0.045580678
000070 ed 02 1f 3c 8f 00 ac 3b a1 02 55 3d ed b7 b0 3d
       0.009705287 0.00524909 0.05200446 0.08628831
000080 65 cd 11 bd e2 0c af 3d df 09 3a 3d 2d 47 bd 3d
       -0.03559627 0.08547379 0.04541957 0.09242091
000090 bc 2b 18 3d e9 1e 28 bc 57 d9 86 bb ba c6 33 3c
       0.037151083 -0.010261276 -0.0041152644 0.010972673
0000a0 b7 02 85 bd 1a 06 42 bc 8a f0 6a 3d fa 5b 93 3c
       -0.064946584 -0.011842275 0.057358302 0.017988194
0000b0 b3 05 a0 3c 30 28 0c 3c c8 39 9c 3c 21 84 72 bd
       0.019533968 0.008554503 0.019070521 -0.05920804
0000c0 95 73 d0 bb d8 68 0d bc a7 67 dc bc 48 30 62 bd
       -0.0063614347 -0.008630954 -0.026904894 -0.055221826
0000d0 ee d1 00 3c c0 8a 92 3b af 84 16 bd 80 fa b0 bc
       0.007862551 0.0044721067 -0.03674763 -0.021603823
0000e0 da 33 d4 bc c4 b0 10 3b c2 ac 9c bd 99 8b 93 3d
       -0.025903631 0.0022078017 -0.076501384 0.072043605
0000f0 95 5d 41 bd 63 4b 50 3d 49 e2 a2 bd 44 3c 40 bc
       -0.047208387 0.050853144 -0.07953317 -0.011733118
000100 e9 e1 ef bb 26 14 8a bd d7 10 f9 3b 0d c9 73 bd
       -0.0073206318 -0.06742124 0.0076008844 -0.05951791
000110 50 ed 12 3d 3d 99 8f 3d e2 44 b4 bc f0 3d 9c 3c
       0.03587085 0.0701165 -0.022005502 0.019072503
000120 c5 1d 62 bd 75 56 45 3d 06 06 c1 bd cf d3 c6 3d
       -0.05520417 0.048178155 -0.09424977 0.09708368
000130 a0 25 a3 bb 6f ec a7 3c 59 c7 ae 3d 47 3b 9b bd
       -0.0049788505 0.020498483 0.08534116 -0.07579666
000140 2f 95 3c bd 76 36 d8 ba 41 5e 80 bd 68 86 90 3c
       -0.04604071 -0.0016495723 -0.062679775 0.017642215
000150 3c 1f 4b 39 84 cc a9 bd da 99 bc bc f8 00 a4 bd
       0.00019371224 -0.082909614 -0.02302258 -0.08007997
000160 6a 3e ce 3c 13 8a ac 3d 6c 93 a5 3d 1c 59 7b bd
       0.025176246 0.08424773 0.08084759 -0.06136428
000170 29 67 24 3d d8 73 11 bd 49 e9 07 3d 3e 48 47 3d
       0.040137444 -0.035510868 0.033181462 0.04865288
000180 8c f0 ae bd 6b d6 54 bd 6f 1a 83 bd f7 5b df bb
       -0.085419744 -0.051962297 -0.06401526 -0.006816383
000190 26 1a 57 3c 2e 43 55 bd 2e 4e 03 bb 30 b0 f5 bc
       0.013128793 -0.05206602 -0.0020035612 -0.02999124
0001a0 e0 b9 cc 3d ba f7 a5 bd 04 bf 71 bd cf 91 50 3c
       0.0999639 -0.08103891 -0.059020057 0.012730076
0001b0 94 4c 8c bd c4 08 7c 3d 2e aa 9c bd 4b f9 04 bd
       -0.068505436 0.061531797 -0.07649647 -0.032464307
0001c0 e5 0b f3 bc dc 7b 00 3c 6f 02 2c bd 4f 95 7b 3d
       -0.029668758 0.00784203 -0.04199451 0.06142169
0001d0 eb 2d 78 bd 95 28 58 bd d6 46 c2 bc 87 03 ad bd
       -0.060590666 -0.052773077 -0.023715418 -0.084479384
0001e0 97 bd ae bd 47 4b 26 3d d3 8b 9b 3d 81 57 ca bc
       -0.08532255 0.040599134 0.07595029 -0.024699928
0001f0 a3 09 96 bc 54 9b 11 3d 99 a6 8b 3d 27 75 a2 bd
       -0.018315142 0.035548523 0.06818885 -0.07932501
000200 e5 da 2c bd 37 01 99 3d 86 24 21 3d 00 0d a8 bd
       -0.04220094 0.07470935 0.039341472 -0.082056046
000210 80 97 d8 3a 4d 14 89 bd 37 06 8c bd 2e d1 33 bd
       0.0016524643 -0.06693325 -0.06837123 -0.04390066
000220 cd aa b3 3d c0 bf 50 bd b2 d8 78 3d e8 46 a4 bd
       0.08772812 -0.050964117 0.06075353 -0.08021337
000230 70 3f c7 bb a7 b4 a3 3d 24 95 a2 bc ee 8c f9 bc
       -0.0060805604 0.07993441 -0.019846506 -0.030462708
000240 5a 0e 20 bd 0a d5 82 bd 80 52 e8 3c 16 f5 83 bd
       -0.039076187 -0.0638829 0.028359652 -0.06443231
000250 4a 44 66 bd 4b 3f 9d 3d 23 b3 86 3d 8d 4d 3d bd
       -0.05621747 0.07678088 0.06577136 -0.046216536
000260 00 92 f4 3a d4 8c c2 bc ef ce 89 3d b0 84 a2 bd
       0.0018659234 -0.023748793 0.067289226 -0.079354644
000270 36 a3 a2 bd ee 35 31 3d d0 07 8a 3b 68 cf d3 bc
       -0.07941286 0.043264322 0.004212357 -0.025855735
000280 a6 6e 39 3d 5a b0 14 3d e3 4a 76 bd 56 d7 4e 3d
       0.04527154 0.036300994 -0.06013001 0.05049833
000290 72 3d 52 3d 18 c7 4c bc ee 9c 9c bd 22 04 18 3d
       0.05132813 -0.0124986395 -0.076471195 0.037113316
0002a0 36 ad 57 3d d9 d0 b3 bd 82 7c a7 bd 28 dc 2e bc
       0.05265542 -0.08780069 -0.08178045 -0.0106726065
0002b0 b0 bd 9e bd e2 d5 34 bd bf 46 8d 3d 1c 6d 84 3c
       -0.07751024 -0.044149287 0.06898259 0.016165309
0002c0 36 4a 58 3d 80 86 aa 3c 8f ff b0 3d 4a d4 15 3d
       0.052805148 0.020816088 0.08642494 0.036579408
0002d0 24 37 d5 3c 7b 09 89 3d 7f ca 0f bd a7 25 9b 3d
       0.02602727 0.066912614 -0.035105225 0.07575541
0002e0 58 f6 09 3c a5 b4 a5 3d 69 d7 57 bd ea ed 75 bd
       0.008420549 0.08091096 -0.052695666 -0.060041346
0002f0 19 b7 83 3d 94 7b 50 bd e8 ea 8b 3c c5 7c ab 3d
       0.064314075 -0.050899103 0.017079785 0.08373407
000300 f0 64 87 3c a3 93 80 bd 00 6f 5c bd 22 c9 47 bd
       0.016527623 -0.062781595 -0.053816795 -0.0487758
000310 a4 8a 75 bd 56 2f 42 3d 90 f5 51 3c 98 7e 02 bc
       -0.05994667 0.047408424 0.012814894 -0.007964753
000320 2c a6 c9 3c 62 a6 53 3d 30 76 ff 3b 76 08 6b 3d
       0.02461537 0.051672347 0.0077960715 0.057381116
000330 90 91 42 bc 68 d8 0b 3d 24 cb 9a 3c 00 14 48 3a
       -0.011875525 0.034141928 0.018895693 0.0007632375
000340 73 b3 83 3d e3 bf ae 3d 23 b0 91 3d 98 be b7 bc
       0.064307116 0.08532693 0.071136735 -0.02242975
000350 16 11 eb bc 1f 02 95 3d ae 7b 24 bd 20 53 1b 3c
       -0.02869467 0.07275795 -0.040157013 0.009480268
000360 02 79 4d bd b8 51 bc bc 64 36 07 bd a6 02 62 3d
       -0.05016423 -0.022988185 -0.033010855 0.055178307
000370 d2 69 1e bd cf 3b 1d bd 82 76 19 3d 90 1c a0 bb
       -0.038675137 -0.038387116 0.037466533 -0.0048862174
000380 28 a6 0b 3c 08 5e 87 bd 51 50 1f bd 5e ea 35 3d
       0.008523501 -0.06609732 -0.038894955 0.044412963
000390 ca 50 26 3d 1a f5 a5 bd fb 62 7b bd 4c 65 d2 3c
       0.04060439 -0.0810339 -0.061373692 0.025683068
0003a0 58 26 8e bd 02 92 3f bd 60 c8 4c bd 0a 28 8a bd
       -0.06940907 -0.046770103 -0.04999578 -0.06745918
0003b0 79 d7 30 bd 9e 03 7e 3d 7a 86 a6 bd be e4 6f 3d
       -0.04317424 0.06201517 -0.08131118 0.058567755
0003c0 cc e4 9c bd 3c 4b c3 bc 2e fd f1 bc 7e ab 65 3d
       -0.07660827 -0.023839585 -0.02953967 0.05607175
0003d0 d3 a5 92 bd a2 18 34 bd 9f 43 b2 bd f4 e5 d4 bc
       -0.07160535 -0.043968804 -0.08704304 -0.025988556
0003e0 66 0d 10 3d 13 45 ab 3d 7f d2 9c 3d 60 97 c0 bc
       0.035169028 0.08362784 0.076573364 -0.023509681
0003f0 ac ce 40 bd f4 a8 a0 3c ae 29 70 3d bd 29 a2 3d
       -0.047072098 0.019611813 0.0586335 0.07918117

net.2.bias f4 [128]
000000 cb 9b c3 bc 7a 9e 6a bd b3 39 9a 3d 00 9d 96 3d
       -0.023877999 -0.05728004 0.075305365 0.07354164
000010 96 10 a3 3c 11 97 4e bd d7 57 f3 3c dc 64 56 bd
       0.01990537 -0.050437037 0.029704971 -0.05234228
000020 1d f8 9f bd 55 a5 af 3d 0e b4 22 3d b6 72 df bc
       -0.07810996 0.085764565 0.039722495 -0.027276378
000030 51 ab 8e 3d 69 27 c9 3b 56 3d eb 3c c3 b9 a6 3b
       0.0696627 0.0061387313 0.02871577 0.0050880625
000040 c9 4b 99 3d 50 da 81 3d bf ff 4a bb 21 ff 2f 3d
       0.07485158 0.06340468 -0.003097519 0.04296792
000050 2b 55 0a 3d f0 38 3b 3d 0c c3 49 bc 0c 88 1d bd
       0.03377263 0.045708597 -0.012314569 -0.038459823
000060 34 f6 9a 3d bf 7a 71 3d 33 e9 ae bd 43 ad a3 3c
       0.07566491 0.05895495 -0.08540573 0.019980079
000070 27 b2 ae 3d 14 7b 66 3d c1 ce 58 3d f1 a9 69 3d
       0.085300736 0.05626972 0.05293155 0.057046834
000080 9e f6 94 bd 1d e3 57 bd 83 c1 93 3d e9 f0 d3 3c
       -0.07273601 -0.052706826 0.07214644 0.02587171
000090 14 7e c7 bc 63 73 b0 3d 2b 4e bc bc 9b 98 66 3d
       -0.02435211 0.08615758 -0.022986492 0.05629788
0000a0 56 a3 1a bc 77 fe 89 3d 53 fd f7 3c 00 9b b1 bd
       -0.009438356 0.067379884 0.030272162 -0.08672142
0000b0 32 57 10 3d 56 a9 ce bc 4c fd e4 3c 7f 56 de 3c
       0.035239406 -0.02522723 0.027952813 0.027140854
0000c0 ce 54 29 3d 24 52 2c bd f6 db 6a 3d f2 e7 40 3d
       0.04134064 -0.042070523 0.057338677 0.0470962
0000d0 f4 fe a1 bd 5d 83 ae 3d b0 0c c6 3b 76 84 9e 3d
       -0.079099566 0.08521149 0.006043993 0.07740109
0000e0 e0 a0 f1 bc a5 85 80 bd fb 13 0b 3c c6 f3 bb 3c
       -0.029495656 -0.06275491 0.00848865 0.022943389
0000f0 a1 be 96 3c 10 8e d2 bb 0e 03 76 bd 81 38 13 bc
       0.018401446 -0.0064256266 -0.060061507 -0.00898564
000100 ab 72 8e 3d ff 16 85 bd 3a f2 91 3d 86 94 74 3b
       0.06955465 -0.06498527 0.07126279 0.0037319972
000110 73 fb df bc b1 11 0d bd ef ec 99 3d 84 c6 a3 bd
       -0.02734158 -0.0344407 0.075158946 -0.07996848
000120 95 e2 96 bd 1f f0 9b bd 6b e3 95 bd 4e 76 07 3d
       -0.07367436 -0.07614159 -0.07318767 0.03307181
000130 2e 83 61 bd 15 ea 89 3c 23 8c 4a 3d 85 50 89 bd
       -0.055056743 0.016835252 0.04945005 -0.06704811
000140 36 8b 57 3d fb 97 90 bc 3f 91 ae bd b3 c6 17 3d
       0.052622996 -0.017650595 -0.08523797 0.03705473
000150 c2 37 a7 3d 94 12 a7 bc 9c 7e 89 ba db f0 63 3d
       0.08164932 -0.0203946 -0.0010490003 0.05564962
000160 e8 4a 2c bd a6 69 89 3c 68 e0 62 3c 66 8a 41 3c
       -0.042063624 0.01677401 0.013847448 0.011812782
000170 6d 84 aa b9 9f 95 78 bd 42 5a 5d bd 39 56 5a bc
       -0.00032523592 -0.060689565 -0.054041155 -0.013326221
000180 93 07 85 bd 4a e9 15 bd 8a 7c a4 3c 11 4d fa 3b
       -0.06495585 -0.036599435 0.020078916 0.0076385816
000190 f0 fc 88 3c cd db 06 bd f1 cc 0a 3d be 19 9d bd
       0.016722172 -0.032924462 0.033886854 -0.076709256
0001a0 e4 d5 57 3d 91 ab 70 3c 72 95 6c 3d 39 3f 38 3d
       0.052694216 0.014689342 0.05775971 0.04498217
0001b0 6a 85 ab 3c 7f 2e 61 bc 74 0f 15 bc 6b 4a 13 3d
       0.02093764 -0.013743996 -0.009097923 0.035959642
0001c0 2a 28 af 3d 2b 3e 4a 3d 70 c5 9e 3b 94 13 3b bd
       0.085525826 0.049375694 0.0048453137 -0.045672968
0001d0 8b 18 30 3d 63 20 37 3d e7 17 62 3d a4 cd 28 3b
       0.042992156 0.04470862 0.055198576 0.0025757337
0001e0 73 01 a8 3d ef c8 84 3d 1a f7 b5 bc 5f 50 84 3d
       0.082034014 0.064836375 -0.022212554 0.06460642
0001f0 fd 65 48 3d 60 31 b0 bc 34 2b 38 3d 1a 5a 96 3d
       0.04892539 -0.021507919 0.044963077 0.07341404

net.4.weight f4 [15, 128]
000000 a7 3b 50 3d 01 2a 2f bd b0 60 3f bb fa 53 dd 3a
       0.05083814 -0.042764667 -0.0029201917 0.0016885989
000010 5b 63 22 3c 7d 62 80 bd 41 d4 bc bc 70 ad 38 3d
       0.0099113835 -0.06268785 -0.02305043 0.045087278
000020 92 77 7d 3d 2a 78 7a bb f9 1e 7a 3a af 16 b1 3d
       0.06188161 -0.0038218596 0.00095413584 0.08646905
000030 e0 83 86 bd 13 0b 14 bb 77 b5 50 bd 42 1f b8 3c
       -0.06568122 -0.0022589609 -0.05095431 0.022475842
000040 b0 07 52 bd 6c aa 87 bd 2e 63 01 3d fc 09 38 bd
       -0.051276863 -0.06624302 0.031588726 -0.044931397
000050 fb b4 58 3d 1b 37 7f 3d df 2a 1a 3d de fc 74 3c
       0.05290697 0.062308412 0.03763854 0.014952866
000060 96 cc 25 3d 55 f1 90 3d 88 42 f2 3c 1c 79 52 bd
       0.04047831 0.070772804 0.02957274 -0.05138503
000070 fe eb 1e 3c b2 d2 42 bd b4 03 e6 3c 95 da 13 bc
       0.00969982 -0.047564216 0.028077938 -0.009024282
000080 10 81 a0 bd 10 05 a3 bd c7 af 50 bd fa 91 8e 3d
       -0.07837117 -0.0795995 -0.050948884 0.069614366
000090 76 13 4a bc bc a5 47 3d c1 52 5d 3d 90 43 0e 3d
       -0.012333741 0.04874204 0.054034 0.0347324
0000a0 fc fa 84 3d 91 85 a4 3c 5d f7 2c bb b4 99 3b 3d
       0.06493184 0.02008322 -0.0026392557 0.04580088
0000b0 e9 b5 4b 3d f9 52 78 3c d0 7c 91 bd b9 c4 52 bd
       0.04973403 0.015156501 -0.07103884 -0.05145714
0000c0 d1 14 90 3d 86 d9 46 3b 6a 28 7f bc a8 d6 85 bd
       0.070352204 0.0030342056 -0.0155736 -0.06535083
0000d0 77 9f 1f 3d d2 db a1 3d fb 72 52 bd b6 2a 05 3d
       0.038970437 0.079032555 -0.051379185 0.032511435
0000e0 c4 9f c5 3a 51 6f b7 bd f0 e6 ac 3d 38 8e 83 bd
       0.0015077521 -0.08956779 0.08442485 -0.064236104
0000f0 4b 7f 1b 3d 54 0c 99 bc a8 cb 32 bd 84 b5 44 bd
       0.037963193 -0.018682636 -0.043651253 -0.04802467
000100 9f 38 bc 3c c1 e6 62 bc 99 f0 a5 3c e3 3c 17 bc
       0.022976218 -0.013848961 0.020256327 -0.009230825
000110 cd 6d 26 bd ae bf 72 37 22 d5 6f bd 05 fa a0 3d
       -0.040632058 1.4468953e-05 -0.05855287 0.078601874
000120 86 da ba 3b 0b 7d 57 bd b3 b0 aa 3d 91 14 83 3d
       0.0057023196 -0.052609485 0.08334484 0.06400407
000130 a5 e4 87 bd ca 47 71 bd 4d be 7d 3d a0 25 c0 bb
       -0.06635407 -0.058906354 0.061949063 -0.0058638602
000140 cb 5c 43 bd c1 c8 a2 3d 9c c5 b6 3c 50 36 a9 3d
       -0.047695916 0.07948447 0.022311024 0.082623124
000150 10 7c 28 3d c7 c9 b2 bc 42 8f 35 3d 5e 00 87 bd
       0.04113394 -0.02182473 0.044326074 -0.06591867
000160 83 c8 9f 3d b4 a2 82 3d 7a c2 2d bd 92 32 5c 3d
       0.078019165 0.063786894 -0.042421795 0.053759165
000170 25 5b b6 bc 68 38 ab 3c 40 34 47 bc e8 a8 9b 3c
       -0.022260258 0.02090092 -0.012158453 0.01900144
000180 97 67 58 bc eb dc 1c bd fa 8a 66 bd e4 c2 59 3d
       -0.0132082915 -0.03829662 -0.056284882 0.053164378
000190 1d 2e ac bd 98 2f ad 3d 2d 09 a7 3d 50 78 ee 3b
       -0.08407233 0.084563434 0.08156047 0.007277526
0001a0 17 1b 97 3d 94 e5 32 3c d4 c0 9f 3d e8 bf 2f bd
       0.07378214 0.0109189935 0.07800451 -0.042907625
0001b0 fa b1 6b bb 2a c0 96 bd a4 ff 73 3d 8a 7c ad 3c
       -0.0035964237 -0.07360871 0.05956997 0.021177549
0001c0 9c 83 a3 3d 2d b7 a2 3d 1e 05 40 3d e5 58 aa 3c
       0.07984087 0.07945094 0.04687988 0.020794341
0001d0 19 b0 92 bc c2 a9 b4 3c 2c 4d e1 3d 2a d8 ce 3d
       -0.017906236 0.022053603 0.110010475 0.10099824
0001e0 ab ff 8f 3d 3f 80 43 bc 8c e3 7d 3d 25 55 9e bd
       0.07031187 -0.011932432 0.061984584 -0.07731084
0001f0 b5 a1 bb 3c da fe 6e 3d 82 82 3f 3b 00 bb 92 3d
       0.022904256 0.058348514 0.0029222076 0.07164574
000200 9e 4f c4 bc 66 33 76 3d 18 f5 b8 bd 22 00 43 3d
       -0.023963746 0.06010761 -0.09031123 0.04760755
000210 46 a2 29 3d bf d7 41 3d e1 e2 a5 bc 99 6d 8b bb
       0.04141452 0.047324892 -0.020249786 -0.0042550084
000220 15 6e b1 3d 05 2b ab 3d 4b e0 33 bd d6 29 8f bd
       0.086635746 0.08357815 -0.043915074 -0.069904014
000230 04 36 af 3d be 7a 16 3d 68 2d 97 3d d7 bc 27 bd
       0.085552245 0.03673815 0.073817074 -0.040951576
000240 a5 cb 79 3d 69 43 a7 bd df ca 74 bc ec ce 87 bc
       0.060985226 -0.08167154 -0.014940946 -0.01657816
000250 e3 93 e0 bc 0c 3e 31 bd 76 39 62 bd 67 18 3b bb
       -0.027414268 -0.043272063 -0.05523058 -0.002854848
000260 fc 3b 83 bd 86 b5 11 bd 16 d8 a3 bc 4f b4 89 bc
       -0.064079255 -0.035573505 -0.020000499 -0.01680961
000270 45 36 16 3d 97 52 77 bd 40 de a5 3d bd e5 a1 bd
       0.03667285 -0.0603815 0.080990314 -0.07905147
000280 d3 7f 3a 3d 76 9c 99 bd 95 d1 86 bc ff 84 e2 3c
       0.04553206 -0.07500546 -0.016457358 0.027651308
000290 c0 2d a2 3d 87 97 9b bd 51 ea 53 bd a6 ad cb 3c
       0.07918882 -0.07597261 -0.051737133 0.024863075
0002a0 fd fc 58 bd a6 39 ac 3c 07 49 c3 3c 2b 06 e7 3c
       -0.052975643 0.021023583 0.023838533 0.028201183
0002b0 2e 34 79 bb 82 ab 0b 3d 57 3d 0b 3d d9 75 82 3d
       -0.0038025486 0.03409911 0.033994045 0.06370134
0002c0 74 de 1b 3d 7a e4 8c 3d 2a d1 84 3d f3 37 be bb
       0.038053945 0.06879516 0.064852074 -0.0058050095
0002d0 50 d2 6f 3d 95 8f 55 3d 81 ca 2c 3d 5d 6c 84 bd
       0.05855018 0.052138884 0.04218531 -0.06465981
0002e0 c3 64 75 3d b1 a4 8e ba 17 44 48 bd 3c b2 ce bc
       0.059910547 -0.0010882822 -0.04889306 -0.025231473
0002f0 3f 6f 7e bc 2b 67 dd bc 57 51 2c bb 51 e8 13 bd
       -0.015529453 -0.027026733 -0.00262936 -0.036110226
000300 bb 5d 6b 3d 30 56 b2 bc e5 f7 9f 3c a8 d9 43 3d
       0.057462435 -0.021769613 0.019527385 0.047814995
000310 4c 2b 3e 3d 9b ab ac bd e8 fa b3 bc 66 5c 87 bd
       0.04642801 -0.08431169 -0.021970227 -0.066094205
000320 18 ed ad bd d4 27 85 3d 27 f8 8b 3d f8 a9 80 bd
       -0.08492488 0.06501737 0.06834441 -0.06282419
000330 26 5b 0a bd 2b 10 40 3d db b1 d2 3d ff 5b 9a 3d
       -0.033778332 0.04689042 0.102878295 0.07537078
000340 5c 37 70 3d 35 50 8c bd 16 d8 4a bd fc 23 98 3d
       0.058646545 -0.06851236 -0.04952248 0.074287385
000350 8c 4b 99 bd ca 5d d8 bc 46 81 91 bd e3 f7 6f bd
       -0.074851125 -0.02641191 -0.07104735 -0.058586013
000360 20 ed b6 3c b7 3b 83 b9 13 36 38 bd 78 46 86 bd
       0.022329867 -0.00025030758 -0.044973444 -0.065564096
000370 e8 54 a3 3d 4a 31 c8 3d 0d c1 38 3d 50 30 20 3d
       0.07975179 0.09775026 0.045105983 0.039108574
000380 f1 2c 54 bd d3 d2 0c bd 58 81 f4 3b d5 85 8c 3d
       -0.051800672 -0.034380745 0.007461708 0.06861464
000390 80 f3 4a ba 09 2e 30 3d 8c 83 17 bd 21 90 09 bd
       -0.0007741973 0.043012653 -0.036990687 -0.033584718
0003a0 0c bd 1d 3d bc 8b 99 bd 9c 73 0f 3c 47 9c ae 3d
       0.038510367 -0.07497355 0.008755591 0.08525901
0003b0 33 e9 4a bd c8 58 9c bc cc 15 92 bc dd 32 cb bc
       -0.049538802 -0.019085303 -0.01783266 -0.024804527
0003c0 27 41 87 3d 7e ce ec 3c 48 cd b1 3d c9 b1 a9 3b
       0.06604224 0.028907057 0.086817324 0.0051786643
0003d0 0f 96 29 3d 1c e1 cc 3c 60 f5 e7 bc 3e c9 d6 bd
       0.041402873 0.025009684 -0.028315246 -0.10487603
0003e0 8c df 65 3d 61 a6 57 bd b5 c1 f8 bc 5c 89 03 bc
       0.056121394 -0.052648906 -0.030365804 -0.0080283545
0003f0 ea ae 9f bd 36 95 66 3d 75 d6 16 bb 91 f9 21 bd
       -0.07797034 0.056294642 -0.002301601 -0.039544646

net.4.bias f4 [15]
000000 df f7 5c bd d4 02 ad 3d 5d 26 c2 bc 5e 8b 17 bd
       -0.053947326 0.08447805 -0.023699934 -0.036998145
000010 b2 9e d0 3a 4b ee df 3c 71 ae 72 3d 6d 45 61 bd
       0.0015916436 0.027335307 0.05924839 -0.05499785
000020 b9 c9 68 3d 6f 09 96 3d c5 75 94 3c d6 86 8e 3d
       0.056833003 0.07326018 0.018122563 0.06959312
000030 5d 88 95 3c 7b 49 38 3d 04 18 79 3c
       0.0182535 0.04499195 0.01520348

net.0.weight f4 [128, 77]
000000 74 e0 15 bc c1 7a 61 3d 0b de cb bd 42 b2 ae bd
       -0.009147752 0.055048708 -0.09954461 -0.08530094
000010 d5 0f 54 bd f8 ba c1 3c 61 45 ab bb d5 be a8 3d
       -0.05177291 0.023648724 -0.0052267765 0.08239523
000020 31 cf 51 bc dc 3d d4 3c a1 78 1d bd 71 0e e6 bc
       -0.012805746 0.025908403 -0.03844512 -0.028083058
000030 a5 bc e2 bd c4 ba a8 bd 3d 8f 53 bd 52 83 c2 ba
       -0.11071137 -0.08238748 -0.051650275 -0.0014840162
000040 99 1f 1e 3d fe 05 7f 3d 03 b0 aa bd 81 30 64 bd
       0.038604353 0.062261574 -0.08334353 -0.05571032
000050 d1 9e 10 3d de ce b3 3d 0b 67 f7 bc e2 a0 a1 3d
       0.03530771 0.08779691 -0.030200502 0.07892014
000060 06 ba cd bc d5 d5 09 3c 4b 88 c3 3d 79 5b de bd
       -0.025113117 0.008412798 0.0954748 -0.10857291
000070 2d 35 9c bd 35 f1 07 bd 64 39 51 bd 22 44 c5 3d
       -0.0762733 -0.033189017 -0.051080123 0.09632136
000080 60 0d a6 bd 2a fa 69 bd 12 e9 ae bd 87 dd e7 bd
       -0.0810802 -0.05712334 -0.085405484 -0.1132155
000090 1a c7 94 bd 21 29 bc 3d 29 5d 37 3d 4d 50 49 3d
       -0.07264538 0.09187532 0.04476658 0.049148846
0000a0 13 39 e4 b8 71 97 89 bd 05 59 58 3c fb 73 e5 bd
       -0.00010882518 -0.06718338 0.013204818 -0.11203762
0000b0 ea ff b0 bd 4f d5 86 bd f4 10 8d 3d 41 d8 78 3d
       -0.08642562 -0.06583654 0.06887999 0.06075311
0000c0 0c 37 65 bd bd 02 4e bc 91 31 8f 3d 74 5e d9 3d
       -0.0559607 -0.012573895 0.06991876 0.10613719
0000d0 e0 23 28 3d aa 76 24 3c 41 37 8f 3d 73 13 96 bd
       0.041049838 0.010038057 0.06992961 -0.073279284
0000e0 87 3c 78 3c 5c 69 c1 bd e7 38 ae bd 5c 18 88 bd
       0.01515115 -0.09443924 -0.08506947 -0.06645271
0000f0 6f d1 36 3d 6b 09 23 3d c9 3f 94 bd 0b cb e8 3c
       0.044633325 0.039803904 -0.072387286 0.028417131
000100 18 2c 62 3d ee 60 8e bc 8f 5d 51 b8 21 46 a5 3c
       0.055217832 -0.017380204 -4.9916616e-05 0.020175042
000110 aa c2 87 3d cb 81 dc 3d b8 4e c0 bd 56 3f 3d bd
       0.06628926 0.107669435 -0.093900144 -0.04620298
000120 0b 73 1d 3d b5 10 b4 3d 5d 95 be 3d eb 78 c1 3d
       0.03843979 0.08792249 0.093058325 0.094468914
000130 63 f2 87 3c a0 61 be bd 10 fa a8 3b 6e 69 9c bd
       0.016595071 -0.09295964 0.005156763 -0.076372966
000140 9c 56 dd bd d6 98 c4 3d 02 98 a6 3d 7c 5a ee bd
       -0.10807535 0.09599464 0.08134462 -0.11638352
000150 bb 5e 82 3c 22 cb c6 bc 2c 29 c7 bc 9a ba 5e bd
       0.015914312 -0.024266783 -0.024311624 -0.054377176
000160 0f 4e 09 3d b5 c3 94 bd 76 b6 0a 3d 1a f4 60 3d
       0.033521708 -0.07263891 0.033865415 0.054920293
000170 e8 05 9d 3d 42 1a 16 3d 9b f5 f1 bd ee b8 a1 bd
       0.07667142 0.036646135 -0.11814424 -0.07896601
000180 bf 40 53 3d 66 c2 97 3c 4f 6c bd bd 3d 3d 7c bd
       0.05157542 0.018525314 -0.09249174 -0.06158184
000190 aa 6f cf 3d 4c 43 92 3d 8d 84 57 bd 78 a1 07 bd
       0.1012872 0.07141742 -0.052616645 -0.033112973
0001a0 6b 48 e8 bd 76 a5 ed bb 7f f7 b2 bd 91 a0 c6 bd
       -0.11341938 -0.0072523905 -0.087386124 -0.09698594
0001b0 6c 87 3d bc ea 1a 2c 3c 0d 25 3e bd 8d 33 7e 3d
       -0.011567932 0.010504464 -0.046422053 0.06206088
0001c0 87 62 9a bd ad cf c8 3d af 08 95 3d 55 b9 cf bd
       -0.07538324 0.09805236 0.07277047 -0.10142771
0001d0 57 fe 09 bd ca 4e 9c 3b c6 f2 89 3c 8c 2b a7 3c
       -0.033689823 0.0047701346 0.016839396 0.020406507
0001e0 10 2c 21 3d 23 b9 4c 3b 6b 85 7e bd 8f 68 48 3d
       0.039348662 0.003123828 -0.062138956 0.04892784
0001f0 af 2a ed bd 97 33 92 bd a4 20 15 bd c2 50 76 bd
       -0.11580407 -0.07138746 -0.03640808 -0.06013561
000200 50 98 3d bd d5 de c2 bd 02 08 f4 bc f7 ef 96 3c
       -0.046287835 -0.09515158 -0.029788975 0.018424971
000210 e4 57 a2 bd e6 17 37 bc 0d 2a 9c 3d 92 9b 8b bc
       -0.0792692 -0.011175131 0.07625208 -0.017041955
000220 6e 91 22 3b 88 8e ec bb fa 0b 86 3c 6a 79 89 3d
       0.002480592 -0.0072191395 0.016363133 0.06712611
000230 4e 27 e0 3d 07 76 90 3d 3b 25 d2 3d 91 6b 42 bc
       0.10944997 0.07053762 0.102610074 -0.011866466
000240 23 89 d7 bd 6a af 7b bd 3b 4d 95 3d 2e ed f3 bb
       -0.10524204 -0.061446585 0.07290121 -0.0074440455
000250 52 3a 6f bd 1a 46 bd bd f1 f1 e7 bd 6e e3 cf bd
       -0.058405228 -0.092418864 -0.113254435 -0.10150801
000260 9a ff e8 bc f6 2a 6a 3d 64 23 35 3e e1 ea ce bd
       -0.028442193 0.057169877 0.17689282 -0.10103393
000270 27 91 98 3d a8 d1 c2 bd 30 e9 90 bc 7f ef 26 bd
       0.074495606 -0.09512645 -0.017689317 -0.040755745
000280 26 5f 32 bb 1f f8 6e bc 69 d7 bd bd 86 20 a9 bd
       -0.0027217357 -0.014585524 -0.09269602 -0.082581565
000290 7e 46 79 bb 71 cc 03 3d b9 31 38 bd db 1f 3b 3d
       -0.0038036401 0.032177392 -0.044969294 0.045684677
0002a0 53 a9 bd bd 8b 1e 13 bb 54 8c de 3d dd b2 1b bd
       -0.09260812 -0.0022448625 0.10866609 -0.038012374
0002b0 ee ec e4 3d 39 64 4d 3d 3a 74 c0 bd 3d bd 9c 3d
       0.11178003 0.050144408 -0.093971685 0.07653282
0002c0 6f ae bb bc 68 22 2d bd f1 05 cb 3d d4 f6 9f bd
       -0.022910325 -0.04226914 0.099132426 -0.078107506
0002d0 8d 35 5e 3c ba 02 65 bc 54 60 b9 3d 97 bf 54 3d
       0.013562572 -0.013977701 0.09051576 0.051940527
0002e0 0b 77 84 3d 5b 37 51 3d a1 7c 92 bc e3 68 94 bc
       0.06468018 0.05107818 -0.017881693 -0.01811642
0002f0 79 11 c0 bd ee ed 90 3d 20 6d cb 3d 56 dd b1 3d
       -0.09378333 0.070766315 0.09932923 0.086847946
000300 e7 74 92 bd 2a a7 64 3c a7 bc aa bd 6c bb 5b bd
       -0.071512036 0.013955871 -0.08336764 -0.053645536
000310 24 28 6d bd eb 91 39 3d 8b a4 86 bd a5 db d5 3b
       -0.05789961 0.045305174 -0.06574353 0.006526428
000320 5c 2e 68 3c d7 47 a0 3d b8 16 97 bd 5c d7 22 bd
       0.014171209 0.07826202 -0.0737738 -0.039756164
000330 1e 2f 64 bd 4d 8b b9 3d d2 e7 05 bd 8f 07 d5 3d
       -0.055708997 0.09059773 -0.032691784 0.10401832
000340 bb 9b 49 3d c5 1b bf 3c f2 7a 03 3c c0 b7 5f bc
       0.04922078 0.023328671 0.008024918 -0.013654649
000350 2b d2 bd 3c e5 34 e8 bc 60 ad c1 3b ce 73 ac 3c
       0.023171505 -0.028345535 0.0059105605 0.021051314
000360 5e 9f a3 bd ea 92 56 bd e8 66 cf 3d df db a8 bd
       -0.07989381 -0.052386202 0.1012705 -0.08245062
000370 00 3d 31 3b a5 72 e6 3d 76 73 b6 3d 29 f2 65 3c
       0.0027044415 0.112523355 0.08908741 0.014034786
000380 8a 1a bc bd 36 58 8b 3d e6 e4 d9 bd 21 9e cb bc
       -0.091847494 0.06803934 -0.10639362 -0.024855675
000390 87 dc f2 bc 40 2d f9 bb 6a cd 25 3c 70 16 bb 3d
       -0.029646171 -0.007604271 0.010119775 0.09135139
0003a0 22 36 7b 3c 09 90 db 3d 8f 5c ac 3d 73 07 9d bd
       0.0153327305 0.10720832 0.08416092 -0.076674365
0003b0 a1 36 58 3d 48 c4 82 bd 5b 82 49 bd a7 ad 3b 3d
       0.052786473 -0.06385094 -0.049196582 0.045819905
0003c0 85 a3 38 3d 43 a6 b1 3d e8 21 ff bc 1b d3 6b 3c
       0.04507782 0.0867429 -0.031144097 0.014393593
0003d0 cc fb 58 3d 27 b1 e0 bd ee 99 a9 3d 13 02 bd bd
       0.052974507 -0.10971289 0.08281313 -0.09228911
0003e0 c5 4f 38 3b d7 80 95 bc a3 4f 71 bd 61 73 84 3c
       0.0028123718 -0.018249912 -0.058913838 0.016168298
0003f0 31 4a be 3d 5a 13 bf bc 3e 64 8d bd 89 97 2e bd
       0.09291495 -0.023324657 -0.06903885 -0.042624984

net.0.bias f4 [128]
000000 c5 eb f4 bc 32 ab 53 bd a2 ec 8d bd c5 7f 17 3d
       -0.02989758 -0.051676936 -0.069299 0.036987085
000010 83 c0 16 bd 5f e2 6d bd b4 97 d0 3c 86 8a 10 bd
       -0.036804687 -0.058077212 0.025462963 -0.035288356
000020 6b 02 9a 3c 33 ca b9 bb 23 31 1a 3d d9 d8 a2 3d
       0.018799981 -0.005669856 0.037644517 0.07951517
000030 75 1e cd bd 1f 4b 4d bd 9e d4 e4 3d 89 47 42 3c
       -0.10015575 -0.05012047 0.11173366 0.011857876
000040 a4 85 c4 bc b9 99 b0 3d cc 4a cb 3d af b9 06 3d
       -0.023989506 0.0862307 0.09926376 0.032891925
000050 c6 ed b8 bd 15 b3 ea 3d 2a 22 cd bd c6 66 e2 bd
       -0.09029727 0.114599384 -0.10016282 -0.11054759
000060 f0 37 71 3c 0e 81 0b bd 22 38 e2 bd 0e d3 af 3d
       0.014722809 -0.034058623 -0.11045863 0.08585177
000070 fe 7e ba 3c 54 16 76 bd ce cd 20 3d d8 ec a9 3d
       0.022765633 -0.060079888 0.03925877 0.082971275
000080 c0 ec 45 bc af cc ba 3d 2c 0f 93 3d 2e a4 0d 3d
       -0.012080371 0.091210715 0.07180628 0.034580402
000090 8c 42 67 bd 6c 16 af bd 2e 46 12 3a de e9 0c bd
       -0.05645995 -0.085491985 0.00055799156 -0.03440272
0000a0 9a ad da bd 7a 47 dd bd 5e 11 87 bd 6a 51 f3 3b
       -0.10677643 -0.10804649 -0.065951094 0.007425477
0000b0 6e 0e 2f bd 71 17 c4 bd 0c 1d a1 bc b6 80 2d bd
       -0.04273837 -0.095747836 -0.019667171 -0.042359076
0000c0 65 ba 08 bd bf 10 9a 3d c5 25 85 3d 0f 2f 9c 3d
       -0.033380885 0.07522725 0.065013446 0.07626163
0000d0 94 70 eb 3d 3e cc db 3b fb 75 74 bd fc bb 88 bc
       0.11496082 0.006707697 -0.059682827 -0.0166912
0000e0 aa 23 8d 3c d5 a1 21 bd ae 7e bb 3d 8c 34 75 3d
       0.01722892 -0.039460976 0.091550216 0.059864566
0000f0 fa 47 a9 bd 22 d1 15 3c 1b 8c 9b 3b 0b aa 26 3d
       -0.082656816 0.009144099 0.0047469265 0.04068951
000100 c3 e4 84 bd 9b df d9 3d fd fb 09 bd ad 7d 36 3d
       -0.06488945 0.106383525 -0.03368758 0.044553448
000110 92 c6 6a bd a2 d0 12 3d bc 5b 15 bd bf 25 6d bd
       -0.057318278 0.0358435 -0.036464438 -0.057897326
000120 ca 6a cc bd 22 65 29 3d 80 c6 9c 3c 4d bf 18 3d
       -0.09981306 0.041356213 0.01913762 0.037291814
000130 b9 26 80 bd b3 1b ce 3c 47 37 44 bd 21 f6 e7 3c
       -0.06257386 0.025159692 -0.04790428 0.028315606
000140 26 e8 d9 3d dc 76 ca bd bb 90 36 3d 5d 66 9c bd
       0.10639982 -0.09885952 0.04457162 -0.07636712
000150 d2 ba 0d 3d 70 ac cb bc 4f 1f 43 3d 56 6d b6 bd
       0.034601994 -0.024862498 0.04763728 -0.08907573
000160 4b 58 a0 3d 32 6c 86 3d 12 41 95 bd 34 0a 96 bd
       0.078293405 0.06563605 -0.07287802 -0.07326165
000170 3a 75 92 3d 2c fe b2 bd 10 7d 3f 3d cb 7a 64 bd
       0.071512654 -0.08739886 0.04675013 -0.055781167
000180 f9 e0 cf bd 87 0e 03 3d 2b 09 3c bd 7b c5 85 bd
       -0.10150332 0.031996276 -0.04590718 -0.06531807
000190 c8 ea 29 3d d7 f1 44 3d fb 9d b1 3d 38 90 e5 3d
       0.04148367 0.0480822 0.086727105 0.11209148
0001a0 a3 b4 31 3d 84 e1 06 bd c6 61 7c bc 68 96 b0 3d
       0.04338516 -0.032929912 -0.01540417 0.08622438
0001b0 1a 30 be bd 88 8f aa 3d 7d 77 5f 3d 11 1f 36 3d
       -0.092865184 0.08328158 0.054557312 0.04446322
0001c0 7c d9 12 3d 29 e0 bf bd dc 30 29 3d 80 93 4f bc
       0.03585194 -0.09368927 0.04130636 -0.012669444
0001d0 bd 14 31 3b 99 a0 68 bd bf b9 a2 3d 24 ee 9b bc
       0.0027020418 -0.056793783 0.079455845 -0.019034453
0001e0 4a ea a4 bb 80 51 b8 bd 6c 53 ab 3d a6 8a d2 bd
       -0.0050328122 -0.0899992 0.08365521 -0.10280351
0001f0 fc 85 9c 3d 28 45 57 3d bf 05 91 3c 7e f7 e1 bd
       0.07642743 0.052556187 0.017702935 -0.110335335

net.2.weight f4 [128, 128]
000000 60 ad 4a bd 2d c5 d4 bb 92 59 42 bd 40 b1 b6 bc
       -0.04948175 -0.0064932317 -0.047448702 -0.022301316
000010 ab fe 34 bc 0c fe ec bc 03 ca 41 3d cb 09 a7 3d
       -0.011047046 -0.028929733 0.047311794 0.08156165
000020 95 a0 27 bd b4 85 72 3d 0e 92 e0 bb 73 f8 90 3d
       -0.040924627 0.05920954 -0.0068533486 0.07078638
000030 19 e0 9d bd 1d b0 20 bd d4 0d 91 bc 2f e8 da 3d
       -0.07708759 -0.039230455 -0.01770679 0.10688817
000040 fc 3f a4 3d 67 74 bc bb 03 2b 5f bd df d9 1c bd
       0.080200166 -0.005751181 -0.05448438 -0.038293716
000050 a8 1b 32 3c c6 aa d1 3b 9a 4c 4b bd 75 51 ff 3c
       0.010870852 0.0063985316 -0.0496336 0.031166771
000060 ea 71 98 3b 79 e9 79 3d bb fa 01 bd 99 7d 38 bd
       0.0046522515 0.061013673 -0.031733256 -0.045041654
000070 f7 cd 15 3c d9 4a a5 3b 3b 81 54 3d ed b7 b0 3d
       0.009143344 0.005044323 0.051881056 0.08628831
000080 65 cd 11 bd 57 e3 af 3d 50 3a 3a 3d 0f d2 bc 3d
       -0.03559627 0.085882835 0.045465767 0.09219753
000090 aa e6 19 3d ff b8 1c bc 0e 74 6d bb 93 b8 36 3c
       0.037573494 -0.009565591 -0.0036232504 0.011152404
0000a0 9f 96 84 bd b5 50 48 bc c1 8b 69 3d a6 bd 8e 3c
       -0.06474041 -0.012226273 0.057018045 0.017424416
0000b0 fd 08 9b 3c 30 28 0c 3c c8 39 9c 3c ad ca 72 bd
       0.018925184 0.008554503 0.019070521 -0.059275318
0000c0 cd d8 b3 bb 5d c4 11 bc cd 0e de bc ee 03 65 bd
       -0.005488491 -0.008896914 -0.027106667 -0.05591195
0000d0 cb a8 00 3c 54 16 94 3b d8 71 13 bd 80 fa b0 bc
       0.007852743 0.0045192633 -0.03599724 -0.021603823
0000e0 ea 33 d8 bc 57 e8 cf 3a 10 2b 9d bd 99 8b 93 3d
       -0.026391942 0.0015862089 -0.07674229 0.072043605
0000f0 95 5d 41 bd 63 4b 50 3d 6e 0d a2 bd 66 f1 4b bc
       -0.047208387 0.050853144 -0.07912718 -0.012447691
000100 e3 1d f7 bb bf 28 89 bd 50 c6 ed 3b cd 30 74 bd
       -0.0075414046 -0.06697225 0.0072563067 -0.059616853
000110 a3 de 0e 3d 1b 93 8f 3d e6 01 b6 bc c6 7c 96 3c
       0.03488029 0.0701048 -0.022217702 0.018370043
000120 c0 ab 61 bd f2 56 44 3d ac 04 c1 bd 77 0f c7 3d
       -0.055095434 0.04793448 -0.09424719 0.097197466
000130 a0 25 a3 bb a0 cb a6 3c 13 b8 ae 3d 08 30 99 bd
       -0.0049788505 0.020360768 0.08531203 -0.07479864
000140 2f 95 3c bd b4 c9 66 b9 3c 30 7f bd 7b 28 9b 3c
       -0.04604071 -0.0002200965 -0.06230186 0.018940201
000150 7d 59 fe 39 84 cc a9 bd 43 9b bc bc d3 d5 a3 bd
       0.0004851333 -0.082909614 -0.023023253 -0.07999768
000160 34 49 c0 3c e2 81 ac 3d 90 55 a6 3d 73 e2 7b bd
       0.023472406 0.08423211 0.081217885 -0.061495256
000170 6f f0 22 3d a3 99 0f bd 54 7e 08 3d 3e 48 47 3d
       0.039780077 -0.03505863 0.0333236 0.04865288
000180 f2 f3 af bd a4 fd 55 bd 34 ad 84 bd 9f eb 08 bc
       -0.08591451 -0.052243844 -0.064783484 -0.008356958
000190 ac 92 59 3c 10 9f 59 bd 1e 65 0a bb 45 fc f4 bc
       0.013279598 -0.05313021 -0.00211174 -0.029905448
0001a0 d9 5d cb 3d ba f7 a5 bd f3 b6 71 bd 34 38 4c 3c
       0.099300094 -0.08103891 -0.059012365 0.012464572
0001b0 e4 31 8c bd dc 2c 75 3d e3 a8 9c bd 0c 10 04 bd
       -0.068454534 0.059857234 -0.076494 -0.032241866
0001c0 7e 12 f5 bc 43 7a 04 3c 6f 02 2c bd 25 3f 7d 3d
       -0.029916044 0.00808579 -0.04199451 0.061827797
0001d0 0c ce 7a bd 31 37 58 bd 7d 73 bd bc 87 03 ad bd
       -0.061231658 -0.05278701 -0.023126358 -0.084479384
0001e0 d2 bd ae bd 0c f2 24 3d 69 3d 9c 3d ac 0d ca bc
       -0.08532299 0.040269896 0.076289006 -0.024664722
0001f0 e2 e5 94 bc b0 8a 11 3d ce 0d 8b 3d 27 75 a2 bd
       -0.018176023 0.035532653 0.067897424 -0.07932501
000200 e5 da 2c bd 37 01 99 3d 86 24 21 3d 00 0d a8 bd
       -0.04220094 0.07470935 0.039341472 -0.082056046
000210 80 97 d8 3a 4d 14 89 bd 37 06 8c bd 2e d1 33 bd
       0.0016524643 -0.06693325 -0.06837123 -0.04390066
000220 cd aa b3 3d c0 bf 50 bd b2 d8 78 3d e8 46 a4 bd
       0.08772812 -0.050964117 0.06075353 -0.08021337
000230 70 3f c7 bb a7 b4 a3 3d 24 95 a2 bc ee 8c f9 bc
       -0.0060805604 0.07993441 -0.019846506 -0.030462708
000240 5a 0e 20 bd 0a d5 82 bd 80 52 e8 3c 16 f5 83 bd
       -0.039076187 -0.0638829 0.028359652 -0.06443231
000250 4a 44 66 bd 4b 3f 9d 3d 23 b3 86 3d 8d 4d 3d bd
       -0.05621747 0.07678088 0.06577136 -0.046216536
000260 00 92 f4 3a d4 8c c2 bc ef ce 89 3d b0 84 a2 bd
       0.0018659234 -0.023748793 0.067289226 -0.079354644
000270 36 a3 a2 bd ee 35 31 3d d0 07 8a 3b 68 cf d3 bc
       -0.07941286 0.043264322 0.004212357 -0.025855735
000280 a6 6e 39 3d 5a b0 14 3d e3 4a 76 bd 56 d7 4e 3d
       0.04527154 0.036300994 -0.06013001 0.05049833
000290 72 3d 52 3d 18 c7 4c bc ee 9c 9c bd 22 04 18 3d
       0.05132813 -0.0124986395 -0.076471195 0.037113316
0002a0 36 ad 57 3d d9 d0 b3 bd 82 7c a7 bd 28 dc 2e bc
       0.05265542 -0.08780069 -0.08178045 -0.0106726065
0002b0 b0 bd 9e bd e2 d5 34 bd bf 46 8d 3d 1c 6d 84 3c
       -0.07751024 -0.044149287 0.06898259 0.016165309
0002c0 36 4a 58 3d 80 86 aa 3c 8f ff b0 3d 4a d4 15 3d
       0.052805148 0.020816088 0.08642494 0.036579408
0002d0 24 37 d5 3c 7b 09 89 3d 7f ca 0f bd a7 25 9b 3d
       0.02602727 0.066912614 -0.035105225 0.07575541
0002e0 58 f6 09 3c a5 b4 a5 3d 69 d7 57 bd ea ed 75 bd
       0.008420549 0.08091096 -0.052695666 -0.060041346
0002f0 19 b7 83 3d 94 7b 50 bd e8 ea 8b 3c c5 7c ab 3d
       0.064314075 -0.050899103 0.017079785 0.08373407
000300 f0 64 87 3c a3 93 80 bd 00 6f 5c bd 22 c9 47 bd
       0.016527623 -0.062781595 -0.053816795 -0.0487758
000310 a4 8a 75 bd 56 2f 42 3d 90 f5 51 3c 98 7e 02 bc
       -0.05994667 0.047408424 0.012814894 -0.007964753
000320 2c a6 c9 3c 62 a6 53 3d 30 76 ff 3b 76 08 6b 3d
       0.02461537 0.051672347 0.0077960715 0.057381116
000330 90 91 42 bc 68 d8 0b 3d 24 cb 9a 3c 00 14 48 3a
       -0.011875525 0.034141928 0.018895693 0.0007632375
000340 73 b3 83 3d e3 bf ae 3d 23 b0 91 3d 98 be b7 bc
       0.064307116 0.08532693 0.071136735 -0.02242975
000350 16 11 eb bc 1f 02 95 3d ae 7b 24 bd 20 53 1b 3c
       -0.02869467 0.07275795 -0.040157013 0.009480268
000360 02 79 4d bd b8 51 bc bc 64 36 07 bd a6 02 62 3d
       -0.05016423 -0.022988185 -0.033010855 0.055178307
000370 d2 69 1e bd cf 3b 1d bd 82 76 19 3d 90 1c a0 bb
       -0.038675137 -0.038387116 0.037466533 -0.0048862174
000380 28 a6 0b 3c 08 5e 87 bd 51 50 1f bd 5e ea 35 3d
       0.008523501 -0.06609732 -0.038894955 0.044412963
000390 ca 50 26 3d 1a f5 a5 bd fb 62 7b bd 4c 65 d2 3c
       0.04060439 -0.0810339 -0.061373692 0.025683068
0003a0 58 26 8e bd 02 92 3f bd 60 c8 4c bd 0a 28 8a bd
       -0.06940907 -0.046770103 -0.04999578 -0.06745918
0003b0 79 d7 30 bd 9e 03 7e 3d 7a 86 a6 bd be e4 6f 3d
       -0.04317424 0.06201517 -0.08131118 0.058567755
0003c0 cc e4 9c bd 3c 4b c3 bc 2e fd f1 bc 7e ab 65 3d
       -0.07660827 -0.023839585 -0.02953967 0.05607175
0003d0 d3 a5 92 bd a2 18 34 bd 9f 43 b2 bd f4 e5 d4 bc
       -0.07160535 -0.043968804 -0.08704304 -0.025988556
0003e0 66 0d 10 3d 13 45 ab 3d 7f d2 9c 3d 60 97 c0 bc
       0.035169028 0.08362784 0.076573364 -0.023509681
0003f0 ac ce 40 bd f4 a8 a0 3c ae 29 70 3d bd 29 a2 3d
       -0.047072098 0.019611813 0.0586335 0.07918117

net.2.bias f4 [128]
000000 cc e4 c4 bc 7a 9e 6a bd 38 d7 9a 3d 07 8b 96 3d
       -0.02403488 -0.05728004 0.07560581 0.07350736
000010 64 b8 a2 3c 4e ec 4f bd d8 91 f5 3c 58 2e 57 bd
       0.019863315 -0.050762467 0.02997677 -0.05253443
000020 50 92 a0 bd 9b 8c af 3d 47 7e 23 3d b6 72 df bc
       -0.07840407 0.0857174 0.03991535 -0.027276378
000030 11 9e 8e 3d 64 6b c7 3b 8c 19 e7 3c 96 9c a5 3b
       0.069637425 0.0060858 0.028210424 0.005054067
000040 9b f1 98 3d f1 b6 80 3d bf ff 4a bb 2b 58 31 3d
       0.074679576 0.06284893 -0.003097519 0.043296974
000050 22 d4 09 3d 15 7a 3a 3d 8d 0f 47 bc b8 7c 1d bd
       0.03364957 0.045526583 -0.012149704 -0.03844902
000060 c6 85 9b 3d d3 45 70 3d 1d 4f b0 bd 43 ad a3 3c
       0.07593875 0.05866034 -0.0860884 0.019980079
000070 e5 07 ae 3d d6 00 66 3d c1 ce 58 3d 4a 08 6f 3d
       0.084975995 0.05615314 0.05293155 0.058357514
000080 8a 65 94 bd a0 66 58 bd 47 ff 93 3d 40 ca cf 3c
       -0.072459295 -0.052832246 0.07226425 0.025364995
000090 a8 02 ca bc 9e 3a b0 3d b5 66 b8 bc 3e d0 64 3d
       -0.02465947 0.0860493 -0.022509912 0.055862658
0000a0 50 1b 20 bc 6a a8 89 3d 3a 3a f2 3c 00 9b b1 bd
       -0.009772137 0.067215756 0.02956878 -0.08672142
0000b0 ed 79 0f 3d 3d 47 d1 bc 7b ee e3 3c 13 44 db 3c
       0.035028387 -0.025546664 0.027823677 0.026765859
0000c0 15 c5 28 3d 82 3a 2e bd 69 b6 69 3d b0 36 41 3d
       0.041203577 -0.042536266 0.057058726 0.047171295
0000d0 7c 7e a1 bd af 73 ad 3d bb bc c0 3b 76 84 9e 3d
       -0.07885453 0.084693305 0.0058818734 0.07740109
0000e0 6c 8d f2 bc 71 b3 80 bd 82 e5 09 3c 4e 06 b7 3c
       -0.02960845 -0.06284226 0.008416535 0.022341873
0000f0 1f cd 96 3c a1 b1 d4 bb f7 f7 75 bd 09 83 02 bc
       0.018408356 -0.0064909016 -0.06005093 -0.0079658115
000100 ed 33 8f 3d 9a 39 87 bd 78 85 91 3d ce 75 6b 3b
       0.06992326 -0.066027835 0.07105535 0.0035928371
000110 5d 79 e4 bc 02 7a 0e bd 4a 28 9a 3d 93 94 a4 bd
       -0.027889902 -0.034784324 0.07527216 -0.08036151
000120 75 10 97 bd ce 68 9b bd 6b e3 95 bd 4e 76 07 3d
       -0.07376186 -0.07588349 -0.07318767 0.03307181
000130 b6 7b 60 bd 81 7e 8b 3c d2 bf 49 3d 85 50 89 bd
       -0.05480548 0.017028095 0.0492552 -0.06704811
000140 b3 aa 55 3d 81 4e 91 bc 3f 91 ae bd 83 97 16 3d
       0.052164745 -0.017737629 -0.08523797 0.036765587
000150 3e ce a6 3d 82 10 a4 bc af fe f4 b8 42 58 6b 3d
       0.08144806 -0.020027403 -0.00011682265 0.057457216
000160 3e 4a 2c bd 73 47 89 3c ca 43 50 3c 66 8a 41 3c
       -0.04206299 0.016757702 0.012711475 0.011812782
000170 ad cf d8 b9 b8 5b 7c bd 57 2e 5c bd 4a dd 5a bc
       -0.0004135346 -0.061610907 -0.05375513 -0.0133584235
000180 71 db 85 bd 4e 64 16 bd 24 1a af 3c cb f7 ec 3b
       -0.06535996 -0.03671675 0.02137477 0.0072316877
000190 f0 fc 88 3c c1 45 07 bd c4 24 08 3d f6 09 9e bd
       0.016722172 -0.033025507 0.033238187 -0.07716744
0001a0 1d 0a 58 3d 1f b6 77 3c 18 9c 6c 3d 94 44 37 3d
       0.05274402 0.015119105 0.05776605 0.044743136
0001b0 30 89 a9 3c 26 41 79 bc db 68 1a bc 2e 25 13 3d
       0.020695299 -0.0152132865 -0.009424414 0.03592413
0001c0 e8 4e ae 3d 07 af 49 3d 68 ed b4 3b 81 5b 3c bd
       0.08511144 0.049239185 0.005521465 -0.045985702
0001d0 fe 9a 30 3d 63 20 37 3d 43 fd 61 3d 84 d7 00 3b
       0.043116562 0.04470862 0.05517317 0.0019659707
0001e0 cd 4f a7 3d d4 39 85 3d 1d fe b6 bc 02 bf 83 3d
       0.08169518 0.065051705 -0.022337968 0.06432916
0001f0 68 82 48 3d 60 31 b0 bc 69 f0 37 3d 8a cd 95 3d
       0.04895249 -0.021507919 0.044907007 0.07314594
