ddqn_out/dqn_ep4100.pt (torch, 464501 bytes, 24 tensors)

net.0.weight f4 [128, 77]
000000 70 f8 c6 3f 56 f3 42 3d 64 58 bd bd df a5 86 bd
       1.5544567 0.047595344 -0.09245375 -0.06574606
000010 a1 fc 2a bd 32 d3 c3 3c 0a f9 5d bb 95 8f 98 3d
       -0.041744832 0.023904417 -0.0033870363 0.07449261
000020 6d 19 9b bc e6 24 d3 3d 03 2d 4b 3d 94 11 a3 bb
       -0.018933022 0.10309772 0.049603473 -0.0049764607
000030 dc 75 79 bd e3 f5 63 bd c7 d0 41 3d 51 d8 08 3d
       -0.060903415 -0.055654418 0.047318246 0.03340942
000040 b0 d0 58 3d bf 17 94 3d 41 44 91 bd 23 5c 81 bd
       0.052933395 0.07231092 -0.070930965 -0.06316402
000050 9f 2f e4 3c 41 0b a7 3d cd 29 85 bc 8d 11 8b 3d
       0.027854739 0.081564434 -0.016255284 0.06790457
000060 7b 9f 3d bd d8 58 51 3d 17 c4 da 3d 47 65 13 be
       -0.04629467 0.05111012 0.106819324 -0.14394103
000070 69 21 d6 bc 1d 19 0b 3d 4b 7e 9c bc 64 d3 94 3d
       -0.026138978 0.033959497 -0.01910319 0.07266882
000080 3e 9d 7f bc d4 81 51 bb de 3d 30 bd e6 9d 9f bd
       -0.015601454 -0.0031968253 -0.04302775 -0.077937886
000090 3c 24 35 bd 86 11 e9 3d e0 d5 18 3d 04 c9 2a 3d
       -0.04422401 0.113802955 0.037313342 0.04169561
0000a0 c2 b7 ac ba 57 9f 97 bd 92 a9 be bb 35 b6 d4 bd
       -0.0013177323 -0.074034385 -0.005818554 -0.10386316
0000b0 bd 26 29 bd 39 e0 7d bc e8 35 c6 3c 9c 40 7b 3d
       -0.04129671 -0.015495353 0.024195626 0.061340913
0000c0 35 d4 a6 3c 66 e5 13 bb 85 0b 87 3d b0 40 f7 3d
       0.02036486 -0.0022567152 0.06593994 0.12072885
0000d0 6f a0 ab 3c 70 4c 33 3d 40 2d 98 3d d7 6d 45 bd
       0.020950524 0.04377407 0.07430506 -0.048200455
0000e0 bc e8 0d 3d 2f ad d0 bd b9 7c bd bd 69 4f 42 bd
       0.03464578 -0.10189282 -0.092523046 -0.047439013
0000f0 cc ee 3a 3d 93 7d e9 3c b0 35 f6 bd b9 b6 1d 3d
       0.04563789 0.028502261 -0.12021959 0.038504336
000100 df 47 e2 3d 06 46 3b bd fc 73 0c 3e 00 e2 6a 3d
       0.110488646 -0.045721076 0.1371612 0.057344437
000110 6a b8 2d 3d a6 c9 e8 3d a7 74 a1 bc f5 8a 1d bd
       0.0424122 0.113665864 -0.019708944 -0.038462598
000120 e9 e4 ad 3d 7d 26 08 3e 0f 70 bf 3d 88 dd e5 3d
       0.08490927 0.13295932 0.09347545 0.11223894
000130 57 c7 15 3c 6f 36 84 3f 7e 48 6a 3c 00 1a 78 bd
       0.009141765 1.0329112 0.01429951 -0.06057167
000140 9d ee fe 3c 3d 38 03 3e 00 20 c2 3d d7 9f 0b be
       0.031119639 0.12814422 0.0947876 -0.13635193
000150 1d 55 45 3d 19 55 67 bc cf a1 f1 ba 81 fe 47 bd
       0.048176873 -0.01411941 -0.0018435064 -0.0488267
000160 3f 89 03 3e 1f 4d 17 bd 72 7d af bc 80 46 9e 3d
       0.12845324 -0.036938783 -0.021422122 0.077282906
000170 98 76 01 3d 5a 91 35 3d ab 12 c7 bd 33 b6 46 bd
       0.03160724 0.04432807 -0.097203575 -0.048513602
000180 ce b3 78 3d 7d a7 e2 3c fd 7e d9 bd c0 c2 20 3d
       0.06071835 0.027667755 -0.10619924 0.039248228
000190 6e a6 17 3e e1 d7 d5 3d b9 74 85 be d6 aa e0 bb
       0.14809582 0.10441566 -0.26065615 -0.0068563027
0001a0 b8 c1 48 bd 29 b1 29 3c 14 89 38 bd 2b bf 12 bd
       -0.04901287 0.01035718 -0.045052603 -0.035826843
0001b0 74 10 f2 3c 35 a9 65 bd c9 15 9a 3c 3c 7a 03 3d
       0.029548861 -0.05606957 0.018809216 0.032098994
0001c0 e2 b7 81 bd 70 e1 bb 3d e2 f8 91 3d e3 ff bc bd
       -0.06333901 0.09173858 0.07127549 -0.09228494
0001d0 fb 16 c9 bc d9 b0 2e bd 4b e9 b6 3d 52 f6 29 3d
       -0.02454709 -0.042649124 0.08931216 0.041494675
0001e0 6e c0 a1 3d c7 81 17 be 0b 04 7a bd 34 e4 06 3e
       0.07898031 -0.147956 -0.061039012 0.1317299
0001f0 ed f6 f4 bd 48 7e 91 bd 61 07 00 3d 9e 57 5a bd
       -0.1196116 -0.07104164 0.031257037 -0.053306215
000200 46 7b d0 bc 4e 79 86 bb c9 df ef bc 2c 18 ba 3c
       -0.025449406 -0.004103816 -0.029281514 0.022716604
000210 26 db 75 bd 93 29 46 3c 7f e3 ae 3d e3 6b 01 bc
       -0.06002345 0.012094873 0.08539485 -0.007899257
000220 d5 23 70 bd de 8f 23 3d cf 7e c7 3d fc 10 ae 3d
       -0.058627922 0.039932124 0.09740984 0.08499333
000230 4c 0c 28 3d c6 bd 40 3b 92 41 85 3e 90 41 1b 3c
       0.041027352 0.0029409989 0.2602659 0.009476081
000240 ac d7 d1 bd 6a 4f 01 3c 3b e4 3e 3d 8a 18 13 bc
       -0.10246214 0.007892469 0.046604376 -0.008978019
000250 e5 b8 59 bc 8d 7d b1 bd 9c cd d4 bd f4 84 bc bd
       -0.013288711 -0.08666525 -0.103907794 -0.09205046
000260 58 7d fd bc db ce 87 3d 0b 34 10 40 61 d3 c1 bd
       -0.030943558 0.066312514 2.2531765 -0.094641455
000270 48 64 a2 3d c4 cc 63 bd 6d 7a 5b 3c d6 53 44 bd
       0.079292834 -0.0556152 0.013395888 -0.047931515
000280 b1 34 fa 3c 21 0b c9 3b cf e9 6d bd 56 a9 35 bd
       0.030542703 0.00613536 -0.058084305 -0.044350944
000290 82 b4 91 bc fd b7 5b 3d 46 3f 01 bd 9f a3 10 3d
       -0.017786268 0.05364226 -0.031554483 0.03531229
0002a0 25 f7 86 bd b7 b6 ab 3c 6c e8 d6 3d 14 72 41 bd
       -0.06590108 0.020961149 0.1049355 -0.047227934
0002b0 1a 18 e1 3d c2 93 67 3d bb 5c b3 bd 04 2b ca 3d
       0.10990925 0.056537397 -0.08757921 0.09871486
0002c0 8c 57 a0 3b 61 fa f3 bc 00 dc 93 3d 16 5b 50 bd
       0.004893249 -0.029782476 0.07219696 -0.050868116
0002d0 71 f8 1c 3d 3c b4 60 ba 97 01 ca 3d 25 c1 46 3d
       0.03832287 -0.0008571779 0.098635845 0.04852404
0002e0 ef 38 df 3d 8d 10 2b 3d 81 43 2d bc 8b 30 a9 3b
       0.10899531 0.04176383 -0.010575176 0.0051632575
0002f0 02 e8 ab bd 3d 6d 9c 3d eb 75 c7 3d a5 f3 d3 3d
       -0.08393861 0.07638023 0.09739288 0.10349206
000300 67 5d 85 bd ca b2 a6 3c c2 e9 5f bd e2 22 d7 bc
       -0.06511956 0.020348925 -0.05466629 -0.02626175
000310 8a 26 59 bd d9 3c 26 3d 26 fe b1 bc 43 32 4f 3c
       -0.05301527 0.040585373 -0.021727633 0.012646261
000320 0f 1a 2f 3c e1 05 8f 3d 28 e1 c6 bc 23 de c0 3c
       0.010687365 0.06983543 -0.024277285 0.023543423
000330 23 8d 5b bd 9c 8d 6b 3d 3c 51 03 bd b6 7d ec 3d
       -0.053601395 0.057508096 -0.032059893 0.11547415
000340 b8 b9 58 3d 7f b7 0f 3d d8 ba dd 3c 83 f1 ed bb
       0.05291149 0.035087105 0.027066633 -0.0072614565
000350 84 31 f2 3c 85 26 e8 3c 8a 2a 11 bc cc 17 e0 3c
       0.029564627 0.02833868 -0.00886024 0.027355097
000360 02 44 96 bd c5 11 04 bc 26 51 06 3e 6e 9e a7 bd
       -0.0733719 -0.008060877 0.13116893 -0.08184515
000370 dc a0 38 bd f0 21 08 3e 76 6f 1a 3e c3 16 e2 bc
       -0.045075282 0.13294196 0.15081581 -0.027598744
000380 4a 0f ed bd ab 70 b5 3d f2 9e cf bd ab 1b 9e bc
       -0.11575182 0.0885938 -0.10137738 -0.019300302
000390 f1 27 a7 bc af 41 d2 3c 5e 46 87 3c 66 39 4a 3f
       -0.020404788 0.025666086 0.016513046 0.78993833
0003a0 90 52 9d 3c 59 a0 21 3d 0b 19 66 3d b5 81 21 bd
       0.019204408 0.03945956 0.056176227 -0.03943034
0003b0 27 18 80 3c 37 f5 82 bd 4c 05 c2 bb fb 6c 13 3c
       0.015636517 -0.06394427 -0.0059210416 0.008998151
0003c0 16 9c 33 3d 5b f4 35 3d aa 42 1b 3c 71 b6 69 3c
       0.043850027 0.04442249 0.009476343 0.014264689
0003d0 40 2d 10 bb be 25 c8 bd 0e 20 9c 3d 46 63 07 bd
       -0.0021999627 -0.09772824 0.076233014 -0.03305366
0003e0 c0 1a 81 3c 33 3d 51 3c cf 74 61 bd 9e 2a a4 3c
       0.015759826 0.012770939 -0.055043038 0.020039853
0003f0 f1 06 61 3d 8f d5 a7 bb d5 69 86 bd 8c 6a 90 bc
       0.05493826 -0.0051218937 -0.065631546 -0.01762893

net.0.bias f4 [128]
000000 5f fd 18 bd 97 38 2e bd 1a d5 80 bd 73 5b 27 3d
       -0.03735101 -0.042534437 -0.06290646 0.040858697
000010 8a 0e 09 bd 6e 71 65 bd 5b 4a 77 3d 36 2a 37 bd
       -0.03346113 -0.056016378 0.060373645 -0.04471799
000020 77 47 c6 3c db 42 d2 bb 22 89 a9 3d 24 f3 9e 3d
       0.024203999 -0.006416661 0.08278109 0.07761219
000030 ba 63 12 bd d8 ca 80 bd 81 e5 f2 3d 60 1b b6 3c
       -0.035739638 -0.062886894 0.11860181 0.02222985
000040 65 9f 9d 3b ff 75 c3 3d 8c af 13 3e a7 a3 83 3c
       0.004810261 0.0954399 0.14422435 0.016069246
000050 ab 2c 6d bd 22 67 eb 3d c0 f4 d6 bd 70 c2 ae bd
       -0.057903927 0.114942804 -0.10495901 -0.0853318
000060 ab 12 d5 3c 35 90 82 bd 44 cd bb bd 4b b9 c4 3d
       0.026009878 -0.063751616 -0.09170011 0.09605654
000070 30 76 b5 3c 2d 77 92 bd a0 c5 8f 3d 9e 46 ca 3d
       0.022151083 -0.07151637 0.07020116 0.098767504
000080 dd 05 ff bb a8 4b 97 3d f0 ab 67 3d f7 59 42 3d
       -0.0077826814 0.07387477 0.056560457 0.04744908
000090 00 1b 92 bd 40 e8 b6 bd f8 80 d8 bc b9 25 fb 39
       -0.07134056 -0.08931017 -0.026428685 0.00047902556
0000a0 45 a2 b9 bd 82 a2 b0 bd 2f 2b 2d bd d0 99 b5 3c
       -0.090641536 -0.08624746 -0.04227751 0.02216807
0000b0 15 d4 d2 bc 9b 7f ca bd af e2 b0 3c f3 e5 bb bc
       -0.025735894 -0.0988762 0.021592466 -0.022936797
0000c0 5d 15 64 bd 71 e1 8c 3d 5e 64 34 3d 33 8a 9b 3d
       -0.055684436 0.06878937 0.04404103 0.07594719
0000d0 79 cb d5 3d a2 6e 0a 3d 2c bd de bc 13 02 6c bb
       0.104392 0.033796914 -0.027189814 -0.0036011979
0000e0 2f 02 6e 3d 05 26 05 bd e7 49 5a 3d 98 f0 f6 3d
       0.05810755 -0.03250696 0.053293135 0.12057608
0000f0 76 80 81 bc aa df a6 3c 0c 3d 9a 3b d8 92 6c 3d
       -0.015808325 0.020370323 0.0047069844 0.05775723
000100 36 56 5d bd 72 32 09 3e 5d ea eb bc ea 0d 28 3d
       -0.054037295 0.1339815 -0.028798277 0.041028894
000110 1c 21 e4 bd 39 00 50 3d 99 1d 0e bd 45 36 24 bd
       -0.111391276 0.050781462 -0.034696195 -0.040090818
000120 20 2f a2 bd 08 a8 0e 3d 4e 93 6f 3d 7d d7 08 3d
       -0.07919145 0.034828216 0.05849009 0.03340863
000130 4b 63 91 bd 6d 69 ed 3c e9 81 4f bd c4 21 64 3d
       -0.07099017 0.028980935 -0.050661 0.055696264
000140 31 d3 16 3e d9 2b ca bd a0 4b 6b 3d d0 85 5d bd
       0.14729 -0.098716445 0.05744517 -0.05408269
000150 0f ad 2a 3d 70 ac cb bc 90 63 95 3c 07 33 80 bd
       0.041668948 -0.024862498 0.018235952 -0.06259733
000160 c9 39 a3 3d 5a e7 62 3d ca 5f b8 bd 63 29 9d bd
       0.07970006 0.055396415 -0.09002645 -0.076739095
000170 14 29 ac 3d 4b 98 91 bd e9 d9 3b 3d 66 26 10 bd
       0.084062725 -0.07109126 0.045862112 -0.03519287
000180 01 90 af bd fc cd 85 3d 60 1c 1f bd 34 26 3e bd
       -0.085723884 0.06533429 -0.03884542 -0.046423152
000190 3a 3e 80 3d 0d 76 86 3d bd 6c ea 3d 46 a0 ed 3d
       0.06261869 0.06565485 0.114465214 0.11602835
0001a0 3f ad 32 3d ce f7 12 bc 89 b2 23 3c 6b a4 9b 3d
       0.04362225 -0.008970214 0.009991297 0.075997196
0001b0 ee 1d 95 bd 3f d5 b7 3d 25 68 04 3d 5c 23 63 3d
       -0.07281099 0.0897622 0.032325882 0.055453643
0001c0 39 a2 a5 3c 22 d6 ad bd ab 01 3b 3d 75 64 5f 3c
       0.020218955 -0.08488108 0.045655888 0.013634791
0001d0 e9 42 a7 3c 95 91 24 bd 59 5c 96 3d d2 67 69 3c
       0.020417647 -0.0401779 0.07341833 0.014245944
0001e0 da 71 a9 3c fc 05 cd bd 7f 31 f5 3d d0 a7 b8 bd
       0.020684171 -0.10010907 0.11972331 -0.09016383
0001f0 1f ac a5 3d 16 c7 85 3d e9 d7 c0 3c fb ad a6 bd
       0.0808947 0.06532113 0.023540454 -0.08138653

net.2.weight f4 [128, 128]
000000 52 f3 39 bd fc 49 f7 bd f4 ae 9e 3c a2 f2 84 3d
       -0.045398064 -0.12074658 0.019370534 0.06491591
000010 c6 6f 52 3d 1f 74 a8 3d 80 83 ac 3d 4f 37 3f 3d
       0.051376127 0.08225273 0.08423519 0.046683606
000020 ab 2f 4f bd 68 6d 50 3e ca d4 ad 3c 62 f7 34 3d
       -0.05058257 0.20354235 0.02121963 0.044181235
000030 4c 85 a9 3c 8e 80 aa bd f2 a7 3f bd 47 3f b1 3d
       0.020693444 -0.08325301 -0.046791025 0.08654647
000040 9b 34 9a 3d 44 a6 19 bd 1b 16 43 3d 36 60 01 be
       0.07529565 -0.03751208 0.047628503 -0.12634358
000050 14 e4 8f bc f3 38 08 3d 39 28 80 3c 9b 12 53 3d
       -0.01756481 0.033257436 0.01564418 0.051531415
000060 76 da 85 3c 04 ca c4 3d 16 bc 1b 3c 03 c1 1a be
       0.016339522 0.09608844 0.009505292 -0.1511269
000070 e6 d9 21 b9 d2 76 c4 bd f8 0d 96 3d 4c 9d 8a 3d
       -0.0001543533 -0.09592976 0.07326883 0.06768283
000080 c1 ae a5 bd 1e d0 5e 3d 93 d2 2f 3e 31 4b 0a 3e
       -0.08089972 0.054397695 0.17170171 0.13505246
000090 5f ee 25 bd a5 55 c0 bd 55 89 ae bd a4 f7 1e bd
       -0.04051053 -0.093913354 -0.08522288 -0.038810387
0000a0 c0 2b 48 bd f5 be 6f bd be 67 05 3e 0d 47 9f 3d
       -0.04886985 -0.05853172 0.13027856 0.07777224
0000b0 5c 69 1b bc 30 28 0c 3c 22 69 54 bd 13 9f ec b9
       -0.009485569 0.008554503 -0.051858075 -0.00045131947
0000c0 93 1d 19 bd 09 2d 46 3c 6e 05 a9 bc 8a 5f 7b 3c
       -0.03738172 0.012095698 -0.020632472 0.0153426025
0000d0 23 1f 43 3c e4 91 a7 3c da 63 22 3c f5 d1 26 be
       0.011909279 0.020455308 0.009911502 -0.1629103
0000e0 90 f4 e2 bd 69 6a 0c bc 0e d8 fb 3c a9 5b 53 bd
       -0.11081803 -0.008570292 0.030742671 -0.051601086
0000f0 b6 b3 fc bd 08 e5 c4 3c 04 18 01 3e 01 c9 50 3c
       -0.12338965 0.024034992 0.12606817 0.012743236
000100 ba ff 22 bd 7f 14 ce 3b 2e ea 1c bd 41 ba 1b be
       -0.03979466 0.0062890644 -0.03830927 -0.15207769
000110 01 2e 13 be 94 6e 07 3e cf 7c a3 bd b7 38 8e 3c
       -0.14373018 0.13225776 -0.0798279 0.017361028
000120 64 64 94 bd 94 d2 6c 3d 36 67 14 3d 77 7c 06 3e
       -0.072457105 0.05781801 0.036231242 0.13133417
000130 e4 a1 56 3c 2b df d6 3d 23 80 fa 3d 2d b3 ad bd
       0.013100121 0.10491785 0.122314714 -0.08481441
000140 9f 64 2d be 11 65 e9 3b 77 91 a8 bd d3 7f 30 bc
       -0.16932915 0.0071226438 -0.0823087 -0.010772663
000150 80 0b f3 bc 84 cc a9 bd 43 f6 dd 3c aa f0 99 bd
       -0.02966857 -0.082909614 0.027094966 -0.07516606
000160 fb 8b b9 bc 76 e5 dc 3d 80 0e 24 3e 69 cd 75 bd
       -0.022649756 0.10785954 0.16021156 -0.060010348
000170 16 e6 82 3d 23 95 36 3c e4 31 62 3d 71 c3 88 3d
       0.06391542 0.011143955 0.05522336 0.066779025
000180 55 e6 f4 bc f6 6e b8 bd 75 2a 18 3b 95 f6 01 3d
       -0.029894987 -0.09005539 0.0023218666 0.0317293
000190 63 bb 04 be c0 ee 6f bd 02 c2 2e bd 6c c6 a1 bc
       -0.12962107 -0.0585773 -0.04266549 -0.019747935
0001a0 26 09 0b 3e a0 48 9d bc e3 11 cc 3c aa e3 8e 3d
       0.13577709 -0.01919967 0.024910873 0.06977017
0001b0 59 eb 04 bc e5 0b c8 3d 71 68 3c be eb 6c 7c 3d
       -0.008112752 0.09767894 -0.18399216 0.06162731
0001c0 17 3e f1 3b 9f 9e ba bc bd a3 85 bd e8 ab 60 3d
       0.007362138 -0.022780715 -0.06525371 0.054851443
0001d0 cd 63 f2 bc 87 7b 63 bd 4f f2 2e bd bd 78 e2 3c
       -0.029588604 -0.055537727 -0.042711552 0.027645463
0001e0 5b 2d ca bd 28 0e 1f 3d b0 f1 05 3e cf a5 61 bd
       -0.09871932 0.03883186 0.13080478 -0.055089768
0001f0 e6 eb 80 bd 29 9f 6d 3c 6e ca 97 3c 51 5c 3d bd
       -0.06294994 0.014503279 0.018529143 -0.046230618
000200 36 86 96 bb 0f bf 1b 3e 10 a4 ae 3d 26 67 ed 38
       -0.004593636 0.15209602 0.08527386 0.000113202535
000210 d7 f4 47 3d b3 3e d8 3b d6 b8 c1 bd 0c 54 a1 bc
       0.04881748 0.006599271 -0.09459083 -0.019693397
000220 bc 67 0b 3e 4b de a5 3d 75 26 91 3d 75 32 e6 bc
       0.1361379 0.0809904 0.07087413 -0.028100232
000230 f7 5f 2a 3d 83 f3 f2 3d d4 88 8b bd 34 57 c0 3c
       0.041595425 0.118628524 -0.06813207 0.023479082
000240 c4 af 30 bd 11 ce f4 bc 26 d1 2b 3d 6b f1 5c bd
       -0.043136373 -0.029883416 0.041947506 -0.05394117
000250 b9 dc b3 bd c7 2b 10 3e dd fe 0d 3e 28 84 be bd
       -0.08782334 0.140792 0.13866754 -0.093025506
000260 ee 04 8c bc 20 af fb 3c 6f 29 ce 3d 38 39 9c bc
       -0.017092194 0.030723155 0.100664966 -0.019070253
000270 10 be 43 bb f5 06 ac 3d fb 8d d9 3c 92 23 5a bd
       -0.0029867925 0.083997644 0.02655696 -0.05325658
000280 93 5d 23 bc 08 46 a1 3d 74 7e 84 3c 02 09 06 3e
       -0.00997104 0.078746855 0.016173579 0.13089374
000290 29 ee a2 3d 89 fd b1 bc 08 4a 29 bc 3a 14 8e 3d
       0.07955582 -0.02172734 -0.010332592 0.06937452
0002a0 ee ac 86 3d fe db a2 3b 7f cf 19 bd 75 b1 d9 3d
       0.065759525 0.004970073 -0.0375514 0.1062955
0002b0 06 a2 b3 3c 46 14 41 bd ec f2 32 3e c8 22 a0 3d
       0.021927845 -0.047138475 0.1747548 0.07819134
0002c0 24 d2 9f 3d 83 a8 74 3d 0e b1 03 3e 8b e2 c5 3d
       0.07803753 0.059731018 0.1286051 0.0966235
0002d0 9c 41 75 3d 00 bb b1 3d 72 40 3d bd c9 cc 36 3e
       0.059877023 0.086782455 -0.046204038 0.17851557
0002e0 f2 ce 68 3d 89 b2 1a 3e 3b b5 9a 3a 57 88 59 be
       0.056837983 0.15107168 0.0011803278 -0.21243416
0002f0 22 5b 3a bc 0b 79 a4 bd d5 c1 9d 3c 0a 45 46 3e
       -0.011374267 -0.080308996 0.019257465 0.19362274
000300 f6 ba 7f 3d cd 1b 78 bd 7b e4 2a bc f0 19 ad 3c
       0.06243416 -0.060573388 -0.010430451 0.021130532
000310 88 61 ba 3c e1 d5 ad 3d ae f3 bc 3d 3c 45 e1 3d
       0.022751585 0.0848806 0.09226166 0.109995335
000320 10 60 d3 3d 65 df c6 3d dd ea 83 bc b6 4e d6 3d
       0.10321057 0.09710578 -0.016103202 0.10464232
000330 1a 80 84 3d 4b 82 e9 3d 9b 80 14 3d bc 29 a8 bc
       0.06469746 0.114018045 0.03625546 -0.020527713
000340 f8 6a 7b 3e 95 1a 38 3e 5c 69 90 3d a8 f1 d1 bc
       0.24552524 0.1797889 0.07051346 -0.025627926
000350 ac 36 e3 3c 1f 02 95 3d 59 c2 58 bc 49 2f bc 3d
       0.02773603 0.07275795 -0.01322993 0.091887064
000360 25 05 5b 3b 6b d2 32 3d 21 02 d4 3a 07 db 9f 3d
       0.0033419814 0.0436577 0.0016174951 0.07805448
000370 95 27 5c 3d 06 46 cb 3c 16 30 df 3d 9e 15 c2 3d
       0.053748686 0.024813663 0.108978435 0.094767794
000380 6c e2 99 3d 77 e0 2d bd 23 5b de 3c 03 7b f1 3d
       0.0751389 -0.042450394 0.027143067 0.11791041
000390 88 04 b2 3d 45 27 ef bd 9a 2d 17 bd ab f3 a7 3d
       0.086922705 -0.11677412 -0.036908723 0.08200773
0003a0 69 53 74 bd f8 a6 61 bd 7c b4 33 bd b0 9d 07 3b
       -0.05964986 -0.055090874 -0.043873295 0.0020693354
0003b0 7d f4 ee bc 7c f9 0e 3e 6d 8a 2c bd 7a 65 9f 3d
       -0.029169315 0.13962358 -0.0421242 0.07783027
0003c0 fa 34 00 bd 2f 8a 83 3c ab 33 e0 bd fc 5a 3a 3d
       -0.031300522 0.016057102 -0.10947355 0.045496926
0003d0 94 27 12 bd bd ca de bc b8 76 14 3c 40 07 af 3d
       -0.035682276 -0.027196283 0.009061508 0.08546305
0003e0 f5 e1 42 3d e9 52 d0 3d 7b 48 b8 3d 90 6e 99 3d
       0.04757877 0.10172064 0.089981996 0.07491791
0003f0 71 45 c3 bb 34 8a 44 3d 8a 04 06 3d c9 a6 84 3d
       -0.005959206 0.047983363 0.032719173 0.06477124

net.2.bias f4 [128]
000000 8c 39 31 bc 6c 4a e1 bc 38 7e a0 3d f9 7b c2 3d
       -0.010816943 -0.027501307 0.07836574 0.09496302
000010 84 f0 c9 3c 68 36 b9 3c 7f 0e 93 3d 32 14 70 bd
       0.02465082 0.02260895 0.07180499 -0.05861301
000020 4f 33 66 bd 18 b6 a1 3d d5 cf 09 3e c8 81 ee bc
       -0.056201275 0.0789606 0.13458188 -0.029114619
000030 78 8e 12 3e ab 47 da bb 32 06 dc 3c 15 59 dd bc
       0.1431216 -0.0066613755 0.026858423 -0.027020017
000040 0a 28 68 3d 1f 3c 1d 3e 42 06 c5 3a 1b 45 f8 3d
       0.05667881 0.15354966 0.0015031772 0.12122556
000050 4c 8a 88 3d 00 c8 fe 3c ec 60 a2 bb 87 bc 54 bd
       0.06667003 0.031101227 -0.0049554016 -0.051937606
000060 9a 40 b6 3d 37 56 5e 3d 20 3f ba bd f8 19 0a 3d
       0.088990405 0.05428144 -0.090940714 0.033716172
000070 8f 89 d5 3d 17 36 5f 3d bd 0e 84 3d e5 4e 81 3d
       0.10426628 0.054494943 0.064481236 0.06313876
000080 c5 b8 87 bd ad e4 a2 bd 97 da 15 3e f3 a6 60 3c
       -0.06627039 -0.07953773 0.14634167 0.013711679
000090 c1 46 0a bd 15 3e b5 3d 56 04 63 3d 78 d8 67 3d
       -0.033758882 0.08849732 0.055424057 0.056602925
0000a0 61 3f 81 3c 97 1e 56 3d 3f 99 15 3c 36 ac 65 bd
       0.015777292 0.052275266 0.009130775 -0.056072436
0000b0 b7 a3 71 3d 0e 89 cf 3a 8d 7b f9 3d 87 ef 3b 3d
       0.05899402 0.0015833692 0.121817686 0.045882728
0000c0 7d 95 df 3d b4 c7 7a bd 94 37 b3 3d b2 5f 0e 3d
       0.109171845 -0.061225608 0.08750835 0.03475923
0000d0 c8 85 4b bc 25 f0 f4 3d 4e 0d d7 3c a6 59 a5 3d
       -0.012422033 0.119598664 0.026251461 0.0807374
0000e0 22 4e 40 bd 1a f7 87 bd 33 c3 00 3d a9 62 70 3d
       -0.046949513 -0.06638928 0.031436156 0.05868784
0000f0 8c da 22 3d c6 7c 88 3c 91 4c 56 bd f6 2b a1 3b
       0.039759204 0.01666106 -0.052319113 0.0049185706
000100 15 9d 4f 3d 64 3f af bd c0 63 69 3d 03 5e 6b bc
       0.050686914 -0.08557013 0.056979895 -0.014365676
000110 2e c3 9c bc 56 0a 08 bd 95 33 ae 3d 16 04 99 bd
       -0.019136038 -0.033212982 0.08505932 -0.074714825
000120 ba d6 04 3d 5d 6f 9b bd 45 dd 9a bd 45 15 af 3d
       0.03243134 -0.075896 -0.07561735 0.08548979
000130 93 45 81 bd e3 eb c2 b8 82 b1 95 3d a9 c3 b2 bd
       -0.06312098 -9.294578e-05 0.073092476 -0.087287255
000140 9b 3b 9a 3d e5 17 1b 3c 50 71 8c bd 50 ac 83 3d
       0.075309 0.009466146 -0.0685755 0.064293504
000150 8b c3 b9 3d ae 84 1d bc b7 20 7d 3c fe 7c a1 3d
       0.090705 -0.009614153 0.015449694 0.078851685
000160 ab 6a 9d bc 34 75 8c 3c e8 dd 9f 3c 79 80 91 3c
       -0.019215902 0.01714573 0.019514993 0.017761456
000170 a5 0a 86 3b 70 92 65 bd c7 f9 1f bd 5b cd 4b bc
       0.0040906244 -0.056047857 -0.039056566 -0.012439097
000180 6d f9 b8 3b ce 47 64 3c cc dd 1e bc 26 97 53 bc
       0.0056449682 0.013933135 -0.009696435 -0.012914455
000190 1a 37 32 3b 05 04 df ba 00 09 06 3d eb e6 65 bd
       0.0027193488 -0.0017014748 0.032723427 -0.056128424
0001a0 2a 16 45 3d 2f f5 12 3a d8 96 92 3d 63 d8 26 3d
       0.04811684 0.0005605993 0.071576774 0.040733706
0001b0 33 b4 09 3c f6 6c 6e bb 77 b8 6f 3d 43 5f 0b 3d
       0.008404779 -0.0036380864 0.05852553 0.034026396
0001c0 b3 95 ef 3d 10 5c 84 3d 90 b8 4f 3c 82 ac 69 bd
       0.11698475 0.06462872 0.0126782805 -0.057049282
0001d0 97 ea 34 3d b8 35 39 3d 37 0b 56 3d 8a 50 1c bc
       0.044169035 0.045217246 0.05225679 -0.009540686
0001e0 9d f2 e8 3d 2e 86 92 3d b6 86 75 3d 5b a7 8d 3d
       0.113744 0.07154499 0.059942923 0.06916686
0001f0 1d ac f0 3d e2 b3 67 bc e4 17 da 3c 79 bf dd 3d
       0.11751578 -0.0141420085 0.02662272 0.10827536

net.4.weight f4 [15, 128]
000000 92 d5 5f 3e 10 e8 5a 3d 08 9a 4c 3d 19 6d b6 bd
       0.21858814 0.05344397 0.049951583 -0.089075275
000010 26 8b 80 3d 86 92 a0 be cb 06 05 be 9c 15 c5 3d
       0.062765405 -0.3136179 -0.12990873 0.09623262
000020 68 a4 a7 3d bc a5 3e 3d 7d b2 99 be 6e b7 6a 3e
       0.08185655 0.046544775 -0.30018988 0.22921535
000030 8d 55 be be f3 8b 52 3d c8 ac d9 3c 5f 25 19 3e
       -0.37174645 0.051402997 0.026571646 0.14955662
000040 3d 25 4e 3d 42 2e a3 be 8f e4 a8 3c 2f 2a 2b be
       0.050328482 -0.3187123 0.020616798 -0.1671531
000050 85 dd b2 3d eb eb 07 3e 05 5d dc 3d fb 8c 95 3d
       0.08733658 0.1327359 0.107599296 0.073022805
000060 83 45 7b 3d e1 4d cd 3d 02 50 73 3e 7f 33 44 3d
       0.06134559 0.1002462 0.2376099 0.047900673
000070 b1 88 69 3d b5 62 91 bc c2 a0 17 be 61 10 1c be
       0.057015125 -0.017747262 -0.14807418 -0.15240623
000080 a3 6d 75 bd dd ee 99 bd e4 b3 8d be 24 f9 e3 3d
       -0.05991901 -0.07516263 -0.27676308 0.11131504
000090 bd 2e c7 3d dc a8 31 3d 60 7e 39 be f1 df c3 3d
       0.097257115 0.043373927 -0.18114614 0.09564198
0000a0 8e 3d d3 3d d6 c6 9e 3d 14 e0 d0 3d 9d 57 8a 3e
       0.10314475 0.07752769 0.101989895 0.2701997
0000b0 8b 57 a1 3d 6a 0c 67 3d 4c a3 ad be b7 5e e1 3a
       0.078780256 0.056408323 -0.33913648 0.0017194365
0000c0 0d 16 25 be 50 6a 1f 3e 36 4e a5 3c 14 aa 2c bd
       -0.16121693 0.15567899 0.020178895 -0.042154387
0000d0 1b 16 52 be b7 46 f5 3d 3e b4 49 be 36 85 1c 3d
       -0.20516245 0.119763784 -0.19697663 0.038212977
0000e0 fc f5 db 3d b4 76 47 be 67 0f ec 3d 20 3d 64 be
       0.10740277 -0.19478875 0.11526375 -0.22288942
0000f0 47 f9 bd 3d 5a 76 d1 3c e6 97 16 3e eb 11 2d bb
       0.092760615 0.02556913 0.14706382 -0.0026408385
000100 8d 66 de 3d 2d 4c 07 3e b8 04 c7 3d 9f c4 a4 3d
       0.10859404 0.13212653 0.09717697 0.08045315
000110 78 61 72 3d d1 1e 7e 3d 2d 35 05 bc 16 e3 0b 3e
       0.059174985 0.062041108 -0.008130354 0.13660845
000120 f6 72 99 be 3b c1 6a 3d ed eb 41 3e a7 2f cb bd
       -0.2997052 0.057313185 0.18937655 -0.09921198
000130 a5 e4 87 bd f6 46 ca 3d 7f 05 c6 3d d3 54 25 3d
       -0.06635407 0.09876816 0.09669017 0.040364098
000140 99 bf ab ba 32 88 d6 3d 68 61 17 3e c6 ef dd 3d
       -0.0013103365 0.10475196 0.14783251 0.10836749
000150 e7 b5 b6 3d 28 0e 09 3e bc 78 69 3d 24 c7 6a 3d
       0.08921414 0.13384306 0.056999907 0.05731882
000160 86 5b 19 3e 04 ac 46 3e b3 b8 81 3d 65 d0 00 3e
       0.1497632 0.19401556 0.06334057 0.12579496
000170 ef 6f cb 3d 53 bf d5 3d ed cc d6 bd 45 ac e3 3d
       0.09933459 0.10436883 -0.10488305 0.11116842
000180 ea 23 84 be a0 1e 80 be 5e db 09 be 8b c3 27 3e
       -0.2580865 -0.25023365 -0.13462588 0.16383187
000190 10 cc a5 bd 63 18 e4 3d 1d 82 d4 3d 7e 5d 1b be
       -0.080955625 0.11137464 0.1037638 -0.15172383
0001a0 67 10 1a 3e 09 ab 22 3e a1 9a a8 3d 78 ea a4 3d
       0.1504532 0.15885557 0.08232618 0.08052534
0001b0 46 d4 71 3d c7 9b 3e be fb 87 11 be 82 58 29 3d
       0.05904033 -0.18614112 -0.14212029 0.041344173
0001c0 73 86 ea 3d e0 87 db 3d b3 b8 a1 3d 4c 7f 8a 3d
       0.114514254 0.107192755 0.07896557 0.06762561
0001d0 58 93 ae 3c 69 a3 20 bd d5 e6 36 3e 00 44 1e 3e
       0.021310493 -0.03921834 0.17861493 0.15455627
0001e0 19 ea c4 3d 7d c1 3a 3d 8e 42 6d be 34 f5 0f bb
       0.09614963 0.04559468 -0.2316992 -0.002196622
0001f0 53 9b 64 be c9 63 20 3d 28 73 13 3d 43 77 d7 3d
       -0.22324876 0.039157663 0.035998493 0.10520794
000200 4c 58 16 3e 5e 34 16 3e 9c 4b ad 3b 8f 29 66 3c
       0.1468212 0.14668414 0.0052885544 0.014047994
000210 dd fc e9 3d 70 d6 87 be 88 ce 54 be 3c fc b3 3d
       0.11425183 -0.2653079 -0.2078191 0.08788344
000220 6c 42 d2 3d 3b 0f f3 3d 72 da 98 be 49 9e 07 3d
       0.10266575 0.11868139 -0.2985416 0.033109937
000230 26 93 4c be 15 96 c0 3c 89 30 f7 3d b3 42 b3 3d
       -0.19978008 0.023509065 0.12069804 0.08752956
000240 c8 10 1c 3e c0 e1 aa be a1 a7 af bd 4a f0 56 be
       0.15240777 -0.3337536 -0.085768946 -0.209901
000250 f9 5f e7 3c d1 15 06 3d 6b 78 69 3d 7c 8a c0 3c
       0.028244006 0.03273565 0.056999605 0.023503534
000260 a6 14 09 bc 70 5f a7 3c fd 0b 21 3e 7b 79 bf 3d
       -0.008366739 0.02043125 0.1572723 0.093493424
000270 ce 37 a6 3d e2 bd 10 bd 79 ac 47 be fd 1e 6f be
       0.08116113 -0.035337336 -0.19499387 -0.23351665
000280 e9 5d d2 3d 78 86 4c bd af 3e 82 be da ef b1 3d
       0.10271818 -0.049932927 -0.2543845 0.08688326
000290 cd 2d 26 3e 27 b8 c9 bd e8 ed 71 be 7e 04 b4 3d
       0.16228409 -0.098495774 -0.2362591 0.08789919
0002a0 38 aa 5b 3c b2 cb b9 3d ad a6 e8 3d 12 e4 41 3e
       0.0134072825 0.09072055 0.11359916 0.18934658
0002b0 3e 3d 47 3d ef 44 8d 3d 94 05 9c be e8 39 e4 3d
       0.04864239 0.06897914 -0.30473006 0.11143857
0002c0 c0 be 38 be 16 b4 65 3e 90 79 cf 3d d2 0d 88 bd
       -0.18041515 0.22431979 0.10130608 -0.06643261
0002d0 b7 41 1d be d5 01 c3 3d 0f e0 21 be 79 a9 e5 3c
       -0.153571 0.09521834 -0.15808128 0.028034912
0002e0 3d 19 35 3e 4b 5b c3 bd ab 6a ba bb 73 79 63 be
       0.17685409 -0.09538897 -0.0056889853 -0.22214298
0002f0 d8 0c a0 3d 04 3a f2 3c 0d c6 06 3e 19 32 40 3d
       0.0781495 0.02956868 0.13161488 0.046922777
000300 08 54 bd 3d 25 b7 ed 3d 87 dd e3 3d 7f 7b 0e 3e
       0.09244543 0.11607198 0.11126237 0.13914298
000310 b2 76 0b 3e cd 5c 44 be d2 4a d6 3c 4b de fa bd
       0.13619497 -0.19176026 0.026158724 -0.1224943
000320 15 82 ce be 90 7b 1a 3e 13 39 53 3e cb 16 b3 be
       -0.4033362 0.15086198 0.20627241 -0.34978327
000330 26 5b 0a bd 8f 99 57 3e 45 22 18 3e 02 dc 4a 3d
       -0.033778332 0.21054672 0.14856823 0.049526222
000340 6f 6d ca 3d 3b 0f bf bc 79 ef 7a 3d 77 5e db 3d
       0.09884154 -0.023322692 0.061263535 0.10711377
000350 a2 e7 85 3b d5 02 07 3e f9 5c fc bb a5 d5 8c 3b
       0.0040864507 0.13184674 -0.007701513 0.0042979294
000360 98 6e be 3d 87 fa 03 3e e2 9e 5c 3d 1e 46 34 3d
       0.09298438 0.12888537 0.05386246 0.04401218
000370 ca 9a dd 3d b0 d4 32 3e 53 0e f2 bd 3c 5c 11 3e
       0.10820539 0.17463946 -0.118191384 0.14195341
000380 9f 18 8b be f1 6d 48 be 5e 98 b2 3c 44 5b 44 3e
       -0.27167222 -0.1957319 0.02180117 0.1917544
000390 5e 77 13 3b 4e 48 97 3d 5d 62 51 3d e0 de fa bd
       0.0022501568 0.07386838 0.051119197 -0.12249541
0003a0 ea 59 05 3e 33 4b ba 3d 6a e6 8b 3c 51 87 47 3e
       0.1302258 0.09096374 0.017077643 0.19485213
0003b0 68 4e 85 3d ef d8 c0 3a 66 20 3c be 03 87 d9 3c
       0.065090954 0.0014713089 -0.18371734 0.026553636
0003c0 89 e0 de 3d a1 61 8e 3d f1 69 33 3e 50 71 5c 3d
       0.108826704 0.06952215 0.17520882 0.053819
0003d0 be 40 87 3d 42 7a 37 3c 47 a3 85 3d 49 b6 95 3c
       0.066041455 0.011198582 0.06525283 0.018275397
0003e0 11 cf ad 3d 68 d0 8b bb 36 d6 86 be 32 d5 bb 3d
       0.084867604 -0.0042667873 -0.26335305 0.09171523
0003f0 b0 77 83 be aa cf 86 bc 30 48 79 3d 18 ff dc 3b
       -0.25677252 -0.016456444 0.06085986 0.0067442767

net.4.bias f4 [15]
000000 e0 0d 19 bd 26 24 c1 3d 85 6f bb 3b f2 8e 29 bc
       -0.037366748 0.09430723 0.0057200813 -0.010349022
000010 83 8c b6 3c 9c 60 51 3d 88 41 91 3d 3a f9 23 bd
       0.022283798 0.051117525 0.07092577 -0.040032603
000020 04 5d 66 3d c0 28 a8 3d fb d1 05 3d 84 e5 a1 3d
       0.05624105 0.082108974 0.032670956 0.07905105
000030 4f 00 f4 3c 0e 13 83 3d a9 02 c4 3c
       0.029785303 0.06400119 0.02392705

net.0.weight f4 [128, 77]
000000 94 de c6 3f 99 2d 43 3d f7 55 bd bd 37 77 86 bd
       1.5536675 0.047650907 -0.09244912 -0.06565707
000010 5b a6 2a bd ec c5 c5 3c e8 93 7a bb 6c 2a 99 3d
       -0.041662555 0.024142228 -0.0038235132 0.074787945
000020 7c 78 9d bc d6 2c d2 3d 57 61 4b 3d 82 a1 af bb
       -0.01922249 0.10262458 0.049653377 -0.0053598294
000030 f1 7c 76 bd 33 04 62 bd 4b 94 40 3d b6 e4 04 3d
       -0.060177747 -0.055179786 0.047016423 0.03244468
000040 6a 6e 58 3d 27 9d 93 3d 99 13 91 bd 05 3f 81 bd
       0.052839674 0.07207709 -0.07083816 -0.06310848
000050 17 a4 e4 3c 40 8f a6 3d a8 b3 81 bc 74 be 8b 3d
       0.027910275 0.081327915 -0.015832737 0.068234354
000060 37 34 3e bd 9c 6a 54 3d c1 38 db 3d 0b a1 12 be
       -0.046436515 0.051859483 0.10704184 -0.14319246
000070 3c bc d7 bc 47 2b 0e 3d 30 1b 9e bc ef 1e 94 3d
       -0.026334874 0.03470924 -0.019300073 0.072324626
000080 0f 6d 83 bc 25 74 3d bb 4f b4 30 bd de 1f a0 bd
       -0.016043214 -0.002890834 -0.043140706 -0.07818578
000090 1f 3e 38 bd ea 1a e9 3d 23 10 19 3d 47 03 2b 3d
       -0.04498112 0.113820866 0.037368905 0.041751172
0000a0 f9 c4 a2 ba c9 51 96 bd 00 b0 ba bb b9 96 d2 bd
       -0.0012418322 -0.07339818 -0.0056972504 -0.10282654
0000b0 a4 02 28 bd 15 6a 7b bc 73 08 cd 3c e4 f1 7a 3d
       -0.041018143 -0.015345116 0.025028443 0.06126584
0000c0 92 6b a7 3c f4 a1 26 bb 0c 03 87 3d 9b d7 f5 3d
       0.020437036 -0.0025426121 0.06592378 0.12004014
0000d0 04 5b ac 3c 1e 1d 32 3d 69 1b 98 3d 4a 5f 46 bd
       0.021039493 0.0434848 0.07427103 -0.04843072
0000e0 c3 7e 0e 3d 11 90 d0 bd 9b 5f bd bd 12 62 41 bd
       0.03478886 -0.101837285 -0.09246751 -0.047212668
0000f0 a7 38 3a 3d 20 62 e5 3c fc 78 f5 bd 25 50 1c 3d
       0.045464184 0.028000891 -0.119859666 0.03816237
000100 c9 33 e2 3d 2b 0a 37 bd 9b 5b 0c 3e b7 a9 6e 3d
       0.110450335 -0.04468743 0.1370682 0.05826732
000110 11 82 2c 3d f6 21 e9 3d 55 85 a1 bc 4b 6d 20 bd
       0.04211623 0.11383431 -0.019716898 -0.03916673
000120 dc ed ae 3d 43 8b 08 3e f2 ca c0 3d 2e ca e5 3d
       0.08541462 0.13334374 0.09413709 0.11220203
000130 53 b0 16 3c 98 0b 84 3f d6 d1 6a 3c 6c f8 76 bd
       0.009197312 1.0316038 0.014332255 -0.060295507
000140 4d e4 fd 3c 96 b3 02 3e 47 b9 c2 3d be 52 0c be
       0.030992651 0.12763819 0.09507995 -0.13703439
000150 60 bd 43 3d ca 85 67 bc 62 35 21 bb f4 ca 48 bd
       0.047788024 -0.014131019 -0.002459847 -0.049021676
000160 40 75 02 3e f6 e4 12 bd df 15 a4 bc d9 66 a0 3d
       0.1274004 -0.035862885 -0.02002996 0.07832117
000170 d9 22 ff 3c 41 4c 36 3d 0b 00 c8 bd aa 69 47 bd
       0.031144546 0.044506315 -0.09765633 -0.048684753
000180 24 d6 78 3d 28 ec e2 3c d1 5e da bd 29 92 21 3d
       0.060751095 0.027700499 -0.10662616 0.03944603
000190 6f 3a 17 3e 87 b4 d4 3d fb e9 84 be 4e fd e8 bb
       0.14768384 0.10385995 -0.25959763 -0.0071102744
0001a0 03 ea 46 bd d3 65 25 3c de d1 36 bd 8a 07 13 bd
       -0.048563015 0.010095078 -0.04463374 -0.03589586
0001b0 3a ca f0 3c 9e e4 62 bd 79 1f a6 3c 43 1b 04 3d
       0.029393304 -0.055393808 0.02027868 0.03225256
0001c0 68 82 82 bd 1a f0 b9 3d 4e f7 91 3d bf ee bc bd
       -0.06372529 0.09078999 0.07127248 -0.09225225
0001d0 50 d2 c8 bc 72 72 2e bd 05 49 b7 3d 49 2b 28 3d
       -0.024514347 -0.042589612 0.08949474 0.041056905
0001e0 b3 71 a1 3d 5d 8f 17 be 65 15 7d bd a2 35 06 3e
       0.078830145 -0.14800783 -0.06178798 0.13106397
0001f0 73 02 f8 bd 8c 2b 93 bd 76 cb fa 3c 44 56 5c bd
       -0.12109842 -0.0718604 0.030614596 -0.053793207
000200 cd 1f c8 bc 81 48 5d bb c9 26 f3 bc b1 3c ba 3c
       -0.024429226 -0.003376514 -0.02968158 0.022734018
000210 00 6b 78 bd c6 8a 3f 3c a3 f4 ae 3d 8d e2 00 bc
       -0.06064892 0.011690801 0.085427545 -0.007866514
000220 6b e0 6e bd cf eb 20 3d 5a b4 c6 3d d9 83 ae 3d
       -0.05831949 0.039287385 0.09702368 0.08521242
000230 95 73 25 3d db 43 44 3b 51 3c 85 3e c1 e3 04 3c
       0.04039343 0.0029947672 0.2602258 0.008110941
000240 b4 96 d0 bd da df f8 3b 4e e9 40 3d 94 fb f8 bb
       -0.10184994 0.0075950446 0.047097497 -0.00759835
000250 a7 97 59 bc 06 36 b0 bd 30 b5 d3 bd 9e 0a bd bd
       -0.013280786 -0.08604054 -0.10337293 -0.09230541
000260 5b 49 fe bc ff df 87 3d fd 25 10 40 02 a5 c1 bd
       -0.031040838 0.06634521 2.2523186 -0.09455301
000270 0b 3d a2 3d 8c 35 64 bd 2a 22 5d 3c 4c a0 42 bd
       0.07921799 -0.05571513 0.013496915 -0.047516152
000280 c9 c9 f7 3c d5 50 d8 3b 5f 10 6f bd cd 21 37 bd
       0.030247586 0.006601433 -0.058365222 -0.04470997
000290 35 92 90 bc 8b f0 59 3d 38 99 fd bc 6b 6e 13 3d
       -0.017647842 0.053207915 -0.03095685 0.035993975
0002a0 bf 3a 87 bd 46 43 a4 3c 2f db d6 3d 95 6b 43 bd
       -0.06603002 0.02005161 0.10491025 -0.04771002
0002b0 41 4e e1 3d 76 f0 67 3d 5c 2e b3 bd 2a 8c c9 3d
       0.11001254 0.056625806 -0.08749077 0.09841187
0002c0 9b a1 ab 3b be da f0 bc eb 5e 93 3d fa 75 4c bd
       0.0052377707 -0.02940118 0.071958385 -0.0499172
0002d0 0e 7d 1e 3d 7c 80 7a 36 cc 15 ca 3d fc c0 49 3d
       0.03869348 3.732769e-06 0.09867439 0.04925631
0002e0 7f 29 df 3d 91 ac 28 3d 51 a6 33 bc ae ed b3 3b
       0.108965866 0.041180197 -0.010964946 0.00549098
0002f0 c2 6b ac bd 59 2a 9c 3d 07 f1 c5 3d e7 92 d3 3d
       -0.08418991 0.07625265 0.09665113 0.10330754
000300 08 2f 85 bd 39 6c a7 3c aa 6e 5f bd 16 c1 d2 bc
       -0.06503111 0.020437347 -0.054548897 -0.025726836
000310 a5 70 58 bd ea 27 2a 3d 3b df ae bc fd 4a 53 3c
       -0.0528418 0.04154197 -0.021346679 0.012896297
000320 2f b5 3e 3c e7 d8 8e 3d 57 49 c6 bc 6b 31 c0 3c
       0.011639877 0.069749646 -0.024204893 0.023461064
000330 68 fd 5c bd f3 a8 68 3d 8a c2 02 bd 87 f4 eb 3d
       -0.053952605 0.056801748 -0.03192381 0.11521249
000340 cf 70 58 3d 97 83 0e 3d ca d5 de 3c da 0b eb bb
       0.052841958 0.034793463 0.027201552 -0.0071730437
000350 f3 ea f2 3c ea 60 ea 3c 72 e3 12 bc 0e 72 dd 3c
       0.029653048 0.028610665 -0.00896536 0.027031925
000360 61 a1 95 bd d9 50 08 bc 5e 5a 06 3e 78 01 a5 bd
       -0.07306171 -0.008320057 0.1312041 -0.08056921
000370 0d 54 38 bd c6 43 09 3e 2d 5d 1a 3e 08 df e3 bc
       -0.045002032 0.1340476 0.15074606 -0.02781631
000380 f7 01 ed bd c2 ec b3 3d b9 c2 ce bd 47 ed 99 bc
       -0.115726404 0.08785392 -0.10095734 -0.0187899
000390 ce d4 a0 bc 93 4d d1 3c cd ff 87 3c df fc 49 3f
       -0.019632723 0.025549686 0.016601468 0.78901476
0003a0 3c 04 9c 3c 0e 30 1f 3d 99 5b 63 3d 82 39 23 bd
       0.019044988 0.038864188 0.055507276 -0.039849766
0003b0 8e 61 88 3c 56 a8 86 bd f6 7f ab bb 4a 4c 19 3c
       0.01664808 -0.06575076 -0.00523376 0.009356568
0003c0 d7 0b 35 3d 3a ac 38 3d bf 42 14 3c 57 00 8e 3c
       0.044200744 0.045086123 0.009049117 0.017334146
0003d0 5f 84 b0 39 67 e2 c6 bd 34 9e 9a 3d 74 5d 0a bd
       0.0003366796 -0.097111516 0.07549706 -0.03378053
0003e0 34 1b 83 3c c1 82 59 3c fc 1b 62 bd 4a dc a2 3c
       0.016004182 0.013275803 -0.05520247 0.019880433
0003f0 24 a4 5e 3d b1 d1 ad bb 1f 87 85 bd f7 81 92 bc
       0.054355755 -0.005304538 -0.06519913 -0.017884238

net.0.bias f4 [128]
000000 1b c3 18 bd 41 16 2e bd bb a6 80 bd 46 b4 26 3d
       -0.037295442 -0.04250169 -0.06281801 0.040699266
000010 cd 47 06 bd 3d 54 65 bd a8 a2 73 3d b2 8f 36 bd
       -0.03278332 -0.05598854 0.059481293 -0.044570632
000020 e8 28 c7 3c d2 d7 d1 bb 28 d0 a8 3d dc f6 9e 3d
       0.024311498 -0.0064039016 0.08242828 0.077619284
000030 90 9b 15 bd 8d 8c 7f bd 8c 54 f4 3d 66 d9 b6 3c
       -0.03652531 -0.0623899 0.119301885 0.02232046
000040 a7 9f 95 3b e6 ae c3 3d be 51 13 3e db c6 87 3c
       0.004566151 0.095548436 0.14386651 0.016574314
000050 af 60 6d bd 94 73 eb 3d 1d c9 d6 bd 6c 82 ae bd
       -0.057953533 0.11496654 -0.10487578 -0.0852097
000060 3c 95 d6 3c 84 33 82 bd 77 bd bb bd 92 d5 c2 3d
       0.026194207 -0.06357482 -0.09166997 0.095133916
000070 da 24 b6 3c a2 8d 92 bd 57 e5 8e 3d 79 4a c9 3d
       0.02223437 -0.071559206 0.06977337 0.09828658
000080 aa 77 d1 bb 7d e2 95 3d b1 d6 65 3d 84 a6 41 3d
       -0.006392439 0.0731859 0.05611295 0.047277942
000090 87 f3 92 bd 15 0a b7 bd e5 61 da bc 6d 4d 21 39
       -0.071753554 -0.0893747 -0.026658008 0.00015383
0000a0 2d f4 b9 bd cb 77 b0 bd 9b 36 2e bd 72 ff b6 3c
       -0.09079776 -0.08616599 -0.042532545 0.022338603
0000b0 29 78 d2 bc 9b 7f ca bd 30 6f ab 3c 0d 27 bc bc
       -0.025692062 -0.0988762 0.020927042 -0.02296784
0000c0 79 e8 64 bd 53 da 8c 3d 05 62 34 3d 56 e5 9a 3d
       -0.055885766 0.068775795 0.04403879 0.075632736
0000d0 3b b2 d6 3d 0a 73 09 3d 6b b7 de bc 5d c2 77 bb
       0.104832135 0.033556975 -0.02718707 -0.0037805059
0000e0 a7 9e 6c 3d ef 1e 04 bd a7 21 5c 3d 07 4e f6 3d
       0.05776849 -0.032256063 0.05374303 0.12026601
0000f0 d5 50 81 bc 78 86 a0 3c bb 5b 8b 3b f9 1c 6c 3d
       -0.015785614 0.01959537 0.0042528785 0.057644818
000100 42 a7 5c bd 6a d6 08 3e 30 49 ec bc 9e 24 29 3d
       -0.053870447 0.13363042 -0.028843492 0.041294686
000110 fa e1 e3 bd 5f 15 4f 3d 44 3c 0d bd 3a d5 23 bd
       -0.11127086 0.05055749 -0.034481302 -0.03999827
000120 ac 78 a2 bd 90 dc 0e 3d 83 f7 6e 3d 79 60 0a 3d
       -0.079331726 0.034878314 0.058341514 0.03378341
000130 a0 eb 90 bd 44 d9 ed 3c b6 a5 51 bd 00 20 64 3d
       -0.07076192 0.029034264 -0.051183425 0.05569458
000140 a3 60 17 3e b1 f1 c8 bd eb b4 6d 3d 43 14 5d bd
       0.14782958 -0.09811724 0.058033865 -0.0539744
000150 26 67 2a 3d 70 ac cb bc c8 73 98 3c 08 ee 7f bd
       0.041602276 -0.024862498 0.018609896 -0.062482864
000160 98 d5 a2 3d 55 af 61 3d e0 72 b8 bd 62 16 9d bd
       0.07950896 0.05509885 -0.09006286 -0.07670285
000170 65 17 ac 3d 9f 39 91 bd 8a 8f 3c 3d 52 69 0d bd
       0.084029 -0.070910685 0.046035327 -0.03452427
000180 db 2a af bd ee 1f 85 3d a6 73 1d bd 05 fc 3d bd
       -0.08553096 0.06500231 -0.03844037 -0.046382923
000190 06 2e 7f 3d 81 25 86 3d bf d9 e9 3d 87 a3 ed 3d
       0.06229975 0.06550122 0.11418485 0.11603456
0001a0 c0 d1 33 3d e5 a6 0b bc 97 4b 25 3c 5d 50 9a 3d
       0.043901205 -0.0085236775 0.010088823 0.07534859
0001b0 c7 77 95 bd d1 a9 b8 3d 89 5a 05 3d 31 b7 63 3d
       -0.07298236 0.09016765 0.032557044 0.055594627
0001c0 63 71 a3 3c d3 c8 ad bd 4b c5 37 3d fd f9 5c 3c
       0.019951528 -0.0848557 0.044865888 0.013487336
0001d0 a1 44 a7 3c aa ee 24 bd a5 97 96 3d c6 2f 68 3c
       0.020418467 -0.04026667 0.07353143 0.014171546
0001e0 8d 43 a7 3c 69 58 cd bd e3 5c f4 3d 32 af b8 bd
       0.020417953 -0.100266285 0.11931779 -0.09017791
0001f0 2e 3b a5 3d 46 74 85 3d c1 a2 c3 3c c3 48 a6 bd
       0.08067928 0.06516318 0.023881318 -0.08119347

net.2.weight f4 [128, 128]
000000 4f e4 35 bd 2d 66 f7 bd 57 f6 9f 3c c9 2d 84 3d
       -0.044407185 -0.12080035 0.019526644 0.06454045
000010 f7 96 57 3d f8 55 a9 3d 3d 3a aa 3d db d4 3f 3d
       0.052634206 0.0826835 0.08311889 0.046833854
000020 bc f4 4d bd d3 56 50 3e 84 0c ae 3c ac 84 37 3d
       -0.050282225 0.20345621 0.021246202 0.04480426
000030 49 3d b1 3c d2 80 aa bd d4 99 3c bd b5 f1 b1 3d
       0.021635668 -0.08325352 -0.04604514 0.0868868
000040 f2 7e 9b 3d 48 fb 19 bd e7 ae 4a 3d d8 e9 fe bd
       0.07592572 -0.037593156 0.049483206 -0.12446946
000050 2c 5f 97 bc 8f 5b 0b 3d 32 e3 7e 3c be cd 5a 3d
       -0.018477999 0.034022864 0.015557097 0.053418867
000060 3a fa 87 3c 2c 08 c4 3d e2 41 14 3c f0 1c 19 be
       0.01659881 0.09571871 0.009048911 -0.14952445
000070 3c 0d 2b 3a b6 0e c4 bd 72 8e 97 3d 0c ec 8a 3d
       0.00065251044 -0.095731184 0.07400216 0.067833036
000080 2a 13 a2 bd 2a 6e 61 3d 1e 50 30 3e 72 40 0c 3e
       -0.079138115 0.0550367 0.17218062 0.13696459
000090 ec 29 27 bd a8 62 bf bd f7 13 b0 bd 63 21 1b bd
       -0.040811464 -0.09344989 -0.08597558 -0.037873637
0000a0 6f 60 4c bd 7f 5a 6f bd fb 39 05 3e d3 dc 9f 3d
       -0.049896654 -0.058435913 0.13010399 0.07805791
0000b0 df c8 17 bc 30 28 0c 3c 39 00 4f bd ad 55 63 b9
       -0.0092642 0.008554503 -0.05053732 -0.00021680324
0000c0 b4 d2 11 bd 1a 46 46 3c ca 09 a9 bc 2d fb 8a 3c
       -0.035601333 0.012101674 -0.02063455 0.016965473
0000d0 cb 0c 40 3c ae 12 a4 3c 09 5e 1f 3c 25 19 26 be
       0.0117218 0.020028438 0.00972701 -0.1622053
0000e0 c1 2a e3 bd 97 d3 09 bc d7 cb fa 3c 2f f1 4b bd
       -0.11092139 -0.008412263 0.030614777 -0.049790557
0000f0 01 2e fb bd d0 1a cb 3c df 88 00 3e 5f cb 4d 3c
       -0.12264634 0.024793059 0.12552212 0.0125606945
000100 96 02 21 bd c8 ba dc 3b ad b8 18 bd 15 5f 1b be
       -0.039309107 0.0067361332 -0.037285496 -0.1517299
000110 b0 e3 12 be d7 87 06 3e b9 88 a2 bd 27 39 8d 3c
       -0.14344668 0.13137756 -0.07936234 0.017239166
000120 e1 41 95 bd 0d 69 6a 3d ca a1 15 3d e9 95 07 3e
       -0.07287956 0.05722909 0.036531247 0.1324078
000130 82 74 71 3c f8 92 d7 3d b8 dc fc 3d 64 ac ab bd
       0.01473725 0.10526079 0.12346786 -0.0838249
000140 4a ef 29 be 51 dc f3 3b 9b d3 a6 bd 1c 4e 2d bc
       -0.16595188 0.0074420352 -0.08145829 -0.010577705
000150 35 10 ea bc 84 cc a9 bd 65 1e e3 3c 71 c9 99 bd
       -0.028572181 -0.082909614 0.027724454 -0.07509125
000160 2e bf aa bc a3 b8 df 3d 70 5c 23 3e 6c a8 72 bd
       -0.020843115 0.109238885 0.15953231 -0.05924265
000170 8c 2a 83 3d 57 67 42 3c fa e4 63 3d 6f c0 8b 3d
       0.064045995 0.011865458 0.05563829 0.06823813
000180 35 0f ee bc 03 76 b8 bd fb 0a 8b 3b 5e 00 04 3d
       -0.029059986 -0.09006884 0.0042432523 0.032226913
000190 80 0d 05 be f1 7f 6d bd 09 98 2e bd 27 0e 9f bc
       -0.12993431 -0.057983343 -0.04262546 -0.019415928
0001a0 50 2a 0c 3e 65 b0 a6 bc db f5 cb 3c 1b 0b 8f 3d
       0.13688016 -0.020347783 0.024897506 0.0698454
0001b0 35 75 0a bc be bf c6 3d d1 cd 3a be 58 a2 7c 3d
       -0.008450796 0.09704541 -0.18242575 0.06167826
0001c0 b6 28 00 3c 6d a0 ba bc 8d 15 81 bd 11 6b 63 3d
       0.007822206 -0.022781575 -0.063029386 0.05552203
0001d0 d1 f5 f0 bc 77 ac 5f bd a9 9d 29 bd d3 39 e8 3c
       -0.02941409 -0.054607835 -0.041410122 0.028347885
0001e0 82 04 ca bd c5 34 24 3d 79 66 07 3e 6c cb 62 bd
       -0.09864141 0.040089387 0.13222684 -0.05536978
0001f0 aa ab 7a bd 6d 7e 6b 3c 29 9e 96 3c 2f ff 3c bd
       -0.061198868 0.014373404 0.018385964 -0.0461418
000200 40 ca 9e bb 68 cf 1a 3e 2f e4 ad 3d d6 4f 0a 38
       -0.0048458874 0.15118182 0.08490788 3.2976117e-05
000210 8c 8c 48 3d 30 90 c9 3b 73 2a c2 bd 2b 93 a1 bc
       0.04896216 0.0061512217 -0.09480753 -0.019723495
000220 7b fa 0b 3e 2e 9c a6 3d 91 c0 90 3d ed c8 eb bc
       0.1366977 0.08135258 0.07067979 -0.028782332
000230 28 42 2c 3d 1f ca f2 3d f7 76 8b bd 79 df bf 3c
       0.04205528 0.11854958 -0.068098 0.02342199
000240 19 fa 30 bd 14 2d f1 bc 75 dc 30 3d 7d bc 5e bd
       -0.04320726 -0.02944044 0.043178994 -0.054378975
000250 60 08 b4 bd 12 e9 0f 3e a8 b8 0d 3e ab ef bb bd
       -0.0879066 0.14053753 0.13839972 -0.091765724
000260 3c f0 8e bc 8b 4c f4 3c 80 a9 ce 3d 23 be 9c bc
       -0.017448537 0.029821655 0.10090923 -0.019133633
000270 32 01 3d bb 46 7f ac 3d 0b 0a db 3c e7 fc 59 bd
       -0.0028839824 0.08422713 0.026738187 -0.053219702
000280 b1 7f 23 bc 84 2c a3 3d eb d8 86 3c e6 2a 07 3e
       -0.0099791745 0.07967475 0.016460856 0.13199958
000290 0f 62 a2 3d 03 d3 b3 bc 09 22 28 bc 48 df 8e 3d
       0.079288594 -0.021951204 -0.010262021 0.06976181
0002a0 cf 59 86 3d 81 1c 95 3b 45 96 17 bd 58 d6 d9 3d
       0.065600984 0.004550517 -0.037008543 0.10636586
0002b0 d7 e0 b3 3c 46 14 41 bd 22 10 33 3e f1 3d a0 3d
       0.021957798 -0.047138475 0.17486623 0.078243144
0002c0 02 53 a1 3d 56 fe 72 3d c1 53 03 3e 01 c3 c8 3d
       0.078771606 0.059324585 0.12824918 0.09802819
0002d0 fc 81 72 3d 01 82 b1 3d 7c 53 3e bd 2f 57 36 3e
       0.059205994 0.086673744 -0.046466336 0.17806695
0002e0 a1 4f 6a 3d 65 de 1a 3e 9b 01 8a 3a 71 05 59 be
       0.057204846 0.151239 0.0010529043 -0.21193482
0002f0 97 cb 2b bc 08 b3 a3 bd 93 6c 95 3c 18 18 46 3e
       -0.010485551 -0.07993132 0.018240249 0.19345129
000300 6c 25 7f 3d bf 44 79 bd e0 30 34 bc c6 f3 ae 3c
       0.062291548 -0.060856577 -0.010997981 0.021356475
000310 d3 7f b3 3c cc 55 ad 3d 77 98 bc 3d 64 38 e0 3d
       0.021911537 0.0846363 0.09208768 0.10948256
000320 2a 16 d3 3d 8e f3 c6 3d d9 4c 81 bc 3b a7 d6 3d
       0.10306962 0.09714423 -0.015783714 0.104811154
000330 9c ad 85 3d 94 35 ea 3d f3 7b 11 3d 11 4d a7 bc
       0.06527254 0.114360005 0.035518598 -0.02042249
000340 e6 6c 7b 3e 1e 80 38 3e c9 24 90 3d cf cd d2 bc
       0.2455326 0.18017623 0.07038266 -0.025732903
000350 32 0b e5 3c 1f 02 95 3d 09 dd 48 bc 40 55 bc 3d
       0.02795944 0.07275795 -0.01225973 0.09195948
000360 22 c7 59 3b 7a a5 30 3d 26 5c 0b 3a ba 5b a0 3d
       0.0033230265 0.04312656 0.00053161604 0.078299955
000370 ae c7 5c 3d 76 29 ce 3c 6c e2 de 3d 86 70 c3 3d
       0.053901367 0.025166254 0.1088303 0.095429465
000380 52 f5 9a 3d 11 8f 2e bd 41 77 e2 3c c0 81 f0 3d
       0.075663224 -0.042616908 0.027644755 0.11743498
000390 5d cf b1 3d e1 73 f0 bd 5d 84 16 bd 1d 6c a7 3d
       0.086821295 -0.11740852 -0.036747325 0.08174918
0003a0 b6 d8 71 bd 2f f6 5f bd 0f 2c 31 bd dd 68 36 3a
       -0.059044562 -0.05467814 -0.04325491 0.0006958375
0003b0 c5 bc ed bc 04 07 0f 3e 86 3b 2c bd c6 8f 9f 3d
       -0.029020676 0.1396752 -0.042048953 0.077910945
0003c0 d3 1c fd bc 51 28 81 3c 1a 91 dc bd a0 94 38 3d
       -0.030897534 0.015766295 -0.107698634 0.045063615
0003d0 f9 62 11 bd ed 64 de bc ba b3 0d 3c 4d 75 af 3d
       -0.03549478 -0.027147735 0.008648807 0.08567295
0003e0 ce 2f 41 3d ee d3 d0 3d 1b 1e b7 3d 5d bc 99 3d
       0.04716473 0.101966724 0.08941289 0.075066306
0003f0 23 11 b9 bb 6c 68 44 3d 88 fe 04 3d 2f da 85 3d
       -0.005647795 0.047951147 0.032469302 0.06535756

net.2.bias f4 [128]
000000 dd b2 29 bc e7 0e e2 bc 0f e6 a0 3d 4a 2a c2 3d
       -0.010357586 -0.027594997 0.0785638 0.09480722
000010 a0 a2 ca 3c d2 2d b3 3c 54 8d 93 3d 51 8a 71 bd
       0.024735749 0.021872435 0.072046906 -0.0589698
000020 e8 9d 65 bd b6 9b a1 3d 8d 32 09 3e 01 e4 f0 bc
       -0.056058794 0.07891028 0.1339819 -0.029405596
000030 c8 ea 11 3e 5c 01 f4 bb 6e 11 da 3c 71 d2 dc bc
       0.14249718 -0.007446451 0.02661964 -0.026955815
000040 37 70 67 3d c9 ea 1c 3e 3d 06 8a 3a f3 32 f5 3d
       0.0565035 0.15323938 0.0010530424 0.119726084
000050 89 e2 87 3d 80 64 f6 3c c4 c5 a3 bb 49 3c 58 bd
       0.06635005 0.030077219 -0.0049979407 -0.052791867
000060 c7 c7 b5 3d dd 2c 5f 3d df 66 ba bd bd 85 06 3d
       0.08875995 0.054486144 -0.09101652 0.032842387
000070 67 ae d4 3d 04 2b 5e 3d 89 6d 84 3d bc 87 7f 3d
       0.10384827 0.05424024 0.06466205 0.062385306
000080 d0 ec 85 bd e0 ff a2 bd 23 e8 15 3e e5 d1 61 3c
       -0.06539309 -0.079589605 0.14639334 0.013782953
000090 54 29 0a bd 81 4e b5 3d 35 78 61 3d 2a 09 66 3d
       -0.03373082 0.08852864 0.05504628 0.056161083
0000a0 af c0 79 3c 3b d0 58 3d a7 14 19 3c 2c 08 62 bd
       0.015243693 0.05293296 0.009343303 -0.055183575
0000b0 50 56 72 3d b5 03 d3 3a 5c c5 f8 3d 6d 74 3d 3d
       0.059164345 0.0016099127 0.12147018 0.04625361
0000c0 0c b4 df 3d 6c 48 7a bd 52 c0 b3 3d 6b 3e 0e 3d
       0.10923013 -0.061104223 0.087769166 0.034727495
0000d0 b5 94 51 bc 47 06 f5 3d da 99 d1 3c 4c 55 a3 3d
       -0.012791802 0.11964088 0.025586057 0.079752535
0000e0 06 59 3f bd fa b3 89 bd b9 27 ff 3c ee c5 6f 3d
       -0.04671576 -0.06723781 0.03114687 0.05853837
0000f0 f9 c9 20 3d 88 72 87 3c 35 5a 56 bd c5 f0 96 3b
       0.039255116 0.016534105 -0.052332122 0.0046063387
000100 3e d5 4f 3d 6c 5c af bd 2c ad 69 3d d1 eb 67 bc
       0.050740473 -0.0856255 0.057049915 -0.014155344
000110 ce b3 9b bc 18 49 0a bd 6b 35 af 3d 0a bd 95 bd
       -0.019006636 -0.033761114 0.085551105 -0.07311447
000120 a5 a1 02 3d d2 8e 9a bd 75 f9 9b bd 54 35 ae 3d
       0.031892437 -0.07546772 -0.076159395 0.08506265
000130 93 45 81 bd 70 5e 03 ba 29 38 96 3d a9 c3 b2 bd
       -0.06312098 -0.00050113257 0.073349304 -0.087287255
000140 70 2b 9a 3d 4c ad 15 3c a2 99 8c bd 68 cc 84 3d
       0.07527816 0.0091355555 -0.06865241 0.064843
000150 ef 22 b8 3d ea 57 28 bc 68 db 81 3c 44 a9 a0 3d
       0.08991038 -0.010274867 0.015851691 0.07844785
000160 de ad a2 bc 28 de 8b 3c df e2 a2 3c c6 19 8e 3c
       -0.019858297 0.017073706 0.019883571 0.017346274
000170 f7 0f 84 3b 8d 5b 67 bd 6c b3 20 bd 2d 6f 50 bc
       0.0040302235 -0.056483794 -0.03923361 -0.012721819
000180 6e 00 a0 3b 3e 6d 5b 3c eb 14 20 bc d3 80 54 bc
       0.0048828637 0.013392745 -0.009770612 -0.012970167
000190 1a 37 32 3b 8f 00 21 bb 21 cd 02 3d f1 0c 68 bd
       0.0027193488 -0.0024566983 0.031933907 -0.056652967
0001a0 90 db 44 3d 76 43 b5 39 bc c3 91 3d 95 81 28 3d
       0.048060954 0.00034573273 0.071174115 0.041139204
0001b0 8a f4 00 3c a1 bc 3a bb df 4f 6e 3d b3 a3 0b 3d
       0.007870803 -0.002849378 0.05818164 0.034091663
0001c0 68 e5 ee 3d 44 c8 83 3d d3 74 52 3c 28 14 6a bd
       0.116648495 0.06434682 0.012845236 -0.05714813
0001d0 a0 e9 34 3d 20 37 39 3d 7c 87 54 3d 9f ea 1b bc
       0.044168115 0.045218587 0.05188702 -0.009516387
0001e0 ed a6 e8 3d 2b c9 92 3d 5c 41 72 3d b7 21 8e 3d
       0.113599636 0.07167276 0.059144363 0.06940024
0001f0 e4 7c f0 3d 96 db 4f bc 27 01 d6 3c e4 0f dd 3d
       0.11742571 -0.012686631 0.026123596 0.107940465
