ddqn_out/dqn_ep2100.pt (torch, 464501 bytes, 24 tensors)

net.0.weight f4 [128, 77]
0	0x3fa349df	1.2756919
1	0x3d806d51	0.062708504
2	0xbdcb61f3	-0.09930792
3	0xbda2b8ee	-0.07945429
4	0xbd42ca35	-0.04755612
5	0x3caf2467	0.021379663
6	0x3baec10d	0.005333072
7	0x3d9a986d	0.07548604
8	0xbcd0dea4	-0.025496788
9	0x3dd7a060	0.10528636
10	0x3c2477a4	0.01003829
11	0xbd365d92	-0.04452283
12	0xbdc3fc39	-0.09569592
13	0xbdcc32fb	-0.09970661
14	0xbcb75f23	-0.022384232
15	0x3c11f0a5	0.008907472
16	0x3d2e0c43	0.042492162
17	0x3d8cc043	0.068726085
18	0xbd9ef0dc	-0.07760784
19	0xbd44d080	-0.048050404
20	0x3d2ffed2	0.042967625
21	0x3da1bea4	0.0789769
22	0xbc8fb8fd	-0.017544264
23	0x3da0685f	0.07832407
24	0xbd46ced4	-0.04853709
25	0x3d3ebb02	0.046565063
26	0x3dcdb3ed	0.10044084
27	0xbe08afaa	-0.1334826
28	0xbcc062b8	-0.023484573
29	0xbc2dfed5	-0.010619839
30	0xbda14a74	-0.07875529
31	0x3d27b417	0.04094323
32	0xbdaf2148	-0.0855127
33	0xbd4959f4	-0.04915805
34	0xbd9c3a51	-0.076283105
35	0xbdce6228	-0.100773156
36	0xbd7548f0	-0.05988401
37	0x3dc7067f	0.09718036
38	0x3d56bd2a	0.052426495
39	0x3d68b04e	0.056808762
40	0x3bfdaed6	0.0077417893
41	0xbd0d1b81	-0.034450058
42	0x3c1095ce	0.008824779
43	0xbdf09412	-0.11746992
44	0xbd2cbda2	-0.042173035
45	0xbd32a1c6	-0.04361131
46	0x3cca5234	0.0246974
47	0x3d88fbd8	0.066886604
48	0xbc240899	-0.0100118155
49	0xbd9739b2	-0.073840514
50	0x3d470aa4	0.048594132
51	0x3dcd22db	0.10016414
52	0xbcba1062	-0.02271289
53	0x3cab08f4	0.020878293
54	0x3da07dd7	0.07836502
55	0xbd81c1d3	-0.06335797
56	0x3cbf4fd3	0.023353493
57	0xbdb1b973	-0.0867795
58	0xbd9e88fd	-0.07740972
59	0xbd63bd9d	-0.05560075
60	0x3dc0e3c4	0.09418443
61	0x3d4d0439	0.050052855
62	0xbdf3bcd1	-0.11901248
63	0x3d21ed95	0.039533217
64	0x3db1ecf6	0.08687775
65	0xbd8b25bd	-0.067943074
66	0x3dfcf4a4	0.12351349
67	0x3ba82e11	0.0051324447
68	0xbd294000	-0.0413208
69	0x3dd77b49	0.10521562
70	0xbd839b8d	-0.06426153
71	0xbda62078	-0.08111662
72	0x3d2d84c1	0.042362932
73	0x3dd2b666	0.10288696
74	0x3dc5db99	0.096610256
75	0x3dcf7cee	0.1013125
76	0x3cc6b21f	0.024254857
77	0x3f2e8b9b	0.6818177
78	0x3c379ecc	0.011207294
79	0xbd80eaf5	-0.062948145
80	0xbc8b3d79	-0.016997086
81	0x3ddbc2c1	0.10730506
82	0x3da15351	0.078772195
83	0xbdffd502	-0.124918
84	0x3c3e6a65	0.011622046
85	0xbd138750	-0.036017716
86	0xbc8b4b44	-0.017003663
87	0xbcacea38	-0.021107778
88	0x3dbad16b	0.091219746
89	0xbd7e11c6	-0.06202867
90	0x3d2d1def	0.042264875
91	0x3d73ea54	0.059549645
92	0x3daa0155	0.08301035
93	0x3d1c7f54	0.038207367
94	0xbdf67061	-0.12033153
95	0xbd96401b	-0.07336446
96	0x3d6c0912	0.057625838
97	0x3cc95337	0.024575813
98	0xbdc8cea8	-0.098050416
99	0xbbfff3b2	-0.007811033
100	0x3df9ab83	0.121909164
101	0x3d98943d	0.07450149
102	0xbe23b374	-0.15986425
103	0xbcf77b1a	-0.030210067
104	0xbe051184	-0.12994963
105	0xbc982e88	-0.018576875
106	0xbd9284a6	-0.07154207
107	0xbe00c4c3	-0.12575059
108	0xbb1bb064	-0.002375626
109	0x3b035c8f	0.0020044183
110	0xbc5092c3	-0.012730303
111	0x3d928377	0.07153981
112	0xbdabfdcb	-0.083980165
113	0x3db4cdfd	0.08828352
114	0x3d953a55	0.072865166
115	0xbdc354f1	-0.09537686
116	0xbce26bd5	-0.027639309
117	0xbcb74617	-0.022372289
118	0x3d4ec215	0.05047806
119	0x3c795682	0.015218379
120	0x3d49bba7	0.049251225
121	0xbcc92a62	-0.024556343
122	0xbd8f528b	-0.06998166
123	0x3d15d727	0.03658214
124	0xbe0a6230	-0.13514018
125	0xbd341a9c	-0.04397069
126	0xbce97ef3	-0.028502917
127	0xbd18d352	-0.037310906
128	0xbd03135c	-0.032000884
129	0xbcc44ea2	-0.023963276
130	0xbc73c60c	-0.014878761
131	0x3c0cde8a	0.008597979
132	0xbdb5659f	-0.08857273
133	0xbb33b935	-0.0027423624
134	0x3da88e71	0.082302935
135	0xbc341582	-0.010991456
136	0x392c3c9f	0.00016425781
137	0xbc55b526	-0.013043677
138	0x3d4ddf0e	0.05026155
139	0x3d7a4569	0.06110135
140	0x3e15f8dc	0.14645714
141	0x3dcf132c	0.101110786
142	0x3dbfae51	0.0935942
143	0xbb933bf9	-0.0044932333
144	0xbd8e5d05	-0.06951336
145	0xbd856218	-0.065128505
146	0x3d8e5570	0.0694989
147	0xbbbd46e0	-0.005776271
148	0xbd5c46f5	-0.053778607
149	0xbd992d67	-0.07479363
150	0xbdef9bbb	-0.11699625
151	0xbde7aa78	-0.11311811
152	0xbce77e48	-0.028258458
153	0x3d8179ca	0.063220575
154	0x3ff4f0e2	1.9136012
155	0xbdc48d12	-0.095972195
156	0x3d9d55ec	0.07682404
157	0xbd5decc3	-0.05418087
158	0x3b8d863f	0.004318982
159	0xbd0e5aae	-0.034754448
160	0x3ce8049b	0.028322509
161	0xbbff8b31	-0.0077985753
162	0xbdb337c4	-0.08750871
163	0xbd8f0117	-0.0698263
164	0xbc96b1de	-0.01839536
165	0x3d5102cd	0.05102806
166	0xbd56659d	-0.052343
167	0x3d070344	0.0329621
168	0xbdb194ea	-0.08670981
169	0x3bdd805c	0.0067596864
170	0x3ddb153a	0.10697408
171	0xbd1a1d17	-0.0376254
172	0x3deaa09d	0.11456416
173	0x3d622013	0.05520637
174	0xbdb6166c	-0.088909954
175	0x3d93f8f8	0.072252214
176	0xbb4763d2	-0.0030424488
177	0xbd1c073f	-0.038092848
178	0x3dbd0b89	0.09230716
179	0xbd6d4558	-0.05792746
180	0x3cca30a6	0.0246814
181	0xbcc8de71	-0.02452013
182	0x3db66b17	0.089071445
183	0x3d337210	0.04380995
184	0x3dd50a5a	0.10402365
185	0x3cfdfd16	0.03100447
186	0xbca56491	-0.020189555
187	0xbc0cb934	-0.008589078
188	0xbdc98b63	-0.09841039
189	0x3d9a7d2c	0.07543406
190	0x3dd344a4	0.103158265
191	0x3db975b3	0.090556525
192	0xbd881718	-0.0664503
193	0x3c9bcb92	0.019017968
194	0xbd9844fa	-0.07435031
195	0xbccb5e56	-0.024825256
196	0xbd4c7131	-0.049912635
197	0x3d432c2d	0.04764955
198	0xbcd367c6	-0.025806319
199	0xbbbad253	-0.005701342
200	0xbc7222ac	-0.014778774
201	0x3d51cb23	0.051219117
202	0xbd511aa2	-0.05105079
203	0x3c533cfd	0.012892959
204	0xbd81611c	-0.0631735
205	0x3d87c6bc	0.066297024
206	0xbd19836b	-0.037478846
207	0x3df4ef9e	0.11959766
208	0x3d28328b	0.041063827
209	0x3ce9615b	0.028488806
210	0x3c59659e	0.013268856
211	0xbc0cc824	-0.008592639
212	0x3ce74a4c	0.02823367
213	0x3c0d22d9	0.008614265
214	0xbc3310eb	-0.0109293265
215	0x3ce647d0	0.028110415
216	0xbd8b36c9	-0.06797559
217	0xbc7647a6	-0.015031731
218	0x3dfd3b57	0.12364834
219	0xbdfdaba8	-0.123862565
220	0xbda797f6	-0.08183281
221	0x3dea9d8d	0.11455832
222	0x3e0746d9	0.1321062
223	0xbc5dfccb	-0.01354904
224	0xbe00fb5a	-0.12595883
225	0x3da7f1e3	0.08200433
226	0xbe021745	-0.12704189
227	0xbd393048	-0.04521206
228	0xbd08fd3c	-0.033444628
229	0xb8f5d416	-0.000117220145
230	0x3c78bd7a	0.0151818935
231	0x3effcf33	0.49962768
232	0x3c2072d6	0.009793004
233	0x3dbbcfcd	0.09170494
234	0x3dde2507	0.10846906
235	0xbda68164	-0.08130148
236	0x3c9b45a6	0.01895411
237	0xbd8b0641	-0.06788302
238	0xbd393a6b	-0.045221727
239	0x3d1a0041	0.0375979
240	0x3d0f05b9	0.034917567
241	0x3db1e824	0.086868554
242	0xbd7c643e	-0.061619036
243	0x37cbe215	2.4304763e-05
244	0x3db46278	0.08807844
245	0xbdacf46c	-0.08445057
246	0x3d924fe4	0.07144144
247	0xbdcf3f4a	-0.10119493
248	0x3baaefad	0.00521656
249	0xbca27202	-0.019829754
250	0xbd840059	-0.06445379
251	0x3c2e234c	0.010628533
252	0x3d7e5899	0.062096212
253	0xbb8f44a0	-0.0043721944
254	0xbd8a21f7	-0.067447595
255	0xbd857361	-0.065161474

net.0.bias f4 [128]
0	0xbcb62c09	-0.022237794
1	0xbd3ae2dc	-0.045626506
2	0xbd838ed2	-0.06423725
3	0x3d00ceb6	0.031447135
4	0xbd429113	-0.047501635
5	0xbd6c813a	-0.057740428
6	0x3d27d0bc	0.04097055
7	0xbd15e67a	-0.036596753
8	0x3c9f276d	0.01942798
9	0xbc4abf3a	-0.0123746935
10	0x3d5200de	0.05127036
11	0x3d90ae88	0.07064539
12	0xbdcd1e75	-0.10015575
13	0xbd5059d2	-0.05086691
14	0x3e006a68	0.12540591
15	0x3c26bb1d	0.010176447
16	0xbc667eaa	-0.014068285
17	0x3db81402	0.08988191
18	0x3e02b4d7	0.12764297
19	0x3d1a2395	0.03763159
20	0xbd9bfb75	-0.07616321
21	0x3df0e7e3	0.11762979
22	0xbdd4df83	-0.10394194
23	0xbdcd1137	-0.10013049
24	0x3cb93ee4	0.022612996
25	0xbcfc5bfa	-0.030805577
26	0xbde46998	-0.11152953
27	0x3dba438c	0.09094915
28	0x3cc288ee	0.023746934
29	0xbd888f2a	-0.066679314
30	0x3d2cede0	0.042219043
31	0x3dbdfbd7	0.0927655
32	0x3b485345	0.003056721
33	0x3daaf12a	0.0834678
34	0x3d7e30c1	0.062058214
35	0x3d2d8ccc	0.042370602
36	0xbd60ec76	-0.054913007
37	0xbda56236	-0.08075373
38	0xbb8813b3	-0.004152739
39	0xbcff1489	-0.031137722
40	0xbde07384	-0.10959533
41	0xbdcff4a3	-0.101540826
42	0xbd741b3e	-0.059596293
43	0x3ca62746	0.020282399
44	0xbd09179b	-0.033469778
45	0xbdc41771	-0.095747836
46	0xbc6bbe21	-0.014388592
47	0xbceb0c70	-0.028692454
48	0xbd08ec6b	-0.03342859
49	0x3d92fb84	0.07176879
50	0x3d3980e7	0.045288946
51	0x3d9b49ee	0.0758246
52	0x3defaa9c	0.11702463
53	0x3c26e585	0.010186558
54	0xbd5cd1fe	-0.0539112
55	0xbc64ac40	-0.013957083
56	0x3d0b535d	0.03401505
57	0xbd1cafe3	-0.038253676
58	0x3da8501c	0.08218405
59	0x3d627d0a	0.055295028
60	0xbd925109	-0.071443625
61	0x3cc57f8d	0.024108673
62	0x3be67322	0.007032768
63	0x3d5d854f	0.05408221
64	0xbd63239c	-0.05545388
65	0x3dd9ca43	0.106342815
66	0xbd0ae439	-0.033909056
67	0x3d45daa7	0.048304226
68	0xbd73719c	-0.05943452
69	0x3d3ecfa4	0.04658474
70	0xbcebef64	-0.028800674
71	0xbd3070dd	-0.043076385
72	0xbdb5275f	-0.088454
73	0x3d347fb5	0.044067103
74	0x3d09a44f	0.033603963
75	0x3cf02342	0.029313687
76	0xbd7ab4c5	-0.06120755
77	0x3cb1759d	0.021662528
78	0xbd7c5474	-0.06160398
79	0x3d0ee5a5	0.034886975
80	0x3dec16a8	0.11527759
81	0xbdbc8861	-0.092057
82	0x3d29a557	0.041417446
83	0xbd8b7bfe	-0.06810759
84	0x3d22e349	0.039767537
85	0xbccbac70	-0.024862498
86	0x3d00d4fa	0.03145311
87	0xbda0bd73	-0.078486346
88	0x3da7bf52	0.08190788
89	0x3d90d862	0.07072522
90	0xbd9ea808	-0.07746893
91	0xbda08c8a	-0.07839306
92	0x3d96675b	0.07343932
93	0xbd99f1cf	-0.075168245
94	0x3d2db955	0.042413075
95	0xbd2fb4ec	-0.04289715
96	0xbdc23c83	-0.09484198
97	0x3d128a8c	0.03577666
98	0xbd1c3250	-0.03813392
99	0xbd4f3a84	-0.050592914
100	0x3d4b9552	0.04970295
101	0x3d473685	0.04863598
102	0x3db0b311	0.08627904
103	0x3de42adf	0.111409895
104	0x3d1e794a	0.03868989
105	0xbc4e762a	-0.012601415
106	0xbbb8d818	-0.0056409948
107	0x3da867c7	0.08222919
108	0xbdb71482	-0.089394584
109	0x3dc0538b	0.093909346
110	0x3d324cf1	0.04353041
111	0x3d2ca6ab	0.042151134
112	0x3cd0e87f	0.025501488
113	0xbdbe0989	-0.092791624
114	0x3d100b6a	0.035167135
115	0xbb5b68be	-0.003347918
116	0x3be212ec	0.0068992283
117	0xbd3b5aa8	-0.045740753
118	0x3dafa51b	0.08576413
119	0xbb2f1e41	-0.0026720914
120	0xbb2987a5	-0.0025868204
121	0xbdb94ac2	-0.09047462
122	0x3dc9e244	0.0985761
123	0xbdd32ad2	-0.10310902
124	0x3d9f61e4	0.07782343
125	0x3d436e35	0.047712523
126	0x3cb8fd22	0.02258164
127	0xbde1f77e	-0.110335335

net.2.weight f4 [128, 128]
0	0xbcff0ffd	-0.031135553
1	0xbd9dab42	-0.076986805
2	0xbc819ec1	-0.01582277
3	0x3d8aa424	0.067695886
4	0xbb55ce48	-0.0032624174
5	0xbc150aea	-0.00909684
6	0x3d6e95ca	0.05824832
7	0x3d76bd22	0.060238965
8	0xbd7af40d	-0.0612679
9	0x3da45f01	0.08025933
10	0x3b885577	0.004160579
11	0x3d893333	0.066992186
12	0xbd9de019	-0.07708759
13	0xbda75629	-0.081707306
14	0xbd3d345f	-0.046192523
15	0x3df9ba96	0.121937916
16	0x3d6b8225	0.057497162
17	0xbcb31bf3	-0.021863913
18	0x3cba771e	0.022761878
19	0xbb4758a7	-0.003041783
20	0x3c41b000	0.011821747
21	0x3ba06610	0.0048949793
22	0x3c444ad1	0.011980728
23	0x3dca9fdb	0.09893771
24	0x3d25e2da	0.040499546
25	0x3e039291	0.1284888
26	0xbd183baf	-0.037166294
27	0xbd9d9b98	-0.07695693
28	0x3ba33235	0.0049803504
29	0xbad5d8dd	-0.0016315241
30	0x3d81776f	0.06321608
31	0x3d970ba7	0.073752694
32	0xbd8ab961	-0.067736395
33	0x3d90f15c	0.07077286
34	0x3dcd2335	0.10016481
35	0x3d9662c3	0.07343056
36	0x3d08b559	0.03337607
37	0xbd1d2370	-0.038363874
38	0xbcf9c911	-0.030491384
39	0xbc1534d0	-0.00910683
40	0xbcb65643	-0.02225793
41	0xbd2e914c	-0.042619035
42	0x3da84eee	0.0821818
43	0x3d4fe8fd	0.050759304
44	0x3d1a5122	0.03767503
45	0x3c0c2830	0.008554503
46	0x3c803e8b	0.015654823
47	0xbb9e349c	-0.004828049
48	0xbda1f93c	-0.07908866
49	0x3c11a61b	0.0088897
50	0xbc624803	-0.013811114
51	0xbb05d033	-0.0020418286
52	0x3c78f89b	0.015195991
53	0x3c62112b	0.0137980385
54	0xbd70485b	-0.058662754
55	0xbd938a1f	-0.07204079
56	0xbd165e51	-0.03671104
57	0x3a630935	0.0008660735
58	0xbd16cb17	-0.036814775
59	0x3d905f1c	0.07049391
60	0xbd2f665a	-0.04282222
61	0x3dc4a816	0.09602372
62	0xbd84bfeb	-0.06481918
63	0x3bf82097	0.0075722444
64	0xbcc334c6	-0.023828875
65	0xbcd68eab	-0.026191076
66	0xbc564c33	-0.013079691
67	0xbdce3658	-0.10068959
68	0x3d2f9f07	0.04287627
69	0x3d9d2a58	0.07674092
70	0xbd861f0f	-0.06548893
71	0xbca367e9	-0.01994701
72	0xbda7ecd8	-0.08199471
73	0x3d67805d	0.0565189
74	0xbd394d27	-0.045239594
75	0x3dc4f240	0.09616518
76	0x3c8a1fd5	0.016860882
77	0x3d163c02	0.03667832
78	0x3de610b6	0.11233656
79	0xbd98965f	-0.07450556
80	0xbcc16aec	-0.023610555
81	0x3c02fc92	0.007994788
82	0xbda86190	-0.082217336
83	0x3c9d853e	0.019228574
84	0xbccee6d8	-0.02525656
85	0xbda9cc84	-0.082909614
86	0xbcd81a79	-0.02637981
87	0xbd4bd4d7	-0.049763527
88	0x3d22ae7c	0.039717183
89	0x3dc45907	0.09587293
90	0x3df4eae8	0.11958867
91	0xbd9f2e88	-0.07772547
92	0x3d80bcce	0.06286012
93	0xbb819d1d	-0.003955497
94	0x3d62556a	0.05525724
95	0x3d0776b8	0.033072203
96	0xbd50b659	-0.05095515
97	0xbd914e8b	-0.07095059
98	0xbd1f9fd8	-0.0389708
99	0x3c150e8c	0.0090977065
100	0x3c62ce38	0.013843112
101	0xbcf059b0	-0.029339641
102	0x3c61c361	0.013779492
103	0xbcbf4cf7	-0.02335213
104	0x3dbf81fb	0.09350964
105	0xbdf86ae8	-0.12129766
106	0xbcde1062	-0.027107421
107	0x3d3296fd	0.043601025
108	0xbd84beaa	-0.06481679
109	0x3d8f83a4	0.0700753
110	0xbde704d9	-0.112802215
111	0xbb98217d	-0.004642664
112	0xbc9ab32e	-0.018884268
113	0x3b2bde3b	0.002622499
114	0xbd231fcb	-0.039825242
115	0x3d4f61f2	0.050630517
116	0xbd567db6	-0.05236598
117	0xbd22a005	-0.039703388
118	0xbd195785	-0.03743698
119	0xbd92d5b7	-0.07169669
120	0xbdb71cc4	-0.089410335
121	0x3d8e8fa5	0.06960992
122	0x3dff77f3	0.124740504
123	0xbc1f0c72	-0.009707557
124	0xbc2305f5	-0.009950151
125	0x3d3f8c01	0.046764378
126	0x3cf83afc	0.030301563
127	0xbda27527	-0.07932501
128	0x3b3eebd8	0.0029132273
129	0x3de6b702	0.11265375
130	0x3da798a6	0.08183412
131	0xbcf7ca66	-0.030247878
132	0x3c57a701	0.013162375
133	0xbc00ce5d	-0.007861701
134	0xbdf2d533	-0.11857071
135	0xbd0d0732	-0.03443069
136	0x3dfef8af	0.124497764
137	0x3d90f0b5	0.07077161
138	0x3d2f1cfa	0.042752244
139	0xbd5a90f0	-0.05336088
140	0xbbc73f70	-0.0060805604
141	0x3dd1c834	0.10243264
142	0xbd3c25f8	-0.045934647
143	0xbbb7abe1	-0.0056052064
144	0xbd9c1838	-0.07621807
145	0xbd7f0bd6	-0.062267147
146	0xbc1c28b4	-0.009531189
147	0xbd25e591	-0.040502135
148	0xbdec46dd	-0.115369536
149	0x3dfcf921	0.12352205
150	0x3e025432	0.1272743
151	0xbde8ff90	-0.1137687
152	0xbd42861a	-0.04749117
153	0x3db64059	0.08898992
154	0x3d8fb5a9	0.07017071
155	0xbd9062f1	-0.070501216
156	0xbce5c1c6	-0.0280465
157	0x3d903c24	0.07042721
158	0xbd070960	-0.032967925
159	0xbd41f810	-0.04735571
160	0xbc6060d6	-0.0136949625
161	0x3c6f73f3	0.014615047
162	0x3acbb5f4	0.0015541897
163	0x3db9527f	0.09048938
164	0x3da8ccb3	0.08242168
165	0xbcd242f1	-0.025666686
166	0xbcdc08ab	-0.026859602
167	0x3d192878	0.03739211
168	0x3cd6093d	0.026127452
169	0xbcce5eb7	-0.025191648
170	0xbda08649	-0.07838113
171	0x3d94f6ba	0.07273622
172	0xbb5f0e25	-0.003403553
173	0xbd34d5e2	-0.044149287
174	0x3d8e6933	0.06953659
175	0x3d17d4b2	0.037068076
176	0x3d961cce	0.07329713
177	0x3d427312	0.04747302
178	0x3de437e5	0.111434735
179	0x3da99989	0.08281238
180	0x3d732159	0.059357975
181	0x3d807d15	0.062738575
182	0xbd8d5153	-0.06900277
183	0x3de9ef22	0.11422564
184	0x3b0e865d	0.0021747567
185	0x3de1b410	0.11020672
186	0xbd02e74b	-0.03195886
187	0xbd85434e	-0.06506978
188	0x3d8f42fb	0.069951974
189	0xbddc455d	-0.107554175
190	0x3cc29d1a	0.023756552
191	0x3e3f1c36	0.18663105
192	0x3d54a131	0.051911537
193	0xbda8528c	-0.082188696
194	0xbd055b8c	-0.03255801
195	0xbc8953fd	-0.016763682
196	0xbd8e19d5	-0.06938521
197	0x3d06338a	0.032763995
198	0x3da1be9c	0.07897684
199	0x3db28f25	0.08718709
200	0x3dc0e44d	0.09418545
201	0x3db04736	0.086073324
202	0xbd46d5e8	-0.04854384
203	0x3dc04ea7	0.09390002
204	0x3cc9ea00	0.024647713
205	0x3da80a9a	0.08205147
206	0x3c47b4a2	0.012189062
207	0xbd3a112d	-0.045426536
208	0x3db4826d	0.08813939
209	0x3e1c83e2	0.15284684
210	0x3d843ece	0.064572915
211	0xbd5aa128	-0.053376347
212	0x3a2c4b16	0.0006572468
213	0x3d95021f	0.07275795
214	0xbcc4465c	-0.023959331
215	0x3d725817	0.05916604
216	0x3c0f0a2d	0.008730453
217	0x3d665f3f	0.056243178
218	0xbc2b0c39	-0.010439926
219	0x3da55c69	0.080742665
220	0x3c928f62	0.017890636
221	0x3bf4a8de	0.0074664196
222	0x3d9ac8bb	0.075578175
223	0x3d8f8c8f	0.07009231
224	0x3d7bcb97	0.061473455
225	0xbd988910	-0.074480176
226	0xbbfbd1dd	-0.0076849298
227	0x3dbf63ac	0.09345183
228	0x3dbdd298	0.09268683
229	0xbe164c3a	-0.14677516
230	0xbda691c4	-0.08133271
231	0x3d87cb3b	0.0663056
232	0xbd80bc6d	-0.06285939
233	0xbd61e3d2	-0.055148907
234	0xbd66441e	-0.056217305
235	0xbceb487f	-0.028721092
236	0xbd61167c	-0.054953083
237	0x3e06bd8b	0.13158242
238	0xbd81b1d2	-0.06332745
239	0x3d197e47	0.037473943
240	0xbd4fce60	-0.050733924
241	0xbab2fdad	-0.0013655924
242	0xbcd9bf88	-0.026580587
243	0x3c8c988d	0.017162586
244	0xbd2499a3	-0.040185582
245	0xbd4b81c6	-0.04968431
246	0xbc21f0b1	-0.009884045
247	0x3c6e17da	0.014532054
248	0x3ca34aee	0.01993319
249	0x3dbc3a9b	0.091908656
250	0x3d5c6fca	0.053817548
251	0x3d333461	0.043751124
252	0xbda50f68	-0.08059579
253	0x3c7efb90	0.015562907
254	0x3d0488b5	0.032356936
255	0x3da229bd	0.07918117

net.2.bias f4 [128]
0	0xbcba204a	-0.022720475
1	0xbd7dceb2	-0.061964698
2	0x3d89b7a5	0.067244805
3	0x3d867832	0.06565894
4	0x3c4bf504	0.012448553
5	0xbd3521e9	-0.044221792
6	0x3d1d3c86	0.038387798
7	0xbd66d0b1	-0.056351367
8	0xbdacf09e	-0.084443316
9	0x3d945813	0.07243361
10	0x3d82fbd3	0.06395688
11	0xbd0e88fd	-0.03479861
12	0x3da39282	0.079869285
13	0xbb6b8005	-0.003593446
14	0x3cc88255	0.02447621
15	0xbc02faa2	-0.007994326
16	0x3d7d4d66	0.06184139
17	0x3da15e73	0.07879343
18	0xbb15903d	-0.0022821568
19	0x3d730ca3	0.059338223
20	0x3d0526e4	0.032507792
21	0x3d14c4eb	0.036320608
22	0xbc9791cb	-0.018502137
23	0xbd79694f	-0.060891446
24	0x3d93d564	0.072184354
25	0x3d3fa566	0.046788596
26	0xbda81f8e	-0.082091436
27	0x3c6d23eb	0.014473896
28	0x3d9d4817	0.07679766
29	0x3d497940	0.0491879
30	0x3d66a435	0.056308944
31	0x3d7936a2	0.060843118
32	0xbd9f3090	-0.077729344
33	0xbd7191f9	-0.0589771
34	0x3dc27ed9	0.094968505
35	0x3c173619	0.0092292065
36	0xbd22e3ec	-0.039768144
37	0x3da740e9	0.081666775
38	0xbbd1e8f5	-0.0064059445
39	0x3d495f1b	0.049162965
40	0xbc55dd8b	-0.013053308
41	0x3d4addb5	0.049527843
42	0x3c86bb0e	0.016446617
43	0xbdb438e3	-0.08799913
44	0x3cf26d36	0.029593091
45	0xbce71d35	-0.02821217
46	0x3d6080fa	0.0548105
47	0x3cad4f61	0.021156015
48	0x3d4bc673	0.049749803
49	0xbd40da2c	-0.047083065
50	0x3d5fd35f	0.05464494
51	0x3d311de1	0.043241385
52	0xbd8a4834	-0.06752053
53	0x3da7c05e	0.08190988
54	0x3caee20b	0.02134802
55	0x3da96a53	0.08272233
56	0xbd2c7fdb	-0.04211412
57	0xbd85d297	-0.065343075
58	0x3b89cabe	0.004205077
59	0x3cc324b0	0.023821205
60	0x3bf7762c	0.007551929
61	0xbc54f6ab	-0.012998263
62	0xbd816526	-0.06318121
63	0xbc2667a4	-0.010156546
64	0x3d70842c	0.0587198
65	0xbd9a781f	-0.075424425
66	0x3d77a22f	0.060457405
67	0xbbb5d648	-0.005549226
68	0xbd265c80	-0.04061556
69	0xbd11c291	-0.035585944
70	0x3d8496eb	0.06474098
71	0xbda7d7c8	-0.08195454
72	0xbd25137e	-0.040301792
73	0xbda5a0e3	-0.08087327
74	0xbda945de	-0.08265279
75	0x3d23264e	0.039831452
76	0xbd814593	-0.06312098
77	0x3b2cf040	0.0026388317
78	0x3d27457f	0.04083776
79	0xbd9bd903	-0.07609751
80	0x3d474e1e	0.048658483
81	0xbca37ad0	-0.019956023
82	0xbd9f1900	-0.0776844
83	0x3cfd0d11	0.03089002
84	0x3d943ea5	0.07238511
85	0xbcc0e01f	-0.02354437
86	0x3bce9f2c	0.006305596
87	0x3d3f5e2f	0.04672068
88	0xbd238e36	-0.039930545
89	0x3c7e4956	0.015520414
90	0x3c162d3c	0.009166058
91	0x3c65e479	0.014031523
92	0xba4aa10c	-0.00077296863
93	0xbd7eca61	-0.062204722
94	0xbd2de782	-0.04245711
95	0xbcbd77d2	-0.023128424
96	0xbd2fced0	-0.04292184
97	0xbd09fb67	-0.03368702
98	0x3b70f680	0.003676802
99	0x3a921609	0.0011145483
100	0x3bbfb7ab	0.0058507523
101	0xbd15b586	-0.036550067
102	0x3cca19e0	0.024670541
103	0xbd84de81	-0.06487752
104	0x3d3f7ea6	0.04675164
105	0x3c4d9e78	0.012549989
106	0x3d464b5a	0.048411705
107	0x3d238440	0.039921045
108	0x3bfbea56	0.007687847
109	0xbc517e62	-0.01278648
110	0x3be777eb	0.007063856
111	0x3ce3d6a7	0.027812315
112	0x3da767fe	0.08174132
113	0x3d1f61a5	0.03891148
114	0xbc00e50a	-0.007867107
115	0xbd644227	-0.05572715
116	0x3d0333e5	0.032031912
117	0x3d5c51db	0.053789
118	0x3d33c774	0.043891385
119	0xbb9558e9	-0.004557718
120	0x3da1502f	0.07876622
121	0x3d59bc43	0.053158056
122	0xbc073ede	-0.008254735
123	0x3d73b6c2	0.059500463
124	0x3d64cf01	0.055861477
125	0xbcb404e6	-0.021974992
126	0x3d1c049a	0.038090326
127	0x3d9575e6	0.07297878

net.4.weight f4 [15, 128]
0	0x3ddec72d	0.108778335
1	0x3d2ec6e8	0.04267016
2	0x3cdf54bf	0.02726209
3	0xbbca2795	-0.0061692693
4	0x3d3e7790	0.046500742
5	0xbd8c03ee	-0.06836687
6	0xbc81c4cc	-0.01584091
7	0x3db5e011	0.08880628
8	0x3d95abb8	0.073081434
9	0x3cb035f2	0.021510098
10	0xbd2ef714	-0.0427161
11	0x3dd88c90	0.10573685
12	0xbdc65a85	-0.09685234
13	0x3b9be9be	0.004758089
14	0xbca57d49	-0.020201342
15	0x3dd41eb3	0.10357418
16	0x3bb0c58e	0.005394644
17	0xbde74561	-0.1129253
18	0x3d410846	0.04712703
19	0xbcc18454	-0.02362267
20	0x3d984456	0.07434909
21	0x3dc46776	0.09590046
22	0x3d6dc559	0.058049534
23	0xbc02d1d5	-0.007984598
24	0x3d3bbcc0	0.045834303
25	0x3d8c4812	0.06849684
26	0x3e4cebf9	0.20011891
27	0xbd5bc048	-0.05365017
28	0x3d1279c6	0.035760663
29	0xbd03ded6	-0.032194935
30	0xbb8135ce	-0.0039431816
31	0xbd040034	-0.032226756
32	0xbdb4eb05	-0.08833889
33	0xbd7c9965	-0.061669726
34	0xbdfec593	-0.12440028
35	0x3dda7fe5	0.10668925
36	0x3d899260	0.06717372
37	0x3d09c845	0.033638258
38	0x39a2a68e	0.0003102314
39	0x3d99197b	0.07475563
40	0x3db49b3c	0.08818671
41	0x3d4e204c	0.05032377
42	0x3da8c166	0.08240013
43	0x3d734bd3	0.059398483
44	0x3d918f8d	0.07107458
45	0x3d26ef70	0.04075569
46	0xbdeef7c4	-0.11668351
47	0xbcea3068	-0.028587535
48	0x3cd2c81a	0.025730181
49	0x3dfecb5b	0.12441131
50	0x3b1c952e	0.002389263
51	0xbd7c0041	-0.06152368
52	0xbbee8ac5	-0.007279726
53	0x3dd1aed8	0.10238427
54	0xbdb00c8a	-0.08596142
55	0x3c83e014	0.01609806
56	0x3d82b056	0.0638129
57	0xbe0e4ccd	-0.13896485
58	0x3dbf2f9a	0.09335251
59	0xbd8e8d7d	-0.069605805
60	0x3d561ad8	0.052271694
61	0x3c221c64	0.009894464
62	0xbb804ac1	-0.0039151614
63	0xbcb26484	-0.021776445
64	0x3da71166	0.08157615
65	0x3dc23d43	0.09484341
66	0x3d87fd50	0.066401124
67	0x3d554175	0.052064378
68	0x3d146c8b	0.036236327
69	0x3c8d1d6d	0.017225945
70	0xbd08e242	-0.0334189
71	0x3d6ca375	0.057773072
72	0xbd5932c2	-0.053026922
73	0x3cfe00d3	0.031006252
74	0x3daab0b3	0.08334484
75	0x3d87a0fb	0.066225015
76	0xbd87e4a5	-0.06635407
77	0x3d197c67	0.037472155
78	0x3da79167	0.0818203
79	0x3bbe162e	0.005800984
80	0xbcbbac04	-0.022909172
81	0x3dbfdd06	0.09368329
82	0x3de0504a	0.10952814
83	0x3dc75902	0.09733774
84	0x3d72ec86	0.059307598
85	0x3df0b123	0.11752536
86	0x3d6f2cf9	0.0583925
87	0x3d0ef570	0.034902036
88	0x3df0ab79	0.11751456
89	0x3e2058d5	0.15658887
90	0x3cf45f15	0.029830495
91	0x3dc5c07f	0.09655856
92	0x3d54667f	0.05185556
93	0x3d942b99	0.07234878
94	0xbd16a8f7	-0.03678223
95	0x3d86d166	0.06582908
96	0xbd0f7b65	-0.035029788
97	0xbd5d258a	-0.05399088
98	0xbd45f026	-0.048324727
99	0x3e0ca9e8	0.13736689
100	0xbda5cc10	-0.080955625
101	0x3dc4ce9a	0.096097186
102	0x3dc16c5b	0.09444495
103	0xbd033270	-0.032030523
104	0x3dd40d28	0.10354072
105	0x3e036b5e	0.12833926
106	0x3dd6e53e	0.10492943
107	0x3d5ba545	0.05362441
108	0x3cb02d23	0.021505898
109	0xbd5a584a	-0.053306855
110	0x3c32e046	0.010917729
111	0x3d14e9a7	0.03635564
112	0x3dd64a22	0.104633585
113	0x3dc2b868	0.09507829
114	0x3d512ea5	0.051069874
115	0x3d7a27fa	0.06107328
116	0x3c19df2d	0.009391588
117	0x3d36737f	0.04454374
118	0x3e2734b9	0.16328706
119	0x3de30a70	0.11085975
120	0x3daa3998	0.083117664
121	0x3c1ee481	0.009698034
122	0xbb887e26	-0.0041654287
123	0xbd106f74	-0.03526254
124	0x3b6d18d4	0.0036178129
125	0x3d7bf125	0.06150927
126	0x3cf91a69	0.030408101
127	0x3db78119	0.0896017
128	0x3c98c3ea	0.018648107
129	0x3dfbd10d	0.12295733
130	0xbd1d6042	-0.038421877
131	0x3d045cb6	0.03231498
132	0x3dd7acad	0.10530982
133	0xbcc71e62	-0.02430648
134	0xbddd2882	-0.10798742
135	0x3d78f936	0.06078454
136	0x3dba0281	0.09082509
137	0x3dd7ed46	0.10543303
138	0xbdb2e5ec	-0.0873526
139	0xbd32dabb	-0.04366563
140	0x3d1186f0	0.035529077
141	0x3cf8616f	0.030319897
142	0x3de39011	0.11111463
143	0x3d54fe91	0.052000586
144	0x3e0174c8	0.12642205
145	0xbdd6ca36	-0.104877874
146	0xbcde585c	-0.027141742
147	0xbda05ef3	-0.0783061
148	0x3c3a8e06	0.0113864
149	0x3bb2c2fc	0.005455373
150	0x3b88f4ad	0.0041795583
151	0xbd25953c	-0.040425524
152	0xbd5b841d	-0.05359279
153	0xbc87d7a3	-0.016582316
154	0x3de1057f	0.109873764
155	0xbcef06b3	-0.029178
156	0x3d854c0c	0.065086454
157	0xbd807e21	-0.06274057
158	0x3d48db69	0.04903737
159	0xbcdc9a03	-0.026928907
160	0x3d6201b9	0.055177424
161	0xbd49da02	-0.049280174
162	0xbdf90eca	-0.12161024
163	0x3d808c05	0.062767066
164	0x3e0f7672	0.14010027
165	0xbdaf9164	-0.08572653
166	0xbda918dd	-0.082566954
167	0x3d8b161b	0.06791326
168	0xbc4a82b5	-0.012360265
169	0x3d69d225	0.057085175
170	0x3dcba617	0.099437885
171	0x3d64428f	0.055727538
172	0x3cb71370	0.022348136
173	0x3d7609e7	0.060068037
174	0xbccfb41b	-0.025354436
175	0x3da8d25d	0.082432486
176	0x3b89de05	0.004207375
177	0x3e4a1fd0	0.19738698
178	0x3db0e941	0.0863824
179	0xbbd46517	-0.0064817774
180	0x3c95843d	0.018251533
181	0x3da7072f	0.08155667
182	0x3c6659dc	0.01405951
183	0x3aa0bbe8	0.0012263032
184	0x3e0d7320	0.13813448
185	0x3c951cb1	0.018202158
186	0xbcf0a5c2	-0.029375914
187	0xbdaa50bf	-0.08316182
188	0x3ce04f05	0.02738143
189	0x3bc859c0	0.0061142147
190	0x3cb7008b	0.022339126
191	0x3bf82c38	0.0075736307
192	0x3da289af	0.07936417
193	0x3d82caf0	0.063863635
194	0x3d870ce5	0.06594256
195	0x3dd41eb5	0.103574194
196	0x3dfc5000	0.12319946
197	0xbe1a29e5	-0.15055044
198	0x3c2de20e	0.010612978
199	0xbdb7b570	-0.08970153
200	0xbe073d48	-0.1320697
201	0x3e07e292	0.13270023
202	0x3d86ae06	0.06576161
203	0xbdf1c834	-0.11805764
204	0xbd0a5b26	-0.033778332
205	0x3e2a72f7	0.16645418
206	0x3e0b11af	0.13580965
207	0x3d920821	0.07130457
208	0x3da9d44a	0.08292444
209	0xbd1aa088	-0.03775075
210	0x3bfbab85	0.007680359
211	0x3db6a7bf	0.08918714
212	0xbcf5cff0	-0.030006379
213	0x3dd1d791	0.10246194
214	0xbd99be3a	-0.07506986
215	0xbc884008	-0.016632095
216	0x3d93cf3a	0.0721726
217	0x3dbd5fe4	0.09246805
218	0x3c9497c4	0.018138774
219	0xbb07d32a	-0.0020725229
220	0x3dc342d9	0.095342346
221	0x3e487a65	0.1957794
222	0x3b33613b	0.0027371186
223	0x3dcd07a2	0.100112215
224	0xbdee131e	-0.1162474
225	0xbd3f771b	-0.046744447
226	0x3d62d83c	0.055382
227	0x3e145628	0.14485991
228	0x3b13775e	0.0022501568
229	0x3d747306	0.059680007
230	0x3b698ea5	0.0035638001
231	0xbd88faf2	-0.06688489
232	0x3dc90e0e	0.09817134
233	0x3d5b8cb1	0.05360097
234	0x3c5ed774	0.013601173
235	0x3e148ccd	0.14506836
236	0xbc2d58dd	-0.010580269
237	0x3d4abfaf	0.04949921
238	0xbd4bde79	-0.049772713
239	0xbad00407	-0.0015870341
240	0x3db72058	0.08941716
241	0x3d64302b	0.05571
242	0x3e2b7801	0.16744997
243	0x3d236ad2	0.039896794
244	0x3d922fdf	0.07138037
245	0x3d4817a4	0.04885067
246	0x3d15a17e	0.036530964
247	0xbd07f0ca	-0.03318862
248	0x3d90c906	0.07069592
249	0xbd1000df	-0.03515708
250	0xbda2f4ec	-0.079568714
251	0x3d0d0141	0.034425024
252	0xbdf57ee6	-0.119870946
253	0x3d90c322	0.07068469
254	0x3d02f85e	0.031975143
255	0xbc717e8a	-0.014739642

net.4.bias f4 [15]
0	0xbd5ddd21	-0.054165963
1	0x3da27314	0.07932106
2	0xbca8335d	-0.020532304
3	0xbd069608	-0.032857925
4	0x3c0686eb	0.008210878
5	0x3d006e44	0.031355157
6	0x3d777467	0.060413744
7	0xbd4ef41d	-0.050525773
8	0x3d61ab1b	0.05509482
9	0x3d98726c	0.07443699
10	0x3cb1b151	0.021690996
11	0x3d8a52be	0.06754063
12	0x3cb9760b	0.022639295
13	0x3d4712a4	0.04860176
14	0x3c98157d	0.018564934

net.0.weight f4 [128, 77]
0	0x3fa267fd	1.2687985
1	0x3d807b49	0.06273515
2	0xbdcb68c1	-0.099320896
3	0xbda1d71c	-0.07902357
4	0xbd432b7c	-0.04764889
5	0x3cae98d7	0.021313114
6	0x3bab3acd	0.0052255155
7	0x3d9d0d2f	0.0766853
8	0xbcd06114	-0.025436915
9	0x3dd6b208	0.104831755
10	0x3c201069	0.0097695375
11	0xbd38014f	-0.044923123
12	0xbdc46d06	-0.09591107
13	0xbdcb532d	-0.09927974
14	0xbcb66296	-0.022263806
15	0x3c0ddb9b	0.008658315
16	0x3d2f6a10	0.04282576
17	0x3d8ccd44	0.06875089
18	0xbd9ebe75	-0.077511705
19	0xbd44b4a7	-0.048023846
20	0x3d301aab	0.042994183
21	0x3da234fb	0.079202615
22	0xbc8cb327	-0.01717527
23	0x3da1f850	0.0790869
24	0xbd47319e	-0.048631303
25	0x3d402f0d	0.04691987
26	0x3dd04ecd	0.1017128
27	0xbe08d43d	-0.13362212
28	0xbcbd65a5	-0.023119757
29	0xbc37d67c	-0.011220571
30	0xbda0b54f	-0.07847082
31	0x3d28769d	0.041128743
32	0xbdaf0b66	-0.08547096
33	0xbd4abb5c	-0.049495086
34	0xbd9c71f4	-0.07638922
35	0xbdcdf53c	-0.1005654
36	0xbd74e90c	-0.059792563
37	0x3dc71756	0.09721248
38	0x3d56d903	0.052453052
39	0x3d68cc27	0.05683532
40	0x3bf8887b	0.007584629
41	0xbd0863cf	-0.03329831
42	0x3c0f9034	0.008762408
43	0xbdf17f4f	-0.1179186
44	0xbd2cce67	-0.042189028
45	0xbd2e724f	-0.042589482
46	0x3cd2eb04	0.02574683
47	0x3d8944e7	0.06702595
48	0xbc1bcc33	-0.009509134
49	0xbd971be4	-0.073783666
50	0x3d490d85	0.04908516
51	0x3dcdc493	0.10047259
52	0xbcb48a58	-0.022038624
53	0x3ca91d7d	0.020643944
54	0x3da0e797	0.07856672
55	0xbd81d10d	-0.063387014
56	0x3cc01011	0.023445161
57	0xbdb1ab7c	-0.08675286
58	0xbd9e7b06	-0.077383086
59	0xbd66efcc	-0.056381032
60	0x3dc24286	0.094853446
61	0x3d5087de	0.050910823
62	0xbdf32806	-0.11872868
63	0x3d22ffe4	0.039794818
64	0x3db35ca3	0.087579034
65	0xbd8aecb6	-0.0678343
66	0x3dfdf195	0.12399594
67	0x3ba06edb	0.0048960275
68	0xbd25728f	-0.040392455
69	0x3dd7b1ab	0.10531934
70	0xbd836da6	-0.06417398
71	0xbda5347b	-0.080666505
72	0x3d2cac12	0.042156287
73	0x3dd2c446	0.102913424
74	0x3dc6212a	0.09674294
75	0x3dcf7710	0.10130131
76	0x3cc6e9da	0.024281431
77	0x3f2ddd82	0.6791612
78	0x3c3b1188	0.011417754
79	0xbd7ee342	-0.06222845
80	0xbc915f01	-0.017745497
81	0x3ddb5197	0.107089214
82	0x3da1c9c3	0.07899811
83	0xbe00520a	-0.12531295
84	0x3c3b743e	0.0114412885
85	0xbd143ac5	-0.03618886
86	0xbc8d794e	-0.017269757
87	0xbca096c5	-0.019603143
88	0x3dbaed6f	0.09127318
89	0xbd7e8c59	-0.062145565
90	0x3d2e7b2f	0.042597946
91	0x3d7480b0	0.05969304
92	0x3daab57d	0.083353974
93	0x3d1f06af	0.038824733
94	0xbdf60675	-0.1201295
95	0xbd957dc9	-0.07299382
96	0x3d6ce5c3	0.057836305
97	0x3ccb0c9e	0.02478629
98	0xbdc88a02	-0.09791948
99	0xbc0d179b	-0.008611585
100	0x3df9be09	0.121944495
101	0x3d996c18	0.0749132
102	0xbe234d92	-0.1594756
103	0xbcfa79f4	-0.03057573
104	0xbe055b60	-0.13023138
105	0xbc958ac2	-0.018254641
106	0xbd8e2468	-0.06940538
107	0xbe00b93f	-0.12570666
108	0xbb181632	-0.0023206589
109	0x3b116bd4	0.0022189515
110	0xbc44b434	-0.012005854
111	0x3d933c93	0.07189288
112	0xbdabef80	-0.083952904
113	0x3db5a12f	0.08868634
114	0x3d95b5e7	0.07310086
115	0xbdc2e69d	-0.09516642
116	0xbce0b26e	-0.027428832
117	0xbcbde878	-0.023182139
118	0x3d4e1fa5	0.050323147
119	0x3c799511	0.015233294
120	0x3d4b4055	0.0496219
121	0xbcbdfb9f	-0.023191271
122	0xbd8fee83	-0.070279144
123	0x3d155e4b	0.036466878
124	0xbe0a1615	-0.13484986
125	0xbd2b87c4	-0.041877523
126	0xbce2f3f9	-0.027704226
127	0xbd1830e4	-0.037156
128	0xbd03dfc3	-0.032195818
129	0xbcbf2d7d	-0.02333712
130	0xbc71d3d5	-0.014759977
131	0x3c12d591	0.008962051
132	0xbdb4f420	-0.08835626
133	0xbb1f5292	-0.002431069
134	0x3da8fcc5	0.08251337
135	0xbc30a2c6	-0.010780996
136	0x39c3b3c5	0.00037327237
137	0xbc56b58a	-0.013104806
138	0x3d4dbd47	0.050229337
139	0x3d7b47aa	0.06134764
140	0x3e16d8a4	0.1473108
141	0x3dce6bd4	0.1007916
142	0x3dbf2b60	0.09334445
143	0xbb9a982e	-0.0047178483
144	0xbd8a3f4e	-0.06750356
145	0xbd81c66d	-0.06336675
146	0x3d8cdd4e	0.06878148
147	0xbbc77956	-0.0060874624
148	0xbd577814	-0.05260475
149	0xbd98e577	-0.07465642
150	0xbdef2768	-0.11677438
151	0xbde8a2e9	-0.11359198
152	0xbce73738	-0.028224573
153	0x3d81e81e	0.06343101
154	0x3ff40e1f	1.906681
155	0xbdc433fe	-0.09580229
156	0x3d9da5ce	0.0769764
157	0xbd5cfae9	-0.053950224
158	0x3b8f3b50	0.0043710843
159	0xbd0eb1f8	-0.034837693
160	0x3ce55dd3	0.02799884
161	0xbbf87c98	-0.007583212
162	0xbdb2c52c	-0.08729014
163	0xbd8f1552	-0.069864884
164	0xbc9650bf	-0.01834905
165	0x3d531d79	0.05154178
166	0xbd56e516	-0.052464567
167	0x3d073c61	0.033016566
168	0xbdb1b092	-0.08676256
169	0x3be1124b	0.006868636
170	0x3ddbc0bf	0.10730123
171	0xbd198a1e	-0.037485234
172	0x3deb04e7	0.114755444
173	0x3d62d233	0.055376243
174	0xbdb5bd58	-0.08874005
175	0x3d94574f	0.07243215
176	0xbb38b551	-0.0028184245
177	0xbd1a6332	-0.037692256
178	0x3dbcd7b9	0.09220833
179	0xbd6d79c8	-0.057977468
180	0x3ccf533d	0.025308246
181	0xbcc8fe04	-0.024535187
182	0x3db6f1fc	0.089328736
183	0x3d3308df	0.043709632
184	0x3dd5384c	0.104111284
185	0x3cfd6103	0.030930048
186	0xbca6855e	-0.020327266
187	0xbc0c6828	-0.008569755
188	0xbdc9589d	-0.09831355
189	0x3d9b11e1	0.075717695
190	0x3dd3a702	0.103345886
191	0x3db9c4fc	0.09070775
192	0xbd87be04	-0.066280395
193	0x3c9d2fdb	0.019187858
194	0xbd984b81	-0.07436276
195	0xbcc85ab5	-0.024457315
196	0xbd4d6089	-0.05014089
197	0x3d42b592	0.04753644
198	0xbcd323e5	-0.025773952
199	0xbba8c33f	-0.0051502283
200	0xbc65f173	-0.014034617
201	0x3d51e60a	0.051244773
202	0xbd4f0ac4	-0.050547376
203	0x3c4fbebf	0.012679755
204	0xbd80f7df	-0.06297278
205	0x3d87e5c5	0.06635622
206	0xbd19827a	-0.037477948
207	0x3df4f3df	0.11960577
208	0x3d29d27f	0.04146051
209	0x3cea532f	0.028604118
210	0x3c5a6d98	0.013331793
211	0xbc09ff99	-0.008422756
212	0x3ce8ae95	0.02840356
213	0x3c09635a	0.008385504
214	0xbc31ae53	-0.010844785
215	0x3ce91512	0.02845243
216	0xbd8a832e	-0.06763302
217	0xbc72a1d1	-0.014809088
218	0x3dfdc99f	0.12391972
219	0xbdfd2514	-0.12360588
220	0xbda6a30c	-0.081365675
221	0x3deaf93d	0.1147332
222	0x3e07750c	0.13228244
223	0xbc5b390a	-0.013380298
224	0xbe00cd44	-0.12578303
225	0x3da7e936	0.08198778
226	0xbe0247e6	-0.1272274
227	0xbd38a2b2	-0.045077033
228	0xbd0949bf	-0.033517595
229	0xb8aeb731	-8.3310886e-05
230	0x3c7b8605	0.015351777
231	0x3efdd955	0.49579874
232	0x3c1e2198	0.009651564
233	0x3dbba5d4	0.091624886
234	0x3dddc143	0.10827877
235	0xbda68b24	-0.08132008
236	0x3c9f91b0	0.019478649
237	0xbd8fbae8	-0.070180714
238	0xbd3a27a4	-0.04544796
239	0x3d1969f1	0.03745455
240	0x3d105993	0.035241675
241	0x3db16cef	0.086633556
242	0xbd804065	-0.06262282
243	0xb967614f	-0.00022066127
244	0x3db5e3cd	0.0888134
245	0xbdad25f0	-0.08454502
246	0x3d9297dd	0.07157872
247	0xbdcf8408	-0.10132605
248	0x3ba4ec58	0.005033057
249	0xbca65af9	-0.020307051
250	0xbd844a7f	-0.064595215
251	0x3c2bd20e	0.010487093
252	0x3d7f1cbd	0.062283266
253	0xbba52779	-0.005040106
254	0xbd897d61	-0.06713367
255	0xbd85645f	-0.06513285

net.0.bias f4 [128]
0	0xbcb5f44e	-0.02221122
1	0xbd3a062b	-0.04541604
2	0xbd8335be	-0.06406735
3	0x3d003a65	0.03130569
4	0xbd42b8e8	-0.04753962
5	0xbd6cfc9a	-0.057858087
6	0x3d28bc45	0.041195173
7	0xbd160b5f	-0.036631938
8	0x3c9f7d9c	0.019469075
9	0xbc42055a	-0.011842096
10	0x3d516d43	0.05112959
11	0x3d90afbd	0.070647694
12	0xbdcd1e75	-0.10015575
13	0xbd4f2008	-0.050567657
14	0x3e000e00	0.1250534
15	0x3c253bd4	0.010085065
16	0xbc6738e2	-0.014112683
17	0x3db770df	0.08957075
18	0x3e0366f2	0.1283224
19	0x3d1708df	0.036873695
20	0xbd9bfb22	-0.07616259
21	0x3df09c96	0.117486164
22	0xbdd54956	-0.10414378
23	0xbdccf80f	-0.10008251
24	0x3cb6c2db	0.022309711
25	0xbcf73a3b	-0.030179134
26	0xbde44198	-0.111453235
27	0x3db98840	0.09059191
28	0x3cc285d1	0.02374545
29	0xbd8864ff	-0.066598885
30	0x3d2c1d92	0.042020388
31	0x3dbe7aa6	0.09300737
32	0x3b559ad4	0.0032593505
33	0x3daaf879	0.08348174
34	0x3d7ce2bb	0.061739665
35	0x3d2d9eea	0.04238788
36	0xbd607556	-0.0547994
37	0xbda574c9	-0.080789156
38	0xbb88875b	-0.0041665263
39	0xbd018dca	-0.03162936
40	0xbde18c4e	-0.11013089
41	0xbdd04647	-0.10169654
42	0xbd7110ad	-0.058853794
43	0x3ca48d6b	0.020086965
44	0xbd099ad3	-0.033594918
45	0xbdc41771	-0.095747836
46	0xbc650751	-0.013978795
47	0xbcec113b	-0.02881681
48	0xbd07206e	-0.03298991
49	0x3d933122	0.07187106
50	0x3d39e2df	0.045382377
51	0x3d9b1600	0.075725555
52	0x3def2db9	0.11678643
53	0x3c25232c	0.010079186
54	0xbd594b44	-0.053050295
55	0xbc495924	-0.012289319
56	0x3d0bc20e	0.03412061
57	0xbd1c0a88	-0.03809598
58	0x3da837f7	0.082137994
59	0x3d55dd67	0.0522131
60	0xbd92bcce	-0.07164918
61	0x3cc1dfaf	0.023666231
62	0x3bc1acb5	0.005910481
63	0x3d5d735f	0.054065105
64	0xbd641461	-0.055683497
65	0x3dd9faf3	0.10643568
66	0xbd0af513	-0.033925127
67	0x3d4542d0	0.04815942
68	0xbd795f52	-0.06088192
69	0x3d3ea251	0.046541516
70	0xbcedd9da	-0.029034544
71	0xbd304211	-0.043031756
72	0xbdb56f44	-0.08859113
73	0x3d34273a	0.043982722
74	0x3d081df8	0.033231705
75	0x3cf2def0	0.02964732
76	0xbd783270	-0.060594976
77	0x3cb14d5a	0.02164333
78	0xbd778c1b	-0.06043635
79	0x3d0d2f43	0.0344689
80	0x3deb197a	0.11479469
81	0xbdbcfc2a	-0.09227784
82	0x3d28eb53	0.041240048
83	0xbd8bdfbc	-0.06829783
84	0x3d22cc5e	0.03974568
85	0xbccbac70	-0.024862498
86	0x3d027ea2	0.031859048
87	0xbda12017	-0.07867449
88	0x3da7dd94	0.081965595
89	0x3d91a7b1	0.07112063
90	0xbd9fdf24	-0.078062326
91	0xbda0496a	-0.078265026
92	0x3d960973	0.07326021
93	0xbd9a10e1	-0.07522751
94	0x3d2d226c	0.042269155
95	0xbd2cea73	-0.042215776
96	0xbdc25d29	-0.09490425
97	0x3d11f279	0.03563163
98	0xbd18c915	-0.03730114
99	0xbd4e4e88	-0.050367862
100	0x3d4bd5b2	0.049764343
101	0x3d4705bf	0.048589464
102	0x3daf83c9	0.08570058
103	0x3de3b960	0.11119342
104	0x3d1b9f1e	0.037993543
105	0xbc3cd040	-0.01152426
106	0xbbc048c9	-0.0058680517
107	0x3da8b30b	0.08237275
108	0xbdb73530	-0.089456916
109	0x3dc06287	0.093937926
110	0x3d31f2a3	0.043444287
111	0x3d2c2bb7	0.042033877
112	0x3cd1aa67	0.02559395
113	0xbdbdd13c	-0.09268424
114	0x3d100b6a	0.035167135
115	0xbb601eb4	-0.0034197988
116	0x3be1ce66	0.0068910597
117	0xbd3b9e42	-0.045805223
118	0x3daf8b65	0.08571509
119	0xbb3b6c89	-0.0028598628
120	0xbb326bd2	-0.002722491
121	0xbdb9bb1d	-0.09068892
122	0x3dcb3d96	0.09923856
123	0xbdd35f17	-0.10320871
124	0x3d9e470f	0.07728397
125	0x3d43f7f0	0.047843874
126	0x3cb83cf2	0.022489998
127	0xbde1f77e	-0.110335335

net.2.weight f4 [128, 128]
0	0xbcf96ce2	-0.030447427
1	0xbd9acef5	-0.07559005
2	0xbc7aa8be	-0.01529902
3	0x3d8b9fcd	0.06817589
4	0xbb01d794	-0.0019812332
5	0xbc0b9c88	-0.008521207
6	0x3d697359	0.05699477
7	0x3d7324e9	0.059361372
8	0xbd79d40a	-0.06099323
9	0x3da5bb33	0.08092346
10	0x3b8b6263	0.004253672
11	0x3d89bf62	0.067259565
12	0xbd9de019	-0.07708759
13	0xbda53a69	-0.080677815
14	0xbd3725be	-0.044713728
15	0x3dfdf1ae	0.12399612
16	0x3d6f5c5c	0.05843769
17	0xbca7e486	-0.02049471
18	0x3cb13229	0.021630364
19	0xbb3e8d54	-0.0029075937
20	0x3c493738	0.012281232
21	0x3ba0a877	0.004902895
22	0x3c3c1c30	0.01148133
23	0x3dcd17bb	0.10014292
24	0x3d2c6e0c	0.042097136
25	0x3e043588	0.12911046
26	0xbd166cd4	-0.03672488
27	0xbd985faa	-0.074401215
28	0x3ba7b16b	0.0051175854
29	0xbade421d	-0.0016956959
30	0x3d8433dc	0.06455204
31	0x3d9648bc	0.07338092
32	0xbd89ce57	-0.06728809
33	0x3d93f3d0	0.07224238
34	0x3dceecd4	0.10103765
35	0x3d994c36	0.07485239
36	0x3d0f30ee	0.034958772
37	0xbd198f8d	-0.037490416
38	0xbcef0a7d	-0.029179806
39	0xbbff1a70	-0.007785134
40	0xbcbd4c7c	-0.02310776
41	0xbd28a701	-0.041174892
42	0x3da5e64f	0.081005685
43	0x3d5016fb	0.050803166
44	0x3d1b9c4a	0.037990846
45	0x3c0c2830	0.008554503
46	0x3c86d7a4	0.016460247
47	0xbbb9f0b4	-0.005674446
48	0xbd9ee9ab	-0.077594124
49	0x3c19a2dd	0.009377209
50	0xbc613604	-0.0137457885
51	0xbb5516cc	-0.0032514809
52	0x3c897d68	0.016783431
53	0x3c6df075	0.014522661
54	0xbd74c0d9	-0.059754226
55	0xbd8fea93	-0.07027163
56	0xbd111723	-0.035422456
57	0x3b264919	0.002537316
58	0xbd18b057	-0.037277546
59	0x3d93fceb	0.07225975
60	0xbd34cf40	-0.04414296
61	0x3dc626bd	0.096753575
62	0xbd81653c	-0.06318137
63	0x3c038f05	0.008029704
64	0xbcb606ba	-0.022220004
65	0xbccdff7d	-0.02514624
66	0xbc52dd14	-0.012870092
67	0xbdcbc9f0	-0.09950626
68	0x3d2f7715	0.042838175
69	0x3da0a22b	0.07843431
70	0xbd83e8d7	-0.06440895
71	0xbc9c9f33	-0.01911888
72	0xbda3807b	-0.0798349
73	0x3d6f79bc	0.058465704
74	0xbd3be5b1	-0.045873348
75	0x3dc80b06	0.097677276
76	0x3c8ce17b	0.017197361
77	0x3d15de0e	0.03658872
78	0x3de943b1	0.11389864
79	0xbd983e34	-0.07433739
80	0xbcb9a61e	-0.022662219
81	0x3c149022	0.009067567
82	0xbda30dbe	-0.079616055
83	0x3c9fe3b3	0.019517755
84	0xbcc27f92	-0.02374247
85	0xbda9cc84	-0.082909614
86	0xbcd714d9	-0.026255058
87	0xbd47f77d	-0.048820008
88	0x3d26365d	0.04057919
89	0x3dc72632	0.09724082
90	0x3df44013	0.11926284
91	0xbd9bc308	-0.07605559
92	0x3d80b24f	0.0628401
93	0xbb2d06a2	-0.0026401659
94	0x3d611df6	0.054960214
95	0x3d097b83	0.033565056
96	0xbd4c371e	-0.04985725
97	0xbd8f4d76	-0.069971964
98	0xbd1b8bad	-0.037975002
99	0x3c0c116e	0.008549077
100	0x3c6bf109	0.014400729
101	0xbcea824a	-0.02862658
102	0x3c573c13	0.013136881
103	0xbcbe078b	-0.023196956
104	0x3dbf27d3	0.09333768
105	0xbdf70276	-0.12061016
106	0xbce6ba1f	-0.028164921
107	0x3d3530cb	0.044235986
108	0xbd832001	-0.06402589
109	0x3d8f0bd8	0.06984681
110	0xbde5c903	-0.112199806
111	0xbb86f35d	-0.0041183666
112	0xbc94a14e	-0.018143322
113	0x3b1055f1	0.0022023881
114	0xbd231fcb	-0.039825242
115	0x3d52d7f3	0.051475476
116	0xbd52102a	-0.051284947
117	0xbd1d7d06	-0.03844931
118	0xbd158751	-0.036506
119	0xbd912d5e	-0.07088731
120	0xbdb5eaef	-0.08882701
121	0x3d8edb7d	0.06975458
122	0x3e002e4f	0.12517665
123	0xbc157619	-0.009122395
124	0xbc102a61	-0.008799166
125	0x3d427628	0.047475964
126	0x3d00bc91	0.03142983
127	0xbda27527	-0.07932501
128	0x3b82c83f	0.0039911564
129	0x3de71b6f	0.112845294
130	0x3da7b514	0.08188835
131	0xbcf955f6	-0.030436497
132	0x3c5399af	0.012915059
133	0xbbfe9a72	-0.007769876
134	0xbdf24ff9	-0.1183166
135	0xbd0cf55b	-0.034413677
136	0x3dff007c	0.12451264
137	0x3d8e78e1	0.069566496
138	0x3d315ec7	0.043303277
139	0xbd5a9dd2	-0.053373165
140	0xbbc73f70	-0.0060805604
141	0x3dd341c9	0.10315282
142	0xbd3ac16a	-0.04559461
143	0xbbb3b602	-0.0054843435
144	0xbd9b4f0a	-0.07583435
145	0xbd7f7dae	-0.062375717
146	0xbc221382	-0.009892346
147	0xbd256e73	-0.040388536
148	0xbdeabd26	-0.114618585
149	0x3dfcf946	0.12352233
150	0x3e0291e2	0.12750962
151	0xbde8e169	-0.113711186
152	0xbd41efdc	-0.04734789
153	0x3db4f03f	0.08834886
154	0x3d9039a2	0.070422426
155	0xbd8ec230	-0.06970632
156	0xbce7702a	-0.028251726
157	0x3d905631	0.0704769
158	0xbd083470	-0.033253133
159	0xbd3f450b	-0.046696704
160	0xbc63cc21	-0.013903649
161	0x3c5f4986	0.013628369
162	0x3ac6db7f	0.0015171616
163	0x3db863d2	0.09003414
164	0x3da9bb08	0.082876265
165	0xbccffffe	-0.025390621
166	0xbcdc8069	-0.0269167
167	0x3d1a3c7d	0.037655342
168	0x3cd7ebfd	0.026357645
169	0xbcccdb74	-0.025006987
170	0xbda0c218	-0.078495204
171	0x3d943afe	0.07237814
172	0xbb6158c1	-0.0034385177
173	0xbd34d5e2	-0.044149287
174	0x3d92b98e	0.07164298
175	0x3d17418c	0.036927745
176	0x3d951d1f	0.07280945
177	0x3d442480	0.04788637
178	0x3de4a841	0.111649044
179	0x3dab3f74	0.08361712
180	0x3d71324b	0.058885854
181	0x3d81535e	0.06314729
182	0xbd8d7580	-0.06907177
183	0x3deb3159	0.11484022
184	0x3b57130e	0.0032817754
185	0x3de1b7be	0.11021374
186	0xbd045e05	-0.032316227
187	0xbd814b28	-0.06313163
188	0x3d8c44ec	0.06849083
189	0xbdddb91e	-0.10826324
190	0x3cbabc64	0.02279491
191	0x3e3edc62	0.18638757
192	0x3d52da9f	0.051478025
193	0xbda680fb	-0.0813007
194	0xbd05d48e	-0.03267341
195	0xbc8d27a6	-0.01723082
196	0xbd8a4484	-0.067513496
197	0x3d079cfe	0.033108704
198	0x3da18340	0.07886362
199	0x3db1d201	0.08682633
200	0x3dc10b5a	0.09425993
201	0x3daed895	0.085374035
202	0xbd4830fc	-0.04887484
203	0x3dbffc01	0.09374238
204	0x3cc89934	0.024487115
205	0x3da7a235	0.081852354
206	0x3c40383b	0.011732156
207	0xbd3816a1	-0.044943456
208	0x3db2f9fa	0.087390855
209	0x3e1c1b10	0.15244699
210	0x3d834ce4	0.0641115
211	0xbd595f5e	-0.053069465
212	0x3a19d09e	0.0005867573
213	0x3d95021f	0.07275795
214	0xbcc2e36f	-0.02379009
215	0x3d707bd1	0.05871183
216	0x3c16e86d	0.009210688
217	0x3d66d4fc	0.05635546
218	0xbc301865	-0.010748004
219	0x3da50ec3	0.08059456
220	0x3c8e5a75	0.017377118
221	0x3c012338	0.007881932
222	0x3d9a2f76	0.07528584
223	0x3d91e5bd	0.07123897
224	0x3d79f8dc	0.061028346
225	0xbd97cdee	-0.07412325
226	0xbc0694f1	-0.008214221
227	0x3dbf410c	0.093385786
228	0x3dbedeeb	0.09319862
229	0xbe1594b1	-0.14607503
230	0xbda6be05	-0.08141712
231	0x3d87c29d	0.066289164
232	0xbd80d916	-0.06291406
233	0xbd68edfb	-0.05686758
234	0xbd650b3e	-0.055918925
235	0xbcee680a	-0.029102344
236	0xbd6052d9	-0.05476651
237	0x3e06cc10	0.13163781
238	0xbd81ffdc	-0.063476294
239	0x3d1ccdf1	0.03828234
240	0xbd508b3e	-0.05091404
241	0xba8fd298	-0.0010972796
242	0xbcd9bf88	-0.026580587
243	0x3c8f0fec	0.017463647
244	0xbd223b4b	-0.039607327
245	0xbd4982fb	-0.04919718
246	0xbc169112	-0.009189861
247	0x3c5909ca	0.013246963
248	0x3ca7030c	0.020387195
249	0x3dbbb311	0.091650136
250	0x3d5883e2	0.05286015
251	0x3d341436	0.043964587
252	0xbda53f60	-0.080687284
253	0x3c82224f	0.0158855
254	0x3d06735a	0.03282485
255	0x3da229bd	0.07918117

net.2.bias f4 [128]
0	0xbcb3f7bf	-0.02196872
1	0xbd7cd2b7	-0.06172439
2	0x3d8842a7	0.06653338
3	0x3d87b399	0.066260524
4	0x3c4d5cb0	0.012534305
5	0xbd35b2c7	-0.04435995
6	0x3d1d1fb3	0.03836031
7	0xbd66ab14	-0.056315497
8	0xbdaca71f	-0.08430313
9	0x3d93a374	0.072089106
10	0x3d832032	0.06402625
11	0xbd0ec6ac	-0.034857437
12	0x3da2d84b	0.07951411
13	0xbb832bf2	-0.0040030414
14	0x3cc69a26	0.024243426
15	0xbbffd251	-0.007807054
16	0x3d7bd34f	0.061480816
17	0x3da0c38c	0.078497976
18	0xbb824d8e	-0.0039765304
19	0x3d74c807	0.059761073
20	0x3d049fde	0.032379024
21	0x3d155d01	0.03646565
22	0xbc9962ea	-0.018723924
23	0xbd70968b	-0.05873732
24	0x3d945d4e	0.07244359
25	0x3d3df98d	0.04638057
26	0xbda7e6a9	-0.08198292
27	0x3c69ae6b	0.014262776
28	0x3d9d419f	0.07678532
29	0x3d4b25e6	0.04959669
30	0x3d669db0	0.056302726
31	0x3d7ac130	0.061219394
32	0xbd9bd162	-0.07608296
33	0xbd70fb05	-0.05883314
34	0x3dc17ed9	0.094480224
35	0x3c15d94a	0.009146044
36	0xbd22ba53	-0.039728474
37	0x3da7cc12	0.0819322
38	0xbbdbf2b3	-0.0067122816
39	0x3d49449c	0.049137697
40	0xbc5571c5	-0.013027613
41	0x3d492be0	0.049114108
42	0x3c8952ba	0.01676308
43	0xbdb33cf4	-0.0875186
44	0x3cf40448	0.029787198
45	0xbce96069	-0.028488355
46	0x3d5fce23	0.054639947
47	0x3ca950e5	0.020668456
48	0x3d4baa36	0.049722873
49	0xbd41d872	-0.04732556
50	0x3d5ead7d	0.05436467
51	0x3d31ed9f	0.043439504
52	0xbd89e51b	-0.067331515
53	0x3da85185	0.082186736
54	0x3cade7fb	0.021228781
55	0x3da9b4a5	0.08286408
56	0xbd2af7b2	-0.041740127
57	0xbd862024	-0.06549099
58	0x3b7d2ba1	0.0038630741
59	0x3cc27ea3	0.023742026
60	0x3be733f4	0.007055754
61	0xbc44de82	-0.012015941
62	0xbd7e2d48	-0.062054902
63	0xbc2c7ca2	-0.010527762
64	0x3d70faf2	0.05883307
65	0xbd99bad1	-0.075063355
66	0x3d770578	0.06030795
67	0xbbb8f0b3	-0.005643928
68	0xbd267695	-0.040640432
69	0xbd0b1c25	-0.033962388
70	0x3d85a54b	0.06525668
71	0xbda7a8e8	-0.08186513
72	0xbd262c71	-0.040569726
73	0xbda5cf84	-0.08096221
74	0xbda945de	-0.08265279
75	0x3d25f573	0.04051728
76	0xbd814593	-0.06312098
77	0x3b414271	0.0029489065
78	0x3d27abb1	0.040935222
79	0xbd9acced	-0.07558618
80	0x3d460e91	0.048353735
81	0xbca76e41	-0.020438315
82	0xbd9f90ec	-0.077913135
83	0x3d00a7bc	0.031409964
84	0x3d94894b	0.07252749
85	0xbcc09537	-0.023508651
86	0x3ba95a74	0.0051682536
87	0x3d3dba36	0.046320163
88	0xbd207752	-0.039176293
89	0x3c8330e6	0.016014528
90	0x3c192482	0.009347083
91	0x3c6c8308	0.014435537
92	0xba93057f	-0.0011216848
93	0xbd7f7a9f	-0.0623728
94	0xbd2c17aa	-0.042014755
95	0xbcbbb1e2	-0.02291197
96	0xbd30d136	-0.04316827
97	0xbd109540	-0.035298586
98	0x3bab928e	0.0052359765
99	0x3addf57e	0.0016934124
100	0x3bbfb7ab	0.0058507523
101	0xbd15aed8	-0.036543697
102	0x3cceecc1	0.025259377
103	0xbd8659be	-0.06560086
104	0x3d3dbf71	0.04632515
105	0x3c4204ac	0.011841934
106	0x3d444e21	0.047926072
107	0x3d23d0f3	0.03999419
108	0x3bfcca2e	0.0077145314
109	0xbc50d187	-0.012745268
110	0x3bde292e	0.0067798113
111	0x3ce4328d	0.027856136
112	0x3da7743b	0.08176466
113	0x3d1d00dc	0.038330898
114	0xbc0532ea	-0.008129815
115	0xbd614eab	-0.055006664
116	0x3d038d9e	0.03211748
117	0x3d61434a	0.054995812
118	0x3d362178	0.044465512
119	0xbb8dd469	-0.0043283
120	0x3da1b028	0.07894927
121	0x3d59643b	0.053074103
122	0xbc1211c0	-0.008915365
123	0x3d7398a3	0.059471738
124	0x3d665e28	0.05624214
125	0xbcc01341	-0.023446681
126	0x3d1b152b	0.037861984
127	0x3d95ca18	0.07313937
