ddqn_out/dqn_ep1050.pt (torch, 464501 bytes, 24 tensors)

net.0.weight f4 [128, 77]
00000000: 5391 083f d7b4 6a3d 56a9 cbbd 3dad a2bd
00000010: 41a6 f8bc 0ed0 b33c f210 ef3b c90a a43d
00000020: c934 a3bc 5c8d b23d 20f2 d3bc c8b9 0abd
00000030: 2768 d3bd 0c5d cabd a6ae 0ebd e200 6abb
00000040: ba43 313d 2e4d 833d 7268 a7bd 6bf6 5abd
00000050: e7d8 193d 7d68 b63d b165 1abd 8141 c93d
00000060: 4089 1cbd c76f 273d dfca ac3d c452 efbd
00000070: d750 98bc af4a ecbc 50e6 b8bd 8e5d 9d3d
00000080: 212d b2bd 9ef1 63bd b9e9 b5bd 0492 d5bd
00000090: d2c6 97bd b996 bf3d 3f97 403d 638a 523d
000000a0: e392 f63b 9374 efbc 2a2e b63c 2241 f6bd
000000b0: 8fa3 40bd 6a40 88bd 0552 533d 450b db3d
000000c0: f928 28bc b0bb 87bd 2681 923d 7658 c63d
000000d0: 8be3 78bb e778 8c3c 885d 953d fd24 98bd
000000e0: 6564 833c 22cc bcbd ac9b a9bd 652b 64bd
000000f0: 7c0c e13d 04b7 7d3d 374d dbbd 416a 523d
00000100: 2ae2 8f3d d079 fbbc 721e 013e 04e5 0e3d
00000110: f8cf 7a3b f5f4 dc3d 23b5 b4bd 1ea5 babd
00000120: 9ea9 1c3d 3b3d c03d 119d c13d c62b c63d
00000130: ca66 9a3c 2fb5 473e 75d4 3f3c 54a4 b6bd
00000140: 825e 48bd 0d82 d73d 5cbf b33d fd61 0cbe
00000150: 8256 8b3c 6543 08bd c586 023c b367 71bc
00000160: ad09 8a3d 2661 7fbd f8b6 203d 150b 883d
00000170: 0e36 ac3d b450 203d 3fb6 03be af8f 8bbd
00000180: 8416 6e3d 156e cd3c ebe8 eabd ae6e 2ebc
00000190: 73fb c93d 130e a03d dd6a f6bd ae76 f8bc
000001a0: b89a fcbd c61f 6fb9 13ee 8bbd 1f8e d4bd
000001b0: 1217 f7bb 0ca5 943c 9411 8ebc 1235 8b3d
000001c0: 3061 a1bd 28bc b83d 7f30 a23d 444e c2bd
000001d0: f750 debc b520 bcbb 5eb6 5f3d 94d5 4c3c
000001e0: 51eb 3b3d 133e 8cbb 52cd 4ebd 58fd 233d
000001f0: a6e2 03be b316 37bd 7c90 f3bc 9e09 5abd
00000200: e9e6 21bd 4632 38bd e260 93bc aadb eb3b
00000210: bc17 b8bd 96ab a2bb 1e95 a93d d3df 2bbc
00000220: 7dab 363c d2b3 3fbc 5656 533c d336 893d
00000230: 1b89 0a3e 538a dd3d f027 d03d d2cc ad3c
00000240: 8971 a3bd 4639 2abd 2d1f 823d 0e29 cabb
00000250: dd11 7fbd 05e6 a6bd 023e 04be 4517 e7bd
00000260: 5a39 c0bc 7880 823d ad26 763f 11f6 cbbd
00000270: 83b7 a03d bd67 83bd a744 e6bb 7554 18bd
00000280: 6371 783c d742 10bc ff86 c3bd 9f5f acbd
00000290: fb57 a4bc 198d 1a3d 0910 34bd ae45 a23c
000002a0: 9cbf ccbd e4e7 ba3a 76b9 df3d 698f 1dbd
000002b0: c52d e73d fb4d 533d 6b7f bdbd d691 8d3d
000002c0: 906a bebb 7ac5 54bd 4629 cb3d d3d3 90bd
000002d0: d101 703c 8a6e eebc 88a5 993d 26a5 4a3d
000002e0: d9f6 a53d 486a 263d dba5 0abd cd98 38bc
000002f0: 07fd d5bd 5263 9c3d 33bf cc3d 62bd b43d
00000300: 1780 8fbd 824d 7c3c 8854 9dbd 0c97 febc
00000310: 5045 73bd f587 483d 71d1 3cbd d8d4 533a
00000320: b906 0fbc 50ae 3b3d 8e32 57bd 827f ebbb
00000330: 2412 6cbd a576 753d 0aa2 06bd c9e8 df3d
00000340: bfd8 343d b811 bb3c 0d56 133c 2211 48bc
00000350: 7ea5 c93c c9b3 8abb 2589 07bc e893 5c3c
00000360: a251 86bd 17cc 1abd 4498 f73d d49a c9bd
00000370: 7fe5 64bd ed13 063e b835 033e beac c1bb
00000380: 4bc0 fbbd 666c b03d 6654 10be 8cdb 2ebd
00000390: 1842 05bd 5bbb adbb 0874 3d3c 3a57 2a3d
000003a0: 7d7e 4a3c 2642 d63d 3f48 d03d 4f0b 9ebd
000003b0: 2a32 143d ae94 a7bd 83e3 57bd 7fe8 043d
000003c0: 878b 6e3d 236d a93d e34c 89bd fa8d 443c
000003d0: 589f 5f3d b25a d6bd 8684 a03d 136e cabd
000003e0: c5fc 133b d740 a6bc 797d 7dbd e92e 583c
000003f0: 3fbc a63d d3d4 81bc 293a 7fbd 92f3 80bd
0.5334675 0.05730137 -0.09944408 -0.07943199 -0.030352714 0.021949794 0.007295721 0.080098696
-0.01992263 0.087183684 -0.02587229 -0.03386858 -0.103226 -0.098810285 -0.034834526 -0.0035706093
0.04327748 0.06411205 -0.08174218 -0.05345766 0.03756037 0.08906648 -0.037694637 0.09826947
-0.03821683 0.040878084 0.08437132 -0.11685708 -0.018593235 -0.028844206 -0.090283036 0.0768386
-0.08700014 -0.055650346 -0.0888247 -0.10428241 -0.07410969 0.0935492 0.04701924 0.051401507
0.0075248345 -0.029230392 0.02223881 -0.12024142 -0.04703098 -0.06652911 0.05159189 0.10695509
-0.010263675 -0.066275954 0.07153539 0.09684841 -0.0037977423 0.017147494 0.0729323 -0.0742893
0.016039083 -0.09218623 -0.08281645 -0.055705447 0.10988709 0.061942115 -0.10708087 0.051370863
0.07025559 -0.030697733 0.1260927 0.034886375 0.0038270932 0.10788909 -0.088236116 -0.09113525
0.038247697 0.09386679 0.09453786 0.09676318 0.018847842 0.1950271 0.011708369 -0.08918062
-0.048918255 0.10522852 0.08776733 -0.13709255 0.017009024 -0.033267397 0.007966702 -0.0147341965
0.06740127 -0.062348507 0.039236993 0.06642739 0.084087476 0.039139464 -0.1286249 -0.06814515
0.05812694 0.025076905 -0.11470207 -0.010646505 0.09862413 0.078151844 -0.12032101 -0.030330028
-0.12334198 -0.00022804653 -0.068325184 -0.1037867 -0.007540592 0.018145107 -0.017342366 0.06797232
-0.07879865 0.09020263 0.07919406 -0.09487584 -0.027138216 -0.0057412037 0.05461728 0.012502093
0.045878712 -0.0042798608 -0.050488777 0.04003653 -0.12879428 -0.044699382 -0.029731981 -0.053231828
-0.039526854 -0.04496982 -0.017990533 0.007197817 -0.08988902 -0.0049643023 0.08280395 -0.010490376
0.011149284 -0.011700587 0.012899002 0.0669991 0.13528864 0.10817399 0.101638675 0.02121583
-0.079806395 -0.041558526 0.063536026 -0.006169445 -0.062272895 -0.081493415 -0.12914279 -0.11283735
-0.023464847 0.0637216 0.96152765 -0.09959043 0.07847502 -0.06416271 -0.007027227 -0.03718992
0.015163752 -0.008804998 -0.09547233 -0.08416676 -0.020061484 0.037732217 -0.043960605 0.019808616
-0.09997484 0.0014259783 0.10924046 -0.038466845 0.11288027 0.05158804 -0.09252819 0.069125816
-0.005811043 -0.05194614 0.09919982 -0.07071652 0.014648871 -0.029105444 0.07502276 0.049473904
0.08103723 0.0406287 -0.03384958 -0.011266899 -0.10448652 0.07636131 0.09997406 0.088251844
-0.07006853 0.015399339 -0.07682139 -0.031077884 -0.059392273 0.048957784 -0.046098176 0.00080807274
-0.00872963 0.045820534 -0.052538447 -0.007186831 -0.057634488 0.0599276 -0.032869376 0.10933072
0.044152018 0.022835597 0.008992684 -0.012211116 0.024615046 -0.004232858 -0.008272444 0.013462998
-0.06558539 -0.03779229 0.12089589 -0.09843984 -0.055882927 0.13093539 0.12813461 -0.005910485
-0.12292536 0.08614425 -0.14094695 -0.042689845 -0.032533735 -0.0053018755 0.011563309 0.041587092
0.012359259 0.104618356 0.1017003 -0.07717001 0.036180653 -0.08182655 -0.052707206 0.032448288
0.058238532 0.08272769 -0.06704118 0.0119967405 0.05459532 -0.104665175 0.07837777 -0.09884276
0.0022581082 -0.02029459 -0.06188724 0.013194778 0.08141374 -0.015848553 -0.062311325 -0.06296457

net.0.bias f4 [128]
00000000: 6477 e2bc 6cd5 38bd d4f7 8abd ee51 0b3d
00000010: 7b3a 24bd 51f9 65bd 018e 163d 9c22 13bd
00000020: aafd 963c 52c7 07bc e783 3c3d 52cc 9f3d
00000030: 751e cdbd 2a51 45bd 9ed4 e43d 71a3 363c
00000040: 1466 c9bc 15fc b43d 1c1d f93d 57a8 0a3d
00000050: 07e3 a3bd 917c ec3d 8469 d4bd 41ae cfbd
00000060: 64c2 523c 79e4 0dbd 7b04 eabd 92ad b83d
00000070: 9cda b73c f5bb 83bd 32c9 1b3d 52ea a33d
00000080: 75bc 36bb cf98 b93d 2692 823d 08c3 233d
00000090: 249d 60bd c0cb afbd 348f 49ba 129d 1bbd
000000a0: 8b40 e7bd 65f4 d6bd 0c34 82bd 3d6b 8d3c
000000b0: 8939 1ebd 7117 c4bd 0c1d a1bc c937 02bd
000000c0: 5c7a 04bd 0b1f 9c3d 3b3a 633d d2d1 9a3d
000000d0: c878 e63d 6ad9 7b3a 4466 6bbd 1075 60bc
000000e0: 5171 f53c 0a7c 17bd d547 af3d f0ca 603d
000000f0: fa47 a9bd 20f7 c13c 2500 e63b 740b 4d3d
00000100: 4ce0 6dbd 9b08 d03d e809 0ebd 44c8 473d
00000110: cc2f 64bd 8c4c 083d 8e4d 08bd addc 4dbd
00000120: 0976 bbbd 4e66 283d 82d5 d03c 5408 ff3c
00000130: 9740 80bd 28be de3c 6279 56bd 9bbe 013d
00000140: 26e8 d93d 5095 c0bd 42fa 303d 7568 9ebd
00000150: 8ec5 183d 70ac cbbc dc4f 353d 505f aabd
00000160: cef3 9f3d 462f 913d 93ab 99bd 3106 93bd
00000170: 76ce 953d f3e1 9ebd 9920 303d c1d2 37bd
00000180: fa0c c8bd 1bfd f33c b293 11bd 56ff 6fbd
00000190: 115a 293d c98e 343d ba67 a83d 0870 df3d
000001a0: 0315 1f3d 84e1 06bd ac0d 2fbc 4325 ab3d
000001b0: 8596 cebd b93d ba3d a034 4e3d fc4d 253d
000001c0: 151f 103d d408 c4bd 4687 1c3d 1f78 5bbc
000001d0: f160 a83b d32f 75bd e735 ac3d caa8 9cbc
000001e0: d228 3fbc bb3c babd dcac c53d 19e6 dabd
000001f0: 8fc5 9c3d bfb4 3f3d b624 813c 7ef7 e1bd
-0.02764482 -0.04512541 -0.06785551 0.03401368 -0.040094834 -0.05614597 0.03675652 -0.035921678
0.018431503 -0.008287268 0.04602423 0.07802643 -0.10015575 -0.048173107 0.11173366 0.011147366
-0.024584807 0.08837143 0.12163755 0.033851948 -0.080022864 0.11547197 -0.10371688 -0.10140658
0.012863729 -0.034641717 -0.11426636 0.09017481 0.022443108 -0.06432334 0.03803367 0.080036774
-0.0027883325 0.09062349 0.06375532 0.03998092 -0.05483736 -0.08583784 -0.00076888804 -0.03799159
-0.112916075 -0.10495833 -0.063575834 0.01726305 -0.03862909 -0.095747836 -0.019667171 -0.031791482
-0.032343253 0.076231085 0.055475455 0.07559551 0.11253506 0.00096072874 -0.057470575 -0.013699785
0.02996126 -0.036983527 0.08558623 0.054881036 -0.082656816 0.023677409 0.00701906 0.05005975
-0.058075234 0.10157891 -0.034677416 0.048774973 -0.055709645 0.033276126 -0.033277087 -0.05025928
-0.09153373 0.04111319 0.025492433 0.0311319 -0.062623195 0.027190283 -0.052361853 0.031675916
0.10639982 -0.09403479 0.043207414 -0.07734767 0.037297778 -0.024862498 0.044265613 -0.08318961
0.07810174 0.07089095 -0.07503428 -0.07178915 0.0731477 -0.0775794 0.042999838 -0.044878725
-0.097681 0.029783776 -0.035541244 -0.058593117 0.04134566 0.044081483 0.08222909 0.1091004
0.038838398 -0.032929912 -0.010684412 0.083567165 -0.10087303 0.09093804 0.050343156 0.040357575
0.035185892 -0.09571996 0.038214944 -0.013395338 0.0051385094 -0.05986006 0.084087186 -0.019123454
-0.011667447 -0.09093615 0.09652111 -0.10688419 0.07654869 0.046803232 0.015764575 -0.110335335

net.2.weight f4 [128, 128]
00000000: 9c33 bdbc 2842 51bd 601b 7cbc 7511 c93c
00000010: 965d 45bb 98c0 abbc f39c 3f3d 1baf 713d
00000020: 4d2d a6bd 5efe 373d 3114 163b eb04 9d3d
00000030: 19e0 9dbd 4f1d 89bd d40d 91bc bab2 093e
00000040: d5de 813d 3cc4 33bc efef 8dbc d6a8 9ebc
00000050: e8fa 953b 0b5b 29bc 97d5 a1bc e324 a73d
00000060: ef32 e03c bbef a53d 2336 3abd a414 86bd
00000070: 3659 cc3b c8bb c43b 3370 793d 61bb aa3d
00000080: 0e0e 89bd 8f7e ba3d 7149 853d 43fc b93d
00000090: 04b4 103d 19d1 d1bc 68d9 48bc 030e 5dba
000000a0: aec6 86bd cfce e1bc a0f1 ad3d 5827 643d
000000b0: 55d9 c53c 3028 0c3c c839 9c3c d944 cfbb
000000c0: 6190 4cbd d996 1cba 6a4a d1bc ee81 85bc
000000d0: 47fa 02bc fafd 183c 6672 88bd 397a c6bc
000000e0: cb0a 0dbd aa9c 4a39 c7fb 9bbd 164c 9a3d
000000f0: 955d 41bd d14b a53d bfa6 d4bd 256d 83bb
00000100: d2ad cebc 2eca 0cbd f529 a9bc 6239 8ebd
00000110: 5206 2c3d 9fa2 9c3d 9d6c 82bd 8abb 04bc
00000120: 6b6e 74bd bb0a ce3c eecb 53bd 8223 d23d
00000130: 445a adbb 50ea c83c d09e c93d b28b 8dbd
00000140: 2f95 3cbd 8e90 f2bb 7999 aabd 7426 8e3c
00000150: 07e4 d6ba 84cc a9bd 918b debc f855 7bbd
00000160: ab49 193d d9c4 b13d f48c b93d 9041 92bd
00000170: 48ef 363d b803 4b3b fe2a 2e3d e752 2d3d
00000180: 3b50 b6bd be41 83bd f89c 35bd ef5d 773b
00000190: 4a0a 643d bf24 0fbd b055 193b f330 2abd
000001a0: b523 cf3d baf7 a5bd b823 03bd b3be 363d
000001b0: 93ca a1bd ea50 913d 359e a9bd bc91 96bc
000001c0: 54ec e1bc 95a7 fd3b cb1f 23bd 16d9 573d
000001d0: 3aa6 4dbd 11b9 1cbd d438 15bc 7d55 a5bd
000001e0: 3024 b5bd bd0f 863d ce24 f03d 529e 10bc
000001f0: 289d 33bc cdb4 0a3d 98e3 153d 2775 a2bd
00000200: 1dec 28bb 8f03 f53d 484e 523d 8494 5abd
00000210: 9754 703c 9510 bbbc 951a f7bd 629b 26bd
00000220: 02c1 cf3d f15f 0a3d e1e3 813d fc4b 97bd
00000230: 703f c7bb 57f3 c73d 2495 a2bc 9def 26bc
00000240: 39a7 2bbd 3fdf 89bd 1e50 a6bc 1d12 1bbd
00000250: 8a5a 7bbd c27b b33d 47cb b33d 7762 c6bd
00000260: bfc4 79bc edd6 6a3d 7229 aa3d c3c9 9bbd
00000270: f5ec 45bd 46b1 463d 98d1 39bc 68cf d3bc
00000280: 71e4 84bb 04b2 3e3d a74e 47bd 43d0 ed3d
00000290: 16dd 8e3d 5df4 d2bb bd87 37bd b555 8c3d
000002a0: 5f59 1c3d ca15 71bd 4504 9abd 11ea 3b3d
000002b0: 596e 20bd e2d5 34bd bf46 8d3d 96b2 113c
000002c0: 229c a83d b45d ff3c 0796 c93d 045f a03d
000002d0: 7a88 be3c e93d b23d 3494 85bd a62b 963d
000002e0: 9e71 843c 782d cd3d 119a 2bbd eaed 75bd
000002f0: 19b7 833d 1dff 79bd 5385 863c fee8 173e
00000300: 3a1b 5f3d 76c7 55bd be7f 4cbd f84c 36bd
00000310: 0e36 a2bd a0c7 7a3d 0d84 813d b391 9c3d
00000320: c0ee 823d 3114 a63d 12b9 42bd d14e 893d
00000330: fad7 dbbb de0b 723d e703 cc3c bce9 86bc
00000340: 73b3 833d 9a04 f53d 57bf 3f3d 7822 2cbc
00000350: b747 75bc 1f02 953d 768f c6bc edf4 103d
00000360: d0e1 e0bc f540 563d 0ae1 d1bc d449 943d
00000370: dc0f bd3a 229f cf3c 3537 623d 68c9 5b3d
00000380: f3ce 2e3d a4e7 74bd bed7 1f3b 2b98 b43d
00000390: baab c03d c93d dfbd 03c0 60bd 512b 0c3d
000003a0: 94e7 c0bd 0292 3fbd 0b88 67bd be0c 6ebd
000003b0: 169a ebbc 1b16 f33d 3488 a4bd 2929 773d
000003c0: 30da 6ebd 521a adbc 2efd f1bc d41a 373d
000003d0: f046 2fbd 76a5 87bc 9999 1ebd f4e5 d4bc
000003e0: c300 2b3d 4d17 983d ac67 403d 02ca c53c
000003f0: 8798 84bd ad31 1b3d 7252 373d bd29 a23d
-0.023095898 -0.051088482 -0.015387386 0.024544457 -0.0030115596 -0.02096586 0.046780538 0.059004884
-0.08114109 0.044920318 0.0022900219 0.07666954 -0.07708759 -0.06695043 -0.01770679 0.13447085
0.0634133 -0.010972079 -0.017326323 -0.019367617 0.0045770295 -0.010336648 -0.019755168 0.081613325
0.027368037 0.081023656 -0.045461785 -0.06546906 0.0062362207 0.0060038306 0.060898017 0.08336521
-0.06692134 0.091061704 0.065081485 0.09081318 0.035327926 -0.0256124 -0.012258865 -0.0008432569
-0.06580864 -0.027564434 0.08493352 0.055701584 0.024151484 0.008554503 0.019070521 -0.006325346
-0.049942378 -0.0005973406 -0.025548179 -0.016297307 -0.007994241 0.0093378965 -0.06662445 -0.024228202
-0.03443412 0.00019322583 -0.07616382 0.075340435 -0.047208387 0.080711015 -0.10383367 -0.004010814
-0.025229368 -0.0343725 -0.02064989 -0.06944539 0.041998215 0.07648205 -0.063683726 -0.008101353
-0.059675615 0.025151601 -0.051708154 0.10260679 -0.0052903015 0.024525791 0.09844744 -0.069114104
-0.04604071 -0.007402486 -0.08330054 0.01735232 -0.0016394862 -0.082909614 -0.02716616 -0.061361283
0.03742377 0.08680124 0.09060088 -0.07141411 0.04466179 0.0030977558 0.04252147 0.04231539
-0.089020215 -0.06409024 -0.04433915 0.0037745198 0.055673875 -0.034947153 0.002339702 -0.041550588
0.101142325 -0.08103891 -0.032016486 0.04461546 -0.07899966 0.07095511 -0.08282129 -0.018380038
-0.02757851 0.0077409246 -0.039825242 0.052697264 -0.050207354 -0.03826243 -0.009107787 -0.08072946
-0.08844793 0.065459706 0.1172577 -0.008826809 -0.010962762 0.03386383 0.036594003 -0.07932501
-0.00257755 0.119635694 0.051344186 -0.05336429 0.014668605 -0.022835055 -0.12065617 -0.04067553
0.10144235 0.033782903 0.063422926 -0.0738754 -0.0060805604 0.0976321 -0.019846506 -0.010188964
-0.041907523 -0.06732034 -0.020301875 -0.03785907 -0.06136564 0.08763839 0.087790065 -0.096867494
-0.015244662 0.057333875 0.08308686 -0.07606842 -0.048321683 0.048508905 -0.011341475 -0.025855735
-0.0040555527 0.046556488 -0.048658993 0.116119884 0.069757625 -0.006437822 -0.044807184 0.06852285
0.03817117 -0.05885867 -0.075203456 0.04587752 -0.039167736 -0.044149287 0.06898259 0.008892676
0.08232905 0.03117261 0.098430686 0.07830623 0.023258436 0.08703215 -0.06522408 0.07332544
0.016167458 0.10018438 -0.041894976 -0.060041346 0.064314075 -0.06103431 0.016420996 0.14834973
0.054469325 -0.052192174 -0.049926512 -0.044506997 -0.07920466 0.061225533 0.06324015 0.076449774
0.06393194 0.0810932 -0.047539778 0.06704486 -0.006709096 0.05909335 0.024904205 -0.016468875
0.064307116 0.11963768 0.046813335 -0.010506265 -0.014970711 0.07275795 -0.02423833 0.03538983
-0.027451426 0.05230804 -0.025620002 0.07240644 0.0014424282 0.025344435 0.05522843 0.053658873
0.04267783 -0.059791222 0.0024390067 0.08818086 0.09407754 -0.109004565 -0.054870617 0.034220997
-0.0941917 -0.046770103 -0.056526225 -0.05811762 -0.028759997 0.11869451 -0.08033791 0.060341988
-0.05831355 -0.021130715 -0.02953967 0.04470332 -0.04279226 -0.01655839 -0.0387207 -0.025988556
0.041748773 0.07426319 0.04697387 0.024144176 -0.06474405 0.03788917 0.04475636 0.07918117

net.2.bias f4 [128]
00000000: 31c2 aebc b805 46bd 6682 953d a0fd 8f3d
00000010: 0078 963c 3e3f 46bd 97f6 ff3c 86f5 48bd
00000020: 8f1e 99bd 6cd9 ad3d 6d95 403d 3b5e f3bc
00000030: 231a 893d 17e4 f03b cc09 0f3d 12d7 463b
00000040: c2cd 933d 2a59 843d 5a2c 15bc 6982 4f3d
00000050: 0828 283d 98f7 533d e9b7 54bc dc13 13bd
00000060: 8520 9a3d 5def 5b3d dd08 abbd 199f a03c
00000070: 2e0b b73d e708 6d3d 1281 4e3d 1cdb 673d
00000080: 61f9 9abd a476 56bd fc99 9b3d 63b5 e63c
00000090: 275a d1bc 50a9 ac3d a2ca 9abc 9de9 8a3d
000000a0: 46df 80bb fad2 833d ef75 083d 160b b8bd
000000b0: f309 2c3d c5bd 8dbc 311e 153d b789 fd3c
000000c0: 7ba5 2d3d 03cd 36bd 2732 883d b861 303d
000000d0: 0f2c a6bd 7599 c03d b62c 143c cfc2 9a3d
000000e0: 98d0 09bd 6755 78bd 5461 363c 9b18 af3c
000000f0: 6adf 753c f19e 67bb 5004 6bbd 23ca fabb
00000100: bd15 923d 066a 8ebd e01a 933d e167 003c
00000110: b936 f0bc a0b0 17bd 1645 9d3d 36e5 a6bd
00000120: 6f6e 87bd b546 96bd 6be3 95bd 12b1 133d
00000130: 9345 81bd 5a76 713c a3a9 5e3d 8550 89bd
00000140: 60d1 743d 34fa 35bc 5091 92bd 5850 2d3d
00000150: d0ea ad3d 7622 95bc eef8 dd3b 2af9 653d
00000160: 4b58 0cbd 68a2 ac3c 27be 7f3c 2360 c53c
00000170: fd4e 90ba f0b6 79bd 28a0 47bd c830 3ebc
00000180: 0b30 5fbd 9088 11bd b910 933c 1a36 db3b
00000190: dbe3 1e3c e8cf c9bc 90cf 113d c134 9cbd
000001a0: 8afc 5a3d b178 ac3c d678 5a3d 4dc2 1e3d
000001b0: bf5b ad3c 79ef 99bc fc83 c0bb c3ae 123d
000001c0: 8788 c03d 6579 563d f8a9 e73b 54c6 26bd
000001d0: 1e21 2d3d 836f 383d d88d 753d 3a61 813b
000001e0: c191 b53d 47b8 853d 1659 aabc 5cb2 853d
000001f0: 938b 503d 6031 b0bc 1bda 4e3d 7f64 a93d
-0.021332832 -0.048345298 0.07300262 0.07030797 0.018367767 -0.048400156 0.031245513 -0.049062274
-0.07476532 0.084887356 0.047017504 -0.029708019 0.06694438 0.007351409 0.034921452 0.0030340594
0.072169796 0.06462319 -0.0091048125 0.05066148 0.0410538 0.051749796 -0.012983301 -0.03590761
0.07525734 0.05369507 -0.083513 0.019607114 0.08937679 0.057869818 0.05041606 0.056605443
-0.075670965 -0.05235924 0.075977296 0.028162664 -0.025555683 0.08430731 -0.018895451 0.067828394
-0.0039328663 0.06436725 0.033315595 -0.089864895 0.042001676 -0.017302403 0.036405746 0.030949457
0.042394143 -0.04462911 0.06650191 0.04306194 -0.08113872 0.094042696 0.009043863 0.07556688
-0.033646196 -0.06062832 0.011131603 0.021374037 0.015006879 -0.003534254 -0.05737716 -0.007653491
0.071330525 -0.06953816 0.071828604 0.007837267 -0.029322969 -0.037033677 0.07679193 -0.08149187
-0.066128604 -0.07337705 -0.07318767 0.03605754 -0.06312098 0.01473769 0.054360997 -0.06704811
0.059769988 -0.011107016 -0.071566224 0.04231295 0.084920526 -0.018204909 0.0067740595 0.056145824
-0.03426389 0.021073535 0.015609301 0.024093693 -0.0011009868 -0.06096548 -0.04873672 -0.01160831
-0.054489177 -0.035530627 0.01795231 0.006689799 0.00969788 -0.02463527 0.035598338 -0.076272495
0.053463496 0.021053644 0.053337894 0.03875952 0.021161912 -0.018790947 -0.0058751088 0.035811197
0.094010405 0.052361865 0.0070698224 -0.040716484 0.04226791 0.04502822 0.059949726 0.003948358
0.08865691 0.06529289 -0.020794433 0.0652816 0.05091436 -0.021507919 0.05050097 0.08271121

net.4.weight f4 [15, 128]
00000000: 8db4 e03d a276 053c 8b7e 2c3c d076 4b3b
00000010: c665 e03c 8895 82bd 6d19 cebc 34d4 6c3d
00000020: 3aa1 883d 4396 b53b f801 b0bb 9a7c 9b3d
00000030: 839d 78bd fc94 763a 4658 04bd 51ce 3a3d
00000040: 8631 0dbd e9a3 95bd 2e63 013d 9c3b 8ebc
00000050: 99f1 7e3d d47b a03d fed3 0b3d b9b2 72bb
00000060: 2fa5 343d 2134 933d 69a9 073e 836b 3bbd
00000070: 3209 c73c f917 02bd 8b89 9c3c 748a 01bd
00000080: 27d1 92bd 0732 95bd 2d5d a3bd be1b a63d
00000090: a229 ce3c a947 573d fd27 093d b65c 463d
000000a0: a0ec 963d fcf4 d43c 47fa 033d b499 3b3d
000000b0: 067e 673d 99e0 e63c fa65 bfbd d645 33bd
000000c0: 0910 633d f40e 243d fa78 4ebb 0706 80bd
000000d0: 1855 4c3c 1106 b23d 71b7 67bd 1430 4f3c
000000e0: 4d59 a23c 6ac2 cbbd 1128 a93d d8aa afbd
000000f0: 9ed9 1f3d b96b fbbb 7253 f5bc 940c f1bc
00000100: f70b 5c3d e132 993c 4f7e 003d b1d2 123b
00000110: 7886 40bc 28b5 66bc 1469 43bd 5187 7e3d
00000120: 4ef4 02bc 77e9 51bc b3b0 aa3d 5dfc 833d
00000130: a5e4 87bd 3379 dabc 015e 8e3d a025 c0bb
00000140: cdd3 19bd ea02 a33d f118 0e3d ca6b b53d
00000150: 3d87 453d caab a73d 8b06 583d 1fc6 42bc
00000160: c32e a53d 5231 d63d 18ef 83bc 72f2 523d
00000170: f541 a03c 804e 633d d7f8 8ebc 482a 4c3d
00000180: 14d7 dbbc 3b68 45bd 77b4 49bd fc64 993d
00000190: 1d2e acbd 6262 b63d b2ea ba3d 0e88 f1bb
000001a0: bb91 993d 3f67 523d 33ff a43d 3c1e af3b
000001b0: d307 973b ae84 84bd 681e 213d dfc6 d03c
000001c0: d275 b83d 8d48 b43d 813b c93c b7eb 173d
000001d0: 6ab8 16bc 58f7 033d 112f 083e e3f8 973d
000001e0: bc8a 9d3d a4f8 0ebc f876 ee3c f35f 8ebd
000001f0: 7a67 fe3c dafe 6e3d 4306 403c d67a a73d
00000200: af7f 1bbd 08a4 c13d 4d37 97bd bbf0 3d3d
00000210: 76a0 9e3d d325 053c 7e63 93bd 0bee a03c
00000220: 4982 b13d 4cfa b63d 9a84 79bd 2746 9fbd
00000230: 7db0 8b3d 1b9d 1b3d 73c9 c83d 469b 97ba
00000240: 1751 a43d 23dc c0bd dfca 74bc b6e2 44bd
00000250: 9aa3 2abc e3a7 99bc c3a4 eabc f79f cdbc
00000260: eb8e 78bd d314 bcbc e487 063d c6a3 f1bc
00000270: b0e0 523d 5e91 7ebd 9481 a73d a488 81bd
00000280: 8180 623d 094c 85bd 7796 54bd f93c 3e3d
00000290: fccc dc3d ed50 8ebd 3045 48bd 3ec1 3b3d
000002a0: 2785 0abd 28c7 b63c d1cf 753d 2b06 e73c
000002b0: 9e9e c43b 2b05 483d 2975 403c dcb2 8c3d
000002c0: b0c5 c93c 381b db3d 8c28 a43d 4204 a53b
000002d0: ee1b 4b3d d7f0 873d 9b5e 0c3d 0af1 16bd
000002e0: ab41 b63d 9a52 07bc 65de 1ebd 01aa 38bd
000002f0: d260 86bc 6e9c 40bc 0f14 913a e439 8dbc
00000300: 451a 893d 1c0d 8ebc 80a5 b53c 5076 693d
00000310: b6ea a03d bb8d 12be c1ac 9bbb ee25 a3bd
00000320: 508f d2bd 3a76 d63d 27f8 8b3d 3c74 80bd
00000330: 265b 0abd b2f1 e83d faa8 f73d ff5b 9a3d
00000340: cd7e 913d 54aa 4ebd cc2e d1bc 0617 a53d
00000350: f336 74bd 1812 2e3c f4d9 9fbd b8ae 80bd
00000360: 648c 2d3d 6614 463d f7ee 07bc 8d5f 69bd
00000370: aba5 c03d 2747 2d3e ded1 e43c e261 d83d
00000380: 55b1 d8bd 350d 09bd 166d e03c f107 a33d
00000390: 5e77 133b bbbe 4b3d 422e 92bc 6c2c 6bbd
000003a0: a70d 443d 002c 12bd f062 0b3c becd d43d
000003b0: 6e9e 0dbd 2566 0ebc deed 0bbd d7b8 62bc
000003c0: 9ccd 9c3d f469 3c3d ac09 1c3e c60e 9a3c
000003d0: b8f6 343d 69f8 9f3c 21cd 573b 2dea babd
000003e0: 7500 823d 2766 24bd aa04 33bd dc56 b23a
000003f0: 5634 a9bd 3695 663d d14b 183c 737c f4bc
0.10971937 0.00814596 0.010528217 0.003104616 0.02739228 -0.06376177 -0.025158608 0.05781956
0.066713765 0.0055415942 -0.0053713284 0.07592125 -0.06069709 0.00094063557 -0.032310747 0.045606915
-0.034471057 -0.07306654 0.031588726 -0.017362408 0.062242124 0.07836118 0.03413772 -0.0037032797
0.044102844 0.07187677 0.13248219 -0.045756828 0.024296377 -0.031761143 0.019108554 -0.03162618
-0.07168799 -0.072849326 -0.07976756 0.0811076 0.025166336 0.052558575 0.0334854 0.04842826
0.073693514 0.025995724 0.032221105 0.04580088 0.05651667 0.028183268 -0.09345622 -0.043767773
0.055435214 0.040053323 -0.0031505213 -0.062511496 0.01247146 0.08692563 -0.056571428 0.01264574
0.019817973 -0.09949191 0.08259595 -0.08577508 0.039025895 -0.0076727537 -0.029947016 -0.029424943
0.053722348 0.018701019 0.031370457 0.0022403414 -0.01175081 -0.014081277 -0.047707632 0.062140767
-0.007992817 -0.01281201 0.08334484 0.06444619 -0.06635407 -0.02666912 0.069515236 -0.0058638602
-0.037555505 0.0795954 0.034691755 0.0885845 0.048224676 0.08187063 0.052740615 -0.011888056
0.0806556 0.10458626 -0.01610522 0.051500745 0.0195627 0.055494785 -0.01745264 0.04984501
-0.026835956 -0.048195105 -0.04924437 0.07489964 -0.08407233 0.08905484 0.09126796 -0.0073709553
0.07498499 0.051367994 0.08056488 0.0053441804 0.004609087 -0.06470619 0.03933564 0.025485454
0.090068474 0.088029005 0.024564506 0.03709003 -0.009199241 0.032218307 0.13299204 0.07420518
0.07692477 -0.008726273 0.029109463 -0.069518946 0.0310552 0.058348514 0.011720243 0.08177726
-0.037963565 0.094551146 -0.07383595 0.046372157 0.07745449 0.008126694 -0.07196711 0.019644758
0.08667428 0.08934459 -0.060917474 -0.077770524 0.06820772 0.037991624 0.098040484 -0.0011566661
0.08023279 -0.09416988 -0.014940946 -0.04806777 -0.010414982 -0.018756812 -0.028643018 -0.025100691
-0.060683172 -0.022959149 0.03284444 -0.029497039 0.05148381 -0.06215035 0.08179012 -0.0632489
0.055298332 -0.06508643 -0.051901307 0.046444867 0.10781285 -0.06949029 -0.048894107 0.045838587
-0.03381839 0.022311762 0.060012642 0.028201183 0.006000354 0.048833054 0.011746683 0.06870052
0.024630398 0.10698551 0.08015546 0.005035908 0.049587183 0.066377334 0.03426991 -0.036850967
0.08899244 -0.00825944 -0.03878631 -0.045084003 -0.01640359 -0.011756046 0.00110686 -0.017239518
0.06694464 -0.017340235 0.022173643 0.056997597 0.078572676 -0.14311878 -0.0047508185 -0.07966219
-0.10281241 0.10471769 0.06834441 -0.0627217 -0.033778332 0.11374225 0.120927766 0.07537078
0.071042635 -0.050455406 -0.02553501 0.08061032 -0.059622716 0.010624431 -0.07805243 -0.06283325
0.042370215 0.048359297 -0.00829672 -0.05697589 0.09406599 0.16921674 0.027932104 0.10565545
-0.105806984 -0.03345986 0.027395766 0.07960499 0.0022501568 0.04974244 -0.017844323 -0.05741541
0.047864582 -0.035686493 0.008507475 0.10390805 -0.03457492 -0.008691345 -0.034162395 -0.013838015
0.076564044 0.045999482 0.15238065 0.018805873 0.0441806 0.01952763 0.0032928663 -0.09126697
0.063477434 -0.040136483 -0.04370562 0.0013606208 -0.082619354 0.056294642 0.00929542 -0.029844498

net.4.bias f4 [15]
00000000: d36b 4dbd 677a b43d d079 97bc a70b f1bc
00000010: 5650 fa3b da59 063d 7a5b 843d a884 40bd
00000020: 7dd7 6c3d a8d0 9e3d 7fc0 bc3c 335c 973d
00000030: 8085 c73c 4b6d 4f3d ce38 9e3c
-0.050151657 0.08812409 -0.018490702 -0.029424502 0.0076389713 0.032800533 0.0646276 -0.04700151
0.057822693 0.07754642 0.023041008 0.073906325 0.02435565 0.05064134 0.019314196

net.0.weight f4 [128, 77]
00000000: b55c 083f 0ffe 6c3d bd89 cabd 42c1 a0bd
00000010: be3f f6bc 575e b83c 5792 f73b 0bfd a53d
00000020: ad0e 9cbc 5244 b33d d3e4 d2bc b8d2 08bd
00000030: aea2 d1bd 00f2 c9bd 6603 0ebd 5d74 54bb
00000040: 774a 333d 3e76 843d b13b a6bd 33ad 58bd
00000050: 1f22 1c3d 8eb5 b73d 314e 18bd 415e ca3d
00000060: 0c02 1abd d5f0 273d f023 af3d 1fbe edbd
00000070: 1fb9 94bc fd6b ecbc a5b9 b8bd f682 9f3d
00000080: 4ad6 b1bd b950 63bd 6e0b b5bd f379 d4bd
00000090: ef7d 96bd 94bb c03d 77e0 423d 9bd3 543d
000000a0: f309 043c 2a4d edbc a18e bb3c 7423 f5bd
000000b0: 1277 40bd 6fcf 86bd 77e7 573d b5be dc3d
000000c0: 30df 26bc a9f1 86bd fff9 933d 1f0d c73d
000000d0: f084 75bb 883f 8f3c 0a62 963d 9ce5 96bd
000000e0: abf7 873c 88a7 bbbd 1277 a8bd d200 63bd
000000f0: f35e e23d da7c 7f3d 6c01 dabd 8bf0 523d
00000100: 2398 913d 3029 f6bc ff7c 013e 25ac 103d
00000110: d5e9 8d3b 29a2 de3d 241f b4bd d327 babd
00000120: 8ef5 1d3d 944b c13d e3c2 c23d 8b4e c73d
00000130: 3af9 9e3c f1b4 463e 3596 3d3c 2fe6 b6bd
00000140: ef39 49bd 6af0 d63d c377 b33d ac65 0cbe
00000150: 2ac5 8a3c a5e3 08bd 52d5 fb3b 1d2e 76bc
00000160: 12a7 893d 1606 80bd 825f 203d 7431 873d
00000170: b511 ac3d 3e75 1f3d 46e8 03be 9ac5 8bbd
00000180: f586 6d3d f64e cc3c c686 ebbd 9b74 32bc
00000190: f949 c93d 80c6 9f3d db4c f6bd 4c14 f9bc
000001a0: 37e7 fcbd a05b b7b9 9b8b 8cbd 3311 d5bd
000001b0: e4e0 fabb 8ce6 933c bbc0 90bc 44fa 8a3d
000001c0: 1709 a2bd 7c78 b83d 24e9 a13d 0b96 c2bd
000001d0: 1670 dfbc d06c c6bb 497d 5e3d 669d 483c
000001e0: 1f60 3b3d 3495 94bb 97c7 4ebd cf66 233d
000001f0: 92a0 03be c8ff 37bd 5dd3 f3bc 9683 5abd
00000200: 648d 22bd 4f45 39bd 4599 94bc 0dc0 e03b
00000210: 2831 b8bd 9021 a7bb 574d a93d 131e 2ebc
00000220: b7a5 2f3c 93e5 41bc c671 4d3c ed01 893d
00000230: 7832 0a3e e849 dd3d e5e0 cf3d 08eb ae3c
00000240: b0b6 a3bd e0ff 28bd 7ce7 813d e527 cfbb
00000250: d585 7fbd fc60 a7bd 9c6c 04be 1760 e7bd
00000260: ee3e c1bc b138 823d 84d2 753f 1fd7 cbbd
00000270: 43d0 a03d 58a7 83bd 74cc e3bb b2df 17bd
00000280: f46f 783c 41e0 0cbc 9817 c4bd f786 acbd
00000290: bdb7 a6bc 156d 1b3d 7b02 34bd e78d a23c
000002a0: b8be ccbd 9a8b be3a e7d5 df3d 3743 1dbd
000002b0: 2554 e73d da8b 533d 7960 bdbd e07e 8d3d
000002c0: df03 b5bb 580b 54bd 6371 cb3d cff8 90bd
000002d0: f526 733c 32fb eebc 5882 993d 1cd2 493d
000002e0: 716a a53d 72aa 263d 2c91 0abd 6bc0 37bc
000002f0: 062a d6bd f07e 9c3d 57df cc3d 54dc b43d
00000300: 2561 8fbd ff44 7d3c 818c 9dbd 9a3e fdbc
00000310: 06a3 72bd 3ee4 483d 25bf 3dbd bd83 343a
00000320: 5905 10bc da07 3d3d cb8b 58bd ffbd e5bb
00000330: 5a00 6cbd 3d88 753d a161 06bd dbd0 df3d
00000340: 26dd 343d ce80 bb3c 974d 143c a519 47bc
00000350: 3d21 ca3c 6b12 8dbb 8d50 08bc 7b83 5e3c
00000360: 8929 86bd 6771 1abd 1ac8 f73d dfbb c9bd
00000370: 840f 64bd 12fc 053e 7570 033e b976 c0bb
00000380: 5e71 fbbd 8e6c b03d 7564 10be 80b5 2ebd
00000390: a501 05bd f516 abbb 856b 3e3c 4e21 273d
000003a0: 99f9 463c de83 d53d b316 d03d fe91 9ebd
000003b0: be1b 133d db5e a7bd e6b5 58bd f3d6 053d
000003c0: 5d4e 6e3d f2fc a83d 37c1 89bd 31b1 453c
000003d0: f753 5e3d d627 d7bd e1e3 9f3d a802 cbbd
000003e0: c79e 053b fadd a7bc b45e 7ebd 05aa 543c
000003f0: ab4d a63d 9375 84bc 3a0b 80bd 3965 81bd
0.5326646 0.057859477 -0.09889553 -0.07849361 -0.030059692 0.022505922 0.007555287 0.08104905
-0.019049967 0.087532654 -0.025743878 -0.033404082 -0.10236107 -0.09860611 -0.03467121 -0.003241799
0.043772187 0.064678654 -0.08116854 -0.05289955 0.038118478 0.08970176 -0.037183944 0.09881259
-0.03759961 0.04100116 0.085517764 -0.11608528 -0.018154679 -0.028860087 -0.09019784 0.07788651
-0.086834505 -0.055496905 -0.08840071 -0.103748225 -0.07348239 0.09410778 0.047577348 0.051959615
0.008059013 -0.028967459 0.02289516 -0.11969653 -0.046988554 -0.065825336 0.052710976 0.10778562
-0.010185048 -0.06589062 0.07225417 0.097192995 -0.003746327 0.017486349 0.07342918 -0.07368013
0.01659759 -0.091628134 -0.08225836 -0.055420704 0.110532664 0.062374927 -0.106448025 0.05149893
0.07109096 -0.030048937 0.12645338 0.03532042 0.0043308535 0.10870773 -0.08795002 -0.09089627
0.038564257 0.094382435 0.09509828 0.09731778 0.01940595 0.19404961 0.011571457 -0.08930623
-0.049127515 0.10495074 0.08763077 -0.1371066 0.016939718 -0.033420224 0.007685342 -0.015025643
0.06721319 -0.06251161 0.039153583 0.06601229 0.08401815 0.03893017 -0.12881574 -0.06824799
0.057990033 0.024939995 -0.11500315 -0.010892059 0.09828562 0.07801533 -0.12026378 -0.030405186
-0.12348788 -0.00034972746 -0.06862565 -0.10403671 -0.0076562036 0.01805427 -0.017670026 0.06786016
-0.0791189 0.090073556 0.07905796 -0.09501275 -0.027275126 -0.006055452 0.0543187 0.012244558
0.045745965 -0.004534388 -0.050483312 0.039892968 -0.12854221 -0.044921666 -0.029763872 -0.053348146
-0.03968562 -0.045232113 -0.01813949 0.0068588317 -0.08993751 -0.0051004365 0.082667045 -0.010627287
0.010720662 -0.01183452 0.012539333 0.066898204 0.13495815 0.10805112 0.10150317 0.021352306
-0.07993829 -0.041259646 0.0634298 -0.0063218945 -0.06238349 -0.08172795 -0.12932056 -0.112976246
-0.023589578 0.06358469 0.96024346 -0.099531405 0.07852223 -0.06428403 -0.006951863 -0.037078567
0.01516341 -0.008598388 -0.09574813 -0.0842418 -0.020351285 0.037945826 -0.043947678 0.019843055
-0.09997314 0.0014537454 0.109294705 -0.03839418 0.11295346 0.051647045 -0.09246916 0.06908965
-0.005524143 -0.05176863 0.09933736 -0.070787065 0.014840831 -0.029172514 0.07495564 0.04927264
0.08076943 0.040689893 -0.033829853 -0.01121531 -0.10457234 0.07641399 0.10003536 0.08831087
-0.07000951 0.0154583445 -0.076928146 -0.03091364 -0.059237503 0.049045794 -0.046324868 0.00068860856
-0.0087903375 0.046150066 -0.052867692 -0.0070111747 -0.057617523 0.05994438 -0.03280795 0.10928508
0.044156216 0.022888567 0.009051702 -0.01215211 0.024674052 -0.004305174 -0.008319986 0.013581152
-0.06550891 -0.037705805 0.12098713 -0.09850287 -0.05567886 0.13084438 0.12835868 -0.005873528
-0.122774825 0.08614455 -0.14100821 -0.04265356 -0.03247227 -0.0052212426 0.011622314 0.040803246
0.01214447 0.10425542 0.101605795 -0.077426895 0.03591513 -0.08172389 -0.052907847 0.032675695
0.0581802 0.082513705 -0.06726306 0.0120661715 0.054279294 -0.10505645 0.07807136 -0.09912616
0.0020388828 -0.020491589 -0.062102035 0.012979989 0.08120283 -0.016169345 -0.06252141 -0.06318135

net.0.bias f4 [128]
00000000: f4e4 ddbc fb64 39bd e2d8 8abd b370 0a3d
00000010: e912 25bd a0cc 66bd 46a5 153d 0f1f 14bd
00000020: 2861 9a3c 3ec5 0bbc 404e 3c3d 9886 9f3d
00000030: 751e cdbd ddf7 45bd 9ed4 e43d 4b8e 3b3c
00000040: 791c c9bc c95e b43d f57f f63d 9eb5 083d
00000050: 28b8 a3bd 7994 eb3d d5b6 d4bd 57f3 d0bd
00000060: 2519 523c 721e 0dbd 04f7 eabd 3266 b83d
00000070: a4ab b63c c7c1 83bd 1211 1c3d 52ea a33d
00000080: b21e 36bb 68db b83d 769d 823d ea59 243d
00000090: ed90 60bd b158 afbd 542e 67ba 75a3 1bbd
000000a0: 9609 e7bd 3336 d7bd 0bce 82bd cebd 8c3c
000000b0: 5754 1ebd 7117 c4bd 0c1d a1bc 2928 03bd
000000c0: 4078 03bd d018 9c3d 542e 633d 6597 9b3d
000000d0: 4519 e63d d1c4 983a 1140 6cbd b5e2 69bc
000000e0: 5a17 f13c b279 17bd 37dd af3d f0ca 603d
000000f0: fa47 a9bd 817d bd3c cd84 e93b 0cf1 4c3d
00000100: d051 6fbd 4245 d03d 6a77 0ebd e8e5 473d
00000110: dc7b 64bd 67d4 083d ffe8 07bd 638f 50bd
00000120: 80b8 bbbd 428c 283d 4757 d33c 3ca8 fd3c
00000130: 9740 80bd b20c dd3c a1ab 58bd 2400 fc3c
00000140: 26e8 d93d 4c05 c1bd 30c3 303d 5d95 9ebd
00000150: 70ec 173d 70ac cbbc e630 363d cd39 aabd
00000160: ab96 9f3d 2f5a 913d 2d32 9abd 6d60 93bd
00000170: f6d6 953d 8343 9fbd 535f 2f3d 7b74 3bbd
00000180: aa4f c9bd 4fcf f33c d688 11bd 3c23 6fbd
00000190: 2e2d 283d 2034 333d 1753 a93d 07ad df3d
000001a0: 5ef6 1f3d 84e1 06bd 3021 2ebc a499 ab3d
000001b0: c776 cebd 854e ba3d 1b60 4d3d 31b1 253d
000001c0: 59f3 0f3d 6bab c3bd 4687 1c3d 9ba8 60bc
000001d0: 897a a33b 18b8 73bd 7fcf ab3d caa8 9cbc
000001e0: 8a41 40bc ba08 bbbd de93 c53d 2720 dbbd
000001f0: 1b1e 9c3d 8a03 3e3d 4f41 7c3c 7ef7 e1bd
-0.027086712 -0.045262318 -0.06779648 0.033798885 -0.040301237 -0.05634749 0.03653457 -0.036162432
0.018845156 -0.008530913 0.045973063 0.077893436 -0.10015575 -0.048332084 0.11173366 0.0114474995
-0.02454971 0.08807141 0.120361246 0.03337633 -0.079941094 0.11502928 -0.10386435 -0.102026634
0.012823378 -0.034452863 -0.11472896 0.09003867 0.022298642 -0.064334445 0.038102217 0.080036774
-0.0027789292 0.090262234 0.063776895 0.04012481 -0.054825712 -0.085618384 -0.0008818854 -0.03799768
-0.11281125 -0.105083846 -0.06386956 0.01718035 -0.03865465 -0.095747836 -0.019667171 -0.03202072
-0.0320971 0.0762192 0.055464104 0.075972356 0.112352885 0.0011655336 -0.057678286 -0.014275243
0.02943008 -0.036981292 0.08587115 0.054881036 -0.082656816 0.023131134 0.007126427 0.050034568
-0.05842763 0.1016946 -0.03478185 0.04880324 -0.055782184 0.033405688 -0.033181187 -0.050917994
-0.0916605 0.041149385 0.025798453 0.03096401 -0.062623195 0.026983593 -0.052898053 0.030761786
0.10639982 -0.094248384 0.043154895 -0.077433325 0.03709072 -0.024862498 0.044480227 -0.08311806
0.077924095 0.07097279 -0.075291015 -0.07196126 0.07316391 -0.07776549 0.042815518 -0.04576538
-0.09829648 0.029761938 -0.035530888 -0.05838321 0.04105871 0.043750882 0.08267801 0.10921674
0.039053313 -0.032929912 -0.01062803 0.08378914 -0.10081249 0.09097008 0.05014048 0.040452186
0.035144184 -0.0955418 0.038214944 -0.013712074 0.0049889726 -0.059501737 0.08389186 -0.019123454
-0.011734376 -0.09132524 0.09647344 -0.10699492 0.0762293 0.046390094 0.01539643 -0.110335335

net.2.weight f4 [128, 128]
00000000: 0a54 b6bc 113e 4fbd 5740 79bc 856c c73c
00000010: 9271 3abb 9e1a acbc 0f68 3f3d e1aa 713d
00000020: 60c7 a6bd 88ea 373d 4259 0a3b f403 9d3d
00000030: 19e0 9dbd 269e 88bd d40d 91bc 0c94 093e
00000040: d24b 823d 3db5 30bc 2898 94bc 4b1b a0bc
00000050: 1cc6 913b e111 21bc 104d a5bc 3774 a43d
00000060: 233a e13c 4131 a53d 5394 3abd 93ef 84bd
00000070: 8bfc c83b 2639 bb3b 0a10 7a3d 61bb aa3d
00000080: 160e 89bd 1a05 bb3d 005f 853d 6417 bb3d
00000090: 9935 103d 8195 cfbc 6170 53bc 7053 18ba
000000a0: d367 87bd 90af e3bc e7ed ad3d ee47 643d
000000b0: 3971 c43c 3028 0c3c c839 9c3c af48 aabb
000000c0: 0d69 49bd 06f7 1cba 8a3e d2bc 8380 87bc
000000d0: d778 f5bb f3b7 163c 3216 85bd 5058 c2bc
000000e0: 64f9 0ebd 8a80 7a39 0643 9dbd 164c 9a3d
000000f0: 955d 41bd c4c4 a53d d0a8 d4bd 8f7c 85bb
00000100: de5b ccbc d561 0bbd 38b6 a8bc 1d79 8ebd
00000110: a510 2b3d ab43 9c3d a934 83bd f587 12bc
00000120: 9ca9 76bd e1a5 ce3c 9536 52bd 824b d23d
00000130: 445a adbb 0846 c53c 4bbd c93d 781f 8ebd
00000140: 2f95 3cbd f4a5 f7bb 7b90 a8bd 1bd8 8f3c
00000150: b5e3 d2ba 84cc a9bd f12e dfbc 9c87 7bbd
00000160: 00c7 183d cf0b b33d 570d ba3d e894 92bd
00000170: 3f3a 353d d3aa 763b cfef 2d3d f67e 2d3d
00000180: c96b b6bd 2841 83bd e3c7 34bd a31f 6a3b
00000190: 9c03 653d 57c4 0ebd be5e 273b 6b25 29bd
000001a0: 3dd6 cf3d baf7 a5bd 0e3a 03bd 77cf 363d
000001b0: abfe a1bd 0e19 923d c447 a9bd 85a5 94bc
000001c0: 2a71 e2bc c102 013c cb1f 23bd a07f 583d
000001d0: da77 4dbd 820f 1dbd da8f 0dbc 7d55 a5bd
000001e0: 8523 b5bd 3856 863d 8bb0 f03d d823 19bc
000001f0: 4895 31bc 0d7e 0b3d 4ffb 163d 2775 a2bd
00000200: d67e 20bb 087e f43d 3bf9 513d bd0b 5abd
00000210: 0a12 693c 6e07 bfbc 6313 f6bd e5ab 26bd
00000220: 3468 cf3d a484 0b3d e7fc 813d 7c17 98bd
00000230: 703f c7bb 6535 c73d 2495 a2bc 1832 28bc
00000240: dee6 2cbd 1a12 8abd 11a1 9fbc e574 1cbd
00000250: 646c 7dbd 70fb b23d df9d b33d 9de2 c4bd
00000260: d545 7fbc ad53 6a3d dd96 a93d e809 9cbd
00000270: 7321 47bd c500 463d c1ac 3dbc 68cf d3bc
00000280: 71e4 84bb 6b3c 413d 30f4 48bd 87e3 ec3d
00000290: 5d04 8f3d 28ae e3bb 6d2b 39bd 5479 8b3d
000002a0: fde0 1a3d 8050 72bd 5c19 9abd 32f1 393d
000002b0: 33bc 20bd e2d5 34bd bf46 8d3d 1813 0a3c
000002c0: 0d2d a93d b692 fd3c 5bf4 c83d cd15 a13d
000002d0: 211f be3c c6ae b13d 2d1b 86bd 6c20 973d
000002e0: a5bb 853c d9aa cc3d 5acc 2cbd eaed 75bd
000002f0: 19b7 833d 7fc6 79bd ac5b 853c 2178 173e
00000300: cf31 5d3d 9b85 56bd beef 4cbd 18c2 37bd
00000310: 4c4c a2bd 1c1f 793d 2b87 803d ce5e 9b3d
00000320: a8d4 823d f319 a63d a0c5 41bd f194 883d
00000330: fad7 dbbb ffa6 703d e070 ca3c eef4 87bc
00000340: 73b3 833d 0242 f43d ab08 403d 9ef3 35bc
00000350: d98c 7cbc 1f02 953d 04f1 c9bc 6a34 0f3d
00000360: 8889 dfbc 7a74 553d 02b2 d3bc 56a5 933d
00000370: 01ff ba3a db6d cb3c 1a8b 603d 5aa3 583d
00000380: 656e 2d3d 9b0c 76bd 9651 0b3b 25c8 b33d
00000390: 55fc be3d 75c8 dfbd 8d8a 62bd e34d 0a3d
000003a0: 92bc c0bd 0292 3fbd f887 68bd 1dc9 6ebd
000003b0: a165 eebc 2e96 f23d 6362 a5bd a06b 753d
000003c0: f945 70bd 44ca acbc 2efd f1bc 203e 363d
000003d0: c3b5 2fbd a29a 8cbc 3d16 22bd f4e5 d4bc
000003e0: f0bf 293d ddbc 973d 6a82 413d 4b1f c43c
000003f0: a7ee 84bd e1b6 193d ada9 363d bd29 a23d
-0.02225687 -0.0505963 -0.015213094 0.024343738 -0.002844904 -0.021008786 0.046730097 0.059000853
-0.081434965 0.0449014 0.002111033 0.076667696 -0.07708759 -0.066707894 -0.01770679 0.13435382
0.06362118 -0.010785398 -0.01813896 -0.019544264 0.0044486653 -0.009830923 -0.020178348 0.08029979
0.027493542 0.08066035 -0.04555161 -0.06491008 0.006133621 0.0057135997 0.061050452 0.08336521
-0.0669214 0.091318324 0.065122604 0.09135321 0.035207365 -0.025339844 -0.012905211 -0.0005810773
-0.066116 -0.027793676 0.08492642 0.05573266 0.02397977 0.008554503 0.019070521 -0.005196653
-0.04917245 -0.0005987737 -0.025664587 -0.016540771 -0.007491212 0.00919913 -0.06498374 -0.023723751
-0.034905806 0.00023889742 -0.07678799 0.075340435 -0.047208387 0.08094171 -0.10383761 -0.0040736864
-0.02494615 -0.034028847 -0.020594701 -0.06956694 0.04176392 0.07630094 -0.064065285 -0.0089435475
-0.060220346 0.025225582 -0.051321585 0.10268308 -0.0052903015 0.024081245 0.09850558 -0.06939596
-0.04604071 -0.007557625 -0.082306825 0.017559102 -0.001608959 -0.082909614 -0.027244063 -0.061408624
0.037299156 0.08742487 0.090845756 -0.07157308 0.044245 0.003763844 0.042465027 0.042357408
-0.08907277 -0.06408912 -0.04413594 0.0035724423 0.055911645 -0.034855213 0.0025538648 -0.04129545
0.101482846 -0.08103891 -0.032037787 0.044631448 -0.07909902 0.07133685 -0.08265641 -0.018145332
-0.027641851 0.007874192 -0.039825242 0.052856088 -0.050163127 -0.038344868 -0.008640254 -0.08072946
-0.088446654 0.06559414 0.11752423 -0.009346925 -0.010838814 0.03405576 0.03686076 -0.07932501
-0.0024489663 0.11938101 0.051263075 -0.05323385 0.014225492 -0.023318972 -0.120154165 -0.040691275
0.10127297 0.034062043 0.063470654 -0.07426354 -0.0060805604 0.09726981 -0.019846506 -0.0102658495
-0.04221236 -0.06741734 -0.019485982 -0.038197417 -0.061870947 0.08739364 0.08770346 -0.096135356
-0.015580614 0.057208706 0.08280728 -0.07619077 -0.048615884 0.048340578 -0.011576832 -0.025855735
-0.0040555527 0.04717676 -0.049061 0.11566835 0.06983254 -0.0069482513 -0.04520743 0.06810251
0.03781222 -0.059158802 -0.07524368 0.045396037 -0.03924198 -0.044149287 0.06898259 0.008427404
0.08260546 0.030953746 0.09812232 0.07865486 0.023208203 0.086759135 -0.06548152 0.07379231
0.016324827 0.09993524 -0.042187072 -0.060041346 0.064314075 -0.060980316 0.016279064 0.1479192
0.05400258 -0.05237351 -0.050033323 -0.044862837 -0.07924709 0.060820684 0.06275781 0.07586442
0.06388217 0.08110418 -0.04730761 0.06669033 -0.006709096 0.05875301 0.024712026 -0.016596284
0.064307116 0.119266525 0.046883266 -0.011105446 -0.01541444 0.07275795 -0.024651058 0.034962095
-0.02728726 0.052113034 -0.025841717 0.0720927 0.0014266671 0.024832657 0.054820158 0.05289016
0.04234161 -0.060070615 0.0021258346 0.08778409 0.09325472 -0.10926906 -0.055307914 0.033765685
-0.09410967 -0.046770103 -0.056770295 -0.058297265 -0.029101195 0.11845051 -0.080754064 0.059917092
-0.05866048 -0.021092542 -0.02953967 0.04449284 -0.04289795 -0.017163578 -0.03957199 -0.025988556
0.04144281 0.0740907 0.047243513 0.023940703 -0.06490832 0.037527923 0.04459541 0.07918117

net.2.bias f4 [128]
00000000: 0772 aebc fc5b 47bd 2c1b 953d c6b1 8f3d
00000010: e2e9 953c b7f7 46bd 506c 003d 0037 48bd
00000020: f987 99bd daba ad3d af95 403d 6067 f2bc
00000030: 1a5a 893d 6f65 f33b 2bb2 0d3d 6716 373b
00000040: 5437 933d 32ab 843d fb2b 15bc 4f64 4e3d
00000050: 408b 293d a78b 533d 1876 59bc 8897 13bd
00000060: 3d71 993d 055f 5b3d c18d abbd fdaa a03c
00000070: 4952 b73d 585f 6a3d 1281 4e3d b7db 693d
00000080: 2e41 9abd 8d3d 58bd 08cf 9b3d 9f92 e83c
00000090: 496c d4bc b54d ac3d 6c51 99bc de49 8a3d
000000a0: 7a16 83bb b024 843d c975 083d 160b b8bd
000000b0: 5d3c 2a3d 03c7 8ebc 5a4f 153d aeb1 fd3c
000000c0: 0b6f 2d3d 7e40 36bd 2600 883d 4737 323d
000000d0: 8fcd a5bd 8395 c03d 4578 1d3c 4b60 9a3d
000000e0: 3939 0bbd cee4 77bd 9650 363c 6b96 ae3c
000000f0: 32ad 7a3c f4f1 74bb ec79 6abd b0f6 edbb
00000100: 66eb 913d b2b7 8dbd 4837 933d bb57 ef3b
00000110: 747d eebc 2a09 16bd 0352 9c3d ac47 a8bd
00000120: d8eb 87bd e857 97bd 6be3 95bd d4f3 163d
00000130: 9345 81bd 93bc 763c 6f2b 5e3d 8550 89bd
00000140: 2e49 743d 48db 37bc f594 91bd e9e0 2d3d
00000150: f7ca ad3d cfea 96bc 0e39 ce3b 784c 683d
00000160: 72fe 0cbd 044f ad3c 637c 7f3c f89b c53c
00000170: 3ccd 2bba 70a8 7bbd d830 48bd 4fb6 3bbc
00000180: 22b9 5ebd 6293 13bd 1277 923c 7138 df3b
00000190: dbe3 1e3c 5d2a cbbc 78a2 123d d6af 9bbd
000001a0: 66ea 5c3d e648 a93c 64e4 593d 22c5 1f3d
000001b0: 247f ad3c 8938 a0bc 6a2d bfbb eaa8 123d
000001c0: e844 c03d 8bd5 543d 8029 ee3b ed8c 27bd
000001d0: 2e67 2d3d c742 383d 0df6 743d c14c 833b
000001e0: b2f3 b53d 9fdf 843d ac89 abbc 3080 853d
000001f0: a1b3 4e3d 6031 b0bc 260d 4e3d a0a7 a93d
-0.021294607 -0.048671708 0.07280573 0.070163295 0.0183 -0.048576083 0.031353295 -0.048880577
-0.07496638 0.08482905 0.04701775 -0.029590309 0.06706639 0.0074278633 0.034593742 0.0027936937
0.071882874 0.064779654 -0.009104724 0.05038863 0.041392565 0.051646855 -0.013272785 -0.036033183
0.074923016 0.053557415 -0.08376647 0.019612784 0.089512415 0.057219833 0.05041606 0.057094302
-0.07531963 -0.052793074 0.076078475 0.028390227 -0.02593054 0.08413259 -0.018715583 0.0675237
-0.004000482 0.0645231 0.033315454 -0.089864895 0.041561473 -0.01742888 0.03645263 0.030968513
0.042342227 -0.0444951 0.06640653 0.043509748 -0.08095848 0.09403517 0.009611194 0.07537898
-0.03399012 -0.06052094 0.011127612 0.02131196 0.015300082 -0.003737566 -0.05724518 -0.0072620735
0.07124977 -0.06919803 0.071882784 0.0073041595 -0.029112555 -0.036629833 0.0763283 -0.08216795
-0.066367805 -0.07389814 -0.07318767 0.036853626 -0.06312098 0.015059608 0.05424064 -0.06704811
0.059640102 -0.011221714 -0.071084894 0.04245082 0.08485978 -0.018422512 0.0062934225 0.05671355
-0.034422345 0.021155842 0.015593621 0.024122223 -0.00065537146 -0.06143993 -0.048874706 -0.01145704
-0.054375775 -0.036029227 0.017879043 0.0068121483 0.00969788 -0.024800474 0.035799474 -0.076018974
0.053934477 0.020664643 0.053196326 0.03900636 0.02117879 -0.019558208 -0.005834271 0.03580562
0.09388143 0.051961463 0.007268131 -0.04090588 0.042334728 0.04498556 0.059804965 0.0040069525
0.08884372 0.06487965 -0.02093967 0.065185905 0.050464276 -0.021507919 0.050305508 0.08283925
