ddqn_out/dqn_ep650.pt (torch, 464465 bytes, 24 tensors)

net.0.weight f4 [128, 77]
000000 a1 52 89 3e 03 81 71 3d b3 15 d4 bd 12 af 9c bd
       0.26820853 0.058960926 -0.10355701 -0.076505795
000010 61 97 02 bd 67 1a a9 3c fa fe 85 3b fa de a8 3d
       -0.031882647 0.020642472 0.0040892335 0.082456544
000020 9b ad ef bb 59 2a ae 3d d3 bd 0a bd bd e4 d2 bc
       -0.0073143966 0.08504171 -0.033872437 -0.025743837
000030 db 3b cf bd 87 a2 bf bd 7e 47 2d bd 78 d2 79 bb
       -0.101188384 -0.093571715 -0.04230451 -0.0038119834
000040 54 64 33 3d f7 bd 86 3d 0d 24 a3 bd 3f 2a 54 bd
       0.043796852 0.06579202 -0.079658605 -0.0517981
000050 13 a5 20 3d 61 24 ae 3d 05 fb 14 bd ba 2c c0 3d
       0.039219927 0.085030325 -0.036372203 0.09383531
000060 04 f4 18 bd 59 d2 14 3d df 16 ad 3d b3 5d d0 bd
       -0.037342086 0.036333416 0.08451628 -0.10174122
000070 7a 4c ec bc 09 38 db bc 10 4a 9f bd 00 e2 ba 3d
       -0.02884506 -0.026760118 -0.07777798 0.09125137
000080 49 cb aa bd 77 98 64 bd 9a 7b b1 bd 6a f5 d6 bd
       -0.08339555 -0.055809464 -0.08666153 -0.10496028
000090 25 d8 90 bd 9a 51 c3 3d 6b 63 47 3d 8f 56 59 3d
       -0.07072476 0.09537049 0.048678797 0.053061064
0000a0 fe fe 23 3b 57 61 f0 bc 62 0e a6 3c cf 75 fe bd
       0.0025023813 -0.02934329 0.02027053 -0.12424814
0000b0 aa f7 5d bd 94 c3 83 bd c0 b5 97 3d 92 8f d5 3d
       -0.05419127 -0.06433788 0.07407713 0.104277745
0000c0 d3 45 8b bc 7b 16 3e bd e5 9b 9b 3d 14 3d d1 3d
       -0.017001068 -0.046408158 0.07598094 0.10216728
0000d0 0a c3 37 3b e1 fa 8e 3c a4 78 97 3d f3 23 92 bd
       0.0028039836 0.017453613 0.07396057 -0.07135763
0000e0 a0 6f 92 3c 18 66 b9 bd a2 35 a6 bd c8 9f 77 bd
       0.017875493 -0.09052676 -0.081156984 -0.060455114
0000f0 9a 7f c3 3d 32 cf 47 3d d9 bb ca bd 61 a6 6f 3d
       0.095458224 0.04878158 -0.0989911 0.05850828
000100 63 7a 7a 3d 69 4f 5d bc 2f fb de 3d e5 0b 31 3d
       0.061151873 -0.013507702 0.10887753 0.043224234
000110 50 1d 2b 3d 3b ba ee 3d 94 ba bd bd fb 8d aa bd
       0.041776 0.116566144 -0.092641026 -0.08327862
000120 4a 30 18 3d 70 9a bf 3d 49 88 c6 3d f7 68 c9 3d
       0.037155427 0.093556285 0.09693963 0.098344736
000130 f4 fe a7 3c f0 73 33 3d 25 71 13 3c fd eb bd bd
       0.020507313 0.04381174 0.008999144 -0.09273527
000140 a1 69 95 bd fd 88 c2 3d 42 86 ae 3d 15 1d 0c be
       -0.07295538 0.09498785 0.085217014 -0.13682969
000150 68 6a 87 3c 17 50 ea bc e2 93 83 bb a5 23 f2 bc
       0.01653023 -0.028602643 -0.0040154317 -0.029558012
000160 61 2b 2a 3d be 98 7f bd 55 92 19 3d 0d e0 81 3d
       0.041545276 -0.062401526 0.03749307 0.063415624
000170 c5 71 a9 3d 87 42 16 3d f6 2e 02 be 54 55 95 bd
       0.08273653 0.03668454 -0.12713227 -0.07291666
000180 c0 fd 62 3d 75 3c b7 3c 46 3a d9 bd 38 01 04 bd
       0.055417776 0.022367695 -0.10606818 -0.032227725
000190 02 85 c2 3d 5d 6e 9a 3d 2d 5b be bd d4 13 ee bc
       0.094980255 0.075405814 -0.09294734 -0.02906219
0001a0 94 da f0 bd 71 73 d9 ba c4 41 93 bd 2d 07 da bd
       -0.117604405 -0.001659019 -0.07190278 -0.106459
0001b0 4b ab 11 bc e5 07 98 3c dc 38 ca bc b0 db 85 3d
       -0.008890937 0.018558452 -0.024685316 0.06536043
0001c0 f2 a3 a9 bd 25 66 c4 3d 4b e7 9c 3d b9 da c7 bd
       -0.08283223 0.09589795 0.07661303 -0.09758515
0001d0 97 82 f4 bc 5b 26 93 bb 3e 9e 42 3d 4c bb 07 3c
       -0.029847426 -0.0044906563 0.047514193 0.008284401
0001e0 d4 45 2e 3d 34 b1 7e 39 5a 0b 52 bd c2 b0 34 3d
       0.042547062 0.00024289341 -0.051280357 0.044113882
0001f0 f4 e5 f7 bd f5 9d 52 bd d8 77 14 bd 3a a6 55 bd
       -0.12104407 -0.05142017 -0.036247104 -0.05216048
000200 9e 91 2b bd 0d 53 4f bd 2a ff c0 bc 69 02 cc 3b
       -0.04188692 -0.050616313 -0.023559172 0.0062258733
000210 18 4a b1 bd d7 f0 f2 bb a9 08 a4 3d 23 43 58 bc
       -0.086567104 -0.0074139643 0.08009464 -0.0131996
000220 06 bb 51 3b 42 0e 0e bc f2 1e af 3b 8a df 8b 3d
       0.0032002344 -0.0086703915 0.005344265 0.06829746
000230 14 cf 06 3e 2e b2 c6 3d d3 cf cd 3d ae 8b b4 3c
       0.13164932 0.09701954 0.10049405 0.02203926
000240 dd e9 b4 bd 73 a1 50 bd 94 e9 89 3d bc 5f f6 bb
       -0.088336684 -0.05093522 0.067340046 -0.0075187366
000250 d3 56 78 bd 19 53 b7 bd 83 52 00 be 07 36 d7 bd
       -0.060629677 -0.089513965 -0.12531476 -0.10508352
000260 da 6a ce bc 09 e8 79 3d eb 69 1b 3f bb 41 cd bd
       -0.025197435 0.0610123 0.60708493 -0.10022303
000270 43 a0 96 3d df a5 a3 bd f1 2c 5d bc 97 70 17 bd
       0.07354786 -0.07990622 -0.013499484 -0.03697261
000280 78 d7 4c 3c 1c 1a 11 bc 88 29 be bd a0 dc a4 bd
       0.012502544 -0.008856323 -0.09285265 -0.080498934
000290 fe 5e a5 bc 80 9d 14 3d dc 26 30 bd 23 c5 f4 3c
       -0.020186897 0.036283016 -0.04300581 0.029879158
0002a0 6f 5b bf bd 51 e7 fe 3a 4f df df 3d bb 5f 1e bd
       -0.093436114 0.00194476 0.109312646 -0.038665514
0002b0 13 96 e6 3d 7f b6 50 3d 15 cb be bd 84 45 8d 3d
       0.11259093 0.05095529 -0.093160786 0.06898025
0002c0 17 8a 62 bc ad dd 54 bd 13 29 cc 3d f7 80 94 bd
       -0.0138268685 -0.05196922 0.09968772 -0.072511606
0002d0 e4 67 53 3c eb e6 91 bc ea dc 98 3d 1e 82 62 3d
       0.012903187 -0.017810306 0.07464011 0.05529987
0002e0 27 75 88 3d 8c 57 45 3d 80 c0 e7 bc a2 63 23 bc
       0.0666297 0.048179194 -0.028290033 -0.009972485
0002f0 e0 36 c8 bd 3d 30 95 3d af d6 cc 3d 7b 86 b3 3d
       -0.097760916 0.07284591 0.10001885 0.087658845
000300 c1 cb 90 bd 0e f0 71 3c 73 8b ab bd b1 ea 36 bd
       -0.07070113 0.014766706 -0.08376207 -0.044657413
000310 c2 ed 7b bd a0 35 48 3d c6 eb 60 bd e8 cc d1 3b
       -0.06150604 0.048879266 -0.05491235 0.0064026006
000320 d7 3a bb 3b a5 03 4c 3d 70 f9 6d bd 49 75 4d bc
       0.0057138014 0.049808163 -0.05809921 -0.01254017
000330 37 c6 5e bd b4 69 9a 3d 1b ff fc bc 98 b3 dc 3d
       -0.05438825 0.075396925 -0.030883363 0.10776442
000340 68 1f 37 3d 3e b8 c0 3c 60 0e 0c 3c d8 6e 52 bc
       0.044707686 0.023525354 0.008548349 -0.01284381
000350 be 76 c4 3c 79 7a 9c bc 21 8d 40 bc 2a 2e 0f 3c
       0.023982402 -0.019101368 -0.011752398 0.008739034
000360 f5 dd 93 bd 53 1a 06 bd af af e6 3d b5 aa b2 bd
       -0.07220069 -0.03273995 0.11263978 -0.08723966
000370 22 41 bd bc 8f 07 0a 3e 39 38 ea 3d 07 fe d2 3b
       -0.023102347 0.13479446 0.11436505 0.006438974
000380 5d fd dc bd f4 cf a4 3d c0 d3 12 be 92 cb 08 bd
       -0.10790513 0.080474764 -0.14338589 -0.033397265
000390 0c 8e f8 bc 86 7c df bb 52 16 33 3c 50 f3 0f bc
       -0.03034117 -0.0068202643 0.010930615 -0.008786038
0003a0 6b 22 7f 3c 10 36 d9 3d b0 51 ce 3d ed 18 95 bd
       0.015572171 0.10606015 0.100741744 -0.07280145
0003b0 92 60 42 3d 70 c1 94 bd 37 3a 51 bd 27 d6 1c 3d
       0.047455378 -0.07263458 -0.05108091 0.03829017
0003c0 a0 9c 5a 3d 26 85 b7 3d 93 08 49 bd fe 91 59 3c
       0.053372025 0.08960943 -0.049080443 0.013279436
0003d0 31 63 68 3d 3d 07 d2 bd d6 2d af 3d e8 c0 bb bd
       0.05673522 -0.10255287 0.085536644 -0.09167653
0003e0 6b d2 a0 3b 52 6e 8f bc 66 54 70 bd 81 69 86 3c
       0.0049078963 -0.01750866 -0.05867424 0.01640773
0003f0 e4 83 b2 3d c0 82 c1 bc c6 c7 6e bd a7 e6 40 bd
       0.087165624 -0.023621917 -0.058295988 -0.047094967

net.0.bias f4 [128]
000000 3b df d4 bc 30 ee 43 bd 7d 43 8c bd 02 7b 18 3d
       -0.02598535 -0.047834575 -0.0684881 0.037226684
000010 ec dc 18 bd 81 70 64 bd d6 5d ef 3c 53 43 0e bd
       -0.037320063 -0.055771355 0.02921955 -0.034732174
000020 d0 27 9f 3c 59 af d5 bb af 0d 33 3d 60 f0 a3 3d
       0.019428164 -0.006521147 0.04371422 0.08004832
000030 75 1e cd bd 0c 8a 47 bd 9e d4 e4 3d f8 33 27 3c
       -0.10015575 -0.048715636 0.11173366 0.010205261
000040 bb dc ca bc 2f de b0 3d 38 cf ec 3d 4d 00 06 3d
       -0.024763456 0.08636128 0.11562961 0.03271513
000050 fa 07 a8 bd 8b 5a ec 3d 0a 7d d3 bd 46 fb de bd
       -0.082046464 0.11540707 -0.10326584 -0.1088777
000060 63 ad 68 3c 57 24 10 bd 83 08 e8 bd 72 5f b2 3d
       0.014201495 -0.035190906 -0.113297485 0.08709611
000070 10 73 b9 3c 29 b2 7b bd aa 25 1b 3d 52 ea a3 3d
       0.022637874 -0.061449204 0.037877716 0.080036774
000080 33 1f 78 bb a6 82 bd 3d 14 a6 84 3d 4c a8 1e 3d
       -0.0037860393 0.09253435 0.064769894 0.03873472
000090 04 4c 63 bd 05 9c b1 bd 19 12 c6 b9 b8 1c 11 bd
       -0.055492416 -0.086723365 -0.00037778987 -0.03542778
0000a0 60 31 e3 bd 5c da dc bd 54 69 75 bd 24 b6 6c 3c
       -0.11093402 -0.10783836 -0.0599149 0.014447723
0000b0 70 8a 27 bd 71 17 c4 bd 0c 1d a1 bc 82 8d 13 bd
       -0.04090351 -0.095747836 -0.019667171 -0.036023624
0000c0 85 e7 07 bd d4 23 9c 3d 22 1a 72 3d 9e e8 9d 3d
       -0.03317978 0.07624021 0.059106953 0.07710384
0000d0 c0 7b e6 3d fd 3b 4c 3b ac a0 79 bd fc bb 88 bc
       0.11254072 0.0031163685 -0.060944244 -0.0166912
0000e0 9b 86 c2 3c 15 24 1c bd 16 8d b6 3d f0 ca 60 3d
       0.023745826 -0.038120348 0.08913629 0.054881036
0000f0 fa 47 a9 bd 49 cf bb 3c 66 62 fe 3b 11 cf 3b 3d
       -0.082656816 0.02292599 0.007763195 0.04585177
000100 5a 53 73 bd d7 da d5 3d cd 0a 0e bd 4e 10 44 3d
       -0.059405662 0.10442131 -0.03467827 0.04786711
000110 bb bb 6e bd a1 0e 05 3d 5a 6f 0c bd 2d aa 66 bd
       -0.058284502 0.032484654 -0.03428588 -0.056314636
000120 64 9e c1 bd 5e 80 2c 3d 7c 98 b2 3c da ac 0d 3d
       -0.09454039 0.042114608 0.021801226 0.034588672
000130 b9 26 80 bd a1 b3 dc 3c 4b a5 51 bd 07 c3 f7 3c
       -0.06257386 0.026941122 -0.051183026 0.030244363
000140 26 e8 d9 3d 4d ac c4 bd 99 ff 34 3d 95 d3 a0 bd
       0.10639982 -0.09603176 0.04418907 -0.07852856
000150 00 6f 10 3d 70 ac cb bc bf b8 3c 3d 67 d9 aa bd
       0.035262108 -0.024862498 0.046074625 -0.083422475
000160 eb 32 9f 3d e3 0b 90 3d 36 36 98 bd ad 1e 92 bd
       0.07773384 0.07033517 -0.07432215 -0.07134757
000170 0d 85 95 3d cd 45 a8 bd 0a b4 35 3d df 53 3d bd
       0.07300768 -0.082164384 0.04436115 -0.046222564
000180 b7 4e cb bd 1e 06 f9 3c 55 a7 15 bd 23 d7 74 bd
       -0.09927123 0.030398425 -0.036536533 -0.059775483
000190 7e 40 27 3d 2f 2d 35 3d fa bd a7 3d 7a 7a e5 3d
       0.04083299 0.044232544 0.08190532 0.11205001
0001a0 2f 1a 2c 3d 84 e1 06 bd e3 0e 39 bc 05 53 ae 3d
       0.042017158 -0.032929912 -0.011295053 0.085119285
0001b0 6f 0c ca bd bc a2 b6 3d 3e 18 5a 3d 5e 5a 28 3d
       -0.09865653 0.08917758 0.053245775 0.041101806
0001c0 29 b4 18 3d 19 10 c5 bd dc 30 29 3d 0c c7 57 bc
       0.03728119 -0.09622211 0.04130636 -0.013170015
0001d0 ad a1 5e 3b 1b 46 6f bd 5c 09 a7 3d 24 ee 9b bc
       0.0033970878 -0.058416467 0.08156082 -0.019034453
0001e0 41 0c 1f bc f8 ca bc bd 93 85 be 3d d7 c9 dc bd
       -0.009707511 -0.09218401 0.09302821 -0.107806854
0001f0 36 c4 9f 3d 00 5c 43 3d 65 c7 87 3c 7e f7 e1 bd
       0.07801096 0.04769516 0.01657457 -0.110335335

net.2.weight f4 [128, 128]
000000 2d 16 ac bc 90 c3 0c bd ea 8f 08 bd 4a 5c a0 bb
       -0.021006668 -0.03436619 -0.033340372 -0.004893814
000010 d7 33 a8 bb 13 25 d6 bc d8 62 39 3d 57 a0 83 3d
       -0.005133133 -0.026140725 0.04526028 0.06427067
000020 17 87 9c bd 14 6c 61 3d 82 70 cb 3b c8 81 9a 3d
       -0.07642954 0.055034712 0.0062084803 0.07544285
000030 19 e0 9d bd af 73 57 bd d4 0d 91 bc 41 2e ef 3d
       -0.07708759 -0.05260056 -0.01770679 0.11678744
000040 37 8d 90 3d 63 e4 03 bc 4b db e6 bc 49 9f d5 bc
       0.070581846 -0.008050057 -0.028180739 -0.02607693
000050 c2 10 5a 3c 26 9c 30 bc 33 ec 09 bd cf ea 5a 3d
       0.013309659 -0.010779416 -0.033672523 0.053446587
000060 c1 3f 9b 3c 62 e9 77 3d 54 06 ce bc 1d 29 55 bd
       0.018951299 0.060525306 -0.025149502 -0.05204116
000070 18 cf 1d 3c 8c 23 1f 3c ff 5f 4f 3d 61 bb aa 3d
       0.0096318945 0.009713065 0.05062866 0.08336521
000080 aa 29 5f bd 6c 55 b1 3d 9d 82 5e 3d 0d 6b ba 3d
       -0.054483093 0.08658871 0.05432378 0.091024496
000090 72 84 18 3d 56 04 9e bc 1e 6a d6 bb 38 49 a1 3b
       0.037235685 -0.019289177 -0.006543412 0.0049220584
0000a0 7b d6 8e bd eb 1f 83 bc 49 f2 ac 3d f8 b8 73 3d
       -0.06974503 -0.01600643 0.0844465 0.05950257
0000b0 aa 42 95 3c 30 28 0c 3c c8 39 9c 3c 63 0d ca bc
       0.018220264 0.008554503 0.019070521 -0.024664586
0000c0 58 a1 14 bd f5 67 91 bb cd 8b ca bc bf 9f 06 bd
       -0.036286682 -0.0044374415 -0.024724865 -0.03286719
0000d0 c9 ec d5 bb 68 9f 48 3c 25 25 39 bd 80 fa b0 bc
       -0.006528471 0.012245037 -0.04520144 -0.021603823
0000e0 37 3b 2b bd 1c 48 b5 3b 24 f2 a0 bd 16 4c 9a 3d
       -0.04180452 0.0055322777 -0.07858685 0.075340435
0000f0 95 5d 41 bd eb df 85 3d ed b1 c8 bd f3 da f0 bc
       -0.047208387 0.065368496 -0.09799562 -0.029401278
000100 c4 41 07 bd 9e 43 32 bd ad a7 b5 bb 12 a3 82 bd
       -0.033021703 -0.043521516 -0.00554367 -0.063787594
000110 36 06 14 3d 77 69 9e 3d 2c 46 8c bd 44 d4 a5 3b
       0.036138736 0.077349596 -0.06849322 0.0050607044
000120 4a 42 79 bd 78 4b c7 3c 5b ed 6a bd e5 13 d0 3d
       -0.060854234 0.024327978 -0.057355266 0.101600446
000130 a0 25 a3 bb 5d 1f bc 3c 80 c9 be 3d d8 00 72 bd
       -0.0049788505 0.022964174 0.09315777 -0.059082836
000140 2f 95 3c bd a9 26 96 3b 5c 08 99 bd b2 65 a4 3c
       -0.04604071 0.0045822454 -0.074722975 0.020068023
000150 6d ac 98 bb 84 cc a9 bd ac dd ce bc d6 57 8e bd
       -0.0046592266 -0.082909614 -0.025252186 -0.06950347
000160 f2 17 ca 3c 3b bc a3 3d 69 a5 c0 3d 52 13 8e bd
       0.024669621 0.079948865 0.094065495 -0.06937279
000170 1e a2 2e 3d 49 e5 8a bc 29 85 31 3d 5c 12 3c 3d
       0.042635076 -0.016955035 0.043339882 0.045915946
000180 92 07 e5 bd a9 cc 5c bd b3 b3 6a bd 4e ce 6b bc
       -0.111830845 -0.053906117 -0.05730028 -0.014392449
000190 9b ab 30 3d 2e 75 2e bd 9f bb 02 3c 04 03 29 bd
       0.043132406 -0.04259222 0.007979303 -0.04126264
0001a0 f4 b8 c6 3d ba f7 a5 bd c1 bc 1b bd f5 f7 0d 3d
       0.09703246 -0.08103891 -0.038021807 0.0346603
0001b0 7e 40 92 bd 42 eb 77 3d 61 b0 a3 bd bf 2d c1 bc
       -0.07141207 0.060527094 -0.07992626 -0.023581384
0001c0 fa 41 df bc 5a 75 55 3c 6f 02 2c bd d5 ea 5a 3d
       -0.02725314 0.013028467 -0.04199451 0.05344661
0001d0 0e d3 79 bd 58 ac 1a bd 8e a7 b7 bb 87 03 ad bd
       -0.060992293 -0.037762016 -0.005604691 -0.084479384
0001e0 3e 7c b4 bd 15 ce 56 3d 08 cf e7 3d 17 c0 e9 bb
       -0.0881276 0.05244263 0.11318785 -0.0071334946
0001f0 ac 49 92 bc fb 47 1a 3d f3 62 58 3d 27 75 a2 bd
       -0.017857395 0.037666302 0.05282874 -0.07932501
000200 f3 9d 9b bc 30 4c cf 3d 24 98 5c 3d 43 eb 8a bd
       -0.018996214 0.101219535 0.05385603 -0.06783154
000210 8c c0 86 3c b5 dd 06 bd ac c3 cd bd f3 ab e8 bc
       0.016449235 -0.03292628 -0.10047087 -0.028402304
000220 40 b1 d6 3d c4 85 ef 3b 12 55 87 3d e8 99 97 bd
       0.104830265 0.0073096473 0.06608023 -0.07402402
000230 70 3f c7 bb 20 8c a8 3d 24 95 a2 bc 5c 1a 8c bc
       -0.0060805604 0.08229852 -0.019846506 -0.017102413
000240 c9 61 18 bd 22 45 80 bd 31 ad 51 bb 3d 08 1f bd
       -0.03720263 -0.06263186 -0.00319941 -0.038826216
000250 f3 20 3f bd fd 67 ab 3d 60 4a b0 3d 0c 9b 91 bd
       -0.046662282 0.083694436 0.08607936 -0.07109651
000260 51 49 5c b9 8a db bf 3c c5 1a 9f 3d 60 e3 9f bd
       -0.00021008147 0.023420114 0.07768778 -0.0780704
000270 c5 fd 52 bd 00 1c 4c 3d 1e 4f 34 bc 68 cf d3 bc
       -0.051511545 0.04983139 -0.011005191 -0.025855735
000280 75 9e 35 3c bb eb 3b 3d c6 d7 5e bd 16 c5 e1 3d
       0.011085142 0.045879107 -0.054404996 0.11023919
000290 c5 ec 5d 3d 96 36 4b 3b c7 cb 40 bd c4 52 95 3d
       0.05418088 0.0031007878 -0.047069337 0.07291177
0002a0 95 e2 64 3d 41 d2 8f bd 9c 1b a9 bd 3c 62 25 3d
       0.055880148 -0.070225246 -0.08257219 0.040376887
0002b0 91 8f 1e bd e2 d5 34 bd bf 46 8d 3d 16 db 1c 3c
       -0.038711134 -0.044149287 0.06898259 0.0095737185
0002c0 1c a9 a9 3d c3 26 12 3d 4a 0e c7 3d d9 56 a2 3d
       0.08284208 0.035681497 0.09719522 0.07926721
0002d0 9c 77 9c 3c 59 bf b4 3d 39 9b 6c bd a7 25 9b 3d
       0.019100003 0.08825559 -0.05776522 0.07575541
0002e0 05 f6 28 3b fd 63 cc 3d 45 74 1e bd ea ed 75 bd
       0.0025781405 0.09980009 -0.038685102 -0.060041346
0002f0 19 b7 83 3d ec 27 6d bd 02 dd 8f 3c 91 77 0a 3e
       0.064314075 -0.0578994 0.01756144 0.13522173
000300 2c 3e 32 3d 4d e7 6a bd d5 4b 47 bd 16 e5 3c bd
       0.043516323 -0.057349492 -0.048656303 -0.04611691
000310 83 50 94 bd a4 a2 80 3d 48 32 64 3d 34 6b 89 3d
       -0.07241919 0.06281021 0.055712014 0.067099005
000320 46 85 6f 3d 08 a2 96 3d 7d 05 fb bc 55 91 87 3d
       0.05847671 0.07355124 -0.030642265 0.06619517
000330 90 91 42 bc 1a d5 6c 3d ea 11 e2 3c 33 18 32 bc
       -0.011875525 0.057820417 0.027596433 -0.010870027
000340 73 b3 83 3d 9f 7f e0 3d 36 2d 67 3d 06 21 a6 3a
       0.064307116 0.10961842 0.0564396 0.0012674637
000350 a7 07 ed bc 1f 02 95 3d c9 9f c6 bc 2c 82 e1 3c
       -0.028934313 0.07275795 -0.024246113 0.027527891
000360 a4 47 e9 bc 51 46 0a 3d 1d 32 bf bc cf d6 98 3d
       -0.028476544 0.033758465 -0.023339326 0.074628465
000370 61 0f ba 3b 6d b1 85 3b 42 33 51 3d 0b 05 2d 3d
       0.005678103 0.0040799887 0.051074274 0.042241137
000380 68 9a 03 3d d3 f0 65 bd 90 2c 0d bb b9 5b c5 3d
       0.032129675 -0.05613787 -0.0021541454 0.09636635
000390 ad d5 b3 3d a2 87 bf bd f7 5e 42 bd 33 fc 06 3d
       0.0878099 -0.09352042 -0.047453847 0.03295536
0003a0 8f 5b bc bd 02 92 3f bd 99 02 6c bd 12 31 54 bd
       -0.09197151 -0.046770103 -0.057619665 -0.05180461
0003b0 4a 5d eb bc c2 25 d4 3d b6 b5 9f bd 5a 97 7b 3d
       -0.028731007 0.10358764 -0.077983305 0.061423637
0003c0 d5 4e 6e bd aa 9a ba bc 2e fd f1 bc e5 ca 56 3d
       -0.05818065 -0.022778828 -0.02953967 0.05243959
0003d0 5d e2 2e bd 85 9b 51 bc 0c 35 89 bd f4 e5 d4 bc
       -0.042696346 -0.012793426 -0.06699571 -0.025988556
0003e0 49 6b 2a 3d 7f 23 91 3d 3b e2 3b 3d b7 08 f6 3b
       0.04160622 0.070868485 0.045870047 0.007508363
0003f0 a0 d9 73 bd a7 32 25 3d 8e 36 67 3d bd 29 a2 3d
       -0.059533715 0.04033151 0.05644851 0.07918117

net.2.bias f4 [128]
000000 c3 3e a8 bc 6e d4 3d bd 07 ab 9a 3d 3c 4a 92 3d
       -0.02053774 -0.046345167 0.07552152 0.07143065
000010 44 1b ad 3c 7c 8c 4e bd ae 08 08 3d e7 bf 50 bd
       0.021131165 -0.050426945 0.033211403 -0.050964262
000020 07 8e 9a bd 46 7e ad 3d 78 a9 30 3d b6 72 df bc
       -0.07546621 0.0847135 0.043130368 -0.027276378
000030 96 1f 8d 3d 39 37 d9 3b 24 e6 fa 3c f1 63 a7 3b
       0.0689079 0.0066288975 0.030627318 0.0051083495
000040 78 46 96 3d 91 7b 82 3d bf ff 4a bb c0 8e 43 3d
       0.073376596 0.06371225 -0.003097519 0.04774356
000050 bb d2 20 3d 07 65 51 3d eb a2 49 bc 51 33 0a bd
       0.03926347 0.051121738 -0.012306909 -0.033740345
000060 f8 c4 99 3d be cc 66 3d 8d 85 aa bd 0f 7b ad 3c
       0.07508272 0.0563476 -0.08326254 0.021176843
000070 45 5d b6 3d 7d 88 67 3d 1b 07 5a 3d be cb 6d 3d
       0.089045085 0.05652665 0.053229433 0.05805563
000080 b3 49 9b bd 22 f1 54 bd e2 3d 97 3d fc ff eb 3c
       -0.075824164 -0.051987775 0.0738485 0.028808586
000090 24 64 d3 bc d8 12 af 3d e7 9e ab bc fc d3 84 3d
       -0.025804587 0.08548516 -0.020949794 0.06485745
0000a0 ee f8 b5 bb 3a a0 89 3d d8 0b 08 3d 5e 05 b8 bd
       -0.0055533564 0.06720014 0.03321442 -0.08985399
0000b0 50 24 21 3d f0 49 a2 bc 05 6b 03 3d 2b 9e f6 3c
       0.03934127 -0.019810647 0.032084484 0.030104717
0000c0 2e f9 26 3d 35 89 36 bd 72 45 83 3d 6a 6a 3a 3d
       0.04076498 -0.044564445 0.0640973 0.04551164
0000d0 5a e2 a5 bd 52 a1 bb 3d 0f f1 d8 3b 36 73 a0 3d
       -0.08099814 0.09161629 0.0066205333 0.07834475
0000e0 80 af 04 bd 79 4f 76 bd 73 82 30 3c 27 4f b0 3c
       -0.032393932 -0.060134385 0.010773289 0.021522118
0000f0 da 21 92 3c 9f f1 7e bb c5 12 76 bd 07 77 01 bc
       0.017838407 -0.0038901342 -0.060076494 -0.0079019135
000100 82 53 95 3d 0a d1 8c bd c9 f0 94 3d da 1e c2 3b
       0.072913185 -0.068758085 0.072724886 0.005924088
000110 ff 3a ee bc e6 b4 1a bd 71 1d 9c 3d d3 98 aa bd
       -0.029080866 -0.037770174 0.07622803 -0.0832993
000120 0a d2 8f bd fb af 90 bd 6b e3 95 bd 4e 76 07 3d
       -0.07022484 -0.070648156 -0.07318767 0.03307181
000130 7c aa 75 bd 3b 6b 7b 3c ed 21 5a 3d 85 50 89 bd
       -0.05997704 0.01534539 0.05325501 -0.06704811
000140 7e 79 6e 3d 37 d1 60 bc 3f 91 ae bd c9 56 28 3d
       0.058221333 -0.013721756 -0.08523797 0.04109839
000150 60 87 ab 3d da d0 91 bc 3e f7 25 3b f4 b8 67 3d
       0.0837543 -0.017799783 0.002532437 0.05657287
000160 28 25 02 bd 23 2d bd 3c 6b 4c 5a 3c 44 fb 63 3c
       -0.031773716 0.023092812 0.0133238835 0.013914887
000170 b6 8f d9 39 e4 48 70 bd 55 ee 51 bd 45 95 34 bc
       0.00041496538 -0.058663264 -0.05125268 -0.011021917
000180 23 7a 7a bd e1 4f 0a bd 18 6f 9b 3c 2c a2 c3 3b
       -0.061151635 -0.033767585 0.018973872 0.00597026
000190 1a c6 5a 3c 89 04 d6 bc ea 6c 14 3d ba 75 9a bd
       0.013352895 -0.02612521 0.03623668 -0.07541986
0001a0 bd e2 5c 3d fc 8d 99 3c f1 7c 65 3d 55 1c 27 3d
       0.053927172 0.018744461 0.056027357 0.040798504
0001b0 a7 a9 a7 3c 2e de 9d bc 89 16 be bb c9 71 14 3d
       0.020466639 -0.019270983 -0.0058010262 0.036241326
0001c0 ca a1 bb 3d b2 44 53 3d 30 36 16 3c bc cd 2b bd
       0.09161718 0.051579185 0.009168193 -0.04194425
0001d0 bb 34 32 3d 63 20 37 3d 54 31 6d 3d 40 14 73 3b
       0.04350732 0.04470862 0.05790837 0.0037090927
0001e0 87 33 b4 3d 34 0e 85 3d b3 2c ac bc 75 39 85 3d
       0.087988906 0.0649685 -0.021017408 0.065051
0001f0 ff 97 4e 3d 60 31 b0 bc e6 5f 4c 3d 06 8a a4 3d
       0.050437924 -0.021507919 0.049896143 0.080341384

net.4.weight f4 [15, 128]
000000 41 38 d4 3d 18 91 19 3b 7c 6c 5c 3c 57 b5 8c 3b
       0.10362292 0.002343243 0.013453599 0.0042940783
000010 c5 d9 ed 3c 9e 79 76 bd 5a fc a4 ba ad b3 4e 3d
       0.029034505 -0.060174577 -0.0012587414 0.05046432
000020 21 d2 84 3d 4b 37 0e 3b 73 14 2f bb af 16 b1 3d
       0.064853914 0.0021700438 -0.002671507 0.08646905
000030 4d 03 80 bd 80 eb 7e 3a 7a fa f8 bc c8 4f 10 3d
       -0.062506296 0.0009724423 -0.030392874 0.035232335
000040 53 34 30 bd cf b2 93 bd 2e 63 01 3d 76 6b 54 bc
       -0.04301865 -0.072118394 0.031588726 -0.012965074
000050 8c c7 70 3d 9a 25 98 3d ef 86 15 3d de 5e 7d 3c
       0.058784053 0.07429047 0.036505636 0.015464513
000060 50 93 2e 3d cc 00 91 3d 1f d1 e6 3d 9d 8d 5b bd
       0.042620957 0.0708023 0.112703554 -0.05360185
000070 d1 bb b1 3c 50 5c 0a bd 91 7a e7 3c 95 db c0 bc
       0.021696003 -0.033779442 0.028256686 -0.023542205
000080 31 19 9d bd 47 d1 9e bd 0a a5 86 bd e7 05 9e 3d
       -0.076708205 -0.0775476 -0.065744475 0.077159695
000090 cf 51 16 3c d9 d4 51 3d 46 8e 32 3d 68 00 2b 3d
       0.009174778 0.051228378 0.043592714 0.041748434
0000a0 3b a4 8d 3d 75 37 ba 3c d3 69 b3 3c b4 99 3b 3d
       0.0691609 0.022731522 0.021901047 0.04580088
0000b0 94 de 57 3d c5 89 bf 3c 51 9e b1 bd f0 db 3d bd
       0.0527025 0.023381123 -0.086727746 -0.046352327
0000c0 d5 57 70 3d 20 48 f3 3c 09 a4 ad bb e8 8d 85 bd
       0.058677513 0.029697478 -0.0052990955 -0.06521207
0000d0 df db bf 3c 94 cc ab 3d 23 ac 51 bd 8b 8e 15 3d
       0.023420272 0.083886296 -0.051189553 0.036512893
0000e0 f5 89 50 3c 3e 07 d0 bd 74 a4 ac 3d 37 90 96 bd
       0.012728204 -0.10157631 0.084298044 -0.073517255
0000f0 56 80 19 3d a4 ac 5c bc 40 ef 3f bd ef e6 20 bd
       0.037475906 -0.013468895 -0.046859026 -0.039282735
000100 17 bb 3a 3d c4 b2 7e 3b 03 a8 cb 3c fd 95 20 bb
       0.04558858 0.0038863877 0.024860388 -0.0024503462
000110 0c be d9 bc 0a 25 b4 bc c9 98 50 bd 2f 8e 8a 3d
       -0.02657988 -0.021990318 -0.050926957 0.067654006
000120 dc a2 47 3b 23 87 c8 bc b3 b0 aa 3d 91 14 83 3d
       0.0030462062 -0.0244785 0.08334484 0.06400407
000130 a5 e4 87 bd 7d 8d 13 bd 38 b6 88 3d a0 25 c0 bb
       -0.06635407 -0.036023606 0.066753805 -0.0058638602
000140 6d c0 24 bd d0 4d 9d 3d 9c c5 b6 3c a0 4c af 3d
       -0.040222574 0.07680857 0.022311024 0.08559537
000150 19 a1 43 3d 57 9e 71 3d 83 aa 58 3d f7 e4 e0 bc
       0.047761057 0.058988895 0.052896988 -0.027452929
000160 d1 56 9d 3d 37 53 ca 3d 34 49 78 bc 92 32 5c 3d
       0.076825745 0.09879153 -0.015154172 0.053759165
000170 8b 18 4d 3a cc 0a 35 3d bd 96 a9 bc 0e cb 27 3d
       0.00078237866 0.04419975 -0.02070176 0.040965132
000180 21 5a ec bc 2f e6 2c bd 2d 28 5c bd 66 03 85 3d
       -0.02885157 -0.042211708 -0.053749252 0.06494789
000190 1d 2e ac bd 42 04 b1 3d 5e 14 b8 3d 00 f8 3e bb
       -0.08407233 0.0864339 0.0898826 -0.0029139519
0001a0 d2 4b 96 3d 7c ad fc 3c 96 e2 9e 3d a6 d3 3e bc
       0.0733868 0.030844443 0.077580616 -0.011647141
0001b0 d0 db e0 3a 2a c0 96 bd 92 b4 46 3d 52 34 c6 3c
       0.0017155353 -0.07360871 0.04851205 0.02419487
0001c0 65 1e b1 3d cd 14 af 3d 84 80 d8 3c 36 32 f3 3c
       0.086483754 0.08548889 0.026428469 0.029687028
0001d0 cb e3 61 bc c2 a9 b4 3c 79 1b 03 3e 75 53 92 3d
       -0.01378722 0.022053603 0.12803449 0.071448244
0001e0 40 8a 97 3d 70 b5 44 bc db fc 18 3d c0 17 9a bd
       0.07399416 -0.012006149 0.037350517 -0.07524061
0001f0 24 6d eb 3c da fe 6e 3d 80 26 ef 3b d5 e4 9f 3d
       0.028738566 0.058348514 0.0072982907 0.07807318
000200 47 ea 0e bd 59 ac b0 3d 35 0c b1 bd 7e 31 4c 3d
       -0.034891393 0.08626623 -0.086449064 0.049851887
000210 d9 5e 81 3d c0 e1 b6 3c 6b 85 10 bd 18 a4 5b 3c
       0.06316919 0.022324443 -0.035283487 0.013405822
000220 0d 0e b7 3d 82 d4 c5 3d 11 6f 3d bd d6 29 8f bd
       0.08938227 0.09659673 -0.0462485 -0.069904014
000230 02 79 9f 3d 19 b0 12 3d 4a c3 c8 3d fb f5 1e bc
       0.07786752 0.03581247 0.098028734 -0.009702201
000240 95 c1 93 3d 70 5f aa bd df ca 74 bc 72 44 01 bd
       0.07214657 -0.083189845 -0.014940946 -0.031559415
000250 1a 17 7d bc 7e dd d8 bc c2 e9 26 bd 52 ae ba bb
       -0.015447402 -0.026472803 -0.040750273 -0.00569705
000260 5c 38 7b bd 2a 2a d8 bc 25 cd f1 3c 26 9d f4 bc
       -0.061333045 -0.026387293 0.029516766 -0.02986009
000270 f6 70 49 3d 45 2a 81 bd 40 de a5 3d 91 a7 90 bd
       0.049179994 -0.063068904 0.080990314 -0.07063211
000280 b1 4b 70 3d b4 fc 8b bd 90 7b 2d bd af 99 3b 3d
       0.058665935 -0.06835309 -0.042354167 0.04580086
000290 a8 d9 ba 3d 7a 8c a2 bd b4 b1 54 bd 16 14 29 3d
       0.09123546 -0.0793695 -0.051927283 0.04127892
0002a0 08 ee 1c bd 7c 22 ba 3c 5e 91 63 3d 2b 06 e7 3c
       -0.03831294 0.022721522 0.055558555 0.028201183
0002b0 2b b7 9c 3b b7 0c 41 3d fb 57 f3 3c 2a f7 86 3d
       0.0047825775 0.047131266 0.029705038 0.065901116
0002c0 76 bb 0b 3d 61 80 bd 3d b0 bb 9a 3d 29 3c 83 3b
       0.034114324 0.09253002 0.0755533 0.0040049744
0002d0 bb 17 60 3d 8a d2 80 3d 0c 8b 20 3d 04 32 40 bd
       0.05471013 0.06290157 0.039195105 -0.0469227
0002e0 64 9f 8e 3d 06 89 0d bc e4 b9 1c bd 23 29 1d bd
       0.06963995 -0.008638626 -0.038263217 -0.03836931
0002f0 0e d1 77 bc dd e1 80 bc d7 ec 30 bc 59 f1 cb bc
       -0.015125526 -0.0157327 -0.0107986545 -0.024895357
000300 49 74 72 3d 8d 80 5b bc 65 d2 a6 3c 78 0a 5a 3d
       0.05919293 -0.013397348 0.020363996 0.05323264
000310 b1 60 a4 3d 6c 2c f7 bd 97 b7 36 bc 36 50 a0 bd
       0.08026255 -0.1206902 -0.01115217 -0.07827799
000320 d5 fa bd bd 25 1a c5 3d 27 f8 8b 3d f8 a9 80 bd
       -0.09276358 0.09624127 0.06834441 -0.06282419
000330 26 5b 0a bd cc 1c ce 3d e9 f4 ee 3d ff 5b 9a 3d
       -0.033778332 0.10064086 0.11667807 0.07537078
000340 7c f0 84 3d 9d 7e 5c bd 16 d8 4a bd c1 60 a2 3d
       0.06491181 -0.053831685 -0.04952248 0.079286106
000350 32 6a 7e bd b2 dd a9 bb a6 47 9c bd 31 06 7f bd
       -0.062112994 -0.005183899 -0.07630853 -0.062261764
000360 02 d4 38 3d e8 1d 02 3d 2d 97 93 bc 7d b2 7d bd
       0.04512406 0.031766802 -0.018016422 -0.061937798
000370 09 bf c1 3d 88 c8 10 3e ee f2 36 3d 61 b9 a4 3d
       0.09460265 0.14138997 0.04466527 0.08043171
000380 8a 98 b9 bd 3a bd 04 bd 12 cd dd 3c 7c 6b 98 3d
       -0.09062298 -0.032407023 0.027075324 0.07442376
000390 80 f3 4a ba 2a d6 41 3d 45 55 ca bc 4a 45 1b bd
       -0.0007741973 0.047323383 -0.024698863 -0.037907876
0003a0 9b dd 37 3d 41 b4 6f bd 47 db 65 3c 25 6b c7 3d
       0.044889074 -0.058521513 0.014029331 0.09737233
0003b0 3f 0a 27 bd 76 af 8f bc fe a9 ff bc 31 76 83 bc
       -0.040781256 -0.017539721 -0.031208988 -0.016047569
0003c0 01 71 98 3d ca bd 2a 3d 65 62 16 3e a7 31 82 3c
       0.07443429 0.041684903 0.14685972 0.015892817
0003d0 8d 4b 32 3d 1c e1 cc 3c e4 17 e0 3a a8 5b ca bd
       0.043529082 0.025009684 0.0017096964 -0.09880763
0003e0 72 dd 7f 3d ce 8c 28 bd 27 3b 24 bd eb b3 cf b9
       0.062467046 -0.041149907 -0.040095475 -0.00039616166
0003f0 ff a0 a6 bd 36 95 66 3d f0 ab b7 3b 6e fe 04 bd
       -0.08136176 0.056294642 0.0056052133 -0.032469206

net.4.bias f4 [15]
000000 96 62 51 bd 8b 61 b5 3d f2 26 ae bc 59 1e 05 bd
       -0.05111941 0.088564955 -0.021258805 -0.032499645
000010 79 c3 cf 3b b8 8f 05 3d 05 79 80 3d de 51 4a bd
       0.006340441 0.032607764 0.06273083 -0.04939448
000020 fe a1 69 3d 6e a4 9c 3d de 3a ad 3c c0 77 94 3d
       0.057039253 0.0764855 0.021146234 0.07249403
000030 a6 8a b6 3c 21 98 4c 3d 4f f8 9a 3c
       0.02228291 0.04994977 0.01891723

net.0.weight f4 [128, 77]
000000 f0 20 86 3e 26 9b 72 3d dc bc d3 bd a9 ad 9b bd
       0.26197004 0.059229992 -0.103387564 -0.076014824
000010 61 fe 00 bd 45 ce aa 3c bf 61 80 3b d1 43 aa 3d
       -0.031492595 0.02085031 0.0039179022 0.08313716
000020 8e c3 e0 bb d5 79 ab 3d 8c 06 0d bd de d4 d5 bc
       -0.0068592494 0.08372847 -0.03443007 -0.02610248
000030 a4 b3 ce bd cf 54 be bd 76 b4 30 bd ec eb 5f bb
       -0.100928575 -0.0929352 -0.04314085 -0.003416772
000040 e2 ce 35 3d 0a 4c 87 3d 1a 99 a2 bd 1c 10 53 bd
       0.044386752 0.066063 -0.07939358 -0.051529035
000050 36 bf 21 3d ab 0f af 3d 78 b4 13 bd 5f d3 c0 3d
       0.039488994 0.0854791 -0.03606078 0.09415316
000060 30 b0 19 bd 2f 85 15 3d da 41 ae 3d 1e 87 cf bd
       -0.03752154 0.036503967 0.08508654 -0.101331934
000070 bf 1b f8 bc c5 18 e1 bc fd fb 9d bd 90 1a bc 3d
       -0.030286668 -0.027477631 -0.077140786 0.09184754
000080 09 c7 a9 bd c1 34 65 bd 82 9b b0 bd 42 4c d6 bd
       -0.08289916 -0.055958513 -0.08623411 -0.10463764
000090 6c 59 90 bd 95 de c3 3d 8e 7d 48 3d b2 70 5a 3d
       -0.07048306 0.095639385 0.048947863 0.05333013
0000a0 2c 7a 31 3b 5a e4 f8 bc a5 53 a6 3c cc b4 ff bd
       0.0027080877 -0.030382324 0.020303557 -0.12485656
0000b0 49 12 5e bd 16 24 82 bd fe d1 98 3d 62 d1 d5 3d
       -0.054216657 -0.06354539 0.07461928 0.10440327
0000c0 56 c5 92 bc 0c b1 39 bd 77 da 9b 3d 52 f0 d2 3d
       -0.017916363 -0.04533486 0.07610028 0.10299744
0000d0 96 b9 5c 3b 0c a0 91 3c 5a 2e 98 3d c3 ef 91 bd
       0.0033679954 0.017776512 0.07430716 -0.07125809
0000e0 c9 a7 94 3c 07 d9 b8 bd 91 a8 a5 bd 86 12 76 bd
       0.018146412 -0.0902577 -0.08088792 -0.06007626
0000f0 4f a4 c2 3d c6 27 47 3d 6e e4 c9 bd aa 36 6f 3d
       0.095039956 0.048621915 -0.09858023 0.05840174
000100 33 59 7d 3d 70 fe 53 bc a2 f1 dc 3d 42 c3 2d 3d
       0.061852645 -0.012939081 0.10788275 0.04242254
000110 2e f2 2e 3d 45 96 ee 3d 66 93 bd bd 78 0f a9 bd
       0.04271143 0.116497554 -0.0925663 -0.082549036
000120 fb 3e 19 3d 71 40 c0 3d ec 18 c7 3d bf f2 c9 3d
       0.03741358 0.09387291 0.0972155 0.09860753
000130 3b 33 aa 3c 6f b7 2c 3d 01 2c 0f 3c ac 3b bf bd
       0.020776382 0.042167123 0.008738519 -0.093375534
000140 4c 70 96 bd 35 1e c2 3d 98 fd ad 3d ad 3a 0c be
       -0.07345638 0.09478418 0.08495635 -0.13694258
000150 56 0e 86 3c 9b e8 eb bc 3a 2b 8c bb d3 8e f6 bc
       0.016364258 -0.028797438 -0.004277614 -0.0300974
000160 a1 c8 25 3d 3d a2 80 bd c1 ac 18 3d 3a 74 80 3d
       0.040474538 -0.062809445 0.037274126 0.062721685
000170 24 05 a9 3d 83 61 15 3d 4c 7e 02 be 0d bf 95 bd
       0.082529336 0.036469948 -0.12743491 -0.07311831
000180 78 ec 61 3d de 19 b5 3c 4a b3 da bd 49 60 05 bd
       0.055157155 0.022107061 -0.10678728 -0.032562528
000190 d2 17 c2 3d af e5 99 3d 64 64 be bd 31 8b ef bc
       0.094771996 0.07514512 -0.09296492 -0.029241176
0001a0 41 36 f1 bd ce 5e fd ba 91 e5 93 bd f5 93 db bd
       -0.11777926 -0.0019330622 -0.07221521 -0.1072158
0001b0 42 0b 14 bc 45 f0 94 3c f3 48 ce bc 63 63 85 3d
       -0.009035887 0.018180976 -0.02518127 0.06513097
0001c0 73 da a9 bd b2 db c3 3d a9 5e 9c 3d 5b 63 c8 bd
       -0.08293619 0.09563388 0.076352425 -0.097845756
0001d0 2e a5 f6 bc 0e 27 a7 bb 36 29 40 3d c5 b1 04 3c
       -0.03010806 -0.005101091 0.0469143 0.008099024
0001e0 2f 33 2d 3d 87 37 08 39 d4 05 53 bd 86 df 33 3d
       0.04228514 0.00012990656 -0.05151923 0.04391434
0001f0 81 72 f8 bd 86 51 53 bd 3e a0 15 bd 20 69 56 bd
       -0.12131215 -0.05159142 -0.036529772 -0.05234635
000200 43 b7 2c bd b3 25 50 bd 5f d7 c2 bc 2a 5f cb 3b
       -0.04216696 -0.050817203 -0.023784338 0.006206413
000210 a8 cb b1 bd 0f 7b fb bb 07 80 a3 3d 47 88 5c bc
       -0.086814225 -0.007674582 0.07983404 -0.013460225
000220 6c c9 3a 3b 3b bf 15 bc 25 47 a9 3b d4 52 8b 3d
       0.0028501404 -0.009139831 0.005165952 0.068029076
000230 a5 ae 05 3e e9 46 c5 3d 51 ce cc 3d 44 b7 b0 3c
       0.13054903 0.09632666 0.10000289 0.021571763
000240 2d a4 b5 bd f2 e2 52 bd 0d 5e 89 3d 41 8a 00 bc
       -0.08869205 -0.051485963 0.06707392 -0.007845462
000250 37 2c 78 bd a1 b8 b7 bd 57 40 00 be 1e be d7 bd
       -0.06058904 -0.08970762 -0.12524544 -0.10534309
000260 eb 8a d0 bc c1 d6 78 3d 13 39 19 3f 63 2c cc bd
       -0.025456866 0.06075168 0.59852713 -0.099694036
000270 5e 27 97 3d a1 83 a0 bd 93 b1 4c bc 63 a1 15 bd
       0.073805556 -0.07837606 -0.012493509 -0.036530863
000280 cc d8 2a 3c e5 1f 07 bc 0e a9 bc bd 52 97 a4 bd
       0.010427665 -0.00824735 -0.09211932 -0.080366746
000290 c9 ee a8 bc 6b 46 16 3d 98 23 2e bd 13 4c fb 3c
       -0.020621674 0.03668825 -0.042514414 0.030675923
0002a0 b8 52 be bd 58 5b 1c 3b 67 98 e0 3d c4 0a 1c bd
       -0.09293121 0.0023858156 0.109665684 -0.038096204
0002b0 6b ab e7 3d 39 e1 52 3d bd b5 bd bd d6 fd 8d 3d
       0.11311992 0.05148432 -0.092631795 0.06933181
0002c0 63 14 46 bc f0 30 50 bd e2 02 cd 3d b7 8f 98 bd
       -0.0120898215 -0.05082792 0.100103155 -0.074492864
0002d0 5f 9f 5e 3c 20 cb 8b bc 4f 34 99 3d 81 6c 62 3d
       0.013587802 -0.017064631 0.0748068 0.05527926
0002e0 ff 88 88 3d a7 24 48 3d 6a 35 e0 bc f5 0c 20 bc
       0.06666755 0.04886308 -0.02736922 -0.009768714
0002f0 9d fe c6 bd cc b5 95 3d 50 f7 cd 3d d3 9b b4 3d
       -0.097165324 0.073100656 0.10056937 0.088187836
000300 69 b6 8f bd da 9a 7a 3c a9 6a ac bd 8f 97 36 bd
       -0.07017214 0.015295709 -0.08418781 -0.04457813
000310 ae 0d 79 bd 2a 30 4a 3d 06 75 60 bd 24 5f 02 3c
       -0.06080406 0.04936234 -0.054799102 0.007957254
000320 7f d5 d7 3b a3 f7 4e 3d d2 fa 6e bd 3e ad 53 bc
       0.00658673 0.050529134 -0.05834467 -0.012919722
000330 f1 18 5d bd 2d 45 9d 3d 42 12 f7 bc d9 16 dd 3d
       -0.053978864 0.0767921 -0.030160073 0.107953735
000340 07 e0 39 3d 35 9e c5 3c 1b d5 14 3c 0c c4 49 bc
       0.045379665 0.02412329 0.009084011 -0.012314808
000350 20 cc c8 3c 79 39 9c bc 82 5d 21 bc 1c 19 19 3c
       0.024511397 -0.019070374 -0.009848954 0.009344365
000360 40 12 93 bd 80 c1 08 bd 1d f8 e7 3d 2f 12 b1 bd
       -0.07181215 -0.03338766 0.11326621 -0.08646046
000370 58 f1 af bc b1 35 0a 3e fa 36 eb 3d 8c 4b ef 3b
       -0.021477386 0.13497044 0.11485095 0.007302707
000380 9f e5 da bd 65 59 a5 3d 87 46 12 be 1c 90 05 bd
       -0.10688328 0.08073691 -0.14284717 -0.032608137
000390 5c 4e f3 bc 49 26 ce bb 1e c1 3b 3c 99 c0 f9 bb
       -0.02970045 -0.006291185 0.011459617 -0.0076218364
0003a0 5e 3f 76 3c 63 31 d8 3d d5 07 cc 3d 4d 3e 95 bd
       0.015029756 0.10556295 0.09962431 -0.072872736
0003b0 8c 3f 42 3d b6 17 95 bd 17 26 55 bd 98 47 16 3d
       0.047423884 -0.07279913 -0.05203828 0.03668937
0003c0 91 7a 55 3d a7 62 b7 3d 1e b8 48 bd 71 bc 42 3c
       0.05211884 0.08954363 -0.049003713 0.011885748
0003d0 ea 8d 66 3d 89 da d2 bd 39 92 ae 3d ec 7e bc bd
       0.056287684 -0.102955885 0.085239835 -0.09203896
0003e0 56 e4 8b 3b 57 af 93 bc 2c 8d 72 bd fc f7 81 3c
       0.004269163 -0.018027944 -0.059216663 0.015865318
0003f0 63 36 b3 3d c1 f5 c9 bc dd 70 70 bd 9e 0b 42 bd
       0.08750608 -0.024653317 -0.058701385 -0.04737436

net.0.bias f4 [128]
000000 f4 aa d2 bc 78 ff 44 bd 25 2e 8b bd 3c 42 16 3d
       -0.025716282 -0.048095196 -0.06795911 0.03668426
000010 fe 47 18 bd 61 b7 64 bd 19 10 e9 3c cf 50 0f bd
       -0.037178032 -0.055838946 0.028450059 -0.034989174
000020 6f 03 99 3c 89 c6 c0 bb fc 74 2c 3d 37 1f a4 3d
       0.018678395 -0.0058830422 0.042103752 0.08013766
000030 75 1e cd bd 7a 58 48 bd 9e d4 e4 3d 90 83 40 3c
       -0.10015575 -0.048912503 0.11173366 0.011750117
000040 a7 57 c9 bc fb 33 b1 3d 0d b7 eb 3d 59 23 06 3d
       -0.024577929 0.086524926 0.115095235 0.032748554
000050 5e 50 a9 bd 89 21 ed 3d e1 d4 d2 bd 1a 4b e1 bd
       -0.08267282 0.11578662 -0.1029451 -0.110006526
000060 93 f6 51 3c 1a 95 0c bd aa be e7 bd 3b 07 b1 3d
       0.0128151355 -0.03432188 -0.11315663 0.08643957
000070 38 15 b6 3c 4e f7 7a bd 89 b2 1d 3d 52 ea a3 3d
       0.022226915 -0.061271004 0.038500343 0.080036774
000080 ba 04 5d bb 7c b0 bc 3d c1 9a 84 3d c3 1a 1e 3d
       -0.003372474 0.09213349 0.064748295 0.03859974
000090 61 e7 62 bd d6 9f b0 bd 9f 29 a4 39 85 21 13 bd
       -0.05539644 -0.08624236 0.00031311528 -0.03592064
0000a0 78 0f e3 bd 70 af db bd 06 65 75 bd e0 a6 6c 3c
       -0.11086935 -0.107268214 -0.059910797 0.014444083
0000b0 1f ae 29 bd 71 17 c4 bd 0c 1d a1 bc cd f6 11 bd
       -0.04142582 -0.095747836 -0.019667171 -0.03563576
0000c0 6c f3 07 bd bd 5f 9c 3d e2 46 71 3d ae 76 9f 3d
       -0.03319113 0.07635448 0.05890549 0.07786308
0000d0 8d 7f e7 3d bd 17 71 3b eb 02 75 bd fc bb 88 bc
       0.11303625 0.003678783 -0.059817236 -0.0166912
0000e0 d2 f6 c6 3c 37 e4 1b bd 2d 5e b7 3d f0 ca 60 3d
       0.024287615 -0.03805944 0.089535095 0.054881036
0000f0 fa 47 a9 bd f2 69 c1 3c cb eb 01 3c 28 b9 3b 3d
       -0.082656816 0.023610089 0.007929753 0.045830876
000100 ad 2a 77 bd 6c 01 d6 3d 4a d0 0a bd fe 47 43 3d
       -0.060343433 0.1044949 -0.033890046 0.04767608
000110 9e f3 6d bd 2b d2 04 3d f2 74 0a bd 32 6b 67 bd
       -0.05809366 0.032426994 -0.033802934 -0.056498714
000120 7d 59 c3 bd 3c b7 2a 3d fe 3e b1 3c e9 7d 0d 3d
       -0.09538553 0.041678652 0.021636482 0.034543905
000130 b9 26 80 bd b5 fd dd 3c 7e 13 4c bd ea 51 f2 3c
       -0.06257386 0.027098516 -0.049823277 0.029580075
000140 26 e8 d9 3d f7 a8 c4 bd 49 1b 32 3d f8 6f a0 bd
       0.10639982 -0.0960254 0.043483052 -0.07833856
000150 94 26 11 3d 70 ac cb bc 03 67 3d 3d 28 ae aa bd
       0.03543718 -0.024862498 0.046240818 -0.08333999
000160 32 71 9e 3d 28 54 8f 3d 27 c3 95 bd 70 23 93 bd
       0.07736434 0.069984734 -0.07312613 -0.071844935
000170 27 7c 95 3d d2 d3 a8 bd 02 2f 37 3d 8f a7 35 bd
       0.07299071 -0.082435265 0.044722565 -0.04434925
000180 a5 30 cc bd 5a a3 fd 3c 97 28 17 bd f4 63 77 bd
       -0.09970216 0.030961681 -0.036903944 -0.060398057
000190 ac f3 26 3d 8e 46 33 3d 5d 46 a8 3d 59 5d e4 3d
       0.040759727 0.043768458 0.08216546 0.11150617
0001a0 2f af 2b 3d 84 e1 06 bd 90 3a 52 bc ad 47 b0 3d
       0.041915115 -0.032929912 -0.012831345 0.08607421
0001b0 9b 52 c9 bd 59 b6 b6 3d 83 2f 5a 3d 63 fe 28 3d
       -0.09830209 0.08921499 0.053267967 0.041258227
0001c0 8e 84 17 3d 2d 3e c4 bd dc 30 29 3d b8 a9 60 bc
       0.03699165 -0.095821716 0.04130636 -0.013712339
0001d0 35 a4 4a 3b 42 85 6d bd 2f dc a5 3d 24 ee 9b bc
       0.003092063 -0.057988413 0.08098637 -0.019034453
0001e0 14 3e 21 bc c7 f0 bc bd d2 f9 bc 3d b8 04 dc bd
       -0.009841461 -0.09225612 0.09227337 -0.107430875
0001f0 c1 f8 9e 3d 54 56 44 3d 21 1c 89 3c 7e f7 e1 bd
       0.0776229 0.04793389 0.016737046 -0.110335335

net.2.weight f4 [128, 128]
000000 30 5d a9 bc 76 90 0e bd 23 a8 09 bd 86 2c 9e bb
       -0.020674318 -0.034805737 -0.033607613 -0.004827085
000010 da 87 95 bb 78 31 d1 bc 66 5c 39 3d c4 0e 87 3d
       -0.004563314 -0.025536284 0.045254134 0.06594613
000020 eb 61 98 bd f3 3e 70 3d 79 df e4 3b 6e e7 9b 3d
       -0.07440551 0.058653783 0.006984648 0.07612501
000030 19 e0 9d bd e6 49 4d bd d4 0d 91 bc 7f 49 ee 3d
       -0.07708759 -0.050119303 -0.01770679 0.11635112
000040 31 28 92 3d 9d 5c ef bb b2 78 eb bc 21 09 cc bc
       0.07136572 -0.0073047415 -0.028744075 -0.024906697
000050 e0 06 3c 3c 76 54 11 bc 28 c6 09 bd 00 ab 59 3d
       0.0114762485 -0.008870235 -0.033636242 0.053141594
000060 b7 22 8d 3c d5 36 79 3d fc cd cb bc 40 74 52 bd
       0.017228467 0.060843308 -0.024878494 -0.051380396
000070 86 26 42 3c 63 6d 3e 3c 68 49 4f 3d 61 bb aa 3d
       0.011850005 0.0116227595 0.050607115 0.08336521
000080 30 20 5f bd 04 c9 af 3d 09 45 5f 3d c2 f3 b8 3d
       -0.054474056 0.085832626 0.054509196 0.09030868
000090 d9 44 1d 3d c8 77 ae bc 29 41 9c bb a4 4c cc 3b
       0.038395736 -0.02129735 -0.00476851 0.006234722
0000a0 de 71 8a bd ec 92 7e bc f6 1d ad 3d 31 0f 74 3d
       -0.0676 -0.015537959 0.0845298 0.0595848
0000b0 75 c5 90 3c 30 28 0c 3c c8 39 9c 3c 0f 8e d7 bc
       0.01767228 0.008554503 0.019070521 -0.026312856
0000c0 a1 d6 13 bd a6 c8 72 bb e5 e3 be bc bb 46 10 bd
       -0.036093358 -0.0037045865 -0.023302028 -0.035223704
0000d0 29 46 b9 bb fb 43 5f 3c a2 f8 2d bd 80 fa b0 bc
       -0.0056541157 0.013627048 -0.042473443 -0.021603823
0000e0 89 92 28 bd 2e c1 cb 3b 4d 96 9e bd 16 4c 9a 3d
       -0.04115537 0.006218097 -0.07743511 0.075340435
0000f0 95 5d 41 bd 33 86 84 3d 28 33 c9 bd f9 22 f3 bc
       -0.047208387 0.06470909 -0.098242104 -0.029679762
000100 d4 c1 07 bd 6b 76 32 bd 13 ef 77 bb ea d7 7d bd
       -0.033143833 -0.043569963 -0.0037831708 -0.06197349
000110 f1 bc 1c 3d 97 60 a0 3d 19 c8 86 bd 2b bf d2 3b
       0.038266126 0.07830923 -0.06581134 0.0064314804
000120 c4 a8 77 bd ac 8a c9 3c c4 ad 6d bd e7 00 d2 3d
       -0.06046368 0.024602257 -0.058027044 0.10254078
000130 a0 25 a3 bb f2 49 c9 3c db 29 c0 3d 0b 89 69 bd
       -0.0049788505 0.024571393 0.09382983 -0.05701546
000140 2f 95 3c bd e2 4a ce 3b 0a e8 98 bd bf b0 a1 3c
       -0.04604071 0.006295548 -0.07466133 0.0197376
000150 be 99 7b bb 84 cc a9 bd e6 24 c5 bc b5 39 90 bd
       -0.0038391198 -0.082909614 -0.024065446 -0.07042257
000160 92 34 cb 3c c7 4b a2 3d 7a ea c3 3d 5a a6 8a bd
       0.02480534 0.0792461 0.09566207 -0.0677001
000170 f1 c5 31 3d 0a 50 95 bc 9a 79 34 3d c7 a7 38 3d
       0.043401662 -0.018226642 0.04406128 0.04508188
000180 1f 99 e4 bd bf ad 55 bd e6 93 6f bd 6f 18 5e bc
       -0.11162018 -0.05216765 -0.058490656 -0.01355563
000190 05 c7 30 3d 26 07 2c bd 5a dc 19 3c 51 06 22 bd
       0.04315855 -0.041999005 0.009390915 -0.039556805
0001a0 31 78 c6 3d ba f7 a5 bd 7c b0 1d bd a8 37 0d 3d
       0.096908934 -0.08103891 -0.038498387 0.034476906
0001b0 35 60 8f bd 78 73 76 3d 30 b0 a1 bd b2 b8 bc bc
       -0.07000772 0.060168713 -0.07894933 -0.023037288
0001c0 b2 8f d8 bc 2e e5 71 3c 6f 02 2c bd 19 2c 61 3d
       -0.026435707 0.014764113 -0.04199451 0.054973695
0001d0 5e 59 79 bd e2 82 16 bd d0 ec de bb 87 03 ad bd
       -0.060876243 -0.036745913 -0.0068031326 -0.084479384
0001e0 4a 23 b2 bd b3 43 58 3d 1a 6b e9 3d 98 67 a3 bb
       -0.08698137 0.052798938 0.11397381 -0.0049867146
0001f0 1f 0e 91 bc 2b 41 1d 3d 7d f6 5c 3d 27 75 a2 bd
       -0.017706929 0.038392227 0.053946007 -0.07932501
000200 80 c7 90 bc 3f 2c ce 3d 46 51 5d 3d 45 cd 89 bd
       -0.017673254 0.10067033 0.054032587 -0.06728605
000210 64 c7 82 3c 8a 17 09 bd 64 34 cd bd ba 4d e2 bc
       0.015964217 -0.033469714 -0.10019758 -0.027624954
000220 89 98 d3 3d f5 92 cd 3b f1 ec 87 3d 56 4a 98 bd
       0.10331828 0.006273622 0.0663699 -0.074360535
000230 70 3f c7 bb 8b de a6 3d 24 95 a2 bc 12 ac 91 bc
       -0.0060805604 0.081479155 -0.019846506 -0.017782245
000240 f7 c0 18 bd f6 e0 80 bd b9 17 e2 ba df 05 21 bd
       -0.0372934 -0.06292908 -0.0017249502 -0.03931224
000250 06 13 3e bd fb 9a aa 3d 3f ca b2 3d 41 d6 91 bd
       -0.04640486 0.083303414 0.08729982 -0.07120944
000260 63 cc 94 b9 28 3a bf 3c e8 a8 9e 3d 99 0a a2 bd
       -0.0002838104 0.02334316 0.0774706 -0.079121776
000270 0b 9b 4e bd 99 cf 4c 3d fc 85 3a bc 68 cf d3 bc
       -0.05044083 0.050002668 -0.011384483 -0.025855735
000280 a0 86 32 3c e0 96 3c 3d b5 5d 60 bd 9c 72 e0 3d
       0.010896355 0.046042323 -0.054776866 0.1095936
000290 35 c2 5a 3d 10 0e 56 3b 3a a9 40 bd 02 c2 94 3d
       0.053407867 0.003266219 -0.047036387 0.072635666
0002a0 77 f2 63 3d 1f 67 90 bd ca d2 a8 bd 5c 9a 25 3d
       0.055651154 -0.07050919 -0.0824333 0.04043041
0002b0 a2 f9 22 bd e2 d5 34 bd bf 46 8d 3d 9a 42 2a 3c
       -0.03978885 -0.044149287 0.06898259 0.010391856
0002c0 68 b1 a9 3d cf 91 12 3d 2c 43 c6 3d 21 9c a1 3d
       0.08285791 0.035783585 0.09680781 0.07891107
0002d0 18 6b 98 3c ef 15 b5 3d 06 fe 71 bd a7 25 9b 3d
       0.018605754 0.08842074 -0.059080146 0.07575541
0002e0 d1 47 fe 3a 2d 43 cc 3d 0c cb 1f bd ea ed 75 bd
       0.0019400065 0.0997375 -0.039012 -0.060041346
0002f0 19 b7 83 3d b9 55 70 bd df 5a 89 3c 96 51 08 3e
       0.064314075 -0.0586755 0.016766964 0.13312373
000300 02 c7 2e 3d e3 2f 6b bd 69 14 48 bd 40 a4 40 bd
       0.042670257 -0.057418715 -0.04884759 -0.04703164
000310 bd 9f 92 bd 59 bf 80 3d 48 ee 6c 3d cd 89 88 3d
       -0.07159374 0.06286497 0.05784443 0.066669084
000320 22 f2 69 3d 16 cf 91 3d 7c 04 f1 bc 9d b8 87 3d
       0.05711568 0.07119577 -0.029421084 0.06627009
000330 90 91 42 bc f6 12 6c 3d ad 6b e1 3c fb 44 31 bc
       -0.011875525 0.05763527 0.027517164 -0.010819669
000340 73 b3 83 3d f7 0b e0 3d 34 24 66 3d 82 e5 91 3a
       0.064307116 0.10939782 0.05618687 0.0011131021
000350 ed 34 ff bc 1f 02 95 3d 0c e1 c8 bc 83 00 de 3c
       -0.031153167 0.07275795 -0.024521373 0.027099853
000360 ed fe ee bc 7f 35 04 3d 49 3e bf bc d1 12 98 3d
       -0.029174292 0.03227758 -0.02334513 0.07425464
000370 a5 c7 c5 3b 12 ea 15 3b 70 70 4f 3d e1 d8 2e 3d
       0.0060357624 0.0022875112 0.050644338 0.0426873
000380 4f 4f 00 3d b8 21 67 bd c9 2b 6f bb 90 e7 c3 3d
       0.031325635 -0.05642864 -0.0036494604 0.095656514
000390 d1 22 b4 3d 90 e9 be bd cd d6 40 bd 51 25 03 3d
       0.08795703 -0.09321892 -0.04707985 0.03201801
0003a0 57 be bf bd 02 92 3f bd a5 f3 6f bd ed 2d 51 bd
       -0.09362476 -0.046770103 -0.058581967 -0.05106919
0003b0 31 75 ec bc 6b 7c d2 3d ec 76 a0 bd 3a f8 77 3d
       -0.028864475 0.10277637 -0.078351825 0.06053946
0003c0 f3 95 6f bd 00 84 b1 bc 2e fd f1 bc 1e c4 55 3d
       -0.058492612 -0.021669388 -0.02953967 0.052188985
0003d0 b0 da 2c bd d1 99 5b bc 41 7c 8c bd f4 e5 d4 bc
       -0.042200744 -0.013403372 -0.06859637 -0.025988556
0003e0 d4 85 27 3d 85 fd 8f 3d 5e 78 3a 3d b0 a5 07 3c
       0.040899113 0.07030777 0.045524947 0.008279249
0003f0 21 70 76 bd 8e 58 24 3d b6 4c 66 3d bd 29 a2 3d
       -0.06016553 0.040123515 0.0562255 0.07918117

net.2.bias f4 [128]
000000 5a 14 9f bc 96 17 3f bd 83 92 9b 3d 78 8f 92 3d
       -0.019418884 -0.046653353 0.07596304 0.07156271
000010 ee e0 a5 3c 9a 88 50 bd bf df 04 3d 14 9a 50 bd
       0.020248856 -0.050911523 0.032439943 -0.05092819
000020 ea c7 9a bd ff 92 ad 3d 03 b6 2f 3d b6 72 df bc
       -0.07557662 0.08475303 0.04289819 -0.027276378
000030 5e 0d 8d 3d e8 e2 d3 3b 68 bd f2 3c 81 63 a0 3b
       0.06887315 0.0064662583 0.029631332 0.0048946743
000040 04 a0 94 3d c9 32 83 3d bf ff 4a bb dc e2 42 3d
       0.07257083 0.06406171 -0.003097519 0.04757963
000050 45 c0 21 3d 43 b4 4f 3d 36 1e 49 bc 7f 05 0a bd
       0.039490003 0.05070902 -0.012275269 -0.033696648
000060 85 3e 99 3d a2 24 67 3d 20 20 ab bd f7 5e b4 3c
       0.07482628 0.05643142 -0.08355737 0.022017939
000070 df 1a b6 3d 23 13 6b 3d 1b 07 5a 3d 35 1a 6a 3d
       0.08891844 0.057391297 0.053229433 0.0571539
000080 ae 9d 9c bd f3 66 54 bd bc bc 97 3d 0f d9 ec 3c
       -0.076472625 -0.051855993 0.07409045 0.028912095
000090 e5 ca d6 bc 8a df ae 3d 0f 94 ac bc 64 f0 84 3d
       -0.026219795 0.085387304 -0.021066694 0.064911634
0000a0 d9 4b a4 bb 96 32 89 3d 69 91 06 3d 00 9b b1 bd
       -0.0050139246 0.066991016 0.032853518 -0.08672142
0000b0 31 4d 23 3d 55 71 9f bc 62 b0 03 3d 39 f6 f9 3c
       0.039868537 -0.01946322 0.032150634 0.030512916
0000c0 c9 ce 24 3d a1 56 35 bd e8 d6 82 3d a3 64 39 3d
       0.04023627 -0.04427207 0.06388646 0.04526199
0000d0 2e dd a4 bd d9 5d bb 3d cd aa f1 3b b7 33 9d 3d
       -0.08049999 0.091487594 0.0073750974 0.076758794
0000e0 25 39 04 bd c7 bb 7a bd ee 33 2b 3c 7a 63 b3 3c
       -0.03228106 -0.061214235 0.010449393 0.02189802
0000f0 d0 d6 90 3c 4b 83 81 bb aa e3 77 bd 19 82 ed bb
       0.017680556 -0.003952419 -0.06051985 -0.007248175
000100 71 8f 95 3d f7 6e 8d bd b6 75 95 3d d8 6c cc 3b
       0.0730275 -0.069059305 0.07297842 0.006238561
000110 ac 75 ed bc 2c 14 16 bd b0 ab 9c 3d a5 39 ab bd
       -0.028986774 -0.03664033 0.07649934 -0.08360604
000120 33 ce 8f bd ac 54 92 bd 6b e3 95 bd 4e 76 07 3d
       -0.07021751 -0.07145056 -0.07318767 0.03307181
000130 7c aa 75 bd c6 fe 79 3c 17 aa 58 3d 85 50 89 bd
       -0.05997704 0.015258497 0.052896585 -0.06704811
000140 61 d0 6e 3d 48 28 60 bc 3f 91 ae bd b0 86 27 3d
       0.058304194 -0.013681479 -0.08523797 0.040899932
000150 45 78 ac 3d 6f f8 8a bc 9c 4a 34 3b 83 c4 6a 3d
       0.08421377 -0.016964165 0.002751029 0.057316314
000160 bc 1f 0a bd fb 55 ba 3c d4 0e 63 3c 1f eb 65 3c
       -0.03372167 0.022746077 0.013858516 0.014033108
000170 26 05 b6 3a 30 f1 72 bd fe 79 55 bd cf 1c 3a bc
       0.0013887032 -0.059312046 -0.052118294 -0.011359408
000180 90 d3 79 bd 77 77 0b bd 0d 2f a7 3c 8c 16 e0 3b
       -0.060992777 -0.034049477 0.020408178 0.0068386253
000190 1a c6 5a 3c 2f 08 dc bc 9d ba 14 3d c0 06 9b bd
       0.013352895 -0.026859371 0.03631078 -0.07569647
0001a0 4a ed 5a 3d 84 d2 94 3c 3a 3c 63 3d f9 59 24 3d
       0.053448953 0.018166788 0.05547736 0.040124867
0001b0 b7 59 ad 3c d5 13 9f bc 3a b1 c1 bb 92 85 16 3d
       0.021160943 -0.019418636 -0.0059110196 0.036748476
0001c0 4c 16 bb 3d c7 2a 52 3d 5e 4c 0f 3c b2 fd 2a bd
       0.09135112 0.051310327 0.008746235 -0.04174585
0001d0 a7 15 2f 3d 63 20 37 3d b6 85 6b 3d 00 52 7a 3b
       0.04274526 0.04470862 0.057500564 0.0038195848
0001e0 e1 e4 b3 3d 39 15 86 3d a7 eb ab bc 62 57 86 3d
       0.087838896 0.06547017 -0.020986391 0.06559636
0001f0 02 1b 4f 3d 60 31 b0 bc f2 ac 4b 3d b1 6f a4 3d
       0.050562866 -0.021507919 0.04972548 0.08029116
