ddqn_out_softmax/dqn_ep1150.pt (torch, 464501 bytes, 24 tensors)

net.0.weight f4 [128, 77]
0.55477524 0.05742325 -0.07422721 -0.07633454 -0.042010307 0.03259554 -0.003206909 0.11195347
-0.046764452 0.088441685 -0.016531914 -0.024078235 -0.15630072 -0.07270259 -0.05269662 0.007186246
0.04006248 0.06407431 -0.08104277 -0.05333578 0.03768225 0.0912674 -0.040210832 0.08515468
-0.025448412 0.032496165 0.11994306 -0.15165909 -0.043116875 -0.015337694 -0.05496594 0.03714366
-0.08149156 -0.08787564 -0.074282266 -0.10103602 -0.07433021 0.094250314 0.04714112 0.051523387
0.01256212 -0.05637658 0.012820735 -0.13365224 -0.039210953 -0.033411365 0.021550078 0.1096025
-0.03670617 -0.017451681 0.049051013 0.1064742 -0.0034149997 0.012430415 0.075926885 -0.0740376
0.017565656 -0.09206424 -0.08269448 -0.07014073 0.043665938 0.05108441 -0.11489328 0.07107125
0.08367658 -0.08561344 0.12720287 0.036896992 0.016732486 0.04022402 -0.081903264 -0.10110078
0.042636167 0.092062406 0.09482345 0.09620881 0.018969616 0.47773004 0.014501294 -0.10459204
-0.02395087 0.096429706 0.09578382 -0.12547795 0.03427884 -0.026329849 0.00023823287 -0.03242728
0.08144664 -0.06286951 0.06509536 0.056235753 0.08661395 0.039000582 -0.11619933 -0.06990824
0.060919933 0.027869904 -0.13880412 -0.019109355 0.11363676 0.07891869 -0.046750177 -0.022591515
-0.11744968 0.037273094 -0.06305006 -0.090672925 -0.0077066207 0.022027534 0.002772772 0.07205026
-0.067882195 0.10060379 0.08211481 -0.09208337 -0.02434521 -0.042103928 0.011286747 0.0060831564
0.036794707 0.05719289 -0.050876662 0.045909613 -0.083722875 -0.01341851 -0.06718454 -0.040553197
-0.034832515 -0.081721395 -0.011260156 0.009303601 -0.07631671 -0.0011850258 0.08559642 -0.0076973997
-0.0017431485 -0.006091252 0.003105625 0.051458333 0.15628994 0.061195213 0.09868138 0.13165638
-0.024938267 -0.08901101 0.07630296 0.018061515 -0.08014462 -0.09110365 -0.1262525 -0.09909136
-0.018375978 0.06651426 0.061087303 -0.113581344 0.06741243 -0.09104339 -0.026393756 -0.04960645
-0.025396021 -0.02574673 -0.10503851 -0.10110392 -0.021135915 -0.0013788604 -0.054545417 0.039121985
-0.10365834 -0.011365079 0.09654502 -0.050157767 0.09923262 0.037597094 -0.106519096 0.068428434
-0.0141632175 -0.05227979 0.08745482 -0.09297377 0.008836891 -0.026635809 0.07867466 0.02839689
0.05205256 0.037470218 -0.030788768 -0.02484939 -0.09754274 0.058074716 0.08680808 0.074300535
-0.08405945 0.0014084276 -0.0823834 -0.06453734 -0.06783329 0.035271306 -0.06879338 -0.0058779567
0.0020180687 0.07070184 -0.08954442 -0.080941364 -0.068948515 0.076380745 -0.043657295 0.09249451
0.03753485 0.010756179 -0.004522523 -0.02620208 0.01062402 -0.028071057 -0.002805551 0.010866388
-0.09281468 -0.060613114 0.08863078 -0.09526032 -0.010889211 0.10933488 0.03916688 0.00045053216
-0.10211234 0.05300812 -0.08461734 -0.034949385 -0.041909795 -0.020550301 -0.0024276662 0.8481257
0.01668071 0.10593086 0.06901651 -0.059320316 0.053012602 -0.041812256 -0.034255307 0.04673591
0.044396706 0.10063423 0.0012575114 0.022022836 0.045493178 -0.115710996 0.069253415 -0.09531681
0.00064892956 -0.015621542 -0.057565637 0.017516334 0.09288212 -0.02405548 -0.07991668 -0.03092664
00000000: c005 0e3f a434 6b3d 6f04 98bd 4955 9cbd
00000010: 0013 2cbd e782 053d 012b 52bb dc47 e53d
00000020: 158c 3fbd ea20 b53d f06d 87bc b83f c5bc
00000030: 4c0d 20be 18e5 94bd 69d8 57bd 9a7a eb3b
00000040: 8e18 243d 6439 833d c0f9 a5bd 9e76 5abd
00000050: b458 1a3d 67ea ba3d 1db4 24bd 9465 ae3d
00000060: 3079 d0bc b31a 053d b5a4 f53d 854c 1bbe
00000070: 529b 30bd f44a 7bbc f723 61bd f323 183d
00000080: 0ce5 a6bd 25f8 b3bd 4d21 98bd f9eb cebd
00000090: 703a 98bd 4f06 c13d 0c17 413d 300a 533d
000000a0: 5ad1 4d3c 21eb 66bd 0f0e 523c 22dc 08be
000000b0: aa9b 20bd 5bda 08bd ca89 b03c 4777 e03d
000000c0: 3559 16bd d4f6 8ebc b7e9 483d 250f da3d
000000d0: 30ce 5fbb f0a8 4b3c 8e7f 9b3d 06a1 97bd
000000e0: dae5 8f3c 2d8c bcbd b95b a9bd f1a5 8fbd
000000f0: 0edb 323d e33d 513d 2b4d ebbd ce8d 913d
00000100: a05e ab3d 1956 afbd 7841 023e 4d21 173d
00000110: 9112 893c f1c1 243d e6bc a7bd ed0d cfbd
00000120: 43a3 2e3d 378b bc3d cc32 c23d 2009 c53d
00000130: 2b66 9b3c 0899 f43e d696 6d3c 5a34 d6bd
00000140: 9d34 c4bc f07c c53d 4f2a c43d 4b7d 00be
00000150: f867 0c3d b2b1 d7bc 26ce 7939 78d2 04bd
00000160: 7fcd a63d bbc1 80bd b750 853d 7657 663d
00000170: a862 b13d 13bf 1f3d eaf9 edbd 0d2c 8fbd
00000180: 2e87 793d 6d4f e43c ab22 0ebe 398b 9cbc
00000190: 64ba e83d 1fa0 a13d 1d7d 3fbd d711 b9bc
000001a0: 7589 f0bd acab 183d 6420 81bd bab2 b9bd
000001b0: d287 fcbb 1673 b43c 65b7 353b 168f 933d
000001c0: d205 8bbd 5c09 ce3d cf2b a83d 3596 bcbd
000001d0: 9b6f c7bc 2b75 2cbd 0cec 383c 3755 c73b
000001e0: 0cb6 163d 1843 6a3d 0c64 50bd b80b 3c3d
000001f0: e676 abbd 4fd9 5bbc 0c98 89bd 1c1b 26bd
00000200: 8aac 0ebd 8c5d a7bd 847c 38bc 226e 183c
00000210: ef4b 9cbd de52 9bba 2d4d af3d 783a fcbb
00000220: 5c7a e4ba 2099 c7bb be87 4b3b f9c5 523d
00000230: 780a 203e d5a7 7a3d 7719 ca3d eed0 063e
00000240: 564b ccbc 684b b6bd ba44 9c3d bef5 933c
00000250: dd22 a4bd 8d94 babd 5648 01be 69f0 cabd
00000260: 3889 96bc a138 883d ae36 7a3d 569d e8bd
00000270: 870f 8a3d f574 babd b837 d8bc 2230 4bbd
00000280: 510b d0bc ceea d2bc 6e1e d7bd 920f cfbd
00000290: 3a25 adbc e1ba b4ba 046b 5fbd 603e 203d
000002a0: d34a d4bd 9934 3abc 65b9 c53d 3b72 4dbd
000002b0: 793a cb3d 69ff 193d af26 dabd 3524 8c3d
000002c0: d70c 68bc 5523 56bd 831b b33d 0869 bebd
000002d0: 9bc8 103c 5733 dabc 2e20 a13d 98a0 e83c
000002e0: 1135 553d 5f7a 193d ba38 fcbc f390 cbbc
000002f0: 7dc4 c7bd c1df 6d3d 6fc8 b13d e12a 983d
00000300: 5c27 acbd fd9a b83a a1b8 a8bd 272c 84bd
00000310: 2eec 8abd a578 103d 8be3 8cbd e09b c0bb
00000320: 9341 043b 20cc 903d 1163 b7bd 96c4 a5bd
00000330: e134 8dbd 826d 9c3d fed1 32bd c36d bd3d
00000340: 25be 193d af3a 303c ac31 94bb bfa5 d6bc
00000350: 5f10 2e3c 46f5 e5bc 56dd 37bb ef08 323c
00000360: 9f15 bebd 7545 78bd 0e84 b53d d817 c3bd
00000370: a968 32bc f7ea df3d 736d 203d 6735 ec39
00000380: 4620 d1bd 0b1f 593d db4b adbd 1627 0fbd
00000390: 9ba9 2bbd 1b59 a8bc 7b19 1fbb c41e 593f
000003a0: fca5 883c 47f2 d83d 8758 8d3d dcf9 72bd
000003b0: be23 593d 5443 2bbd 4b4f 0cbd 276e 3f3d
000003c0: 52d9 353d 5219 ce3d 15d3 a43a 3c69 b43c
000003d0: 0e57 3a3d e3f9 ecbd bcd4 8d3d 7635 c3bd
000003e0: ed1c 2a3a 7ff1 7fbc f2c9 6bbd 6a7e 8f3c
000003f0: fb38 be3d ff0f c5bc 5bab a3bd dd59 fdbc

net.0.bias f4 [128]
-0.027523046 -0.042332422 -0.08184641 0.038335297 -0.038054936 -0.056298986 0.02903011 -0.035673317
0.01856652 -0.0061968365 0.040411208 0.08085142 -0.10015575 -0.050768103 0.11173366 0.008406869
-0.025672948 0.0894379 0.09926376 0.03211086 -0.09182074 0.11359929 -0.10881727 -0.12517959
0.013005017 -0.029723698 -0.11141169 0.09413753 0.017491838 -0.061607134 0.04268146 0.082971275
-0.012080371 0.09297322 0.06272974 0.036159627 -0.052910257 -0.086714305 -0.0037259888 -0.032832388
-0.112684675 -0.105742395 -0.064167276 0.013155758 -0.03892717 -0.095747836 -0.019667171 -0.03641481
-0.031685155 0.07483315 0.061467193 0.07586377 0.11708098 -0.0027993561 -0.05013182 0.0015298191
0.021977795 -0.038719703 0.08704412 0.059864566 -0.085576 0.024443727 -0.002129167 0.04729041
-0.06123991 0.100539945 -0.033455476 0.046865776 -0.05431544 0.037485026 -0.030461822 -0.050443713
-0.09685606 0.039868794 0.028612616 0.037450995 -0.045048337 0.023453604 -0.054188162 0.030109147
0.10639982 -0.09676242 0.05122326 -0.077831835 0.035962813 -0.024862498 0.052627265 -0.08132143
0.07999089 0.073033065 -0.07658643 -0.070635475 0.07103242 -0.076939024 0.04561834 -0.058178987
-0.099717386 0.027595555 -0.035017725 -0.056835208 0.04011369 0.044010606 0.0794337 0.111067295
0.051198535 -0.032929912 0.0029288186 0.08652918 -0.09761333 0.08975462 0.057491686 0.036408152
0.036276046 -0.09999044 0.03812446 -0.011109656 0.0056769103 -0.063723296 0.08802727 -0.019034453
-0.011679422 -0.09106383 0.099902965 -0.10759177 0.0749555 0.042518497 0.013910501 -0.110335335
00000000: 0378 e1bc c364 2dbd 179f a7bd 7905 1d3d
00000010: 7edf 1bbd c499 66bd 8ed0 ed3c 2f1e 12bd
00000020: d118 983c d50e cbbb 3986 253d 6e95 a53d
00000030: 751e cdbd 37f2 4fbd 9ed4 e43d f7bc 093c
00000040: 1350 d2bc 382b b73d cc4a cb3d ad86 033d
00000050: 830c bcbd bfa6 e83d 97db debd 142f 00be
00000060: ff12 553c 1d7f f3bc d02b e4bd 2dcb c03d
00000070: 0b4b 8f3c c357 7cbd c1d2 2e3d d8ec a93d
00000080: c0ec 45bc be68 be3d 7378 803d 1e1c 143d
00000090: 6db8 58bd 4597 b1bd b82f 74bb 417b 06bd
000000a0: 39c7 e6bd 788f d8bd 226a 83bd 408b 573c
000000b0: 1972 1fbd 7117 c4bd 0c1d a1bc b227 15bd
000000c0: 4bc8 01bd 1f42 993d 06c5 7b3d 775e 9b3d
000000d0: 27c8 ef3d 6775 37bb 0657 4dbd 3684 c83a
000000e0: c70a b43c 8d98 1ebd 3044 b23d 8c34 753d
000000f0: 7842 afbd 363e c83c 7f89 0bbb 97b3 413d
00000100: b3d6 7abd e3e7 cd3d 9c08 09bd 54f6 3f3d
00000110: de79 5ebd e689 193d 128b f9bc 119e 4ebd
00000120: 785c c6bd 764d 233d 0165 ea3c 3766 193d
00000130: 9b84 38bd c621 c03c 68f4 5dbd 75a7 f63c
00000140: 26e8 d93d 602b c6bd 7bcf 513d 4c66 9fbd
00000150: be4d 133d 70ac cbbc b08f 573d da8b a6bd
00000160: 44d2 a33d 5c92 953d 59d9 9cbd 55a9 90bd
00000170: 7279 913d 3592 9dbd 4cda 3a3d 174d 6ebd
00000180: a138 ccbd 1310 e23c bf6e 0fbd 09cc 68bd
00000190: 414e 243d 7744 343d 23ae a23d 4077 e33d
000001a0: 8eb5 513d 84e1 06bd 6cf1 3f3b 3636 b13d
000001b0: 7fe9 c7bd 45d1 b73d 677c 6b3d b720 153d
000001c0: 3196 143d cac7 ccbd 6528 1c3d 4605 36bc
000001d0: 6005 ba3b 5c81 82bd a447 b43d 24ee 9bbc
000001e0: 0c5b 3fbc ac7f babd ed99 cc3d 1359 dcbd
000001f0: 4582 993d e027 2e3d dfe8 633c 7ef7 e1bd

net.2.weight f4 [128, 128]
-0.023590479 -0.025096022 -0.06546874 -0.021798715 -0.012123642 -0.051162813 0.06151657 0.09774565
-0.065096736 0.05319395 0.014724667 0.07228447 -0.07708759 -0.03151929 -0.01770679 0.079543166
0.09039606 -0.010259651 -0.05448438 -0.046603303 0.010870852 0.03243817 -0.025450349 0.024905205
-0.022092188 0.0996082 -0.023555761 -0.044067528 0.035915587 0.011340168 0.051074143 0.08628831
-0.03559627 0.097585276 0.05829179 0.060749598 0.037667148 -0.021272887 0.018011335 0.0080919955
-0.045138553 -0.013412766 0.10243157 0.03313547 0.036129434 0.008554503 0.019070521 -0.05067619
0.0116590215 -0.0070465263 -0.025713494 -0.058773797 -0.006271326 0.012703039 -0.012221638 -0.03123458
-0.034080353 0.007299336 -0.062267467 0.072043605 -0.047208387 0.041527227 -0.07780047 -0.0034288256
-0.03220903 -0.06949207 0.024554012 -0.06692043 0.0401539 0.06553316 0.009760572 0.03589706
-0.041354317 0.037085336 -0.10310758 0.09443907 0.00084823574 0.029704398 0.07897801 -0.07042333
-0.04604071 0.012924844 -0.07989646 0.015004546 0.0071944003 -0.082909614 -0.017232245 -0.063105285
0.00058076746 0.084658414 0.08462091 -0.08083318 0.015240967 -0.0816195 0.03195066 0.04865288
-0.099316314 -0.036646955 -0.07461236 -0.0061920444 0.048660483 -0.060083725 -0.0053865868 -0.028838957
0.085886694 -0.08103891 -0.043199703 0.0035333503 -0.05856619 0.07678127 -0.075702734 -0.021582106
-0.028753726 0.021864885 -0.04199451 0.0762179 -0.08328152 -0.049240444 -0.033286132 -0.084479384
-0.08590889 0.027240435 0.09423218 -0.0021489873 -0.032529853 0.03914433 0.07524236 -0.07932501
-0.009919267 0.11692316 0.039341472 -0.084148325 0.014981827 -0.018035665 -0.11113129 -0.01661798
0.11450123 -0.063297205 0.08603909 -0.054214302 -0.0060805604 0.13904901 -0.019846506 -0.052633937
-0.046409126 -0.059048954 0.028359652 -0.03752129 -0.054658394 0.0959152 0.08111465 -0.02814
-0.03351495 -0.023865787 0.0507756 0.01237106 0.00046794763 0.069741525 -0.008352794 -0.025855735
0.04527154 0.06972309 -0.0749642 0.07865237 0.07988651 -0.04921005 -0.07092078 0.055430662
-0.044375416 -0.11056374 -0.036295302 -0.039977886 -0.013333249 -0.044149287 0.06898259 0.0742783
0.051991597 0.05435018 0.10745223 0.08325722 0.02698329 0.08373014 0.12052787 0.12619917
-0.028893577 0.09410957 -0.042395473 -0.060041346 0.06648103 -0.14093527 0.038203888 0.15217729
0.05973735 -0.058762968 -0.03142189 -0.006155902 -0.0674586 0.049737565 0.059027255 0.042350367
0.010982109 0.08928495 0.0648949 0.06579481 -0.002542277 0.04604221 0.025953481 0.030735655
0.064307116 0.09807766 0.10137585 -0.09117348 -0.003777528 0.07275795 -0.026400018 0.047538493
-0.102568336 0.04414548 -0.0352863 0.06925349 -0.025836084 0.05990502 0.064190865 -0.0037443491
-0.013083522 -0.033548184 0.01484705 0.10538019 0.16811065 -0.086279415 -0.051319048 0.06829481
-0.012418573 -0.046770103 -0.11316399 -0.075058535 -0.034118008 0.114654504 -0.058193564 0.05217527
-0.05671016 0.008287172 -0.031123664 0.06956399 -0.034362014 -0.060555387 -0.019577697 -0.025988556
0.05288885 0.12450765 0.044468235 0.013905412 -0.04143863 0.032360196 0.032033168 0.07918117
00000000: d240 c1bc 2c96 cdbc 7a14 86bd 3893 b2bc
00000010: 3da2 46bc 1990 51bd cdf8 7b3d df2e c83d
00000020: 7051 85bd e6e1 593d bb3f 713c e109 943d
00000030: 19e0 9dbd 5f1a 01bd d40d 91bc 87e7 a23d
00000040: 9221 b93d 1818 28bc 032b 5fbd 1be3 3ebd
00000050: a81b 323c e3dd 043d 407d d0bc 0006 cc3c
00000060: adfa b4bc 62ff cb3d 03f8 c0bc 2780 34bd
00000070: 391c 133d 1dcc 393c 1f33 513d edb7 b03d
00000080: 65cd 11bd cada c73d 5fc3 6e3d 92d4 783d
00000090: de48 1a3d 7a44 aebc 828c 933c 4a94 043c
000000a0: 34e3 38bd 38c1 5bbc a5c7 d13d 0fb9 073d
000000b0: 75fc 133d 3028 0c3c c839 9c3c d691 4fbd
000000c0: 7b05 3f3c 8ce6 e6bb 1ba5 d2bc cbbc 70bd
000000d0: b27f cdbb 6820 503c 443d 48bc a9df ffbc
000000e0: d797 0bbd 452f ef3b 2c0c 7fbd 998b 933d
000000f0: 955d 41bd 7418 2a3d da55 9fbd 26b6 60bb
00000100: 9eed 03bd dc51 8ebd 7f25 c93c 940d 89bd
00000110: 6a78 243d 4036 863d ceea 1f3c cc08 133d
00000120: 2563 29bd cbe6 173d 112a d3bd 4569 c13d
00000130: 235c 5e3a a356 f33c 39bf a13d 1b3a 90bd
00000140: 2f95 3cbd bac2 533c c1a0 a3bd a1d5 753c
00000150: 01bf eb3b 84cc a9bd a32a 8dbc 583d 81bd
00000160: a53e 183a 6461 ad3d ba4d ad3d de8b a5bd
00000170: 40b5 793c 2028 a7bd b2de 023d 3e48 473d
00000180: 5a66 cbbd 1e1b 16bd 5dce 98bd a2e6 cabb
00000190: 3750 473d 5a1a 76bd f781 b0bb ad3f ecbc
000001a0: 5de5 af3d baf7 a5bd 2cf2 30bd c88f 673b
000001b0: 1ae3 6fbd 803f 9d3d 090a 9bbd f5cc b0bc
000001c0: ef8c ebbc fd1d b33c 6f02 2cbd 2118 9c3d
000001d0: 808f aabd 59b0 49bd 0a57 08bd 8703 adbd
000001e0: 00f1 afbd 5527 df3c cdfc c03d 06d6 0cbb
000001f0: 063e 05bd ce55 203d ab18 9a3d 2775 a2bd
00000200: 6c84 22bc 6975 ef3d 8624 213d f555 acbd
00000210: 5676 753c 88bf 93bc cd98 e3bd 6e22 88bc
00000220: 9f7f ea3d f7a1 81bd 4335 b03d d10f 5ebd
00000230: 703f c7bb dd62 0e3e 2495 a2bc af96 57bd
00000240: 7f17 3ebd 51dd 71bd 8052 e83c edaf 19bd
00000250: 7be1 5fbd 306f c43d 701f a63d db85 e6bc
00000260: f946 09bd 2f82 c3bc 13fa 4f3d fdaf 4a3c
00000270: de56 f539 a5d4 8e3d 28da 08bc 68cf d3bc
00000280: a66e 393d fbca 8e3d d586 99bd 7e14 a13d
00000290: 8a9b a33d 7a90 49bd ea3e 91bd 430b 633d
000002a0: ffc2 35bd 3e6f e2bd 62aa 14bd dabf 23bd
000002b0: b373 5abc e2d5 34bd bf46 8d3d 391f 983d
000002c0: 24f5 543d 4b9e 5e3d ea0f dc3d c382 aa3d
000002d0: 100c dd3c b57a ab3d 51d7 f63d 5b3a 013e
000002e0: 39b2 ecbc 85bc c03d e0a6 2dbd eaed 75bd
000002f0: 3527 883d 5651 10be ae7b 1c3d 5dd4 1b3e
00000300: 27af 743d 70b1 70bd 3db4 00bd 73b7 c9bb
00000310: bc27 8abd 9eb9 4b3d 90c6 713d 9477 2d3d
00000320: 4eee 333c 07db b63d 9ee7 843d 6ebf 863d
00000330: 559c 26bb c296 3c3d 659c d43c 57c9 fb3c
00000340: 73b3 833d f1dc c83d 249e cf3d 29b9 babd
00000350: 6790 77bb 1f02 953d da44 d8bc b9b7 423d
00000360: 590f d2bd e4d1 343d 5e88 10bd c6d4 8d3d
00000370: 32a6 d3bc f75e 753d 8076 833d c163 75bb
00000380: 455c 56bc d269 09bd 0b41 733c 92d1 d73d
00000390: 3325 2c3e 43b3 b0bd ec33 52bd 26de 8b3d
000003a0: 4577 4bbc 0292 3fbd 86c2 e7bd 4ab8 99bd
000003b0: 53bf 0bbd fbcf ea3d 605c 6ebd bcb5 553d
000003c0: ea48 68bd ebc6 073c 0ef7 febc 9177 8e3d
000003d0: 2fbf 0cbd ed08 78bd 6861 a0bc f4e5 d4bc
000003e0: fba1 583d defd fe3d 5324 363d 86d3 633c
000003f0: 8ebb 29bd 208c 043d 3635 033d bd29 a23d

net.2.bias f4 [128]
-0.022733193 -0.04075802 0.07875723 0.070009395 0.01752561 -0.048410308 0.03612048 -0.05024453
-0.07553805 0.07882239 0.043521255 -0.01859222 0.070530325 0.0037620326 0.028711919 0.01728501
0.07182107 0.06647899 -0.0034543585 0.047629982 0.03290478 0.048801042 -0.010902035 -0.035106633
0.07157707 0.058032982 -0.08662097 0.027231123 0.083580494 0.058034554 0.04779036 0.059807543
-0.07408916 -0.05030687 0.07248665 0.011002939 -0.031517394 0.0822207 -0.014421049 0.06815835
-0.011103394 0.06023753 0.026193239 -0.06824601 0.043481626 -0.014675789 0.033429906 0.032360364
0.042123437 -0.037540033 0.06528593 0.043648884 -0.08353415 0.07250837 0.007068945 0.08349008
-0.022661276 -0.07296762 0.0037514265 0.018322673 0.017247932 -0.0042079943 -0.052676525 -0.00891862
0.06772765 -0.065549806 0.08117659 0.005733922 -0.029096281 -0.03947155 0.07701078 -0.07741382
-0.06503711 -0.076864704 -0.07318767 0.03307181 -0.047086004 0.016624205 0.051149193 -0.067236416
0.060770646 -0.0136581855 -0.08523797 0.042248186 0.09059312 -0.013423175 -5.5645916e-05 0.055736635
-0.03143719 0.036271513 0.009835961 0.026997108 -0.00035314378 -0.0710239 -0.050255682 -0.009214545
-0.050141934 -0.03561181 0.020007532 0.005083836 0.015552196 -0.025783729 0.034540955 -0.07808585
0.053612426 0.016935492 0.054558784 0.052084617 0.019571112 -0.0009341903 -0.006175878 0.037602764
0.09224114 0.052836575 -0.0010086437 -0.039038114 0.038749475 0.048989672 0.06621561 0.003192725
0.09181011 0.05966535 -0.019352412 0.06722673 0.047382437 -0.021507919 0.052389987 0.08584436
00000000: f63a babc e2f1 26bd 784b a13d 1661 8f3d
00000010: de91 8f3c e349 46bd 12f3 133d 35cd 4dbd
00000020: b1b3 9abd a26d a13d 5843 323d b64e 98bc
00000030: 3472 903d 6f8c 763b 4235 eb3c 4b99 8d3c
00000040: ed16 933d 2326 883d 8562 62bb a817 433d
00000050: 2ac7 063d 9ae3 473d 739e 32bc f9cb 0fbd
00000060: 0097 923d feb3 6d3d 5666 b1bd ce13 df3c
00000070: 402c ab3d a4b5 6d3d d3bf 433d c1f8 743d
00000080: 0fbc 97bd 940e 4ebd e173 943d ac45 343c
00000090: 6218 01bd 5463 a83d 4346 6cbc 9b96 8b3d
000000a0: 03eb 35bc a1bb 763d 3493 d63c 90c4 8bbd
000000b0: ca19 323d b872 70bc cced 083d 4d8c 043d
000000c0: a089 2c3d 94c3 19bd a1b4 853d 2cc9 323d
000000d0: f413 abbd 457f 943d 9ca2 e73b d9fc aa3d
000000e0: 24a4 b9bc 0c70 95bd 7eda 753b 6e19 963c
000000f0: 894b 8d3c 37e3 89bb 57c3 57bd 671f 12bc
00000100: cbb4 8a3d fa3e 86bd e93f a63d a0e3 bb3b
00000110: 535b eebc ecac 21bd d4b7 9d3d 238b 9ebd
00000120: 2d32 85bd 3e6b 9dbd 6be3 95bd 4e76 073d
00000130: 41dd 40bd 7c2f 883c d181 513d 3fb3 89bd
00000140: a4ea 783d 95c6 5fbc 3f91 aebd 6f0c 2d3d
00000150: e388 b93d e0ec 5bbc 5965 69b8 194c 643d
00000160: 48c4 00bd 7091 143d 0327 213c 0a29 dd3c
00000170: 2826 b9b9 fa74 91bd e7d8 4dbd 9af8 16bc
00000180: a161 4dbd b0dd 11bd d6e6 a33c 4f96 a63b
00000190: a3ce 7e3c 6638 d3bc d17a 0d3d 79eb 9fbd
000001a0: b498 5b3d 4dbc 8a3c 0879 5f3d ae56 553d
000001b0: 9953 a03c 73e4 74ba 055f cabb 5b05 1a3d
000001c0: ece8 bc3d 2a6b 583d 7734 84ba 6ee6 1fbd
000001d0: c5b7 1e3d 65a9 483d 0d9c 873d 093d 513b
000001e0: f006 bc3d a763 743d f388 9ebc 2bae 893d
000001f0: 1614 423d 6031 b0bc e296 563d 2bcf af3d

net.4.weight f4 [15, 128]
0.0037947292 -0.002743795 0.018809402 0.0044407337 0.048592526 -0.07504445 -0.078892335 0.06683843
0.061788607 -0.009669157 -0.03109423 0.07182048 -0.051119357 -0.024295505 -0.078878336 0.028755499
0.009707403 -0.08645117 0.031588726 -0.05002344 0.088697836 0.08322669 0.023713501 0.054011833
0.045526914 0.07508425 0.05142158 0.021134665 0.018224252 -0.048940193 0.029475823 0.060605172
-0.08432691 -0.073913395 -0.06918419 0.044290982 -0.04872303 0.062236656 0.01875146 0.060841415
0.093252726 0.060211744 0.048624866 0.10420211 0.05888611 0.03272655 -0.08797743 -0.04085765
0.039730947 0.061711878 0.0028042018 -0.061966103 0.027208498 0.07005013 -0.05233642 0.0879269
0.033693433 -0.08080099 0.07888038 -0.11142972 0.033008248 -0.0062512266 -0.03586891 -0.059518903
0.072392814 0.019704131 0.04055312 -0.00011118293 -0.010273233 0.007256997 -0.041098323 0.1201618
-0.027153673 -0.054922152 0.08334484 0.06400407 0.02598273 -0.023936484 0.07225823 -0.0058638602
-0.0430594 0.07320383 0.022311024 0.09305048 0.047852043 -0.009323444 0.066329844 -0.13332151
0.101288565 0.102108695 -0.032787725 0.116074584 0.020049866 -0.0033506006 -0.045253944 0.061281443
-0.04519067 -0.050173618 -0.031005373 0.089409605 -0.07934682 0.10571589 0.09280988 0.01776229
0.08223957 0.045975186 0.08623104 -0.024494937 6.533464e-05 -0.08790238 0.0347215 0.022510407
0.090371504 0.09159422 0.04687988 0.043065257 -0.0067587215 0.049879905 0.11859185 0.07764651
0.07722534 -0.009728099 0.058871645 -0.06716552 0.030758632 0.058348514 0.020842267 0.08610048
-0.026837146 0.1293282 -0.078788206 0.06194245 0.05669508 0.031115448 -0.057796508 0.023406006
0.09139687 0.11004197 -0.059892826 -0.082573436 0.08497821 0.018234873 0.09736363 -0.015902687
0.10472434 -0.08436683 -0.01634702 -0.057475425 0.020981368 -0.019743053 -0.067210086 0.026301906
-0.06301225 -0.02461211 0.024316477 0.015378771 0.07011131 -0.06222861 0.081859894 -0.030070243
0.03941058 -0.06665756 -0.061984297 -0.016819242 0.07824112 -0.045010228 -0.07045321 0.05198692
0.016547702 0.08641658 0.067932226 0.092606984 0.004622403 0.060410548 0.008591587 0.071885616
0.0076318225 0.114514835 0.085467 0.00026099425 0.04336351 0.052460734 0.030168615 -0.024228858
0.069333814 0.002910249 -0.023338227 -0.064110845 -0.011653333 -0.008150086 -0.017658394 -0.01719997
0.11149929 0.010543923 0.021928549 0.05091386 0.078859635 -0.07896191 -0.010397736 -0.040772982
-0.117320694 0.060398664 0.06834441 -0.06282419 0.029436156 0.11127343 0.121689506 0.08225834
0.06679286 -0.033182584 -0.04952248 0.08138198 -0.067593396 -0.02967223 -0.10260922 -0.11543461
0.06694548 0.05307601 -0.024006475 0.04618484 0.11245741 0.073202364 0.023616934 0.0053181867
-0.08233619 -0.03433176 -0.035417754 0.09529148 0.0033971597 0.07113701 -0.024217045 -0.013067164
0.04532054 -0.006895004 0.018138623 0.093996845 -0.036087427 -0.05910401 -0.04319483 -0.020003205
0.07876348 0.048457988 0.08481259 0.025155926 0.044399254 0.04430177 0.0027222047 -0.15106909
0.0603902 -0.04053833 -0.040732037 0.003858044 -0.11535613 0.056294642 0.012649855 -0.02539008
00000000: feb0 783b 3ed1 33bb 2d16 9a3c 9383 913b
00000010: f508 473d e8b0 99bd 4e92 a1bd 96e2 883d
00000020: 0d16 7d3d 626b 1ebc 54b9 febc 9e16 933d
00000030: 8862 51bd 5e07 c7bc f78a a1bd a790 eb3c
00000040: cd0b 1f3c 500d b1bd 2e63 013d 61e5 4cbd
00000050: 36a7 b53d c172 aa3d d142 c23c 833b 5d3d
00000060: 6e7a 3a3d c5c5 993d 6f9f 523d 9b22 ad3c
00000070: 074b 953c 8375 48bd 4877 f13c 213d 783d
00000080: 96b3 acbd e85f 97bd 71b0 8dbd 766a 353d
00000090: cd91 47bd ddeb 7e3d a99c 993c d934 793d
000000a0: 49fb be3d 97a0 763d de2a 473d ea67 d53d
000000b0: 9032 713d 460c 063d 832d b4bd 5a5a 27bd
000000c0: ebbc 223d 98c5 7c3d b3c6 373b 2bd0 7dbd
000000d0: 5be4 de3c 7176 8f3d b75e 56bd 0513 b43d
000000e0: 2002 0a3d fd7a a5bd 098c a13d 4435 e4bd
000000f0: a833 073d 17d7 ccbb 47eb 12bd 18ca 73bd
00000100: af42 943d 8f6a a13c 071b 263d e22a e9b8
00000110: 1051 28bc 1acc ed3b b756 28bd 6417 f63d
00000120: 6171 debc 0df6 60bd b3b0 aa3d 9114 833d
00000130: bcd9 d43c 7216 c4bc 1ffc 933d a025 c0bb
00000140: 0e5f 30bd e4eb 953d 9cc5 b63c 4091 be3d
00000150: 8100 443d 5cc1 18bc f1d7 873d 6f85 08be
00000160: 6170 cf3d 5d1e d13d 6c4c 06bd 83b8 ed3d
00000170: 9e3f a43c c095 5bbb 335c 39bd 4002 7b3d
00000180: da19 39bd da82 4dbd fbfe fdbc 621c b73d
00000190: 9680 a2bd 9381 d83d 1b13 be3d 3982 913c
000001a0: 386d a83d 7a50 3c3d e699 b03d 9ba9 c8bc
000001b0: 4504 8938 2a06 b4bd 2238 0e3d bf67 b83c
000001c0: b214 b93d c095 bb3d 1e05 403d 3265 303d
000001d0: 4478 ddbb df4e 4c3d 49e0 f23d 2205 9f3d
000001e0: 5228 9e3d 9b62 1fbc 6523 713d 138e 89bd
000001f0: 87f9 fb3c dafe 6e3d 67bd aa3c 7355 b03d
00000200: 93d9 dbbc 9d6e 043e b65b a1bd 5eb7 7d3d
00000210: 1a39 683d d3e5 fe3c 08bc 6cbd f4bd bf3c
00000220: 482e bb3d af5d e13d 2e52 75bd 431c a9bd
00000230: 0e09 ae3d 4d61 953c 9566 c73d 5a46 82bc
00000240: b779 d63d 84c8 acbd 30ea 85bc 5a6b 6bbd
00000250: 1ee1 ab3c 2fbc a1bc 71a5 89bd 1877 d73c
00000260: 910c 81bd 569f c9bc 5933 c73c 3ef7 7b3c
00000270: 8596 8f3d 6de3 7ebd 29a6 a73d df55 f6bc
00000280: fd6c 213d c283 88bd 3fe3 7dbd 82c8 89bc
00000290: e13c a03d a55c 38bd c649 90bd 3df0 543d
000002a0: 0c8f 873c 2dfb b03d 0d20 8b3d bba8 bd3d
000002b0: 8777 973b 0d71 773d bac3 0c3c c438 933d
000002c0: 5e14 fa3b c186 ea3d 5309 af3d 0ed6 8839
000002d0: f09d 313d 11e1 563d 2c24 f73c 997b c6bc
000002e0: e3fe 8d3d e0b9 3e3b cf2f bfbc 8c4c 83bd
000002f0: 9fed 3ebc f087 05bc 56a8 90bc f4e6 8cbc
00000300: bd59 e43d 6bc0 2c3c 80a3 b33c 0d8b 503d
00000310: 2981 a13d c8b6 a1bd 445b 2abc 9201 27bd
00000320: d545 f0bd 9764 773d 27f8 8b3d f8a9 80bd
00000330: 1824 f13c 53e3 e33d 5938 f93d 1077 a83d
00000340: b2ca 883d 76ea 07bd 16d8 4abd 98ab a63d
00000350: 686e 8abd 2d13 f3bc c824 d2bd fb68 ecbd
00000360: b61a 893d 3b66 593d 3aa9 c4bc 512c 3d3d
00000370: 1250 e63d 1feb 953d 4d78 c13c 2f44 ae3b
00000380: e09f a8bd 769f 0cbd 3512 11bd 2e28 c33d
00000390: e2a2 5e3b 48b0 913d d362 c6bc a917 56bc
000003a0: 08a2 393d 7cef e1bb 7397 943c 6b81 c03d
000003b0: 69d0 13bd 0c17 72bd 10ed 30bd c3dd a3bc
000003c0: bf4e a13d e27b 463d 39b2 ad3d cd13 ce3c
000003d0: fedb 353d c675 353d 0467 323b dbb1 1abe
000003e0: b75b 773d 850b 26bd a3d6 26bd 3dd7 7c3b
000003f0: d63f ecbd 3695 663d 5641 4f3c dbfe cfbc

net.4.bias f4 [15]
-0.04839412 0.085947335 -0.023151876 -0.030694596 0.013212678 0.03466004 0.06616318 -0.04695506
0.060089484 0.08034205 0.02373972 0.07088534 0.024087356 0.052558824 0.021401584
00000000: ea38 46bd 2805 b03d 01a9 bdbc 3c73 fbbc
00000010: fd79 583c b0f7 0d3d 9080 873d f353 40bd
00000020: 6420 763d 5f8a a43d cd79 c23c 552c 913d
00000030: d952 c53c ec47 573d 6052 af3c

net.0.weight f4 [128, 77]
0.55378723 0.05757941 -0.07402528 -0.07669686 -0.041683316 0.032701 -0.0028566753 0.112097435
-0.04656061 0.08817643 -0.016475633 -0.023713363 -0.15611024 -0.07262884 -0.05247879 0.0072955694
0.040248953 0.0642302 -0.080886595 -0.053179618 0.03783841 0.091445096 -0.040247023 0.08543925
-0.025383303 0.0327287 0.120112106 -0.15139467 -0.043445773 -0.015158355 -0.054713532 0.03727971
-0.08143212 -0.08767448 -0.074185714 -0.10084053 -0.07417802 0.09440645 0.04729728 0.051679548
0.012657532 -0.05644336 0.013027672 -0.13359107 -0.03895883 -0.033255223 0.021801393 0.10983767
-0.03668832 -0.017149352 0.049354076 0.10657642 -0.0030684583 0.012525645 0.076150484 -0.073859185
0.017721813 -0.091908105 -0.082538344 -0.069922976 0.043635942 0.051236738 -0.11469766 0.07130775
0.083707266 -0.085352466 0.1274829 0.036900893 0.017192155 0.040751714 -0.08178131 -0.100514464
0.04274937 0.092259504 0.09497584 0.096364945 0.019125778 0.47693688 0.0147733195 -0.10427017
-0.024041113 0.09671535 0.095963925 -0.12529334 0.03438203 -0.025856411 0.000489521 -0.032216877
0.08160518 -0.06259628 0.06527678 0.056861766 0.08681229 0.039214026 -0.115930974 -0.06963621
0.061191957 0.028141934 -0.1385221 -0.019105338 0.11391663 0.07909378 -0.04663758 -0.022374783
-0.1169818 0.0372046 -0.0628763 -0.0901256 -0.007573103 0.022208003 0.0033460294 0.07230648
-0.067672074 0.100868724 0.08238684 -0.091811344 -0.02407318 -0.041753452 0.011492579 0.006346
0.037008535 0.057440054 -0.050646953 0.046365917 -0.083375424 -0.013289183 -0.06661262 -0.04031497
-0.034611657 -0.081306435 -0.011048295 0.009567474 -0.07601829 -0.00091283093 0.08586845 -0.0074253734
-0.0015773406 -0.0059181084 0.00335346 0.05168241 0.15656878 0.06135833 0.09915917 0.1319422
-0.02474598 -0.08825184 0.076862656 0.018182453 -0.079691306 -0.090885304 -0.12603322 -0.09879219
-0.018103482 0.06678629 0.061087303 -0.113581344 0.06741243 -0.09104339 -0.026393756 -0.04960645
-0.025396021 -0.02574673 -0.10503851 -0.10110392 -0.021135915 -0.0013788604 -0.054545417 0.039121985
-0.10365834 -0.011365079 0.09654502 -0.050157767 0.09923262 0.037597094 -0.106519096 0.068428434
-0.0141632175 -0.05227979 0.08745482 -0.09297377 0.008836891 -0.026635809 0.07867466 0.02839689
0.05205256 0.037470218 -0.030788768 -0.02484939 -0.09754274 0.058074716 0.08680808 0.074300535
-0.08405945 0.0014084276 -0.0823834 -0.06453734 -0.06783329 0.035271306 -0.06879338 -0.0058779567
0.0020180687 0.07070184 -0.08954442 -0.080941364 -0.068948515 0.076380745 -0.043657295 0.09249451
0.03753485 0.010756179 -0.004522523 -0.02620208 0.01062402 -0.028071057 -0.002805551 0.010866388
-0.09281468 -0.060613114 0.08863078 -0.09526032 -0.010889211 0.10933488 0.03916688 0.00045053216
-0.10211234 0.05300812 -0.08461734 -0.034949385 -0.041909795 -0.020550301 -0.0024276662 0.8468643
0.0162779 0.1054922 0.06870216 -0.059687972 0.05269116 -0.041963726 -0.034752887 0.04626504
0.04415957 0.10035308 0.00071170373 0.021585524 0.045027826 -0.11613751 0.068849824 -0.09574462
0.00024561767 -0.016024731 -0.05796846 0.017113524 0.09253748 -0.02449201 -0.08030283 -0.03121214
00000000: 00c5 0d3f 63d8 6b3d 919a 97bd 3e13 9dbd
00000010: 20bc 2abd 7cf1 053d 0f37 3bbb 5793 e53d
00000020: 57b6 3ebd d895 b43d e8f7 86bc 8742 c2bc
00000030: 5ddb 1fbe 6ebe 94bd 00f4 56bd ac0f ef3b
00000040: 16dc 243d 208b 833d dfa7 a5bd dfd2 59bd
00000050: 73fc 1a3d 9147 bb3d 10da 24bd c6fa ae3d
00000060: a5f0 cfbc 880e 063d 56fd f53d 3407 1bbe
00000070: 32f4 31bd c05a 78bc 4c1b 60bd 9cb2 183d
00000080: e2c5 a6bd ae8e b3bd aeee 97bd 7b85 cebd
00000090: a5ea 97bd 2b58 c13d cbba 413d efad 533d
000000a0: 8961 4f3c 2731 67bd 0472 553c 19cc 08be
000000b0: 4b93 1fbd a136 08bd d698 b23c 93f2 e03d
000000c0: 7e46 16bd cc7c 8cbc 8027 4a3d bd44 da3d
000000d0: 3018 49bb 5d38 4d3c c9f4 9b3d 7c43 97bd
000000e0: 562d 913c 513a bcbd dd09 a9bd c733 8fbd
000000f0: 9abb 323d 9ddd 513d 9be6 eabd cc09 923d
00000100: b76e ab3d 46cd aebd e18a 023e 6425 173d
00000110: 90d6 8c3c 45eb 263d f67c a7bd 87da cdbd
00000120: f719 2f3d 8df2 bc3d b182 c23d fc5a c53d
00000130: aaad 9c3c 1231 f43e cb0b 723c 998b d5bd
00000140: def1 c4bc b312 c63d bc88 c43d e64c 00be
00000150: 2cd4 0c3d d3d0 d3bc 3353 003a d8f5 03bd
00000160: 9e20 a73d 7a32 80bd d5af 853d e2e7 683d
00000170: a4ca b13d e39e 203d 386d edbd 6e9d 8ebd
00000180: 6ba4 7a3d ea89 e63c bdd8 0dbe cc82 9cbc
00000190: 1f4d e93d ebfb a13d 0c07 3fbd 524b b7bc
000001a0: 2794 efbd da63 183d 4ac5 80bd c593 b8bd
000001b0: cb27 f8bb 8fed b53c 0f49 5b3b 6b15 943d
000001c0: a897 8abd 4394 ce3d 6eba a83d 9607 bcbd
000001d0: 1e35 c5bc ab05 2bbd 5f4b 3c3c 1bf2 cf3b
000001e0: 4396 173d 4346 6b3d 2e73 4fbd 30ea 3d3d
000001f0: bcc0 aabd e0ba 59bc 336c 88bd 4f21 25bd
00000200: f4c4 0dbd fd83 a6bd e803 35bc e5c0 1c3c
00000210: 7aaf 9bbd 0c4b 6fba ccdb af3d 8c50 f3bb
00000220: c5be ceba b1ec c1bb b9c5 5b3b efb0 533d
00000230: 9153 203e df52 7b3d f713 cb3d db1b 073e
00000240: 15b8 cabc 61bd b4bd 2b6a 9d3d 5ef3 943c
00000250: 3235 a3bd 1322 babd da0e 01be 8f53 cabd
00000260: c14d 94bc 40c7 883d ae36 7a3d 569d e8bd
00000270: 870f 8a3d f574 babd b837 d8bc 2230 4bbd
00000280: 510b d0bc ceea d2bc 6e1e d7bd 920f cfbd
00000290: 3a25 adbc e1ba b4ba 046b 5fbd 603e 203d
000002a0: d34a d4bd 9934 3abc 65b9 c53d 3b72 4dbd
000002b0: 793a cb3d 69ff 193d af26 dabd 3524 8c3d
000002c0: d70c 68bc 5523 56bd 831b b33d 0869 bebd
000002d0: 9bc8 103c 5733 dabc 2e20 a13d 98a0 e83c
000002e0: 1135 553d 5f7a 193d ba38 fcbc f390 cbbc
000002f0: 7dc4 c7bd c1df 6d3d 6fc8 b13d e12a 983d
00000300: 5c27 acbd fd9a b83a a1b8 a8bd 272c 84bd
00000310: 2eec 8abd a578 103d 8be3 8cbd e09b c0bb
00000320: 9341 043b 20cc 903d 1163 b7bd 96c4 a5bd
00000330: e134 8dbd 826d 9c3d fed1 32bd c36d bd3d
00000340: 25be 193d af3a 303c ac31 94bb bfa5 d6bc
00000350: 5f10 2e3c 46f5 e5bc 56dd 37bb ef08 323c
00000360: 9f15 bebd 7545 78bd 0e84 b53d d817 c3bd
00000370: a968 32bc f7ea df3d 736d 203d 6735 ec39
00000380: 4620 d1bd 0b1f 593d db4b adbd 1627 0fbd
00000390: 9ba9 2bbd 1b59 a8bc 7b19 1fbb 19cc 583f
000003a0: 3b59 853c 4b0c d83d b8b3 8c3d 607b 74bd
000003b0: b0d2 573d 28e2 2bbd 0b59 0ebd 6980 3d3d
000003c0: aae0 343d ea85 cd3d a191 3a3a 20d4 b03c
000003d0: 196f 383d 81d9 edbd 2301 8d3d c115 c4bd
000003e0: 3fc6 8039 4c46 83bc 5670 6dbd a931 8c3c
000003f0: 4a84 bd3d 78a3 c8bc cf75 a4bd 9ab0 ffbc

net.0.bias f4 [128]
-0.027366884 -0.042060398 -0.08184641 0.037932474 -0.03758427 -0.05639552 0.028456274 -0.03584745
0.01855509 -0.006077064 0.040426735 0.08095869 -0.10015575 -0.05031092 0.11173366 0.008489372
-0.0256675 0.089169934 0.09926376 0.031902973 -0.09182074 0.11349016 -0.10890698 -0.12517959
0.013121482 -0.029850138 -0.11123184 0.09386771 0.01761955 -0.061431024 0.042507533 0.082971275
-0.012080371 0.09340461 0.06303406 0.03594868 -0.053008646 -0.08669368 -0.004015118 -0.0325935
-0.11239226 -0.10606725 -0.064128295 0.012835101 -0.039135892 -0.095747836 -0.019667171 -0.03695196
-0.030876959 0.075000234 0.061062314 0.07611582 0.11712957 -0.0032681131 -0.050210897 0.0014475423
0.022020431 -0.038582355 0.08695688 0.059864566 -0.085576 0.024503764 -0.002129167 0.04702133
-0.06118888 0.100454144 -0.033858906 0.046661217 -0.054195825 0.037415676 -0.03047636 -0.05048282
-0.09707427 0.039957453 0.028581925 0.036985572 -0.045376364 0.023406662 -0.0539264 0.029854462
0.10639982 -0.096462585 0.051287994 -0.0776389 0.035978567 -0.024862498 0.052586544 -0.08122848
0.08061333 0.07302963 -0.07638125 -0.070696026 0.07103889 -0.077359766 0.0455597 -0.058178987
-0.09976586 0.027592449 -0.035378 -0.056651536 0.040330157 0.044202454 0.0796306 0.11112806
0.050941333 -0.032929912 0.0024844196 0.08656778 -0.0975655 0.08960348 0.057510037 0.03648563
0.036258765 -0.10004096 0.03812446 -0.011034104 0.0055445754 -0.06368107 0.08801764 -0.019034453
-0.011601998 -0.09128056 0.09963208 -0.10763497 0.07498617 0.042775583 0.014166106 -0.110335335
00000000: 8430 e0bc 8647 2cbd 179f a7bd 155f 1b3d
00000010: f7f1 19bd fdfe 66bd 221d e93c c7d4 12bd
00000020: d800 983c 1c22 c7bb 8196 253d abcd a53d
00000030: 751e cdbd d312 4ebd 9ed4 e43d 0217 0b3c
00000040: a644 d2bc ba9e b63d cc4a cb3d b1ac 023d
00000050: 830c bcbd 876d e83d 9f0a dfbd 142f 00be
00000060: 7cfb 563c 4788 f4bc 85cd e3bd b73d c03d
00000070: e056 903c 199f 7bbd 611c 2e3d d8ec a93d
00000080: c0ec 45bc eb4a bf3d 0018 813d ec3e 133d
00000090: 981f 59bd 758c b1bd 4091 83bb c380 05bd
000000a0: ea2d e6bd c939 d9bd b255 83bd 514a 523c
000000b0: f54c 20bd 7117 c4bd 0c1d a1bc f05a 17bd
000000c0: adf1 fcbc b999 993d 7a1c 7a3d 9ce2 9b3d
000000d0: a1e1 ef3d d72d 56bb f1a9 4dbd 76bb bd3a
000000e0: 3164 b43c 8808 1ebd 7316 b23d 8c34 753d
000000f0: 7842 afbd 1ebc c83c 7f89 0bbb 7099 403d
00000100: 31a1 7abd e7ba cd3d a3af 0abd d51f 3f3d
00000110: 71fc 5dbd 2e41 193d 8fa9 f9bc 13c7 4ebd
00000120: e0ce c6bd 6daa 233d a424 ea3c 2f7e 173d
00000130: 91dc 39bd 54bf bf3c eee1 5cbd 5891 f43c
00000140: 26e8 d93d 2d8e c5bd 5c13 523d 2501 9fbd
00000150: 435e 133d 70ac cbbc fd64 573d 1e5b a6bd
00000160: 9a18 a53d 8f90 953d c66d 9cbd 14c9 90bd
00000170: d67c 913d cc6e 9ebd cf9c 3a3d 174d 6ebd
00000180: 0b52 ccbd 8f09 e23c 86e8 10bd 710b 68bd
00000190: 3c31 253d a20d 353d 5e15 a33d 1c97 e33d
000001a0: dca7 503d 84e1 06bd a5d1 223b 734a b13d
000001b0: 6cd0 c7bd 0882 b73d a58f 6b3d f571 153d
000001c0: 1284 143d 46e2 ccbd 6528 1c3d 63c8 34bc
000001d0: 45af b53b 396b 82bd 9842 b43d 24ee 9bbc
000001e0: 4e16 3ebc 4df1 babd e70b cc3d b96f dcbd
000001f0: 5992 993d 7335 2f3d f418 683c 7ef7 e1bd

net.2.weight f4 [128, 128]
-0.023636766 -0.025766067 -0.06546874 -0.021513958 -0.012478599 -0.051502794 0.06129997 0.097775996
-0.06544471 0.052878115 0.014727858 0.07229093 -0.07708759 -0.030630592 -0.01770679 0.07985545
0.08996714 -0.010565844 -0.05448438 -0.04683128 0.010870852 0.03234059 -0.02591376 0.024905205
-0.023290485 0.09949542 -0.023622848 -0.044514038 0.036074977 0.011247698 0.05104065 0.08628831
-0.03559627 0.09740754 0.057934888 0.060028296 0.037474234 -0.021047054 0.017641818 0.007818586
-0.046549916 -0.0136634605 0.102596864 0.032598604 0.035618998 0.008554503 0.019070521 -0.050542936
0.011742484 -0.007133839 -0.025868531 -0.058790777 -0.0065618935 0.01234333 -0.012146 -0.0309705
-0.034484778 0.007193067 -0.06248963 0.072043605 -0.047208387 0.041152928 -0.07780047 -0.0042286264
-0.031456403 -0.069889575 0.024455648 -0.06640265 0.040067904 0.0651757 0.009631986 0.03538877
-0.041579418 0.03687532 -0.102833636 0.09422464 0.0005968405 0.029563315 0.07884779 -0.07087573
-0.04604071 0.012380552 -0.079722434 0.014430659 0.0062855845 -0.082909614 -0.017326683 -0.06434319
0.0009811937 0.084296726 0.08453649 -0.08103077 0.015053979 -0.08209806 0.031854574 0.04865288
-0.0994687 -0.036643036 -0.07437324 -0.0061977725 0.04858249 -0.06027348 -0.0059849326 -0.028681125
0.08545989 -0.08103891 -0.043177336 0.0030451585 -0.059124872 0.07676025 -0.075912945 -0.021794206
-0.028982405 0.021958712 -0.04199451 0.07596816 -0.08330601 -0.04873595 -0.033382237 -0.084479384
-0.085663125 0.027486125 0.09417238 -0.0022710103 -0.03249301 0.038950577 0.075584054 -0.07932501
-0.009890992 0.11709758 0.039341472 -0.084756866 0.01466466 -0.01824498 -0.111468844 -0.016984073
0.11435052 -0.063256286 0.08578102 -0.054625317 -0.0060805604 0.13904044 -0.019846506 -0.052460123
-0.046664786 -0.05954067 0.028359652 -0.037676424 -0.054658394 0.095322564 0.0808877 -0.02814
-0.03409342 -0.024079608 0.050288826 0.011871412 0.0004381509 0.06931643 -0.008075233 -0.025855735
0.04527154 0.070311435 -0.07515657 0.07882085 0.07961167 -0.049623277 -0.07127406 0.055150084
-0.04442754 -0.1110534 -0.036486764 -0.04008857 -0.01394674 -0.044149287 0.06898259 0.07395643
0.051652733 0.054040063 0.106983244 0.08337784 0.026831502 0.0832708 0.1204012 0.1255379
-0.029169101 0.09358267 -0.04282416 -0.060041346 0.06648103 -0.14069843 0.038203888 0.15180904
0.05972143 -0.05910419 -0.032017447 -0.006718593 -0.06788884 0.049338546 0.059025906 0.042134907
0.010808493 0.08988463 0.064881176 0.06545848 -0.0025679816 0.045520697 0.025521323 0.030774904
0.064307116 0.09799744 0.10087482 -0.09152782 -0.0042058737 0.07275795 -0.026806498 0.047675822
-0.103214726 0.043940775 -0.03599063 0.06878143 -0.026045602 0.059078377 0.06410842 -0.0037443491
-0.01300224 -0.03408139 0.015033229 0.10557835 0.1680124 -0.08662802 -0.05163999 0.06782739
-0.012751874 -0.046770103 -0.113145515 -0.075383 -0.03456539 0.11435862 -0.05855346 0.051935878
-0.05713407 0.007848583 -0.031123664 0.06939844 -0.034745794 -0.060846664 -0.019570196 -0.025988556
0.052535243 0.12424492 0.04440136 0.013559133 -0.041978303 0.031818535 0.031995885 0.07918117
00000000: e4a1 c1bc 5c13 d3bc 7a14 86bd 0a3e b0bc
00000010: 0a73 4cbc 98f4 52bd ad15 7b3d c83e c83d
00000020: e007 86bd b996 583d 1d4d 713c 440d 943d
00000030: 19e0 9dbd 02ed fabc d40d 91bc 418b a33d
00000040: b140 b83d 5d1c 2dbc 032b 5fbd 28d2 3fbd
00000050: a81b 323c 9177 043d 1849 d4bc 0006 cc3c
00000060: b0cb bebc 41c4 cb3d b484 c1bc 5a54 36bd
00000070: 5bc3 133d 4448 383c 0010 513d edb7 b03d
00000080: 65cd 11bd 9b7d c73d 224d 6d3d 3be0 753d
00000090: 957e 193d df6a acbc 9385 903c 8719 003c
000000a0: 20ab 3ebd b5dc 5fbc 4e1e d23d 1d86 053d
000000b0: 3ae5 113d 3028 0c3c c839 9c3c 1c06 4fbd
000000c0: 8c63 403c fbc2 e9bb 3eea d3bc 99ce 70bd
000000d0: 2705 d7bb ae3b 4a3c 0400 47bc d9b5 fdbc
000000e0: e93f 0dbd d2b3 eb3b 20f5 7fbd 998b 933d
000000f0: 955d 41bd f98f 283d da55 9fbd 4a90 8abb
00000100: 6ed8 00bd 4422 8fbd 3657 c83c 1dfe 87bd
00000110: 3e1e 243d d67a 853d 7acf 1d3c d1f3 103d
00000120: 2e4f 2abd 930a 173d 719a d2bd d9f8 c03d
00000130: 4a75 1c3a c42e f23c f37a a13d 4b27 91bd
00000140: 2f95 3cbd ccd7 4a3c 8445 a3bd 926e 6c3c
00000150: 4ef7 cd3b 84cc a9bd b0f0 8dbc 5dc6 83bd
00000160: 669b 803a c3a3 ac3d 7821 ad3d 76f3 a5bd
00000170: f7a4 763c 0723 a8bd f179 023d 3e48 473d
00000180: 3fb6 cbbd 0217 16bd ff50 98bd af16 cbbb
00000190: 6ffe 463d 53e1 76bd 411d c4bb aef4 eabc
000001a0: 9805 af3d baf7 a5bd b8da 30bd 4891 473b
000001b0: ec2c 72bd 7a34 9d3d 3f78 9bbd c389 b2bc
000001c0: 826c edbc c2e2 b33c 6f02 2cbd 3295 9b3d
000001d0: 579c aabd 599f 47bd d0bb 08bd 8703 adbd
000001e0: 2670 afbd 952a e13c 73dd c03d 3bd5 14bb
000001f0: 6417 05bd a48a 1f3d d0cb 9a3d 2775 a2bd
00000200: d40d 22bc dbd0 ef3d 8624 213d 0295 adbd
00000210: 0b44 703c 7f76 95bc c749 e4bd 2f22 8bbc
00000220: 9b30 ea3d 838c 81bd f6ad af3d ccbe 5fbd
00000230: 703f c7bb 9e60 0e3e 2495 a2bc 6de0 56bd
00000240: 9323 3fbd ebe0 73bd 8052 e83c 9852 1abd
00000250: 7be1 5fbd 7a38 c33d 73a8 a53d db85 e6bc
00000260: 8ba5 0bbd 9942 c5bc a8fb 4d3d 5080 423c
00000270: 9eb7 e539 c6f5 8d3d fb4d 04bc 68cf d3bc
00000280: a66e 393d 71ff 8f3d b0eb 99bd d36c a13d
00000290: 710b a33d c741 4bbd 22f8 91bd 0ee5 613d
000002a0: a7f9 35bd f76f e3bd 2573 15bd ea33 24bd
000002b0: de80 64bc e2d5 34bd bf46 8d3d 7876 973d
000002c0: d191 533d 1d59 5d3d 081a db3d 00c2 aa3d
000002d0: bdcd db3c e289 aa3d e894 f63d 028d 003e
000002e0: 0af4 eebc 45a8 bf3d 6368 2fbd eaed 75bd
000002f0: 3527 883d 4013 10be ae7b 1c3d d473 1b3e
00000300: 759e 743d 3c17 72bd ba24 03bd a527 dcbb
00000310: 4e09 8bbd 3717 4a3d 26c5 713d a795 2c3d
00000320: 1b16 313c 6f15 b83d 6ce0 843d 180f 863d
00000330: 954b 28bb e973 3a3d 1812 d13c a71b fc3c
00000340: 73b3 833d e2b2 c83d 7597 ce3d f072 bbbd
00000350: 6dd1 89bb 1f02 953d 4d99 dbbc b947 433d
00000360: 3e62 d3bd 3efb 333d e96a 13bd 47dd 8c3d
00000370: 965d d5bc 2bfc 713d 464b 833d c163 75bb
00000380: 5907 55bc ed98 0bbd ef4d 763c 7639 d83d
00000390: 710b 2c3e 086a b1bd 7484 53bd 16e9 8a3d
000003a0: 3ced 50bc 0292 3fbd d6b8 e7bd 6762 9abd
000003b0: 7094 0dbd da34 ea3d c1d5 6fbd b7ba 543d
000003c0: 6a05 6abd 5897 003c 0ef7 febc c520 8e3d
000003d0: 9b51 0ebd 5a3a 79bd ad51 a0bc f4e5 d4bc
000003e0: 322f 573d 1f74 fe3d 33de 353d 2027 5e3c
000003f0: 71f1 2bbd 2754 023d 1e0e 033d bd29 a23d

net.2.bias f4 [128]
-0.022909604 -0.041168246 0.07813571 0.06982989 0.0169928 -0.048723463 0.036215365 -0.050045565
-0.075457856 0.07840258 0.043309122 -0.018308688 0.06979799 0.0031001794 0.028081754 0.017525798
0.071328275 0.066422716 -0.0034543585 0.046522982 0.03307109 0.048904844 -0.010879019 -0.035089526
0.0716663 0.05862762 -0.08682355 0.027302703 0.083655775 0.05835786 0.04779036 0.060144883
-0.074720144 -0.050263025 0.072487615 0.010695022 -0.031547688 0.082448505 -0.014030065 0.06791476
-0.011026012 0.06022379 0.0262 -0.06842339 0.043414652 -0.015008096 0.03321166 0.03202649
0.04262811 -0.037535325 0.06488919 0.043620817 -0.083338514 0.07334249 0.0068858806 0.08420205
-0.02268963 -0.07296762 0.0037116688 0.01800819 0.017172214 -0.0038897267 -0.05327684 -0.009258111
0.06746774 -0.06539522 0.08097716 0.005305362 -0.02931256 -0.03947155 0.076693095 -0.077896036
-0.0644639 -0.07653829 -0.07318767 0.03307181 -0.047070492 0.016646855 0.051034674 -0.067236416
0.06066752 -0.013982516 -0.08523797 0.04248077 0.091139525 -0.013293914 0.0006511808 0.05607472
-0.03142741 0.036060672 0.010657295 0.027052516 -0.00087658205 -0.0710239 -0.050476566 -0.009461525
-0.049538087 -0.035215016 0.019998675 0.004913559 0.015552196 -0.026012015 0.034987465 -0.07835847
0.05341402 0.01712068 0.05442824 0.051405884 0.020025244 -0.0009354391 -0.0062987637 0.037711333
0.092556655 0.05261886 -0.0010086437 -0.03868208 0.038400475 0.048910372 0.06631913 0.0037534058
0.09173896 0.05960104 -0.019090101 0.06699991 0.04812325 -0.021507919 0.052082714 0.08604095
00000000: ecac bbbc 09a0 28bd 9d05 a03d f902 8f3d
00000010: 7c34 8b3c 4192 47bd 9056 143d 94fc 4cbd
00000020: a689 9abd 8891 a03d e864 313d 1afc 95bc
00000030: 40f2 8e3d 612c 4b3b b50b e63c 4392 8f3c
00000040: 8f14 923d a208 883d 8562 62bb e28e 3e3d
00000050: 8d75 073d 7250 483d ea3d 32bc 09ba 0fbd
00000060: c8c5 923d 8423 703d 8cd0 b1bd eba9 df3c
00000070: b853 ab3d a708 6f3d d3bf 433d 7b5a 763d
00000080: e006 99bd 9ae0 4dbd 6374 943d 2c3a 2f3c
00000090: 2638 01bd c3da a83d 5cde 65bc e516 8b3d
000000a0: 72a6 34bc 39ad 763d 62a1 d63c 9021 8cbd
000000b0: 90d3 313d 84e4 75bc f308 083d 352e 033d
000000c0: d09a 2e3d a4be 19bd a0e4 843d beab 323d
000000d0: 62ad aabd 9634 963d f4a2 e13b 2072 ac3d
000000e0: 9adf b9bc 0c70 95bd 783f 733b e985 933c
000000f0: beac 8c3c c9ea 7ebb d138 5abd 55af 17bc
00000100: 872c 8a3d eeed 85bd 5ad7 a53d 9ad8 ad3b
00000110: e520 f0bc ecac 21bd 4511 9d3d f587 9fbd
00000120: a605 84bd 1bc0 9cbd 6be3 95bd 4e76 073d
00000130: fdcc 40bd fc5e 883c bc09 513d 3fb3 89bd
00000140: 817e 783d ec16 65bc 3f91 aebd 5100 2e3d
00000150: 5ca7 ba3d b7ce 59bc 01b4 2a3a 9bae 653d
00000160: 07ba 00bd 5bb4 133d ef9b 2e3c 3d9d dd3c
00000170: 6dca 65ba fa74 91bd 84c0 4ebd 8304 1bbc
00000180: 73e8 4abd 9f3d 10bd 43d4 a33c ec01 a13b
00000190: a3ce 7e3c 2617 d5bc 044f 0f3d 687a a0bd
000001a0: a9c8 5a3d ab40 8c3c 25f0 5e3d fa8e 523d
000001b0: fb0b a43c 4138 75ba dc65 cebb 3377 1a3d
000001c0: 588e bd3d e086 573d 7734 84ba 1a71 1ebd
000001d0: d149 1d3d 3e56 483d 53d2 873d b3fb 753b
000001e0: a3e1 bb3d 3820 743d d862 9cbc 4037 893d
000001f0: e31c 453d 6031 b0bc af54 553d 3d36 b03d
