ddqn_out_softmax/dqn_ep5650.pt (torch, 464501 bytes, 24 tensors)

net.0.weight f4 [128, 77]
000000 41 7a e8 3f 2d de 6c 3d fd 65 6b bd b6 db 27 bd
       1.8162309 0.05782907 -0.05747031 -0.040981017
000010 b6 dc 88 bd 14 5e 08 3d 1c b7 80 3c 0b ef ac 3d
       -0.06682722 0.033292845 0.015712313 0.08444031
000020 72 4d 42 bd a6 f3 06 3e 7e 07 cd 3b c3 ee ef 3a
       -0.04743714 0.13178882 0.0062569967 0.001830541
000030 35 99 07 be c7 7d 4f bd 4c be 5a bd 8c c4 f1 3c
       -0.13242038 -0.05065706 -0.053404137 0.029512666
000040 5e 5d bd 3c eb 7d 95 3d 9e 48 aa bd 15 cd 58 bd
       0.02311581 0.072994076 -0.08314632 -0.052929956
000050 3d 02 1c 3d f3 05 c0 3d aa f7 fb bb f2 ee 66 3d
       0.038088072 0.09376135 -0.007689436 0.05638022
000060 28 75 6b bc f6 d1 5f 3d 6c 4d e0 3d 48 49 36 be
       -0.014371194 0.054643594 0.10952267 -0.17801392
000070 91 1d f9 bc e9 78 1f 3c 4a cf 72 bd db 73 35 3c
       -0.030409606 0.009733417 -0.059279718 0.011074985
000080 4a ed 88 bd 19 9e ae bd 08 d0 48 bd 77 73 c7 bd
       -0.06685884 -0.085262485 -0.04902652 -0.0973882
000090 a0 db 58 bd fc 46 c0 3d 95 c0 42 3d b9 b3 54 3d
       -0.052943826 0.09388539 0.04754694 0.05192921
0000a0 bf f8 79 3c 0c e6 4b bd ef 15 d4 bb 7d eb ff bd
       0.01525706 -0.049779937 -0.0064723413 -0.12496088
0000b0 26 e4 24 bd d9 69 9e bb 25 7d a6 39 83 1c 7e 3d
       -0.04025664 -0.0048343954 0.00031755227 0.06203891
0000c0 91 c9 3f bc b5 1e 0b 3d e2 6f 2e 3d 38 08 03 3e
       -0.011705772 0.03396483 0.04258717 0.12796104
0000d0 f3 54 65 bd a5 80 20 3c ef 88 99 3d cf 30 59 bd
       -0.055989217 0.009796296 0.07496821 -0.053025063
0000e0 00 6e 8c 3c 38 b7 bb bd c4 86 a8 bd 2e d8 99 bd
       0.017142296 -0.091658056 -0.082288295 -0.07511936
0000f0 9c c8 e1 3b 17 d9 70 3d 6f a7 13 be 7d 84 3e 3d
       0.0068903696 0.058800783 -0.1441934 0.04651307
000100 bf 2a cd 3d b9 43 dd bd cb 95 04 3e 95 6b 97 3c
       0.10017919 -0.10803933 0.12947766 0.018483916
000110 d2 4b cb 3c 9d dd 43 3d d5 ea 2d bd 99 22 15 be
       0.024816427 0.04781877 -0.04246028 -0.14563979
000120 f1 19 53 3d 8e 9b cf 3d 00 f0 c5 3d aa 54 c5 3d
       0.05153841 0.101370916 0.09664917 0.09635289
000130 dc b8 9e 3c 78 08 d1 3f 99 1f 0e 3c a0 64 aa bd
       0.019375257 1.633071 0.008674526 -0.08319974
000140 62 1f 11 bd 8d 91 cd 3d ff da b4 3d f3 9f 16 be
       -0.03543032 0.10037527 0.08830833 -0.14709453
000150 88 af aa 3b a8 a1 2b bd ca d2 c2 bc 57 2a 18 3d
       0.0052089132 -0.041902214 -0.023782153 0.037149753
000160 8a d3 d3 3d 33 44 0f bd 29 f5 91 3d 56 e4 47 3d
       0.10343082 -0.03497715 0.07126839 0.048801742
000170 75 ee b4 3d 56 40 da 3c 07 52 d6 bd ff 70 a5 bd
       0.088345446 0.026642006 -0.10464864 -0.08078193
000180 6c a9 61 3d 62 94 b4 3c 25 34 e5 bd 05 8c f7 bb
       0.055093214 0.02204341 -0.111915864 -0.0075545334
000190 90 fb eb 3d 02 b8 8c 3d 5a 1e fa bd 88 3a 0a bd
       0.11522591 0.06871034 -0.1221282 -0.033747226
0001a0 5f 94 01 be b6 be b4 3c 31 aa 28 3d 0f ad 52 bd
       -0.12654255 0.022063594 0.041177932 -0.051434573
0001b0 be ca 99 3c 00 b5 bc 3c 4c e0 23 3d 90 a4 bf 3d
       0.018773433 0.023035526 0.040008828 0.0935756
0001c0 6b 08 6f bd 11 e8 d3 3d 0a bf 94 3d 3f 85 c8 bd
       -0.058357637 0.103469975 0.07263 -0.0979104
0001d0 a8 2a f7 bc 98 8e 8c bd 50 a3 2f bd f9 08 b9 bb
       -0.030171707 -0.06863135 -0.042880356 -0.0056468216
0001e0 9c ae fb 3c 7a b4 2a 3c cf bc 8d bd 09 a4 de 3c
       0.030722909 0.0104190055 -0.06920778 0.027177827
0001f0 5c 35 d9 bd 63 9c 76 3d 98 ec d2 bd 69 e8 b6 bc
       -0.106058806 0.060207736 -0.10299033 -0.022327619
000200 1b 68 ab bc 0d bb 0b bd 93 ed 3e 3c 74 38 97 3c
       -0.020923665 -0.034113932 0.011653322 0.018459536
000210 af 72 8a bd 8a bf 94 bb 23 5e a3 3d 6d 94 5d bc
       -0.067601554 -0.004539435 0.079769395 -0.013524157
000220 0b 3e 96 bc 66 83 88 bd 18 85 d1 3c 3b eb 19 3d
       -0.018340131 -0.06665687 0.02557616 0.03757785
000230 e6 ae 22 3e 47 7b 6f 3c 7a cf d2 3d b2 d4 ad 3d
       0.15887031 0.014616794 0.10293479 0.08487834
000240 17 47 cf bc 57 1d 06 be 3b 93 a1 3d f4 df 2f 3d
       -0.025302453 -0.1309713 0.0788941 0.042938188
000250 3e 52 70 bd 40 bb ae bd 48 e4 e4 bd 15 d8 cd bd
       -0.058672182 -0.08531809 -0.11176354 -0.1005098
000260 45 cf 82 bc 92 92 78 3d 2f eb 43 3d d7 4b d4 bd
       -0.015967974 0.060686655 0.04783171 -0.10366028
000270 ad bc 19 3d 62 12 09 be 17 14 7e bd d1 96 3b bd
       0.03753345 -0.13385919 -0.062030878 -0.045798127
000280 08 dc 40 bd ac 2b 2a bc 27 78 c7 bd 6a b0 9b bd
       -0.04708484 -0.010386389 -0.09739714 -0.07602008
000290 87 55 e2 bc 06 88 21 3c 89 f0 49 bd ef 07 ae 3d
       -0.027628673 0.009859091 -0.049301658 0.08497607
0002a0 cb c0 da bd 47 c4 85 bb be d1 db 3d 48 83 3e bd
       -0.106813036 -0.004082236 0.107333645 -0.04651192
0002b0 6d 89 df 3d bc a1 42 3d 2f d5 c5 bd bc 84 4a 3c
       0.10914884 0.047517523 -0.09659802 0.012360748
0002c0 56 fa 83 3c c1 e1 94 bd c6 20 ce 3d cc 74 e3 bd
       0.01611058 -0.07269622 0.10064845 -0.111062616
0002d0 02 c1 8e 3c 99 94 8a bc 9e 52 98 3d f5 27 41 3d
       0.017426018 -0.01691656 0.07437633 0.047157247
0002e0 45 47 40 3d 7f c4 2a 3d f5 4c 8d bb af 92 05 3c
       0.046942968 0.0416913 -0.0043121525 0.008152648
0002f0 e1 e4 b9 bd 07 f9 8e 3d f0 bf ac 3d 61 7c ac 3d
       -0.09076858 0.06981092 0.08435047 0.08422161
000300 dd d5 97 bd 50 9c 39 3c 57 2a d5 bd 38 d2 43 bd
       -0.07413838 0.011328772 -0.10408466 -0.047807902
000310 67 c2 9c bd c4 b3 3b 3d 66 31 bb bd ed c2 12 bb
       -0.07654267 0.045825735 -0.091402814 -0.0022394017
000320 1c b8 a6 3c bf 36 99 3d 31 aa fe bd be 54 a7 bd
       0.020351462 0.07481145 -0.12434805 -0.0817046
000330 7b bc 7a bd 4d 53 d9 3d 9d 09 43 bd 14 8a 05 3e
       -0.061214905 0.106115915 -0.04761659 0.13040954
000340 c9 48 2f 3d d0 af 2d bd 70 cb db 3a a4 61 85 bc
       0.042794023 -0.042403996 0.0016769003 -0.01628191
000350 06 4c a8 3c 23 c7 96 bd 71 12 8c bc cf fe 60 3d
       0.020544063 -0.07362201 -0.017098637 0.054930504
000360 4a 47 9c bd 50 1a 8a bc 72 65 cf 3d aa 4d b3 bd
       -0.07630785 -0.01685825 0.10126771 -0.087550476
000370 c7 20 b1 bb 8b 14 1d 3e 10 aa cb 3d c8 b4 ea 3b
       -0.0054055187 0.15339868 0.09944546 0.007162664
000380 da dc c8 bd dc f2 8e 3d 68 aa c0 bc d1 1e ba bd
       -0.09807749 0.069799155 -0.023518756 -0.09087909
000390 c4 5d f0 bd 93 dc 3b bc 51 84 f5 3b a4 26 12 40
       -0.117366344 -0.011466163 0.00749258 2.2836084
0003a0 25 f7 0d 3c 12 9a c0 3d b0 ee b9 3d bd 27 28 bd
       0.008664881 0.094043866 0.09078729 -0.041053522
0003b0 50 59 5e 3d 8e b8 e2 bb 8e f5 e5 3b 70 5f 4a 3d
       0.054284394 -0.0069189733 0.007017798 0.049407423
0003c0 02 0a 38 3d 0e 59 5e 3d 88 b6 65 bc 01 16 d5 3c
       0.04493142 0.054284148 -0.01402057 0.026011469
0003d0 d1 0e 51 3d f7 c7 e0 bd 1c da 83 3d e9 4b c2 bd
       0.05103952 -0.1097564 0.064380854 -0.09487135
0003e0 4a f9 a2 3b f2 5b d9 bc d1 4f 86 bd f7 a7 1b 3c
       0.004973565 -0.0265331 -0.065581925 0.009500495
0003f0 8d d8 c6 3d f9 b1 45 bc b4 97 93 bd ae f0 9a bc
       0.097092725 -0.012066358 -0.072066694 -0.018913593

net.0.bias f4 [128]
000000 57 25 de bc d7 42 45 bd 97 4d 93 bd 95 60 f8 3c
       -0.027117414 -0.048159447 -0.071925335 0.030319491
000010 a9 9b 68 bd f2 95 75 bd 86 cb 35 3d e1 20 24 bd
       -0.056789074 -0.059957452 0.04438355 -0.04007042
000020 ca 0f 97 3c 7b ea a9 3b 3c b2 37 3d 17 fa 88 3d
       0.018440146 0.005185423 0.044847712 0.06688326
000030 75 1e cd bd f6 5d 64 bd 9e d4 e4 3d 26 8c ba 3c
       -0.10015575 -0.05575367 0.11173366 0.022771906
000040 cc e0 3f bc 4d b0 a0 3d 0e 24 e6 3d 17 f7 e6 3c
       -0.011711311 0.07846127 0.11237346 0.028193993
000050 35 b4 94 bd 05 39 e1 3d 19 fd e5 bd 88 44 03 be
       -0.07260934 0.10997204 -0.11229915 -0.12819111
000060 18 b5 e7 3c 97 44 e8 bc eb 93 df bd 9c 05 bb 3d
       0.028284594 -0.028353019 -0.10916885 0.09131929
000070 68 62 9a 3c 8a 2e 90 bd 4c 01 75 3d 7c 78 a3 3d
       0.018845752 -0.070401266 0.05981569 0.07981965
000080 c0 ec 45 bc 88 b7 b5 3d 02 d0 6f 3d 38 cf 0e 3d
       -0.012080371 0.088728964 0.05854798 0.034865588
000090 08 7b 79 bd 2e 0a 9f bd 58 d9 6a bc e0 24 e1 bc
       -0.060908347 -0.077656135 -0.014334045 -0.027483404
0000a0 2b 58 d4 bd 9a fb d8 bd f1 0b 8b bd 7f 4b 2f 3c
       -0.10368379 -0.10594864 -0.06789387 0.010699152
0000b0 47 c6 33 bd 71 17 c4 bd 0c 1d a1 bc 29 26 1c bd
       -0.043890264 -0.095747836 -0.019667171 -0.03812233
0000c0 b6 6b 10 bd 62 7c 84 3d 7e df 2b 3d 32 dc a4 3d
       -0.03525897 0.06469037 0.041961186 0.080498114
0000d0 b7 b7 f9 3d af 78 74 3b 9a b2 3e bd 1f bb 57 bb
       0.12193244 0.0037303378 -0.046557046 -0.003291793
0000e0 d7 7f 12 3d 38 5e f8 bc 74 27 b9 3d 77 e0 83 3d
       0.03576645 -0.030318365 0.09040728 0.06439298
0000f0 7a 30 b5 bd 2d 08 18 3d b3 84 82 3c ff cc 3a 3d
       -0.08847137 0.037117172 0.015932417 0.045605656
000100 92 71 7a bd 18 e2 e7 3d 61 fd 23 bd 1c 0d 30 3d
       -0.061143465 0.11322421 -0.040036563 0.042981252
000110 fa ee 75 bd b6 aa 45 3d 0b 94 1e bd 60 1d 4a bd
       -0.06004236 0.048258506 -0.038715404 -0.04934442
000120 8b 99 cd bd 91 fd e2 3c a9 a5 d9 3c bc 4e c8 3c
       -0.100390516 0.0277088 0.02656825 0.024451606
000130 b6 bb 4a bd be ec 81 3c 42 7a 56 bd 27 66 c5 3c
       -0.04949542 0.015859958 -0.052362688 0.024096562
000140 fd b8 ec 3d 50 10 ca bd 92 0f 48 3d 6f 40 6f bd
       0.11558721 -0.098663926 0.048842974 -0.058411058
000150 42 6a fe 3c 70 ac cb bc 5f 12 5d 3d bb e1 9b bd
       0.031056527 -0.024862498 0.0539726 -0.07611414
000160 e4 2f 87 3d 4e 7f 8c 3d e1 5b a7 bd 00 2d a7 bd
       0.06600931 0.06860219 -0.081718214 -0.0816288
000170 2f 52 80 3d 7a d1 a6 bd 38 a6 2c 3d 41 17 7b bd
       0.06265675 -0.08145423 0.042150706 -0.061301474
000180 03 8e c3 bd 93 a9 1b 3d ce 56 1f bd 1d 90 6c bd
       -0.09548571 0.038003515 -0.038901143 -0.057754625
000190 91 c5 28 3d ac 94 56 3d 79 ec b4 3d 88 28 d7 3d
       0.04120404 0.05238788 0.08834166 0.105057776
0001a0 89 bb 46 3d 84 e1 06 bd d1 a0 cd 3c 90 28 a7 3d
       0.04851869 -0.032929912 0.025101097 0.081620336
0001b0 3d ee a0 bd 62 d2 b6 3d b7 cd 1d 3d c5 82 4b 3d
       -0.0785794 0.08926846 0.038526263 0.04968526
0001c0 7a a6 9d 3c ea 3e d3 bd 65 28 1c 3d 46 5e bc 3b
       0.019244421 -0.10314734 0.03812446 0.005748543
0001d0 f8 c6 46 ba 19 d9 55 bd 56 dc af 3d 58 8a c1 bc
       -0.0007582749 -0.052208994 0.085869476 -0.023625538
0001e0 ee 6c d7 ba b9 06 c0 bd 5e 7e e4 3d 8e ee dc bd
       -0.0016435662 -0.09376282 0.11156915 -0.10787688
0001f0 b8 ed 87 3d 33 47 4e 3d fe 79 a9 3c 7e f7 e1 bd
       0.06637138 0.05036087 0.020688053 -0.110335335

net.2.weight f4 [128, 128]
000000 e1 4f 00 bc 11 a1 00 3d f6 67 05 be a2 cb 52 bc
       -0.007831545 0.031403605 -0.13027939 -0.012865933
000010 36 ca 31 bd 51 fa 59 bd 24 dd 8e 3d f6 97 f3 3d
       -0.043405734 -0.053217236 0.06975773 0.118942186
000020 e2 ec ba bd 57 df 40 3d e0 31 34 bd 3f 90 54 3d
       -0.09127213 0.047087993 -0.043992877 0.051895376
000030 19 e0 9d bd 91 7e 01 bc d4 0d 91 bc 5a f6 db 3d
       -0.07708759 -0.007903711 -0.01770679 0.10740347
000040 98 f7 8f 3d 11 0e de bb 8a f3 9b bc 73 1b b9 bc
       0.07029647 -0.006776579 -0.019037027 -0.022596097
000050 dc 63 35 38 6e cb 0b 3d 41 22 c5 3c 00 06 cc 3c
       4.3246764e-05 0.034129553 0.024064185 0.024905205
000060 a7 3b 38 bc 99 67 ef 3d a3 fc 09 bd 18 21 9c bd
       -0.011244691 0.116896816 -0.0336882 -0.076235
000070 d7 b8 51 3d e5 cb 2e 3d b6 3f 09 3d ed b7 b0 3d
       0.051201668 0.042674918 0.033508025 0.08628831
000080 65 cd 11 bd d0 09 0f bd 68 85 c2 3d 5a 18 47 3d
       -0.03559627 -0.034921467 0.094981015 0.048607208
000090 d5 ca 60 3d 81 65 93 bd 92 f8 85 3b 05 f1 99 bc
       0.054880936 -0.07197095 0.00408847 -0.018791685
0000a0 f7 e4 89 bd 2d 82 90 bc a7 91 24 3d df e4 8a 3c
       -0.06733125 -0.017640198 0.040177967 0.016954837
0000b0 c1 19 aa 3d 30 28 0c 3c c8 39 9c 3c 1f cb 82 bc
       0.083056934 0.008554503 0.019070521 -0.015965996
0000c0 79 ed c6 3c 49 9e ac bb 70 fe a6 ba b2 d2 e2 bd
       0.024283158 -0.0052678925 -0.0012740623 -0.11075343
0000d0 76 66 a1 ba b9 bf a0 3c b3 60 a8 3c 79 5f 81 39
       -0.0012313861 0.01962267 0.020553922 0.0002467593
0000e0 fb 37 d4 bd c2 bb 1e bb 0d 5d 92 bc 0b d6 bc 3d
       -0.1036224 -0.00242208 -0.017866636 0.09220513
0000f0 97 ae 47 bd 49 7d 5c 3d bf d4 10 bd a5 e2 17 bd
       -0.048750486 0.05383042 -0.03535914 -0.03708138
000100 cf 44 0c be 01 7e 97 bd ab dc 78 39 c6 16 98 bd
       -0.13698123 -0.0739708 0.00023733328 -0.07426219
000110 be cf 1a 3d b5 2b 62 3d f7 50 90 bc 56 93 e1 3c
       0.037795775 0.055217464 -0.017616732 0.027536076
000120 5b 16 c8 bc f1 dc 69 3d ef b4 2a be 11 f9 ad 3d
       -0.024424722 0.05709547 -0.16670583 0.08494771
000130 a6 dd d9 bd 27 81 20 3c 3f 5e f4 3d 74 20 cb bd
       -0.10637979 0.009796417 0.119320385 -0.09918299
000140 89 fc c2 bd fc 65 3f 3d c3 ec 8d bd ee f1 a3 3a
       -0.095208235 0.04672812 -0.06929924 0.0012508014
000150 15 7c 33 3d 84 cc a9 bd 51 a3 05 bd 92 49 b9 bc
       0.043819506 -0.082909614 -0.032626454 -0.022618089
000160 3a 3c 0b 3d 2f 7e c5 3d 72 9a a6 3d 14 fc a3 bd
       0.033992983 0.09643208 0.08134927 -0.080070645
000170 7c ab 19 bd 8e d2 93 bd 6c 2e c7 3b 3e 48 47 3d
       -0.037517056 -0.072178945 0.006078532 0.04865288
000180 37 e3 9f bd ed 81 81 bc 8e 7f 4d be 5c a0 b1 bc
       -0.0780701 -0.015809024 -0.2006819 -0.02168291
000190 c8 1f d8 3d 1a 4d a9 bd 06 c6 ba bc 14 0e 70 bc
       0.10552937 -0.08266659 -0.022799503 -0.014651794
0001a0 82 a4 03 3e ba f7 a5 bd d1 7c 50 bd b0 07 c3 3b
       0.12855724 -0.08103891 -0.050900284 0.005951844
0001b0 dc 7c be bd 2b 39 ad 3d e0 96 75 bd 83 c2 ca bc
       -0.09301159 0.084581695 -0.05995834 -0.024750954
0001c0 df e4 4a bd fe 0a 00 3d 6f 02 2c bd 65 8c b1 3d
       -0.049534675 0.031260483 -0.04199451 0.08669356
0001d0 d5 23 e8 bd 87 2b 9b bd 7a 94 72 bd 87 03 ad bd
       -0.113349594 -0.075766616 -0.05922363 -0.084479384
0001e0 87 c2 99 bd fd 55 07 3c 7e 1f c6 3d cd 2c ba 3c
       -0.07507806 0.008260247 0.096739754 0.02272644
0001f0 52 91 b8 bc ea b0 e4 3b 47 ec 9b 3d 27 75 a2 bd
       -0.022530232 0.0069790976 0.07613426 -0.07932501
000200 19 28 78 bc 6f 36 9c 3d aa 3b 24 3b 10 15 5d bd
       -0.015146279 0.0762757 0.0025059977 -0.053975165
000210 c4 e4 ae 3c 88 3f 08 bd 23 1d 24 be b4 af 07 3d
       0.021349318 -0.033263713 -0.1602674 0.033126548
000220 23 54 f5 3d 5c b7 17 bc a2 65 01 3d ac 1a 8e bc
       0.119789384 -0.009260025 0.031591065 -0.017346703
000230 70 3f c7 bb 45 ee 3d 3e 24 95 a2 bc a8 9d fc bc
       -0.0060805604 0.18547924 -0.019846506 -0.030836895
000240 5c 56 c4 bd 52 aa 96 bb 9f b9 8c bb 33 31 e5 bc
       -0.09586784 -0.0045979405 -0.0042945887 -0.027977562
000250 ea 51 7d bd 11 5a 0e 3e 89 5d 10 3e db 85 e6 bc
       -0.061845697 0.13901545 0.14098181 -0.02814
000260 df e3 8e bd 96 84 c2 3c 7c db d4 bc 3e 56 e6 3d
       -0.06977057 0.023744863 -0.025983565 0.11246918
000270 a5 fe c6 3c 5b 24 87 3d b5 75 78 bd 94 f4 ec bc
       0.024291346 0.06598731 -0.06065913 -0.028925218
000280 a6 6e 39 3d 81 82 2b 3d 47 0a b4 bc 0f b5 be 3d
       0.04527154 0.041872505 -0.021977557 0.09311878
000290 ff 73 d1 3d 80 40 d5 bd 30 62 0c bd 04 3d 7a 39
       0.102272026 -0.10412693 -0.034273326 0.00023864588
0002a0 a0 9c 83 bd 26 90 c1 bd ba 9c 90 3d 70 8d a3 3c
       -0.06426358 -0.09451322 0.07061143 0.019964904
0002b0 80 b5 1d 3d e2 d5 34 bd bf 46 8d 3d f7 17 09 3e
       0.03850317 -0.044149287 0.06898259 0.13388048
0002c0 10 6c 40 3d 70 8d a1 3d b1 6f fa 3d c1 8b 65 3d
       0.046978056 0.07888305 0.12228335 0.056041483
0002d0 be ac 1c bd 65 3e 4d 3d 3d c6 cc 3d 47 da 0f 3e
       -0.038250677 0.050108332 0.099987485 0.1404811
0002e0 00 4f 1c bd 6e f0 60 3d e9 9f 9e bd d4 05 7d bd
       -0.038161278 0.05491679 -0.07745344 -0.061773136
0002f0 24 f8 8a 3d d6 e2 b6 bd e1 d0 94 3c 88 fd 52 3e
       0.0678561 -0.08929984 0.018166007 0.20604527
000300 0f 09 22 3d a9 69 0a be bd 07 39 3d 05 93 9f 3c
       0.03955942 -0.13516869 0.045173395 0.019479284
000310 d7 34 cb bc bc eb 38 bc d9 94 83 3d d4 da b4 3d
       -0.02480547 -0.011286672 0.06424875 0.08830801
000320 71 1a 3a 3d e2 06 8a 3d dd 48 a0 3d 25 51 e1 3d
       0.045435373 0.06739594 0.078263976 0.11001805
000330 e5 b0 c6 3d 99 b2 a9 3d 05 65 43 bc 3f d7 88 3d
       0.09701709 0.08286018 -0.01192594 0.0668168
000340 2a 4a ca bb ba e6 bb 3d d6 f7 1b 3e 63 d9 33 be
       -0.006173392 0.09174867 0.1523126 -0.17563395
000350 b7 4b 63 3d 1f 02 95 3d 2e 5d 30 bd 61 3e e1 3c
       0.05549213 0.07275795 -0.043057613 0.027495565
000360 8e f4 6e bd 5e 5b 8f 3d e0 ae 89 3c d5 47 e1 3d
       -0.058338694 0.06999849 0.01680702 0.11000029
000370 9e 3a 19 3d 94 fb c4 3d a6 79 a5 3d 6a bf af bb
       0.037409417 0.09618297 0.08079843 -0.0053633945
000380 d6 59 27 3d 75 cf ab bd ad 27 96 bc d4 b8 10 3e
       0.04085716 -0.08389179 -0.018329466 0.14133006
000390 1b 4b ce 3d a6 92 10 be a3 9a 07 be 12 bb a0 3d
       0.10072919 -0.14118442 -0.13242583 0.07848181
0003a0 3f cc 39 3d 02 92 3f bd 2f d2 32 be 74 1f 9e 3c
       0.0453608 -0.046770103 -0.17462991 0.019302107
0003b0 b4 8e 8a bd 3f d3 fb 3d e2 dd 96 bb 8c e3 04 bd
       -0.067655 0.12296151 -0.004604087 -0.032443568
0003c0 ce f9 7e 3c 2d 6f 25 3d 0e f7 fe bc 36 36 78 bc
       0.015562488 0.04038923 -0.031123664 -0.015149644
0003d0 12 89 e5 bb c1 df 2d be 6b f9 15 bd 22 55 07 bd
       -0.0070048654 -0.16979887 -0.036614817 -0.033040173
0003e0 83 c7 2a bd 5e 83 27 3e 1a 18 0b 3d 27 f5 cc 3c
       -0.041694175 0.16358706 0.033958532 0.025019241
0003f0 d3 dc 2a bc d5 6f 0f bd 9c f6 a9 3c bd 29 a2 3d
       -0.010428625 -0.03501876 0.020747475 0.07918117

net.2.bias f4 [128]
000000 c2 cd 06 bd 4f c8 86 bd 59 8a 8f 3d c2 68 4b 3d
       -0.03291107 -0.065811746 0.070088096 0.04966045
000010 01 ed 18 bb 6c 72 3e bd b2 6a 55 3d 62 c7 9e bd
       -0.0023334625 -0.04649584 0.052103706 -0.07752873
000020 17 48 bc bd 11 7a 7c 3d 00 1d 5a 3d 11 eb c9 bc
       -0.091934375 0.06163985 0.053250313 -0.024648221
000030 3d 0d 88 3d 1b 2f 09 bc c5 0f b7 3c c8 0e 1d 3c
       0.0664315 -0.008373047 0.022346387 0.009586044
000040 37 d6 75 3d 3c 5b 9f 3d 6a eb d5 3a 20 f6 6b 3d
       0.060018744 0.077810735 0.0016320769 0.05760777
000050 00 08 8e 3c 9a f2 1c 3d 65 d2 51 bc fa d3 7f bd
       0.0173378 0.0383173 -0.01280651 -0.062458016
000060 80 c2 8b 3d 7b df 4b 3d 42 a7 e2 bd bd 07 91 3b
       0.06824207 0.049773674 -0.11067058 0.0044259713
000070 a3 cb 61 3d 0d f0 18 3d a3 52 25 3d e9 45 3e 3d
       0.055125844 0.037338305 0.04036201 0.04645339
000080 9a 4e a5 bd d7 aa 79 bd ad e7 a7 3d 0c 74 b9 3b
       -0.08071633 -0.06095394 0.081984855 0.005659586
000090 14 87 eb bc 79 65 9e 3d f7 bb 84 bb d3 b2 67 3d
       -0.028750934 0.07734198 -0.0040507275 0.056567024
0000a0 04 78 28 bd bc 15 1e 3d b7 2d 62 3a 80 0c be bd
       -0.04113008 0.038594946 0.0008628028 -0.09279728
0000b0 bf 23 f7 3c de 2a e2 bc 87 0f 33 3d cb ce 39 3c
       0.030168412 -0.027608331 0.04371598 0.011340807
0000c0 85 d5 42 3d 7c d2 6c bd b8 8e 58 3d d6 c7 00 3d
       0.04756691 -0.05781792 0.052870482 0.03144058
0000d0 32 66 a3 bd 92 7d 6f 3d b8 06 30 3c b3 2e a5 3d
       -0.079784766 0.058469363 0.010743789 0.08065548
0000e0 f0 b9 38 bd 57 34 94 bd f6 28 59 bc b8 29 d3 3c
       -0.0450992 -0.072365455 -0.013254395 0.025776729
0000f0 ec 8e ab 3a fd 67 b8 bc 2b 10 72 bd 97 71 8f bc
       0.0013088859 -0.022510523 -0.05909745 -0.017510219
000100 6e ee 14 3d 5f b1 a9 bd 94 bd 71 3d 5e ae a5 bc
       0.036360197 -0.08285784 0.059018686 -0.020224746
000110 bf be 5c bd ab c0 20 bd 75 d8 55 3d 02 b9 a0 bd
       -0.053892847 -0.039246242 0.052208383 -0.078477874
000120 f6 82 44 bd 8c 4c c8 bd bf e2 78 bd 78 41 db 3c
       -0.047976457 -0.09780225 -0.060763117 0.026764616
000130 0c e0 81 bd d3 06 5e 3a c1 17 1e 3d a3 a6 95 bd
       -0.06341562 0.0008469645 0.038596872 -0.07307174
000140 e0 aa 3b 3d 25 ed c0 bc 1b fc b2 bd 96 3f 0f 3d
       0.045817256 -0.02355058 -0.087394916 0.03497275
000150 8f df 99 3d b2 51 30 bc a0 97 1f bc 46 96 4c 3d
       0.075133435 -0.010761665 -0.00974074 0.049948
000160 61 bb 3e bd 07 ba e7 3c 42 66 15 3b c6 05 98 bb
       -0.046565417 0.028286947 0.0022796546 -0.00463936
000170 54 75 9c bc 42 4d 85 bd 0f 86 1f bd ab 64 8a bc
       -0.019098915 -0.065088764 -0.038946208 -0.016893705
000180 96 66 07 bd 65 0c 29 bd ad ea 6b 3c 30 dd bf bc
       -0.033056818 -0.041271586 0.014399213 -0.0234209
000190 8b 13 b4 3c c3 bc 18 bd 04 39 82 3c f0 90 ac bd
       0.021981975 -0.037289392 0.015896328 -0.08426082
0001a0 9d 90 0b 3d c7 0c 36 3c cb 9d 48 3d fa d1 01 3d
       0.03407346 0.011111445 0.048978608 0.03169439
0001b0 57 5c 0c 3c a3 25 ab ba ca 07 a0 ba 60 a7 9e 3c
       0.008566937 -0.0013057481 -0.0012209353 0.01936692
0001c0 58 4b a6 3d 7e f1 0f 3d 32 fe f5 ba 6f 24 62 bd
       0.081198394 0.035142414 -0.0018767773 -0.055210527
0001d0 9b 22 c6 3c fa 4f 3d 3d ee 62 65 3d 64 82 42 3c
       0.024186423 0.04621885 0.05600255 0.011871908
0001e0 02 36 a5 3d 4a d4 29 3d d1 e8 d1 bc b3 2c 46 3d
       0.08066942 0.04146222 -0.02562371 0.048382472
0001f0 63 cf 4d 3d a9 94 f4 bc 7b 8e 0e 3d 5a 79 9a 3d
       0.050246608 -0.029856043 0.03480385 0.07542677

net.4.weight f4 [15, 128]
000000 c3 51 97 bd e0 4e de 3d 4e 12 8c 3c 3c 7b 1d 3c
       -0.07388642 0.10854888 0.017098572 0.009611901
000010 a6 f8 a9 3d e9 5a 93 bd b8 1e 91 bd 9b 8e 3b 3e
       0.08299379 -0.07195074 -0.07085937 0.18316118
000020 bb 63 69 3d b8 c2 4e 3c 45 e6 1e bd b9 7e 34 bc
       0.056979876 0.012619667 -0.03879382 -0.011016541
000030 9f a1 ab bd 26 bb a9 bb ec bb 9a bd ad bf 43 3d
       -0.08380436 -0.0051797805 -0.075553745 0.04779022
000040 74 27 bb 3c a3 53 aa bd 7c fe 1f 3c 3d 3b bb bd
       0.022845961 -0.08316734 0.009765264 -0.09142158
000050 a7 bf 52 3e 1a 54 e2 3d 3b de cc 3c 8f f7 75 3d
       0.20580922 0.11051197 0.025008311 0.060050543
000060 1a 57 2b 3d dc e3 51 3d c5 ff 58 3e 18 de a4 3d
       0.041831113 0.051242694 0.21191318 0.080501735
000070 0d d7 ef 3d ba 34 28 bd 48 77 f1 3c 29 36 7c 3e
       0.117109396 -0.04106591 0.029475823 0.24630035
000080 b4 4f d4 bb 0c bc 29 bd 06 bb 93 bd fc 8a c5 3d
       -0.006479228 -0.0414391 -0.07213406 0.0964565
000090 59 86 c2 bd 80 8d 85 3d 27 95 90 3c 16 4e 88 3d
       -0.09498281 0.065211296 0.017649246 0.06655519
0000a0 b5 f6 66 3e fe 77 ca 3d 15 62 4d 3e b6 f4 01 3e
       0.22555049 0.09886168 0.20056947 0.12691006
0000b0 16 9e 8e 3d 28 ce 28 3d 63 27 a1 bd 38 d6 82 bb
       0.06963746 0.04121223 -0.078688405 -0.003992822
0000c0 ab fc a4 3c e2 ae e7 3d a7 49 5f 3b 0b 53 e1 bc
       0.020140013 0.11312653 0.0034071 -0.027505418
0000d0 b6 95 21 bd 45 a7 10 3e d8 f8 63 3c e4 07 ac 3d
       -0.039449416 0.14126308 0.013914309 0.083999425
0000e0 f6 7a 32 3d ed 8b 9e bd 2b 68 88 3d e2 08 0d be
       0.043574296 -0.077415325 0.066604935 -0.1377292
0000f0 9b 73 77 3d da d8 a0 3d 3e 31 ad 3a 6b bd 9c 3d
       0.060412984 0.07853861 0.0013213528 0.07653316
000100 b6 fa 4c 3e ed 40 32 3e 6b ba 5c 3d 89 02 ec 3d
       0.20017514 0.1740758 0.05388872 0.11523921
000110 ca ef f5 3d 78 43 59 bc c2 fd a1 bc ed 63 89 3d
       0.12008627 -0.013260715 -0.019774321 0.067085125
000120 1c 13 69 bd 46 53 bf 3c a3 d1 5f 3d 91 14 83 3d
       -0.05690299 0.023355138 0.054643285 0.06400407
000130 34 f1 45 3e ed 63 c4 3c cb 27 90 3d 69 ac 33 bd
       0.19330293 0.02397343 0.0703884 -0.043865595
000140 8a 87 09 bd 8c 2a a1 3d 2c df e5 3c 85 ad c0 3d
       -0.033576526 0.07869443 0.028060518 0.09408096
000150 09 41 31 3d 56 7b 68 bd cb 86 5d bc 85 27 15 be
       0.043274913 -0.056758247 -0.013520907 -0.14565857
000160 3a 0a 0e 3e 38 d0 d8 3d 96 e2 7d 3d 74 d5 83 3e
       0.13871089 0.105865896 0.061983667 0.2574879
000170 fc 5c 45 3e bc 38 ec 3d bb 21 f4 bd 3c 5d ce 3d
       0.19273752 0.11534259 -0.11920496 0.10076377
000180 ca ed 84 bd 3e 93 70 bd 34 90 1a 3c d3 3e 68 3e
       -0.06490667 -0.05873417 0.009433795 0.22680216
000190 b1 6c e5 bd 6f 0b d3 3d 46 27 05 3e 4f c8 79 3d
       -0.11202372 0.10304915 0.13003263 0.060982045
0001a0 74 c6 2c 3e 97 ad 33 3e 23 51 b6 3d 24 a8 f6 bb
       0.16872579 0.17546688 0.08902194 -0.007527368
0001b0 18 0f 65 3d 5b ef ca bd 4d 2e 83 bb 4d 64 b0 3c
       0.055922598 -0.09908935 -0.004003322 0.021532202
0001c0 8e d0 bf 3d 3b e6 ab 3d 1f d1 c4 3c c0 d1 92 3d
       0.093659505 0.08393522 0.024025498 0.07168913
0001d0 f2 a4 52 ba 1d 44 12 3e 10 26 f8 3d 1a 0c ba bc
       -0.0008035443 0.14283796 0.12116635 -0.022710849
0001e0 d6 57 aa 3d 25 11 c2 3d fe 1a ca 3d b5 36 27 3c
       0.083175346 0.09475926 0.098684296 0.010205914
0001f0 9f b3 3b bc 81 e3 f6 3d 09 66 09 3d 82 9b b9 3d
       -0.011456399 0.12055112 0.033544574 0.09062864
000200 e5 80 3f bd c9 fd 6f 3e 87 3f 95 bd 1c 0d 47 3d
       -0.046753783 0.23436655 -0.072875075 0.048596486
000210 a3 9b cc 3d aa 70 88 3c 4b ae e4 bd d0 b4 3a 3e
       0.09990623 0.016655285 -0.11166056 0.18233037
000220 41 69 dc 3d 9c 84 47 3e a7 d5 83 bd 6a a8 79 bd
       0.10762263 0.1948418 -0.06437235 -0.060951628
000230 99 be b1 3d 27 c4 76 3b 08 d9 a6 3d 7d c5 10 3b
       0.08678932 0.0037653537 0.08146864 0.0022090368
000240 8c bc e3 3d 7e f9 dc bd 96 66 14 bd 25 be dd bd
       0.11119947 -0.10789774 -0.036230646 -0.10827283
000250 c5 93 19 3e 58 6a 5d 3c 34 05 dd bd 31 13 d1 3c
       0.14997776 0.013514124 -0.10792008 0.025521846
000260 04 b2 32 bd 69 41 b1 3b e9 e6 46 3e 93 af ca 3d
       -0.0436268 0.005409409 0.19424023 0.098967694
000270 77 d2 1a 3e 77 62 9b bd 29 a6 a7 3d 08 46 1e 3e
       0.15119348 -0.0758714 0.081859894 0.15456402
000280 06 00 a6 3d 88 fb 5b bd ab 00 91 bd 13 e5 a5 3d
       0.08105473 -0.053706676 -0.070802055 0.08100333
000290 6e 20 d5 3c 43 2a a6 bc d4 c8 ad bd 99 b0 7a 3d
       0.02601644 -0.020283824 -0.084855705 0.061203573
0002a0 bf 63 1b 3e 60 a2 20 3e c7 17 66 3e b6 eb 14 3e
       0.15174769 0.15686941 0.22470008 0.14543042
0002b0 e5 8f c0 3c 4b 13 83 3d e9 2a 8d bc 03 f2 ef 3d
       0.023506114 0.06400164 -0.017232375 0.11716082
0002c0 a3 27 01 bd f4 85 13 3e 8c df bc 3d 3a c7 aa 3a
       -0.03153194 0.14406568 0.09222326 0.0013029345
0002d0 83 e0 85 3c 0a b8 a5 3d 17 6c e0 3d e6 d8 4d 3c
       0.016342407 0.08091743 0.109581165 0.01256392
0002e0 a5 5c aa 3d 08 cb a1 bc 4c 65 4c 3d 5f c5 f1 bd
       0.08318452 -0.019750133 0.04990129 -0.11805224
0002f0 6e 26 44 3d 97 ac a4 3d 1c 46 02 3d c1 a4 df 3d
       0.047888212 0.080407314 0.031805143 0.10920096
000300 ee 3e 5d 3e 6f 11 47 3e 3f 9d 40 3d 52 d1 1e 3e
       0.21606037 0.19440244 0.04702496 0.15509537
000310 b7 15 0c 3e fc e8 96 bd 4d 15 ed 3b c0 d5 cd bc
       0.13680159 -0.07368657 0.0072352053 -0.025126338
000320 41 bd e0 bd 67 e2 fb 3d 6c 5a 26 3e f8 a9 80 bd
       -0.10973597 0.12299042 0.1624543 -0.06282419
000330 57 c4 2f 3e 20 d3 36 3e a4 fe fc 3d c7 84 09 3e
       0.17164741 0.17853975 0.12353256 0.13429557
000340 46 cb 98 3d 12 be 43 bc e0 ba ae bb 16 47 b6 3d
       0.07460646 -0.011947172 -0.005332336 0.08900277
000350 80 76 3b bd 92 d9 85 3c 5a 17 06 be c9 6b 33 be
       -0.045767307 0.016339097 -0.13094845 -0.17521586
000360 44 94 1f 3e d5 b3 64 3d 38 62 3c 3d 4e 16 43 3e
       0.15583903 0.055835564 0.045992106 0.19051477
000370 d6 36 6f 3e 64 08 ce 3d 52 5c 95 bd 7e d9 20 3c
       0.23360762 0.10060194 -0.07292999 0.009817479
000380 9e 38 c5 bd d4 b1 3b bc 5b 8a 86 bd d9 6a 77 3e
       -0.096299395 -0.011455972 -0.06569358 0.24161853
000390 f5 a9 77 3d 75 92 94 3d 2a ac 2a 3d 29 ec 11 bc
       0.060464818 0.07254497 0.041668095 -0.008906403
0003a0 59 c8 07 3e 6c e5 9b 3d e4 59 4f 3d 98 1c cf 3d
       0.1326002 0.07612118 0.050622836 0.10112876
0003b0 1f bd d8 bc 5a 0d 29 be 46 01 2d bd c4 60 24 bb
       -0.026457367 -0.16509 -0.042237543 -0.002508209
0003c0 69 92 ad 3d 43 07 60 3d 75 73 b3 3d 9d 2e 61 3d
       0.08475191 0.054694425 0.08762256 0.054976095
0003d0 76 08 5a 3d 2b e9 f3 3d 5f d2 83 3c 6a 5c f1 bd
       0.053230725 0.11909708 0.016091524 -0.11785205
0003e0 4d 7e 84 3d bc c4 a6 3d e4 ec 98 bc a4 c2 d2 3d
       0.064694025 0.08142993 -0.018667646 0.10291031
0003f0 25 9b 1f be 80 5c 2f 3d bb 1f fb 3c e1 ea 3a bc
       -0.15586527 0.042812824 0.030654779 -0.011408539

net.4.bias f4 [15]
000000 f1 58 3b bd c4 bb aa 3d d7 a7 80 bc e3 3a f0 bc
       -0.045739118 0.08336595 -0.015705032 -0.029324954
000010 a7 9e 4f 3c ba 6b 0d 3d b6 2e 6c 3d 24 f9 36 bd
       0.012672103 0.034526564 0.057661735 -0.044671193
000020 76 53 69 3d ad bf ad 3d 0e b7 da 3c d1 85 86 3d
       0.05696436 0.08483825 0.026698615 0.06568492
000030 8e 3c f3 3c a5 e1 52 3d 9d 05 ac 3c
       0.02969196 0.051484723 0.02099877

net.0.weight f4 [128, 77]
000000 2d 6c e8 3f b9 4b 6c 3d ec d8 6b bd 12 62 26 bd
       1.8158013 0.057689402 -0.05757992 -0.04062087
000010 92 c2 89 bd a8 c5 07 3d 59 ae 79 3c 93 74 ad 3d
       -0.067265645 0.033147484 0.015239322 0.084695004
000020 a6 dd 43 bd d1 a8 06 3e a6 ab ba 3b 87 83 37 3b
       -0.047818802 0.13150336 0.0056967316 0.002800198
000030 b4 f1 07 be bf bb 50 bd 2f d2 55 bd 82 7e ee 3c
       -0.13275796 -0.0509603 -0.0522024 0.029113058
000040 17 08 bd 3c db 4e 95 3d 9b be aa bd 89 5f 59 bd
       0.023075147 0.07290431 -0.08337136 -0.053069625
000050 c9 6f 1b 3d f4 49 c0 3d 7f a7 e2 bb 50 e4 66 3d
       0.037948404 0.093891054 -0.0069169397 0.05637008
000060 a2 54 74 bc a8 42 5e 3d 77 43 e0 3d b5 84 36 be
       -0.014912756 0.054262787 0.10950368 -0.17824061
000070 38 2c fc bc c6 5f 19 3c 53 ed 70 bd 73 21 30 3c
       -0.030782804 0.009361213 -0.05882008 0.010750162
000080 96 72 8a bd 39 80 ac bd f5 31 49 bd 88 1d c7 bd
       -0.06760137 -0.08422894 -0.04911991 -0.097224295
000090 3c 38 59 bd ba fd bf 3d 21 2e 42 3d 45 21 54 3d
       -0.053032145 0.093745664 0.047407273 0.05178954
0000a0 39 18 7c 3c 61 a9 4a bd 05 6d d2 bb 17 7d 00 be
       0.0153866345 -0.04947794 -0.0064216875 -0.12547718
0000b0 f0 15 27 bd b6 1e 98 bb e5 d9 05 39 54 00 7f 3d
       -0.040792406 -0.004642333 0.0001276504 0.062256172
0000c0 ec 80 44 bc f5 a3 06 3d 20 7c 2d 3d 0a 41 02 3e
       -0.011993628 0.032871205 0.042354703 0.12720123
0000d0 06 c5 69 bd 95 b9 1b 3c 43 d2 99 3d fd 4e 59 bd
       -0.05707266 0.009504695 0.07510807 -0.053053845
0000e0 e3 48 8b 3c 74 00 bc bd 00 d0 a8 bd d2 de 99 bd
       0.017002529 -0.09179774 -0.08242798 -0.07513203
0000f0 a6 90 f2 3b aa c8 6f 3d 65 21 14 be 70 1c 3f 3d
       0.0074024973 0.058540978 -0.14465864 0.04665798
000100 ae 85 cb 3d 0e 58 df bd f8 38 04 3e ee 43 95 3c
       0.09937607 -0.10905467 0.12912357 0.018220868
000110 b5 4d c7 3c cd 90 42 3d 3f 3e 31 bd a0 14 15 be
       0.024329046 0.047501374 -0.043272253 -0.14558649
000120 f2 4f 52 3d ae 76 cf 3d 5f df c5 3d 6e 0b c5 3d
       0.051345773 0.10130058 0.09661745 0.09621321
000130 f8 93 9d 3c a2 fd d0 3f 2e 21 0e 3c 87 4e ab bd
       0.019235596 1.6327403 0.008674903 -0.08364587
000140 08 4a 0c bd 1f 08 cd 3d f7 e5 b4 3d 3e a8 16 be
       -0.03425029 0.100113146 0.08832925 -0.14712617
000150 0d 76 ab 3b 4a ba 2b bd 6d 72 c4 bc ba 13 18 3d
       0.0052325786 -0.041925706 -0.023980344 0.037128188
000160 07 e8 d5 3d 2f af 0f bd 57 e9 92 3d 4c 83 4b 3d
       0.10444646 -0.035079177 0.07173412 0.04968576
000170 0a 78 b4 3d 28 12 d8 3c 90 12 d6 bd 1e 84 a5 bd
       0.08811958 0.026375845 -0.10452759 -0.0808184
000180 d6 a9 61 3d 2a 95 b4 3c 99 47 e6 bd f0 d8 04 bc
       0.05509361 0.022043783 -0.11244125 -0.008108363
000190 12 d9 eb 3d 12 d5 8c 3d da de f7 bd 1e 90 0a bd
       0.11516012 0.068765774 -0.121030524 -0.033828847
0001a0 cb d2 01 be cf 28 b1 3c 70 3d 27 3d fd 49 51 bd
       -0.12678067 0.021625904 0.040830076 -0.05109595
0001b0 cd 6b 98 3c a2 f0 bd 3c 8c f1 25 3d dc 9a bf 3d
       0.01860609 0.023186032 0.04051356 0.09355709
0001c0 6a 10 70 bd 98 40 d4 3d c5 b8 94 3d 11 85 c8 bd
       -0.058609404 0.10363883 0.072618045 -0.097910054
0001d0 df 29 f7 bc 99 1e 8d bd d5 e5 2f bd ef df ab bb
       -0.030171333 -0.06890602 -0.042943794 -0.005245201
0001e0 92 1c fc 3c 62 0a 2d 3c 80 e4 8c bd 6c db de 3c
       0.030775342 0.0105615575 -0.068795204 0.027204238
0001f0 97 17 d9 bd 1c 13 76 3d f0 33 d4 bd 1c 05 b9 bc
       -0.106002025 0.060076818 -0.10361469 -0.022585444
000200 92 c0 aa bc d3 9b 0d bd 11 be 3f 3c bc f1 97 3c
       -0.020843778 -0.034572434 0.01170303 0.018547885
000210 70 3f 8a bd 72 d6 94 bb 51 5e a3 3d d8 92 5d bc
       -0.06750381 -0.0045421654 0.07976974 -0.01352378
000220 f5 fa 9a bc 43 d0 87 bd 7e 78 d4 3c b7 35 19 3d
       -0.018918494 -0.0663152 0.025936361 0.037404742
000230 f2 58 22 3e e8 c9 6f 3c f8 aa d2 3d 14 1e ae 3d
       0.15854242 0.014635541 0.10286516 0.08501831
000240 3d b4 d0 bc 30 e1 04 be 38 d9 a1 3d 58 c8 2e 3d
       -0.02547657 -0.12976527 0.07902759 0.04267153
000250 8c dd 6e bd 68 e4 ad bd bc 90 e4 bd c6 02 ce bd
       -0.058316752 -0.08490831 -0.111604184 -0.10059123
000260 97 18 83 bc fc 92 78 3d e9 90 3c 3d f1 fe d5 bd
       -0.016002936 0.06068705 0.046036635 -0.10449017
000270 e0 6b 14 3d db 01 07 be ae 93 7d bd 63 1b 3f bd
       0.03623569 -0.13184302 -0.061908416 -0.046656977
000280 1a 60 3e bd 6f 73 30 bc f0 01 c9 bd 13 cf 9d bd
       -0.04647837 -0.010769709 -0.09814823 -0.07705512
000290 7b 08 fa bc b9 2c 12 3c a6 0a 4d bd 73 c3 ac 3d
       -0.030521622 0.0089217955 -0.050058983 0.084357165
0002a0 46 e1 da bd 3e a2 a1 bb e6 1c da 3d 24 0e 42 bd
       -0.10687499 -0.004932671 0.10650043 -0.047376767
0002b0 53 d6 dd 3d 79 3b 3f 3d 49 88 c7 bd 35 b7 25 3c
       0.10831895 0.046687577 -0.09742791 0.010114481
0002c0 60 fa 86 3c 86 f8 97 bd d2 66 cc 3d bd e9 e3 bd
       0.01647681 -0.07420449 0.09980549 -0.111285664
0002d0 57 b8 8a 3c 07 48 91 bc 4d da 95 3d d2 d3 39 3d
       0.016933603 -0.01773454 0.07317028 0.045368023
0002e0 93 5c 3b 3d ac 64 27 3d 5c 9d a1 bb 4e c2 92 3b
       0.045742583 0.040867493 -0.004932089 0.0044787293
0002f0 2f a1 bb bd 7c 3c 8d 3d d6 16 ad 3d 47 c9 aa 3d
       -0.09161603 0.06896302 0.08451621 0.08339172
000300 f7 88 99 bd 54 03 2c 3c ee 37 d5 bd 48 09 41 bd
       -0.07496827 0.01049884 -0.10411058 -0.047127992
000310 e5 5c 9f bd 81 4d 38 3d 82 a1 bb bd 81 dd 26 bb
       -0.0778139 0.04499579 -0.091616645 -0.0025461616
000320 10 1a a0 3c 49 9c 93 3d 72 2a ff bd 5b 6c a9 bd
       0.019543678 0.072075434 -0.12459268 -0.0827262
000330 b4 19 7e bd e1 a2 d8 3d 29 dd 47 bd 83 b0 04 3e
       -0.06203623 0.10577942 -0.0487949 0.12957959
000340 e3 c3 2b 3d 91 98 37 bd 25 cd 5d 3a 1f 2e 8c bc
       0.04193486 -0.044823233 0.000846105 -0.017111836
000350 8a 7f a1 3c 03 d4 96 bd 71 56 58 bc ab f1 5c 3d
       0.019714136 -0.07364657 -0.013204203 0.05394141
000360 73 fa 9d bd fc fd 8a bc af 8b ce 3d 2b fb b4 bd
       -0.07713785 -0.016966812 0.10085236 -0.08836969
000370 70 b7 bd bb 58 b2 1b 3e ba 2c c4 3d 87 ba cf 3b
       -0.0057896897 0.15204751 0.095788434 0.0063393745
000380 16 f3 c9 bd d4 19 89 3d 40 7a c7 bc df 44 bd bd
       -0.09860818 0.066943794 -0.024350286 -0.09241652
000390 a2 96 f4 bd 90 75 49 bc 58 52 da 3b 93 22 12 40
       -0.119427934 -0.0122960955 0.006662648 2.2833602
0003a0 45 3e 15 3c e4 e6 c0 3d 3c 6e bb 3d d5 c9 28 bd
       0.0091090845 0.09419039 0.09151885 -0.041208107
0003b0 f7 e9 5f 3d c2 7e db bb 72 db e6 3b 30 28 4c 3d
       0.054666486 -0.0066984603 0.007045203 0.049843013
0003c0 54 03 3c 3d 1b 6a 60 3d ed 37 5a bc 8f 46 d7 3c
       0.04590161 0.05478869 -0.013318998 0.026278762
0003d0 ce b6 52 3d e8 dd e0 bd 47 92 84 3d f3 c9 c1 bd
       0.051443867 -0.10979825 0.06473213 -0.09462347
0003e0 a7 76 b2 3b b6 36 d6 bc f5 66 85 bd 17 ef 22 3c
       0.0054462734 -0.026149135 -0.06513778 0.009944699
0003f0 31 66 c7 3d 9d a6 40 bc bf e3 92 bd d1 2e 9a bc
       0.09736288 -0.011758474 -0.07172345 -0.018821152

net.0.bias f4 [128]
000000 3b 4a df bc 6d 42 45 bd b1 00 95 bd 23 04 fc 3c
       -0.027257076 -0.04815905 -0.072755225 0.030763691
000010 26 b5 6c bd 85 21 74 bd d2 2c 35 3d 1b ee 23 bd
       -0.057789944 -0.05960228 0.044232197 -0.040021997
000020 29 a8 96 3c 45 b2 b2 3b 2d de 31 3d 0f fb 88 3d
       0.018390732 0.0054533803 0.043424774 0.066885106
000030 75 1e cd bd 4d 5b 67 bd 9e d4 e4 3d 10 75 bb 3c
       -0.10015575 -0.056483556 0.11173366 0.022882968
000040 96 50 3f bc 4c 74 a0 3d 06 7b e3 3d 93 59 e7 3c
       -0.011676928 0.07834682 0.11107449 0.028240955
000050 93 de 93 bd a2 b6 e0 3d 7d 19 e6 bd 88 44 03 be
       -0.07220187 0.109723344 -0.1123533 -0.12819111
000060 e0 9a e7 3c ea 59 e9 bc da 2b e0 bd 6b 0f bb 3d
       0.028272092 -0.028485257 -0.10945864 0.091338
000070 96 45 98 3c 92 d9 90 bd 61 42 75 3d 7c 78 a3 3d
       0.018587869 -0.07072748 0.059877757 0.07981965
000080 c0 ec 45 bc 8a 05 b6 3d 64 fe 70 3d a3 71 0e 3d
       -0.012080371 0.08887775 0.058836356 0.03477634
000090 a5 9f 79 bd b4 f3 9f bd b3 65 6d bc de 63 e0 bc
       -0.060943265 -0.078101546 -0.014489579 -0.02739137
0000a0 a8 18 d4 bd e5 91 d8 bd 7d 2a 8c bd e7 d1 2f 3c
       -0.10356265 -0.10574702 -0.068440415 0.010731197
0000b0 61 b0 33 bd 71 17 c4 bd 0c 1d a1 bc 4d d6 1b bd
       -0.04386938 -0.095747836 -0.019667171 -0.03804617
0000c0 13 ec 0e bd fa a7 84 3d 85 73 2c 3d fd ea a4 3d
       -0.034893107 0.064773515 0.042102356 0.08052633
0000d0 23 67 f9 3d 6a e2 81 3b 84 15 3d bd 6d 69 58 bb
       0.12177875 0.0039637582 -0.046163097 -0.0033021823
0000e0 f5 d0 0b 3d 1e 2d f9 bc 89 24 b8 3d 81 8c 81 3d
       0.034134824 -0.030417021 0.089913435 0.06325627
0000f0 7a 30 b5 bd e0 60 16 3d 8b e5 82 3c 4c 07 3b 3d
       -0.08847137 0.03671348 0.015978595 0.045661256
000100 6e 65 7b bd ab fb e7 3d 36 03 24 bd 13 e6 30 3d
       -0.061376028 0.11327299 -0.040042125 0.043188166
000110 ed fa 75 bd 64 88 45 3d 2d f5 1d bd d3 00 4a bd
       -0.060053755 0.048225775 -0.038563896 -0.049317192
000120 39 6e ce bd 27 a5 e3 3c 61 f5 db 3c 0e f8 c7 3c
       -0.10079617 0.027788712 0.026850404 0.024410274
000130 c9 26 4c bd 13 db 81 3c 7f d6 55 bd 2a 1c c6 3c
       -0.049841676 0.015851533 -0.052206513 0.024183352
000140 58 79 eb 3d db 52 ca bd a5 38 48 3d bf 65 6f bd
       0.11497754 -0.09879085 0.048882145 -0.058446642
000150 7d 42 fd 3c 70 ac cb bc 8b 91 5c 3d ea d6 9b bd
       0.030915493 -0.024862498 0.053849738 -0.07609351
000160 82 2b 86 3d 44 45 8d 3d 1a f5 a6 bd 89 32 a7 bd
       0.06551267 0.06897977 -0.08152218 -0.08163936
000170 27 35 81 3d b2 d2 a6 bd 6f 9e 2c 3d 41 17 7b bd
       0.06308966 -0.08145656 0.04214328 -0.061301474
000180 84 5e c3 bd cd d9 1b 3d 3d e1 1f bd 52 64 6d bd
       -0.09539512 0.038049508 -0.039033163 -0.057957
000190 1f 8b 2b 3d 66 93 56 3d ab 18 b5 3d 7b 87 d7 3d
       0.041880723 0.052386664 0.08842596 0.10523888
0001a0 bc 5a 46 3d 84 e1 06 bd 2a 5a cd 3c 5d 8f a6 3d
       0.048426375 -0.032929912 0.025067408 0.08132813
0001b0 ac 36 a1 bd 86 fa b6 3d 49 5b 1e 3d 25 ab 4b 3d
       -0.07871756 0.08934502 0.038661275 0.049723763
0001c0 52 cb 9e 3c ba 38 d3 bd 65 28 1c 3d e8 94 bd 3b
       0.01938406 -0.10313554 0.03812446 0.0057855733
0001d0 1b 7e 62 ba b7 d2 55 bd d3 3a b0 3d 58 8a c1 bc
       -0.0008640007 -0.052202906 0.0860497 -0.023625538
0001e0 a2 90 e0 ba 86 86 bf bd 13 fa e3 3d ad fa dc bd
       -0.0017132948 -0.0935183 0.11131682 -0.1079
0001f0 6f 0f 89 3d 16 cf 4d 3d 19 5d ab 3c 7e f7 e1 bd
       0.06692397 0.05024632 0.020918416 -0.110335335

net.2.weight f4 [128, 128]
000000 ea b4 ef bb 1f 66 fe 3c 0c 91 06 be 11 d7 52 bc
       -0.007315268 0.031054555 -0.13141268 -0.012868659
000010 1e 8d 31 bd 20 cd 5a bd 22 1e 8f 3d da 04 f5 3d
       -0.04334747 -0.05341828 0.06988169 0.11963816
000020 74 c5 ba bd 01 c2 45 3d ec 3d 35 bd bc aa 57 3d
       -0.091196924 0.04828072 -0.044248506 0.05265306
000030 19 e0 9d bd c8 c1 f1 bb d4 0d 91 bc 52 ef da 3d
       -0.07708759 -0.007377837 -0.01770679 0.10690178
000040 ef 28 90 3d 64 47 cc bb 59 f4 9b bc 6a 16 b7 bc
       0.070390575 -0.0062340964 -0.019037412 -0.022349555
000050 00 57 3f 3a 53 56 0d 3d 04 fa c5 3c 00 06 cc 3c
       0.0007299036 0.034506153 0.024167068 0.024905205
000060 fb 7c 35 bc 2f d2 ef 3d f8 a4 09 bd ef f0 9b bd
       -0.011077161 0.11710011 -0.033604592 -0.07614314
000070 9e e8 53 3d 2f d8 2e 3d 18 4a 0b 3d ed b7 b0 3d
       0.051735513 0.042686637 0.03400621 0.08628831
000080 65 cd 11 bd b6 cf 0e bd 40 a7 c1 3d 94 9c 45 3d
       -0.03559627 -0.034866057 0.094557285 0.048245028
000090 bb d5 60 3d fa 5c 92 bd 48 69 84 3b cd 7f 97 bc
       0.05489133 -0.0714664 0.004040871 -0.018493557
0000a0 fc 2e 89 bd ab 3b 8d bc e0 36 28 3d 53 cb 8c 3c
       -0.06698415 -0.017240366 0.041067958 0.017186796
0000b0 9f 0f aa 3d 30 28 0c 3c c8 39 9c 3c 70 9b 77 bc
       0.08303761 0.008554503 0.019070521 -0.015112743
0000c0 b9 43 c8 3c 66 cd a8 bb ff aa 5a ba 0b d5 e3 bd
       0.024446355 -0.0051514385 -0.00083415204 -0.11124619
0000d0 5a 74 49 ba 98 1a 9f 3c 24 08 b2 3c 81 53 80 3a
       -0.0007684879 0.01942186 0.021732397 0.0009790511
0000e0 8b d6 d6 bd ee 72 13 bb c0 e3 8d bc f4 67 b9 3d
       -0.104901396 -0.0022498923 -0.017320514 0.090530306
0000f0 97 ae 47 bd 88 46 58 3d 09 11 0b bd 01 55 16 bd
       -0.048750486 0.05280164 -0.033951793 -0.03670216
000100 6a 9a 0b be aa 87 97 bd a1 9b 66 3a a9 d8 96 bd
       -0.13633123 -0.07398923 0.0008796994 -0.073655434
000110 94 72 1a 3d b5 bd 62 3d 63 d5 88 bc f9 cc e2 3c
       0.037706926 0.0553567 -0.016703313 0.02768563
000120 93 23 cd bc 03 5e 6c 3d 33 5d 2a be ae b9 ad 3d
       -0.025041377 0.057706844 -0.16637115 0.08482681
000130 39 ed da bd e7 90 26 3c 31 e1 f4 3d 7b 2e ca bd
       -0.10689778 0.010166383 0.11957014 -0.09872147
000140 bd f3 c1 bd 2a 2f 3f 3d cd 02 8d bd 5c 77 df 3a
       -0.094703175 0.04667584 -0.068853 0.0017049122
000150 8d d2 32 3d 84 cc a9 bd 4d 63 04 bd eb 73 ba bc
       0.043657828 -0.082909614 -0.032321263 -0.022760352
000160 1a 35 08 3d 04 be c6 3d d4 28 a8 3d 20 6e a3 bd
       0.033253767 0.09704211 0.08210912 -0.07979989
000170 4d 46 19 bd bb 2f 94 bd 8a 9a dd 3b 3e 48 47 3d
       -0.03742056 -0.07235666 0.0067628073 0.04865288
000180 f4 85 a0 bd 2e 35 79 bc 41 f2 4c be 2a 4f a6 bc
       -0.078380495 -0.015210433 -0.20014288 -0.02030142
000190 b6 84 da 3d d0 00 a9 bd 81 e1 b7 bc 26 ec 61 bc
       0.10669844 -0.08252108 -0.022446396 -0.013789212
0001a0 37 2e 04 3e ba f7 a5 bd 15 29 4f bd 1e 5f ba 3b
       0.12908255 -0.08103891 -0.05057629 0.0056876084
0001b0 55 15 be bd 4a fb ae 3d 87 62 72 bd 4b 92 c9 bc
       -0.092814125 0.08544023 -0.059175994 -0.02460589
0001c0 8e 49 4a bd c9 7c 01 3d 6f 02 2c bd 6b 61 b2 3d
       -0.049386553 0.031613145 -0.04199451 0.08709987
0001d0 ad e5 e8 bd e1 24 9a bd 12 4c 70 bd 87 03 ad bd
       -0.11371932 -0.07526565 -0.058666296 -0.084479384
0001e0 8a 73 98 bd f3 d6 0d 3c f1 26 c6 3d 58 fd b9 3c
       -0.07443912 0.008657205 0.09675396 0.022703812
0001f0 a8 8b b3 bc e6 b5 e8 3b 09 a4 9c 3d 27 75 a2 bd
       -0.02191718 0.007101762 0.07648475 -0.07932501
000200 e4 0b 77 bc 07 07 9c 3d ce 1a 50 3b 06 77 5d bd
       -0.015078519 0.07618528 0.0031754258 -0.054068588
000210 17 43 a8 3c a3 de 08 bd 05 3e 24 be df f4 08 3d
       0.020539803 -0.033415448 -0.16039284 0.033436652
000220 a6 3c f4 3d 5f aa 09 bc e3 9d 06 3d b0 12 8e bc
       0.1192563 -0.008402436 0.032865416 -0.017342895
000230 70 3f c7 bb 6b 86 3d 3e 24 95 a2 bc 27 2d 05 bd
       -0.0060805604 0.18508308 -0.019846506 -0.032513764
000240 23 c9 c4 bd 12 c9 97 bb 5c 49 a2 bb 7d b8 e4 bc
       -0.09608676 -0.0046321237 -0.004952593 -0.027920002
000250 37 4e 80 bd 7a 59 0e 3e d4 25 10 3e db 85 e6 bc
       -0.06264918 0.1390132 0.1407693 -0.02814
000260 69 76 8f bd 46 9e be 3c 20 e7 d1 bc d5 51 e6 3d
       -0.07005007 0.02326883 -0.025622904 0.11246077
000270 24 9e c6 3c 64 44 87 3d a4 7a 78 bd 94 f4 ec bc
       0.02424533 0.06604841 -0.060663834 -0.028925218
000280 a6 6e 39 3d 51 bd 30 3d 61 c2 b6 bc fa 21 be 3d
       0.04527154 0.043149296 -0.022309484 0.09283824
000290 0f b4 d0 3d bb 92 d5 bd cd d7 0e bd ec eb 1b b9
       0.101905935 -0.10428377 -0.034873772 -0.0001486984
0002a0 9a fa 83 bd c6 3f c0 bd 28 c6 8d 3d 6e 04 a4 3c
       -0.06444283 -0.09387164 0.06922561 0.020021643
0002b0 56 42 1d 3d e2 d5 34 bd bf 46 8d 3d 3d 4d 09 3e
       0.03839334 -0.044149287 0.06898259 0.1340837
0002c0 0c a3 41 3d 22 ef a0 3d 25 e9 f9 3d ef 36 68 3d
       0.047274634 0.07858111 0.12202672 0.056693014
0002d0 d9 1d 19 bd fc 23 4d 3d e3 12 ce 3d 7c 76 0f 3e
       -0.03738198 0.050083145 0.10062196 0.14010042
0002e0 d4 a7 1a bd 82 3c 60 3d eb 6b 9e bd 71 e3 87 bd
       -0.03775771 0.054745205 -0.077354275 -0.06635178
0002f0 24 f8 8a 3d 43 18 ba bd f4 f5 91 3c 31 c1 52 3e
       0.0678561 -0.09086659 0.017817475 0.20581509
000300 14 a3 21 3d dd 87 0a be d2 4c 38 3d 74 fc 9e 3c
       0.039462164 -0.1352839 0.044995137 0.019407488
000310 2c 67 cd bc da 83 3f bc 66 36 83 3d bb 10 b5 3d
       -0.02507361 -0.011689151 0.0640686 0.08841082
000320 e3 52 39 3d 9b de 8a 3d c0 ac a0 3d ab f1 e0 3d
       0.045245063 0.0678074 0.078454494 0.109835945
000330 d5 06 c4 3d a4 fd a8 3d 3b 87 34 bc 8a ff 87 3d
       0.095716156 0.08251503 -0.01101857 0.06640537
000340 7e 9c ac bb fe ed bb 3d bc 2a 1c 3e ba af 33 be
       -0.0052676788 0.09176253 0.15250677 -0.17547503
000350 3b 36 63 3d 1f 02 95 3d 36 e9 30 bd dd 4c e0 3c
       0.05547164 0.07275795 -0.043191157 0.027380401
000360 3c b7 6e bd 57 f0 8e 3d 25 0a 8b 3c 8a 2d e0 3d
       -0.058280215 0.06979435 0.01697261 0.10946186
000370 08 a0 18 3d cb a9 c4 3d 09 db a4 3d 6a bf af bb
       0.037261993 0.09602698 0.0804959 -0.0053633945
000380 bc 8a 22 3d 28 e3 ab bd 20 97 9c bc 02 94 10 3e
       0.03968309 -0.08392936 -0.01911503 0.1411896
000390 09 6c d0 3d 7d 4b 11 be 52 5a 07 be ed c3 a0 3d
       0.10176856 -0.14188953 -0.13218048 0.0784987
0003a0 22 2b 39 3d 02 92 3f bd bc 0c 33 be ce c6 9a 3c
       0.04520715 -0.046770103 -0.17485327 0.018893626
0003b0 22 04 8b bd d0 3c fb 3d 9f 07 9c bb b4 f6 04 bd
       -0.06787898 0.122674584 -0.0047616507 -0.032461837
0003c0 0c 3b 7c 3c 7d 67 25 3d 0e f7 fe bc 15 50 78 bc
       0.015394937 0.040381897 -0.031123664 -0.015155812
0003d0 72 18 f4 bb aa 52 2e be f8 3e 18 bd 22 55 07 bd
       -0.007449203 -0.17023721 -0.037169427 -0.033040173
0003e0 a7 86 2a bd 1f a4 27 3e 8c 91 0f 3d a7 dc cb 3c
       -0.04163232 0.16371201 0.035050914 0.024885489
0003f0 f0 cb 20 bc bc 59 0e bd 26 0b a6 3c bd 29 a2 3d
       -0.0098142475 -0.034753546 0.020268988 0.07918117

net.2.bias f4 [128]
000000 e0 6b 05 bd 97 04 87 bd 9f e2 8f 3d 24 39 50 3d
       -0.03257358 -0.06592672 0.070256464 0.050835744
000010 e7 f2 30 bb 0c 0c 3e bd 2f 5b 56 3d e7 d7 9e bd
       -0.002700025 -0.046398208 0.052333053 -0.07756024
000020 db 56 bd bd d6 d8 7b 3d 92 db 5c 3d 23 b7 c4 bc
       -0.09245082 0.061486088 0.053920336 -0.024013108
000030 fa 75 8b 3d aa 74 09 bc 36 d1 b3 3c 89 a8 1e 3c
       0.068096116 -0.008389631 0.021950345 0.009683737
000040 0d 69 75 3d fa 0f a0 3d b5 f2 14 3a f2 f4 6b 3d
       0.059914637 0.07815547 0.0005681918 0.057606645
000050 5a 0a 93 3c 46 73 1c 3d 29 bc 51 bc c6 f6 80 bd
       0.017949272 0.03819587 -0.0128012085 -0.06297068
000060 d8 90 8c 3d 4e 58 4c 3d 59 02 e2 bd 87 a5 95 3b
       0.06863564 0.0498889 -0.11035604 0.0045668515
000070 73 b5 62 3d b9 2e 14 3d a3 52 25 3d 4c 5d 3e 3d
       0.055348825 0.03617737 0.04036201 0.046475694
000080 c9 c3 a3 bd 2c a8 78 bd db 00 a9 3d ff 0a a1 3b
       -0.079963274 -0.060707256 0.08252116 0.004914641
000090 aa 04 e4 bc 6d 74 9d 3d 73 42 9e bb 2a 2f 68 3d
       -0.027834255 0.07688222 -0.0048296987 0.056685604
0000a0 ac bc 28 bd b1 45 1d 3d 16 15 e6 39 92 8d bc bd
       -0.041195557 0.03839654 0.0004388473 -0.0920669
0000b0 9b f3 f7 3c e2 86 e4 bc 5d 2a 34 3d 8a c3 48 3c
       0.030267527 -0.027896348 0.043985713 0.012253651
0000c0 91 e7 44 3d dd cd 6c bd c7 0c 56 3d 63 e2 01 3d
       0.0480724 -0.057813514 0.05225828 0.03171004
0000d0 47 7c a3 bd b2 01 6f 3d 22 4a 2b 3c f0 e2 a4 3d
       -0.079826884 0.058351226 0.010454686 0.080510974
0000e0 6b 0e 38 bd 9d ad 94 bd d7 10 45 bc 38 a8 d4 3c
       -0.044935625 -0.072596766 -0.012027941 0.02595912
0000f0 74 22 08 b8 62 48 ba bc 3a 24 74 bd b1 f2 90 bc
       -3.2457014e-05 -0.022739593 -0.05960486 -0.01769385
000100 60 43 16 3d 0d 8b aa bd fa 0f 76 3d 39 b1 9f bc
       0.036685348 -0.08327303 0.06007383 -0.019493686
000110 3d 71 5d bd ab c0 20 bd 0d 9e 57 3d 64 4b 9b bd
       -0.05406307 -0.039246242 0.052640963 -0.07582739
000120 aa c4 43 bd 44 52 c9 bd ba b7 76 bd 78 41 db 3c
       -0.047794975 -0.09830144 -0.06023381 0.026764616
000130 26 50 81 bd 72 82 be 39 a0 09 1d 3d 30 df 95 bd
       -0.06314115 0.00036336813 0.038339257 -0.0731796
000140 fc 64 3b 3d fe be c4 bc 49 64 b4 bd 16 62 0e 3d
       0.045750603 -0.024016853 -0.088081904 0.03476151
000150 60 94 9a 3d d8 c4 23 bc e5 be 24 bc 39 ed 4b 3d
       0.075478315 -0.009995662 -0.010055278 0.04978678
000160 2c d0 3f bd 53 f4 e7 3c 19 b1 d9 3a 4b 07 92 bb
       -0.046829388 0.028314745 0.0016608565 -0.004456436
000170 2c 36 9d bc e4 21 85 bd 4b bc 21 bd 72 35 87 bc
       -0.01919087 -0.06500605 -0.03948621 -0.016504977
000180 2a e8 09 bd 02 48 2a bd 13 41 64 3c 62 75 c0 bc
       -0.033668675 -0.04157258 0.0139315305 -0.023493472
000190 99 5b b8 3c 47 e1 19 bd 85 11 81 3c 5e 3a ab bd
       0.022504615 -0.037568357 0.015755424 -0.08360742
0001a0 46 8f 0a 3d 0e 4a 37 3c 31 bc 49 3d 0a e6 ff 3c
       0.033828042 0.01118709 0.04925174 0.03123762
0001b0 40 89 05 3c 0d 89 02 ba 21 e4 28 bb bb f4 93 3c
       0.008150399 -0.00049795286 -0.002577074 0.018061033
0001c0 90 05 a6 3d f6 6f 10 3d 05 7e 1d bb 69 ff 61 bd
       0.0810653 0.035263024 -0.0024031412 -0.05517522
0001d0 a1 34 ce 3c ea 31 3c 3d 22 bd 65 3d fa e1 3c 3c
       0.02517158 0.04594604 0.056088574 0.011528486
0001e0 21 5b a5 3d 1c 39 25 3d 90 b8 d1 bc 9b 83 48 3d
       0.08074022 0.040337667 -0.025600702 0.048953634
0001f0 c6 6d 4f 3d 32 db f3 bc 57 93 0e 3d aa c8 99 3d
       0.050641797 -0.029767606 0.034808483 0.07508977
