ddqn_out_softmax/dqn_ep2850.pt (torch, 464501 bytes, 24 tensors)

net.0.weight f4 [128, 77]
000000 4c 55 ac 3f 3e 6a 73 3d 6d 5a 76 bd 4f 85 62 bd
       1.346353 0.059427492 -0.06014483 -0.055302914
000010 ba 52 61 bd 6e 92 10 3d ea 31 2c 3c b5 bb c9 3d
       -0.055010535 0.035295896 0.010509947 0.098502554
000020 7d 5c 2d bd a5 fa eb 3d e6 3b fc bb ae b3 88 bc
       -0.04232453 0.11522416 -0.00769757 -0.01668724
000030 b5 20 1b be be e0 50 bd 51 d8 23 bd 72 15 9b 3c
       -0.15149195 -0.05099558 -0.040001217 0.018931124
000040 d8 b1 fe 3c 1d 3a 8d 3d 9b c4 a5 bd 04 41 52 bd
       0.031090662 0.0689585 -0.0809414 -0.051331535
000050 4e 8e 22 3d 0a ba b2 3d 7b 55 a9 bc 46 6e 9b 3d
       0.039686494 0.087268904 -0.020670643 0.07589392
000060 f1 9b 9b bc c3 4e 34 3d 00 78 03 3e 4c df 29 be
       -0.018995257 0.044020426 0.12838745 -0.16589087
000070 87 80 c5 bc 19 e4 e1 3a f6 c3 94 bd 07 48 b3 3c
       -0.024109138 0.0017234116 -0.07263939 0.021884931
000080 34 d8 88 bd 3f 94 cf bd 8b 2c 77 bd fc f5 bf bd
       -0.066818625 -0.101356976 -0.060345214 -0.0937309
000090 c7 8e 8a bd b3 28 c5 3d a6 4c 49 3d ca 3f 5b 3d
       -0.06765514 0.096269034 0.049145363 0.05352763
0000a0 92 94 0d 3c 32 45 29 bd 7c 9f 20 3b c7 4e 0a be
       0.008641379 -0.041325755 0.0024509123 -0.13506614
0000b0 a0 8d 21 bd b1 8c 50 bc 1b de d6 3b 93 21 b2 3d
       -0.039441705 -0.012728856 0.0065572388 0.0869781
0000c0 4d f4 a1 bb 96 c0 ee bc c6 2c 44 3d c4 97 03 3e
       -0.004942453 -0.029144567 0.04789426 0.12850863
0000d0 f5 e9 4f bd 34 7f 82 3c 9a af a4 3d 90 f2 8e bd
       -0.05076023 0.015929796 0.08041306 -0.06979859
0000e0 06 b3 a0 3c 34 71 b8 bd c0 40 a5 bd 46 e5 af bd
       0.019616615 -0.09005967 -0.08068991 -0.08588652
0000f0 f6 e8 e3 3c 2f 08 8a 3d 14 48 05 be 43 a2 86 3d
       0.027821045 0.06739842 -0.13015777 0.06573918
000100 b0 21 be 3d 07 c8 e0 bd fd d0 f7 3d 45 49 56 3c
       0.09283769 -0.10975652 0.12100408 0.013078992
000110 ff 05 08 bc 97 d2 20 3d e1 a5 58 bd bb ab 16 be
       -0.008302211 0.039263334 -0.05289257 -0.14713947
000120 bc a1 32 3d bf 78 d0 3d 01 4b c4 3d 26 25 c9 3d
       0.043611273 0.101792805 0.09584618 0.098215386
000130 86 d1 ab 3c e0 9b 9c 3f 72 6c 5d 3c 8c 53 ba bd
       0.020973932 1.2235069 0.013514625 -0.090979666
000140 8a 32 fb bc 03 81 bd 3d aa 7e c3 3d 14 9c 13 be
       -0.030663747 0.09253123 0.09545644 -0.14415008
000150 67 52 b6 3c 8c e4 06 bd 29 a4 5d bc f2 fd 6c 3c
       0.02225609 -0.032932803 -0.013527908 0.014464842
000160 3b c5 cb 3d c5 ac 05 bd 3d 81 91 3d d7 72 80 3d
       0.09949728 -0.03263547 0.07104728 0.06271904
000170 ed 55 a6 3d 84 ad 0f 3d 61 e8 dc bd d3 57 98 bd
       0.08121858 0.035077587 -0.1078651 -0.07438626
000180 c1 7c 75 3d 5d 3a dc 3c a6 90 00 be 0d 24 a1 bc
       0.059933428 0.026883299 -0.12555179 -0.01967051
000190 41 b2 ea 3d f1 5a 98 3d 63 75 b0 bd b4 38 00 bd
       0.114597805 0.07439221 -0.0861614 -0.031304076
0001a0 02 98 fd bd 0d dc 08 3d 7b 8d 3c bc 2f 63 af bd
       -0.12382509 0.03341298 -0.011508341 -0.0856384
0001b0 5e 5f 02 3c f0 95 09 3d e0 f7 22 3d 06 f9 98 3d
       0.007957308 0.033590257 0.039787173 0.074693725
0001c0 e9 0c 68 bd 0a 71 cf 3d f9 13 a6 3d a3 9b be bd
       -0.056652937 0.10128982 0.08109278 -0.09307029
0001d0 ab 84 cf bc 6b be 68 bd 98 40 49 bc 22 31 f8 3a
       -0.025331816 -0.05682222 -0.012283467 0.0018935541
0001e0 00 10 1f 3d 85 ea 0c 3d fd 0f 5a bd 13 77 19 3d
       0.03883362 0.034403343 -0.053237904 0.037467074
0001f0 e1 aa ce bd e9 0e d8 3c c2 a2 d6 bd 64 22 05 bd
       -0.10091186 0.026374297 -0.10480262 -0.0325035
000200 22 f1 b3 bc 34 db 11 bd 77 57 32 bc bd 50 3b 3c
       -0.021965567 -0.03560944 -0.010885111 0.011432824
000210 b9 e5 a1 bd 56 72 d3 ba bf 47 ad 3d 9a 47 0e bc
       -0.07905144 -0.0016132097 0.0846095 -0.008684063
000220 74 56 61 bc fe 8d 54 bd c4 65 cc 3c 35 af 20 3d
       -0.013753522 -0.051893227 0.02495087 0.03922959
000230 87 b2 1c 3e dc 5e 23 3d 67 b5 c0 3d f8 12 06 3e
       0.15302478 0.039885387 0.094096 0.13093174
000240 3f 18 1c bd c6 c8 e8 bd b5 73 8b 3d 18 5d fd 3c
       -0.03810906 -0.113664195 0.06809179 0.03092818
000250 ba 10 65 bd 57 f3 c1 bd 96 43 f9 bd 46 93 dd bd
       -0.055924155 -0.094702415 -0.12171094 -0.10819106
000260 6c 40 84 bc 33 33 86 3d 63 d9 96 3d 70 32 e5 bd
       -0.016144 0.06552734 0.07365682 -0.11191261
000270 fe 93 93 3d ee 02 a6 bd 67 70 1a bd d5 f3 5b bd
       0.07205962 -0.081060275 -0.03770485 -0.053699333
000280 e2 2d db bc f5 85 d3 bc 62 cc d4 bd 28 fc cb bd
       -0.026755277 -0.025820712 -0.103905454 -0.09960204
000290 26 84 1b bc eb 74 3f 3c a0 99 60 bd 0e 70 2c 3d
       -0.009491956 0.01168559 -0.05483401 0.04209905
0002a0 e1 c9 f0 bd e0 ec 8f bc 59 2a cd 3d 89 d9 47 bd
       -0.11757255 -0.017569005 0.10017843 -0.048791442
0002b0 d2 a2 ce 3d c1 d4 20 3d c8 bb d6 bd 95 00 87 3d
       0.10089649 0.039265398 -0.10485035 0.06591908
0002c0 a0 39 a6 3a 64 be 71 bd c8 54 b9 3d 55 28 98 bd
       0.0012681969 -0.05901946 0.09049374 -0.07429568
0002d0 ea 3f 8b 3b 91 89 cf bc 48 c7 a2 3d 5d d4 1e 3d
       0.0042495625 -0.025334151 0.07948166 0.038776744
0002e0 90 b4 4e 3d b9 59 1e 3d bb 2d bc bc a5 39 85 3b
       0.050465167 0.038659785 -0.022971025 0.0040657097
0002f0 b2 cd e1 bd af e8 7e 3d 54 16 b2 3d c8 95 9b 3d
       -0.110255614 0.062233623 0.08695665 0.07596928
000300 76 bc a8 bd 07 a7 49 3b 04 5f b8 bd cf 09 89 bd
       -0.08239071 0.0030769722 -0.09002498 -0.06691324
000310 e0 a4 91 bd c4 f6 15 3d d8 8b a2 bd b1 a9 f0 bb
       -0.071115255 0.036612287 -0.07936829 -0.0073444475
000320 b8 7a 3b 3b 05 b1 82 3d f2 56 a3 bd 97 00 bc bd
       0.0028607082 0.0638142 -0.07975568 -0.091798
000330 1c db 86 bd 07 e0 a8 3d c5 fb 1f bd bf 13 c5 3d
       -0.065847605 0.08245855 -0.039058466 0.09622907
000340 72 97 25 3d 7d 9b b3 3b f3 04 3a bb 84 fa c8 bc
       0.040427633 0.005481182 -0.0028384298 -0.024533518
000350 7c 66 49 3c 6a b2 2d bd db a0 cb 3b c5 54 2c 3c
       0.012292501 -0.042406477 0.006214244 0.0105182575
000360 70 84 b2 bd f7 53 83 bd 75 92 b3 3d c1 4d c1 bd
       -0.08716667 -0.064124994 0.08768169 -0.094386585
000370 30 c5 69 bc d8 58 e8 3d 2a 05 35 3d 0c c5 2e 3a
       -0.014268205 0.113450706 0.044194378 0.00066669355
000380 23 cd cd bd 16 79 7b 3d 84 63 8d bd 93 5a 24 bd
       -0.10048892 0.061394773 -0.06903747 -0.04012544
000390 17 cc 23 bd b3 ad 9a bc e1 03 47 ba 37 b5 db 3f
       -0.039989557 -0.018881654 -0.00075918256 1.7164677
0003a0 69 cb 41 3c 8c 0e cf 3d 9a a7 ac 3d 2e c6 17 bd
       0.011828282 0.101101965 0.08430405 -0.037054233
0003b0 cc ec 55 3d 66 7f be bc 89 6b 4a bc 97 60 6a 3d
       0.05222778 -0.023254108 -0.01235474 0.05722102
0003c0 19 3d 2c 3d 8e b9 87 3d 97 37 00 3c ce 17 26 3d
       0.042050455 0.066271886 0.007825754 0.040550046
0003d0 5d 75 42 3d a4 ad d8 bd be 2b 93 3d 3a 36 c6 bd
       0.047475208 -0.10579994 0.071860775 -0.09678312
0003e0 32 dc 71 3b fd c1 b6 bc 02 aa 7f bd 3d 7c 4f 3c
       0.0036904928 -0.022309298 -0.06241799 0.012663898
0003f0 0f c8 c0 3d 52 af 8f bc 2f b1 8d bd 34 f5 d0 bc
       0.09413158 -0.017539654 -0.06918561 -0.025507547

net.0.bias f4 [128]
000000 b0 0c d1 bc 7a 6f 31 bd 30 34 a4 bd 71 25 09 3d
       -0.025518745 -0.043319203 -0.080177665 0.033482973
000010 8a 87 42 bd 45 03 6b bd ef b3 1d 3d d5 50 23 bd
       -0.04749254 -0.057376165 0.038501676 -0.03987201
000020 1f 00 93 3c 90 b2 a9 bb 1b 1e 26 3d 51 5b 8c 3d
       0.017944394 -0.005178757 0.040556055 0.06853355
000030 75 1e cd bd 7c 53 59 bd 9e d4 e4 3d c7 3a 6e 3c
       -0.10015575 -0.053058133 0.11173366 0.014540381
000040 58 1a a5 bc 55 e4 ab 3d cc 4a cb 3d aa 1b 05 3d
       -0.020154163 0.0839316 0.09926376 0.032497086
000050 f7 9e 9d bd 33 36 e6 3d 0e dd e3 bd 88 44 03 be
       -0.07696336 0.112408064 -0.11126147 -0.12819111
000060 a7 88 a7 3c 95 59 e1 bc 72 f9 e5 bd bf 06 be 3d
       0.020450903 -0.027508536 -0.112292185 0.092786305
000070 a6 de 8f 3c 1e 69 8f bd ad 1b 55 3d 7c 78 a3 3d
       0.017562222 -0.070024714 0.052028347 0.07981965
000080 c0 ec 45 bc 97 0c b6 3d c7 d0 74 3d e1 2d 11 3d
       -0.012080371 0.0888912 0.059769418 0.035444144
000090 b7 d8 64 bd 46 0a a8 bd eb 69 2c bc d8 45 13 bd
       -0.055870738 -0.082050845 -0.0105233 -0.03595528
0000a0 0e 13 e0 bd 3c d8 dc bd a9 7a 89 bd 1e 2e 5a 3c
       -0.109411344 -0.10783431 -0.06712849 0.013316659
0000b0 a8 f3 2a bd 71 17 c4 bd 0c 1d a1 bc e6 4e 18 bd
       -0.041736275 -0.095747836 -0.019667171 -0.03718462
0000c0 19 d9 0a bd 89 c3 88 3d 0b 1b 38 3d 5d 34 a3 3d
       -0.033898447 0.0667792 0.044947665 0.07968972
0000d0 b5 76 f3 3d 9c cd 2a 3a d5 fd 3c bd af eb 1b bb
       0.11887876 0.00065156235 -0.04614051 -0.0023791601
0000e0 09 4d c9 3c 52 68 16 bd c9 f9 b0 3d 8c 34 75 3d
       0.024572866 -0.03672058 0.08641393 0.059864566
0000f0 78 42 af bd 49 e5 e1 3c e9 3c 8a ba d3 d2 43 3d
       -0.085576 0.027575152 -0.0010546717 0.04780848
000100 7a b2 79 bd ed 99 d9 3d cf 45 24 bd a2 48 3f 3d
       -0.060961224 0.10625062 -0.040105637 0.046700127
000110 98 c9 6f bd 6d f4 1b 3d c3 d3 07 bd ab 1c 40 bd
       -0.058541864 0.0380749 -0.033160936 -0.04690234
000120 a6 0d c8 bd 54 2b fa 3c fd 5a ee 3c 66 84 dd 3c
       -0.09768228 0.030538239 0.029096121 0.027040672
000130 5d 33 30 bd 4b 0a 84 3c fd 37 6b bd 43 ba c5 3c
       -0.043017734 0.01611819 -0.05742644 0.024136668
000140 26 e8 d9 3d 6e 7c cf bd 99 ad 45 3d f3 ec 8c bd
       0.10639982 -0.10131155 0.04826126 -0.06881132
000150 a9 3c 07 3d 70 ac cb bc 6d 98 4c 3d 06 5d 9f bd
       0.033016834 -0.024862498 0.049950052 -0.07781415
000160 a5 12 95 3d e1 dc 92 3d 4e 5b a6 bd 80 43 a1 bd
       0.07278947 0.071710356 -0.08122884 -0.07874203
000170 bf 0c 87 3d 37 1e a0 bd c1 1a 33 3d 41 17 7b bd
       0.06594228 -0.07818263 0.043726686 -0.061301474
000180 39 b5 c6 bd fd 60 05 3d c0 cf 1c bd 4d f1 64 bd
       -0.09702534 0.0325632 -0.038284063 -0.055894185
000190 ab ce 26 3d 99 22 44 3d 55 75 a9 3d 94 ec df 3d
       0.040724438 0.047884557 0.082743324 0.109337956
0001a0 f4 34 53 3d 84 e1 06 bd 5b 2f 89 3c 27 84 a8 3d
       0.051564172 -0.032929912 0.016746214 0.08228331
0001b0 b8 54 b5 bd 16 3c b6 3d 1b 25 3c 3d 4c 41 29 3d
       -0.088540494 0.08898179 0.045933824 0.041322038
0001c0 7e ba c0 3c a4 8c d2 bd 65 28 1c 3d 37 d0 b7 ba
       0.023526426 -0.10280731 0.03812446 -0.0014023845
0001d0 e7 81 2a 3b 32 69 6f bd ef 6a b3 3d f2 a2 86 bc
       0.002601737 -0.05844993 0.0876063 -0.01643512
0001e0 14 7d d6 bb df 97 bd bd 61 db d9 3d 75 d1 de bd
       -0.006545672 -0.09257483 0.10637546 -0.108797945
0001f0 f8 4d 8a 3d 9c 6d 40 3d af 6f 8d 3c 7e f7 e1 bd
       0.067531526 0.04697953 0.017265169 -0.110335335

net.2.weight f4 [128, 128]
000000 36 57 29 bc 40 33 aa bc c2 ef 93 bd f9 fb 97 bc
       -0.010335734 -0.020776391 -0.072234645 -0.018552767
000010 6f f3 d0 bc be 3e 68 bd 43 2e 79 3d fb ac f4 3d
       -0.025506703 -0.05670046 0.060835134 0.11947056
000020 4b 96 dc bd 8d ed 67 3d 93 1e 48 3c 9d c0 82 3d
       -0.107708536 0.05662303 0.012214321 0.06384394
000030 19 e0 9d bd 45 45 d2 bc d4 0d 91 bc 8f 37 ab 3d
       -0.07708759 -0.025667796 -0.01770679 0.08360206
000040 c7 8f bb 3d 3a 4e 8f ba 03 2b 5f bd 83 69 18 bc
       0.09158283 -0.0010933348 -0.05448438 -0.0093025
000050 ee f3 d2 bc 50 c2 27 3d 57 77 93 3c 00 06 cc 3c
       -0.02575108 0.040956795 0.018001242 0.024905205
000060 18 03 bc bc b1 04 f4 3d 9f 54 07 bd 54 70 71 bd
       -0.022950694 0.11914957 -0.033039685 -0.058945015
000070 ca d3 7c 3d 27 5a 0f 3d b5 a2 5c 3d ed b7 b0 3d
       0.061725415 0.034998085 0.053866107 0.08628831
000080 65 cd 11 bd 2d 45 37 3d 89 b1 b4 3d 4e 74 b3 3c
       -0.03559627 0.044743706 0.08822925 0.021906044
000090 05 17 0c 3d 8f c1 66 bd d9 73 e2 bb 5a 22 1a 3c
       0.03420164 -0.056336936 -0.006910783 0.009407604
0000a0 72 d8 09 bd 86 62 33 3c b9 7e 05 3e fa 97 fd 3c
       -0.033653684 0.010948783 0.13036622 0.030956257
0000b0 0b 01 8e 3d 30 28 0c 3c c8 39 9c 3c dc 63 95 bc
       0.06933793 0.008554503 0.019070521 -0.018236093
0000c0 78 cb 50 3c 6c a1 2d 3c 82 60 c5 bc 9d 36 b7 bd
       0.012743823 0.010597568 -0.02409387 -0.089459635
0000d0 b9 37 ad ba 3a 9f 9d 3c f0 32 0b 3c da 97 c2 bc
       -0.0013215459 0.019240964 0.008496031 -0.02375405
0000e0 aa aa 91 bd 7f c0 47 3c 6c 19 6f bd 99 8b 93 3d
       -0.0711263 0.012191891 -0.058373854 0.072043605
0000f0 95 5d 41 bd e5 a3 58 3d f1 41 a9 bd 9a cf c4 bc
       -0.047208387 0.052890677 -0.082645305 -0.024024773
000100 f5 31 fc bd 74 4e 8e bd b9 a5 c8 3c f7 5d 94 bd
       -0.12314216 -0.069485575 0.024493085 -0.07244485
000110 0b ba 3b 3d c9 df 6f 3d 13 8c 78 3c 0b 2a 14 3d
       0.04583172 0.058563028 0.015170115 0.036172908
000120 bc 04 94 bd 09 2b 1c 3d 8c 4a 09 be fd ff b9 3d
       -0.072274655 0.03812698 -0.13407344 0.09082029
000130 ba e7 7a bd e2 63 c7 3c 5e 07 b3 3d 2e de af bd
       -0.061256148 0.02433962 0.087416396 -0.08587299
000140 2f 95 3c bd e6 c3 c9 3c 3a e6 a1 bd 81 d1 da 3c
       -0.04604071 0.024629544 -0.0790524 0.026711227
000150 fe 22 fe 3a 84 cc a9 bd f8 f7 cb bc 05 33 62 bd
       0.0019389091 -0.082909614 -0.024898514 -0.055224437
000160 b1 ab 28 3d a6 13 c5 3d ff 63 b6 3d 40 ea b3 bd
       0.041179363 0.09622888 0.089057915 -0.08784914
000170 d5 ae 01 bc f5 66 b5 bd 5e c5 5c 3c 3e 48 47 3d
       -0.007915218 -0.08857528 0.01347479 0.04865288
000180 03 5f 01 be 0a 4f 8b bc ec a1 f9 bd 05 00 aa 3a
       -0.126339 -0.017005462 -0.12189087 0.0012969977
000190 ce 56 75 3d 17 8b 66 bd 7d 99 6e 3b 22 fe 96 bc
       0.059897237 -0.05628499 0.0036407404 -0.018431727
0001a0 fe a7 f5 3d ba f7 a5 bd e4 0b 34 bd 6f 3e 23 3c
       0.119949326 -0.08103891 -0.043956652 0.009963616
0001b0 a1 c9 a6 bd e0 29 c0 3d ba c2 8f bd 4d 19 47 bc
       -0.081439264 0.09382987 -0.07019563 -0.012152028
0001c0 84 80 2f bd cc 01 1e 3d 6f 02 2c bd 56 4f b9 3d
       -0.04284717 0.038575932 -0.04199451 0.09048335
0001d0 45 cd cc bd 38 c9 7f bd d6 60 4d bd 87 03 ad bd
       -0.100000896 -0.062447757 -0.050141178 -0.084479384
0001e0 c9 85 b7 bd 10 bd f7 3c 92 06 c0 3d 60 bb 1f 3c
       -0.08961064 0.03024152 0.09376253 0.0097492635
0001f0 07 43 01 bd 50 4b b3 3c 44 c6 b0 3d 27 75 a2 bd
       -0.031558063 0.021886498 0.08631566 -0.07932501
000200 a3 e9 f2 bb b9 6b cc 3d ed cd 27 3d 93 77 56 bd
       -0.0074131056 0.09981484 0.04096787 -0.05236013
000210 38 82 82 3c 90 7d c8 bc c7 15 1c be ab ea 4b bc
       0.015931234 -0.024473935 -0.15242682 -0.012446086
000220 dd 58 c2 3d 03 47 b5 ba c6 ae 39 3d 8b 6b 44 bd
       0.094896056 -0.0013830367 0.045332693 -0.047954123
000230 70 3f c7 bb 49 a0 27 3e 24 95 a2 bc dd dd 79 bd
       -0.0060805604 0.16369738 -0.019846506 -0.0610026
000240 ea 17 94 bd 4f 2c f9 bc 80 52 e8 3c 54 f8 3c bd
       -0.07231124 -0.030416636 0.028359652 -0.04613526
000250 91 1e 2e bd e3 a8 f2 3d 35 78 ed 3d db 85 e6 bc
       -0.04250962 0.11848619 0.11595193 -0.02814
000260 ba b9 4f bd 2d ef e3 3b 46 27 30 3c d1 96 7d 3d
       -0.050714232 0.006956002 0.010751551 0.061911408
000270 05 3b c4 3c b5 1f a2 3d 26 8e 2a bd 94 f4 ec bc
       0.023953924 0.07916204 -0.04163947 -0.028925218
000280 a6 6e 39 3d 8a c8 54 3d d6 eb 17 bd c9 00 49 3d
       0.04527154 0.05194906 -0.037090145 0.049073014
000290 ca 0f ce 3d 05 7b b0 bd 6b 84 83 bd 8b 84 0d 3d
       0.10061605 -0.08617214 -0.06421741 0.03455023
0002a0 de cd 63 bd cd e7 c1 bd 47 c2 17 bc c7 9c 6a b8
       -0.055616252 -0.094680406 -0.009262628 -5.5935958e-05
0002b0 22 f7 17 3c e2 d5 34 bd bf 46 8d 3d c5 8a d4 3d
       0.00927523 -0.044149287 0.06898259 0.10378031
0002c0 02 52 f2 3c c6 c2 86 3d 58 d8 d7 3d 1d 4b ce 3d
       0.02958012 0.06580119 0.10539311 0.100729205
0002d0 d0 10 da 3c fd 22 aa 3d 17 79 e4 3d c4 14 14 3e
       0.026619345 0.08307455 0.111559086 0.14461046
0002e0 fe a7 be bc 92 90 b1 3d 00 e0 9b bd ea ed 75 bd
       -0.023273464 0.08670153 -0.07611084 -0.060041346
0002f0 35 27 88 3d e7 91 1a be e0 21 07 3d f5 96 37 3e
       0.06648103 -0.1509472 0.03299129 0.1792868
000300 7b 24 99 3c 55 ce ac bd f5 48 43 bb db c4 5b 3b
       0.018694153 -0.08437792 -0.0029798124 0.0033534083
000310 a8 3b 15 bd a2 7f f0 3c cc c1 56 3d cd 7f 83 3d
       -0.036433846 0.029357735 0.052430913 0.064208604
000320 4a c5 3d bc 59 37 aa 3d 6b 5a 8a 3d 7c d9 a4 3d
       -0.011582682 0.08311338 0.06755527 0.08049294
000330 37 d8 5e 3d bc 1c 72 3d d1 3a bb 3c 46 be 21 3d
       0.054405417 0.059109434 0.022855194 0.0394881
000340 73 b3 83 3d d4 35 d4 3d 75 d8 11 3e 43 01 18 be
       0.064307116 0.103618294 0.14242728 -0.14844231
000350 4b 28 57 3c 1f 02 95 3d 48 6d 1f bd 3e 35 63 3c
       0.013132165 0.07275795 -0.038922578 0.013867674
000360 54 a4 b1 bd 7c f5 65 3d 03 f6 8c bc 24 20 a6 3d
       -0.08673921 0.056142315 -0.017207151 0.08111599
000370 a6 e0 52 bc 64 53 a1 3d fe 88 6c 3d 6a bf af bb
       -0.012870943 0.078772336 0.057747833 -0.0053633945
000380 9a 8d ce b9 a7 09 55 bd 5b 4d c4 bb 6c bc 02 3e
       -0.00039396883 -0.05201116 -0.005990667 0.1276719
000390 f5 aa 1c 3e c8 23 f0 bd b4 fc a7 bd 73 6b a9 3d
       0.1529959 -0.11725575 -0.08202496 0.082724474
0003a0 a2 31 13 3c 02 92 3f bd aa 1a 08 be e9 83 3b bd
       0.008984001 -0.046770103 -0.13291422 -0.045780096
0003b0 26 b1 43 bd 0b 9a f2 3d 84 41 86 bd 02 53 22 3b
       -0.047776364 0.118457876 -0.06555465 0.0024768715
0003c0 1f 71 39 bd 01 51 1f 3d 0e f7 fe bc 65 e5 08 3d
       -0.045273896 0.03889561 -0.031123664 0.033421893
0003d0 06 4e cb bc be 48 08 be ce e2 dc bc bf cf ef bc
       -0.024817478 -0.13308999 -0.026963618 -0.029273866
0003e0 f0 47 87 3c 8b 5c 01 3e da 22 3b 3d 5e 2d 93 3c
       0.016513795 0.12632959 0.045687534 0.017965969
0003f0 7b 7d 46 bd b3 35 1c 3c c0 a2 3c 3d bd 29 a2 3d
       -0.04845951 0.009534287 0.046053648 0.07918117

net.2.bias f4 [128]
000000 2f 81 c0 bc 08 84 60 bd fb 2c 93 3d ed 27 73 3d
       -0.0234991 -0.054813415 0.07186314 0.059364248
000010 99 30 ac 3b 13 59 29 bd 45 f1 42 3d 09 4f 84 bd
       0.0052548167 -0.041344713 0.047593374 -0.06460387
000020 05 49 a6 bd 00 43 8d 3d a9 51 5a 3d 6a d4 b5 bc
       -0.08119396 0.06897545 0.053300533 -0.022196013
000030 fe 3b 89 3d 34 9a 06 bc d1 bd e3 3c 72 e7 53 3c
       0.06700896 -0.008215476 0.027800472 0.012933599
000040 f2 c6 81 3d a0 fa a0 3d 01 f4 cd 3b 75 4c 5d 3d
       0.06336774 0.07860303 0.006285191 0.054027993
000050 b1 31 d8 3c 55 f7 26 3d 1e cb cf bb e2 56 48 bd
       0.026390882 0.040763218 -0.006341352 -0.048910983
000060 d5 f0 8b 3d a3 0b 56 3d af ed c3 bd 9e e5 83 3c
       0.068330444 0.05225719 -0.09566819 0.016100701
000070 c4 3c 89 3d ea 62 53 3d a3 52 25 3d 5b 9c 6a 3d
       0.06701043 0.051608004 0.04036201 0.05727802
000080 b8 34 a2 bd ba 9c 60 bd 70 9d a7 3d 71 d9 fc 3b
       -0.079202116 -0.054836966 0.08184326 0.0077163507
000090 aa 65 e3 bc 6c 76 a2 3d e1 f8 07 ba 73 c2 75 3d
       -0.027758438 0.079327434 -0.0005186927 0.059999894
0000a0 48 3a cb bc 69 25 41 3d 04 ff 5d 3c 7b 88 a6 bd
       -0.024808064 0.047154818 0.01354957 -0.081315
0000b0 79 35 13 3d 25 4d ba bc 03 2c 38 3d b7 07 b5 3c
       0.035939667 -0.022741864 0.044963848 0.022098405
0000c0 df a0 5d 3d a1 91 54 bd 79 ca 6a 3d 0e af 10 3d
       0.054108497 -0.051896695 0.057322 0.035323195
0000d0 ec f3 99 bd 66 19 87 3d b3 5b 06 3c f1 a3 9d 3d
       -0.075172275 0.06596641 0.008200574 0.07697285
0000e0 9e cc fb bc 02 85 92 bd 1d 4e 91 bb 81 78 e1 3c
       -0.030737218 -0.071542755 -0.0044343607 0.027523281
0000f0 d3 14 06 3c aa f2 75 bc 94 c2 6b bd e4 c0 33 bc
       0.008183676 -0.015011469 -0.05755861 -0.010971282
000100 0e ba 56 3d 40 7e 93 bd a1 2f 93 3d d8 84 9f bb
       0.05242353 -0.07201815 0.07186819 -0.004868131
000110 9a 68 28 bd ab c0 20 bd b4 ce 89 3d ac 95 a2 bd
       -0.04111538 -0.039246242 0.067288786 -0.07938704
000120 67 cb 41 bd a6 ef b2 bd b0 c6 7d bd 78 41 db 3c
       -0.04731312 -0.087371156 -0.06195706 0.026764616
000130 ff ac 52 bd 9d 64 c6 3b 25 6f 2e 3d 2f 02 96 bd
       -0.051434513 0.0060544745 0.042586464 -0.07324635
000140 41 c7 50 3d bc a0 a1 bc 84 83 a8 bd ed de 1c 3d
       0.050971273 -0.019729964 -0.082282096 0.038298536
000150 c1 fe ab 3d 29 77 72 bb 7a e0 ca ba 6d c8 40 3d
       0.083982 -0.0036997295 -0.0015478276 0.04706614
000160 b4 9e 19 bd 0a ee f7 3c 5f a6 e7 3b 81 30 48 3c
       -0.037504867 0.030264873 0.0070693935 0.0122185955
000170 19 99 9f bb 7c 5f 89 bd 4e 7b 30 bd a0 f1 1c bc
       -0.0048705456 -0.06707665 -0.043086343 -0.009579092
000180 a8 a5 24 bd 32 8c 29 bd b2 11 8c 3c c2 a4 e2 bb
       -0.040197045 -0.041393466 0.017098282 -0.0069166133
000190 7e 73 9a 3c f5 9b 07 bd fa 54 d9 3c a5 6e ad bd
       0.0188539 -0.033107717 0.026529778 -0.084683694
0001a0 f0 69 35 3d 1d 06 90 3c 8e e6 56 3d 96 91 2c 3d
       0.044290483 0.01758104 0.052465968 0.04213103
0001b0 b5 39 1b 3c c8 f2 aa 3b 1c de 29 39 64 e6 eb 3c
       0.009474208 0.00521693 0.00016199838 0.028796382
0001c0 31 a0 ae 3d 4c 3a 2c 3d 1f 27 cd bb bc fb 4a bd
       0.08526648 0.042047784 -0.006260767 -0.04955648
0001d0 ef f2 06 3d e2 9b 3a 3d 3a 3e 75 3d b7 b1 97 3b
       0.032946523 0.045558818 0.059873797 0.0046293396
0001e0 ed 2d ae 3d 86 6a 56 3d a5 d0 aa bc 50 b7 6d 3d
       0.085048534 0.052347682 -0.020851443 0.05803615
0001f0 f3 c4 63 3d 32 ac 9b bc f0 7a 2a 3d 6f 9f a5 3d
       0.055607747 -0.019003008 0.04162115 0.0808705

net.4.weight f4 [15, 128]
000000 b6 14 db bc 4c 38 0c 3d 61 8f b0 3c 70 4e 36 bc
       -0.026743274 0.034233376 0.021552743 -0.011127099
000010 52 bd 72 3d 99 69 9e bd c8 66 bf bd 15 31 c3 3d
       0.05926258 -0.07734985 -0.09345776 0.09530846
000020 d8 3a 87 3d 34 8a 23 3b 19 8a 2a bd f7 29 af 3c
       0.066030204 0.0024954202 -0.041635606 0.021382315
000030 5a 13 68 bd ca 02 69 bc f8 18 a6 bd cd 0a 3f 3d
       -0.05665908 -0.014221856 -0.08110231 0.04664116
000040 c1 c5 f1 3c 91 0e cc bd 05 d7 b1 3c f3 ff 9e bd
       0.029513242 -0.09963716 0.021708975 -0.07763662
000050 21 74 0a 3e c0 56 ca 3d 67 70 00 3d 71 12 f5 3c
       0.13520862 0.098798275 0.031357195 0.02991602
000060 b8 14 64 3d 58 42 90 3d 38 94 00 3e c3 0b 41 3d
       0.05568382 0.07043904 0.12556541 0.047130357
000070 a8 1e 81 3d f4 b5 02 bd 48 77 f1 3c c7 40 01 3e
       0.06304675 -0.031911805 0.029475823 0.12622367
000080 d6 52 88 bd af 8c 82 bd 0e 3c 9d bd 10 6c 65 3d
       -0.06656425 -0.063744895 -0.0767747 0.05601126
000090 36 b7 4b bd 69 56 51 3d da 47 2d bb 7c c2 85 3d
       -0.04973527 0.051107798 -0.0026440532 0.065312356
0000a0 91 20 12 3e 01 9f dd 3d 4b 4c d5 3d 06 ea f1 3d
       0.14270236 0.10821343 0.10414942 0.118122146
0000b0 ba 11 8b 3d f6 8f 25 3d ad 4b b6 bd 4a 38 c0 bc
       0.067904904 0.040420495 -0.08901153 -0.02346434
0000c0 80 af ca 3c ad 58 af 3d f1 1f b2 3b 4e 4f 62 bd
       0.024741888 0.085618354 0.0054359366 -0.055251412
0000d0 5d 81 bd bb 21 f4 88 3d eb 0d a1 bc 4e fa b2 3d
       -0.0057832436 0.06687189 -0.019659957 0.08739148
0000e0 cb fa 47 3d aa ff 9d bd 6a d4 87 3d 95 b5 d3 bd
       0.04882316 -0.0771478 0.06632312 -0.103373684
0000f0 85 a7 38 3d 2e 77 43 3c b8 ed 17 bc ee a0 03 bc
       0.045081634 0.01193027 -0.009272985 -0.008033974
000100 ba 81 01 3e ac d5 8a 3d 30 97 4b 3d cc 3c 86 3c
       0.12647143 0.06779036 0.04970473 0.016386412
000110 55 a4 88 3d 78 43 59 bc 03 53 10 bd 92 1a c8 3d
       0.06671969 -0.013260715 -0.035235416 0.09770693
000120 c7 fd 51 bd c2 ca 0c bd 48 cc 9f 3d 91 14 83 3d
       -0.05126741 -0.034373052 0.078026354 0.06400407
000130 33 0e d6 3d 1b a4 c7 ba 71 c7 9c 3d 6b 46 6a bc
       0.10451927 -0.0015231402 0.07655228 -0.0142990155
000140 a0 95 12 bd 5e 87 a2 3d 1e 79 93 bc f6 3d c8 3d
       -0.035787225 0.079359755 -0.01800209 0.09777443
000150 87 17 4e 3d 2d 77 0d bd aa 8e 1e 3d 09 d0 33 be
       0.050315406 -0.034537483 0.038710274 -0.17559828
000160 54 8a e0 3d 14 9d d5 3d 18 e4 44 bc 6b 9d 33 3e
       0.10963884 0.10430351 -0.012017272 0.17540519
000170 81 db 8c 3d 88 1b 6b 3d 47 e4 b2 bd 1e 4c 99 3d
       0.068778045 0.057399303 -0.08734947 0.07485221
000180 6f f7 90 bd 49 c2 3c bd 60 ed 14 3d 51 4c 0c 3e
       -0.07078444 -0.046083722 0.03635919 0.13700987
000190 ad 90 7d bd 28 0a dd 3d 2f a7 c3 3d d5 95 54 3d
       -0.06190555 0.10792953 0.09553372 0.051900703
0001a0 7a d0 b5 3d bd 87 b7 3d 57 cb a8 3d 17 55 a0 bc
       0.088776544 0.08961437 0.08241909 -0.019571824
0001b0 ce 64 e8 bb f6 ae 51 bd 03 6d f8 3b 52 63 c6 3c
       -0.007092095 -0.051192246 0.0075813546 0.024217281
0001c0 25 d4 bf 3d db 7b b9 3d 1e 05 40 3d 48 58 61 3d
       0.09366635 0.09056827 0.04687988 0.055015832
0001d0 9b 8e 13 3c 19 f8 c2 3d 89 86 01 3e 5f c7 49 3d
       0.009006168 0.09519977 0.12648977 0.0492624
0001e0 fb 11 ab 3d 08 ba 3a 3c 95 43 3a 3d 45 f2 37 bd
       0.08353039 0.011396892 0.045474607 -0.04490878
0001f0 96 ca 84 3c 6b 64 af 3d 31 8f e7 3c 7e f0 bb 3d
       0.016209882 0.08564075 0.028266521 0.091767296
000200 d5 e0 bd bb 8a ee 25 3e b9 13 5e bd 74 91 4a 3d
       -0.0057946243 0.16204277 -0.054218028 0.04945512
000210 e6 dd 88 3d 48 93 ab 3c c9 aa b6 bd a1 31 8d 3d
       0.06682949 0.020944253 -0.089192934 0.068942316
000220 dd fa c0 3d de 2b 2e 3e 9f ab 9c bd 23 fb 8e bd
       0.094228484 0.17008922 -0.076499216 -0.06981494
000230 2b 7e ab 3d 69 97 75 3c 19 0e fc 3d 47 38 10 bc
       0.08373674 0.014989712 0.123073764 -0.00880248
000240 1a ff d8 3d 03 6f ee bd 8d 4e 75 bc 42 95 ce bd
       0.10595532 -0.116422676 -0.014972341 -0.100870624
000250 5b cf a6 3d d8 15 00 3b b8 4b 99 bd 33 16 e3 3c
       0.08145019 0.001954427 -0.07485145 0.027720546
000260 a0 83 5c bd da 34 1a bc 4f 3c b7 3d 67 c4 14 3d
       -0.053836465 -0.009412015 0.0894705 0.036320116
000270 8c fa df 3d 5b 24 84 bd 29 a6 a7 3d 12 3a f6 3c
       0.1093646 -0.06452247 0.081859894 0.030056987
000280 8c a4 54 3d 53 f8 74 bd d1 45 85 bd e5 14 61 3c
       0.051914737 -0.059807133 -0.06507457 0.013737892
000290 39 9b ba 3d ee c6 2a bd 66 cf ac bd 24 f1 6d 3d
       0.091116376 -0.04169362 -0.084379956 0.058091298
0002a0 4f 7c 9a 3d 13 bf eb 3d bc 0c 0b 3e af d0 df 3d
       0.07543241 0.11511054 0.13579077 0.10928475
0002b0 6f e5 4a 3c 97 52 7a 3d 0c 7d c9 bc 09 f6 9d 3d
       0.012383803 0.06111392 -0.02459576 0.07712943
0002c0 b0 09 03 bd 93 48 06 3e 30 bc af 3d 3a 9c 01 bc
       -0.03199166 0.13113622 0.08580816 -0.0079107825
0002d0 cd 1f 18 3c c0 9e c6 3d 8f 74 4a 3d b8 1e 85 bc
       0.009284926 0.09698248 0.049427565 -0.01625
0002e0 22 ae 9e 3d 74 d1 3b 3c db 3b 64 3c 5b d5 ed bd
       0.07748057 0.011463512 0.013930286 -0.1161296
0002f0 37 cf 81 bc 2c e7 53 3b a8 fc c5 bb b2 e2 db 3c
       -0.015845878 0.0032333834 -0.006042082 0.026841495
000300 a4 68 1b 3e ba 5a ac 3d e4 14 05 3d 66 e7 8a 3d
       0.15176636 0.08415742 0.032490626 0.06782417
000310 25 0e 14 3e fc e8 96 bd 45 fe 26 3b 47 57 a6 bb
       0.1445852 -0.07368657 0.0025481146 -0.0050763222
000320 3e e0 0b be 86 ba ad 3d 68 66 ed 3d f8 a9 80 bd
       -0.1365976 0.08482842 0.11591798 -0.06282419
000330 27 5e b5 3d 57 36 01 3e f2 25 fb 3d 26 57 d5 3d
       0.08855849 0.12618385 0.12263097 0.10417013
000340 71 41 9a 3d 01 8c a2 bc d7 81 10 bd 91 60 ae 3d
       0.07532013 -0.01984215 -0.035280075 0.08514512
000350 f0 1b 6c bd 84 58 94 bc a2 68 e1 bd 1b 6d 1e be
       -0.05764383 -0.018108614 -0.11006285 -0.15471308
000360 28 74 de 3d c0 28 62 3d a5 15 50 3a 5d 24 cd 3d
       0.10861999 0.055214643 0.00079377956 0.10016701
000370 36 04 22 3e 0d 3d 8c 3d 8a 73 1f bc 48 44 ec bb
       0.15821919 0.06847582 -0.0097321365 -0.007210288
000380 b3 1c ce bd 65 b5 00 bd 4e e5 47 bd 06 97 1c 3e
       -0.10064068 -0.03142299 -0.048802666 0.15291986
000390 7a 1c a0 3c d1 ef 98 3d 77 73 4b bc e3 62 e7 bc
       0.019544829 0.07467616 -0.012417666 -0.028245395
0003a0 73 83 60 3d 9d 98 0b 3d 2e e0 a8 3c bb 97 c1 3d
       0.05481286 0.03408109 0.02061471 0.094527684
0003b0 27 d4 c9 bc ff 81 e3 bd 54 a4 6c bd f2 31 72 bc
       -0.024637295 -0.11108779 -0.057773903 -0.014782416
0003c0 f2 a9 a8 3d 72 fb 47 3d 39 b2 ad 3d 3b 7b 01 3d
       0.082355395 0.04882378 0.08481259 0.031611662
0003d0 64 d5 4c 3d be d3 cc 3d 94 5f 16 3c 35 90 37 be
       0.050008193 0.10001324 0.009178061 -0.17926104
0003e0 f6 3e 81 3d af 43 f1 bc a9 bb 21 bd 7c c2 f0 3c
       0.06310837 -0.02945122 -0.039485607 0.029389612
0003f0 d1 95 09 be ff b4 57 3d 06 c3 9b 3c 29 2e b2 bc
       -0.13436057 0.052662846 0.019013893 -0.021750527

net.4.bias f4 [15]
000000 5a 02 3c bd 7a 7a a5 3d 7b d0 af bc d8 55 00 bd
       -0.04590068 0.08080001 -0.021461716 -0.031331867
000010 7f f2 62 3c 9d c5 0c 3d e1 b8 80 3d 86 ad 33 bd
       0.013851761 0.034368146 0.06285263 -0.043866657
000020 42 fb 67 3d 4d cc a5 3d b9 ca b2 3c 2d dd 8b 3d
       0.056636102 0.08095608 0.021825181 0.06829295
000030 88 21 b8 3c c2 94 4f 3d 2c b9 91 3c
       0.022476926 0.050678976 0.017788492

net.0.weight f4 [128, 77]
000000 f1 34 ac 3f da 5e 73 3d 34 e3 76 bd f2 53 63 bd
       1.3453656 0.05941663 -0.06027527 -0.05549998
000010 7b 9b 60 bd cc 5e 10 3d 86 f0 29 3c 8e 42 ca 3d
       -0.054835778 0.035246655 0.010372287 0.098759755
000020 9e be 2c bd 45 c6 eb 3d be df f9 bb a9 e4 87 bc
       -0.042173974 0.11512426 -0.007625549 -0.016588526
000030 02 10 1b be 85 72 50 bd 54 fb 23 bd 41 5f 9a 3c
       -0.15142825 -0.050890464 -0.040034607 0.018844249
000040 c1 60 fe 3c 14 28 8d 3d 45 ca a5 bd 68 4c 52 bd
       0.031051995 0.0689241 -0.080952205 -0.051342398
000050 ea 82 22 3d e4 b1 b2 3d ae 9b aa bc b7 79 9b 3d
       0.03967563 0.08725336 -0.020826187 0.07591575
000060 07 79 9c bc b9 e3 33 3d 5b a6 03 3e 49 ba 29 be
       -0.01910068 0.043918345 0.12856428 -0.16574968
000070 c8 0a c5 bc 4a dd ce 3a 4c 6b 94 bd 95 68 b4 3c
       -0.024052992 0.0015782502 -0.07247028 0.022022525
000080 44 91 88 bd 0b 92 cf bd f3 9d 77 bd f0 16 c0 bd
       -0.06668332 -0.10135277 -0.060453366 -0.09379375
000090 bf 97 8a bd 03 23 c5 3d 42 41 49 3d 66 34 5b 3d
       -0.067672245 0.096258186 0.0491345 0.053516768
0000a0 6c e1 0d 3c f3 c7 2a bd 44 cb 1a 3b f8 3c 0a be
       0.008659702 -0.041694593 0.002361969 -0.1349982
0000b0 7a b9 20 bd 69 31 50 bc 1c c9 db 3b 81 5a b2 3d
       -0.039239384 -0.012707093 0.0067073237 0.087086685
0000c0 81 f3 a5 bb 5a a8 ed bc de 4b 44 3d 82 95 03 3e
       -0.0050644283 -0.02901094 0.047923915 0.12850001
0000d0 bd 91 4d bd 03 bd 81 3c e6 9f a4 3d 9f fa 8e bd
       -0.050187815 0.015837198 0.08038311 -0.06981396
0000e0 3f 9c a0 3c e8 76 b8 bd 74 46 a5 bd 6a f1 af bd
       0.019605754 -0.090070546 -0.080700785 -0.08590968
0000f0 0c fc e3 3c ef ce 89 3d 97 4a 05 be e1 f4 86 3d
       0.027830146 0.067289226 -0.13016735 0.06589676
000100 50 90 be 3d 36 78 e0 bd b4 bb f7 3d 86 1d 55 3c
       0.09304869 -0.109604284 0.120963484 0.013007527
000110 28 63 01 bc 4b c5 20 3d fe ca 58 bd a1 23 16 be
       -0.007897176 0.039250653 -0.052927963 -0.14662029
000120 e4 89 32 3d 0c 6f d0 3d 99 43 c4 3d 72 1f c9 3d
       0.043588534 0.101774305 0.09583206 0.09820451
000130 be ba ab 3c 06 8b 9c 3f 6e 96 64 3c 76 b7 b9 bd
       0.020963069 1.2229927 0.013951881 -0.090681955
000140 9b 89 fd bc 00 51 be 3d fc 6b c4 3d 63 0e 13 be
       -0.030949404 0.09292793 0.09590909 -0.14360957
000150 2c ba b9 3c 0a a0 05 bd 15 6e 58 bc 96 53 77 3c
       0.022671781 -0.03262333 -0.013209839 0.015095612
000160 89 98 cc 3d a9 0b 04 bd 6b 42 92 3d c6 f8 80 3d
       0.09990031 -0.032237682 0.071415745 0.0629745
000170 e6 1f a7 3d df 78 11 3d a3 03 dc bd 7b 5a 97 bd
       0.08160381 0.035515662 -0.10742881 -0.07390305
000180 43 47 77 3d 5d cf df 3c 69 93 00 be 2d 21 a3 bc
       0.060370695 0.027320558 -0.12556233 -0.01991328
000190 43 89 eb 3d f5 3a 99 3d 09 de ae bd c7 ec fb bc
       0.1150079 0.07481948 -0.085384436 -0.030752553
0001a0 22 ca fc bd cd 24 0a 3d 8f ee 36 bc 84 f8 ae bd
       -0.12343241 0.033726502 -0.011165275 -0.08543494
0001b0 63 be 08 3c 8d b6 0b 3d 8c f6 23 3d 34 00 9a 3d
       0.008346173 0.03410964 0.040030047 0.0751957
0001c0 e7 72 66 bd ab 5c d0 3d 5a f9 a6 3d 64 b6 bd bd
       -0.056261923 0.10173925 0.08153029 -0.09263304
0001d0 ab ef cb bc 2b e4 66 bd 3b 0d 49 bc 73 e6 17 3b
       -0.024894556 -0.05636994 -0.012271221 0.002317813
0001e0 cc 2b 21 3d 03 ba 10 3d 25 65 58 bd aa 9e 1a 3d
       0.03934841 0.035333645 -0.052830834 0.03774897
0001f0 72 62 cd bd 6d 8d da 3c 73 f8 d5 bd c5 85 03 bd
       -0.100285426 0.026678765 -0.104477786 -0.032109994
000200 ec d8 b0 bc d4 22 11 bd 67 7d 2c bc bc 55 41 3c
       -0.021587811 -0.035433605 -0.010527945 0.011800226
000210 86 00 a1 bd b8 1e 9a ba fe 2c ae 3d 9e 1d 07 bc
       -0.07861428 -0.0011758422 0.08504675 -0.008246807
000220 7d dc 5a bc 3a d3 54 bd bf b6 d0 3c bc 3f 22 3d
       -0.013358233 -0.051959254 0.025477765 0.039611563
000230 1b 6a 1d 3e 33 ef 25 3d 4d 65 c1 3d 22 aa 06 3e
       0.15372507 0.04051132 0.0944315 0.13150838
000240 14 41 1b bd e5 52 e8 bd 0b 3f 8c 3d 91 90 ff 3c
       -0.03790386 -0.11343936 0.06847962 0.031196864
000250 cc 10 65 bd 17 1c c1 bd 70 70 f8 bd 79 af dc bd
       -0.055924222 -0.09429186 -0.12130821 -0.10775656
000260 76 ab 80 bc 72 18 87 3d d6 8e 96 3d fc ab e5 bd
       -0.015706759 0.065964594 0.073514625 -0.11214444
000270 41 1a 93 3d 78 16 a6 bd a5 72 1a bd 75 f3 5c bd
       0.07182742 -0.08109754 -0.03770699 -0.053943116
000280 e3 3e db bc 38 5a d5 bc 63 45 d5 bd a8 76 cc bd
       -0.026763385 -0.026043996 -0.10413625 -0.099835694
000290 0e 63 1c bc 9c 67 3c 3c de 8a 61 bd 04 45 2b 3d
       -0.009545101 0.011499312 -0.055064075 0.041813865
0002a0 cd cd f0 bd 9a e9 91 bc aa b0 cc 3d b9 cc 48 bd
       -0.117580034 -0.017811585 0.099946335 -0.049023364
0002b0 46 29 ce 3d a6 e1 1f 3d 54 35 d7 bd 89 ff 86 3d
       0.10066466 0.039033554 -0.105082184 0.06591708
0002c0 36 ab 9f 3a bd c1 71 bd 31 db b8 3d 69 39 98 bd
       0.0012181762 -0.059022654 0.090261824 -0.07432825
0002d0 89 c4 83 3b a4 6c d1 bc 3a 54 a2 3d 9a a6 1d 3d
       0.0040212316 -0.0255645 0.07926221 0.03848896
0002e0 69 5c 4e 3d bc 67 1d 3d 3f e4 bd bc b4 41 77 3b
       0.050381098 0.038429007 -0.023180125 0.003772837
0002f0 47 68 e2 bd 9f f0 7d 3d c6 9c b1 3d 3c 1c 9b 3d
       -0.110550456 0.061997052 0.0867248 0.07573745
000300 02 36 a9 bd 62 75 3a 3b 3e 61 b8 bd d7 1a 89 bd
       -0.08262254 0.0028451313 -0.090029225 -0.066945724
000310 80 a6 91 bd 6c 03 15 3d ba 9e a2 bd cf 5e f7 bb
       -0.071118355 0.036380216 -0.07940431 -0.007549144
000320 ef 59 2c 3b 83 31 82 3d 00 71 a3 bd c9 2a bc bd
       0.0026298722 0.063571 -0.079805374 -0.09187848
000330 2a 51 87 bd 2d 48 a8 3d 40 24 21 bd 19 95 c4 3d
       -0.06607278 0.082168914 -0.03934121 0.095987506
000340 c5 9e 24 3d 0b d7 aa 3b 8e 36 49 bb b7 e0 ca bc
       0.040190477 0.0052136234 -0.0030702683 -0.024765356
000350 11 9a 45 3c b3 b6 2d bd 28 0f cb 3b a1 81 27 3c
       0.012060658 -0.042410564 0.006196875 0.010223777
000360 61 fe b2 bd f4 73 83 bd 2f 2e b3 3d e0 c6 c1 bd
       -0.08739925 -0.06418601 0.08749043 -0.094617605
000370 51 e1 6d bc 61 d0 e7 3d 57 ab 34 3d 72 d5 e3 39
       -0.014519052 0.11319042 0.044108715 0.00043455843
000380 e3 42 ce bd ee 72 7a 3d 4c 05 8e bd 77 5d 24 bd
       -0.100713514 0.06114476 -0.06934604 -0.040128198
000390 e8 cd 23 bd e6 93 9c bc 37 e5 81 ba a7 8c db 3f
       -0.03999129 -0.019113492 -0.000991023 1.7152299
0003a0 9d 39 40 3c 52 cd ce 3d 23 4c ac 3d bd 02 18 bd
       0.011732486 0.100977555 0.084129594 -0.037111986
0003b0 d1 cf 55 3d c9 fd bf bc 91 24 4c bc d5 f6 69 3d
       0.052200142 -0.023436444 -0.01245989 0.057120163
0003c0 b5 69 2a 3d a9 db 86 3d bb bc 02 3c da 35 26 3d
       0.041604716 0.065848656 0.007979567 0.0405787
0003d0 5f 22 42 3d 05 a9 d8 bd cf b7 92 3d 88 76 c6 bd
       0.04739606 -0.10579113 0.07163965 -0.09690577
0003e0 f5 f8 6b 3b 19 5c b7 bc 3b 07 80 bd 71 ea 4d 3c
       0.0036006544 -0.022382783 -0.06251379 0.012568102
0003f0 1a 57 c0 3d a9 1a 93 bc 4c a4 8d bd 68 33 d2 bc
       0.09391613 -0.017957048 -0.06916103 -0.025659278

net.0.bias f4 [128]
000000 78 23 d1 bc f8 a4 2f bd bc ad a4 bd 01 c1 08 3d
       -0.025529608 -0.042881936 -0.0804095 0.033387188
000010 ab ab 43 bd 43 10 6b bd ba 26 1d 3d 51 93 22 bd
       -0.047771137 -0.057388555 0.03836701 -0.039691273
000020 a0 51 94 3c f0 3e b4 bb 9e 95 27 3d 0d 65 8c 3d
       0.018105328 -0.005500667 0.04091417 0.068552114
000030 75 1e cd bd ea b3 59 bd 9e d4 e4 3d ce 67 6e 3c
       -0.10015575 -0.053150095 0.11173366 0.014551116
000040 5c 01 a5 bc e2 c6 ab 3d cc 4a cb 3d 45 52 05 3d
       -0.02014225 0.08387543 0.09926376 0.03254916
000050 3f fe 9c bd bc c2 e5 3d 76 fd e3 bd 88 44 03 be
       -0.07665681 0.11218783 -0.11132328 -0.12819111
000060 96 f5 a7 3c 88 33 e2 bc 77 e5 e5 bd b8 c4 bd 3d
       0.020502847 -0.027612463 -0.112254076 0.09266037
000070 03 2b 92 3c 12 54 8f bd 33 7a 55 3d 7c 78 a3 3d
       0.017842775 -0.06998457 0.05211849 0.07981965
000080 c0 ec 45 bc 43 ca b6 3d 4c 91 75 3d f6 e7 10 3d
       -0.012080371 0.08925297 0.05995302 0.035377465
000090 9e 06 65 bd 70 35 a8 bd d6 e0 2f bc de 7e 13 bd
       -0.055914514 -0.082133174 -0.010734757 -0.03600966
0000a0 7a dd df bd ff 59 dc bd 47 b5 89 bd 53 07 5b 3c
       -0.10930915 -0.10759353 -0.06724029 0.013368445
0000b0 75 95 2a bd 71 17 c4 bd 0c 1d a1 bc 0c f8 17 bd
       -0.04164644 -0.095747836 -0.019667171 -0.03710179
0000c0 57 fc 08 bd d4 d7 88 3d 76 36 38 3d e6 54 a3 3d
       -0.033443775 0.06681791 0.044973813 0.079751775
0000d0 fe f7 f2 3d de bd 25 3a 87 94 3c bd 9b 7f 19 bb
       0.11863707 0.0006322543 -0.046040084 -0.0023422006
0000e0 d5 7b c4 3c ae fb 16 bd 54 86 b1 3d 8c 34 75 3d
       0.023984829 -0.036861114 0.08668199 0.059864566
0000f0 78 42 af bd c7 19 e1 3c e9 3c 8a ba fa fc 43 3d
       -0.085576 0.027478112 -0.0010546717 0.04784868
000100 64 5b 7a bd 6c cf d9 3d e1 5e 24 bd d1 7b 3f 3d
       -0.061122313 0.10635266 -0.040129546 0.04674894
000110 23 36 70 bd 99 43 1b 3d 4c 92 08 bd ec 65 40 bd
       -0.05864538 0.037906263 -0.033342645 -0.0469722
000120 56 18 c9 bd 9c 0c fe 3c 26 00 ee 3c 0c 36 dc 3c
       -0.09819095 0.031011872 0.029052805 0.02688124
000130 af f5 2f bd 64 f5 81 3c e0 a5 6c bd 81 c6 c3 3c
       -0.04295891 0.015864082 -0.05777538 0.023898365
000140 26 e8 d9 3d 93 c9 ce bd b4 58 45 3d b1 bc 8c bd
       0.10639982 -0.10097041 0.048180297 -0.068719275
000150 7f 62 07 3d 70 ac cb bc 31 a2 4d 3d 7d 2a 9f bd
       0.033052918 -0.024862498 0.050203506 -0.07771776
000160 26 ac 94 3d 98 8e 92 3d 02 fd a6 bd 36 52 a1 bd
       0.07259397 0.07156104 -0.08153726 -0.078770086
000170 15 8a 87 3d 41 ce 9f bd f3 05 34 3d 41 17 7b bd
       0.06618134 -0.07803012 0.043950986 -0.061301474
000180 72 7c c6 bd f7 47 05 3d 76 fa 1b bd cd fb 64 bd
       -0.09691705 0.032539334 -0.038080655 -0.0559042
000190 1b 33 26 3d 15 2f 44 3d 2f 12 a9 3d 26 a5 df 3d
       0.04057608 0.047896463 0.08255421 0.109201714
0001a0 76 7b 52 3d 84 e1 06 bd 5e 69 89 3c 50 1c a8 3d
       0.051387273 -0.032929912 0.016773876 0.08208525
0001b0 39 23 b5 bd 68 fb b5 3d df fa 3b 3d d1 fa 29 3d
       -0.08844609 0.088858426 0.045893546 0.041498963
0001c0 55 e3 c0 3c 9b 76 d2 bd 65 28 1c 3d 4b cd b6 ba
       0.0235459 -0.102765284 0.03812446 -0.001394668
0001d0 a1 a7 26 3b de f4 6e bd 9c f1 b2 3d b3 6f 92 bc
       0.0025429504 -0.058338992 0.087374896 -0.017875528
0001e0 4a 1c d3 bb d4 b7 bd bd da d0 d9 3d fb e7 de bd
       -0.0064425813 -0.09263578 0.106355384 -0.108840905
0001f0 f8 e2 8b 3d fa 40 40 3d 44 ce 8c 3c 7e f7 e1 bd
       0.068304 0.046936966 0.017188199 -0.110335335

net.2.weight f4 [128, 128]
000000 bb 65 46 bc 41 cb a8 bc c2 ef 93 bd 99 00 9a bc
       -0.012109215 -0.020604732 -0.072234645 -0.018799113
000010 7f 34 d6 bc 8d 77 67 bd ba f7 73 3d 9e a9 f2 3d
       -0.026148079 -0.056510497 0.059562422 0.11848758
000020 1e 4c dd bd 17 86 6b 3d 02 bf 42 3c bd a3 81 3d
       -0.10805534 0.057500925 0.01188636 0.06330059
000030 19 e0 9d bd a0 b6 d3 bc d4 0d 91 bc c0 02 ab 3d
       -0.07708759 -0.025843918 -0.01770679 0.08350134
000040 b2 e2 ba 3d 95 d7 a2 ba 03 2b 5f bd e5 7c 27 bc
       0.0912527 -0.0012423868 -0.05448438 -0.010222648
000050 e1 cd d9 bc 96 43 24 3d b1 eb 8f 3c 00 06 cc 3c
       -0.026587429 0.040103517 0.017568441 0.024905205
000060 75 1f c2 bc bc c8 f1 3d 40 83 07 bd 7a 7b 71 bd
       -0.02369664 0.11805865 -0.033084154 -0.058955647
000070 ea 93 76 3d 12 09 0c 3d 44 a7 5a 3d ed b7 b0 3d
       0.060199656 0.034188338 0.053382173 0.08628831
000080 65 cd 11 bd 74 37 32 3d 7f a5 b3 3d dd 82 b7 3c
       -0.03559627 0.043509915 0.087718 0.022401268
000090 bc 33 0c 3d 73 c3 66 bd ee b5 04 bc 6e d8 0d 3c
       0.034229025 -0.05633874 -0.008100016 0.008657558
0000a0 26 63 0d bd c6 4d 32 3c 32 34 05 3e 99 63 f6 3c
       -0.034518383 0.0108828 0.13008192 0.030076789
0000b0 7c 52 8c 3d 30 28 0c 3c c8 39 9c 3c 60 92 9c bc
       0.0685167 0.008554503 0.019070521 -0.019112766
0000c0 28 96 4d 3c 1f 2b 2f 3c 4e e0 c9 bc b8 31 b8 bd
       0.012548007 0.010691433 -0.02464309 -0.08993858
0000d0 61 c2 d0 ba a3 f9 94 3c 19 88 e1 3b 6c 3f c4 bc
       -0.001592707 0.018185442 0.006882679 -0.023956023
0000e0 56 3a 91 bd ed 04 40 3c c9 78 76 bd 99 8b 93 3d
       -0.07091205 0.011719924 -0.060173783 0.072043605
0000f0 95 5d 41 bd ba b9 56 3d f1 41 a9 bd 54 83 c9 bc
       -0.047208387 0.052423216 -0.082645305 -0.024598755
000100 7a 66 fb bd 3c c7 8e bd 44 e3 c5 3c 96 6b 95 bd
       -0.12275405 -0.06971595 0.02415622 -0.07295911
000110 55 be 38 3d 23 bf 6e 3d 19 da 69 3c 44 b5 0f 3d
       0.04510339 0.05828775 0.01427319 0.035084978
000120 c3 67 94 bd 31 55 19 3d ed fe 09 be 4c c8 b9 3d
       -0.072463535 0.03743476 -0.13476153 0.09071407
000130 eb 6e 80 bd 28 2f c2 3c e2 35 b3 3d 7e 3a b1 bd
       -0.06271156 0.023704126 0.08750512 -0.086537346
000140 2f 95 3c bd 05 ce c4 3c 1e 91 a1 bd 09 da d6 3c
       -0.04604071 0.024024019 -0.07889007 0.026227014
000150 61 5f 00 3b 84 cc a9 bd 29 21 d2 bc 40 0d 66 bd
       0.00195881 -0.082909614 -0.025650578 -0.05616498
000160 1d 78 28 3d 15 20 c4 3d e1 96 b3 3d 37 c9 b4 bd
       0.041130174 0.09576432 0.08769012 -0.08827441
000170 89 d2 11 bc 02 cf b5 bd a0 d6 4e 3c 3e 48 47 3d
       -0.008900293 -0.08877374 0.012624413 0.04865288
000180 d6 63 02 be 38 7c 90 bc 37 c1 fb bd 11 3c dd b9
       -0.12733397 -0.017637357 -0.12292712 -0.00042197158
000190 59 cd 70 3d 52 de 68 bd 85 4b 13 3b d5 2d 9f bc
       0.058789585 -0.056852646 0.0022475433 -0.019431034
0001a0 ba c2 f3 3d ba f7 a5 bd ce ea 35 bd 21 bd 19 3c
       0.119023755 -0.08103891 -0.04441338 0.009383471
0001b0 7c 44 a8 bd b2 20 bf 3d b9 1a 91 bd 06 f7 4f bc
       -0.08216187 0.09332408 -0.07085175 -0.012693172
0001c0 7f 11 32 bd fa 16 1b 3d 6f 02 2c bd 66 c0 b7 3d
       -0.043473717 0.03786371 -0.04199451 0.08972244
0001d0 58 ae cc bd 5b 06 82 bd 49 85 4e bd 87 03 ad bd
       -0.09994191 -0.063488685 -0.05042008 -0.084479384
0001e0 d8 60 b8 bd 22 d0 f3 3c 08 61 c0 3d ec 32 16 3c
       -0.090028465 0.029762331 0.09393507 0.009167414
0001f0 67 c0 00 bd f5 c3 a9 3c e3 c6 b1 3d 27 75 a2 bd
       -0.03143349 0.020723322 0.08680513 -0.07932501
000200 29 fb f9 bb b4 02 ce 3d ed cd 27 3d 06 13 57 bd
       -0.0076288176 0.10059109 0.04096787 -0.052508377
000210 c8 6b 80 3c 17 ff c8 bc 54 79 1c be 68 bf 51 bc
       0.015676394 -0.024535699 -0.15280658 -0.012801982
000220 4a b0 c1 3d f2 78 f7 ba 8c 7e 3e 3d 49 d2 43 bd
       0.094574526 -0.0018880649 0.046507403 -0.047807965
000230 70 3f c7 bb dc 6a 27 3e 24 95 a2 bc 1b 54 79 bd
       -0.0060805604 0.16349357 -0.019846506 -0.060871225
000240 88 64 94 bd 20 c7 fb bc 80 52 e8 3c b1 57 3e bd
       -0.07245737 -0.030734599 0.028359652 -0.046470348
000250 7f a4 2f bd b8 2f f2 3d 49 cf ec 3d db 85 e6 bc
       -0.042881485 0.11825508 0.11562974 -0.02814
000260 5f c5 50 bd 09 7b dd 3b 6b b6 2f 3c b5 62 7c 3d
       -0.050969478 0.0067590517 0.010724644 0.06161757
000270 45 25 c6 3c 0b 8b a1 3d 4a c2 29 bd 94 f4 ec bc
       0.024187693 0.078878485 -0.041445054 -0.028925218
000280 a6 6e 39 3d bc 83 56 3d 94 1f 19 bd f9 71 48 3d
       0.04527154 0.052371725 -0.03738363 0.048936818
000290 6b d3 cd 3d f0 6c b0 bd e7 0f 84 bd dc 35 0e 3d
       0.100500904 -0.08614528 -0.06448346 0.034719333
0002a0 31 b2 64 bd e7 c7 c0 bd a6 c1 17 bc 7a 31 5b ba
       -0.055834 -0.09413128 -0.009262478 -0.00083615596
0002b0 b1 8a 0c 3c e2 d5 34 bd bf 46 8d 3d fb 5d d4 3d
       0.0085779885 -0.044149287 0.06898259 0.10369488
0002c0 62 6f f2 3c 67 02 86 3d 2c bc d7 3d 6e 1e cd 3d
       0.029594127 0.06543427 0.10533938 0.100155696
0002d0 65 fa da 3c 71 3b a9 3d 08 ae e4 3d 8e de 13 3e
       0.026730726 0.08263291 0.11166006 0.14440367
0002e0 97 87 c2 bc 0c 42 b1 3d 57 f7 9b bd ea ed 75 bd
       -0.023746295 0.086551756 -0.07615536 -0.060041346
0002f0 35 27 88 3d fb d9 1a be e0 21 07 3d 4c 01 37 3e
       0.06648103 -0.15122215 0.03299129 0.17871588
000300 51 a7 9c 3c 6a fb ac bd 4c 0c 43 bb 0a 23 60 3b
       0.019122751 -0.08446391 -0.0029761968 0.0034200572
000310 c0 e9 16 bd cc 7b ef 3c 98 93 55 3d 98 a3 82 3d
       -0.036844015 0.029233836 0.05214271 0.06378859
000320 d6 3d 49 bc b1 68 a9 3d ef 5c 8a 3d 6e 4b a4 3d
       -0.012282809 0.082719214 0.06756007 0.080221996
000330 9b 2e 5e 3d dc 2c 70 3d 45 ae ba 3c 27 2d 20 3d
       0.054243665 0.05863653 0.022788176 0.03910556
000340 73 b3 83 3d 63 a7 d3 3d 16 f9 11 3e c8 fd 17 be
       0.064307116 0.10334661 0.14255175 -0.14842904
000350 92 ad 4f 3c 1f 02 95 3d 9e fd 1f bd 17 84 60 3c
       0.01267566 0.07275795 -0.039060228 0.013703368
000360 f1 49 b2 bd 40 ae 65 3d 40 15 91 bc 40 b4 a5 3d
       -0.087055095 0.05607438 -0.017710328 0.080910206
000370 f1 7f 5a bc 6b fe a0 3d bf b7 6c 3d 6a bf af bb
       -0.013336168 0.078610264 0.05779242 -0.0053633945
000380 c6 bb 1c ba c4 e0 54 bd b4 58 c9 bb 6d ca 02 3e
       -0.0005978908 -0.051972166 -0.0061446074 0.12772532
000390 82 c8 1c 3e 9e 4f f0 bd 41 2b a8 bd 72 49 a9 3d
       0.15310863 -0.11733936 -0.08211375 0.08265962
0003a0 c2 9b 0a 3c 02 92 3f bd 38 10 08 be ff 1f 3d bd
       0.008459987 -0.046770103 -0.13287437 -0.046173092
0003b0 4c 5d 44 bd 29 46 f2 3d a2 80 86 bd 9c b8 1d 3b
       -0.047940537 0.11829788 -0.065675035 0.0024066335
0003c0 61 04 3b bd 41 31 1e 3d 0e f7 fe bc 2d 3c 09 3d
       -0.045658473 0.03862119 -0.031123664 0.033504654
0003d0 34 98 cd bc 1e 3c 08 be 3a 57 dc bc cc cb eb bc
       -0.02509699 -0.13304183 -0.026897062 -0.028783701
0003e0 b2 f1 88 3c cd 4d 01 3e 02 53 3d 3d 65 56 92 3c
       0.016716812 0.12627335 0.04622174 0.017863462
0003f0 75 59 44 bd 67 e3 17 3c 10 dc 3d 3d bd 29 a2 3d
       -0.047936875 0.009270526 0.046352446 0.07918117

net.2.bias f4 [128]
000000 0a 7f c6 bc 90 10 61 bd b5 76 94 3d ca 81 73 3d
       -0.024230499 -0.054947436 0.07249204 0.05944995
000010 16 37 a8 3b 40 94 2a bd 5e 5b 44 3d f3 8f 83 bd
       0.00513352 -0.04164529 0.047938697 -0.064239405
000020 3f de a5 bd 9d 4c 8d 3d 42 ea 59 3d 49 ab b0 bc
       -0.08099031 0.068993784 0.05320192 -0.02156605
000030 b9 db 88 3d 3e ec 0e bc c7 ae e6 3c 98 49 52 3c
       0.06682534 -0.008723317 0.028159512 0.012834929
000040 37 97 81 3d be 9c a0 3d 04 12 dd 3b 29 0e 5d 3d
       0.0632767 0.07842396 0.0067465324 0.053968582
000050 e6 2a d7 3c eb 90 26 3d a5 e8 00 bc bc 63 45 bd
       0.026265573 0.04066555 -0.007867967 -0.048190817
000060 b4 29 8c 3d d2 8d 54 3d b4 08 c4 bd 3b 5c 85 3c
       0.06843892 0.051893063 -0.095719725 0.01627933
000070 5f 32 89 3d da 60 52 3d a3 52 25 3d dc 3c 6a 3d
       0.06699061 0.051361896 0.04036201 0.057186946
000080 d0 f2 a2 bd dc d3 60 bd 1d 16 a6 3d e2 87 01 3c
       -0.07956469 -0.054889545 0.081096865 0.007905932
000090 56 04 e8 bc ad 93 a1 3d bc 6b 14 ba a1 84 75 3d
       -0.02832238 0.07889495 -0.00056618056 0.059940938
0000a0 ac 73 cc bc d3 c7 40 3d 10 f2 5b 3c 57 d5 a6 bd
       -0.0249575 0.047065567 0.013424411 -0.0814616
0000b0 b0 3a 12 3d 78 b4 b8 bc e7 67 38 3d 2e 72 b9 3c
       0.0357005 -0.022546992 0.045020964 0.022637453
0000c0 21 e2 5c 3d 49 70 54 bd 4c 43 6c 3d e0 3b 11 3d
       0.05392659 -0.051864896 0.057681367 0.035457492
0000d0 ae 39 99 bd e6 22 88 3d 6b 9e 0b 3c f7 4f 9e 3d
       -0.07481705 0.06647281 0.0085216565 0.07730096
0000e0 ad 12 fc bc 42 f4 92 bd 7a ed 89 bb 1b 38 dd 3c
       -0.030770624 -0.07175495 -0.0042092176 0.027004292
0000f0 bb ed 07 3c c4 b2 7a bc 42 0c 6e bd 17 f6 2a bc
       0.008296425 -0.01530141 -0.05811716 -0.010434649
000100 ca 9b 56 3d 9e f3 93 bd 45 37 93 3d ba d6 a6 bb
       0.052394666 -0.07224201 0.07188276 -0.0050915154
000110 dc a9 29 bd ab c0 20 bd fd 65 89 3d a6 ec a3 bd
       -0.041421756 -0.039246242 0.06708906 -0.080041215
000120 c9 d1 41 bd d8 77 b3 bd bb 4e 7e bd 78 41 db 3c
       -0.047319207 -0.08763093 -0.062086802 0.026764616
000130 72 a7 52 bd 38 e1 d2 3b 9e 02 2f 3d 5a 17 93 bd
       -0.05142922 0.0064355396 0.042727105 -0.07182188
000140 d3 8f 52 3d f8 3c a1 bc d9 65 a9 bd 0c 90 1c 3d
       0.051406693 -0.019682392 -0.08271379 0.03822331
000150 05 f7 ab 3d 59 79 8e bb 31 03 aa ba cc 22 3f 3d
       0.083967246 -0.004347962 -0.0012970922 0.046664044
000160 10 d6 1a bd 86 3c f7 3c df 89 e5 3b 19 de 44 3c
       -0.037801802 0.030180227 0.007004961 0.012015843
000170 8b 18 8e bb c0 bc 88 bd 92 8a 34 bd c6 31 15 bc
       -0.004336422 -0.06676626 -0.044077463 -0.009106105
000180 a9 3c 23 bd 4e 78 2b bd 6e f8 8c 3c 66 f4 e7 bb
       -0.039852772 -0.04186278 0.017208304 -0.007078695
000190 7e 23 99 3c 2a 4a 07 bd a0 5e da 3c 12 bb ad bd
       0.018693682 -0.033029713 0.026656449 -0.084829465
0001a0 9a eb 35 3d ee 2c 8f 3c 80 dd 56 3d fb 15 2d 3d
       0.04441414 0.017477479 0.052457333 0.04225729
0001b0 3c b6 1b 3c 49 bc 9b 3b d5 7d 5b 39 2f f4 ee 3c
       0.009503897 0.00475267 0.00020932344 0.02916917
0001c0 5f a6 ae 3d 78 a9 2b 3d 1f 27 cd bb d3 ce 4a bd
       0.085278265 0.041909665 -0.006260767 -0.04951365
0001d0 4f e4 07 3d be 21 3d 3d 5a 6e 74 3d 60 fd 7e 3b
       0.033176716 0.046174757 0.059675552 0.0038908347
0001e0 46 27 ae 3d 1f 1b 56 3d cc f8 aa bc b6 1f 6d 3d
       0.085035846 0.05227196 -0.020870589 0.05789157
0001f0 8a 55 5f 3d 64 e5 9a bc a2 06 2b 3d 32 87 a5 3d
       0.054524936 -0.01890821 0.041754372 0.08082427
