ddqn_out_softmax/dqn_ep2150.pt (torch, 464501 bytes, 24 tensors)

net.0.weight f4 [128, 77]
1.0543178 0.05873715 -0.06579814 -0.06280819 -0.048863735 0.035498276 0.0043682694 0.10441372
-0.04614341 0.10461019 -0.0062588276 -0.019261327 -0.15404658 -0.05389684 -0.039386146 0.016249672
0.034585338 0.06647899 -0.08096899 -0.052021876 0.038996153 0.08699394 -0.024985762 0.083920635
-0.020476587 0.036959276 0.12895241 -0.16589761 -0.031601824 -0.0006943158 -0.070695385 0.025478348
-0.068385035 -0.102062516 -0.0628921 -0.095795855 -0.07163056 0.09556454 0.048455022 0.05283729
0.0056866505 -0.041254185 0.006288255 -0.13818577 -0.036052566 -0.017570078 0.00400564 0.096485436
-0.011053914 -0.029883735 0.0456877 0.12305026 -0.035708506 0.016911928 0.07856939 -0.072953895
0.018933846 -0.090750016 -0.081380256 -0.08559609 0.030323636 0.06639065 -0.12405766 0.07190124
0.0849084 -0.10981685 0.11873535 0.016991302 -0.0073745684 0.031172905 -0.067010194 -0.1531033
0.046088755 0.09837789 0.095362544 0.097525045 0.020283572 0.9480786 0.01528886 -0.09601021
-0.019411393 0.09553068 0.09754382 -0.14339629 0.025057482 -0.029646259 -0.010717273 -0.0038746237
0.09832804 -0.045352988 0.0707139 0.06212147 0.08633593 0.037567254 -0.112855054 -0.07102878
0.061707653 0.028657459 -0.13638172 -0.016172076 0.115620166 0.07700939 -0.07615302 -0.025558341
-0.12204573 0.033737924 -0.031721007 -0.087244265 0.0018392057 0.035266742 0.031700127 0.072638124
-0.058888216 0.099921286 0.0829528 -0.091295764 -0.023557656 -0.057571158 -0.004905306 0.0038980378
0.039302245 0.04307953 -0.048228975 0.03789171 -0.09208975 0.011804935 -0.08833501 -0.033253293
-0.025168736 -0.043315504 -0.009598807 0.010230724 -0.07801786 -0.00049179886 0.08638403 -0.0069098305
-0.017890206 -0.028832477 0.018073281 0.04287693 0.15081014 0.0507037 0.09069283 0.1417149
-0.03046799 -0.108316146 0.06961061 0.027701318 -0.07088838 -0.08988298 -0.12398264 -0.10323604
-0.015767656 0.06730187 0.08081317 -0.10664285 0.07728832 -0.07902858 -0.02727079 -0.050373882
-0.026059264 -0.019918833 -0.09903258 -0.09561077 -0.0074225278 0.011875021 -0.04924331 0.047424667
-0.111770324 -0.012326167 0.104839176 -0.04271608 0.10617112 0.04453514 -0.09958059 0.07488216
-0.0026214768 -0.051835418 0.09563326 -0.074020706 0.011185599 -0.020355375 0.08299375 0.03942116
0.052256797 0.044118147 -0.018658463 -5.1029983e-05 -0.10247533 0.06617058 0.09257645 0.08123904
-0.07712095 0.008346678 -0.08233816 -0.060595874 -0.06557416 0.04291714 -0.07261352 -1.5561352e-05
0.007784316 0.06886193 -0.07616805 -0.0850181 -0.061273016 0.0873019 -0.036545817 0.104370266
0.04362731 0.014542383 0.0024156782 -0.019263871 0.017562203 -0.030087862 0.009332384 0.015691796
-0.081564836 -0.057267927 0.09646569 -0.08941247 -0.011850406 0.118783005 0.046263117 0.006258429
-0.09502609 0.06504621 -0.067489125 -0.032868672 -0.035218406 -0.01361204 0.0045105293 1.4126995
0.013788356 0.10227904 0.07654298 -0.046517882 0.0529509 -0.033268232 -0.020316992 0.057334024
0.043118987 0.070996396 0.0092188185 0.035406835 0.04671562 -0.11695878 0.070220105 -0.096783385
0.0010400304 -0.01961276 -0.060457963 0.0146239735 0.09272054 -0.018987529 -0.07468751 -0.027435374
00000000: e3f3 863f 5e96 703d 2dc1 86bd 95a1 80bd
00000010: 5725 48bd a466 113d b323 8f3b dcd6 d53d
00000020: df00 3dbd de3d d63d da16 cdbb eec9 9dbc
00000030: 63be 1dbe efc2 5cbd 5e53 21bd 081e 853c
00000040: 5ba9 0d3d 2326 883d 12d3 a5bd e414 55bd
00000050: 6eba 1f3d e129 b23d f1ae ccbc 95de ab3d
00000060: 84be a7bc 9c62 173d 1a0c 043e 10e1 29be
00000070: ea70 01bd bf02 36ba bec8 90bd f8b7 d03c
00000080: 740d 8cbd 2706 d1bd 93cd 80bd 9e30 c4bd
00000090: 0bb3 92bd 57b7 c33d c678 463d ea6b 583d
000000a0: 1557 ba3b 26fa 28bd b50d ce3b 9280 0dbe
000000b0: dbab 13bd 20ef 8fbc be41 833b 289a c53d
000000c0: 7a1b 35bc bcce f4bc 0723 3b3d c601 fc3d
000000d0: 1543 12bd e28a 8a3c fde8 a03d da68 95bd
000000e0: 271b 9b3c 25db b9bd b1aa a6bd 014d afbd
000000f0: 4669 f83c d2f7 873d f111 febd f540 933d
00000100: 75e4 ad3d a8e7 e0bd 852b f33d 5831 8b3c
00000110: 5da6 f1bb 525e ff3c a43c 89bd 1dc7 1cbe
00000120: 90c7 3c3d 597a c93d 704d c33d 36bb c73d
00000130: bc29 a63c 47b5 723f 207e 7a3c 00a1 c4bd
00000140: a404 9fbc 97a5 c33d 0ec5 c73d 7ad6 12be
00000150: 5945 cd3c b6dc f2bc 8097 2fbc 66ed 7dbb
00000160: 3660 c93d 0ec4 39bd 73d2 903d 1573 7e3d
00000170: e4d0 b03d 1fe0 193d 8d20 e7bd 8977 91bd
00000180: 2ac1 7c3d 0cc3 ea3c a6a7 0bbe 4d7b 84bc
00000190: 44ca ec3d 19b7 9d3d 1df6 9bbd ba5f d1bc
000001a0: 1df3 f9bd c730 0a3d e3ed 01bd 1fad b2bd
000001b0: 8111 f13a dc73 103d fed7 013d 4cc3 943d
000001c0: c534 71bd 88a3 cc3d 28e3 a93d 46f9 babd
000001d0: fcfb c0bc bccf 6bbd b0bc a0bb 3976 7f3b
000001e0: 64fb 203d 2974 303d bf8b 45bd 5634 1b3d
000001f0: 8d99 bcbd 7c69 413c fce8 b4bd 9b34 08bd
00000200: aa2e cebc 996b 31bd 5144 1dbc c49e 273c
00000210: d4c7 9fbd 10ec 00ba 1cea b03d dc6b e2bb
00000220: 7b8e 92bc 1632 ecbc 6b0e 943c b89f 2f3d
00000230: f96d 1a3e afae 4f3d 2abd b93d b61d 113e
00000240: 0298 f9bc dbd4 ddbd 0290 8e3d e0ed e23c
00000250: ed2d 91bd 9114 b8bd 9cea fdbd 6b6d d3bd
00000260: 2c2b 81bc 90d5 893d 6081 a53d 9167 dabd
00000270: 5749 9e3d bcd9 a1bd fe66 dfbc d854 4ebd
00000280: 3d7a d5bc d22c a3bc 98d1 cabd 94cf c3bd
00000290: ad38 f3bb 738f 423c 5ab3 49bd 5e40 423d
000002a0: d7e7 e4bd b1f3 49bc ecb5 d63d 0ef7 2ebd
000002b0: 3f70 d93d 7b6a 363d e9f0 cbbd d15b 993d
000002c0: 15cd 2bbb 6051 54bd 5fdb c33d 2b98 97bd
000002d0: cd43 373c 51c0 a6bc a1f8 a93d 1578 213d
000002e0: 390b 563d 3bb5 343d a2d9 98bc 0709 56b8
000002f0: 96de d1bd 7184 873d b998 bd3d a760 a63d
00000300: 97f1 9dbd 81c0 083c e9a0 a8bd 6133 78bd
00000310: bf4b 86bd e2c9 2f3d 66b6 94bd c089 82b7
00000320: 9313 ff3b 7c07 8d3d fffd 9bbd f81d aebd
00000330: 6af9 7abd 57cb b23d 11b1 15bd 14c0 d53d
00000340: 8db2 323d 2d43 6e3c 5b50 1e3b 44cf 9dbc
00000350: 9cde 8f3c d27a f6bc dbe6 183c 158c 803c
00000360: 770b a7bd c691 6abd ce8f c53d e31d b7bd
00000370: 3528 42bc 8144 f33d 657e 3d3d 8213 cd3b
00000380: 0a9d c2bd f336 853d bd37 8abd 4da1 06bd
00000390: 2d41 10bd 0905 5fbc 10cd 933b 56d3 b43f
000003a0: 8fe8 613c ac77 d13d 91c2 9c3d 8989 3ebd
000003b0: 0be3 583d 4544 08bd d26f a6bc 15d7 6a3d
000003c0: 899d 303d 8f66 913d 870a 173c c206 113d
000003d0: e158 3f3d 1688 efbd 8fcf 8f3d 5e36 c6bd
000003e0: a151 883a f0aa a0bc c5a2 77bd 6499 6f3c
000003f0: 44e4 bd3d bc8b 9bbc c4f5 98bd 26c0 e0bc

net.0.bias f4 [128]
-0.026209095 -0.041544992 -0.07490791 0.035442974 -0.04418168 -0.056223895 0.034868848 -0.038968347
0.017819282 -0.0046903193 0.03809813 0.07199251 -0.10015575 -0.05199565 0.11173366 0.010780578
-0.021671562 0.083469786 0.09926376 0.032848377 -0.08019273 0.112094425 -0.10940043 -0.12517959
0.016752113 -0.028250303 -0.11399146 0.092598945 0.01747131 -0.068000846 0.047720637 0.082971275
-0.012080371 0.08976929 0.059921313 0.035973344 -0.055993512 -0.08514215 -0.00925461 -0.037075732
-0.11093778 -0.10758281 -0.06587558 0.012327151 -0.04057571 -0.095747836 -0.019667171 -0.03779756
-0.031528257 0.06889713 0.050222453 0.07775169 0.11806689 -0.0020883793 -0.045388944 -0.0016320836
0.02458733 -0.037265413 0.083728015 0.059864566 -0.085576 0.026108293 -0.002129167 0.047996003
-0.059601955 0.10412711 -0.039105624 0.045305453 -0.05735028 0.03713451 -0.03310989 -0.04741861
-0.09524881 0.033927944 0.029116059 0.029354086 -0.042976707 0.0184303 -0.059496514 0.026219994
0.10639982 -0.09974033 0.049337517 -0.07367289 0.033305876 -0.024862498 0.049854606 -0.08028535
0.07621033 0.072320744 -0.079924576 -0.075269684 0.06710512 -0.07694295 0.044986002 -0.061301474
-0.097056486 0.030387128 -0.03569422 -0.055318553 0.04026821 0.04581716 0.08260269 0.10888253
0.053090468 -0.032929912 0.01148401 0.0849101 -0.09192483 0.08978761 0.051058985 0.03944294
0.028716156 -0.10176481 0.03812446 -0.0060446244 0.004194818 -0.06123029 0.08839554 -0.019034453
-0.011009033 -0.09288786 0.10385465 -0.1083012 0.07076135 0.04588797 0.015582712 -0.110335335
00000000: 75b4 d6bc 152b 2abd 5169 99bd a72c 113d
00000010: d9f7 34bd 074b 66bd a3d2 0e3d 469d 1fbd
00000020: bef9 913c 40b1 99bb c90c 1c3d cf70 933d
00000030: 751e cdbd 64f9 54bd 9ed4 e43d 05a1 303c
00000040: 8f88 b1bc 35f2 aa3d cc4a cb3d 058c 063d
00000050: 163c a4bd c391 e53d 550d e0bd 142f 00be
00000060: ba3b 893c 2e6d e7bc 5b74 e9bd 84a4 bd3d
00000070: fe1f 8f3c 0744 8bbd b776 433d d8ec a93d
00000080: c0ec 45bc f6d8 b73d 0d70 753d c958 133d
00000090: 7459 65bd 025f aebd a6a0 17bc b9dc 17bd
000000a0: 5933 e3bd 6054 dcbd c7e9 86bd d2f7 493c
000000b0: b732 26bd 7117 c4bd 0c1d a1bc 9dd1 1abd
000000c0: c623 01bd f019 8d3d 0fb6 4d3d 473c 9f3d
000000d0: 0ecd f13d 31dd 08bb c2e9 39bd a3eb d5ba
000000e0: 5e6b c93c 9ea3 18bd 9879 ab3d 8c34 753d
000000f0: 7842 afbd 0fe1 d53c 7f89 0bbb 7597 443d
00000100: 2e21 74bd 9840 d53d 382d 20bd 3692 393d
00000110: 21e8 6abd 5b1a 183d 3c9e 07bd 043a 42bd
00000120: cf11 c3bd 07f8 0a3d cd84 ee3c fb77 f03c
00000130: 5808 30bd 24fb 963c 9eb2 73bd 50cb d63c
00000140: 26e8 d93d a844 ccbd 2316 4a3d d0e1 96bd
00000150: be6b 083d 70ac cbbc 5834 4c3d a56c a4bd
00000160: 2914 9c3d e61c 943d 7faf a3bd fe26 9abd
00000170: 696e 893d 4494 9dbd 3e43 383d 4117 7bbd
00000180: 8dc5 c6bd 6dee f83c 1a34 12bd b595 62bd
00000190: 47f0 243d c6aa 3b3d 992b a93d cefd de3d
000001a0: 6475 593d 84e1 06bd 6e27 3c3c 59e5 ad3d
000001b0: 1643 bcbd 91e2 b73d 3a23 513d ec8e 213d
000001c0: 253e eb3c 126a d0bd 6528 1c3d fc11 c6bb
000001d0: af74 893b 9dcc 7abd b908 b53d 24ee 9bbc
000001e0: 3b5f 34bc fe3b bebd bfb1 d43d 05cd ddbd
000001f0: 54eb 903d 06f5 3b3d a24e 7f3c 7ef7 e1bd

net.2.weight f4 [128, 128]
-0.016144702 -0.025720991 -0.07693851 -0.023690276 -0.019141441 -0.06287872 0.048019376 0.11309056
-0.110532194 0.071018524 0.00878356 0.07559309 -0.07708759 -0.025814658 -0.01770679 0.07785161
0.095782675 0.0017797541 -0.05448438 -0.02998876 -0.0063245376 0.03326092 -0.0009661941 0.024905205
-0.023110397 0.11307031 -0.029251924 -0.052788306 0.05712054 0.020343047 0.05212585 0.08628831
-0.03559627 0.09691841 0.07820311 0.02744033 0.02725843 -0.03335871 -0.0020339983 0.0114198215
-0.018509379 0.0026992061 0.12222679 0.032946505 0.05078799 0.008554503 0.019070521 -0.017442152
0.004648715 0.00076813257 -0.030358395 -0.0843395 0.010469065 0.0041319756 0.008281428 -0.019556796
-0.07446289 0.013260111 -0.05746864 0.072043605 -0.047208387 0.04287242 -0.07780047 -0.007830438
-0.08408715 -0.068541236 0.03366638 -0.06258172 0.044705603 0.06521423 0.008267496 0.03467077
-0.06708569 0.032522842 -0.11031928 0.08775651 -0.0414079 0.029699616 0.090476744 -0.06382706
-0.04604071 0.021249503 -0.06631437 0.03414322 0.0008043429 -0.082909614 -0.021136586 -0.077529915
0.017255746 0.1032962 0.077472694 -0.084823236 -0.009355512 -0.07591548 0.014381385 0.04865288
-0.13488923 -0.013352739 -0.10577119 0.008989424 0.057097703 -0.057111025 0.010391638 -0.023806622
0.10722877 -0.08103891 -0.043805495 0.004665185 -0.07544101 0.09796408 -0.07649777 -0.012706522
-0.038019784 0.033226807 -0.04199451 0.09001716 -0.094200306 -0.049614962 -0.044429533 -0.084479384
-0.08631684 0.022394227 0.10031826 -0.00042451732 -0.024998885 0.027234932 0.08397578 -0.07932501
-0.0027969317 0.10571041 0.038020696 -0.060068898 0.01323126 -0.015910283 -0.12636918 -0.01839492
0.09647824 -0.021927832 0.071558535 -0.052214842 -0.0060805604 0.15323798 -0.019846506 -0.061555404
-0.061233133 -0.043746576 0.028359652 -0.0421044 -0.055839334 0.10779507 0.09947023 -0.02814
-0.048065964 -0.0038841558 0.032467593 0.043067608 0.0137379235 0.06981005 -0.026700323 -0.025855735
0.04527154 0.05006663 -0.05462015 0.05577622 0.08861271 -0.07245056 -0.0763947 0.042458788
-0.061918605 -0.103328474 -0.018579612 -0.02488636 -0.008829787 -0.044149287 0.06898259 0.091933616
0.029813005 0.062145997 0.1064863 0.1094346 0.026018884 0.08052569 0.11615529 0.14665046
-0.024976142 0.09199344 -0.059916195 -0.060041346 0.06648103 -0.1495766 0.038203888 0.16591413
0.026884796 -0.07159675 -0.018458676 0.002665397 -0.054428 0.038832728 0.044833038 0.05209072
-0.0030329076 0.08559847 0.06676936 0.07271948 0.030695379 0.048927262 0.029212935 0.028754795
0.064307116 0.10020233 0.13049263 -0.12415031 0.0013842798 0.07275795 -0.03394051 0.025668915
-0.09427546 0.055523798 -0.030565677 0.07202641 -0.01998188 0.069832206 0.057310447 -0.0053633945
-0.01930774 -0.04367781 -0.0042528254 0.113035835 0.1760749 -0.10427525 -0.07181726 0.07982803
-0.008600437 -0.046770103 -0.11232803 -0.05958977 -0.041534234 0.10967923 -0.06726061 0.029412419
-0.054194603 0.027254703 -0.031123664 0.051338173 -0.028966637 -0.10736289 -0.021948054 -0.025988556
0.0424175 0.13002458 0.04935826 0.012079081 -0.03753568 0.019669773 0.0370052 0.07918117
00000000: e541 84bc d4b4 d2bc f091 9dbd 1c12 c2bc
00000010: 83ce 9cbc 8fc6 80bd f7af 443d 069c e73d
00000020: b45e e2bd 2972 913d ece8 0f3c 8dd0 9a3d
00000030: 19e0 9dbd 4379 d3bc d40d 91bc aa70 9f3d
00000040: b529 c43d a346 e93a 032b 5fbd fdaa f5bc
00000050: 113e cfbb 9a3c 083d 3048 7dba 0006 cc3c
00000060: 0452 bdbc 6891 e73d bba1 efbc 8d38 58bd
00000070: 3af7 693d 76a6 a63c ea81 553d edb7 b03d
00000080: 65cd 11bd 297d c63d f428 a03d 8bca e03c
00000090: 124d df3c 25a3 08bd d44c 05bb 341a 3b3c
000000a0: fba0 97bc 2ae5 303b 0a52 fa3d eaf2 063d
000000b0: 1107 503d 3028 0c3c c839 9c3c d8e2 8ebc
000000c0: 3f54 983b 815c 493a 2bb2 f8bc 30ba acbd
000000d0: 7186 2b3c 8665 873b d4ae 073c 9335 a0bc
000000e0: 0080 98bd f040 593c 3d64 6bbd 998b 933d
000000f0: 955d 41bd fe9a 2f3d da55 9fbd 3d4b 00bc
00000100: e235 acbd 595f 8cbd c2e5 093d d82a 80bd
00000110: 391d 373d 0a8f 853d 6474 073c f002 0e3d
00000120: 3964 89bd ac36 053d 13ef e1bd afb9 b33d
00000130: 559b 29bd 9c4c f33c df4b b93d c3b7 82bd
00000140: 2f95 3cbd 7013 ae3c d4cf 87bd c3d9 0b3d
00000150: 8ada 523a 84cc a9bd a226 adbc 01c8 9ebd
00000160: ec5b 8d3c f58c d33d 01aa 9e3d ceb7 adbd
00000170: dd47 19bc 9379 9bbd e79f 6b3c 3e48 473d
00000180: 6720 0abe 72c5 5abc 919e d8bd 6148 133c
00000190: 48df 693d 40ed 69bd b041 2a3c 1b06 c3bc
000001a0: c29a db3d baf7 a5bd 646d 33bd 69de 983b
000001b0: d180 9abd 64a1 c83d ddaa 9cbd 042f 50bc
000001c0: a2ba 1bbd d518 083d 6f02 2cbd eb5a b83d
000001d0: 17ec c0bd 0f39 4bbd befb 35bd 8703 adbd
000001e0: e2c6 b0bd 1974 b73c a973 cd3d c091 deb9
000001f0: 76ca ccbc cb1b df3c 7efb ab3d 2775 a2bd
00000200: ba4c 37bb b37e d83d 97bb 1b3d ce0a 76bd
00000210: edc7 583c 4856 82bc ec66 01be f1b0 96bc
00000220: 6296 c53d ffa1 b3bc 488d 923d 3bdf 55bd
00000230: 703f c7bb 6bea 1c3e 2495 a2bc 8521 7cbd
00000240: 98cf 7abd 9c2f 33bd 8052 e83c aa75 2cbd
00000250: c9b7 64bd a9c3 dc3d 0cb7 cb3d db85 e6bc
00000260: d1e0 44bd 528d 7ebb bdfc 043d a967 303d
00000270: 0715 613c 92f8 8e3d a3ba dabc 68cf d3bc
00000280: a66e 393d ab12 4d3d 61b9 5fbd 9b75 643d
00000290: 957a b53d f660 94bd d374 9cbd 44e9 2d3d
000002a0: 5d9e 7dbd e19d d3bd 4534 98bc 7bde cbbc
000002b0: d0aa 10bc e2d5 34bd bf46 8d3d b147 bc3d
000002c0: 673a f43c cd8c 7e3d 7d15 da3d 3f1f e03d
000002d0: 8e25 d53c a7ea a43d d3e2 ed3d 8a2b 163e
000002e0: c49a ccbc 0f67 bc3d af6a 75bd eaed 75bd
000002f0: 3527 883d 9c2a 19be ae7b 1c3d 65e5 293e
00000300: 813d dc3c 51a1 92bd a636 97bc f1ad 2e3b
00000310: e5ef 5ebd 110f 1f3d d9a2 373d 145d 553d
00000320: bfc3 46bb 404e af3d 60be 883d f3ed 943d
00000330: e074 fb3c f467 483d f74f ef3c 2d8f eb3c
00000340: 73b3 833d e136 cd3d dc9f 053e 8542 febd
00000350: b970 b53a 1f02 953d 3405 0bbd 9e47 d23c
00000360: 7e13 c1bd ec6c 633d df64 fabc 9582 933d
00000370: 0ab1 a3bc 3004 8f3d 5cbe 6a3d 6abf afbb
00000380: 442b 9ebc 81e7 32bd 495b 8bbb 557f e73d
00000390: fb4c 343e 438e d5bd ed14 93bd e17c a33d
000003a0: d9e8 0cbc 0292 3fbd 3d0c e6bd 6714 74bd
000003b0: cd1f 2abd 819f e03d eebf 89bd 50f2 f03c
000003c0: 29fb 5dbd 4145 df3c 0ef7 febc fa47 523d
000003d0: 714b edbc 13e1 dbbd 68cc b3bc f4e5 d4bc
000003e0: f9bd 2d3d 2a25 053e e32b 4a3d 56e7 453c
000003f0: 03bf 19bd 8122 a13c c492 173d bd29 a23d

net.2.bias f4 [128]
-0.023019534 -0.04888063 0.07381356 0.06011819 0.009094766 -0.044853374 0.044541758 -0.057542294
-0.07838228 0.07389472 0.05035833 -0.024820179 0.06659548 -0.0050603324 0.027372837 0.015674394
0.06670211 0.07320704 -0.005808513 0.05174038 0.02933369 0.043871514 -0.008998402 -0.04638819
0.06940947 0.055176567 -0.093025304 0.022083884 0.07015859 0.055169012 0.045679346 0.058831003
-0.07827536 -0.052968226 0.07769072 0.0115548745 -0.027228372 0.07686374 -0.0050556916 0.063559234
-0.018854955 0.05096209 0.01850716 -0.076003015 0.03921768 -0.019319244 0.04065858 0.026368555
0.05037536 -0.04659773 0.06089712 0.037798777 -0.077935874 0.06904358 0.009301485 0.07901448
-0.026648212 -0.07296762 -0.0008464807 0.025585052 0.011633109 -0.008533991 -0.055562533 -0.010425346
0.057537265 -0.067706965 0.07534707 -0.0016943003 -0.034943443 -0.03191902 0.07193535 -0.0821292
-0.052489918 -0.08417018 -0.06878329 0.026764616 -0.050015327 0.009602286 0.04646013 -0.0697651
0.05584754 -0.016994845 -0.08523797 0.040481757 0.08713769 -0.0072219353 -0.0020897908 0.047513768
-0.03311052 0.033079166 0.008432893 0.018443106 -0.00033979357 -0.068563916 -0.04712256 -0.0096139535
-0.044887926 -0.036519274 0.018440852 -0.0025088293 0.01999712 -0.02959677 0.027788248 -0.081610456
0.04924472 0.017715974 0.053383164 0.04620424 0.014566363 0.0046121227 -0.0008228275 0.03246919
0.088921264 0.046742823 -0.0041754083 -0.042626187 0.03531535 0.04594358 0.062721126 0.0038135133
0.0881025 0.05367575 -0.018682858 0.061832175 0.047295403 -0.019301413 0.046331227 0.08367
00000000: 7693 bcbc 0e37 48bd 902b 973d 7e3e 763d
00000010: 3702 153c 2cb8 37bd 6b71 363d 78b1 6bbd
00000020: e486 a0bd 1d56 973d 8944 4e3d b053 cbbc
00000030: 3663 883d 25d1 a5bb 003d e03c 9667 803c
00000040: 1e9b 883d 93ed 953d 5755 bebb b8ed 533d
00000050: 354d f03c 9eb2 333d 096e 13bc 8b01 3ebd
00000060: 8d26 8e3d d300 623d 0d84 bebd 43e9 b43c
00000070: 4faf 8f3d e7f8 613d 441a 3b3d c7f8 703d
00000080: d54e a0bd 36f5 58bd 501c 9f3d a850 3d3c
00000090: 090e dfbc bd6a 9d3d 37aa a5bb 582b 823d
000000a0: b575 9abc a0bd 503d 549c 973c 78a7 9bbd
000000b0: b8a2 203d 6443 9ebc 9c89 263d de02 d83c
000000c0: 6556 4e3d 43dd 3ebd 426f 793d e4d2 1a3d
000000d0: d89c 9fbd b866 8d3d 4165 183c 58d2 a13d
000000e0: 5a4d dabc 0c70 95bd 5ce6 5dba be97 d13c
000000f0: cc98 3e3c 27d2 0bbc 8a95 63bd 12cf 2abc
00000100: 32ac 6b3d f3a9 8abd 914f 9a3d 4913 deba
00000110: db20 0fbd 85bd 02bd d752 933d 5b33 a8bd
00000120: abff 56bd 6a61 acbd 41de 8cbd 7841 db3c
00000130: dfdc 4cbd e852 1d3c fa4c 3e3d 01e1 8ebd
00000140: 64c0 643d c638 8bbc 3f91 aebd 33d0 253d
00000150: 3f75 b23d fca5 ecbb dff4 08bb cc9d 423d
00000160: e69e 07bd 057e 073d 1e2a 0a3c ff15 973c
00000170: 5226 b2b9 3d6b 8cbd 9603 41bd d883 1dbc
00000180: 67dc 37bd 3c95 15bd 4511 973c 2c6b 24bb
00000190: 00d1 a33c ed74 f2bc 2ea4 e33c 6223 a7bd
000001a0: d5b4 493d 1721 913c 4ea8 5a3d a840 3d3d
000001b0: c1a7 6e3c 4a21 973b 05b3 57ba 6afe 043d
000001c0: 5a1c b63d 6775 3f3d ddd1 88bb cc98 2ebd
000001d0: d4a6 103d 562f 3c3d ef73 803d 23ec 793b
000001e0: 156f b43d 1adb 5b3d cb0c 99bc bc43 7d3d
000001f0: d3b8 413d ff1d 9ebc d0c5 3d3d 2d5b ab3d

net.4.weight f4 [15, 128]
-0.0049348325 0.018960353 0.03139469 -0.0056890775 0.0567708 -0.08147674 -0.09389622 0.082646824
0.066103496 0.0052624326 -0.036312107 0.043294296 -0.05628764 -0.01410545 -0.08923426 0.037709586
0.023010606 -0.09788763 0.035383776 -0.06813018 0.11296305 0.093156554 0.030026712 0.05051392
0.052468512 0.07649742 0.08921564 0.041262556 0.03973264 -0.041577198 0.029475823 0.09917063
-0.075049706 -0.0671694 -0.07956342 0.045784287 -0.044224262 0.058678936 0.008047457 0.06386776
0.11378372 0.09195239 0.074376315 0.1121784 0.06371842 0.037236154 -0.08986634 -0.031700764
0.033474337 0.07121387 0.005854372 -0.06260091 0.017066158 0.061819736 -0.040901743 0.1001364
0.04117412 -0.08080099 0.06488786 -0.12319352 0.036116246 -0.0012645519 -0.030158177 -0.02415189
0.1042703 0.043154683 0.044829253 0.010694985 0.021448512 -0.010869709 -0.0399715 0.12132581
-0.041438203 -0.046136208 0.08560989 0.06400407 0.08327687 -0.012652484 0.07544679 -0.0020032888
-0.03869583 0.07345588 0.022311024 0.096005395 0.049660448 -0.019553043 0.0521799 -0.16656137
0.10988481 0.10342474 -0.022838464 0.15112253 0.04749953 0.031656895 -0.06969743 0.07621206
-0.06748734 -0.049696963 0.012051145 0.10988462 -0.059101745 0.10711769 0.08208518 0.041259613
0.08798447 0.070113696 0.08361467 -0.020606954 -0.0006629874 -0.062366042 0.014605348 0.021133786
0.0908674 0.09072723 0.04687988 0.05132899 0.002017913 0.08358785 0.121723644 0.05512184
0.08142624 -0.0012701104 0.049021605 -0.056434967 0.028699452 0.06763947 0.024073623 0.0898658
-0.03156245 0.14295495 -0.069285475 0.04927899 0.06657964 0.03087535 -0.07851044 0.042787008
0.0919262 0.13446437 -0.067316346 -0.0867488 0.07826899 0.002969271 0.11624839 -0.010532408
0.105134465 -0.11069857 -0.013391472 -0.09173101 0.049666036 -0.0050826753 -0.062019747 0.03328281
-0.059825458 -0.016109616 0.054064665 0.024870556 0.09353697 -0.06396269 0.081859894 -0.0052985
0.0427173 -0.061643396 -0.07018625 -0.022394225 0.07866015 -0.05395175 -0.075732164 0.056730866
0.048715338 0.09635727 0.1020961 0.1098899 0.0072417837 0.060179956 -0.0046719913 0.0754133
-0.014851566 0.12236818 0.086281605 -0.0051143654 0.023703063 0.07407127 0.029160472 -0.016338592
0.07287048 0.002910249 -0.0060146716 -0.103751905 -0.01372737 -0.0037733507 -0.019951345 0.0018905818
0.1359313 0.047053035 0.02692264 0.060781468 0.1204722 -0.07461382 -0.0057979887 -0.030502334
-0.13146691 0.07486435 0.07142355 -0.06282419 0.062670834 0.11972986 0.12257587 0.1008263
0.07168402 -0.023527978 -0.04952248 0.08270469 -0.061978422 -0.030296724 -0.09962407 -0.14707273
0.08861726 0.055538114 -0.007816269 0.080720864 0.14003608 0.06817513 0.007891469 0.0044182357
-0.09933959 -0.02604806 -0.030383654 0.124321 0.016042784 0.072885096 -0.026737414 -0.0007764115
0.050351623 0.014518684 0.019227328 0.09470295 -0.030625837 -0.090361565 -0.050707128 -0.018705502
0.080352806 0.048900526 0.08481259 0.028878208 0.04149493 0.07665133 0.007238049 -0.1735808
0.062000737 -0.036220826 -0.04645362 0.0116077615 -0.1352316 0.050205644 0.01564343 -0.023169305
00000000: 60b4 a1bb be52 9b3c b897 003d 716b babb
00000010: 8088 683d 47dd a6bd a94c c0bd bd42 a93d
00000020: 4561 873d 7c70 ac3b 01bc 14bd 5c55 313d
00000030: de8d 66bd 8c1a 67bc 74c0 b6bd 5e75 1a3d
00000040: bd80 bc3c 4f79 c8bd 94ee 103d d687 8bbd
00000050: 2c59 e73d ddc8 be3d 94fa f53c afe7 4e3d
00000060: 39e9 563d aeaa 9c3d b1b6 b63d ed02 293d
00000070: b1be 223d da4c 2abd 4877 f13c f919 cb3d
00000080: a9b3 99bd 1c90 89bd 25f2 a2bd 4e88 3b3d
00000090: 8024 35bd 5359 703d 7bd9 033c 1acd 823d
000000a0: 7007 e93d 8951 bc3d 9c52 983d cabd e53d
000000b0: ce7e 823d f084 183d d80b b8bd a9d8 01bd
000000c0: 631c 093d 94d8 913d 08d6 bf3b e834 80bd
000000d0: 54ce 8b3c b136 7d3d 9688 27bd 5014 cd3d
000000e0: 32a6 283d fd7a a5bd ede3 843d e24c fcbd
000000f0: a1ee 133d 52bf a5ba 480e f7bc 2fda c5bc
00000100: ab8b d53d f7c2 303d e19e 373d 053a 2f3c
00000110: cab4 af3c dd16 32bc 28b9 23bd ab79 f83d
00000120: 1bbb 29bd 52f9 3cbd 3d54 af3d 9114 833d
00000130: 108d aa3d 5d4c 4fbc d983 9a3d 9c49 03bb
00000140: 857f 1ebd 0970 963d 9cc5 b63c 7a9e c43d
00000150: c168 4b3d b42d a0bc 97ba 553d 108f 2abe
00000160: 4a0b e13d 5ad0 d33d bb17 bbbc ddbf 1a3e
00000170: de8e 423d a9aa 013d 87bd 8ebd 1215 9c3d
00000180: cd36 8abd 0b8f 4bbd 2a72 453c 300b e13d
00000190: ac14 72bd 8560 db3d 461c a83d d7ff 283d
000001a0: 3431 b43d c597 8f3d 2b3e ab3d eacf a8bc
000001b0: 55cc 2dba 8973 7fbd 454b 6f3c c320 ad3c
000001c0: b018 ba3d 33cf b93d 1e05 403d 593e 523d
000001d0: f63e 043b 1b30 ab3d 3f4a f93d 70c7 613d
000001e0: cdc2 a63d d579 a6ba e1ca 483d 5a28 67bd
000001f0: 1d1b eb3c 9086 8a3d 0c36 c53c 900b b83d
00000200: a147 01bd c862 123e 8be5 8dbd c4d8 493d
00000210: e85a 883d 4dee fc3c 15ca a0bd 6e41 2f3d
00000220: ce43 bc3d 07b1 093e 27dd 89bd 5ba9 b1bd
00000230: 7e4b a03d 1a98 423b a313 ee3d 1f90 2cbc
00000240: bd50 d73d efb5 e2bd e867 5bbc 78dd bbbd
00000250: 9d6e 4b3d 928c a6bb 6b08 7ebd 8e53 083d
00000260: 8a0b 75bd 50f8 83bc e972 5d3d 56bd cb3c
00000270: 5090 bf3d dffe 82bd 29a6 a73d 0a9f adbb
00000280: 56f8 2e3d c97d 7cbd cfbd 8fbd 1874 b7bc
00000290: 9318 a13d 83fc 5cbd 7719 9bbd a05e 683d
000002a0: bc89 473d f656 c53d c317 d13d f50d e13d
000002b0: 7c4c ed3b 427f 763d 8117 99bb 4a72 9a3d
000002c0: fc53 73bc 2b9c fa3d 69b4 b03d 6896 a7bb
000002d0: ed2c c23c aeb2 973d f1e1 ee3c 83d8 85bc
000002e0: 1e3d 953d e0b9 3e3b b916 c5bb e17b d4bd
000002f0: c3e8 60bc 524a 77bb 0171 a3bc 66cd f73a
00000300: 9331 0b3e afba 403d de8c dc3c fdf5 783d
00000310: 21ba f63d 21cf 98bd 0efd bdbb 08e0 f9bc
00000320: 439f 06be 7b52 993d 8346 923d f8a9 80bd
00000330: 9159 803d ee34 f53d 0f09 fb3d 057e ce3d
00000340: 12cf 923d bfbd c0bc 16d8 4abd 1461 a93d
00000350: 16dd 7dbd d630 f8bc b407 ccbd 3c9a 16be
00000360: f77c b53d ef7b 633d cf0f 00bc fb50 a53d
00000370: 9e65 0f3e 679f 8b3d 384b 013c d9c6 903b
00000380: 8e72 cbbd be62 d5bc 24e7 f8bc 029c fe3d
00000390: 286c 833c c844 953d 6c08 dbbc 1888 4bba
000003a0: 813d 4e3d c6df 6d3c a182 9d3c 9ff3 c13d
000003b0: 09e3 fabc 7c0f b9bd 47b2 4fbd 483c 99bc
000003c0: 0390 a43d eb4b 483d 39b2 ad3d fe91 ec3c
000003d0: 96f6 293d 5ffb 9c3d 282d ed3b 2abf 31be
000003e0: 7cf4 7d3d 4a5c 14bd 2746 3ebd 7b2e 3e3c
000003f0: 277a 0abe 6fa4 4d3d a726 803c 8ecd bdbc

net.4.bias f4 [15]
-0.04698776 0.082620874 -0.020872736 -0.031280067 0.01414027 0.034556877 0.0635872 -0.04367652
0.05736998 0.0806968 0.022294661 0.07013223 0.024405813 0.052714456 0.018582713
00000000: 3d76 40bd 2235 a93d 4dfd aabc 871f 00bd
00000010: 97ac 673c 838b 0d3d 023a 823d 27e6 32bd
00000020: c9fc 6a3d 5d44 a53d 4ba3 b63c 7da1 8f3d
00000030: b3ee c73c 1deb 573d c63a 983c

net.0.weight f4 [128, 77]
1.047722 0.058878083 -0.0656838 -0.061934117 -0.048446536 0.035382695 0.0032160266 0.10536753
-0.046223618 0.10443111 -0.0063928794 -0.019213282 -0.15408403 -0.054159947 -0.0387619 0.01608192
0.035107806 0.06645465 -0.08070752 -0.051880945 0.039137084 0.087088235 -0.02437718 0.08483816
-0.021068854 0.03670298 0.12959658 -0.16583684 -0.032302134 -0.0010695271 -0.070241034 0.025729878
-0.068553194 -0.101628244 -0.06274161 -0.095406555 -0.071794264 0.09570544 0.048595954 0.05297822
0.005793903 -0.04173602 0.006950016 -0.13807526 -0.036337826 -0.016935598 0.004184974 0.09573904
-0.011911208 -0.029422075 0.04586276 0.1227754 -0.035634827 0.017208938 0.07854421 -0.07305662
0.019071758 -0.09060911 -0.08123935 -0.08542852 0.031521644 0.06697183 -0.1240509 0.07186107
0.08518659 -0.1092741 0.11830411 0.016601354 -0.0069631943 0.031012507 -0.06734506 -0.14988546
0.04625908 0.09841007 0.09529952 0.09766595 0.02042445 0.9439556 0.014410827 -0.09726269
-0.019545667 0.09473826 0.096518524 -0.14347377 0.024442704 -0.030542253 -0.011603857 -0.004736108
0.09870161 -0.046217687 0.069711626 0.061531648 0.08575959 0.036591284 -0.11384167 -0.07190732
0.060829613 0.027779404 -0.13753268 -0.01666781 0.11450924 0.07603342 -0.07621097 -0.026375173
-0.12295265 0.03255878 -0.032717135 -0.08942318 0.0007073321 0.03457121 0.030597024 0.07201831
-0.0597984 0.09879138 0.08206273 -0.092173845 -0.02443571 -0.0583593 -0.0053395485 0.0027837132
0.0381144 0.04284949 -0.048997656 0.0370045 -0.09328512 0.01087338 -0.088273734 -0.034354106
-0.026128666 -0.04462227 -0.010017891 0.0092622535 -0.079253346 -0.0013676715 0.08550595 -0.00778786
-0.018297799 -0.029771142 0.016706856 0.041793484 0.15037735 0.05011475 0.08962091 0.1403162
-0.030766772 -0.10814682 0.068617634 0.026403874 -0.070761845 -0.09020059 -0.12497509 -0.104385756
-0.016646584 0.06642379 0.08048845 -0.10632378 0.07761719 -0.079565346 -0.02679832 -0.050045073
-0.026537908 -0.019503865 -0.09874086 -0.09495917 -0.0080555165 0.011816027 -0.048980113 0.04780778
-0.11096615 -0.011814443 0.10515811 -0.042370073 0.106490195 0.044854216 -0.09926152 0.075554214
-0.0033726867 -0.051040947 0.095934264 -0.07476516 0.0118209515 -0.020060163 0.0833311 0.039021336
0.052175578 0.044414748 -0.01838394 -7.5750766e-05 -0.102341436 0.06650422 0.09289615 0.08155811
-0.07680188 0.008665754 -0.08174404 -0.061621364 -0.064982854 0.043237958 -0.073121384 0.00023894606
0.008089614 0.06950305 -0.07617848 -0.08515709 -0.060971722 0.087743245 -0.03596059 0.10406511
0.04392687 0.015276692 0.002734756 -0.01894479 0.017881284 -0.029703265 0.008700425 0.016050562
-0.081299834 -0.05733667 0.09677373 -0.08911052 -0.011416424 0.119078875 0.045660336 0.006583943
-0.094610915 0.06527251 -0.068321854 -0.032093726 -0.034904614 -0.013292964 0.004829606 1.4061738
0.014608774 0.10301569 0.077568576 -0.045629106 0.05361227 -0.032894347 -0.019595988 0.058272537
0.044172224 0.0722035 0.010223528 0.036346875 0.047673702 -0.116278164 0.07094422 -0.09612693
0.0016700224 -0.01871709 -0.059637547 0.015444391 0.093098216 -0.018022021 -0.073998936 -0.026751693
00000000: c11b 863f 252a 713d 3a85 86bd a1ae 7dbd
00000010: e06f 46bd 72ed 103d f9c3 523b eeca d73d
00000020: fa54 3dbd fadf d53d 5c7b d1bb 2c65 9dbc
00000030: 34c8 1dbe d2d6 5dbd ccc4 1ebd 3bbe 833c
00000040: 34cd 0f3d 6019 883d fc49 a5bd 1d81 54bd
00000050: 354e 203d 515b b23d a7b2 c7bc a1bf ad3d
00000060: 9798 acbc dd55 163d f7b4 043e 22d1 29be
00000070: 3e4f 04bd 602f 8cba 88da 8fbd 77c7 d23c
00000080: 9e65 8cbd 7822 d0bd ac7e 80bd 8364 c3bd
00000090: df08 93bd 3701 c43d 8d0c 473d b1ff 583d
000000a0: c8da bd3b 64f3 2abd f6bc e33b 9a63 0dbe
000000b0: f9d6 14bd 86bc 8abc 1b22 893b d412 c43d
000000c0: 3a27 43bc 9006 f1bc 97da 3b3d ab71 fb3d
000000d0: d3f5 11bd c2f9 8c3c c9db a03d b69e 95bd
000000e0: 603c 9c3c 4591 b9bd d160 a6bd 26f5 aebd
000000f0: d71c 013d 8728 893d 660e febd e62b 933d
00000100: 4f76 ae3d 19cb dfbd 6d49 f23d 90ff 873c
00000110: 822b e4bb f10d fe3c 35ec 89bd 937b 19be
00000120: 297a 3d3d 388b c93d 652c c33d 1605 c83d
00000130: 2d51 a73c 13a7 713f 641b 6c3c a931 c7bd
00000140: 3c1e a0bc 2206 c23d 81ab c53d caea 12be
00000150: 113c c83c bf33 fabc 1b1e 3ebc 5a31 9bbb
00000160: 1224 ca3d c24e 3dbd f8c4 8e3d 9c08 7c3d
00000170: b9a2 af3d bee0 153d d225 e9bd 2544 93bd
00000180: 7928 793d a291 e33c 5ed5 0cbe ee8a 88bc
00000190: d283 ea3d 69b7 9b3d 7f14 9cbd bf10 d8bc
000001a0: 99ce fbbd 5b5c 053d 6702 06bd 8023 b7bd
000001b0: 416c 393a 8b9a 0d3d 9ca6 fa3c 567e 933d
000001c0: 2bef 74bd 2353 ca3d 8110 a83d a4c5 bcbd
000001d0: 662d c8bc 290a 6fbd 61f7 aebb f56e 363b
000001e0: d81d 1c3d f282 2f3d c4b1 48bd 0892 173d
000001f0: 450c bfbd 4326 323c dcc8 b4bd e4b6 0cbd
00000200: c90b d6bc d7c5 36bd 1522 24bc b5c0 173c
00000210: 944f a2bd 7143 b3ba be1d af3d 4e31 ffbb
00000220: 44e5 95bc 9ce2 f3bc d1dc 883c a52f 2b3d
00000230: 85fc 193e 2045 4d3d 2b8b b73d 0daf 0f3e
00000240: 990a fcbc 147c ddbd 6787 8c3d f04c d83c
00000250: 96eb 90bd 16bb b8bd f1f2 ffbd 33c8 d5bd
00000260: 6b5e 88bc 3209 883d 21d7 a43d 48c0 d9bd
00000270: c3f5 9e3d 28f3 a2bd 2688 dbbc 10fc 4cbd
00000280: 0766 d9bc 92c6 9fbc a638 cabd f479 c2bd
00000290: 49fb 03bc 0298 413c 5f9f 48bd 17d2 433d
000002a0: 3942 e3bd 5e91 41bc 235d d73d 3e8c 2dbd
000002b0: 8817 da3d 0eb9 373d a049 cbbd 2bbc 9a3d
000002c0: 4b08 5dbb 5010 51bd 2f79 c43d 7a1e 99bd
000002d0: aaac 413c 3655 a4bc 7fa9 aa3d d6d4 1f3d
000002e0: 0fb6 553d 3dec 353d eb99 96bc 62dc 9eb8
000002f0: 6398 d1bd 5d33 883d 5640 be3d f007 a73d
00000300: 4e4a 9dbd cffa 0d3c 6b69 a7bd af66 7cbd
00000310: bb15 85bd 491a 313d aac0 95bd 988d 7a39
00000320: 4d8a 043c 9d57 8e3d 7703 9cbd d766 aebd
00000330: 7cbd 79bd bbb2 b33d 694b 13bd 1720 d53d
00000340: a9ec 333d 174b 7a3c 9839 333b 1b32 9bbc
00000350: c57b 923c 4354 f3bc 3a8c 0e3c 787c 833c
00000360: 8780 a6bd dbd9 6abd 4e31 c63d 947f b6bd
00000370: f40b 3bbc a0df f33d 5506 3b3d 1ebe d73b
00000380: 5ec3 c1bd 98ad 853d 54ec 8bbd b674 03bd
00000390: 24f8 0ebd bbca 59bc ac41 9e3b 81fd b33f
000003a0: a459 6f3c e4f9 d23d 46dc 9e3d 96e5 3abd
000003b0: 8a98 5b3d 39bc 06bd c487 a0bc 2faf 6e3d
000003c0: efed 343d 6edf 933d 9680 273c 76e0 143d
000003d0: 8045 433d 3f23 eebd 344b 913d 32de c4bd
000003e0: a7e4 da3a 9554 99bc 8046 74bd 790a 7d3c
000003f0: 47aa be3d eba2 93bc c18c 97bd 5e26 dbbc

net.0.bias f4 [128]
-0.026068218 -0.042423032 -0.074588835 0.036263395 -0.044407386 -0.05634786 0.034826618 -0.038831856
0.017367784 -0.005252615 0.039252315 0.07204647 -0.10015575 -0.051625688 0.11173366 0.010715177
-0.021704726 0.08360063 0.09926376 0.033056088 -0.08063449 0.11171981 -0.10983607 -0.12517959
0.016475247 -0.028272333 -0.11400848 0.092407934 0.017682448 -0.06824346 0.048093874 0.082971275
-0.012080371 0.0906324 0.05932115 0.03639688 -0.055669192 -0.085159525 -0.009795055 -0.03680129
-0.11118254 -0.10737831 -0.065523155 0.012161478 -0.040443435 -0.095747836 -0.019667171 -0.0377844
-0.031529415 0.06938744 0.050233606 0.07832102 0.118239515 -0.0016951265 -0.045826092 -0.0014967063
0.023261685 -0.03740076 0.08428657 0.059864566 -0.085576 0.025995674 -0.002129167 0.048410956
-0.059514545 0.104243316 -0.039546765 0.04531177 -0.057728782 0.03668674 -0.033415373 -0.047109175
-0.095325254 0.034563106 0.029371569 0.029359195 -0.0436037 0.018832415 -0.059781797 0.026394734
0.10639982 -0.09972456 0.049447283 -0.07374853 0.033826 -0.024862498 0.049452 -0.07971536
0.07579827 0.07212038 -0.0796491 -0.07503655 0.06741432 -0.07662357 0.04516727 -0.061301474
-0.09711345 0.030205034 -0.03564152 -0.055392362 0.040504057 0.04579021 0.082494885 0.10932001
0.0530663 -0.032929912 0.011663457 0.08496065 -0.09204562 0.08973669 0.050753 0.03913596
0.028832285 -0.1019276 0.03812446 -0.0061371853 0.0040541347 -0.061961707 0.088285714 -0.019034453
-0.011560993 -0.09275003 0.10367216 -0.1081868 0.07094033 0.045956522 0.0150661655 -0.110335335
00000000: 048d d5bc c6c3 2dbd 08c2 98bd ed88 143d
00000010: 85e4 35bd 03cd 66bd 5ba6 0e3d 270e 1fbd
00000020: e246 8e3c 211e acbb 09c7 203d 1a8d 933d
00000030: 751e cdbd 7575 53bd 9ed4 e43d b68e 2f3c
00000040: 1cce b1bc cf36 ab3d cc4a cb3d d265 073d
00000050: b223 a5bd 5bcd e43d bcf1 e0bd 142f 00be
00000060: 19f7 863c 619b e7bc 477d e9bd 5f40 bd3d
00000070: c8da 903c 3ac3 8bbd 15fe 443d d8ec a93d
00000080: c0ec 45bc 7b9d b93d bcfa 723d e514 153d
00000090: 6105 64bd 1e68 aebd 707b 20bc f3bc 16bd
000000a0: acb3 e3bd 29e9 dbbd 0131 86bd f040 473c
000000b0: 04a8 25bd 7117 c4bd 0c1d a1bc d1c3 1abd
000000c0: fd24 01bd 011b 8e3d c1c1 4d3d c566 a03d
000000d0: 8f27 f23d 022f deba 24b4 3bbd 212d c4ba
000000e0: 4a8f be3c 8a31 19bd 709e ac3d 8c34 753d
000000f0: 7842 afbd e1f4 d43c 7f89 0bbb 914a 463d
00000100: 86c5 73bd 857d d53d cafb 21bd d698 393d
00000110: 0475 6cbd d644 163d 8fde 08bd 8df5 40bd
00000120: e339 c3bd 0b92 0d3d a59c f03c b282 f03c
00000130: cb99 32bd 7046 9a3c c2dd 74bd c539 d83c
00000140: 26e8 d93d 643c ccbd 3c89 4a3d 7809 97bd
00000150: 228d 0a3d 70ac cbbc 2e8e 4a3d cf41 a3bd
00000160: 203c 9b3d dab3 933d 111f a3bd c3ac 99bd
00000170: 8510 8a3d d1ec 9cbd 5101 393d 4117 7bbd
00000180: 6be3 c6bd 8c70 f73c d8fc 11bd 1ae3 62bd
00000190: 95e7 253d 848e 3b3d 14f3 a83d 2be3 df3d
000001a0: 0c5c 593d 84e1 06bd 1618 3f3c d9ff ad3d
000001b0: 6a82 bcbd dfc7 b73d 61e2 4f3d 074d 203d
000001c0: af31 ec3c 6bbf d0bd 6528 1c3d 711a c9bb
000001d0: 8cd8 843b 8fcb 7dbd 24cf b43d 24ee 9bbc
000001e0: 526a 3dbc baf3 bdbd 1252 d43d 0a91 ddbd
000001f0: 2a49 913d e83c 3c3d 14d8 763c 7ef7 e1bd

net.2.weight f4 [128, 128]
-0.014925039 -0.026406668 -0.07671086 -0.024196802 -0.01900361 -0.061379652 0.04697146 0.11135113
-0.10886717 0.070859686 0.007462282 0.07433692 -0.07708759 -0.028195037 -0.01770679 0.07825814
0.09489643 0.00087014755 -0.05448438 -0.03125763 -0.0072332458 0.033131074 -0.0019027306 0.024905205
-0.023519108 0.11317188 -0.027670441 -0.05355963 0.056852747 0.018947177 0.050135467 0.08628831
-0.03559627 0.09607063 0.07828186 0.02797919 0.026451925 -0.033726834 0.00011745564 0.010693305
-0.020582775 0.0022503436 0.12178975 0.033185482 0.05097269 0.008554503 0.019070521 -0.019501915
0.005306153 0.00058335543 -0.030633984 -0.08368155 0.009282602 0.0062401816 0.008969657 -0.022855418
-0.075331464 0.0126502765 -0.057874884 0.072043605 -0.047208387 0.042957358 -0.07780047 -0.007502227
-0.08311062 -0.06821334 0.033430252 -0.06510864 0.044443563 0.065230906 0.008526843 0.036082163
-0.06562111 0.02993246 -0.10898589 0.08801932 -0.041251037 0.030164268 0.0893157 -0.06662447
-0.04604071 0.020907672 -0.0669401 0.032750614 0.00057772605 -0.082909614 -0.021165589 -0.07741626
0.016010001 0.10077731 0.07863182 -0.08581959 -0.008551669 -0.07787956 0.015054239 0.04865288
-0.13681075 -0.014873268 -0.10561245 0.008108582 0.057296034 -0.058768447 0.009224115 -0.026294388
0.105396986 -0.08103891 -0.044242207 0.0055977837 -0.074837446 0.09571465 -0.07754966 -0.013356569
-0.037080012 0.032503758 -0.04199451 0.08822077 -0.094067134 -0.050660316 -0.045587704 -0.084479384
-0.08874844 0.019955516 0.098942 0.00011016014 -0.02657427 0.028614553 0.083181694 -0.07932501
-0.002860836 0.10653416 0.03799737 -0.059782047 0.013589038 -0.01533399 -0.12472526 -0.01842927
0.096048996 -0.022108408 0.073853634 -0.051592298 -0.0060805604 0.15423124 -0.019846506 -0.061395485
-0.06068899 -0.04413271 0.028359652 -0.04132483 -0.055124983 0.107952 0.09987154 -0.02814
-0.047714368 -0.0035321102 0.032849465 0.042972066 0.013764204 0.06945214 -0.025476184 -0.025855735
0.04527154 0.04901989 -0.05470351 0.057161734 0.0888649 -0.071444094 -0.07645946 0.042773142
-0.06282692 -0.10277521 -0.017776387 -0.025143264 -0.009298995 -0.044149287 0.06898259 0.090767935
0.030266343 0.062475238 0.10692703 0.10997145 0.02510892 0.08014366 0.116542675 0.14664641
-0.022849511 0.09221998 -0.059638996 -0.060041346 0.06648103 -0.14879581 0.038203888 0.16591272
0.02777253 -0.07119896 -0.018931577 0.0037216241 -0.055575624 0.039238274 0.045096412 0.052335028
-0.0013941057 0.08661077 0.06662077 0.0734663 0.030821241 0.0486978 0.03001532 0.030171322
0.064307116 0.10045902 0.12987126 -0.12263041 0.0025995565 0.07275795 -0.03335598 0.027094297
-0.093646236 0.056330968 -0.03130379 0.0721346 -0.019513408 0.070444375 0.057531856 -0.0053633945
-0.018890494 -0.043191772 -0.0036241512 0.11218479 0.17658529 -0.10344087 -0.07155728 0.080264926
-0.008529371 -0.046770103 -0.11075609 -0.059705596 -0.041242316 0.10962924 -0.06694597 0.03054852
-0.05419563 0.026646893 -0.031123664 0.05221191 -0.028825711 -0.105991244 -0.02083719 -0.025988556
0.04441987 0.13119277 0.050714947 0.011818281 -0.036867216 0.019842768 0.03611035 0.07918117
00000000: 2788 74bc cc52 d8bc 951a 9dbd 5f38 c6bc
00000010: 75ad 9bbc 3b69 7bbd 2565 403d 100c e43d
00000020: c0f5 debd e21e 913d 2986 f43b f53d 983d
00000030: 19e0 9dbd 47f9 e6bc d40d 91bc ce45 a03d
00000040: 0f59 c23d 9d1a 643a 032b 5fbd 0008 00bd
00000050: dd04 edbb 73b4 073d 0b65 f9ba 0006 cc3c
00000060: 25ab c0bc a9c6 e73d 1fad e2bc 5861 5bbd
00000070: 6dde 683d 1c37 9b3c d95a 4d3d edb7 b03d
00000080: 65cd 11bd aec0 c43d 3d52 a03d 9d34 e53c
00000090: b5b1 d83c 2625 0abd 8452 f638 f932 2f3c
000000a0: 359d a8bc 807a 133b e86c f93d 80ed 073d
000000b0: bdc8 503d 3028 0c3c c839 9c3c 7bc2 9fbc
000000c0: 3ddf ad3b 52ec 183a 1ff4 fabc 3c61 abbd
000000d0: 0e16 183c 707a cc3b 78f5 123c 493b bbbc
000000e0: 6247 9abd 1b43 4f3c 370e 6dbd 998b 933d
000000f0: 955d 41bd 0ef4 2f3d da55 9fbd 3ed5 f5bb
00000100: e735 aabd 70b3 8bbd 29ee 083d ae57 85bd
00000110: 740a 363d c897 853d 2cb4 0b3c e4ca 133d
00000120: 5c64 86bd eb34 f53c ff33 dfbd 7943 b43d
00000130: d9f6 28bd 0e1b f73c 26eb b63d 6972 88bd
00000140: 2f95 3cbd 9146 ab3c e417 89bd 8225 063d
00000150: 8a72 173a 84cc a9bd 7563 adbc 6b8c 9ebd
00000160: 6827 833c 5664 ce3d b809 a13d 2ec2 afbd
00000170: 4d1c 0cbc 527f 9fbd 0ea6 763c 3e48 473d
00000180: 1e18 0cbe 02af 73bc 574b d8bd dcd9 043c
00000190: 3faf 6a3d 2fb7 70bd be20 173c 5467 d7bc
000001a0: 60da d73d baf7 a5bd 5137 35bd 9d6d b73b
000001b0: 6044 99bd 0b06 c43d 5bd2 9ebd 83d5 5abc
000001c0: 36e1 17bd a922 053d 6f02 2cbd 17ad b43d
000001d0: 45a6 c0bd 3181 4fbd 2cba 3abd 8703 adbd
000001e0: bec1 b5bd c079 a33c 1aa2 ca3d c605 e738
000001f0: 49b2 d9bc 1169 ea3c 2a5b aa3d 2775 a2bd
00000200: dd7c 3bbb 952e da3d 21a3 1b3d 05de 74bd
00000210: 8ea4 5e3c 6a3b 7bbc f56f ffbd fbf8 96bc
00000220: 56b5 c43d b11c b5bc 9340 973d 7252 53bd
00000230: 703f c7bb cbee 1d3e 2495 a2bc d579 7bbd
00000240: 0595 78bd 80c4 34bd 8052 e83c 3a44 29bd
00000250: bcca 61bd f015 dd3d 7389 cc3d db85 e6bc
00000260: 2470 43bd fa7a 67bb 298d 063d 7a03 303d
00000270: 4283 613c ec3c 8e3d 6eb3 d0bc 68cf d3bc
00000280: a66e 393d 15c9 483d ca10 60bd 6c22 6a3d
00000290: cdfe b53d 4851 92bd c796 9cbd e432 2f3d
000002a0: 66ab 80bd cf7b d2bd c99f 91bc 3ff9 cdbc
000002b0: d05a 18bc e2d5 34bd bf46 8d3d 8ae4 b93d
000002c0: 1ff1 f73c 09e6 7f3d 8ffc da3d b638 e13d
000002d0: 39b1 cd3c 5c22 a43d edad ee3d 7a2a 163e
000002e0: e62e bbbc d4dd bc3d 0548 74bd eaed 75bd
000002f0: 3527 883d ee5d 18be ae7b 1c3d 06e5 293e
00000300: 3883 e33c c3d0 91bd 6516 9bbc 7ee6 733b
00000310: 44a3 63bd 50b8 203d 04b7 383d 415d 563d
00000320: 6dba b6ba fd60 b13d 7870 883d 8075 963d
00000330: d47c fc3c 5877 473d b0e2 f53c d929 f73c
00000340: 73b3 833d 75bd cd3d f9fc 043e a725 fbbd
00000350: 525d 2a3b 1f02 953d 48a0 08bd dcf4 dd3c
00000360: 99c9 bfbd 4dbb 663d 6738 00bd 4ebb 933d
00000370: 95da 9fbc 2445 903d 86a6 6b3d 6abf afbb
00000380: 3dc0 9abc dbe9 30bd 2b83 6dbb 24c1 e53d
00000390: c6d2 343e cfd8 d3bd a08c 92bd f061 a43d
000003a0: c6be 0bbc 0292 3fbd 17d4 e2bd db8d 74bd
000003b0: b4ed 28bd 4c85 e03d f81a 89bd e440 fa3c
000003c0: 3dfc 5dbd 964a da3c 0ef7 febc 28dc 553d
000003d0: e623 ecbc f011 d9bd c1b2 aabc f4e5 d4bc
000003e0: 9cf1 353d 6657 063e 7aba 4f3d 77a1 413c
000003f0: 1402 17bd 4d8d a23c 72e8 133d bd29 a23d

net.2.bias f4 [128]
-0.023641497 -0.048334822 0.07423524 0.060373943 0.009398581 -0.04539473 0.04393042 -0.057535842
-0.07873417 0.073324464 0.049857304 -0.023965383 0.06656761 -0.004183284 0.026699267 0.015668932
0.06681368 0.07315883 -0.005808513 0.051940575 0.029714994 0.04402309 -0.008985595 -0.045715787
0.06972751 0.055122204 -0.093579315 0.022575282 0.07097856 0.054833367 0.045679346 0.058853876
-0.07794028 -0.05350573 0.078185245 0.010295427 -0.027121598 0.077041425 -0.0052539636 0.063642636
-0.019047858 0.05117432 0.0191231 -0.07570134 0.039642163 -0.019065602 0.041028224 0.026428422
0.050561834 -0.0467395 0.06107045 0.037838973 -0.07753187 0.069208674 0.009259589 0.07622893
-0.026762916 -0.07296762 -0.00028888136 0.024726251 0.012175165 -0.008599724 -0.05574901 -0.011491431
0.058229927 -0.06831327 0.07557795 -0.0017980817 -0.03436124 -0.030891337 0.071774505 -0.08030229
-0.052859444 -0.08254906 -0.070124745 0.026764616 -0.049891435 0.008943517 0.046437047 -0.07009578
0.055510227 -0.01621801 -0.08523797 0.0406835 0.08737724 -0.0077917175 -0.0016560347 0.049530867
-0.034289643 0.033279095 0.00835633 0.01928665 -0.00084951706 -0.06816452 -0.045759805 -0.010664938
-0.045063857 -0.037098154 0.018057838 -0.0016485049 0.02105049 -0.02962688 0.028666459 -0.080239505
0.049875658 0.017809283 0.05341175 0.046560925 0.015715647 0.00583153 -0.0006996063 0.03284044
0.08866871 0.04665049 -0.0041754083 -0.04267583 0.03555599 0.045456678 0.062780075 0.0052792034
0.08851366 0.05353119 -0.017701205 0.061916046 0.048036415 -0.0206802 0.046351675 0.0841115
00000000: d0ab c1bc bcfa 45bd a508 983d ab4a 773d
00000010: 82fc 193c d3ef 39bd 62f0 333d b4aa 6bbd
00000020: 613f a1bd 232b 963d 2c37 4c3d 0d53 c4bc
00000030: 9954 883d ee13 89bb 6cb8 da3c 225c 803c
00000040: 9cd5 883d 4cd4 953d 5755 bebb a4bf 543d
00000050: dc6c f33c 8e51 343d 5138 13bc 7a40 3bbd
00000060: 4ccd 8e3d d2c7 613d 83a6 bfbd ccef b83c
00000070: 355d 913d f498 603d 441a 3b3d c310 713d
00000080: 279f 9fbd d328 5bbd 961f a03d 27ae 283c
00000090: 1d2e debc e5c7 9d3d 7129 acbb 1257 823d
000000a0: 410a 9cbc 2a9c 513d 0ca8 9c3c 4e09 9bbd
000000b0: d25f 223d 772f 9cbc 360d 283d 6b80 d83c
000000c0: ed19 4f3d eb71 3fbd 0225 7a3d 0afd 1a3d
000000d0: 07c9 9ebd 47bd 8d3d 88b5 173c ea1d 9c3d
000000e0: e73d dbbc 0c70 95bd 0075 97b9 b58e ca3c
000000f0: 587a 473c dbe5 0cbc 1359 64bd 8e46 3cbc
00000100: 8182 6e3d d4e7 8bbd 9dc8 9a3d 9cad ebba
00000110: 5fbe 0cbd d40f fdbc 83fe 923d 8775 a4bd
00000120: 2583 58bd 7b0f a9bd 909d 8fbd 7841 db3c
00000130: f65a 4cbd d487 123c c634 3e3d 608e 8fbd
00000140: b15e 633d a2db 84bc 3f91 aebd bea3 263d
00000150: d7f2 b23d aa51 ffbb 4e0f d9ba e1e0 4a3d
00000160: 4c73 0cbd a94f 083d fde8 083c 09ff 9d3c
00000170: 20b2 5eba d799 8bbd a26e 3bbd febb 2ebc
00000180: e194 38bd 3cf4 17bd 08ee 933c a512 d8ba
00000190: 1472 ac3c 12b4 f2bc ecd5 ea3c 9c54 a4bd
000001a0: 6b4a 4c3d c6e4 913c 47c6 5a3d abb6 3e3d
000001b0: 1abe 803c 6b16 bf3b c965 37ba b283 063d
000001c0: f197 b53d 9614 3f3d ddd1 88bb dacc 2ebd
000001d0: 28a3 113d c830 3a3d d792 803d 2bfd ac3b
000001e0: a646 b53d 8543 5b3d 1e02 91bc ae9b 7d3d
000001f0: d5c1 443d 8669 a9bc 41db 3d3d a642 ac3d
