ddqn_out_softmax/dqn_ep3050.pt (torch, 464501 bytes, 24 tensors)

net.0.weight f4 [128, 77]
0	0x3fb47526	1.4098251
1	0x3d71d5f3	0.05904193
2	0xbd71d21c	-0.059038267
3	0xbd4ff870	-0.050774038
4	0xbd6441a9	-0.05572668
5	0x3d13e3ea	0.036106028
6	0x3c314b2a	0.010821143
7	0x3dc885b8	0.0979113
8	0xbd25e613	-0.04050262
9	0x3dee72be	0.11642979
10	0xbc0be42d	-0.008538288
11	0xbc7ff780	-0.015622973
12	0xbe1994e6	-0.14998206
13	0xbd55714c	-0.05211
14	0xbd1ef25e	-0.038805358
15	0x3c9f0989	0.019413726
16	0x3cf56b51	0.029958399
17	0x3d8e0d62	0.06936146
18	0xbda6f9e6	-0.08153133
19	0xbd53d54f	-0.0517171
20	0x3d20fa03	0.03930093
21	0x3db58c6b	0.08864673
22	0xbc930800	-0.01794815
23	0x3d9a72c7	0.07541423
24	0xbc9e085b	-0.019291094
25	0x3d44722e	0.047960453
26	0x3e00ea01	0.12589265
27	0xbe26dba4	-0.16294724
28	0xbce3d787	-0.027812732
29	0xb940112c	-0.00018316944
30	0xbd95c4bd	-0.073129155
31	0x3caeb07f	0.021324394
32	0xbd8d2235	-0.0689129
33	0xbdccd0ff	-0.100008
34	0xbd777143	-0.06041075
35	0xbdbffa16	-0.09373872
36	0xbd88c8ba	-0.066789106
37	0x3dc4632d	0.09589229
38	0x3d47b85b	0.0487598
39	0x3d59ab7f	0.053142067
40	0x3c223d31	0.0099022845
41	0xbd3a6e32	-0.045515247
42	0x3b17f22c	0.0023185117
43	0xbe094a0e	-0.13407156
44	0xbd1dc3ad	-0.03851669
45	0xbc3dcccf	-0.011584475
46	0x3c0c9f9c	0.008582976
47	0x3dab5128	0.08365089
48	0xbbd53b54	-0.0065073166
49	0xbceae91d	-0.02867561
50	0x3d49e6e4	0.04929246
51	0x3e02374f	0.12716411
52	0xbd58f305	-0.052966136
53	0x3c6a4325	0.014298235
54	0x3da622e8	0.081121266
55	0xbd8cd712	-0.06876959
56	0x3c9d661f	0.019213734
57	0xbdb93b62	-0.090445295
58	0xbda60aee	-0.081075534
59	0xbdaf5984	-0.085619956
60	0x3cd5d119	0.026100682
61	0x3d8b11f4	0.06790534
62	0xbe06b644	-0.13155466
63	0x3d80678d	0.06269751
64	0x3dbd7b85	0.09252075
65	0xbde0e0ad	-0.109803535
66	0x3df8146e	0.12113272
67	0x3c56a42e	0.013100667
68	0xbc305ba2	-0.010764034
69	0x3d25a573	0.040440988
70	0xbd554c63	-0.0520748
71	0xbe151c36	-0.14561543
72	0x3d2dc76a	0.042426504
73	0x3dcf9bdf	0.10137152
74	0x3dc3ceb0	0.09560907
75	0x3dc85af8	0.09782976
76	0x3ca8a8be	0.020588275
77	0x3fa44106	1.2832344
78	0x3c4bbc78	0.012435071
79	0xbdb58791	-0.08863748
80	0xbd032f00	-0.032027245
81	0x3dbdb8f8	0.092637956
82	0x3dc3042d	0.09522281
83	0xbe15f93b	-0.14645855
84	0x3cb21c9b	0.021742156
85	0xbd0fbe86	-0.035093807
86	0xbc80c3a6	-0.015718292
87	0x3ca6bc25	0.020353386
88	0x3dc49b3d	0.09599922
89	0xbd068807	-0.03284457
90	0x3d8fee27	0.07027846
91	0x3d7c93a0	0.061664224
92	0x3da23e1c	0.07922003
93	0x3d088e13	0.033338618
94	0xbdda049f	-0.10645413
95	0xbd9a55fd	-0.07535932
96	0x3d7110ba	0.058853842
97	0x3cd36282	0.025803808
98	0xbdf89c73	-0.12139215
99	0xbcbd3f25	-0.023101399
100	0x3de98fba	0.11404367
101	0x3d966842	0.07344104
102	0xbdbfb461	-0.093605764
103	0xbd017c3e	-0.031612627
104	0xbe00aad6	-0.12565169
105	0x3d0ca2e9	0.03433505
106	0xbbaafb73	-0.0052179634
107	0xbdad8f62	-0.08474614
108	0x3c12f0ee	0.008968575
109	0x3cfef196	0.031121057
110	0x3d2100f8	0.039307564
111	0x3d995e31	0.07488669
112	0xbd67ef65	-0.05662479
113	0x3dcf6437	0.10126536
114	0x3da38399	0.07984085
115	0xbdc0d1b6	-0.09414999
116	0xbcd85c86	-0.026411306
117	0xbd673cb9	-0.056454394
118	0xbc62fff3	-0.013854968
119	0x3a4e3b27	0.0007867091
120	0x3d1b0d46	0.037854455
121	0x3d061dde	0.032743327
122	0xbd5dc197	-0.0541397
123	0x3d0e0428	0.034671932
124	0xbdd6e41c	-0.10492727
125	0x3cfea4e0	0.031084478
126	0xbde1635e	-0.11005281
127	0xbcff7795	-0.03118495
128	0xbcbb99fb	-0.022900572
129	0xbd0f11a0	-0.034928918
130	0xbc2cc05d	-0.01054391
131	0x3c5597c2	0.01303667
132	0xbda25d23	-0.07927921
133	0xbb109f02	-0.0022067432
134	0x3dab11ac	0.0835298
135	0xbc1ff794	-0.009763617
136	0xbc6739b1	-0.014112876
137	0xbd6bb1c6	-0.057542585
138	0x3cdf5921	0.02726418
139	0x3d1950ea	0.03743068
140	0x3e1e79fd	0.15476222
141	0x3d19b4c7	0.03752592
142	0x3dbc4485	0.091927566
143	0x3dfc8ac4	0.12331155
144	0xbd17f140	-0.03709531
145	0xbded77d1	-0.11595119
146	0x3d8d2bdf	0.06893133
147	0x3d01e48f	0.03171211
148	0xbd4ef450	-0.050525963
149	0xbdc4fd0a	-0.09618576
150	0xbdf64811	-0.12025464
151	0xbde26791	-0.1105491
152	0xbc88a868	-0.016681865
153	0x3d83fd20	0.06444764
154	0x3d93b54c	0.07212314
155	0xbde77711	-0.11302007
156	0x3d914f3d	0.07095192
157	0xbda6b62d	-0.08140216
158	0xbd280ae0	-0.041025996
159	0xbd5298c6	-0.051415227
160	0xbd056b7c	-0.03257321
161	0xbcdc495a	-0.026890446
162	0xbdd70b88	-0.10500246
163	0xbdce2fd4	-0.10067716
164	0xbc653742	-0.013990225
165	0x3c2978e5	0.010343765
166	0xbd65177d	-0.055930603
167	0x3d28e9cb	0.041238587
168	0xbdf0f592	-0.11765589
169	0xbc990bbf	-0.018682359
170	0x3dcae5a1	0.099070795
171	0xbd4c62e6	-0.049899004
172	0x3dcc5e32	0.09978904
173	0x3d1c4b6d	0.03815787
174	0xbdd90069	-0.10595781
175	0x3d79af49	0.06095818
176	0x3a9e59f3	0.001208125
177	0xbd703d0a	-0.05865196
178	0x3db71018	0.089386165
179	0xbd9d55df	-0.07682394
180	0x3b5034ed	0.0031769827
181	0xbcd885b8	-0.02643095
182	0x3da095ce	0.07841073
183	0x3d1c86a0	0.038214326
184	0x3d52c0d5	0.05145343
185	0x3d19db62	0.037562735
186	0xbcc43ab7	-0.023953779
187	0x3b4da5e9	0.0031379408
188	0xbddf122b	-0.10892137
189	0x3d7b2ecb	0.061323922
190	0x3dafd1a8	0.08584911
191	0x3d995127	0.07486182
192	0xbdab0117	-0.08349817
193	0x3b011114	0.0019694017
194	0xbdc1d800	-0.09465027
195	0xbd89f73e	-0.06736611
196	0xbd90edf4	-0.07076636
197	0x3d116d4c	0.035504624
198	0xbda3518e	-0.0797454
199	0xbc099350	-0.008396938
200	0x3ae72861	0.0017635935
201	0x3d81476e	0.06312452
202	0xbdaa5671	-0.08317269
203	0xbdb9bffc	-0.09069821
204	0xbd891872	-0.06694116
205	0x3da6ae6a	0.081387356
206	0xbd20cdfa	-0.039258935
207	0x3dc815ec	0.09769806
208	0x3d261c76	0.040554486
209	0x3b8ec205	0.004356625
210	0xbb814d6e	-0.003945998
211	0xbcd20d3e	-0.02564108
212	0x3c37410d	0.011184943
213	0xbd44e3b0	-0.048068702
214	0x3bc31587	0.005953494
215	0x3c19beea	0.009383896
216	0xbdb4c944	-0.08827451
217	0xbd848593	-0.0647079
218	0x3db170a2	0.08664061
219	0xbdc38d00	-0.09548378
220	0xbc6a0ab3	-0.014284777
221	0x3de9ab98	0.11409682
222	0x3d2f65c8	0.042821676
223	0xb9e20fef	-0.0004311795
224	0xbdd241fc	-0.10266492
225	0x3d76e5e6	0.060277842
226	0xbd8ba457	-0.06818455
227	0xbd37eaf0	-0.04490179
228	0xbd3682c6	-0.04455831
229	0xbca3c06d	-0.019989217
230	0xbaf4ade3	-0.0018667545
231	0x3fe5686b	1.7922491
232	0x3c3b73f0	0.011441216
233	0x3dcdbb01	0.10045434
234	0x3dae640b	0.085151754
235	0xbd12d390	-0.035846293
236	0x3d59847b	0.05310486
237	0xbcacfc43	-0.021116382
238	0xbc379bd2	-0.011206584
239	0x3d61797f	0.05504751
240	0x3d2bae2a	0.041914143
241	0x3d888883	0.066666625
242	0x3b87991c	0.004138125
243	0x3d237d09	0.039914165
244	0x3d45fd73	0.04833741
245	0xbdd68978	-0.10475439
246	0x3d942983	0.0723448
247	0xbdc69768	-0.09696847
248	0x3b9fc6ad	0.004875979
249	0xbcb915bf	-0.022593377
250	0xbd809ff9	-0.06280512
251	0x3c4924c4	0.012276832
252	0x3dc20e6d	0.09475408
253	0xbc8ffe75	-0.01757739
254	0xbd8b6b7e	-0.06807612
255	0xbccaf64c	-0.024775647

net.0.bias f4 [128]
0	0xbcd43573	-0.025904393
1	0xbd35db81	-0.04439879
2	0xbda678d1	-0.08128513
3	0x3d078fb1	0.03309602
4	0xbd4d2076	-0.050079785
5	0xbd6c34d3	-0.057667565
6	0x3d1f7a2e	0.03893488
7	0xbd246599	-0.040135954
8	0x3c90a8a5	0.017658541
9	0xbbc8dce0	-0.006129846
10	0x3d29c3fe	0.04144668
11	0x3d8a92da	0.06766291
12	0xbdcd1e75	-0.10015575
13	0xbd5a98a6	-0.053368233
14	0x3de4d49e	0.11173366
15	0x3c88c7d3	0.016696846
16	0xbc9741ca	-0.018463988
17	0x3dacb166	0.084322736
18	0x3dd1c6aa	0.1024297
19	0x3cfc658c	0.03081014
20	0xbd9cc10c	-0.07654008
21	0x3de5377e	0.11192225
22	0xbde56070	-0.112000346
23	0xbe034488	-0.12819111
24	0x3cb29917	0.021801515
25	0xbcde85f7	-0.027163489
26	0xbde6b5c6	-0.11265139
27	0x3dbd4d0e	0.09243213
28	0x3c8e4a8a	0.017369527
29	0xbd8fe29c	-0.07025644
30	0x3d5845e1	0.052801017
31	0x3da3787c	0.07981965
32	0xbc45ecc0	-0.012080371
33	0x3db832f0	0.089940906
34	0x3d77cd7c	0.0604987
35	0x3d10e9c8	0.0353792
36	0xbd65d02a	-0.056106724
37	0xbda7a31c	-0.081854075
38	0xbc23ae5b	-0.0099903
39	0xbd11a97c	-0.035562024
40	0xbddd8051	-0.1081549
41	0xbdda52de	-0.10660337
42	0xbd877b70	-0.06615341
43	0x3c52c7bf	0.012865006
44	0xbd2cc960	-0.042184234
45	0xbdc41771	-0.095747836
46	0xbca11d0c	-0.019667171
47	0xbd194daf	-0.0374276
48	0xbd07350e	-0.03300958
49	0x3d87c67d	0.066296555
50	0x3d3634bb	0.04448388
51	0x3da256f8	0.07926744
52	0x3df52633	0.119701765
53	0x3aff2c17	0.0019468096
54	0xbd3d3249	-0.046190534
55	0xbb1f0448	-0.0024264026
56	0x3cdabb53	0.026700651
57	0xbd11364e	-0.03545218
58	0x3db3617a	0.087588266
59	0x3d75348c	0.059864566
60	0xbdaf4278	-0.085576
61	0x3cff3652	0.031153832
62	0xbb81c5c0	-0.003960341
63	0x3d408761	0.047004107
64	0xbd7ba0bf	-0.061432596
65	0x3dda2f55	0.10653559
66	0xbd23d82a	-0.040001072
67	0x3d3c9f71	0.046050493
68	0xbd6eb90c	-0.058281943
69	0x3d221104	0.03956701
70	0xbd09141b	-0.03346644
71	0xbd40499f	-0.04694521
72	0xbdc512f2	-0.09622754
73	0x3cf0d41b	0.029398015
74	0x3cec8c12	0.028875384
75	0x3cdb54e6	0.026773881
76	0xbd30182c	-0.042991802
77	0x3c88949c	0.016672425
78	0xbd63ba7f	-0.05559778
79	0x3cbfb5af	0.023402063
80	0x3ddb13db	0.106971465
81	0xbdd03532	-0.10166396
82	0x3d468379	0.048465226
83	0xbd89a688	-0.067212164
84	0x3d05a482	0.03262759
85	0xbccbac70	-0.024862498
86	0x3d4f50db	0.05061422
87	0xbd9ec835	-0.0775303
88	0x3d9416cb	0.0723091
89	0x3d91f386	0.071265265
90	0xbda6e4c0	-0.08149099
91	0xbda211b7	-0.07913535
92	0x3d869768	0.06571847
93	0xbda09e81	-0.07842732
94	0x3d33ee6e	0.043928556
95	0xbd7b1741	-0.061301474
96	0xbdc70f18	-0.09719676
97	0x3d070c7f	0.0329709
98	0xbd1bd167	-0.0380415
99	0xbd66092e	-0.0561611
100	0x3d2a286a	0.041542448
101	0x3d448491	0.047977988
102	0x3daa7df9	0.083248086
103	0x3dde42b4	0.10852566
104	0x3d51f545	0.051259298
105	0xbd06e184	-0.032929912
106	0x3c933d73	0.017973637
107	0x3da762d1	0.081731446
108	0xbdb21530	-0.086954474
109	0x3db726f0	0.089429736
110	0x3d344dce	0.044019513
111	0x3d30eae5	0.043192763
112	0x3cb7d64e	0.022441056
113	0xbdd32711	-0.10310186
114	0x3d1c2865	0.03812446
115	0x389fd788	7.621857e-05
116	0x3a72eb2b	0.000926661
117	0xbd68b00b	-0.056808513
118	0x3db37d5f	0.08764147
119	0xbca4caaf	-0.020116178
120	0xbbab392b	-0.005225321
121	0xbdbee75d	-0.09321473
122	0x3ddb5512	0.10709585
123	0xbddf7b84	-0.109122306
124	0x3d8686f0	0.06568706
125	0x3d4268ee	0.04746335
126	0x3c9a28b6	0.01881824
127	0xbde1f77e	-0.110335335

net.2.weight f4 [128, 128]
0	0xbc192e19	-0.009349369
1	0xbc33ff84	-0.010986213
2	0xbda1cc2c	-0.07900271
3	0xbca95470	-0.020670146
4	0xbcc8cc82	-0.02451158
5	0xbd603d11	-0.054745737
6	0x3d5d8cff	0.054089542
7	0x3df1098d	0.117694
8	0xbdd85562	-0.105631605
9	0x3d46a032	0.048492618
10	0x3b080f29	0.002076099
11	0x3d86b2b0	0.06577051
12	0xbd9de019	-0.07708759
13	0xbcd3107e	-0.0257647
14	0xbc910dd4	-0.01770679
15	0x3db031dd	0.08603261
16	0x3dc22bb2	0.094809905
17	0xb9ad6d7d	-0.00033078706
18	0xbd62873b	-0.055304747
19	0xbc3f01ae	-0.011658115
20	0xbcf77cff	-0.03021097
21	0x3d175c7d	0.036953438
22	0x3c82e129	0.015976505
23	0x3ccc0600	0.024905205
24	0xbca1401a	-0.019683886
25	0x3dfc6eed	0.12325845
26	0xbcdc6de6	-0.026907872
27	0xbd67460e	-0.056463294
28	0x3d86d6d2	0.065839425
29	0x3cf1d925	0.029522488
30	0x3d48c8a2	0.049019463
31	0x3db0b7ed	0.08628831
32	0xbd11cd65	-0.03559627
33	0x3d14211c	0.036164388
34	0x3db8fa93	0.09032168
35	0x3cd9eeee	0.026603188
36	0x3d1eb594	0.038747385
37	0xbd48f02c	-0.04905717
38	0xbc2bdfac	-0.010490339
39	0x3b905b4e	0.0044054156
40	0xbd22814d	-0.039674092
41	0x3ba655ea	0.0050761597
42	0x3dfd35be	0.12363766
43	0x3ceb6736	0.028735738
44	0x3d89d4cd	0.06730042
45	0x3c0c2830	0.008554503
46	0x3c9c39c8	0.019070521
47	0xbc856221	-0.016282143
48	0x3c9dbc00	0.019254684
49	0x3c6b48d0	0.014360622
50	0xbcd1d874	-0.025615908
51	0xbdb2e300	-0.08734703
52	0x3aec2889	0.0018017452
53	0x3ca0fb21	0.019650998
54	0x3bc80e07	0.006105188
55	0xbcbe6687	-0.023242248
56	0xbd9a41f1	-0.075321086
57	0x3c42993b	0.011877353
58	0xbd710733	-0.058844756
59	0x3d938b99	0.072043605
60	0xbd415d95	-0.047208387
61	0x3d444693	0.047918867
62	0xbda941f1	-0.082645305
63	0xbccfa0c3	-0.025345212
64	0xbe01f64f	-0.12691616
65	0xbd8eebe6	-0.06978588
66	0x3ccaa446	0.024736535
67	0xbd98d82f	-0.07463109
68	0x3d1fddce	0.03902989
69	0x3d7238b0	0.059136093
70	0x3c4d1026	0.012516057
71	0x3d00275f	0.031287547
72	0xbda66178	-0.081240594
73	0x3d2b0866	0.041756056
74	0xbe11e92b	-0.14249103
75	0x3dbe7849	0.09300286
76	0xbd930342	-0.07178356
77	0x3c9d4471	0.019197674
78	0x3dbf7a87	0.09349542
79	0xbdaf860f	-0.085704915
80	0xbd47ac8b	-0.048748534
81	0x3cf3de49	0.02976908
82	0xbd9682fc	-0.07349202
83	0x3cbdd2c6	0.023171794
84	0x3b3ce8d8	0.002882531
85	0xbda9cc84	-0.082909614
86	0xbcd4b284	-0.02596403
87	0xbd58f52a	-0.05296818
88	0x3d2f880c	0.042854354
89	0x3dc81a05	0.09770588
90	0x3dac1dcd	0.084041215
91	0xbdb8b590	-0.09019005
92	0xbc4fe0c5	-0.012687867
93	0xbda880da	-0.082277015
94	0x3c5509b8	0.013002805
95	0x3d47483e	0.04865288
96	0xbdf95d1f	-0.121759646
97	0xbc8fb548	-0.017542496
98	0xbdfb8f0a	-0.12283142
99	0xbad5a642	-0.0016300159
100	0x3d8c8ae1	0.068624265
101	0xbd6a6cab	-0.05723254
102	0xbb0219f5	-0.0019851897
103	0xbca61180	-0.020272017
104	0x3df4e16e	0.1195706
105	0xbda5f7ba	-0.08103891
106	0xbd3a3648	-0.045461923
107	0x3c7e446b	0.015519242
108	0xbda9f247	-0.08298164
109	0x3db1f4db	0.086892806
110	0xbd880902	-0.06642343
111	0xbc820d01	-0.015875341
112	0xbd1ffda5	-0.039060254
113	0x3d123c53	0.03570206
114	0xbd2c026f	-0.04199451
115	0x3db9e30b	0.09076508
116	0xbdc5c464	-0.09656599
117	0xbd88eb59	-0.06685514
118	0xbd4f98ff	-0.050683018
119	0xbdad0387	-0.084479384
120	0xbdbc1df2	-0.09185399
121	0x3ce11519	0.02747588
122	0x3dc15ed4	0.09441915
123	0x3bf66db8	0.0075204037
124	0xbce1fa17	-0.027585072
125	0x3c8f67f7	0.017505629
126	0x3dbcebe8	0.09224683
127	0xbda27527	-0.07932501
128	0xbbcb5d95	-0.006206224
129	0x3dd0731c	0.10178205
130	0x3d3b9118	0.04579267
131	0xbd507bb6	-0.05089923
132	0x3c914089	0.017730968
133	0xbcd95950	-0.026531845
134	0xbe1f407d	-0.15551944
135	0xbbd8e73f	-0.0066193636
136	0x3dc139a5	0.09434823
137	0xbbef3dde	-0.0073010763
138	0x3d274961	0.040841464
139	0xbd31915d	-0.04335152
140	0xbbc73f70	-0.0060805604
141	0x3e27262b	0.16323154
142	0xbca29524	-0.019846506
143	0xbd71f0f0	-0.059067667
144	0xbd99d26b	-0.07510837
145	0xbcdb58a3	-0.026775664
146	0x3cd63af5	0.02615116
147	0xbd399a69	-0.045313273
148	0xbd2725d4	-0.04080756
149	0x3df6e13a	0.12054677
150	0x3df707ec	0.12062058
151	0xbce685db	-0.02814
152	0xbd546cd0	-0.051861584
153	0x3c3c0fc9	0.011478373
154	0x3baf3239	0.005346563
155	0x3d8d092d	0.06886516
156	0x3cf34b68	0.029699042
157	0x3da987a9	0.08277828
158	0xbd39be77	-0.045347657
159	0xbcecf494	-0.028925218
160	0x3d396ea6	0.04527154
161	0x3d6093d8	0.054828495
162	0xbce24ca6	-0.02762444
163	0x3d5ad6e2	0.053427584
164	0x3dd28fd8	0.10281342
165	0xbdb71108	-0.08938795
166	0xbd71e9da	-0.05906091
167	0x3d11343c	0.035450205
168	0xbd56880d	-0.052375842
169	0xbdc0318a	-0.09384449
170	0xbaff9d4e	-0.0019501837
171	0x3b917cb1	0.004439913
172	0x3c65e736	0.014032176
173	0xbd34d5e2	-0.044149287
174	0x3d8d46bf	0.06898259
175	0x3ddc147d	0.10746095
176	0x3d098531	0.033574287
177	0x3d9026ba	0.070386365
178	0x3dd7d6bf	0.105390064
179	0x3dca9fd3	0.09893765
180	0x3cc4d1c4	0.024025805
181	0x3dab2452	0.08356537
182	0x3de4898a	0.11159046
183	0x3e11fbe4	0.14256245
184	0xbccc6d94	-0.024954595
185	0x3dab6355	0.083685555
186	0xbda60223	-0.08105876
187	0xbd75edea	-0.060041346
188	0x3d882735	0.06648103
189	0xbe10f190	-0.14154649
190	0x3d0c91ef	0.03431886
191	0x3e3ccf12	0.18438366
192	0x3c8cf130	0.01720485
193	0xbdb48324	-0.088140756
194	0x3b44d69b	0.0030035141
195	0x3b851d39	0.0040623215
196	0xbd09bafa	-0.03362558
197	0x3cd1ef3f	0.025626777
198	0x3d7c2ff3	0.061569165
199	0x3d8bef2b	0.06832727
200	0xbc70b339	-0.0146911675
201	0x3da46b66	0.08028297
202	0x3d90c954	0.0706965
203	0x3db236c6	0.087018535
204	0x3d7fc7d2	0.062446423
205	0x3d80e2f8	0.06293291
206	0x3cc286d5	0.023745934
207	0x3d33d042	0.043899782
208	0x3d7c6299	0.061617468
209	0x3dd1d74e	0.10246144
210	0x3e13a832	0.1441963
211	0xbe1d5237	-0.15363394
212	0x3c88b333	0.016687011
213	0x3d95021f	0.07275795
214	0xbd25a32c	-0.040438816
215	0x3c740b3d	0.014895258
216	0xbda2eee2	-0.079557195
217	0x3d67ac4a	0.056560792
218	0xbc5b6e18	-0.013392948
219	0x3da83a4b	0.082142435
220	0xbbdf0283	-0.0068057193
221	0x3da7733b	0.08176275
222	0x3d718a46	0.05896976
223	0xbbafbf6a	-0.0053633945
224	0x3bbfb06a	0.0058498876
225	0xbd5db6c3	-0.054129373
226	0xbb9ff2cf	-0.00488124
227	0x3e0434cb	0.12910764
228	0x3e15b589	0.14620031
229	0xbdf5a2e0	-0.119939566
230	0xbdaa8ae4	-0.083272725
231	0x3da9f14e	0.08297978
232	0x3c825afb	0.015912523
233	0xbd3f9202	-0.046770103
234	0xbe0d799c	-0.13815922
235	0xbd1d50bb	-0.03840707
236	0xbd4e0076	-0.05029341
237	0x3df78fdd	0.120879866
238	0xbd83bf17	-0.06432932
239	0xbbc0ff78	-0.0058898292
240	0xbd262c25	-0.040569443
241	0x3d31d0f5	0.043412168
242	0xbcfef70e	-0.031123664
243	0x3ceecaaf	0.029149381
244	0xbcc19622	-0.02363116
245	0xbe10162a	-0.14070955
246	0xbce5856d	-0.028017724
247	0xbd033e43	-0.0320418
248	0x3c109ad5	0.008825977
249	0x3e04e7c8	0.12979043
250	0x3d451ee4	0.048125163
251	0x3ca16884	0.019703157
252	0xbd3b2ee5	-0.04569902
253	0x3b9ba204	0.0047495384
254	0x3d58ef1f	0.05296242
255	0x3da229bd	0.07918117

net.2.bias f4 [128]
0	0xbcc914fd	-0.02454614
1	0xbd65c2e4	-0.056094065
2	0x3d8eba65	0.06969146
3	0x3d6db877	0.058037248
4	0x3bb58924	0.00554003
5	0xbd29f42e	-0.041492634
6	0x3d4bea0d	0.049783755
7	0xbd86dbb8	-0.06584877
8	0xbda7197b	-0.08159157
9	0x3d8afb1a	0.06786175
10	0x3d5935cb	0.053029817
11	0xbcb94d02	-0.022619728
12	0x3d7d34a7	0.06181779
13	0xbc2a47be	-0.010393081
14	0x3cd3a58c	0.025835775
15	0x3c4311a4	0.011906061
16	0x3d7f4afe	0.062327377
17	0x3da398e1	0.07988144
18	0x3b8334d1	0.004004099
19	0x3d618c1e	0.055065267
20	0x3ccc3858	0.02492921
21	0x3d1c757f	0.03819799
22	0xbc189dd5	-0.009314974
23	0xbd545c7b	-0.05184601
24	0x3d897eb4	0.0671362
25	0x3d4fecb2	0.05076284
26	0xbdc61963	-0.09672811
27	0x3c720ef0	0.014774069
28	0x3d83797f	0.06419658
29	0x3d4f6b21	0.050639275
30	0x3d2552a3	0.04036201
31	0x3d63113f	0.05543637
32	0xbda5d3c0	-0.08097029
33	0xbd647574	-0.055776075
34	0x3daa61ed	0.08319459
35	0x3bf35c4e	0.007426775
36	0xbcfa4cd9	-0.030554222
37	0x3da1e1de	0.07904409
38	0xb9cb66b3	-0.00038795694
39	0x3d711034	0.058853343
40	0xbcd70351	-0.026246699
41	0x3d3564d4	0.04428561
42	0x3c3523d4	0.011055905
43	0xbda8f302	-0.08249475
44	0x3d0d5597	0.034505453
45	0xbcc9341e	-0.024560984
46	0x3d36dd7e	0.044644825
47	0x3cab0321	0.020875515
48	0x3d638cf1	0.055554334
49	0xbd58edbd	-0.0529611
50	0x3d656287	0.056002166
51	0x3d0c5624	0.034261838
52	0xbd984bc8	-0.07436329
53	0x3d89e753	0.06733575
54	0x3bb28e66	0.005449104
55	0x3da59944	0.08085874
56	0xbd036254	-0.032076195
57	0xbd95e2ca	-0.07318647
58	0xbb9b95f0	-0.0047480986
59	0x3ce4699d	0.027882392
60	0x3c008dca	0.007846305
61	0xbc84eca8	-0.016226128
62	0xbd6fcf4e	-0.05854731
63	0xbc3087b1	-0.010774539
64	0x3d4d8015	0.050170977
65	0xbd97873d	-0.073988415
66	0x3d904b27	0.07045584
67	0xbc099bfe	-0.008399008
68	0xbd2d88e1	-0.042366866
69	0xbd20c0ab	-0.039246242
70	0x3d8621c4	0.06549409
71	0xbda67222	-0.08127238
72	0xbd3fa6f5	-0.046790082
73	0xbdb8c91f	-0.09022736
74	0xbd7a408f	-0.061096724
75	0x3cdb4178	0.026764616
76	0xbd593fb6	-0.053039275
77	0x3bb30cfb	0.005464194
78	0x3d28fb9d	0.041255582
79	0xbd947a6f	-0.07249915
80	0x3d4ad989	0.049523864
81	0xbca781c0	-0.020447612
82	0xbda1773a	-0.07884069
83	0x3d17d83c	0.03707145
84	0x3da912d3	0.082555436
85	0xbb5349d0	-0.003224004
86	0xbba254b2	-0.004953944
87	0x3d28ed8b	0.041242164
88	0xbd1f4c43	-0.03889109
89	0x3cee1850	0.029064327
90	0x3bd77e2c	0.00657632
91	0x3c2042c9	0.009781548
92	0xbbb32d76	-0.005468066
93	0xbd8aac9c	-0.06771204
94	0xbd320d3b	-0.04346965
95	0xbc0f48ae	-0.0087453555
96	0xbd1abd49	-0.037778173
97	0xbd31c255	-0.04339822
98	0x3c815906	0.01578952
99	0xbc1a1865	-0.00940523
100	0x3cad90ec	0.021187268
101	0xbd0cd7eb	-0.034385603
102	0x3cc7ccf5	0.024389723
103	0xbda68ce2	-0.0813234
104	0x3d2c290c	0.042031333
105	0x3c87ba26	0.016568255
106	0x3d4ecb2d	0.050486732
107	0x3d290f46	0.04127433
108	0x3c24839d	0.010041145
109	0x3b947f64	0.0045317877
110	0x393c4d7d	0.00017957944
111	0x3ce335b5	0.02773557
112	0x3dab6894	0.08369556
113	0x3d2806b4	0.041022018
114	0xbbcd271f	-0.006260767
115	0xbd574d92	-0.05256421
116	0x3d007ad9	0.031367157
117	0x3d3c7e15	0.04601868
118	0x3d710c52	0.05884964
119	0x3b87c090	0.0041428283
120	0x3dacba66	0.0843399
121	0x3d4bc081	0.049744133
122	0xbcb40a54	-0.021977581
123	0x3d6ca342	0.057772882
124	0x3d64f0ac	0.055893585
125	0xbc912e36	-0.01772223
126	0x3d2585c4	0.040410772
127	0x3da1d9f2	0.07902898

net.4.weight f4 [15, 128]
0	0xbcef277b	-0.02919363
1	0x3d2b6dd3	0.041852783
2	0x3c5bede8	0.0134234205
3	0xbc116273	-0.00887357
4	0x3d71abb9	0.059001658
5	0xbdaa5777	-0.08317464
6	0xbdc12a92	-0.09431948
7	0x3dd40ab9	0.10353608
8	0x3d883815	0.06651322
9	0x3c142d54	0.00904401
10	0xbd2d9f01	-0.042387966
11	0x3c9155a0	0.017741024
12	0xbd695a64	-0.05697097
13	0xbc874343	-0.016511565
14	0xbd8bc0e0	-0.06823897
15	0x3d3fb50c	0.04680352
16	0x3cfcdaca	0.030866046
17	0xbdd19aca	-0.10234602
18	0x3c9daba5	0.019246886
19	0xbda306ee	-0.07960306
20	0x3e114b56	0.14188895
21	0x3dc972d5	0.098363556
22	0x3d091b1e	0.033473127
23	0x3d099f40	0.03359914
24	0x3d5cca06	0.053903602
25	0x3d8cd881	0.06877232
26	0x3e0c8d40	0.13725758
27	0x3d577688	0.052603275
28	0x3d8bedc4	0.068324596
29	0xbd0675ee	-0.03282731
30	0x3cf17748	0.029475823
31	0x3e10ceff	0.14141463
32	0xbd5df5dd	-0.05418955
33	0xbd7de112	-0.061982222
34	0xbda45739	-0.08024449
35	0x3d7ecd15	0.0622073
36	0xbd6fdf9c	-0.05856286
37	0x3d607b2b	0.054804962
38	0xbc074e91	-0.008258478
39	0x3d84a3f1	0.06476582
40	0x3e1c15ec	0.15242738
41	0x3de4dd8b	0.111750685
42	0x3df0d1e7	0.11758786
43	0x3df28988	0.11842638
44	0x3d8b3822	0.06797816
45	0x3d2465dd	0.040136207
46	0xbdbf4066	-0.09338455
47	0xbcb753b5	-0.022378782
48	0x3cbb1797	0.022838397
49	0x3db6d824	0.08927944
50	0x3b8b8df2	0.0042588646
51	0xbd5faf37	-0.054610457
52	0xbc121a23	-0.008917364
53	0x3da6c57e	0.081431374
54	0xbc6abbed	-0.014327032
55	0x3da88672	0.082287684
56	0x3d476b77	0.04868647
57	0xbda50ee9	-0.080594845
58	0x3d8ab4e1	0.06772781
59	0xbdcec45e	-0.10096048
60	0x3d427b6d	0.04748099
61	0x3ca40253	0.02002064
62	0xbbdf8260	-0.006820962
63	0xbb3b218c	-0.002855393
64	0x3e07b1a7	0.13251363
65	0x3d9dcd78	0.07705206
66	0x3d4867d2	0.048927136
67	0x3c8d9863	0.017284578
68	0x3da3b09f	0.07992672
69	0xbc594378	-0.013260715
70	0xbd0791dd	-0.03309809
71	0x3dd36c33	0.10323372
72	0xbd585369	-0.05281392
73	0xbcda2445	-0.026628623
74	0x3d976a6b	0.073933445
75	0x3d831491	0.06400407
76	0x3de69440	0.11258745
77	0x3a8e453a	0.0010854371
78	0x3d9e28fa	0.077226594
79	0xbc5e1c4a	-0.013556549
80	0xbd158362	-0.03650225
81	0x3da49c2e	0.080376014
82	0xbcd01b87	-0.025403751
83	0x3dc5ad65	0.09652213
84	0x3d4ed5c1	0.05049682
85	0xbd0f2099	-0.034943197
86	0x3d20d27d	0.039263237
87	0xbe34f146	-0.17670164
88	0x3de5c9ff	0.11220168
89	0x3dd4d751	0.10392631
90	0xbbeb059d	-0.0071723
91	0x3e3c0040	0.1835947
92	0x3da75f7b	0.08172508
93	0x3d86d5c6	0.06583743
94	0xbdb49b86	-0.08818726
95	0x3d9d7a92	0.07689394
96	0xbd9d100f	-0.076690786
97	0xbd28eb92	-0.041240282
98	0x3cf43942	0.029812459
99	0x3e18519d	0.14874883
100	0xbd89c783	-0.06727507
101	0x3ddcd0e8	0.10782033
102	0x3dcbe777	0.09956258
103	0x3d826523	0.063669465
104	0x3dba887c	0.091080636
105	0x3dcb6d6c	0.0993298
106	0x3da92aa5	0.08260087
107	0xbc9ea9dd	-0.019368106
108	0xbbec1f4b	-0.007205879
109	0xbd329c16	-0.043605886
110	0x3ba459ce	0.0050155884
111	0x3cbc267e	0.022967573
112	0x3dc0314a	0.09384401
113	0x3db94c10	0.09047711
114	0x3d40051e	0.04687988
115	0x3d6658a6	0.056236885
116	0x3c30edf4	0.01079892
117	0x3dc3ae60	0.09554744
118	0x3e0007cd	0.12502976
119	0x3d22e018	0.039764494
120	0x3da9b303	0.08286097
121	0x3c83f864	0.016109653
122	0x3d53cfb3	0.05171175
123	0xbd200ce1	-0.039074782
124	0x3bb87458	0.0056291036
125	0x3db8083a	0.08985944
126	0x3ce28b5c	0.027654342
127	0x3dbb8851	0.0915686
128	0xba95a462	-0.0011416788
129	0x3e30ebd7	0.17277466
130	0xbd4878ab	-0.048943203
131	0x3d484df8	0.04890248
132	0x3d9a9cb2	0.075494185
133	0x3ca06a2b	0.019581875
134	0xbdc80b96	-0.09767835
135	0x3daac166	0.08337669
136	0x3dbca8fd	0.092119195
137	0x3e31d325	0.17365701
138	0xbda13b71	-0.07872666
139	0xbd8fccd8	-0.07021493
140	0x3dafebfe	0.08589934
141	0x3c43ffa6	0.011962807
142	0x3e035050	0.12823606
143	0xbbe3fcc8	-0.006957624
144	0x3dd967eb	0.10615524
145	0xbdebfbdb	-0.11522647
146	0xbcaa27c1	-0.02077091
147	0xbdd7126e	-0.10501562
148	0x3db717a3	0.08940055
149	0x3bf26b1e	0.0073980233
150	0xbd9d0276	-0.07666485
151	0x3cc89b33	0.024488067
152	0xbd511eb2	-0.051054664
153	0xbc00fc51	-0.007872657
154	0x3ddb04d6	0.10694282
155	0x3d344222	0.04400838
156	0x3ded93c3	0.11600449
157	0xbd82db82	-0.06389524
158	0x3da7a629	0.081859894
159	0x3d32d633	0.043661308
160	0x3d674a96	0.056467615
161	0xbd72add0	-0.05924779
162	0xbd877fec	-0.06616196
163	0x3cb8e96e	0.022572245
164	0x3dbefbe3	0.09325387
165	0xbd259095	-0.040421087
166	0xbdafa1b5	-0.08575765
167	0x3d741a28	0.059595257
168	0x3da999c7	0.08281284
169	0x3df3fbdf	0.11913275
170	0x3e1b5d62	0.15172341
171	0x3df9fd47	0.12206512
172	0x3c58c33d	0.013230142
173	0x3d7b4f4d	0.061354924
174	0xbce480a7	-0.027893377
175	0x3da2e653	0.07954087
176	0xbd17a52e	-0.037022762
177	0x3e1019ab	0.14072292
178	0x3db3c607	0.08778005
179	0xbc0f6de3	-0.008754226
180	0x3c07ec13	0.008296031
181	0x3dd5c532	0.10438003
182	0x3d656aa6	0.05600991
183	0xbbe2b46a	-0.0069184797
184	0x3da3d7ad	0.08000121
185	0x3bac0cea	0.005250563
186	0x3caa9fdf	0.020828186
187	0xbdebb6bd	-0.11509464
188	0xbc8ec246	-0.017426621
189	0x3c15ffe0	0.009155244
190	0xbc434640	-0.011918604
191	0x3cd3e067	0.02586384
192	0x3e24d782	0.16097835
193	0x3dca3b00	0.098745346
194	0x3d0e363c	0.03471969
195	0x3d98e13d	0.07464836
196	0x3e1c710e	0.15277502
197	0xbd96e8fc	-0.07368657
198	0x3bab7e1b	0.005233539
199	0xbb069b43	-0.002053932
200	0xbe0eba71	-0.13938309
201	0x3db864cd	0.09003601
202	0x3e008bcd	0.1255333
203	0xbd80a9f8	-0.06282419
204	0x3dce5b5c	0.10076019
205	0x3e01c213	0.1267169
206	0x3dfba715	0.12287728
207	0x3deb48bb	0.114884816
208	0x3d99b29f	0.075047724
209	0xbc9ecdd8	-0.019385263
210	0xbcf5bdc5	-0.029997716
211	0x3daf7e2b	0.085689865
212	0xbd5ef3db	-0.054431777
213	0xbc75f6cd	-0.015012455
214	0xbdec5f43	-0.11541607
215	0xbe1e3c44	-0.15452677
216	0x3df52692	0.11970247
217	0x3d6894da	0.05678258
218	0x3c2fe8da	0.0107366685
219	0x3dec19ce	0.11528359
220	0x3e2ab8cd	0.16672058
221	0x3d88f8bb	0.066880666
222	0xbcbd65bf	-0.023119805
223	0xbc0763ca	-0.008263538
224	0xbdd33df4	-0.10314551
225	0xbcf49c36	-0.029859643
226	0xbd4d22d3	-0.05008204
227	0x3e2ba1fb	0.1676101
228	0x3ce5e80a	0.028064746
229	0x3d984416	0.07434861
230	0xbc2f70ed	-0.010708076
231	0xbcfac1a7	-0.030609919
232	0x3d6d9d6b	0.058011454
233	0x3d283df6	0.041074716
234	0x3cbc4f9d	0.022987181
235	0x3dc1bcc3	0.094598316
236	0xbce0083a	-0.027347673
237	0xbdf1c9c5	-0.118060626
238	0xbd6e3cf5	-0.058163602
239	0xbc74501c	-0.014911678
240	0x3daa0dea	0.08303435
241	0x3d4c247b	0.049839478
242	0x3dadb239	0.08481259
243	0x3d0f104b	0.034927648
244	0x3d4cb391	0.049975935
245	0x3dcc72de	0.09982847
246	0x3c311041	0.010807098
247	0xbe3ba698	-0.18325269
248	0x3d835e01	0.06414414
249	0xbc8df784	-0.017329939
250	0xbd3ae190	-0.04562527
251	0x3d18ef8b	0.03733782
252	0xbe054152	-0.13013199
253	0x3d52cd6f	0.051465448
254	0x3ca8b362	0.020593349
255	0xbca5e397	-0.020250125

net.4.bias f4 [15]
0	0xbd404969	-0.04694501
1	0x3da4fe9d	0.08056376
2	0xbcac83e3	-0.021058982
3	0xbd0056a9	-0.031332646
4	0x3c5771a0	0.013149649
5	0x3d0c5dee	0.034269266
6	0x3d7b6930	0.06137961
7	0xbd39aa04	-0.045328155
8	0x3d63d3e5	0.055622
9	0x3da64e86	0.08120446
10	0x3cba6fa3	0.02275831
11	0x3d8b1160	0.067904234
12	0x3cb57574	0.022150733
13	0x3d50b410	0.05095297
14	0x3c9281c2	0.017884139

net.0.weight f4 [128, 77]
0	0x3fb3c4cb	1.4044431
1	0x3d6f6a5e	0.05845105
2	0xbd735243	-0.059404623
3	0xbd50665c	-0.050878868
4	0xbd651feb	-0.055938642
5	0x3d104aeb	0.035227697
6	0x3c2ade44	0.010428969
7	0x3dc67346	0.096899554
8	0xbd27f475	-0.041004617
9	0x3ded18a7	0.11576968
10	0xbc0b71f5	-0.008511056
11	0xbc8131a0	-0.015770733
12	0xbe1a6b1b	-0.1507992
13	0xbd57aa07	-0.052652385
14	0xbd26a122	-0.040681012
15	0x3c9b0050	0.018921047
16	0x3cf10f4f	0.029426245
17	0x3d8cd307	0.06876188
18	0xbda82f94	-0.082122
19	0xbd5640e4	-0.05230798
20	0x3d1e8e6e	0.03871005
21	0x3db46eac	0.088101715
22	0xbc929296	-0.017892163
23	0x3d9a2901	0.07527352
24	0xbca30569	-0.01990004
25	0x3d40cf14	0.047072485
26	0x3dffc925	0.12489537
27	0xbe27b8ac	-0.1637904
28	0xbcebf4d2	-0.028803263
29	0xb9be1429	-0.00036254645
30	0xbd980767	-0.07423287
31	0x3ca887c0	0.020572543
32	0xbd8e60f7	-0.06952088
33	0xbdcdaf36	-0.100431845
34	0xbd7908c4	-0.060799375
35	0xbdc17d21	-0.094476946
36	0xbd8a4a90	-0.06752503
37	0x3dc32d6a	0.095301464
38	0x3d454cc6	0.04816892
39	0x3d573fea	0.052551188
40	0x3c181f7c	0.00928485
41	0xbd3b679e	-0.045753114
42	0x3b084687	0.002079399
43	0xbe0a0107	-0.13476954
44	0xbd1e740c	-0.03868489
45	0xbc4a725f	-0.01235637
46	0x3bff6a74	0.0077946726
47	0x3daa0ff4	0.08303824
48	0xbbe22433	-0.006901288
49	0xbcf0fd38	-0.02941762
50	0x3d465285	0.04841854
51	0x3e01c1e6	0.12671623
52	0xbd4fb4ef	-0.05070966
53	0x3c5fea48	0.013666697
54	0x3da4e31d	0.08051131
55	0xbd8e2bf1	-0.06941975
56	0x3c988ef4	0.018622853
57	0xbdba7125	-0.09103612
58	0xbda740b1	-0.08166636
59	0xbdb09b7b	-0.086234055
60	0x3cd2e12c	0.025742136
61	0x3d8b1c4a	0.06792505
62	0xbe076f77	-0.13226114
63	0x3d800195	0.06250302
64	0x3dbc5797	0.09196394
65	0xbde1c3a9	-0.11023647
66	0x3df6531a	0.12027569
67	0x3c5396e8	0.012914397
68	0xbc313c99	-0.01081767
69	0x3d2366db	0.039893012
70	0xbd57b9da	-0.052667476
71	0xbe164324	-0.1467405
72	0x3d2b89d3	0.041879486
73	0x3dce8ea3	0.100857995
74	0x3dc2aeda	0.095060065
75	0x3dc72535	0.097238936
76	0x3ca3d1a2	0.019997422
77	0x3fa3aeef	1.278776
78	0x3c498c5f	0.0123015335
79	0xbdb5a0d7	-0.088685684
80	0xbd082ab8	-0.033243865
81	0x3dbd4132	0.09240951
82	0x3dc2cb33	0.095114134
83	0xbe15c425	-0.14625604
84	0x3caf1a1c	0.021374755
85	0xbd1086e0	-0.035284877
86	0xbc831c03	-0.016004568
87	0x3ca353b1	0.019937368
88	0x3dc4a615	0.0960199
89	0xbd06b75b	-0.032889705
90	0x3d8ff75e	0.070296034
91	0x3d7e25b5	0.06204768
92	0x3da2a10f	0.07940876
93	0x3d085ec6	0.033293508
94	0xbdda61ec	-0.10663208
95	0xbd9ac657	-0.075573616
96	0x3d7084b0	0.05872029
97	0x3cd24a6c	0.025670253
98	0xbdfa4108	-0.12219435
99	0xbcc09d3f	-0.02351248
100	0x3de8a216	0.113590404
101	0x3d9616dc	0.07328579
102	0xbdc0e2c7	-0.09418254
103	0xbd01a970	-0.03165573
104	0xbe00e286	-0.12586412
105	0x3d0c04c9	0.03418425
106	0xbbb0f3e7	-0.005400169
107	0xbdaf00a8	-0.08545047
108	0x3c0e6010	0.008689895
109	0x3cffa4c3	0.031206494
110	0x3d24b912	0.04021556
111	0x3d993d77	0.074824266
112	0xbd682c87	-0.05668309
113	0x3dcf0fac	0.10110411
114	0x3da34b49	0.07973344
115	0xbdc117b6	-0.094283506
116	0xbcd9749c	-0.026544861
117	0xbd696fb8	-0.05699131
118	0xbc69e5ce	-0.014275981
119	0x3a06d373	0.0005143203
120	0x3d1adc42	0.03780771
121	0x3d0cafa1	0.03434718
122	0xbd5d7a4a	-0.054071702
123	0x3d0cfaf0	0.034419
124	0xbdd6d8ee	-0.10490595
125	0x3cfbdf73	0.030746197
126	0xbde1de78	-0.11028761
127	0xbd00a0e2	-0.03140343
128	0xbcbadf12	-0.022811446
129	0xbd0ee094	-0.034882143
130	0xbc324fc1	-0.010883273
131	0x3c50ba23	0.012739691
132	0xbda25e29	-0.07928116
133	0xbb177b90	-0.002311442
134	0x3daacbac	0.083396286
135	0xbc2227ad	-0.009897155
136	0xbc75a4e0	-0.014992923
137	0xbd6e77a8	-0.05821958
138	0x3cd8bf5d	0.026458437
139	0x3d17ec73	0.03709073
140	0x3e1ce595	0.15321954
141	0x3d192092	0.037384577
142	0x3dbbb90c	0.09166154
143	0x3dfea7a7	0.12434321
144	0xbd17e862	-0.037086852
145	0xbdeb0ee7	-0.11477452
146	0x3d8d4845	0.0689855
147	0x3d00d49f	0.03145277
148	0xbd539ff5	-0.05166622
149	0xbdc498e1	-0.09599472
150	0xbdf78457	-0.12085789
151	0xbde288df	-0.11061262
152	0xbc8a11d8	-0.016854212
153	0x3d83b720	0.06431413
154	0x3d93b69f	0.072125666
155	0xbde775cb	-0.11301764
156	0x3d915083	0.070954345
157	0xbda6b5d2	-0.08140148
158	0xbd280a26	-0.041025303
159	0xbd52983b	-0.05141471
160	0xbd0567b1	-0.03256959
161	0xbcdc445b	-0.026888063
162	0xbdd70a48	-0.10500008
163	0xbdce2e73	-0.10067453
164	0xbc652abd	-0.01398724
165	0x3c29836c	0.010346275
166	0xbd6514f9	-0.055928204
167	0x3d28ec91	0.041241232
168	0xbdf0f581	-0.11765576
169	0xbc99068b	-0.018679878
170	0x3dcae6e7	0.099073224
171	0xbd4c6055	-0.049896557
172	0x3dcc5f78	0.09979147
173	0x3d1c4dfe	0.038160317
174	0xbdd8ff23	-0.105955385
175	0x3d79b247	0.060961034
176	0x3a9e69c4	0.0012085964
177	0xbd703cf7	-0.05865189
178	0x3db7115e	0.089388594
179	0xbd9d5587	-0.07682329
180	0x3b505d48	0.0031793881
181	0xbcd880a9	-0.026428537
182	0x3da0972c	0.07841334
183	0x3d1c895e	0.03821694
184	0x3d52c226	0.051454686
185	0x3d19dde6	0.037565134
186	0xbcc43546	-0.023951184
187	0x3b4dd0f9	0.0031405075
188	0xbddf11e4	-0.10892084
189	0x3d7b3161	0.06132639
190	0x3dafd2ee	0.085851535
191	0x3d99526d	0.074864246
192	0xbdaaffd1	-0.08349574
193	0x3b013a3b	0.0019718546
194	0xbdc1d645	-0.09464697
195	0xbd89f70a	-0.06736572
196	0xbd90edeb	-0.07076629
197	0x3d116fdd	0.03550707
198	0xbda35136	-0.07974474
199	0xbc09898c	-0.00839461
200	0x3ae77982	0.0017660114
201	0x3d8148a0	0.0631268
202	0xbdaa54ec	-0.08316979
203	0xbdb9bf5b	-0.09069701
204	0xbd891735	-0.066938795
205	0x3da6afca	0.08138998
206	0xbd20cb48	-0.039256364
207	0x3dc81628	0.09769851
208	0x3d261ecd	0.040556718
209	0x3b8ed74d	0.004359162
210	0xbb8138e0	-0.0039435476
211	0xbcd2081b	-0.02563863
212	0x3c374b52	0.011187391
213	0xbd44e04b	-0.048065465
214	0x3bc3176f	0.0059537212
215	0x3c19c9c5	0.0093864845
216	0xbdb4c7fe	-0.08827208
217	0xbd848502	-0.06470682
218	0x3db171d1	0.08664287
219	0xbdc38bc0	-0.095481396
220	0xbc6a01b4	-0.014282633
221	0x3de9acd8	0.114099205
222	0x3d2f672c	0.042823
223	0xb9e0cae5	-0.00042875778
224	0xbdd24082	-0.1026621
225	0x3d76e881	0.060280327
226	0xbd8ba414	-0.06818405
227	0xbd37e7eb	-0.04489891
228	0xbd367feb	-0.044555586
229	0xbca3bb4a	-0.019986767
230	0xbaf45b97	-0.0018643019
231	0x3fe4c1c5	1.7871634
232	0x3c3b18af	0.011419459
233	0x3dcea375	0.10089771
234	0x3dad7dd9	0.08471269
235	0xbd125ce3	-0.035733115
236	0x3d59ef99	0.053207014
237	0xbcb8526d	-0.022500241
238	0xbc3cabd3	-0.011515575
239	0x3d61c4ab	0.055119198
240	0x3d2bc402	0.041934974
241	0x3d898af5	0.06715957
242	0x3b7ae490	0.0038283207
243	0x3d2396f3	0.03993888
244	0x3d449e55	0.04800256
245	0xbdd5b9f0	-0.104358554
246	0x3d93fb04	0.07225612
247	0xbdc67b3c	-0.09691474
248	0x3b9cec9a	0.0047889473
249	0xbcb98862	-0.02264804
250	0xbd80ab5f	-0.062826864
251	0x3c48c983	0.012255075
252	0x3dc1db0e	0.094656095
253	0xbc92c235	-0.01791487
254	0xbd8be10d	-0.068300344
255	0xbccb96e6	-0.024852227

net.0.bias f4 [128]
0	0xbcd90c8f	-0.026495246
1	0xbd36678b	-0.04453234
2	0xbda6778b	-0.0812827
3	0x3d0778e3	0.03307427
4	0xbd4a61ff	-0.049409863
5	0xbd6b906c	-0.05751078
6	0x3d1dec9a	0.03855572
7	0xbd2461b8	-0.040132254
8	0x3c925c55	0.017866293
9	0xbbc971de	-0.006147607
10	0x3d2b2796	0.0417858
11	0x3d8ab82f	0.067734115
12	0xbdcd1e75	-0.10015575
13	0xbd5d946d	-0.054096628
14	0x3de4d49e	0.11173366
15	0x3c83eadc	0.0161032
16	0xbc97f463	-0.01854915
17	0x3dacb4b8	0.08432907
18	0x3dcfef99	0.101531215
19	0x3d00869c	0.031378374
20	0xbd9d3396	-0.07675855
21	0x3de57f08	0.1120587
22	0xbde4ae59	-0.11166067
23	0xbe034488	-0.12819111
24	0x3cb06354	0.021531738
25	0xbcde8952	-0.027165089
26	0xbde6e243	-0.11273625
27	0x3dbd9a80	0.09257984
28	0x3c911490	0.01771
29	0xbd906964	-0.07051352
30	0x3d59689d	0.053078283
31	0x3da3787c	0.07981965
32	0xbc45ecc0	-0.012080371
33	0x3dba6cad	0.091027595
34	0x3d78aaad	0.060709644
35	0x3d10920d	0.035295535
36	0xbd658ff9	-0.056045506
37	0xbda7caf6	-0.081930086
38	0xbc23c357	-0.009995303
39	0xbd0eb58f	-0.034841117
40	0xbddd714f	-0.108126275
41	0xbdd8cfcc	-0.10586509
42	0xbd8a4f71	-0.067534335
43	0x3c511099	0.012760305
44	0xbd2d4e4e	-0.042311005
45	0xbdc41771	-0.095747836
46	0xbca11d0c	-0.019667171
47	0xbd18a42b	-0.037265938
48	0xbd06e60b	-0.03293423
49	0x3d882d8a	0.06649311
50	0x3d35ef16	0.044417463
51	0x3da2ed96	0.07955472
52	0x3df4978e	0.11942969
53	0x3ae1966d	0.0017210968
54	0xbd3fede1	-0.04685772
55	0xbb1afdab	-0.0023649733
56	0x3cd3e298	0.025864884
57	0xbd11cc2e	-0.03559511
58	0x3db32271	0.087468036
59	0x3d75348c	0.059864566
60	0xbdaf4278	-0.085576
61	0x3cfc0540	0.030764222
62	0xbb81c5c0	-0.003960341
63	0x3d40f660	0.04710996
64	0xbd7bc533	-0.06146736
65	0x3dda52ee	0.10660349
66	0xbd238f23	-0.039931428
67	0x3d3d051a	0.046147443
68	0xbd6f39ac	-0.05840461
69	0x3d215975	0.039391953
70	0xbd0a52f4	-0.033770517
71	0xbd409611	-0.047018114
72	0xbdc5da67	-0.096607976
73	0x3ceebce0	0.029142797
74	0x3ce9ddb6	0.028548103
75	0x3cda6248	0.026658192
76	0xbd2db10b	-0.04240517
77	0x3c873de8	0.016509011
78	0xbd6329d6	-0.05545982
79	0x3cbc3366	0.022973727
80	0x3ddb13db	0.106971465
81	0xbdd0a739	-0.10188145
82	0x3d474d68	0.048657805
83	0xbd89ba72	-0.06725015
84	0x3d0414f5	0.03224655
85	0xbccbac70	-0.024862498
86	0x3d4f90a4	0.05067505
87	0xbd9ee6b0	-0.07758844
88	0x3d93daed	0.07219491
89	0x3d91fa27	0.07127791
90	0xbda60a38	-0.08107418
91	0xbda22246	-0.079166934
92	0x3d85f311	0.06540502
93	0xbda10f5f	-0.0786426
94	0x3d332996	0.04374083
95	0xbd7b1741	-0.061301474
96	0xbdc5d804	-0.09660342
97	0x3d06d966	0.03292217
98	0xbd1c586d	-0.038170267
99	0xbd65fc2a	-0.056148686
100	0x3d28cdfc	0.041212067
101	0x3d443dd3	0.047910523
102	0x3daa710f	0.083223455
103	0x3ddea373	0.10871019
104	0x3d521f46	0.051299356
105	0xbd06e184	-0.032929912
106	0x3c91ec2d	0.017812813
107	0x3da737f2	0.081649676
108	0xbdb200f1	-0.08691586
109	0x3db6fe43	0.08935215
110	0x3d35380c	0.044242904
111	0x3d30df66	0.0431818
112	0x3cb81fb1	0.02247605
113	0xbdd41326	-0.10355215
114	0x3d1c2865	0.03812446
115	0xb5e39880	-1.6957201e-06
116	0x3a96cb3c	0.001150466
117	0xbd694c98	-0.05695781
118	0x3db41865	0.087937154
119	0xbca4caaf	-0.020116178
120	0xbbb64209	-0.005562071
121	0xbdbe4925	-0.09291295
122	0x3ddb873f	0.107191555
123	0xbddf852f	-0.10914075
124	0x3d862855	0.065506615
125	0x3d420da3	0.047376286
126	0x3c98bb4f	0.018644003
127	0xbde1f77e	-0.110335335

net.2.weight f4 [128, 128]
0	0xbc12051e	-0.008912353
1	0xbc30211c	-0.010750081
2	0xbda1caa5	-0.078999795
3	0xbcb56d49	-0.022146838
4	0xbcce869e	-0.025210675
5	0xbd667c46	-0.05627086
6	0x3d5d4e25	0.054029603
7	0x3ded24dd	0.11579297
8	0xbddcec64	-0.107872754
9	0x3d494b8d	0.049144316
10	0x3ae316f1	0.0017325563
11	0x3d83ea09	0.06441123
12	0xbd9de019	-0.07708759
13	0xbce01eea	-0.027358491
14	0xbc910dd4	-0.01770679
15	0x3dadb7dc	0.08482334
16	0x3dbe9567	0.0930584
17	0xbb0f0b19	-0.0021826683
18	0xbd5f2b03	-0.05448438
19	0xbc53abe8	-0.012919404
20	0xbd023fec	-0.031799242
21	0x3d138547	0.036015775
22	0x3c6fe1a7	0.014641202
23	0x3ccc0600	0.024905205
24	0xbcad13ff	-0.021127699
25	0x3df9c6a9	0.121960945
26	0xbce82f88	-0.028342977
27	0xbd6d6e91	-0.057966772
28	0x3d85b831	0.06529272
29	0x3cec77fe	0.02886581
30	0x3d4449d1	0.04792196
31	0x3db0b7ed	0.08628831
32	0xbd11cd65	-0.03559627
33	0x3d111e89	0.03542951
34	0x3db75827	0.089523606
35	0x3cd6902c	0.026191793
36	0x3d193e22	0.03741277
37	0xbd4db353	-0.050219845
38	0xbc34e96e	-0.011041982
39	0x3b984af0	0.004647605
40	0xbd23c771	-0.039985124
41	0x3b1c7fcb	0.0023879881
42	0x3e010098	0.12597883
43	0x3ceb7936	0.028744321
44	0x3d8742fe	0.066045746
45	0x3c0c2830	0.008554503
46	0x3c9c39c8	0.019070521
47	0xbc98cc0d	-0.018651986
48	0x3c9f1eb9	0.01942383
49	0x3c4b5d55	0.012412389
50	0xbce06ad2	-0.027394686
51	0xbdb2b648	-0.08726174
52	0x39c5b816	0.00037711923
53	0x3c9cf85e	0.0191614
54	0x3bd119d2	0.006381252
55	0xbcd29747	-0.0257069
56	0xbd9742f8	-0.0738582
57	0x3c24d3f6	0.010060301
58	0xbd7a0612	-0.061040945
59	0x3d938b99	0.072043605
60	0xbd415d95	-0.047208387
61	0x3d44a350	0.04800731
62	0xbda941f1	-0.082645305
63	0xbcd499cc	-0.025952242
64	0xbe02a2d5	-0.12757428
65	0xbd902f22	-0.0704024
66	0x3cb3eb1e	0.021962699
67	0xbd9cc55a	-0.07654829
68	0x3d1b714c	0.037949845
69	0x3d6ea0fa	0.058258988
70	0x3c5245a5	0.012833987
71	0x3cfd7513	0.030939614
72	0xbda84bf5	-0.08217613
73	0x3d210282	0.039309032
74	0xbe1026c6	-0.14077291
75	0x3dbd190c	0.09233293
76	0xbd9105c3	-0.07081177
77	0x3c8dfe5a	0.017333198
78	0x3dbca8fd	0.092119195
79	0xbdb11ee7	-0.08648472
80	0xbd47ac8b	-0.048748534
81	0x3cdf1c7f	0.027235268
82	0xbd9b3df8	-0.07580179
83	0x3ca9f08b	0.020744583
84	0x3ab86560	0.0014068298
85	0xbda9cc84	-0.082909614
86	0xbce1ab90	-0.027547628
87	0xbd5cc8eb	-0.053902548
88	0x3d267f9c	0.04064904
89	0x3dc467eb	0.09590133
90	0x3dac630a	0.08417328
91	0xbdbb60e2	-0.09149338
92	0xbc6142ee	-0.013748867
93	0xbda7668a	-0.08173855
94	0x3c4e7494	0.012601037
95	0x3d47483e	0.04865288
96	0xbdf8751e	-0.12131713
97	0xbca12a29	-0.019673424
98	0xbdfa397a	-0.12217994
99	0xbb2b9c25	-0.0026185599
100	0x3d8c8537	0.06861346
101	0xbd7187c5	-0.05896737
102	0xbb2112cb	-0.0024577852
103	0xbcb2d837	-0.021831615
104	0x3df28a17	0.11842745
105	0xbda5f7ba	-0.08103891
106	0xbd3f26c7	-0.04666784
107	0x3c7559da	0.014975036
108	0xbdace42f	-0.0844196
109	0x3daf39d2	0.0855595
110	0xbd8ad471	-0.06778801
111	0xbc8a9b7a	-0.01691984
112	0xbd26f392	-0.04075963
113	0x3d0e768b	0.03478102
114	0xbd2c026f	-0.04199451
115	0x3db6c473	0.089241885
116	0xbdc7b950	-0.097521424
117	0xbd8b5d1c	-0.068048686
118	0xbd4c3ca3	-0.049862515
119	0xbdad0387	-0.084479384
120	0xbdc04501	-0.093881615
121	0x3cdda37a	0.02705549
122	0x3dbe76ea	0.09300025
123	0x3bc147b2	0.0058984393
124	0xbce36c5d	-0.027761633
125	0x3c866944	0.016407616
126	0x3db783b0	0.08960664
127	0xbda27527	-0.07932501
128	0xbbb44e8d	-0.005502528
129	0x3dd14a79	0.10219283
130	0x3d3b8d88	0.04578927
131	0xbd55b27a	-0.05217216
132	0x3c91e4af	0.01780924
133	0xbcd3a2b0	-0.025834411
134	0xbe1e4229	-0.15454926
135	0xbbe1542f	-0.0068764905
136	0x3dc3bae0	0.09557128
137	0xbbbf34d6	-0.005835156
138	0x3d224db4	0.039624885
139	0xbd35d87e	-0.044395916
140	0xbbc73f70	-0.0060805604
141	0x3e25751b	0.16157953
142	0xbca29524	-0.019846506
143	0xbd718569	-0.05896512
144	0xbd9974ab	-0.07492956
145	0xbcdc3ddd	-0.026884967
146	0x3cd1bed8	0.025603697
147	0xbd3c4320	-0.045962453
148	0xbd2a161c	-0.04152499
149	0x3df5a666	0.119946286
150	0x3df61a24	0.12016705
151	0xbce685db	-0.02814
152	0xbd5576ed	-0.05211537
153	0x3c338b07	0.01095844
154	0x3bc8202e	0.0061073517
155	0x3d8a6131	0.06756819
156	0x3cf6d400	0.030130386
157	0x3daa2aa5	0.08308915
158	0xbd3b1004	-0.04566957
159	0xbcecf494	-0.028925218
160	0x3d396ea6	0.04527154
161	0x3d655fb3	0.05599947
162	0xbcd77d87	-0.026304973
163	0x3d57ba71	0.05266804
164	0x3dd14c7b	0.102196656
165	0xbdb6e924	-0.08931187
166	0xbd6f7115	-0.058457453
167	0x3d135fde	0.035980098
168	0xbd52fbfa	-0.051509835
169	0xbdc327c8	-0.09529072
170	0xba5c36a9	-0.0008400479
171	0x3b83b99d	0.0040199296
172	0x3c61c79b	0.0137805
173	0xbd34d5e2	-0.044149287
174	0x3d8d46bf	0.06898259
175	0x3ddb7255	0.107151665
176	0x3d062079	0.032745812
177	0x3d8f5125	0.06997899
178	0x3dd69371	0.10477341
179	0x3dcc32b0	0.099706054
180	0x3cc88776	0.024478655
181	0x3dac67c0	0.08418226
182	0x3de5cd93	0.11220851
183	0x3e10f617	0.14156376
184	0xbcd46001	-0.025924684
185	0x3dabb53e	0.083841786
186	0xbda463e1	-0.08026863
187	0xbd75edea	-0.060041346
188	0x3d882735	0.06648103
189	0xbe1219df	-0.14267682
190	0x3d0c91ef	0.03431886
191	0x3e3c9e76	0.18419823
192	0x3c958c54	0.01825539
193	0xbdb41ce1	-0.08794571
194	0x3b04ca28	0.0020262096
195	0x3b5aa1f7	0.0033360699
196	0xbd08beb6	-0.033385
197	0x3cd6ee25	0.026236603
198	0x3d7ce374	0.061740354
199	0x3d8b713a	0.06808706
200	0xbc6a9b5b	-0.014319266
201	0x3da5ea1f	0.08101296
202	0x3d91a98e	0.07112418
203	0x3db0434c	0.08606586
204	0x3d81e40f	0.06342327
205	0x3d80a582	0.06281568
206	0x3cb8fad0	0.022580534
207	0x3d302df1	0.043012563
208	0x3d7c6299	0.061617468
209	0x3dd2558b	0.10270222
210	0x3e131e62	0.14367059
211	0xbe1d66fe	-0.1537132
212	0x3c75f3d7	0.015011749
213	0x3d95021f	0.07275795
214	0xbd24188d	-0.040062476
215	0x3c737cec	0.014861327
216	0xbda7631b	-0.081732
217	0x3d65722a	0.05601708
218	0xbc5ead53	-0.013591128
219	0x3da7e86e	0.08198629
220	0xbbe16297	-0.006878208
221	0x3da60b34	0.081076056
222	0x3d736f77	0.059432473
223	0xbbafbf6a	-0.0053633945
224	0x3bb5cc7d	0.0055480585
225	0xbd5f7c49	-0.054561887
226	0xbbadc426	-0.0053029237
227	0x3e04a5c8	0.12953866
228	0x3e164c43	0.14677529
229	0xbdf6d1b9	-0.1205172
230	0xbdaa39f5	-0.08311836
231	0x3da8b8f5	0.08238403
232	0x3c75e520	0.015008241
233	0xbd3f9202	-0.046770103
234	0xbe0d382b	-0.13790958
235	0xbd1f84eb	-0.03894512
236	0xbd4cf099	-0.05003414
237	0x3df6a134	0.12042466
238	0xbd83eef9	-0.06442065
239	0xbbb869fd	-0.005627869
240	0xbd2441c9	-0.0401018
241	0x3d3173e7	0.043323424
242	0xbcfef70e	-0.031123664
243	0x3ced6cf3	0.028982615
244	0xbcbd4330	-0.023103327
245	0xbe0f838e	-0.14015028
246	0xbce67625	-0.028132508
247	0xbd033e43	-0.0320418
248	0x3bffb9a4	0.0078041125
249	0x3e03907c	0.12848085
250	0x3d3e378b	0.04643969
251	0x3ca485f6	0.020083409
252	0xbd3ab6c3	-0.04558445
253	0x3bb4ca00	0.0055172443
254	0x3d537a59	0.05163035
255	0x3da229bd	0.07918117

net.2.bias f4 [128]
0	0xbcd631ef	-0.026146857
1	0xbd65ab6f	-0.056071695
2	0x3d8fcc39	0.07021374
3	0x3d6c8c92	0.057751246
4	0x3bc80f46	0.0061053364
5	0xbd291ef4	-0.041289285
6	0x3d49c16e	0.049256735
7	0xbd86a8ff	-0.06575202
8	0xbda7fd4b	-0.08202609
9	0x3d8ac487	0.06775766
10	0x3d58520f	0.052812632
11	0xbcb61efe	-0.022231575
12	0x3d81b013	0.063324116
13	0xbc29dcb6	-0.010367563
14	0x3cd3c1e6	0.025849294
15	0x3c437c2b	0.011931459
16	0x3d80897a	0.062762216
17	0x3da3b85a	0.07994147
18	0x3b852173	0.0040628253
19	0x3d6089e9	0.05481902
20	0x3ccddc0e	0.025129344
21	0x3d1d135e	0.038348548
22	0xbbf2ef19	-0.0074137566
23	0xbd5536f2	-0.052054353
24	0x3d8b8a02	0.06813432
25	0x3d530edc	0.051527843
26	0xbdc4e4da	-0.096139625
27	0x3c5d9f5b	0.013526763
28	0x3d82e00d	0.063903905
29	0x3d4e0815	0.050300676
30	0x3d2552a3	0.04036201
31	0x3d647cc2	0.05578304
32	0xbda303d9	-0.07959718
33	0xbd62822c	-0.055299923
34	0x3da7a180	0.081851006
35	0x3bf1f5e4	0.007384049
36	0xbcf82ee7	-0.030295802
37	0x3da17c92	0.07885088
38	0xb957731e	-0.00020546882
39	0x3d712811	0.0588761
40	0xbcd7e79b	-0.026355555
41	0x3d372fee	0.044723444
42	0x3c380f2c	0.011234086
43	0xbda8f19a	-0.08249207
44	0x3d0dc148	0.034608155
45	0xbcc7f088	-0.024406686
46	0x3d3779c2	0.04479385
47	0x3caa5206	0.020791065
48	0x3d63cd20	0.055615544
49	0xbd592d60	-0.05302179
50	0x3d66fe54	0.05639489
51	0x3d0e8473	0.034794282
52	0xbd985e5b	-0.07439872
53	0x3d88f104	0.06686595
54	0x3bd10dc2	0.006379814
55	0x3da2f8b2	0.07957591
56	0xbd037b95	-0.03210028
57	0xbd95e95a	-0.07319899
58	0xbb972179	-0.0046121445
59	0x3ce92295	0.028458873
60	0x3bf98414	0.007614622
61	0xbc843264	-0.01613731
62	0xbd6d485d	-0.05793034
63	0xbc36e3f5	-0.011162748
64	0x3d4d83e8	0.050174624
65	0xbd96c0f7	-0.07361024
66	0x3d8ffcce	0.070306405
67	0xbc149c44	-0.00907046
68	0xbd2e5bf9	-0.04256818
69	0xbd20c0ab	-0.039246242
70	0x3d87050a	0.06592758
71	0xbda62253	-0.081120156
72	0xbd400b89	-0.046886
73	0xbdb7efe9	-0.08981306
74	0xbd7b94fb	-0.061421376
75	0x3cdb4178	0.026764616
76	0xbd5792fe	-0.052630417
77	0x3baf148c	0.0053430256
78	0x3d29132c	0.04127805
79	0xbd9687ef	-0.07350146
80	0x3d4ad15f	0.049516078
81	0xbca3a8a8	-0.019977883
82	0xbda0bee4	-0.078489095
83	0x3d180cef	0.03712171
84	0x3da8e8e6	0.08247547
85	0xbb327144	-0.0027228156
86	0xbbb669fd	-0.005566834
87	0x3d255c52	0.040371247
88	0xbd1fea1b	-0.03904162
89	0x3cee3186	0.029076349
90	0x3bcfc089	0.0063400907
91	0x3c260ed9	0.010135376
92	0xbbb1c5f2	-0.0054252082
93	0xbd89a2e6	-0.067205235
94	0xbd36eb51	-0.04465801
95	0xbc2114b0	-0.009831592
96	0xbd1ce749	-0.03830651
97	0xbd311d09	-0.04324058
98	0x3c86f9b4	0.01647649
99	0xbc1c5053	-0.009540635
100	0x3ca6984b	0.02033629
101	0xbd0c444a	-0.034244813
102	0x3cc77e58	0.024352238
103	0xbda5c6ca	-0.08094557
104	0x3d2b3b49	0.041804586
105	0x3c845350	0.016153008
106	0x3d4faafc	0.050700173
107	0x3d2b0616	0.04175385
108	0x3c42b5f3	0.0118842
109	0x3bb97143	0.005659254
110	0x39b06df2	0.00033651252
111	0x3ce000c6	0.027344119
112	0x3dab9ecb	0.08379897
113	0x3d28569b	0.04109822
114	0xbbcd271f	-0.006260767
115	0xbd587bcc	-0.052852437
116	0x3d03c1c5	0.032167215
117	0x3d36aa02	0.044595726
118	0x3d71bed2	0.05901987
119	0x3bc1a735	0.005909825
120	0x3dabe6fc	0.08393666
121	0x3d4c86a4	0.04993309
122	0xbcacf4ea	-0.021112878
123	0x3d6e5c9a	0.05819378
124	0x3d6241bd	0.055238474
125	0xbc897adf	-0.016782222
126	0x3d261f0e	0.04055696
127	0x3da29a72	0.07939614
