ddqn_out_softmax/dqn_ep5700.pt (torch, 464501 bytes, 24 tensors)

net.0.weight f4 [128, 77]
000000 65 11 e9 3f 8d 6a 69 3d 26 5a 6c bd 51 b6 23 bd
       1.8208433 0.05698638 -0.05770316 -0.039968792
000010 5a ca 88 bd af d1 03 3d 1a a2 6f 3c 1b e4 ab 3d
       -0.066792205 0.03218239 0.01462605 0.08393117
000020 3c 6f 44 bd e5 6d 06 3e a5 6e e8 3b 7d 37 35 3b
       -0.047957644 0.13127859 0.007093268 0.0027651482
000030 53 15 09 be 65 3e 50 bd c7 ba 57 bd 85 99 e9 3c
       -0.13387041 -0.050840754 -0.05266836 0.028515587
000040 56 8b b8 3c 1f e8 93 3d 2d 12 ac bd b5 40 5c bd
       0.022527378 0.07222008 -0.08401904 -0.053772647
000050 9d 8e 18 3d b6 af bd 3d 35 ca 00 bc 04 ed 67 3d
       0.03724538 0.0926203 -0.00786071 0.05662252
000060 25 b5 81 bc 4e db 5a 3d 25 3c dd 3d 79 bb 37 be
       -0.015833447 0.0534318 0.10802487 -0.17942609
000070 35 4f f2 bc fb 68 2a 3c 80 02 73 bd 8a df 1d 3c
       -0.029578784 0.010401006 -0.059328556 0.009635815
000080 6b 2d 89 bd 36 2a ac bd d9 5c 4b bd 79 32 c8 bd
       -0.06698116 -0.084064886 -0.049649093 -0.09775252
000090 4d 9b 5b bd 8a 81 be 3d f5 4c 3f 3d 19 40 51 3d
       -0.053614903 0.09302051 0.04670425 0.05108652
0000a0 46 90 75 3c dc 3f 53 bd b5 5a d6 bb 16 55 00 be
       0.014988011 -0.051574573 -0.006541575 -0.12532458
0000b0 aa 86 29 bd 9d ef d4 bb 5f f5 4e ba ae cc 7f 3d
       -0.04138819 -0.0064982907 -0.00078948395 0.062451057
0000c0 fc aa 30 bc 83 00 0a 3d 26 fd 28 3d cf e1 02 3e
       -0.010782953 0.033691894 0.041257046 0.12781452
0000d0 16 73 65 bd 40 7a 10 3c ab dd 97 3d ec e2 5b bd
       -0.056017958 0.008818209 0.07415327 -0.053683206
0000e0 c1 3e 85 3c 0b 71 bd bd 97 40 aa bd b5 69 9a bd
       0.016265275 -0.09250077 -0.08313101 -0.07539693
0000f0 5c 0b 8e 3b 17 1e 74 3d 78 f9 14 be cb d4 3e 3d
       0.0043348502 0.05959901 -0.1454829 0.046589654
000100 1b f2 cb 3d 23 59 df bd be 96 03 3e 28 37 9d 3c
       0.09958287 -0.10905673 0.12850472 0.01919134
000110 2c 05 d2 3c 15 8c 41 3d 17 34 30 bd fc f9 17 be
       0.025637232 0.047252733 -0.043018427 -0.14841455
000120 ec 0e 52 3d 70 86 ce 3d fc 9a c3 3d d7 9a c3 3d
       0.05128376 0.10084236 0.09551045 0.09551018
000130 a5 d1 97 3c 38 a8 d1 3f 47 58 0c 3c 75 4d ac bd
       0.018532583 1.6379461 0.008565969 -0.08413211
000140 aa 61 18 bd 24 03 cd 3d 93 7c b4 3d 61 2d 18 be
       -0.037202515 0.10010365 0.08812823 -0.1486106
000150 18 c8 a7 3b 36 0d 2a bd 96 87 be bc 4f cf 13 3d
       0.0051202886 -0.041516505 -0.023258012 0.036086377
000160 18 af ce 3d 4d f8 10 bd 31 44 90 3d 56 7b 48 3d
       0.1009199 -0.035393048 0.070442565 0.048945747
000170 74 6b b5 3d 05 36 d9 3c 09 bb d6 bd 43 a2 a5 bd
       0.08858386 0.026515016 -0.10484893 -0.080875896
000180 96 37 61 3d bc b0 b3 3c 34 c6 e4 bd 75 1d ca bb
       0.05498465 0.02193486 -0.11170617 -0.0061680623
000190 02 92 eb 3d 89 30 8c 3d 47 c7 f9 bd 9c 68 0a bd
       0.11502458 0.06845195 -0.12196212 -0.03379117
0001a0 1c 23 00 be 58 9b b2 3c 93 ea 25 3d 7d 85 53 bd
       -0.12513393 0.02180259 0.04050691 -0.051640976
0001b0 87 77 97 3c d7 f6 bb 3c d5 4f 26 3d 5c 78 bf 3d
       0.018489612 0.02294485 0.040603478 0.093491286
0001c0 74 f0 6f bd 69 67 d4 3d 5f 8f 94 3d 29 be c8 bd
       -0.058578923 0.103712864 0.07253908 -0.09801895
0001d0 4e 0e f8 bc 3d 79 8b bd 1b 2c 30 bd e3 fa c8 bb
       -0.030280259 -0.06810234 -0.043010812 -0.0061334237
0001e0 98 c1 f7 3c 45 2d 34 3c 20 85 8c bd c1 32 d9 3c
       0.03024368 0.010997121 -0.06861329 0.02651346
0001f0 a3 e9 da bd 34 52 76 3d b0 0f d0 bd 17 e1 b2 bc
       -0.10689094 0.06013699 -0.10159242 -0.021835847
000200 31 63 ac bc 03 d7 0f bd 96 cd 48 3c 61 ab 99 3c
       -0.021043392 -0.03511716 0.012256047 0.018758478
000210 6c 14 89 bd 39 52 9a bb 39 25 a3 3d bf 5b 5f bc
       -0.06693348 -0.0047095087 0.07966084 -0.013632714
000220 a7 9a 9e bc 6f 8b 88 bd 42 21 d2 3c 3b 20 18 3d
       -0.019360853 -0.0666722 0.025650624 0.037140112
000230 68 fd 21 3e 4d b2 70 3c 07 b3 d2 3d 24 39 aa 3d
       0.15819323 0.014690948 0.10288053 0.0831168
000240 9d 69 d2 bc b5 b1 02 be fd 35 a2 3d 1f 0c 30 3d
       -0.025685126 -0.12763102 0.07920454 0.04298031
000250 8f 8b 72 bd 29 81 ae bd 45 88 e5 bd 59 9c cd bd
       -0.059215125 -0.08520729 -0.11207632 -0.100395866
000260 45 31 83 bc bc 20 78 3d 83 09 43 3d e9 fe d5 bd
       -0.016014704 0.060578093 0.047616493 -0.10449011
000270 c9 97 15 3d 26 80 0a be ab ff 74 bd 7e af 3c bd
       0.036521707 -0.13525447 -0.059814136 -0.0460658
000280 a5 64 64 bd 35 69 39 bc 80 24 c9 bd 30 90 9e bd
       -0.055760045 -0.011316587 -0.09821415 -0.07742345
000290 02 8e e5 bc 7c 12 10 3c 43 8e 4d bd 42 31 ad 3d
       -0.028021816 0.0087934695 -0.0501845 0.08456661
0002a0 c1 81 e3 bd e9 5f 99 bb a0 70 d5 3d 16 ef 4f bd
       -0.11108733 -0.004680623 0.10421872 -0.05076512
0002b0 5b d6 dd 3d 7d 3b 3f 3d 41 88 c7 bd 6e 91 1c 3c
       0.10831901 0.04668759 -0.09742785 0.0095561575
0002c0 ab ff 92 3c 4d 39 9c bd e8 64 cc 3d 03 cd e7 bd
       0.017944178 -0.07628117 0.09980184 -0.113184
0002d0 cc 1d 88 3c 24 67 92 bc da 5f 95 3d 60 27 42 3d
       0.01661577 -0.017871447 0.07293673 0.047400832
0002e0 18 13 3c 3d 9e 23 27 3d 8c 6a 98 bb 28 fa b9 3b
       0.045916647 0.04080545 -0.0046513733 0.005675573
0002f0 36 d8 bb bd 75 39 8d 3d 82 d0 ac 3d 4f c9 aa 3d
       -0.09172098 0.06895725 0.08438207 0.08339178
000300 ef 88 99 bd 75 03 2c 3c 71 3b d3 bd 3d 74 5a bd
       -0.07496821 0.010498871 -0.10314072 -0.05333351
000310 9c c6 a3 bd 85 4d 38 3d b3 76 bb bd 05 99 47 bb
       -0.07996866 0.044995803 -0.091534995 -0.0030456197
000320 09 74 9f 3c 8b 8c 98 3d 53 a5 ff bd 4c c6 a7 bd
       0.01946451 0.074486814 -0.12482705 -0.08192119
000330 4a 29 7e bd cf 93 d6 3d d2 78 3e bd 86 b0 04 3e
       -0.062051095 0.10477411 -0.046501942 0.12957963
000340 85 71 2e 3d 96 8d 37 bd 68 e8 5d 3a 17 2e 8c bc
       0.04258873 -0.04481276 0.0008465112 -0.017111821
000350 92 7f a1 3c 0f 0b 8e bd 7c 6b 86 bc 1f 7a 5b 3d
       0.01971415 -0.06935703 -0.016408674 0.05358326
000360 d5 b4 9e bd b5 57 66 bc f9 96 cc 3d a6 01 b6 bd
       -0.07749335 -0.014058997 0.09989733 -0.08887033
000370 99 8f bd bb 2a 63 1c 3e ee b2 cb 3d 34 ef cd 3b
       -0.0057849404 0.15272203 0.099462375 0.0062846188
000380 3d c2 cb bd 58 75 8f 3d 38 3d bc bc ae fd bb bd
       -0.099491574 0.070048034 -0.02297841 -0.09179245
000390 cf b1 ef bd 6e 75 49 bc 8d 52 da 3b 86 b3 12 40
       -0.11703836 -0.012296064 0.006662673 2.2922072
0003a0 87 96 12 3c 1f 81 c1 3d fb 38 b8 3d 9d 42 29 bd
       0.008947021 0.09448456 0.08995243 -0.041323293
0003b0 de dc 5e 3d f6 aa c2 bb 01 ea e7 3b 20 b1 4d 3d
       0.054409854 -0.0059407903 0.007077456 0.050217748
0003c0 ae fc 32 3d 86 03 5c 3d e9 89 81 bc 68 5b d7 3c
       0.043698005 0.053714298 -0.015812831 0.026288703
0003d0 11 31 51 3d d7 7f e1 bd 67 29 84 3d 31 01 c1 bd
       0.051072184 -0.11010712 0.06453209 -0.09424055
0003e0 08 87 b0 3b 8a e9 d6 bc ee bb 85 bd 59 47 20 3c
       0.0053871907 -0.026234407 -0.06529985 0.009782636
0003f0 22 57 c8 3d 82 c9 4c bc d3 46 93 bd aa c5 96 bc
       0.09782244 -0.012499215 -0.07191243 -0.0184048

net.0.bias f4 [128]
000000 90 0c e5 bc ad b4 45 bd a9 00 95 bd 4c b0 fa 3c
       -0.027960092 -0.04826801 -0.072755165 0.030601643
000010 54 59 6b bd 67 b5 75 bd 8e 8a 34 3d c1 ab 24 bd
       -0.057458237 -0.059987452 0.04407745 -0.04020286
000020 a1 54 97 3c d7 62 83 3b 38 7d 2e 3d 4d f6 88 3d
       0.018472971 0.0040095854 0.042599887 0.06687603
000030 75 1e cd bd 72 31 65 bd 9e d4 e4 3d f8 f3 bd 3c
       -0.10015575 -0.055955358 0.11173366 0.023187622
000040 f1 ec 3e bc b0 31 a0 3d b4 fb e2 3d 88 35 e6 3c
       -0.011653171 0.07821977 0.11083165 0.028101698
000050 42 6b 94 bd a0 21 e1 3d 83 a2 e6 bd 88 44 03 be
       -0.0724702 0.109927416 -0.112614654 -0.12819111
000060 4d be e8 3c 79 2a e7 bc 77 32 e0 bd ae ed ba 3d
       0.028411055 -0.028218495 -0.109471254 0.09127365
000070 1f 04 98 3c e1 ad 91 bd 28 f0 75 3d 7c 78 a3 3d
       0.018556653 -0.07113243 0.060043484 0.07981965
000080 c0 ec 45 bc 88 39 b6 3d 85 3a 72 3d a2 89 0e 3d
       -0.012080371 0.08897692 0.05913784 0.034799226
000090 97 f6 79 bd 63 ec 9f bd 1c 25 62 bc b2 35 e1 bc
       -0.061026182 -0.07808759 -0.013802793 -0.027491424
0000a0 e8 54 d4 bd 42 77 d6 bd fd d2 8c bd a0 70 26 3c
       -0.10367757 -0.104719654 -0.0687618 0.010158688
0000b0 17 2e 34 bd 71 17 c4 bd 0c 1d a1 bc 8d 41 1c bd
       -0.043989267 -0.095747836 -0.019667171 -0.03814845
0000c0 b2 7a 0e bd b2 22 85 3d 0c 80 2c 3d b4 32 a4 3d
       -0.03478498 0.06500758 0.042114303 0.08017483
0000d0 61 83 f9 3d 70 7c 8a 3b e0 43 40 bd 91 84 4d bb
       0.12183262 0.00422626 -0.04693973 -0.0031359533
0000e0 21 aa 12 3d 1f a9 f5 bc a1 1a b9 3d 2c 7e 88 3d
       0.03580678 -0.02998787 0.09038282 0.066646904
0000f0 7a 30 b5 bd 66 01 14 3d 06 c3 80 3c cb f2 3a 3d
       -0.08847137 0.036134146 0.015717994 0.0456417
000100 be 9a 7a bd 9e a0 e7 3d 40 d7 23 bd 67 36 30 3d
       -0.06118273 0.11309932 -0.0400002 0.043020632
000110 63 dd 76 bd 97 03 46 3d 17 7b 1d bd 94 e1 49 bd
       -0.060269725 0.048343267 -0.038447466 -0.049287394
000120 10 2c cc bd 0f a3 e6 3c 0d e2 d7 3c 21 fc c5 3c
       -0.09969342 0.028153924 0.026352907 0.024168076
000130 1b 90 4e bd 5d f7 7f 3c b8 66 5a bd 02 23 c5 3c
       -0.0504304 0.015622941 -0.053320616 0.024064545
000140 94 14 ee 3d 64 0f cb bd 44 4e 47 3d 9e 01 6e bd
       0.11625019 -0.09915045 0.048658624 -0.05810701
000150 23 26 fb 3c 70 ac cb bc 78 7e 5e 3d 8b af 9b bd
       0.030657833 -0.024862498 0.05431983 -0.076018415
000160 bf 26 87 3d dd db 8b 3d 32 77 a6 bd e0 88 a7 bd
       0.06599187 0.06829045 -0.081282035 -0.08180404
000170 1a 42 81 3d 75 d3 a7 bd bd e7 2b 3d 41 17 7b bd
       0.06311436 -0.08194629 0.04196905 -0.061301474
000180 ee a4 c3 bd 3a f3 1c 3d 15 78 1f bd b2 c3 6b bd
       -0.09552942 0.038317896 -0.03893288 -0.057559676
000190 06 ba 24 3d 5c 1a 57 3d 6d ef b4 3d 8d ba d6 3d
       0.04021647 0.052515373 0.08834729 0.104848005
0001a0 e9 99 44 3d 84 e1 06 bd 94 e6 ce 3c 99 f5 a5 3d
       0.047998343 -0.032929912 0.025256433 0.08103485
0001b0 ad 4b a0 bd fa 8e b6 3d b1 e5 1c 3d 7a d2 4b 3d
       -0.07826934 0.08913989 0.03830499 0.049761273
0001c0 2f 31 9d 3c ec a1 d3 bd 65 28 1c 3d 5e 3c bf 3b
       0.019188492 -0.103336185 0.03812446 0.0058360538
0001d0 bb 31 a7 ba 57 9b 55 bd a1 32 b0 3d 58 8a c1 bc
       -0.001275591 -0.052150097 0.08603407 -0.023625538
0001e0 f5 3a 10 bb 71 dd bf bd c5 00 e5 3d f3 0b dd bd
       -0.0022007797 -0.093684085 0.111817874 -0.10793295
0001f0 15 0d 88 3d 7d 02 4e 3d 23 d3 a4 3c 7e f7 e1 bd
       0.0664312 0.05029534 0.02012021 -0.110335335

net.2.weight f4 [128, 128]
000000 8a 04 08 bc 8c 67 f2 3c 6b 6a 05 be 2a f1 93 bc
       -0.008301863 0.02959039 -0.13028876 -0.018059332
000010 92 69 41 bd d2 57 60 bd 34 d4 85 3d de 9e eb 3d
       -0.04721982 -0.054771252 0.06534615 0.11504911
000020 bf 26 bd bd e2 5d 33 3d 55 19 42 bd 20 cb 40 3d
       -0.09235906 0.043790706 -0.04738744 0.047068715
000030 19 e0 9d bd c9 f5 57 bc d4 0d 91 bc c2 a3 d1 3d
       -0.07708759 -0.013181158 -0.01770679 0.102363124
000040 08 6d 87 3d 33 74 2d bc 62 8c 9f bc f4 38 ea bc
       0.06612593 -0.010586786 -0.01947612 -0.02859161
000050 17 eb 25 bb 8b 70 ff 3c b3 80 ae 3c 00 06 cc 3c
       -0.0025317126 0.031181594 0.021301603 0.024905205
000060 7a 2b 7c bc 96 30 e9 3d a3 73 11 bd 30 9f a6 bd
       -0.015391225 0.1138622 -0.03551067 -0.08135831
000070 ac e9 44 3d e2 57 25 3d bd 9b e6 3c ed b7 b0 3d
       0.04807441 0.040367015 0.028150434 0.08628831
000080 65 cd 11 bd 1e ee 0c bd 98 6a c3 3d fb 69 42 3d
       -0.03559627 -0.034406774 0.095418155 0.047464352
000090 8f 3b 4c 3d 43 e5 96 bd e6 84 37 3b 25 0e c5 bc
       0.049861487 -0.07367947 0.0028002798 -0.024054596
0000a0 cf 33 8d bd 7c 48 b9 bc ef 12 10 3d 61 83 87 3c
       -0.06894647 -0.022617571 0.035174306 0.016542139
0000b0 5e d6 a1 3d 30 28 0c 3c c8 39 9c 3c 83 f6 9e bc
       0.079022154 0.008554503 0.019070521 -0.019404655
0000c0 3b 20 c7 3c 84 ac 1f bc 04 53 d7 bb 00 fe e1 bd
       0.02430736 -0.009745721 -0.0065711755 -0.11034775
0000d0 85 e9 87 bb 22 e6 91 3c 93 84 98 3c d1 2b a9 bb
       -0.0041477107 0.017809931 0.018617904 -0.005162694
0000e0 a4 9e d7 bd b4 c3 d9 bb c3 25 a2 bc e4 09 b6 3d
       -0.10528305 -0.006645644 -0.019793397 0.08888605
0000f0 97 ae 47 bd a9 8c 51 3d 75 f8 0d bd 98 f7 29 bd
       -0.048750486 0.051159535 -0.034660775 -0.04149589
000100 8c 9c 0e be 53 21 a0 bd 8f 90 8f bb 93 bd a0 bd
       -0.13926905 -0.07818856 -0.0043812464 -0.078486584
000110 51 6d 0e 3d 45 35 54 3d 19 40 9f bc 88 1a d2 3c
       0.03477222 0.051808614 -0.019439744 0.025647417
000120 4b 0e d1 bc 94 9c 5b 3d 91 2a 2a be 72 79 a4 3d
       -0.02551951 0.05361612 -0.166178 0.08030976
000130 e1 7b dc bd c0 d6 c9 3b 19 f2 ec 3d 60 29 d1 bd
       -0.107658155 0.0061596334 0.11569614 -0.1021297
000140 92 36 c7 bd a0 3d 35 3d e5 e7 93 bd f0 eb 2e bb
       -0.09727205 0.044248223 -0.07221965 -0.0026690923
000150 ea 35 24 3d 84 cc a9 bd 34 c7 10 bd df 20 da bc
       0.04009048 -0.082909614 -0.035346225 -0.026627002
000160 71 45 d4 3c ff ff bc 3d 2e 5b a3 3d 98 9d a8 bd
       0.025912018 0.09228515 0.079763755 -0.082331836
000170 25 c1 1e bd 9e c6 96 bd e8 eb 5a 3b 3e 48 47 3d
       -0.038758416 -0.07362102 0.0033404771 0.04865288
000180 d0 08 aa bd 6f 1e a4 bc a6 87 4e be 72 10 c5 bc
       -0.08302462 -0.020034043 -0.20168933 -0.024055693
000190 6a ea d6 3d 6e 56 b4 bd 48 d2 d7 bc fe c5 96 bc
       0.1049393 -0.08805548 -0.026345387 -0.018404957
0001a0 d2 d6 fb 3d ba f7 a5 bd 73 9b 61 bd c3 27 5b 3b
       0.12296833 -0.08103891 -0.05507989 0.0033440448
0001b0 ee 0e c5 bd 32 11 a4 3d d3 55 84 bd d7 e6 de bc
       -0.09621988 0.08011092 -0.06461682 -0.027209682
0001c0 2b ae 54 bd eb 30 ee 3c 6f 02 2c bd 6e 42 a8 3d
       -0.051923912 0.02907606 -0.04199451 0.082157955
0001d0 f3 b0 ed bd 78 61 a1 bd 71 b6 82 bd 87 03 ad bd
       -0.11606016 -0.07879919 -0.06382454 -0.084479384
0001e0 a0 ad a2 bd 03 34 09 3b 9f 5d bd 3d d2 27 a1 3c
       -0.079432726 0.0020935542 0.092463724 0.019672308
0001f0 9b c3 d1 bc e2 65 bb 3b 15 ec 92 3d 27 75 a2 bd
       -0.025605967 0.0057189325 0.07173935 -0.07932501
000200 c6 06 72 bc 74 70 95 3d e4 d8 03 3a 19 21 5f bd
       -0.014772123 0.07296839 0.00050295726 -0.054474924
000210 c7 8b a4 3c 6d fd 08 bd 9e 63 23 be 84 95 09 3d
       0.020086182 -0.03344481 -0.1595597 0.033589855
000220 1c 03 f6 3d 66 41 39 bc 0e 0b fb 3c f6 85 8a bc
       0.12012312 -0.011307096 0.03064492 -0.01690958
000230 70 3f c7 bb 5f 4b 3d 3e 24 95 a2 bc 80 41 12 bd
       -0.0060805604 0.18485783 -0.019846506 -0.035706997
000240 8d fe c6 bd f8 18 b3 bb f0 c0 ba ba 63 6f eb bc
       -0.097165205 -0.005465623 -0.0014248174 -0.028739637
000250 a3 d0 7d bd 19 a8 0e 3e 02 5a 10 3e db 85 e6 bc
       -0.06196655 0.13931312 0.14096835 -0.02814
000260 66 d7 90 bd 37 3c be 3c 49 96 d6 bc b4 d9 e3 3d
       -0.07072334 0.023222072 -0.026194708 0.11125508
000270 10 50 c1 3c 3f f8 86 3d 2a 6f 80 bd 94 f4 ec bc
       0.023597747 0.06590318 -0.06271203 -0.028925218
000280 a6 6e 39 3d 52 64 25 3d a5 2b b8 bc 6a 5c be 3d
       0.04527154 0.040378876 -0.022481749 0.0929497
000290 0b a4 cd 3d 40 a0 d9 bd fa 11 08 bd 01 2f be b9
       0.10041054 -0.106262684 -0.03322027 -0.00036274645
0002a0 a4 f5 83 bd cb 7a c6 bd d3 20 8b 3d b5 5a 9b 3c
       -0.064433366 -0.0969139 0.0679337 0.01896415
0002b0 1a 50 1d 3d e2 d5 34 bd bf 46 8d 3d aa f7 08 3e
       0.03840647 -0.044149287 0.06898259 0.13375726
0002c0 07 ee 3d 3d bd a8 9f 3d d1 01 fa 3d 0e 70 68 3d
       0.04636958 0.07795856 0.12207378 0.05674749
0002d0 05 ec 23 bd 03 00 47 3d d8 03 ce 3d c8 02 10 3e
       -0.040020008 0.048583996 0.10059327 0.14063561
0002e0 a5 62 2d bd 23 95 5d 3d b3 ee 9a bd 77 c9 8e bd
       -0.042330403 0.054097306 -0.075650595 -0.0697202
0002f0 24 f8 8a 3d 95 11 b6 bd d5 66 97 3c 01 47 52 3e
       0.0678561 -0.08890072 0.018481651 0.20534898
000300 3a 2e 1e 3d 82 b1 0b be 85 ac 39 3d 25 0f a3 3c
       0.038618304 -0.13641933 0.045330543 0.019904682
000310 2d 07 ca bc 97 a3 4b bc 7e ea 83 3d 5b 2e b5 3d
       -0.024661625 -0.01242914 0.0644121 0.08846732
000320 94 e6 3b 3d bf 89 8b 3d 2f 87 a0 3d 91 ca df 3d
       0.045874193 0.06813382 0.07838284 0.10927308
000330 79 88 c5 3d 82 ba aa 3d cb 6a 6f bc 95 c7 88 3d
       0.09645171 0.08336355 -0.014612864 0.06678692
000340 ca 1e f0 bb 8e ea bc 3d 93 e2 1b 3e 2a 7b 34 be
       -0.007327889 0.09224425 0.1522315 -0.17625108
000350 27 25 63 3d 1f 02 95 3d 59 18 31 bd 9c be e4 3c
       0.055455353 0.07275795 -0.04323611 0.02792292
000360 34 41 6e bd be 38 91 3d b7 c6 87 3c b0 b3 e0 3d
       -0.05816765 0.07090901 0.016574247 0.10971773
000370 68 6f 1a 3d dc 66 c4 3d 4f cc a5 3d 6a bf af bb
       0.0377039 0.09589931 0.080956094 -0.0053633945
000380 f1 74 29 3d 9e fd ac bd 7f 67 98 bc 1d fe 10 3e
       0.04137129 -0.08446811 -0.018604038 0.14159437
000390 af 4c cd 3d 20 46 12 be 1c 32 08 be 28 f8 a0 3d
       0.10024392 -0.14284563 -0.13300365 0.07859832
0003a0 92 b5 36 3d 02 92 3f bd d2 76 33 be 72 53 96 3c
       0.044606753 -0.046770103 -0.17525795 0.018350337
0003b0 bf 1b 8c bd b4 87 fc 3d 44 ff be bb bc 4c 06 bd
       -0.0684123 0.12330571 -0.00582877 -0.032788023
0003c0 e2 0f 7e 3c 8f 50 29 3d 0e f7 fe bc af 78 84 bc
       0.015506716 0.041336592 -0.031123664 -0.016170828
0003d0 ab 16 eb bb d3 d5 2d be 34 0c 1a bd 22 55 07 bd
       -0.007174333 -0.16976099 -0.037609294 -0.033040173
0003e0 c0 b7 2c bd 35 5a 27 3e fa d2 06 3d 0a 02 cf 3c
       -0.042167425 0.16343005 0.032916047 0.025269527
0003f0 81 48 3e bc 6a f4 11 bd fd f4 9a 3c bd 29 a2 3d
       -0.011613966 -0.035633482 0.018915648 0.07918117

net.2.bias f4 [128]
000000 76 69 17 bd b0 2a 88 bd 99 ba 8d 3d 82 9f 4c 3d
       -0.03696581 -0.06648767 0.06920356 0.049956806
000010 a5 07 42 bb e1 1e 41 bd 71 1e 56 3d d4 80 9d bd
       -0.0029606607 -0.04714859 0.052275125 -0.07690588
000020 a1 7c bb bd 54 58 79 3d 95 ac 5e 3d 8b 01 d5 bc
       -0.091546305 0.060875252 0.054363806 -0.026001712
000030 e8 ef 82 3d 71 ce 10 bc 6c 3a 8f 3c d5 4d 22 3c
       0.06393415 -0.008838282 0.017483912 0.009906252
000040 e7 33 78 3d 95 e8 9e 3d 52 72 26 3b 66 d7 68 3d
       0.060596373 0.07759205 0.002539773 0.056846045
000050 1e 1b 88 3c 62 49 1d 3d 61 3d 3d bc 16 db 7d bd
       0.016614493 0.03840006 -0.011550278 -0.061976515
000060 d8 b7 8e 3d d9 de 43 3d 8a fe e2 bd e9 ce 8b 3b
       0.06968659 0.047819946 -0.11083706 0.004266609
000070 24 4b 5e 3d 29 8f 0f 3d a3 52 25 3d 6c 36 3b 3d
       0.05427088 0.035048638 0.04036201 0.045706198
000080 3f 2b a6 bd 60 1b 78 bd f8 61 a7 3d 5d a4 a9 3b
       -0.08113717 -0.06057298 0.08172983 0.0051770643
000090 e1 5c ce bc af 5c a1 3d 74 87 99 bb ce 98 69 3d
       -0.025190772 0.07879006 -0.0046853367 0.05703049
0000a0 1d 72 29 bd 8c cc 21 3d 69 1a 34 39 e8 ae be bd
       -0.041368593 0.03950171 0.00017175976 -0.093107045
0000b0 55 ed fb 3c b4 0c de bc 4d 4b 33 3d e4 e2 34 3c
       0.030752817 -0.027105667 0.043772984 0.011040423
0000c0 c5 8f 3e 3d 93 95 69 bd 5d 5e 58 3d 22 b1 f2 3c
       0.046523828 -0.05702741 0.052824367 0.02962548
0000d0 fe 30 a1 bd 93 71 71 3d 98 47 31 3c ba 42 a4 3d
       -0.07870673 0.058946203 0.010820292 0.080205396
0000e0 c7 ba 36 bd a6 84 91 bd 0b a2 56 bc 3b 38 d2 3c
       -0.04461172 -0.07105379 -0.0131001575 0.025661578
0000f0 fc a8 f7 39 19 53 bb bc 04 ef 6b bd bc 3b 8f bc
       0.00047237414 -0.022866772 -0.05760099 -0.017484538
000100 fe 51 12 3d ea 4e ab bd 42 c2 71 3d 1d b8 a3 bc
       0.035722725 -0.08364661 0.05902315 -0.019985253
000110 26 39 5b bd ab c0 20 bd 32 06 53 3d 39 0b 99 bd
       -0.053521298 -0.039246242 0.05151958 -0.07472844
000120 b0 2d 46 bd 3b a0 c9 bd 97 20 6f bd 78 41 db 3c
       -0.048383415 -0.09845015 -0.05838069 0.026764616
000130 d9 3b 83 bd 6f 5e a6 38 7a ba 1e 3d 31 74 95 bd
       -0.064078994 7.9330865e-05 0.038752057 -0.072975524
000140 cd b2 3d 3d 18 b2 c1 bc 2d 85 b7 bd 0c bf 10 3d
       0.046313096 -0.023644492 -0.08960948 0.035338446
000150 0e 51 9a 3d 8e 4c 14 bc 38 7b d5 bb 0b d4 52 3d
       0.07534991 -0.009051455 -0.006514933 0.05147175
000160 1f bb 42 bd e3 96 eb 3c b5 22 e7 3a 1a 62 a4 bb
       -0.047541734 0.028758472 0.0017634245 -0.0050165774
000170 b0 97 9e bc cf 43 85 bd 8a d2 21 bd a3 0c 94 bc
       -0.01935944 -0.06507074 -0.039507426 -0.018072432
000180 ec ce 10 bd ab e8 2c bd 07 7a 54 3c 34 3f c5 bc
       -0.035353586 -0.042214077 0.012968547 -0.02407799
000190 7e 04 a5 3c 85 03 19 bd 5c f1 7c 3c 4a c5 ab bd
       0.020143744 -0.037356872 0.015438404 -0.08387239
0001a0 47 b2 10 3d 4c af 32 3c 01 2c 4b 3d a5 6d 01 3d
       0.03532627 0.010906052 0.049602512 0.031598706
0001b0 02 ca e1 3b 9a 00 48 bb 10 b4 25 bb eb 51 99 3c
       0.0068905363 -0.0030517937 -0.0025284328 0.01871582
0001c0 1b fb a6 3d 0b 8a 12 3d de cd 27 bb 0c 49 60 bd
       0.08153363 0.03577618 -0.0025604884 -0.054757163
0001d0 68 c4 bb 3c e2 91 3f 3d e7 41 66 3d d5 a5 23 3c
       0.022920802 0.046769984 0.056215193 0.009988268
0001e0 89 94 a5 3d e7 55 30 3d 3b b0 c4 bc 1f 4b 46 3d
       0.080849715 0.043050673 -0.024009814 0.048411485
0001f0 44 3c 51 3d b5 60 d8 bc 66 ce 0e 3d 48 b4 9a 3d
       0.051082864 -0.026413301 0.034864806 0.07553917

net.4.weight f4 [15, 128]
000000 83 27 97 bd 0b 95 ea 3d a7 bd 79 3c 3c c4 0b 3c
       -0.07380583 0.11454209 0.015242971 0.008530673
000010 e2 a9 aa 3d 87 7f 8a bd 8b 76 95 bd 47 66 3f 3e
       0.08333184 -0.06762605 -0.07298001 0.1869136
000020 02 d8 6e 3d 3e 6a 6f 3c 03 68 1c bd b8 97 0b bc
       0.05831147 0.014612732 -0.03818513 -0.008520059
000030 ce 10 a2 bd d7 14 20 bc bc ec 97 bd 88 55 44 3d
       -0.079133615 -0.009770594 -0.074182004 0.04793313
000040 4b 81 b6 3c d2 8d a8 bd 69 5b c3 3b 8b 7a c1 bd
       0.022278449 -0.08230175 0.0059618247 -0.09447201
000050 66 84 56 3e b4 78 e2 3d 5e df bb 3c 9b a8 72 3d
       0.20948943 0.110581785 0.022933658 0.059242826
000060 63 53 20 3d a0 0d 60 3d fc 81 5c 3e 96 a9 a8 3d
       0.039142024 0.054700494 0.2153396 0.08235471
000070 14 c8 f2 3d 04 58 24 bd 48 77 f1 3c ae 1b 80 3e
       0.11854568 -0.040123 0.029475823 0.25021118
000080 f2 55 3a bb f4 b5 29 bd ae 95 87 bd c9 c4 bf 3d
       -0.0028432575 -0.04143329 -0.06620346 0.09363706
000090 15 60 c1 bd 64 65 85 3d b8 a7 ba 3c 53 5e 88 3d
       -0.09442154 0.06513479 0.022785053 0.06658616
0000a0 e3 3a 69 3e bf 3a cd 3d 46 12 52 3e 75 b7 02 3e
       0.2277637 0.100209706 0.20514783 0.12765296
0000b0 25 02 8f 3d f4 2b 2a 3d 38 5c 9b bd 41 c1 77 ba
       0.06982831 0.041545823 -0.07585949 -0.00094510993
0000c0 c5 9f 98 3c 00 d2 e5 3d 35 c8 5e 3b a7 c4 d2 bc
       0.018630872 0.11221695 0.0033993844 -0.025728537
0000d0 ba 4b 23 bd 0e 70 14 3e 84 37 28 3c 04 9c aa 3d
       -0.03986714 0.1449587 0.010267142 0.08330539
0000e0 05 c8 36 3d 25 7f a5 bd f1 ee 91 3d 3b d2 0c be
       0.044624347 -0.080808915 0.071256526 -0.13752072
0000f0 08 d8 77 3d 5d fe a4 3d a8 92 ff 3b b6 ea a5 3d
       0.060508758 0.080563284 0.007799465 0.08101408
000100 f7 47 50 3e 4c 33 37 3e 64 3e 6a 3d d1 a3 f5 3d
       0.20339952 0.17890662 0.057188407 0.11994136
000110 bc 0e 00 3e 78 43 59 bc 16 b6 8d bc 0d 89 80 3d
       0.1250562 -0.013260715 -0.01729874 0.0627614
000120 33 fa 65 bd 7e 94 d4 3c f3 b9 61 3d 91 14 83 3d
       -0.05614681 0.025949713 0.055108976 0.06400407
000130 db ae 49 3e 0d d5 e2 3c 80 74 8f 3d f2 41 33 bd
       0.19695608 0.027689481 0.070046425 -0.043764062
000140 b7 81 06 bd fe 13 a1 3d 7c 7e e9 3c e4 a0 c0 3d
       -0.03283855 0.07865141 0.028502695 0.094056875
000150 94 10 30 3d 73 04 6b bd f0 75 38 bc 17 4a 14 be
       0.04298456 -0.05737729 -0.011258587 -0.14481388
000160 44 57 11 3e 6f 03 d9 3d d5 d6 86 3d f2 19 85 3e
       0.14193445 0.10596358 0.06583945 0.25996357
000170 1a cc 47 3e d7 cf eb 3d 58 ba f1 bd 45 eb d2 3d
       0.19511452 0.11514252 -0.118031204 0.1029878
000180 1f 7d 8a bd fe 04 6e bd 2a 38 31 3c 3b 53 6b 3e
       -0.06762146 -0.05811023 0.010816613 0.22980969
000190 cf 88 e0 bd 65 c9 d2 3d 59 81 06 3e 07 89 7b 3d
       -0.10963594 0.10292319 0.1313528 0.061409976
0001a0 ca a0 33 3e 0c 62 36 3e d8 36 b6 3d 11 12 5b bb
       0.17541805 0.1781084 0.08897179 -0.0033427516
0001b0 23 f0 63 3d 71 e3 cb bd d6 de 1c ba ff 4f a8 3c
       0.055648934 -0.099554904 -0.0005984133 0.020545958
0001c0 e9 00 c0 3d cb d7 ac 3d de bf d2 3c 0f dd 93 3d
       0.093751736 0.08439597 0.025726255 0.07219898
0001d0 91 bf 4b ba 88 a7 13 3e 37 49 f9 3d 46 de ad bc
       -0.0007772381 0.14419377 0.12172168 -0.021224152
0001e0 82 68 ab 3d bc 1b cc 3d f5 32 ce 3d 10 8b 51 3c
       0.08369543 0.099662274 0.10068313 0.012789503
0001f0 b7 37 4a bc 3f 62 00 3e a5 eb 09 3d 10 d4 b9 3d
       -0.012342385 0.12537478 0.033671994 0.09073651
000200 68 01 42 bd a2 30 72 3e 8e b5 99 bd df e3 4c 3d
       -0.047364622 0.23651364 -0.07505332 0.050022002
000210 17 fa cd 3d 24 56 61 3c dd 20 e2 bd d7 54 3d 3e
       0.100574665 0.013753448 -0.110414244 0.18489395
000220 50 df e3 3d 34 61 42 3e 7f 35 85 bd 3e dc 7b bd
       0.11126578 0.18982393 -0.06504344 -0.061489336
000230 4e c1 af 3d 5f ff cb 3a a3 49 9e 3d 33 43 59 3b
       0.08581792 0.0015563777 0.07728889 0.0033151626
000240 a4 f8 e6 3d 33 5e db bd c1 fb 1d bd 8f 8f db bd
       0.11277893 -0.107113265 -0.03857017 -0.10720741
000250 99 ea 1b 3e be 34 76 3c c4 d1 dc bd c6 a8 d9 3c
       0.1522621 0.015027223 -0.10782197 0.026569735
000260 cc 01 32 bd f4 d8 93 3b b5 49 4a 3e 05 2b cf 3d
       -0.043458745 0.004511947 0.1975468 0.10115627
000270 cb 0a 1d 3e 73 75 99 bd 29 a6 a7 3d 7d d5 20 3e
       0.15336148 -0.07493105 0.081859894 0.1570644
000280 5a 3c a2 3d 52 fb 54 bd 6c d3 95 bd 5c 16 a2 3d
       0.079216674 -0.05199749 -0.07315716 0.07914421
000290 b1 d2 db 3c ce 76 89 bc 50 9a ae bd d4 0d 80 3d
       0.026833864 -0.016780283 -0.085255265 0.062526375
0002a0 6c ba 1c 3e 7b 94 23 3e ea e7 68 3e aa 56 16 3e
       0.1530549 0.1597461 0.22744718 0.14681497
0002b0 c6 f2 c8 3c c6 45 85 3d db ff 9c bc 85 31 f3 3d
       0.024529826 0.06507449 -0.01916497 0.118746795
0002c0 d2 2b fa bc 8b 82 15 3e 55 ad bf 3d e0 27 a0 3a
       -0.030538473 0.1460058 0.09359232 0.0012218915
0002d0 17 be 7c 3c 98 f3 a7 3d fc 9f dd 3d b9 16 2f 3c
       0.01542618 0.08200759 0.1082153 0.01068657
0002e0 e0 9d b0 3d f5 74 92 bc df 70 5a 3d 83 25 f1 bd
       0.08623862 -0.017878035 0.0533303 -0.11774733
0002f0 ed b3 39 3d 8e ac a8 3d 86 dd 0b 3d 0e 0e e5 3d
       0.045337606 0.08236037 0.034146808 0.11184321
000300 54 f1 5f 3e 1c c5 49 3e 58 13 48 3d 81 ff 20 3e
       0.21869403 0.19704098 0.048846573 0.15722467
000310 60 10 0f 3e fc e8 96 bd d8 8c 1d 3c 26 40 bd bc
       0.1397109 -0.07368657 0.009616099 -0.023101877
000320 af b9 e3 bd dd 96 fd 3d ee 71 29 3e f8 a9 80 bd
       -0.11119401 0.123822905 0.16547367 -0.06282419
000330 14 38 32 3e f7 e3 38 3e cc 60 00 3e 01 a2 0c 3e
       0.17404205 0.18055712 0.12536925 0.13733675
000340 fa ab 9a 3d 85 79 31 bc 2e f6 a0 bb 5d c2 b8 3d
       0.07552333 -0.010832195 -0.0049121594 0.09021447
000350 9a 93 37 bd af ea 81 3c 18 48 0a be 04 a6 31 be
       -0.0448185 0.015858976 -0.13504064 -0.17348486
000360 b7 14 22 3e 82 4f 69 3d c9 2b 44 3d 85 c1 45 3e
       0.15828215 0.05696059 0.04789332 0.19312103
000370 85 bf 70 3e da 55 ca 3d 3d ff 92 bd 06 59 00 3c
       0.23510559 0.09879656 -0.07177589 0.007833725
000380 82 8b c1 bd d9 78 63 bc b1 e2 83 bd 9e 68 7a 3e
       -0.09450437 -0.013883793 -0.06439722 0.24453971
000390 c0 31 66 3d c2 2c 97 3d d8 05 2f 3d e9 86 0f bc
       0.05619979 0.07381584 0.042730182 -0.008760192
0003a0 1d ec 08 3e f1 42 9f 3d e5 b5 52 3d ca 93 d1 3d
       0.1337132 0.0777644 0.051443 0.10233267
0003b0 31 d0 ed bc 1e 73 28 be ee b8 3d bd 64 b5 05 bb
       -0.029029937 -0.16450164 -0.04631894 -0.0020402307
0003c0 1a 4d af 3d 02 f7 67 3d 94 83 b1 3d 74 47 69 3d
       0.08559628 0.05663205 0.08667675 0.05695291
0003d0 cc 29 57 3d 3e 8c fd 3d 24 ec 89 3c bb a4 f2 bd
       0.052530095 0.12380265 0.016836233 -0.11847826
0003e0 69 a4 86 3d b9 ae a6 3d 06 07 61 bc 16 c0 d8 3d
       0.065743275 0.081387945 -0.013734585 0.105835125
0003f0 e2 92 1f be c0 29 3b 3d 44 72 01 3d 87 27 29 bc
       -0.15583375 0.045694113 0.031603113 -0.010324365

net.4.bias f4 [15]
000000 9b f8 3a bd 34 67 ac 3d ce a1 82 bc b0 06 ee bc
       -0.045647245 0.08418122 -0.015946295 -0.029055923
000010 3f 91 55 3c 75 15 0a 3d 26 76 6e 3d 3e 43 36 bd
       0.013035118 0.03371187 0.058218144 -0.04449772
000020 7c 2a 6d 3d 74 98 af 3d 6a 7c e0 3c 6b 0c 86 3d
       0.057901844 0.08574 0.027403075 0.06545337
000030 68 d4 f2 3c ab 87 53 3d 03 08 a8 3c
       0.029642299 0.051643055 0.020511633

net.0.weight f4 [128, 77]
000000 8e ea e8 3f 94 1b 6b 3d b3 dc 6b bd d1 b1 24 bd
       1.819658 0.057399347 -0.057583522 -0.04020864
000010 c6 fc 88 bd 91 ef 05 3d e8 8b 74 3c 7e fe ac 3d
       -0.06688838 0.03269917 0.014925934 0.08446978
000020 8d 17 44 bd e8 6b 07 3e e6 a4 f6 3b a5 a2 1a 3b
       -0.047874022 0.13224757 0.0075269816 0.002359548
000030 1c f2 08 be 0d 9b 4e bd 12 f4 55 bd 20 1c ed 3c
       -0.13373607 -0.050440837 -0.052234717 0.028944075
000040 8a d8 bb 3c bb c3 94 3d a5 39 ab bd ae 8f 5a bd
       0.022930402 0.07263895 -0.08360604 -0.05335968
000050 a4 3f 1a 3d d3 c0 be 3d 45 e1 fa bb b0 8c 67 3d
       0.03765835 0.09314122 -0.0076562488 0.056530654
000060 07 7e 73 bc f4 83 5c 3d db 8f de 3d bf 32 37 be
       -0.01486159 0.053836778 0.10867282 -0.17890452
000070 a5 c4 f6 bc 14 0b 2d 3c 54 1b 72 bd 16 db 24 3c
       -0.030123064 0.010561723 -0.059108093 0.010062
000080 d8 2f 88 bd 2e c6 ab bd d0 01 4a bd 70 82 c7 bd
       -0.066497505 -0.08387409 -0.049318135 -0.09741676
000090 76 6c 59 bd 13 5a bf 3d fc fd 40 3d 20 f1 52 3d
       -0.053081952 0.09343352 0.04711722 0.051499486
0000a0 0c a0 7a 3c a1 9f 50 bd 1f c3 d7 bb 60 8e ff bd
       0.015296947 -0.050933484 -0.0065845395 -0.12478328
0000b0 94 d0 26 bd 7e 10 c9 bb 09 14 d2 b9 d9 07 80 3d
       -0.04072626 -0.006135999 -0.0004006925 0.06251497
0000c0 94 95 2d bc f1 0a 0a 3d 1d 39 2b 3d 5f 3e 03 3e
       -0.010594744 0.03370184 0.041802514 0.12816761
0000d0 17 d6 69 bd 2c 33 1a 3c 0d e3 98 3d 06 2d 5a bd
       -0.057088938 0.009411614 0.074651815 -0.053265594
0000e0 f7 b9 88 3c 88 98 bc bd 14 68 a9 bd 82 13 9a bd
       0.016690237 -0.092087805 -0.082718045 -0.07523252
0000f0 8a 96 b3 3b 2e 90 72 3d 38 8d 14 be 3c b3 3f 3d
       0.005480592 0.05921953 -0.14506996 0.04680179
000100 39 e8 cc 3d af 90 de bd cc c7 03 3e b6 50 9e 3c
       0.100052305 -0.1086744 0.12869185 0.019325595
000110 dc c6 ce 3c 8d 15 43 3d 03 83 2e bd 07 fe 18 be
       0.025241308 0.047627974 -0.04260541 -0.14940654
000120 4b a3 53 3d 87 ff ce 3d 6c aa c4 3d 5a 73 c4 3d
       0.0516694 0.10107332 0.09602818 0.09592314
000130 ac 33 9b 3c 4e 86 d1 3f 2d 3d 10 3c d5 99 ab bd
       0.018945538 1.6369112 0.008803648 -0.083789505
000140 46 61 0e bd b2 e5 cd 3d 2e 12 b5 3d 55 09 18 be
       -0.034760736 0.100535765 0.08841358 -0.1484731
000150 52 4c b1 3b db 4d 29 bd 11 ca bf bc 13 d2 14 3d
       0.0054107094 -0.041334014 -0.023411782 0.036333155
000160 ef 87 d2 3d 29 32 10 bd 1a 2b 91 3d 00 e5 49 3d
       0.102798335 -0.035204086 0.07088299 0.049290657
000170 33 00 b6 3d 99 86 dd 3c 2c 29 d6 bd bf 2f a5 bd
       0.08886757 0.02704172 -0.10457072 -0.080657475
000180 d2 30 62 3d 32 a3 b5 3c 4d 77 e5 bd 69 89 9d bb
       0.05522234 0.022172544 -0.112043954 -0.0048076403
000190 a1 dd ec 3d f2 be 8c 3d 06 58 f9 bd 96 51 09 bd
       0.1156571 0.068723574 -0.12174992 -0.033525072
0001a0 cc 21 00 be 67 7e b3 3c 2d 00 27 3d 0f dc 4f bd
       -0.12512892 0.02191086 0.040771652 -0.050746974
0001b0 e3 b6 97 3c c4 01 be 3c 39 d6 27 3d 8c c2 bf 3d
       0.018519824 0.023194201 0.040975783 0.09363279
0001c0 20 a5 6e bd f3 ea d4 3d 4c 0e 95 3d 8b 41 c8 bd
       -0.058262944 0.103963755 0.072781175 -0.09778126
0001d0 d8 1b f6 bc 06 9b 8a bd 1e 80 29 bd 32 e8 b5 bb
       -0.030042574 -0.067678496 -0.041381948 -0.0055513615
0001e0 e5 bf fb 3c ca de 24 3c 9c a2 8c bd 6f 92 da 3c
       0.03073115 0.010062883 -0.06866953 0.026681153
0001f0 6f 41 d9 bd 2a 41 77 3d 0e da cf bd 4e 84 b3 bc
       -0.106081836 0.06036488 -0.101490125 -0.021913674
000200 62 a1 aa bc 42 4a 0e bd ad 04 4e 3c 4d 8a 9c 3c
       -0.020828906 -0.034738787 0.012574357 0.019108916
000210 8a fa 88 bd 79 66 91 bb d7 a1 a3 3d d9 76 5b bc
       -0.066884115 -0.0044372645 0.07989853 -0.013395035
000220 84 da 9c bc 9d 40 84 bd e6 88 d4 3c 44 77 19 3d
       -0.019147165 -0.064576365 0.025944185 0.037467256
000230 4a 33 21 3e 7f b8 77 3c 8a 14 d3 3d 6d 7b ab 3d
       0.15742221 0.015119671 0.10306652 0.08373151
000240 12 a7 d2 bc 97 e4 02 be a5 fe a1 3d 26 8a 31 3d
       -0.025714431 -0.12782513 0.07909898 0.04334464
000250 1b 47 6e bd 72 03 ae bd 01 ad e4 bd b8 10 cd bd
       -0.05817328 -0.08496751 -0.111658104 -0.100129545
000260 55 fa 81 bc f8 19 79 3d aa 34 47 3d 1e 97 d3 bd
       -0.015866438 0.06081578 0.04863421 -0.10331558
000270 8f f5 1a 3d fe 20 0a be 68 03 75 bd b6 59 39 bd
       0.03783184 -0.13489148 -0.0598177 -0.04525157
000280 71 eb 5a bd 18 aa 2c bc f6 be c6 bd c0 95 9b bd
       -0.05344719 -0.0105386 -0.09704392 -0.07596922
000290 39 c3 d9 bc 80 cf 24 3c b4 86 48 bd 2b 52 af 3d
       -0.026582347 0.0100592375 -0.048956588 0.08560594
0002a0 76 9b e3 bd f6 19 67 bb 8f a1 d6 3d e5 34 49 bd
       -0.11113636 -0.0035263277 0.104800336 -0.04912271
0002b0 26 3e e0 3d 16 0b 44 3d 76 20 c5 bd 9f 04 40 3c
       0.10949354 0.047862135 -0.09625332 0.011719852
0002c0 0e 66 87 3c a3 37 99 bd ed cd ce 3d 92 3a e7 bd
       0.016528156 -0.07481315 0.10097871 -0.11290468
0002d0 61 a1 8d 3c 88 1c 88 bc 4b c7 98 3d c0 02 48 3d
       0.017288866 -0.016615167 0.07459887 0.048830748
0002e0 c3 0d 42 3d 40 2e 2c 3d 04 f9 5a bb bb c7 ed 3b
       0.047376405 0.042036295 -0.0033412585 0.0072564757
0002f0 ce 6e b9 bd 45 74 8f 3d 6a 58 af 3d 1a 31 ad 3d
       -0.090543374 0.070045985 0.085617855 0.08456631
000300 24 21 97 bd e0 41 3f 3c 0d 8b cc bd 71 60 59 bd
       -0.07379368 0.011673421 -0.09987459 -0.05307049
000310 68 78 a1 bd 1e 1d 3d 3d ee a7 ba bd 52 78 1b bb
       -0.07884294 0.046170346 -0.09114061 -0.002372284
000320 9f 15 a9 3c b4 0a 9b 3d b5 bb fc bd ca 12 a5 bd
       0.020640193 0.07570401 -0.1234049 -0.08060224
000330 b8 51 79 bd c6 17 d9 3d 9c d0 3d bd 6e e4 05 3e
       -0.06086895 0.106002375 -0.046341524 0.1307542
000340 be 04 33 3d ff 6e 32 bd 5d 76 04 3b e3 8e 82 bc
       0.043705694 -0.043562885 0.0020212152 -0.015937274
000350 c6 1e ab 3c 26 77 8d bd 8a 44 86 bc 6a 06 5f 3d
       0.020888697 -0.069074914 -0.016390104 0.054449476
000360 48 4a 9c bd 88 88 64 bc 23 0e ce 3d 45 84 b3 bd
       -0.076313555 -0.013948567 0.1006129 -0.08765463
000370 24 38 ad bb e3 84 1d 3e bd f0 cd 3d a4 29 f6 3b
       -0.0052862335 0.15382724 0.10055683 0.007512288
000380 dd fa c8 bd 0f a1 90 3d 72 dc b8 bc c1 ab b9 bd
       -0.098134734 0.070619695 -0.022566054 -0.090659626
000390 53 2a ee bd 03 37 36 bc ae 67 00 3c de 7b 12 40
       -0.116291665 -0.011121514 0.007837219 2.2888103
0003a0 10 b5 0d 3c bc 65 c0 3d 1f 4a b8 3d 12 0e 2b bd
       0.008649126 0.09394404 0.089985125 -0.041761465
0003b0 17 53 5d 3d a0 d0 d1 bb 16 55 e3 3b 6f 7a 4c 3d
       0.05403432 -0.006403044 0.0069376333 0.04992145
0003c0 a8 23 33 3d 6d 26 5c 3d c7 08 72 bc e8 37 d5 3c
       0.043735176 0.053747583 -0.0147726005 0.026027635
0003d0 16 ed 50 3d 99 48 e1 bd 02 d9 83 3d 6f 93 c1 bd
       0.051007353 -0.11000175 0.06437875 -0.09451949
0003e0 5a 50 a6 3b 32 80 d9 bc 1c 58 86 bd e2 65 1b 3c
       0.0050754966 -0.026550386 -0.06559774 0.00948474
0003f0 8e b2 c6 3d 02 23 4d bc cd da 93 bd 08 98 99 bc
       0.09702025 -0.012520554 -0.07219467 -0.018749252

net.0.bias f4 [128]
000000 88 aa e1 bc 71 bb 44 bd de 98 92 bd 85 3f f8 3c
       -0.027547136 -0.04803032 -0.07158063 0.030303726
000010 4e 5f 6c bd e3 e3 74 bd 75 09 34 3d 10 05 25 bd
       -0.057708077 -0.059787642 0.04395433 -0.04028803
000020 fd f8 97 3c d9 ac 8a 3b 49 cd 2f 3d f6 bf 88 3d
       0.018551344 0.004232031 0.042920385 0.06677239
000030 75 1e cd bd 39 25 65 bd 9e d4 e4 3d 82 b8 bd 3c
       -0.10015575 -0.0559437 0.11173366 0.02315927
000040 3c 62 3f bc 08 26 a0 3d be de e2 3d 02 a7 e5 3c
       -0.011681136 0.07819754 0.11077641 0.028033737
000050 99 7f 93 bd 55 46 e1 3d 21 59 e6 bd 88 44 03 be
       -0.07202072 0.10999743 -0.11247469 -0.12819111
000060 a6 31 e8 3c 51 d3 e9 bc a6 59 e0 bd 81 ca ba 3d
       0.028343987 -0.028543146 -0.10954599 0.09120656
000070 80 2c 97 3c 9e af 91 bd ff 07 76 3d 7c 78 a3 3d
       0.018453836 -0.071135744 0.06006622 0.07981965
000080 c0 ec 45 bc d1 e4 b6 3d da 30 70 3d 04 41 0f 3d
       -0.012080371 0.08930362 0.05864034 0.034974113
000090 74 b1 7b bd d4 23 a0 bd 58 bc 61 bc 7b 09 e1 bc
       -0.06144853 -0.07819334 -0.013777815 -0.027470341
0000a0 64 06 d4 bd 6c 39 d7 bd a8 99 8c bd eb 71 2a 3c
       -0.103527814 -0.10508999 -0.06865245 0.010403137
0000b0 8b 70 33 bd 71 17 c4 bd 0c 1d a1 bc 3b 6e 1c bd
       -0.0438085 -0.095747836 -0.019667171 -0.03819106
0000c0 a0 f6 0c bd 3f 50 85 3d fd 70 2d 3d c0 d8 a4 3d
       -0.034414887 0.06509446 0.042344082 0.08049154
0000d0 ea 8f f9 3d 8e 7a 79 3b f7 c0 3f bd 60 eb 52 bb
       0.121856526 0.0038067433 -0.046814885 -0.0032183751
0000e0 df d1 15 3d c7 47 f7 bc 0f fc b8 3d b3 b6 82 3d
       0.0365771 -0.030185593 0.09032451 0.06382503
0000f0 7a 30 b5 bd 30 b3 17 3d 59 da 85 3c 3d fb 3a 3d
       -0.08847137 0.03703612 0.016339468 0.045649756
000100 8a 3e 79 bd f0 af e7 3d 89 ae 23 bd 91 de 2f 3d
       -0.060850658 0.11312854 -0.03996137 0.042936865
000110 4c f0 75 bd 5a cf 45 3d 21 6a 1d bd d7 df 49 bd
       -0.060043618 0.04829345 -0.03843129 -0.049285736
000120 cb ce cc bd 0f ff e5 3c 76 ea dd 3c c4 6e c4 3c
       -0.1000038 0.028075723 0.027089339 0.023978598
000130 a4 98 4f bd 6c 1b 81 3c 1c 0a 59 bd 9b 8e c5 3c
       -0.05068268 0.015760146 -0.052988157 0.024115851
000140 85 1b ee 3d f9 ec ca bd 02 c1 47 3d d3 3f 6e bd
       0.11626343 -0.0990848 0.04876805 -0.058166336
000150 79 05 fd 3c 70 ac cb bc fa 03 5f 3d 64 b6 9b bd
       0.030886399 -0.024862498 0.05444715 -0.076031476
000160 87 9c 87 3d af 70 8c 3d f4 58 a6 bd 79 55 a7 bd
       0.06621652 0.0685743 -0.08122435 -0.081705995
000170 78 d7 80 3d cd 64 a8 bd 85 2c 2c 3d 41 17 7b bd
       0.062910974 -0.08222351 0.042034645 -0.061301474
000180 8c a0 c4 bd 2b c8 1c 3d ac 4d 1e bd d6 c8 6c bd
       -0.096009344 0.038276833 -0.038648292 -0.05780872
000190 81 1a 26 3d 26 15 56 3d 19 8b b4 3d 8c 4e d7 3d
       0.04055262 0.052266262 0.08815593 0.105130285
0001a0 7b db 45 3d 84 e1 06 bd 1f b6 ce 3c 91 08 a6 3d
       0.048305016 -0.032929912 0.025233326 0.08107103
0001b0 9c 7b a0 bd 79 91 b6 3d 9d 70 1d 3d 05 65 4b 3d
       -0.078360766 0.089144655 0.038437475 0.049656887
0001c0 f9 61 9e 3c ab e1 d3 bd 65 28 1c 3d 4e 33 bf 3b
       0.019333826 -0.10345777 0.03812446 0.0058349734
0001d0 10 44 8d ba 24 0f 56 bd d6 f3 af 3d 58 8a c1 bc
       -0.001077773 -0.052260533 0.0859143 -0.023625538
0001e0 df e8 ff ba 2b a7 bf bd ed 2f e4 3d 30 16 dd bd
       -0.0019524357 -0.09358057 0.111419536 -0.107952476
0001f0 97 6b 8a 3d 16 cc 4d 3d 99 b3 a6 3c 7e f7 e1 bd
       0.067588024 0.05024346 0.02034931 -0.110335335

net.2.weight f4 [128, 128]
000000 91 6f 08 bc 11 2b f1 3c 6b 6a 05 be 00 fe 88 bc
       -0.008327381 0.029439481 -0.13028876 -0.01672268
000010 de f5 3d bd 9a 46 5e bd 8a f8 87 3d d3 ce ed 3d
       -0.046377055 -0.05426655 0.06639202 0.11611714
000020 bc 27 bd bd 43 9c 35 3d bd 38 41 bd 7d 9a 45 3d
       -0.09236094 0.044338476 -0.04717325 0.048243035
000030 19 e0 9d bd 7b 04 3b bc d4 0d 91 bc 9d 6d d4 3d
       -0.07708759 -0.011414642 -0.01770679 0.103724696
000040 e9 18 8a 3d e6 f2 1e bc 1a e1 9e bc e6 b0 da bc
       0.067430325 -0.009701466 -0.019394446 -0.02669568
000050 2d 4b d3 ba 64 41 03 3d 3f ad b6 3c 00 06 cc 3c
       -0.0016120427 0.032044783 0.022299407 0.024905205
000060 6e b1 65 bc de bc eb 3d cf a7 10 bd 01 ac a3 bd
       -0.014019353 0.11510633 -0.035316285 -0.079917915
000070 a0 c5 47 3d 82 20 29 3d f9 0d f3 3c ed b7 b0 3d
       0.048772454 0.041290767 0.029669749 0.08628831
000080 65 cd 11 bd 27 7a 0c bd c6 7c c3 3d f8 50 42 3d
       -0.03559627 -0.03429618 0.09545283 0.0474405
000090 07 5a 52 3d f6 b5 96 bd 9c 8e 43 3b ad 1d b8 bc
       0.051355388 -0.07358925 0.002983964 -0.022475088
0000a0 54 db 8b bd 8f a6 ae bc c6 65 19 3d fb 3d 88 3c
       -0.06828943 -0.021319656 0.037450574 0.016631117
0000b0 7e 72 a4 3d 30 28 0c 3c c8 39 9c 3c 0b 5f 98 bc
       0.0802965 0.008554503 0.019070521 -0.018600008
0000c0 34 ea c6 3c 7e fe 00 bc 0d 32 ae bb ec d0 e1 bd
       0.024281599 -0.007873176 -0.005316025 -0.11026177
0000d0 0c 34 52 bb 8e 99 96 3c 4b 2b 9d 3c ae cf 5d bb
       -0.003207448 0.018383767 0.019185683 -0.003384571
0000e0 2b cf d6 bd ef c9 ad bb 54 ad a2 bc 03 7e ba 3d
       -0.10488733 -0.0053036134 -0.01985804 0.09106066
0000f0 97 ae 47 bd 4f 61 55 3d f0 22 0e bd a2 46 24 bd
       -0.048750486 0.052094754 -0.034701288 -0.040106423
000100 8b 8c 0e be 84 b4 9d bd 74 35 69 bb c6 86 9e bd
       -0.139208 -0.07700446 -0.003558484 -0.0774055
000110 d0 6d 12 3d d8 c5 57 3d 4f 72 97 bc eb 4b d2 3c
       0.035749257 0.052678913 -0.018487124 0.025670966
000120 fc 5a cf bc a3 f3 5d 3d 09 34 2a be ba 70 a7 3d
       -0.02531194 0.05418743 -0.16621412 0.08175798
000130 91 81 dc bd bf 0e ea 3b c1 74 f0 3d 9d 4f cf bd
       -0.107669 0.007142871 0.11741019 -0.10122607
000140 91 7b c4 bd f7 d9 37 3d be 8a 92 bd 5e fe b8 ba
       -0.09593881 0.0448856 -0.07155369 -0.0014113893
000150 78 04 28 3d 84 cc a9 bd 61 c6 0d bd 11 d9 cf bc
       0.041019887 -0.082909614 -0.034613017 -0.02537206
000160 84 66 e8 3c 03 40 c0 3d d3 75 a3 3d 1b 58 a7 bd
       0.028369196 0.09387209 0.079814576 -0.08171102
000170 64 55 1e bd eb 93 96 bd eb ec 59 3b 3e 48 47 3d
       -0.038655654 -0.07352432 0.0033252786 0.04865288
000180 5b 4b a7 bd b1 ad 99 bc c7 79 4e be cc 69 c5 bc
       -0.0816867 -0.01875958 -0.20163642 -0.0240983
000190 8b 16 d7 3d 7e 02 b1 bd ca d3 cf bc 94 9f 8d bc
       0.105023466 -0.086430535 -0.025369544 -0.017288007
0001a0 c9 27 ff 3d ba f7 a5 bd 84 a7 5c bd 1f 5c 8e 3b
       0.1245876 -0.08103891 -0.053870693 0.004344478
0001b0 8a 8f c3 bd 6d 66 a6 3d b6 bf 81 bd ed 64 d7 bc
       -0.09548862 0.08125005 -0.06335394 -0.026293242
0001c0 ba 33 52 bd 89 32 f3 3c 6f 02 2c bd 29 15 ab 3d
       -0.05131886 0.029687183 -0.04199451 0.08353645
0001d0 3f 32 ea bd 55 a9 9f bd a7 ef 7f bd 87 03 ad bd
       -0.11435365 -0.077959694 -0.06248441 -0.084479384
0001e0 10 09 a0 bd 45 73 77 3b 7d 76 bf 3d 7d a7 a6 3c
       -0.078142285 0.0037757915 0.09348772 0.020343537
0001f0 19 1b cc bc c9 15 c4 3b 18 60 95 3d 27 75 a2 bd
       -0.024915265 0.0059840423 0.07293719 -0.07932501
000200 fa a8 73 bc 5a 05 97 3d 55 f6 2b 3a cf b8 60 bd
       -0.01487183 0.073740676 0.00065598387 -0.054863747
000210 bd 75 a6 3c ae c8 0b bd f2 b9 23 be b2 a5 0a 3d
       0.020319814 -0.03412693 -0.15988901 0.033849426
000220 c7 76 f5 3d 4a c4 31 bc b0 30 fd 3c 9e 9b 8b bc
       0.119855456 -0.010850022 0.030907005 -0.017041977
000230 70 3f c7 bb 4b b6 3d 3e 24 95 a2 bc a2 b7 11 bd
       -0.0060805604 0.1852657 -0.019846506 -0.035575517
000240 73 fa c5 bd d6 39 a5 bb cd 64 45 bb 44 88 f0 bc
       -0.0966691 -0.005042295 -0.0030119896 -0.029361852
000250 00 32 7d bd 6e 55 0e 3e bd 0b 10 3e db 85 e6 bc
       -0.06181526 0.13899776 0.14066978 -0.02814
000260 d3 b4 90 bd de c2 b9 3c db 5b d2 bc 4a 88 e4 3d
       -0.070657395 0.022675928 -0.025678566 0.111588076
000270 10 32 c2 3c 8c 18 85 3d 46 80 7e bd 94 f4 ec bc
       0.023705512 0.064988226 -0.06213405 -0.028925218
000280 a6 6e 39 3d ed cb 27 3d d8 87 b7 bc 90 ad be 3d
       0.04527154 0.040965963 -0.022403643 0.09310448
000290 d4 c6 cd 3d f0 ce d7 bd c9 dd 08 bd b7 7d 21 b8
       0.10047689 -0.10537517 -0.033414636 -3.8502472e-05
0002a0 49 0d 84 bd 8e ed c4 bd f5 b6 8b 3d c2 1e a0 3c
       -0.064478464 -0.096156225 0.06822006 0.019545916
0002b0 2f f6 1c 3d e2 d5 34 bd bf 46 8d 3d c8 f9 08 3e
       0.038320716 -0.044149287 0.06898259 0.13376534
0002c0 92 60 3f 3d a1 68 a0 3d 12 ce f8 3d 36 4a 67 3d
       0.046722956 0.078324564 0.1214868 0.056467257
0002d0 44 c7 23 bd 81 d9 47 3d 48 78 cd 3d 41 15 10 3e
       -0.039984956 0.048791412 0.100327075 0.14070608
0002e0 55 2c 29 bd b6 fc 5d 3d 78 42 9c bd 0e cc 8e bd
       -0.041302044 0.054196082 -0.076298654 -0.06972514
0002f0 24 f8 8a 3d 85 a4 b8 bd 4e 59 91 3c ab 13 52 3e
       0.0678561 -0.090157546 0.01774278 0.20515315
000300 27 33 1e 3d 64 7f 0b be 26 3b 3a 3d 9d 28 a4 3c
       0.038623 -0.13622814 0.045466565 0.020038897
000310 0f b1 ca bc 3e 83 47 bc 4e 0a 84 3d 65 8f b4 3d
       -0.024742631 -0.012177287 0.06447278 0.08816413
000320 23 16 3c 3d 3d 45 89 3d 9c 47 a1 3d 1f a1 df 3d
       0.04591955 0.06702659 0.078749865 0.10919403
000330 dc 40 c4 3d f4 99 aa 3d 68 57 6a bc 0a f8 87 3d
       0.095826834 0.083301455 -0.014303066 0.066391066
000340 60 b4 06 bc c0 44 bc 3d e3 16 1c 3e ad 04 34 be
       -0.008221716 0.091928005 0.15243106 -0.17579909
000350 cf 17 62 3d 1f 02 95 3d 06 ef 2f bd 56 61 df 3c
       0.055198487 0.07275795 -0.04295256 0.027268093
000360 68 0b 6f bd 39 98 90 3d 9f 27 85 3c 8c e6 e0 3d
       -0.058360487 0.07060284 0.016254244 0.10981473
000370 44 4f 1a 3d 99 5b c4 3d 90 7e a5 3d 6a bf af bb
       0.03767325 0.09587783 0.080807805 -0.0053633945
000380 c4 e6 25 3d 09 98 ac bd a1 64 92 bc 45 e8 10 3e
       0.04050328 -0.08427436 -0.01787025 0.14151104
000390 94 45 ce 3d 7b 4f 12 be d5 30 08 be 1f b0 a0 3d
       0.10071865 -0.14288132 -0.13299878 0.078460924
0003a0 75 01 37 3d 02 92 3f bd d4 52 33 be 99 bd 91 3c
       0.044679124 -0.046770103 -0.17512065 0.017790603
0003b0 04 8e 8b bd 54 5b fc 3d c8 cf b2 bb 41 72 05 bd
       -0.06814197 0.12322107 -0.0054568984 -0.032579664
0003c0 6c cf 7b 3c 7e 07 26 3d 0e f7 fe bc c7 72 83 bc
       0.015369277 0.04053449 -0.031123664 -0.016045941
0003d0 70 79 e2 bb 85 6c 2d be f6 aa 18 bd 22 55 07 bd
       -0.006911449 -0.16935928 -0.037272416 -0.033040173
0003e0 03 62 2d bd 16 0f 27 3e ad bb 05 3d 7a 52 cd 3c
       -0.0423298 0.16314349 0.032649685 0.025063742
0003f0 85 40 45 bc 28 8b 10 bd 03 9d 99 3c bd 29 a2 3d
       -0.012039308 -0.03528896 0.018751627 0.07918117

net.2.bias f4 [128]
000000 d2 b8 12 bd c1 cd 87 bd ef dd 8e 3d 15 c8 4b 3d
       -0.03582079 -0.06631041 0.06975924 0.04975136
000010 1f 9a 60 bb aa 34 3f bd 71 85 57 3d 52 6c 9e bd
       -0.003427155 -0.046681084 0.052617494 -0.07735504
000020 11 cb ba bd f7 27 79 3d 68 e5 5f 3d 29 e5 cd bc
       -0.09120763 0.06082913 0.05466214 -0.025133686
000030 f6 22 84 3d e1 80 ec bb ef 3e 97 3c 75 67 26 3c
       0.06451981 -0.007217512 0.018462626 0.010156502
000040 1f 3b 78 3d db 4a 9f 3d bc 0f 5c 3b e8 31 6b 3d
       0.060603257 0.077779494 0.0033578714 0.05742064
000050 e6 e8 87 3c f6 c4 1e 3d b7 a8 2b bc ca 33 7d bd
       0.016590547 0.038762055 -0.0104772365 -0.061816968
000060 18 d4 8d 3d a5 99 4a 3d fe 8d e2 bd be 3f 8a 3b
       0.06925219 0.049462933 -0.11062239 0.0042190244
000070 61 58 5f 3d 34 6d 0f 3d a3 52 25 3d 58 35 3c 3d
       0.054527644 0.035016254 0.04036201 0.04594931
000080 ea 93 a4 bd f1 46 77 bd f0 3b a8 3d 8a 2e aa 3b
       -0.08036025 -0.06037039 0.08214557 0.005193536
000090 bb 30 db bc f4 33 a3 3d 29 77 aa bb 68 31 69 3d
       -0.026756635 0.07968894 -0.0052021933 0.056931883
0000a0 01 5a 2a bd c7 33 1c 3d 91 a6 49 3a e7 a0 bf bd
       -0.04158974 0.038135316 0.0007692362 -0.093568616
0000b0 5e 55 f7 3c 58 fe de bc 3f 02 33 3d b3 47 2c 3c
       0.030192073 -0.02722089 0.043703314 0.010515141
0000c0 5c 3d 3e 3d 8f ad 6a bd e3 66 58 3d e5 95 ff 3c
       0.046445236 -0.057294425 0.052832495 0.031199405
0000d0 8c 61 a2 bd 0a be 6d 3d bb a6 3c 3c 10 e1 a1 3d
       -0.07928762 0.058042563 0.011514361 0.079042554
0000e0 a7 1b 35 bd f1 b9 8e bd 07 b5 5e bc a2 36 d0 3c
       -0.044215824 -0.06969059 -0.013592965 0.025416676
0000f0 3c bd 89 3a 47 77 ba bc 87 02 6b bd 7e 9a 91 bc
       0.0010508667 -0.022761954 -0.057375457 -0.017773863
000100 14 be 13 3d 59 4c ab bd e1 4e 73 3d c1 9c a2 bc
       0.036069945 -0.083641715 0.059401397 -0.019850137
000110 6f b7 5b bd ab c0 20 bd 07 82 52 3d 17 f3 97 bd
       -0.053641733 -0.039246242 0.051393535 -0.074194126
000120 cb af 46 bd 5a 37 c9 bd e7 fc 79 bd 78 41 db 3c
       -0.048507493 -0.098250106 -0.061032202 0.026764616
000130 54 aa 82 bd 4d 0a 55 b9 05 4e 1c 3d 2b 21 97 bd
       -0.06380144 -0.000203171 0.038160343 -0.07379373
000140 bc c1 3e 3d dc 0b c4 bc c2 24 b6 bd cb 8e 10 3d
       0.04657148 -0.023931436 -0.0889373 0.035292428
000150 66 da 9a 3d ec 85 18 bc b9 fe 01 bc 92 59 4d 3d
       0.075611874 -0.009309273 -0.007934266 0.05013425
000160 30 c9 41 bd d1 9d e8 3c fc b8 02 3b 7f e4 a1 bb
       -0.047311008 0.028395565 0.0019946685 -0.004940569
000170 a4 47 99 bc a5 94 85 bd ab ef 24 bd a7 11 94 bc
       -0.018710919 -0.06522492 -0.040267628 -0.018074824
000180 de 65 0b bd f9 9a 23 bd 82 0c 58 3c 8f 6f c2 bc
       -0.034032695 -0.039942715 0.013186576 -0.023734836
000190 71 8f a7 3c e7 0f 19 bd 07 01 88 3c ab 8d ad bd
       0.02045414 -0.03736868 0.016602052 -0.08474287
0001a0 75 48 0f 3d cd c6 2d 3c a2 94 47 3d 61 c2 ff 3c
       0.03498121 0.01060648 0.04872573 0.031220617
0001b0 9b 91 f4 3b fb db 30 bb 9c 45 08 bb e6 5e 9b 3c
       0.0074636466 -0.0026986587 -0.0020793444 0.01896615
0001c0 b9 69 a7 3d 55 b7 12 3d bd 95 5f bb 69 33 60 bd
       0.08174462 0.03581937 -0.003411635 -0.05473653
0001d0 ec de be 3c a9 9b 3c 3d 6b 70 65 3d fa 25 19 3c
       0.023299657 0.046046887 0.056015413 0.009347433
0001e0 ca 1b a6 3d 91 a4 2d 3d 99 1d c9 bc 70 99 45 3d
       0.08110769 0.04239327 -0.024550246 0.048242033
0001f0 69 f8 4f 3d 19 e8 ec bc 7b 50 0e 3d 09 c0 9a 3d
       0.05077401 -0.028919267 0.03474472 0.07556159
