dqn_out/dqn_ep600.pt (torch, 314961 bytes, 24 tensors)

net.0.weight f4 [128, 4]
0.14045122 0.34569985 -0.3342126 -0.2956783 -0.61944556 0.13544747 0.020739961 0.40577137
0.6402443 0.14745173 -0.14426135 -0.07961483 -0.2124785 -0.35430276 -0.21178378 0.016241768
0.3472721 0.37497213 -0.2491183 -0.15337738 0.37803382 0.40720925 -0.11195532 0.3666798
0.44586942 0.05717448 0.44776645 -0.4762927 -0.30132794 -0.12061371 -0.19861628 0.4240757
-0.20571668 -0.17301589 -0.3541747 -0.42721704 -0.30052444 0.42873168 0.22655748 0.24418274
0.5511344 -0.23312543 0.103645094 -0.3893781 -0.8421993 -0.28939217 0.30816427 0.281885
-0.052673083 -0.06379733 0.29562008 0.48554412 0.19844109 0.06754643 0.33524317 -0.29440117
0.62521404 -0.3838802 -0.33851817 -0.22504362 0.17467713 0.21211624 -0.27308276 0.17036407
0.7388281 -0.061297677 0.017547559 0.10889356 0.40156433 0.504955 -0.36421883 -0.20087315
0.7349348 0.39849332 0.4160945 0.4309767 0.6923419 -0.43737978 0.046213754 -0.31084853
-0.36566877 0.47769603 0.4062971 -0.5038538 0.09358603 -0.084230006 -0.082280576 -0.22887844
0.19227809 -0.29615176 0.18329567 0.25285405 0.41622397 0.2059992 -0.45330328 -0.29658937
0.24965751 0.104650676 -0.390042 -0.28790975 0.47037464 0.33690894 -0.21801257 -0.12584239
-0.47629905 -0.008987069 -0.37652946 -0.38567835 0.55550426 0.0700024 -0.20783299 0.294456
-0.036046617 0.4952223 0.37969682 -0.43271938 0.27009508 0.0073257196 0.055415027 0.12180451
0.6613239 0.032852046 -0.23375598 0.254462 -0.47962445 -0.29635334 -0.12516493 -0.24355668
-0.09341469 -0.41503462 -0.08542046 0.11070236 -0.46925518 -0.03186082 0.346557 -0.063186705
-0.27218926 -0.053491317 0.09752247 0.31143844 0.9593571 0.32322526 0.48042542 -0.032987587
-0.44925505 -0.2388235 0.3340281 -0.009316963 -0.14103937 -0.37947345 -0.46806526 -0.42085418
-0.101418376 0.274203 0.27032053 -0.48221594 0.31189102 -0.39125472 -0.10570514 -0.20273632
0.25461832 -0.10479408 -0.44918996 -0.42002597 -0.07823974 0.0064660907 -0.22713745 0.1883496
0.037193716 -0.03242884 0.44308382 -0.2068265 0.44860414 0.19670044 -0.44790626 0.31916127
-0.72529 -0.14060734 0.42447293 -0.5237063 0.5279096 -0.088302344 0.36556926 0.14222865
0.8315439 0.17546532 -0.118307374 -0.10142308 -0.7174867 0.26639616 0.4036477 0.34088814
-0.35268915 0.022299945 -0.35246706 -0.2752421 -0.29135275 0.17087251 -0.2979566 -0.010908604
0.14110076 0.365761 -0.32642928 -0.31038395 -0.838201 0.35145724 -0.1856981 0.4127095
0.18080378 0.06331301 -0.003722012 -0.09884077 -0.17284346 -0.12803298 -0.017159056 0.04755406
-1.1289312 -0.13844416 0.4429108 -0.57919675 -0.45662406 0.49079877 0.18743445 0.011294152
-0.19037798 0.25637105 -0.35641816 -0.15014471 0.037137084 -0.070656136 0.009524371 0.40757865
0.366702 0.4411168 0.29292658 -0.3227504 0.85200673 -0.36296386 -0.21103609 0.15338668
0.3567457 0.41464072 -0.13490924 0.0011977411 0.25741178 -0.48354608 0.3614903 -0.4134612
0.0068912506 -0.08500838 -0.26333648 0.06608552 1.0840459 -0.14379074 -0.29869476 -0.18787652
00000000: 72d2 0f3e 92ff b03e ea1d abbe 2563 97be
00000010: fc93 1ebf beb2 0a3e dae6 a93c 44c1 cf3e
00000020: 0de7 233f 96fd 163e 3fb9 13be 1a0d a3bd
00000030: f793 59be 2c67 b5be d9dd 58be 750d 853c
00000040: a6cd b13e 59fc bf3e de18 7fbe f60e 1dbe
00000050: a68d c13e bb7d d03e d548 e5bd 74bd bb3e
00000060: ff48 e43e ca2f 6a3d a541 e53e a3dc f3be
00000070: a847 9abe 5204 f7bd 1162 4bbe 7320 d93e
00000080: 65a7 52be 142b 31be 6356 b5be 31bc dabe
00000090: 57de 99be b882 db3e affe 673e 0a0b 7a3e
000000a0: 2517 0d3f 6fb8 6ebe e143 d43d 915c c7be
000000b0: 609a 57bf 362b 94be b5c7 9d3e 3b53 903e
000000c0: bbbf 57bd 2da8 82bd 845b 973e 3d99 f83e
000000d0: 2434 4b3e c855 8a3d fea4 ab3e c0bb 96be
000000e0: 070e 203f f28b c4be 4152 adbe d671 66be
000000f0: 90de 323e 0035 593e 81d1 8bbe eb73 2e3e
00000100: d723 3d3f 4613 7bbd e6bf 8f3c 9603 df3d
00000110: d799 cd3e bb44 013f e47a babe b1b1 4dbe
00000120: b024 3c3f 5107 cc3e 570a d53e faa8 dc3e
00000130: 523d 313f 3ef0 dfbe a24a 3d3d 8a27 9fbe
00000140: f038 bbbe 9394 f43e 2c06 d03e 90fc 00bf
00000150: 08aa bf3d c880 acbd b882 a8bd 1c5f 6abe
00000160: 8ce4 443e 34a1 97be dcb1 3b3e 1676 813e
00000170: 4f1b d53e 74f1 523e 5e17 e8be 90da 97be
00000180: 38a6 7f3e 1853 d63d 96b3 c7be e868 93be
00000190: f2d4 f03e 547f ac3e b03e 5fbe d4dc 00be
000001a0: 78dd f3be 803e 13bc 78c8 c0be a277 c5be
000001b0: 8735 0e3f 6b5d 8f3d 2cd2 54be f0c2 963e
000001c0: 9ea5 13bd c78d fd3e 9f67 c23e 658d ddbe
000001d0: e749 8a3e 970c f03b defa 623d a574 f93d
000001e0: 864c 293f de8f 063d ba5d 6fbe d848 823e
000001f0: 5691 f5be a0bb 97be 3c2b 00be ec66 79be
00000200: 3350 bfbd 6b7f d4be ecf0 aebd ebb7 e23d
00000210: 3742 f0be 7e80 02bd eb6f b13e 0868 81bd
00000220: 645c 8bbe b619 5bbd dcb9 c73d dc74 9f3e
00000230: 6d98 753f c87d a53e 52fa f53e fe1d 07bd
00000240: c204 e6be 268e 74be bb05 ab3e 2da6 18bc
00000250: a06c 10be 584a c2be 40a6 efbe 337a d7be
00000260: 70b4 cfbd 5664 8c3e 7467 8a3e 02e5 f6be
00000270: 2eb0 9f3e 8a52 c8be f07b d8bd 1c9a 4fbe
00000280: 555d 823e 479e d6bd 3afc e5be a50d d7be
00000290: 283c a0bd 80e1 d33b b896 68be b8de 403e
000002a0: 7058 183d 1ad4 04bd e2db e23e 53ca 53be
000002b0: 71af e53e d76b 493e f853 e5be 1b69 a33e
000002c0: 9bac 39bf 5ffb 0fbe 8454 d93e 9e11 06bf
000002d0: 1525 073f dcd7 b4bd e52b bb3e 63a4 113e
000002e0: 10e0 543f 2ead 333e 234b f2bd e7b6 cfbd
000002f0: 35ad 37bf 1465 883e e9aa ce3e e488 ae3e
00000300: ac93 b4be 60ae b63c 9076 b4be 88ec 8cbe
00000310: 302c 95be 34f9 2e3e c48d 98be 00ba 32bc
00000320: b87c 103e 0745 bb3e bd21 a7be a5ea 9ebe
00000330: 5794 56bf 34f2 b33e a527 3ebe a94e d33e
00000340: a024 393e 40aa 813d 00ed 73bb 086d cabd
00000350: e0fd 30be 141b 03be 2691 8cbc 0cc8 423d
00000360: d180 90bf 4ec4 0dbe 34c5 e23e 3d46 14bf
00000370: a1ca e9be fa49 fb3e d1ee 3f3e 1b0b 393c
00000380: 72f2 42be 1143 833e 717c b6be 89bf 19be
00000390: 0e1d 183d 2ab4 90bd 1b0c 1c3c 26ae d03e
000003a0: 5dc0 bb3e 10da e13e 79fa 953e 8a3f a5be
000003b0: 1d1d 5a3f 66d6 b9be d819 58be 6611 1d3e
000003c0: 5fa7 b63e ca4b d43e a625 0abe 86fd 9c3a
000003d0: 7acb 833e 5a93 f7be 4215 b93e 30b1 d3be
000003e0: 00d0 e13b e018 aebd 0ad4 86be d857 873d
000003f0: 04c2 8a3f e13d 13be 85ee 98be b462 40be

net.0.bias f4 [128]
-0.057405382 -0.16266298 0.14349763 0.17611925 -0.16941774 0.030923357 0.29076868 -0.051589508
0.18142171 -0.11804925 0.19628598 -0.3729283 -0.31588662 -0.25379527 0.4687702 -0.13753994
-0.0038757778 -0.21861406 0.48895842 0.4935413 -0.35502228 -0.40533495 -0.3789965 0.04352527
-0.12745196 -0.32727283 -0.17933607 0.09454082 -0.22515458 0.09653428 -0.096575774 -0.24228168
0.083191596 0.4036095 -0.34452134 0.027802048 -0.19184384 0.48720843 -0.47438163 -0.4793306
0.49402103 -0.31634498 0.10060116 -0.04179858 -0.08211166 -0.10373433 0.3238764 0.022140177
-0.4868073 -0.29518008 -0.12700012 0.24492058 -0.32356685 0.46078688 -0.07406773 -0.08289943
0.39510617 0.25639737 0.41707745 0.29366258 -0.11480082 -0.3317362 -0.037201524 0.41633835
-0.17457525 -0.4680465 0.21010998 0.4737066 -0.14234161 -0.41401178 -0.45352983 0.11179888
-0.008052785 -0.25249362 0.09624468 0.19101287 0.40343612 0.39192668 -0.06679436 -0.44088358
-0.45181155 0.4646716 0.23221609 0.21829304 -0.4362132 0.4555876 0.46816543 0.45065874
-0.38022518 -0.17781013 -0.3438819 0.4698892 -0.2080386 -0.22827727 0.26434562 -0.20777985
-0.22609104 -0.019455886 -0.051148035 -0.38948923 0.42197293 -0.24677844 0.19293264 0.4259816
0.25435853 0.072759114 0.42877755 0.07553053 -0.23132831 0.47870895 0.120313026 -0.4878404
-0.14981909 -0.29613027 0.4450023 -0.08257294 -0.45576245 -0.035110645 0.3095075 0.13121769
0.16894044 0.048652112 0.18768078 -0.12788475 -0.19555989 -0.46357512 -0.37666845 0.21940003
00000000: e821 6bbd 2091 26be 0bf1 123e 9b58 343e
00000010: d87b 2dbe fb52 fd3c a2df 943e 854f 53bd
00000020: 9dc6 393e cec3 f1bd 31ff 483e 75f0 bebe
00000030: e4bb a1be 74f1 81be a602 f03e 45d7 0cbe
00000040: c300 7ebb 5ddc 5fbe c258 fa3e 72b1 fc3e
00000050: 7bc5 b5be 1088 cfbe d40b c2be 8e47 323d
00000060: c482 02be 4e90 a7be e0a3 37be 9e9e c13d
00000070: ec8e 66be c4b3 c53d 85c9 c5bd b018 78be
00000080: 5b60 aa3d e8a5 ce3e 1a65 b0be 1fc1 e33c
00000090: b672 44be 6273 f93e 26e2 f2be d26a f5be
000000a0: 53f0 fc3e f8f7 a1be fb07 ce3d fd34 2bbd
000000b0: 282a a8bd aa72 d4bd 21d3 a53e 515f b53c
000000c0: ce3e f9be d821 97be 520c 02be 76cc 7a3e
000000d0: 8eaa a5be 42ec eb3e d2b0 97bd 2dc7 a9bd
000000e0: 5b4b ca3e 8446 833e 2d8b d53e f15a 963e
000000f0: b11c ebbd 54d9 a9be a060 18bd 4d2a d53e
00000100: dbc3 32be caa3 efbe 1227 573e ac89 f23e
00000110: 00c2 11be 5af9 d3be 1035 e8be d0f6 e43d
00000120: d4ef 03bc d846 81be ee1b c53d e198 433e
00000130: 2e8f ce3e 9daa c83e 7bcb 88bd 7ebb e1be
00000140: d853 e7be 70e9 ed3e 0eca 6d3e 3688 5f3e
00000150: 5657 dfbe c742 e93e 61b3 ef3e bebc e63e
00000160: e0ac c2be dc13 36be 4a11 b0be 5195 f03e
00000170: 1208 55be 84c1 69be 4f58 873e 3ec4 54be
00000180: 6984 67be f361 9fbc 9a80 51bd 226b c7be
00000190: d60c d83e 7db3 7cbe 2290 453e 431a da3e
000001a0: 483b 823e bb02 953d bb88 db3e c0af 9a3d
000001b0: 54e1 6cbe 5719 f53e ad66 f63d 38c6 f9be
000001c0: 2d6a 19be 639e 97be 57d7 e33e 001c a9bd
000001d0: b259 e9be 2ed0 0fbd c477 9e3e ee5d 063e
000001e0: b9fe 2c3e 7047 473d 642f 403e 38f4 02be
000001f0: da40 48be b859 edbe b0da c0be 67aa 603e

net.2.weight f4 [128, 128]
-0.048280958 0.002412883 0.050104838 0.006949315 -0.035711657 0.08455058 -0.042375103 0.065381035
-0.049358465 -0.02678427 0.06159759 -0.07570719 0.06490007 -0.060825013 -0.056534655 -0.069255
0.024212353 0.11814368 -0.039854836 0.040589347 0.011038405 -0.019168101 0.06499226 -0.05215602
0.009388022 0.08312122 -0.0121456385 0.069873415 0.01075633 0.07260763 -0.021395903 -0.012738854
-0.025985563 0.030389693 0.0092239035 0.07450218 -0.013475736 0.007809783 0.06052933 -0.023915514
0.08808498 -0.058850035 -0.006907326 0.0152738 0.01107623 0.06090456 -0.0030335065 -0.07676626
0.043795742 0.026439764 0.055291615 -0.05677308 0.056886353 0.087067276 -0.048298646 -0.08498652
0.068382986 -0.065281786 0.026198518 0.022798201 -0.018824449 0.030776426 -0.079057425 0.03932307
-0.05686247 -0.018764695 0.01847052 0.08659288 -0.042171873 0.056624763 -0.011228308 -0.038616627
-0.021130629 -0.08109793 0.11207189 -0.0189823 0.008279095 0.04133917 0.05996605 0.075437166
0.07168447 -0.0607378 0.015654076 -0.042368565 -0.055379055 0.021567397 0.08439959 -0.06933504
-0.008908581 -0.048540365 -0.017215773 0.07782515 0.037378322 0.008048266 -0.05920755 0.067884594
-0.017755032 -0.071110696 0.019760737 -0.06284565 -0.0668294 0.0002256606 0.08867452 -0.007410691
0.04226581 0.076063834 0.076698385 -0.04967299 -0.009689115 -0.019552972 -0.076220006 3.6522746e-05
0.06572554 0.12786469 0.02017792 0.02007503 -0.03826523 0.060251426 -0.023707308 -0.06662333
0.012085462 0.05395238 -0.07172842 0.13652772 0.024135038 -0.063593306 -0.019039512 0.078095585
-0.0678146 -0.02532356 0.027288893 -0.07831406 0.048454337 0.044552457 0.053517506 -0.056351736
0.08819628 -0.053623404 0.08713807 -0.08482545 -0.078240156 0.0542878 0.008065788 0.0050990656
-0.0499728 -0.038053177 -0.027223485 -0.08726342 0.0039092614 0.015632264 -7.483363e-05 0.028543279
0.08386736 0.023501053 -0.032356534 -0.038063444 -0.056958877 -0.06258943 -0.01423493 -0.015632853
0.038462393 -0.039065212 0.070463516 -0.063430145 0.00025121868 0.07827599 0.08789206 -0.051200032
0.014397521 0.01044067 -0.04267393 -0.030059304 0.023009239 -0.06251041 0.013122257 0.03687648
-0.034831207 0.073419 -0.005816877 0.038597185 0.087531544 -0.02830802 0.047233727 -0.026524223
-0.014439979 -0.016287925 -0.0019521076 -0.034546655 0.019810611 0.0033305064 0.056028478 -0.019205365
0.008863598 -0.03229935 -0.07523807 0.034353312 0.011309989 -0.035398096 -0.02988454 0.021550301
-0.015982106 0.05775965 0.0039782436 0.031778716 0.037324935 -0.023114452 0.03728184 0.0652247
0.004067488 0.015888976 0.002799073 0.059494715 -0.03781838 -0.048240814 0.037112903 -0.0783374
0.0014170855 -0.04064901 0.058339275 -0.08368799 0.053592734 0.087447606 0.016473642 -0.005403252
0.08633739 -0.03866996 -0.007082872 -0.038705695 -0.013613444 0.018435711 0.010109702 -0.018113203
-0.089669 0.0035402155 -0.0037523867 0.0122737335 0.06772759 0.084731996 -0.05317686 -0.005511403
-0.03616348 -0.08146273 -0.065854 0.08295786 0.051535808 0.04647367 0.047831763 -0.07167345
0.009855189 0.0808153 -0.050523505 0.077669136 0.022497036 0.061820675 -0.037864476 0.03925223
00000000: 41c2 45bd 7621 1e3b bb3a 4d3d 14b7 e33b
00000010: 6346 12bd db28 ad3d 8491 2dbd 7ee6 853d
00000020: 1a2c 4abd af6a dbbc c14d 7c3d 5f0c 9bbd
00000030: 54ea 843d a623 79bd e290 67bd 91d5 8dbd
00000040: fc58 c63c 50f5 f13d d33e 23bd 0441 263d
00000050: 6dda 343c 6c06 9dbc a91a 853d 8da1 55bd
00000060: 38d0 193c 753b aa3d 80fe 46bc cb19 8f3d
00000070: 513b 303c 4fb3 943d 7646 afbc a0b6 50bc
00000080: addf d4bc cef3 f83c db1f 173c 9994 983d
00000090: 55c9 5cbc 35e9 ff3b 9aed 773d 78ea c3bc
000000a0: e665 b43d bc0c 71bd da56 e2bb f63e 7a3c
000000b0: 1379 353c 0f77 793d cbcd 46bb a137 9dbd
000000c0: 2a63 333d 3498 d83c 7679 623d e48a 68bd
000000d0: aa01 693d 5450 b23d cdd4 45bd 6a0d aebd
000000e0: 610c 8c3d 75b2 85bd 469e d63c 4bc3 ba3c
000000f0: bb35 9abc d81e fc3c dce8 a1bd 3a11 213d
00000100: 9fe8 68bd 6bb8 99bc 7d4f 973c 9c57 b13d
00000110: 6abc 2cbd 5eef 673d f0f6 37bc 782c 1ebd
00000120: 241a adbc ac16 a6bd f285 e53d c580 9bbc
00000130: 0ba5 073c 4353 293d f69e 753d cd7e 9a3d
00000140: 4fcf 923d 33c8 78bd fa3c 803c a98a 2dbd
00000150: 26d5 62bd 1cae b03c b1d9 ac3d 88ff 8dbd
00000160: 4cf5 11bc 43d2 46bd 1808 8dbc cb62 9f3d
00000170: 031a 193d e0dc 033c 9e83 72bd 1407 8b3d
00000180: 0073 91bc 7ca2 91bd 45e1 a13c 38b5 80bd
00000190: dadd 88bd 4e9f 6c39 fd9a b53d 62d5 f2bb
000001a0: ea1e 2d3d 5bc7 9b3d 0b14 9d3d e875 4bbd
000001b0: 18bf 1ebc 8e2d a0bc 3c19 9cbd 0030 1938
000001c0: 1d9b 863d f6ee 023e 2a4c a53c 6474 a43c
000001d0: 00bc 1cbd 33ca 763d d435 c2bc d071 88bd
000001e0: 1a02 463c 2cfd 5c3d 5ae6 92bd eccd 0b3e
000001f0: d8b6 c53c 353d 82bd c0f8 9bbc 94f0 9f3d
00000200: 62e2 8abd 5b73 cfbc f58c df3c 1f63 a0bd
00000210: 0e78 463d a37c 363d 2c35 5b3d 14d1 66bd
00000220: 40a0 b43d 37a4 5bbd 7275 b23d f7b8 adbd
00000230: 603c a0bd e25c 5e3d 5e26 043c 1016 a73b
00000240: 47b0 4cbd a6dd 1bbd c903 dfbc 2ab7 b2bd
00000250: 4319 803b 3c0f 803c 00f0 9cb8 98d3 e93c
00000260: a7c2 ab3d 4885 c03c 4988 04bd 6ae8 1bbd
00000270: b64d 69bd e32e 80bd a039 69bc 7810 80bc
00000280: be8a 1d3d d802 20bd 2d4f 903d aae7 81bd
00000290: 00b6 8339 2a4f a03d c100 b43d 20b7 51bd
000002a0: 94e3 6b3c 580f 2b3c dcca 2ebd ee3e f6bc
000002b0: df7d bc3c 7505 80bd bcfe 563c cb0b 173d
000002c0: 2bab 0ebd b35c 963d 809b bebb 1518 1e3d
000002d0: bd43 b33d 39e6 e7bc 2778 413d 5449 d9bc
000002e0: a995 6cbc 416e 85bc dddd ffba cb80 0dbd
000002f0: dd49 a23c a044 5a3b 1e7e 653d 9254 9dbc
00000300: a038 113c 534c 04bd 6b16 9abd 0fb6 0c3d
00000310: 884d 393c 98fd 10bd 6cd0 f4bc 428a b03c
00000320: e8ec 82bc 6295 6c3d ed5b 823b 662a 023d
00000330: 08e2 183d 855a bdbc d8b4 183d 8794 853d
00000340: 9048 853b 9929 823c a770 373b bbb0 733d
00000350: 72e7 1abd 2998 45bd b303 183d 5c6f a0bd
00000360: 80bd b93a 947f 26bd 2af5 6e3d 9c64 abbd
00000370: 0e84 5b3d bb17 b33d bbf3 863c c30d b1bb
00000380: a8d1 b03d 6464 1ebd 7017 e8bb dd89 1ebd
00000390: ec0a 5fbc 7d06 973c 2aa3 253c 2462 94bc
000003a0: 61a4 b7bd f602 683b 9aea 75bb c517 493c
000003b0: c3b4 8a3d f887 ad3d fbcf 59bd 0099 b4bb
000003c0: 2820 14bd efd5 a6bd 76de 86bd cfe5 a93d
000003d0: 3617 533d 2d5b 3e3d 3deb 433d 88c9 92bd
000003e0: a977 213c 7e82 a53d bcf1 4ebd ff10 9f3d
000003f0: b44b b83c ad37 7d3d c817 1bbd f2c6 203d

net.2.bias f4 [128]
-0.005977485 0.08263891 -0.039312195 0.011680402 0.020083724 -0.07285307 0.058165025 0.07035498
0.07119569 0.066500925 0.04761239 -0.053639807 0.06785638 -0.03323378 0.024414644 -0.08291079
-0.009279983 -0.044271626 -0.044704933 -0.06584098 -0.010142341 -0.04825434 -0.05527444 -0.08189962
0.063209385 0.07139187 -0.01349742 0.055003118 0.020060152 -0.053909853 -0.013024412 0.034953263
0.0012644046 -0.0045425 -0.013279453 0.067329384 -0.0639121 0.016799318 -0.056470823 0.044996377
-0.014809186 -0.052135512 -0.06876623 -0.008131541 0.005930649 0.058947485 -0.017804787 -0.04607721
-0.08556467 -0.008335265 0.07977419 -0.07693785 -0.014148049 0.06327657 0.06735627 -0.058211215
-0.08374809 0.08358435 -0.038894255 0.017664151 -0.08769784 0.044689342 0.0034261432 -0.023937892
-0.047903158 0.03471531 -0.035325274 -0.0321772 -0.04931559 0.06366962 0.0082627125 -0.014023975
0.008848896 0.059821986 -0.06707136 0.06317812 0.033951852 0.05491887 -0.020333158 -0.05161659
-0.01454838 0.082657374 -0.061002854 -0.06682054 -0.023487415 0.03601505 -0.07519906 -0.0087919
0.017104719 -0.03035727 -0.07381277 -0.03163929 -0.032222476 0.024731332 -0.08820226 0.015369974
-0.013158329 0.054906584 -0.04393979 0.050569132 0.0071773487 0.036970958 -0.08466693 -0.017000126
-0.05294981 0.049526874 -0.069881685 0.06588616 -0.07192531 0.049649913 -0.019931838 -0.075843535
0.0056797117 -0.08051736 0.022831691 0.08303948 -0.0084335655 -0.047832973 0.068741925 0.009383872
0.013813944 0.05323936 -0.0842997 -0.04245094 0.034511577 0.0073280586 -0.025203582 -0.064658195
00000000: c7de c3bb 973e a93d d305 21bd 285f 3f3c
00000010: 9f86 a43c fe33 95bd 733e 6e3d 4616 903d
00000020: 0ccf 913d a331 883d 3605 433d 6ab5 5bbd
00000030: 49f8 8a3d 2520 08bd 3801 c83c 22cd a9bd
00000040: 120b 18bc 2a56 35bd 851c 37bd a3d7 86bd
00000050: 102c 26bc 58a6 45bd 7467 62bd fdba a7bd
00000060: ec73 813d e735 923d 4824 5dbc f34a 613d
00000070: 3055 a43c 94d0 5cbd 5864 55bc 272b 0f3d
00000080: 61ba a53a 40d9 94bb 1092 59bc fde3 893d
00000090: 59e4 82bd b99e 893c f34d 67bd 1f4e 383d
000000a0: 3aa2 72bc 0c8c 55bd 4fd5 8cbd 283a 05bc
000000b0: e455 c23b eb72 713d 58db 91bc 75bb 3cbd
000000c0: 883c afbd a390 08bc a760 a33d 9791 9dbd
000000d0: 38cd 67bc 2597 813d 16f2 893d e26e 6ebd
000000e0: 1e84 abbd 462e ab3d 954f 1fbd 69b4 903c
000000f0: ed9a b3bd 2c0c 373d 2589 603b 6619 c4bc
00000100: 1a36 44bd a431 0e3d 3cb1 10bd 3dcc 03bd
00000110: 25ff 49bd 3865 823d 5460 073c d0c4 65bc
00000120: f6fa 103c e607 753d b65c 89bd 8863 813d
00000130: 1911 0b3d 9cf2 603d b991 a6bc eb6b 53bd
00000140: 545c 6ebc 4548 a93d 21de 79bd 35d9 88bd
00000150: ae68 c0bc 8484 133d f701 9abd e70b 10bc
00000160: 321f 8c3c cfaf f8bc 262b 97bd 3398 01bd
00000170: b7fb 03bd 5d99 ca3c 63a3 b4bd 58d2 7b3c
00000180: 0896 57bc bae5 603d 36fa 33bd 9421 4f3d
00000190: f72f eb3b dc6e 173d db65 adbd d943 8bbc
000001a0: e6e1 58bd b1dc 4a3d 211e 8fbd 53ef 863d
000001b0: 944d 93bd b55d 4b3d 1848 a3bc db53 9bbd
000001c0: e01c ba3b 49e6 a4bd 8709 bb3c 9a10 aa3d
000001d0: f02c 0abc 82ec 43bd 91c8 8c3d d0be 193c
000001e0: e153 623c 8411 5a3d 52a5 acbd 09e1 2dbd
000001f0: 035c 0d3d 3620 f03b be77 cebc 846b 84bd

net.4.weight f4 [15, 128]
0.07858755 -0.024232391 0.015270118 0.04995311 -0.0038711526 -0.053952597 -0.05466702 0.023345657
0.03188974 0.073168814 0.045266606 0.08733884 0.05651952 0.042814605 0.076938726 -0.0026038643
0.049806595 -0.014620869 0.07236986 0.0474462 -0.07833516 0.0639673 0.015837617 -0.025127426
-0.020525726 -0.018505339 0.019990407 0.0053672167 0.02131968 -0.028780967 0.0010779127 0.07253745
-0.13482071 -0.009969503 0.04861421 0.047883604 0.0025955746 0.07043247 -0.08493188 -0.06861722
-0.07962606 0.07606121 0.057214893 0.059883736 0.07342759 -0.0102007985 0.08291232 0.0074950606
0.019907333 -0.019073028 -0.016223708 -0.043552242 0.040382393 0.05608099 -0.045286376 -0.041954026
0.00054653763 -0.09938607 -0.01286653 0.024078855 -0.0071154013 0.014876378 0.06605666 -0.06003456
-0.028873276 -0.020576457 0.03764432 0.0399356 -0.060393758 0.0008636827 -0.046826508 -0.06917408
0.013453688 -0.051939595 0.08330837 -0.032495454 -0.02588906 0.0648672 0.039875306 0.071616314
0.0008614586 -0.009882351 -0.030720541 0.099283025 0.06707079 -0.043434802 0.042010732 0.06835942
-0.059315797 -0.038405012 0.00763331 -0.051724773 -0.043202184 -0.006373817 -0.07690057 -0.05515923
0.0044390233 -0.014075809 0.04856092 0.091119066 0.07902362 -0.14556721 0.017649036 -0.028804254
-0.007697979 -0.07456043 0.08765324 0.058007248 -0.060413875 -0.013037003 0.10903095 0.04870724
0.08575753 -0.048339836 -0.05818227 -0.07138572 -0.013325095 -0.004641138 0.07968935 -0.045815837
-0.06551475 0.019346647 0.015580878 0.024331331 -0.023767812 -0.08859517 -0.048621837 0.08780279
-0.01523282 -0.01505412 0.06507927 -0.046930134 -0.08110483 -0.07527173 0.017580558 0.038684323
0.050616123 -0.03014768 0.006464459 0.0039674714 0.06580251 -0.053179923 0.06512756 0.021637423
0.029664682 -0.07088666 0.06486451 -0.048858143 -0.035394803 -0.061915237 0.020282403 0.08634401
0.07150806 -0.052173723 -0.008825332 -0.015311867 -0.038608987 -0.038706716 0.023511633 -0.03575566
-0.1358777 0.011816405 0.08400979 0.0035790792 0.0382247 -0.057967223 0.07424276 0.00022996888
0.060801968 0.011940099 0.028721685 -0.07427094 0.001607636 0.010776439 -0.014217831 0.057652824
-0.033040285 -0.027896605 -0.05630748 0.018251002 0.08580444 0.019676382 -0.046185024 0.033549502
0.030344201 0.02353017 0.005225889 0.07780377 0.076477505 -0.052371062 0.073153205 -0.021401508
-0.08381537 0.069943264 -0.04755336 0.015906762 0.089545324 -0.02321072 0.07803606 0.021050498
-0.0005134809 0.03409701 -0.029577801 -0.028897265 -0.09341404 0.09452098 -0.026448516 0.1541442
0.014589611 -0.0014452498 0.08024678 0.053515527 0.04858727 -0.01236891 0.04665519 -0.01589175
-0.010773485 0.0008895508 -0.06262469 -0.016195014 0.033768248 0.04983422 0.0078183785 -0.036281273
0.003872418 -0.050564952 -0.031545743 0.00854678 -0.042718098 -0.08045391 -0.050013915 -0.0013454198
0.05082851 -0.060673594 0.060448375 -0.07153642 -0.043575186 0.115191676 -0.007424238 0.0754438
0.07930782 0.020513287 -0.04337349 0.02674833 0.018394612 0.005519931 0.014727451 0.08684964
0.02110759 0.052197747 -0.032926846 -0.02901623 0.07544384 -0.021700896 0.066538654 -0.038896725
00000000: 82f2 a03d 0283 c6bc 842f 7a3c a29b 4c3d
00000010: 2ab3 7dbb 66fd 5cbd 86ea 5fbd 643f bf3c
00000020: d19e 023d 88d9 953d 7a69 393d b5de b23d
00000030: 0381 673d 5e5e 2f3d 0d92 9d3d 98a5 2abb
00000040: 0002 4c3d 5f8c 6fbc a636 943d f256 423d
00000050: 2f6e a0bd 4a01 833d e4bd 813c 08d8 cdbc
00000060: 9125 a8bc 8298 97bc ecc2 a33c 7adf af3b
00000070: 9ca6 ae3c 10c6 ebbc c048 8d3a 848e 943d
00000080: 710e 0abe 2057 23bc b21f 473d 9921 443d
00000090: 841a 2a3b e63e 903d c4f0 adbd 2f87 8cbd
000000a0: fd12 a3bd fbc5 9b3d 2a5a 6a3d a648 753d
000000b0: 3461 963d 4021 27bc efcd a93d 2099 f53b
000000c0: b414 a33c 0a3f 9cbc 95e7 84bc d663 32bd
000000d0: 0268 253d 2eb5 653d 357e 39bd fcd7 2bbd
000000e0: 8545 0f3a ed8a cbbd 23ce 52bc 0541 c53c
000000f0: 5028 e9bb 0dbc 733c b748 873d cce6 75bd
00000100: a687 ecbc f58f a8bc ee30 1a3d 8393 233d
00000110: 725f 77bd c468 623a 27cd 3fbd 24ab 8dbd
00000120: db6c 5c3c 9dbe 54bd 949d aa3d f419 05bd
00000130: 4b15 d4bc 18d9 843d 4a54 233d 93ab 923d
00000140: 82d3 613a 96e9 21bc a5a9 fbbc e654 cb3d
00000150: 695c 893d b1e8 31bd 7213 2c3d 0600 8c3d
00000160: 1ff5 72bd 934e 1dbd d820 fa3b 5bdd 53bd
00000170: c6f4 30bd 74db d0bb 0c7e 9dbd a5ee 61bd
00000180: 3a75 913b 399e 66bc d1e7 463d a29c ba3d
00000190: 23d7 a13d 920f 15be b694 903c e6f6 ebbc
000001a0: 543f fcbb 24b3 98bd 8b83 b33d 0299 6d3d
000001b0: 8a74 77bd 2799 55bc 9e4b df3d 3e81 473d
000001c0: a5a1 af3d feff 45bd 8850 6ebd ad32 92bd
000001d0: 8051 5abc b014 98bb 2c34 a33d 63a9 3bbd
000001e0: 992c 86bd dc7c 9e3c f046 7f3c 8052 c73c
000001f0: b7b4 c2bc 6271 b5bd b127 47bd f3d1 b33d
00000200: 1493 79bc 8ea5 76bc 4848 853d d039 40bd
00000210: 4a1a a6bd 1128 9abd 1a05 903c 7473 1e3d
00000220: da52 4f3d 44f8 f6bc d0d3 d33b 9001 823b
00000230: 77c3 863d 31d3 59bd 9961 853d f740 b13c
00000240: 5903 f33c 062d 91bd afd7 843d 7a1f 48bd
00000250: 24fa 10bd d59a 7dbd 4827 a63c 21d5 b03d
00000260: d172 923d 1db4 55bd 2098 10bc a0de 7abc
00000270: 7524 1ebd ef8a 1ebd 789b c03c 8774 12bd
00000280: 8623 0bbe 9899 413c 530d ac3d fc8e 6a3b
00000290: 8191 1c3d 0a6f 6dbd 970c 983d cd23 7139
000002a0: 7c0b 793d 68a0 433c bd49 eb3c 5d1b 98bd
000002b0: 50b7 d23a a98f 303c e8f1 68bc 5e25 6c3d
000002c0: 4055 07bd 6c87 e4bc aca2 66bd 2083 953c
000002d0: 3dba af3d 5d30 a13c 822c 3dbd 346b 093d
000002e0: 6794 f83c 58c2 c03c ef3d ab3b 9557 9f3d
000002f0: 3da0 9c3d 0a83 56bd 59d1 953d 3752 afbc
00000300: 65a7 abbd 6a3e 8f3d 50c7 42bd e64e 823c
00000310: 8a63 b73d 6824 bebc 5fd1 9f3d 1872 ac3c
00000320: 1f9b 06ba 4ea9 0b3d 254d f2bc f5b9 ecbc
00000330: dc4f bfbd 3794 c13d 8faa d8bc fad7 1d3e
00000340: 4409 6f3c 896e bdba 6c58 a43d 1933 5b3d
00000350: 7203 473d f8a6 4abc 8319 3f3d 6a2f 82bc
00000360: 4583 30bc be30 693a 6041 80bd 68ab 84bc
00000370: 9350 0a3d f81e 4c3d a818 003c ac9b 14bd
00000380: 65c8 7d3b 321d 4fbd 1c36 01bd cb07 0c3c
00000390: 2cf9 2ebd 05c5 a4bd 64db 4cbd cc58 b0ba
000003a0: 8e31 503d e084 78bd b798 773d b081 92bd
000003b0: e57b 32bd 9de9 eb3d 0647 f3bb 4782 9a3d
000003c0: 236c a23d 7b0b a83c 67a8 31bd 501f db3c
000003d0: 4cb0 963c 8ae0 b43b 684b 713c 39de b13d
000003e0: d3e9 ac3c 4ecd 553d 4dde 06bd 72b3 edbc
000003f0: 4d82 9a3d 14c6 b1bc 6b45 883d 2c52 1fbd

net.4.bias f4 [15]
0.057168704 0.08685761 -0.07127335 -0.063809134 -0.0640991 0.070487194 -0.047495127 0.056451254
-0.027666729 0.053663705 0.003731946 -0.020387378 0.07007822 0.089392945 -0.030701904
00000000: bb29 6a3d 67e2 b13d c3f7 91bd 5dae 82bd
00000010: 6446 83bd 975b 903d 408a 42bd 6e39 673d
00000020: 56a5 e2bc 79ce 5b3d aa93 743b 6e03 a7bc
00000030: 2b85 8f3d a613 b73d 8f82 fbbc

net.0.weight f4 [128, 4]
0.124012135 0.34157762 -0.3390828 -0.2994733 -0.57819045 0.13189088 0.017531289 0.40504304
0.5694095 0.14802517 -0.14424472 -0.07962935 -0.19172528 -0.35132682 -0.21092005 0.01765611
0.3284104 0.3738325 -0.25196305 -0.15203895 0.32053858 0.40697697 -0.11162493 0.367128
0.39304385 0.056828175 0.44772974 -0.476792 -0.31392854 -0.11972984 -0.19866882 0.42449787
-0.20810015 -0.17126623 -0.3513381 -0.42465085 -0.27481976 0.42898694 0.22669773 0.24427468
0.48528558 -0.23696478 0.10377092 -0.38529816 -0.79403514 -0.28706136 0.31008193 0.2841071
-0.07589348 -0.059177857 0.2986745 0.48715085 0.19844109 0.06754643 0.33524317 -0.29440117
0.5702702 -0.38632086 -0.33918035 -0.22714096 0.18103047 0.20973949 -0.2735418 0.17079404
0.65831524 -0.061888337 0.017121356 0.108977325 0.38743326 0.5027349 -0.3665717 -0.1996114
0.674991 0.39730132 0.41664535 0.43133804 0.6315632 -0.43570906 0.046557747 -0.31046098
-0.38018513 0.47709435 0.40310383 -0.50241226 0.09358603 -0.084230006 -0.082280576 -0.22887844
0.19227809 -0.29615176 0.18329567 0.25285405 0.40598154 0.20845827 -0.45267487 -0.29669008
0.24965751 0.104650676 -0.390042 -0.28790975 0.47037464 0.33690894 -0.21801257 -0.12584239
-0.47629905 -0.008987069 -0.37652946 -0.38567835 0.48545814 0.06881909 -0.2068993 0.2949958
-0.07933201 0.49140882 0.37040192 -0.4327117 0.21736278 0.008490001 0.055788755 0.12212397
0.6106213 0.030403929 -0.23680446 0.25156432 -0.47962445 -0.29635334 -0.12516493 -0.24355668
-0.14154606 -0.41488832 -0.083686866 0.11060266 -0.40907332 -0.031012507 0.34717372 -0.062541775
-0.23300833 -0.052011367 0.09737995 0.31161392 0.89523935 0.32324815 0.48068273 -0.03244927
-0.44925505 -0.23882164 0.33404058 -0.009305286 -0.11335664 -0.37736228 -0.46766487 -0.41801798
-0.101418376 0.274203 0.27032053 -0.48221594 0.31189102 -0.39125472 -0.10570514 -0.20273632
0.21998209 -0.10313166 -0.44910398 -0.41990894 -0.07823974 0.0064660907 -0.22713745 0.1883496
-0.0068973037 -0.032743957 0.44272077 -0.20668548 0.42393547 0.19469534 -0.44932273 0.3178555
-0.6523784 -0.14094554 0.42419156 -0.51623464 0.46297547 -0.092176676 0.36482066 0.14230481
0.7704595 0.17520346 -0.11828653 -0.101165295 -0.6623465 0.26664352 0.40416244 0.34130985
-0.35268915 0.022299945 -0.35246706 -0.2752421 -0.29135275 0.17087251 -0.2979566 -0.010908604
0.124727294 0.36366755 -0.3297306 -0.31311837 -0.76700133 0.3526015 -0.18508668 0.4133634
0.18080378 0.06331301 -0.003722012 -0.09884077 -0.12148919 -0.12682407 -0.016652811 0.04849003
-1.058176 -0.13929796 0.44248596 -0.5719097 -0.38887691 0.49198166 0.1874579 0.01107657
-0.17160577 0.25722632 -0.35522437 -0.14958137 0.032064147 -0.070245564 0.010217081 0.4079186
0.33794442 0.44236973 0.29345256 -0.32218766 0.78533417 -0.36157838 -0.21050093 0.15368478
0.33849692 0.4109797 -0.137334 0.0046031405 0.25741178 -0.48354608 0.3614903 -0.4134612
0.0068912506 -0.08500838 -0.26333648 0.06608552 1.014411 -0.14381628 -0.2982932 -0.1875965
00000000: 13fa fd3d 43e3 ae3e 439c adbe 9054 99be
00000010: 4a04 14bf 670e 073e c79d 8f3c cd61 cf3e
00000020: d2c4 113f e993 173e e3b4 13be b614 a3bd
00000030: a253 44be 1ce1 b3be 6dfb 57be 8ca3 903c
00000040: 6825 a83e f966 bf3e 4d01 81be 19b0 1bbe
00000050: a21d a43e 495f d03e 9c9b e4bd 34f8 bb3e
00000060: 0b3d c93e a9c4 683d d53c e53e 151e f4be
00000070: 3ebb a0be eb34 f5bd d76f 4bbe c957 d93e
00000080: 3518 55be 6a60 2fbe 96e2 b3be d66b d9be
00000090: 2db5 8cbe 2da4 db3e 7323 683e 2423 7a3e
000000a0: 5a77 f83e e5a6 72be d985 d43d cd45 c5be
000000b0: e345 4bbf b5f9 92be 0fc3 9e3e 7c76 913e
000000c0: 0a6e 9bbd 7b64 72bd ddeb 983e d66b f93e
000000d0: 2434 4b3e c855 8a3d fea4 ab3e c0bb 96be
000000e0: 3afd 113f d9cb c5be 0ca9 adbe a497 68be
000000f0: 0d60 393e f3c5 563e ac0d 8cbe a2e4 2e3e
00000100: 5987 283f a07e 7dbd 1642 8c3c 812f df3d
00000110: a75d c63e 3cb3 003f 49af bbbe ee66 4cbe
00000120: 36cc 2c3f 146b cb3e 8a52 d53e 57d8 dc3e
00000130: 20ae 213f 4215 dfbe 56b3 3e3d bef4 9ebe
00000140: a0a7 c2be b645 f43e a063 ce3e 179e 00bf
00000150: 08aa bf3d c880 acbd b882 a8bd 1c5f 6abe
00000160: 8ce4 443e 34a1 97be dcb1 3b3e 1676 813e
00000170: d0dc cf3e 1676 553e 00c5 e7be c3e7 97be
00000180: 38a6 7f3e 1853 d63d 96b3 c7be e868 93be
00000190: f2d4 f03e 547f ac3e b03e 5fbe d4dc 00be
000001a0: 78dd f3be 803e 13bc 78c8 c0be a277 c5be
000001b0: f88d f83e 06f1 8c3d 69dd 53be b109 973e
000001c0: d278 a2bd f099 fb3e 52a5 bd3e 638c ddbe
000001d0: 5994 5e3e a519 0b3c c082 643d 221c fa3d
000001e0: ad51 1c3f a911 f93c de7c 72be 0acd 803e
000001f0: 5691 f5be a0bb 97be 3c2b 00be ec66 79be
00000200: 73f1 10be 3e6c d4be 0564 abbd a683 e23d
00000210: 0f72 d1be f10d febc c1c0 b13e e715 80bd
00000220: bc99 6ebe df09 55bd 246f c73d dc8b 9f3e
00000230: 682e 653f c880 a53e 0c1c f63e 87e9 04bd
00000240: c204 e6be a98d 74be 5e07 ab3e 3375 18bc
00000250: 8727 e8bd a135 c1be c571 efbe 7406 d6be
00000260: 70b4 cfbd 5664 8c3e 7467 8a3e 02e5 f6be
00000270: 2eb0 9f3e 8a52 c8be f07b d8bd 1c9a 4fbe
00000280: fc42 613e b136 d3bd f5f0 e5be 4efe d6be
00000290: 283c a0bd 80e1 d33b b896 68be b8de 403e
000002a0: c702 e2bb 871e 06bd 4cac e23e 5ca5 53be
000002b0: 120e d93e 375e 473e a10d e6be f5bd a23e
000002c0: 4502 27bf 0754 10be a32f d93e f427 04bf
000002d0: 1f0b ed3e 20c7 bcbd c6c9 ba3e 5ab8 113e
000002e0: d53c 453f 8968 333e 3540 f2bd c02f cfbd
000002f0: 8a8f 29bf 8085 883e 61ee ce3e 2ac0 ae3e
00000300: ac93 b4be 60ae b63c 9076 b4be 88ec 8cbe
00000310: 302c 95be 34f9 2e3e c48d 98be 00ba 32bc
00000320: 0671 ff3d a232 ba3e 73d2 a8be 0d51 a0be
00000330: 335a 44bf 2f88 b43e 5d87 3dbe 5ea4 d33e
00000340: a024 393e 40aa 813d 00ed 73bb 086d cabd
00000350: 53cf f8bd 2bde 01be 7a6b 88bc 7b9d 463d
00000360: 5072 87bf 20a4 0ebe 858d e23e ad68 12bf
00000370: e01a c7be 05e5 fb3e f7f4 3f3e 807a 353c
00000380: 6cb9 2fbe 2bb3 833e f8df b5be dc2b 19be
00000390: b255 033d e8dc 8fbd 8b65 273c b5da d03e
000003a0: 0d07 ad3e 497e e23e 6a3f 963e c8f5 a4be
000003b0: a90b 493f cd20 b9be 8e8d 57be 8b5f 1d3e
000003c0: 784f ad3e ee6b d23e 49a1 0cbe f1d5 963b
000003d0: 7acb 833e 5a93 f7be 4215 b93e 30b1 d3be
000003e0: 00d0 e13b e018 aebd 0ad4 86be d857 873d
000003f0: 38d8 813f 9344 13be e3b9 98be 4c19 40be

net.0.bias f4 [128]
-0.061857257 -0.16639353 0.14449167 0.17661293 -0.17048986 0.031736277 0.2911046 -0.052096248
0.1850838 -0.117897145 0.1970928 -0.37072772 -0.3129544 -0.25379527 0.46836933 -0.13811052
-0.0036395178 -0.22075841 0.49010357 0.49466464 -0.35571584 -0.40533495 -0.3789965 0.04021365
-0.12745196 -0.32727283 -0.17933607 0.09577048 -0.23338537 0.09775725 -0.09952179 -0.24228168
0.08516002 0.403695 -0.34434587 0.028784985 -0.19182877 0.48751867 -0.47438163 -0.4793306
0.49402994 -0.31634498 0.10066015 -0.04326197 -0.0825013 -0.10404434 0.32465926 0.022118583
-0.4868073 -0.29518008 -0.12909369 0.24482349 -0.32356685 0.4607608 -0.0745815 -0.083751746
0.39604354 0.25701633 0.41810217 0.29499856 -0.11680736 -0.3317362 -0.037201524 0.4176862
-0.17457525 -0.46651158 0.21089312 0.47477853 -0.14234161 -0.41401178 -0.45352983 0.1126529
-0.010430674 -0.25249362 0.097068176 0.19157498 0.40443647 0.3928442 -0.06708987 -0.44088358
-0.45181155 0.46576077 0.23229225 0.21922776 -0.43605706 0.45548916 0.4691349 0.45206624
-0.37927374 -0.17556158 -0.3438819 0.47073975 -0.20278549 -0.22827727 0.26511288 -0.20850761
-0.2278307 -0.020202212 -0.051248513 -0.38948923 0.423625 -0.24865744 0.19358851 0.42676732
0.25540155 0.0726917 0.43011388 0.07155289 -0.23132831 0.4788837 0.11817041 -0.4878404
-0.14807974 -0.29830408 0.44573793 -0.08257294 -0.45576245 -0.03641077 0.31207108 0.13100062
0.1678026 0.049762394 0.1886463 -0.12803753 -0.19686566 -0.46448642 -0.37666845 0.22024743
00000000: 095e 7dbd 1163 2abe a0f5 133e 05da 343e
00000010: e594 2ebe e6fd 013d aa0b 953e e062 55bd
00000020: 9c86 3d3e 0f74 f1bd b2d2 493e 06d0 bdbe
00000030: 8f3b a0be 74f1 81be 1bce ef3e d86c 0dbe
00000040: fa84 6ebb 7e0e 62be dbee fa3e af44 fd3e
00000050: 6320 b6be 1088 cfbe d40b c2be 11b7 243d
00000060: c482 02be 4e90 a7be e0a3 37be 5023 c43d
00000070: 93fc 6ebe f434 c83d 15d2 cbbd b018 78be
00000080: 6068 ae3d 1cb1 ce3e 1a4e b0be 7dce eb3c
00000090: c36e 44be 0c9c f93e 26e2 f2be d26a f5be
000000a0: 7ef1 fc3e f8f7 a1be e926 ce3d 7733 31bd
000000b0: 71f6 a8bd 3315 d5bd bd39 a63e 0832 b53c
000000c0: ce3e f9be d821 97be 2331 04be 02b3 7a3e
000000d0: 8eaa a5be d7e8 eb3e 2fbe 98bd 0986 abbd
000000e0: 38c6 ca3e a597 833e 7d11 d63e 0d0a 973e
000000f0: b238 efbd 54d9 a9be a060 18bd f7da d53e
00000100: dbc3 32be 9bda eebe 5ef4 573e 2c16 f33e
00000110: 00c2 11be 5af9 d3be 1035 e8be 90b6 e63d
00000120: 6be5 2abc d846 81be aecb c63d 3b2c 443e
00000130: 4c12 cf3e e022 c93e 6a66 89bd 7ebb e1be
00000140: d853 e7be 3278 ee3e 05de 6d3e 3e7d 603e
00000150: df42 dfbe e035 e93e 7332 f03e 3a75 e73e
00000160: 2b30 c2be 6ac6 33be 4a11 b0be cd04 f13e
00000170: 00a7 4fbe 84c1 69be e0bc 873e 0583 55be
00000180: 734c 69be 1c7f a5bc f6e9 51bd 226b c7be
00000190: 60e5 d83e 0ea0 7ebe 113c 463e 3f81 da3e
000001a0: fec3 823e 63df 943d e337 dc3e 528a 923d
000001b0: 54e1 6cbe 3f30 f53e 5403 f23d 38c6 f9be
000001c0: 37a2 17be 50bb 98be c337 e43e 001c a9bd
000001d0: b259 e9be 7623 15bd c8c7 9f3e 0725 063e
000001e0: 72d4 2b3e a7d3 4b3d 7f2c 413e 451c 03be
000001f0: 2797 49be 2ad1 edbe b0da c0be 8b88 613e

net.2.weight f4 [128, 128]
-0.052681223 0.0038105953 0.047857583 0.007139756 -0.039856628 0.085012674 -0.04290405 0.06615539
-0.051786795 -0.025700685 0.06059975 -0.07325868 0.06554119 -0.060825013 -0.057974372 -0.071948014
0.022252904 0.113837406 -0.039582487 0.039830808 0.00935797 -0.019168101 0.06499226 -0.05761831
0.009388022 0.08312122 -0.0121456385 0.06991021 0.008253624 0.07276659 -0.021467255 -0.012738854
-0.026559029 0.030856462 0.011867478 0.07406921 -0.013475384 0.008237728 0.06052933 -0.023915514
0.08751361 -0.058850035 -0.0069223265 0.015494046 0.016718915 0.060456403 -0.0037056021 -0.075790085
0.043795742 0.026439764 0.050200764 -0.055707224 0.056886353 0.08743428 -0.04143882 -0.08343831
0.068701126 -0.064797156 0.026146289 0.022089256 -0.02100356 0.030776426 -0.079057425 0.037509017
-0.05686247 -0.016608093 0.017975524 0.086141385 -0.042171873 0.056624763 -0.011228308 -0.038370904
-0.020569334 -0.08109793 0.10988347 -0.018812763 0.008281107 0.03998242 0.059719175 0.075437166
0.07168447 -0.060705375 0.0121560255 -0.04290551 -0.054028846 0.022136413 0.08485153 -0.06893417
-0.008507179 -0.05305507 -0.017215773 0.077504724 0.038709186 0.008048266 -0.05898992 0.06843315
-0.016614808 -0.069840804 0.020689657 -0.06284565 -0.06665686 0.00011912093 0.08752871 -0.008794987
0.042607535 0.07641236 0.07538812 -0.04772219 -0.009689115 -0.020245222 -0.0753213 3.6522746e-05
0.065199286 0.12761879 0.019642768 0.02007503 -0.03826523 0.061341956 -0.024625374 -0.065112725
0.0123828985 0.054224305 -0.07237237 0.12975384 0.024881763 -0.059280004 -0.019039512 0.07841196
-0.0678146 -0.02532356 0.027288893 -0.07831406 0.048454337 0.044552457 0.053517506 -0.056351736
0.08819628 -0.053623404 0.08713807 -0.08482545 -0.078240156 0.0542878 0.008065788 0.0050990656
-0.0499728 -0.038053177 -0.027223485 -0.08726342 0.0039092614 0.015632264 -7.483363e-05 0.028543279
0.08386736 0.023501053 -0.032356534 -0.038063444 -0.056958877 -0.06258943 -0.01423493 -0.015632853
0.038462393 -0.039065212 0.070463516 -0.063430145 0.00025121868 0.07827599 0.08789206 -0.051200032
0.014397521 0.01044067 -0.04267393 -0.030059304 0.023009239 -0.06251041 0.013122257 0.03687648
-0.034831207 0.073419 -0.005816877 0.038597185 0.087531544 -0.02830802 0.047233727 -0.026524223
-0.014439979 -0.016287925 -0.0019521076 -0.034546655 0.019810611 0.0033305064 0.056028478 -0.019205365
0.008863598 -0.03229935 -0.07523807 0.034353312 0.011309989 -0.035398096 -0.02988454 0.021550301
-0.015982106 0.05775965 0.0039782436 0.031778716 0.037324935 -0.023114452 0.03728184 0.0652247
0.004067488 0.015888976 0.002799073 0.059494715 -0.03781838 -0.048240814 0.037112903 -0.0783374
0.0014170855 -0.04064901 0.058339275 -0.08368799 0.053592734 0.087447606 0.016473642 -0.005403252
0.08633739 -0.03866996 -0.007082872 -0.038705695 -0.013613444 0.018435711 0.010109702 -0.018113203
-0.089669 0.0035402155 -0.0037523867 0.0122737335 0.06772759 0.084731996 -0.05317686 -0.005511403
-0.03616348 -0.08146273 -0.065854 0.08295786 0.051535808 0.04647367 0.047831763 -0.07167345
0.009855189 0.0808153 -0.050523505 0.077669136 0.022497036 0.061820675 -0.037864476 0.03925223
00000000: 44c8 57bd 2ebb 793b 5006 443d 9df4 e93b
00000010: b440 23bd 201b ae3d 28bc 2fbd 7a7c 873d
00000020: 641e 54bd 3e8a d2bc 7237 783d a608 96bd
00000030: 763a 863d a623 79bd 8976 6dbd 7b59 93bd
00000040: b94b b63c 9623 e93d 3f21 22bd a125 233d
00000050: 2c52 193c 6c06 9dbc a91a 853d 2d01 6cbd
00000060: 38d0 193c 753b aa3d 80fe 46bc 162d 8f3d
00000070: 353a 073c a606 953d 19dc afbc a0b6 50bc
00000080: 5292 d9bc b1c6 fc3c cf6f 423c 99b1 973d
00000090: dbc7 5cbc 89f7 063c 9aed 773d 78ea c3bc
000000a0: 563a b33d bc0c 71bd afd4 e2bb bdda 7d3c
000000b0: 1bf6 883c 22a1 773d b0d9 72bb d537 9bbd
000000c0: 2a63 333d 3498 d83c 519f 4d3d 422d 64bd
000000d0: aa01 693d be10 b33d c1bb 29bd b4e1 aabd
000000e0: 2db3 8c3d 5fb4 84bd be30 d63c 87f4 b43c
000000f0: a80f acbc d81e fc3c dce8 a1bd 0ea3 193d
00000100: 9fe8 68bd b20d 88bc 6841 933c e56a b03d
00000110: 6abc 2cbd 5eef 673d f0f6 37bc cf2a 1dbd
00000120: 0581 a8bc ac16 a6bd 960a e13d 391d 9abc
00000130: 7bad 073c 9bc4 233d 189c 743d cd7e 9a3d
00000140: 4fcf 923d 33a6 78bd 112a 473c b0bd 2fbd
00000150: 5a4d 5dbd 6c57 b53c a4c6 ad3d 5c2d 8dbd
00000160: b261 0bbc 4650 59bd 1808 8dbc ccba 9e3d
00000170: 868d 1e3d e0dc 033c 6a9f 71bd ae26 8c3d
00000180: c71b 88bc b208 8fbd 5b7d a93c 38b5 80bd
00000190: 6483 88bd 90d0 f938 4142 b33d d918 10bc
000001a0: 3d85 2e3d 157e 9c3d 1665 9a3d 5878 43bd
000001b0: 18bf 1ebc 4fd9 a5bc 0e42 9abd 0030 1938
000001c0: 3487 853d 80ae 023e dfe9 a03c 6474 a43c
000001d0: 00bc 1cbd b441 7b3d 27bb c9bc d259 85bd
000001e0: a4e1 4a3c 4e1a 5e3d f737 94bd 31de 043e
000001f0: d7d4 cb3c 97cf 72bd c0f8 9bbc 7396 a03d
00000200: 62e2 8abd 5b73 cfbc f58c df3c 1f63 a0bd
00000210: 0e78 463d a37c 363d 2c35 5b3d 14d1 66bd
00000220: 40a0 b43d 37a4 5bbd 7275 b23d f7b8 adbd
00000230: 603c a0bd e25c 5e3d 5e26 043c 1016 a73b
00000240: 47b0 4cbd a6dd 1bbd c903 dfbc 2ab7 b2bd
00000250: 4319 803b 3c0f 803c 00f0 9cb8 98d3 e93c
00000260: a7c2 ab3d 4885 c03c 4988 04bd 6ae8 1bbd
00000270: b64d 69bd e32e 80bd a039 69bc 7810 80bc
00000280: be8a 1d3d d802 20bd 2d4f 903d aae7 81bd
00000290: 00b6 8339 2a4f a03d c100 b43d 20b7 51bd
000002a0: 94e3 6b3c 580f 2b3c dcca 2ebd ee3e f6bc
000002b0: df7d bc3c 7505 80bd bcfe 563c cb0b 173d
000002c0: 2bab 0ebd b35c 963d 809b bebb 1518 1e3d
000002d0: bd43 b33d 39e6 e7bc 2778 413d 5449 d9bc
000002e0: a995 6cbc 416e 85bc dddd ffba cb80 0dbd
000002f0: dd49 a23c a044 5a3b 1e7e 653d 9254 9dbc
00000300: a038 113c 534c 04bd 6b16 9abd 0fb6 0c3d
00000310: 884d 393c 98fd 10bd 6cd0 f4bc 428a b03c
00000320: e8ec 82bc 6295 6c3d ed5b 823b 662a 023d
00000330: 08e2 183d 855a bdbc d8b4 183d 8794 853d
00000340: 9048 853b 9929 823c a770 373b bbb0 733d
00000350: 72e7 1abd 2998 45bd b303 183d 5c6f a0bd
00000360: 80bd b93a 947f 26bd 2af5 6e3d 9c64 abbd
00000370: 0e84 5b3d bb17 b33d bbf3 863c c30d b1bb
00000380: a8d1 b03d 6464 1ebd 7017 e8bb dd89 1ebd
00000390: ec0a 5fbc 7d06 973c 2aa3 253c 2462 94bc
000003a0: 61a4 b7bd f602 683b 9aea 75bb c517 493c
000003b0: c3b4 8a3d f887 ad3d fbcf 59bd 0099 b4bb
000003c0: 2820 14bd efd5 a6bd 76de 86bd cfe5 a93d
000003d0: 3617 533d 2d5b 3e3d 3deb 433d 88c9 92bd
000003e0: a977 213c 7e82 a53d bcf1 4ebd ff10 9f3d
000003f0: b44b b83c ad37 7d3d c817 1bbd f2c6 203d

net.2.bias f4 [128]
-0.0057055783 0.08263891 -0.03903381 0.011680402 0.020083724 -0.07264684 0.0586146 0.070616394
0.07162963 0.066812314 0.04761239 -0.053639807 0.06861377 -0.03323378 0.024414644 -0.08220349
-0.008838184 -0.042722628 -0.04410465 -0.06584098 -0.010142341 -0.047879145 -0.05527444 -0.08189962
0.06341914 0.07150958 -0.01349742 0.055738214 0.020060152 -0.053909853 -0.013024412 0.034953263
0.0005470085 -0.0045425 -0.013279453 0.06738566 -0.065081485 0.01722165 -0.056470823 0.04486391
-0.015041502 -0.052135512 -0.06876349 -0.008131541 0.0047086095 0.05916259 -0.017804787 -0.04607721
-0.08556467 -0.008335265 0.08033836 -0.07605892 -0.013449493 0.06327657 0.06735627 -0.058211215
-0.08285535 0.08278892 -0.038869932 0.017664151 -0.08769784 0.045293532 0.003849354 -0.023037024
-0.047903158 0.03493946 -0.035325274 -0.0315 -0.04874129 0.064537995 0.008720726 -0.014023975
0.010058314 0.059821986 -0.06689232 0.06365836 0.032889128 0.055431172 -0.019997226 -0.052017357
-0.014481774 0.083337694 -0.06061562 -0.06632965 -0.023487415 0.03601505 -0.07540082 -0.008310825
0.015822023 -0.030127808 -0.07384668 -0.03163929 -0.03202698 0.024289189 -0.08820226 0.015369974
-0.012753808 0.054906584 -0.04384634 0.050451405 0.007716746 0.036593027 -0.08466693 -0.017000126
-0.05272711 0.049873505 -0.06994649 0.06588616 -0.07336469 0.050005253 -0.019350743 -0.075843535
0.0056797117 -0.08051736 0.022831691 0.08351146 -0.0084335655 -0.04800388 0.06885139 0.009383872
0.013763791 0.05329332 -0.0842997 -0.04245094 0.034557268 0.0065594204 -0.025059806 -0.064658195
00000000: dcf5 babb 973e a93d ebe1 1fbd 285f 3f3c
00000010: 9f86 a43c dec7 94bd dd15 703d 549f 903d
00000020: 8eb2 923d e5d4 883d 3605 433d 6ab5 5bbd
00000030: 6085 8c3d 2520 08bd 3801 c83c 4e5a a8bd
00000040: 08ce 10bc ecfd 2ebd 14a7 34bd a3d7 86bd
00000050: 102c 26bc ec1c 44bd 7467 62bd fdba a7bd
00000060: e5e1 813d 9d73 923d 4824 5dbc c14d 643d
00000070: 3055 a43c 94d0 5cbd 5864 55bc 272b 0f3d
00000080: 1e65 0f3a 40d9 94bb 1092 59bc 7e01 8a3d
00000090: 7149 85bd 6b14 8d3c f34d 67bd 38c3 373d
000000a0: a270 76bc 0c8c 55bd dfd3 8cbd 283a 05bc
000000b0: ae4a 9a3b 7954 723d 58db 91bc 75bb 3cbd
000000c0: 883c afbd a390 08bc 7088 a43d c7c4 9bbd
000000d0: 435b 5cbc 2597 813d 16f2 893d e26e 6ebd
000000e0: 11b0 a9bd 3d8d a93d 1436 1fbd 69b4 903c
000000f0: ed9a b3bd b685 393d 7245 7c3b 24b8 bcbc
00000100: 1a36 44bd ae1c 0f3d 3cb1 10bd 2506 01bd
00000110: f2a4 47bd 7f2c 843d 60e1 0e3c d0c4 65bc
00000120: a0cb 243c e607 753d d7fe 88bd 505f 823d
00000130: c0b6 063d cc0b 633d 39d1 a3bc 2710 55bd
00000140: f644 6dbc f4ac aa3d 1648 78bd d7d7 87bd
00000150: ae68 c0bc 8484 133d bf6b 9abd 202a 08bc
00000160: 309d 813c 98ce f6bc ee3c 97bd 3398 01bd
00000170: b92e 03bd 1ffa c63c 63a3 b4bd 58d2 7b3c
00000180: 59f5 50bc bae5 603d 3898 33bd 22a6 4e3d
00000190: c2dc fc3b 92e2 153d db65 adbd d943 8bbc
000001a0: 62f8 57bd 2948 4c3d 1b40 8fbd 53ef 863d
000001b0: 3a40 96bd 4fd2 4c3d 7385 9ebc db53 9bbd
000001c0: e01c ba3b 49e6 a4bd 8709 bb3c 0e08 ab3d
000001d0: f02c 0abc b79f 44bd f501 8d3d d0be 193c
000001e0: 8681 613c 194a 5a3d 52a5 acbd 09e1 2dbd
000001f0: ec8b 0d3d 68f0 d63b 394a cdbc 846b 84bd
