dqn_out/dqn_ep4300.pt (torch, 464501 bytes, 24 tensors)

net.0.weight f4 [128, 77]
00000000: 8745 abbe 0dbe 513d f798 9ebd b797 0bbe
00000010: 6087 13bc 7688 653d d173 ca3c de78 ea3d
00000020: 566c 893d a9de 10bd 7a0e df3b df05 0dbe
00000030: 018e a7bd 32f2 093c bcc0 26bd 7b1b 913b
00000040: bd75 193d 1f24 9c3d a329 a5bd 35ed 73bd
00000050: 27e2 003d 08fd 7c3d ebd0 a9bc 19f7 e43d
00000060: ec05 82bb 58c6 673d 19d5 d83d 33c9 a5bd
00000070: 81ea f4bd a6a9 b6bd 761f b6bd 699d 013e
00000080: ece8 bbbc 8f8e 0ebd b515 9fbd 572a e5bd
00000090: 7175 90bd fd05 c13d 75a0 273d 9993 393d
000000a0: dbc0 22bd e3bc 04be 7291 6c3d d9e5 b8bd
000000b0: b68e f4bd 53c4 a3bc ac37 353d f714 bfbc
000000c0: 5bbb 81be 6d36 aebd 2503 b63d 188f 2d3e
000000d0: dbd7 373d 346e 7cbb 5fee c03d 0eb5 70bd
000000e0: 0cf6 3c3c 7147 c9bd fd16 b6bd a30e e8bd
000000f0: 46b5 2e3e 2abc 0d3d 69fd a2bd b9e7 673d
00000100: 9c33 923d 601d cf3b ef11 57bd 1630 62bd
00000110: 5b96 0a3e d86c 083e 9113 8fbd f5df 0dbd
00000120: 0e50 613d 88f0 e13d a2b8 d73d 7abd af3d
00000130: 82f2 503c 410d a13f e178 213d 3488 e1bd
00000140: 4b71 78bc 9f37 8f3d bef4 653d 8f75 c0bd
00000150: 0704 94bc 71b8 bfbd 6348 9a3d fc4a 91bd
00000160: 0586 c83d ae4b d9bd 4c6a 873c 2513 70bd
00000170: 66ed ba3d 1d8b 203d 3223 97bd f8fc 68bd
00000180: 3dcd af3d c73a 583d 8945 bcbd 9e64 a23c
00000190: c503 ca3d 6f33 593d 21d1 edbd 1252 adbd
000001a0: 95e3 23be fb90 653d b5e2 7dbd 7b89 a0bd
000001b0: 3920 b7bc 9988 f33c b50f 98bd eef2 8f3d
000001c0: 6f40 19bc 8c56 f93d b041 e13d 4b8c 89bd
000001d0: b3db 163a f94e 89bb 4c3b 00bc c93e f13c
000001e0: 1488 ba3c a871 0abe c350 bcbd 2807 a73c
000001f0: cb21 a7bc 5cb6 3abe ad27 023d a3b9 bcbd
00000200: 4999 20bd 8e8a 84bd f298 1a3c 592b 363d
00000210: 0184 49bd 841c a93c 1757 e23d d917 8d3c
00000220: d035 14bc 764c 853d c819 523d e28c 9b3c
00000230: 7d4e bdbd c3f8 0f3d 6e8a 8e3d a07b 503e
00000240: 3e8c 97be 6798 d6bd 885e 583c 9d5e 0abd
00000250: 538f 4fbe fd1a c1bd 69b6 bbbd c6ba a9bd
00000260: b406 143c 4d42 bb3d c7e0 a13f 58bf e2bd
00000270: 5f2d 343d cfc5 4abc 9dc7 41bd c8e7 72bd
00000280: 686e 1c3d 4d51 273d 9519 81bd d6c8 ddbd
00000290: d14a 7b3b 55d6 0d3e 6c76 a9bc e6cf 7c3d
000002a0: a8ab 45bd 8ce5 e13c 6de6 da3d d1b6 d5bc
000002b0: 3869 be3d 93ba 253d b048 d4bd 9bdd 493d
000002c0: 43b1 403d cf80 92bd cff1 a43d 186a 01bd
000002d0: 5029 b13d df6d 0b3d d1a0 953d baf0 123d
000002e0: 6ebf 273e 2ac5 e43c fb6f b6bb cd02 85bc
000002f0: caee 55bd 2dfa b83d 1874 ca3d 4703 9b3d
00000300: 5e49 a6bd 4903 8c3b d1b0 39bd e80c 94bd
00000310: e2fc a7bd 9405 403d a746 38bd 4f55 983d
00000320: bf8f b73c 0d1c cc3d 6df1 39bd 8211 af3d
00000330: 7d00 f1bc 5482 d33d f059 a0bd a27c db3d
00000340: 20e3 963d 0178 3b3d 7892 963c 182f bfbc
00000350: f0fd 5c3c 0184 4fbc 1996 1bbc 7eed 80bc
00000360: b935 f0bd d196 b7bc e8a0 df3d a69b 90bd
00000370: 1e68 d53b 9519 4d3d acd4 a93d 5730 d53c
00000380: b038 febc a244 0fbc 214b 0abe f91a a0bc
00000390: 5adb 15bd be70 ba3b 6105 e539 88eb dd3f
000003a0: c0e5 ba3b e22d 823d 09d3 633d f2c9 86bd
000003b0: 8bef b5bb 415d 8cbd 3c36 e8bc 8232 df3d
000003c0: 0b7f c13d 8ffb 8d3c 7430 3dbc 3236 a03d
000003d0: 6832 623d 18dd dabd 4a70 9e3d 5956 74bd
000003e0: 2eb5 873c b098 e5bc 9f60 8cbd 6e47 d63b
000003f0: 24a1 3e3d 7545 aa3b 9379 bdbd 13e2 44bd
-0.33451483 0.051206637 -0.077440195 -0.13632093 -0.009004444 0.056038342 0.024713429 0.11448835
0.067101166 -0.035368595 0.0068071457 -0.13771771 -0.08181382 0.00841956 -0.04071115 0.0044283248
0.0374658 0.07624077 -0.08064582 -0.05955239 0.031465676 0.061764747 -0.020729503 0.11179943
-0.003967991 0.05658564 0.1058752 -0.08095016 -0.119587906 -0.089190766 -0.088927194 0.12657703
-0.022938214 -0.034803923 -0.07767812 -0.11189716 -0.0705365 0.0942497 0.040924508 0.045306776
-0.039734703 -0.1296268 0.057755895 -0.09028215 -0.119412825 -0.019991076 0.044242546 -0.023325427
-0.25338253 -0.08506475 0.088873185 0.16949117 0.04488359 -0.0038517835 0.09420466 -0.058766417
0.0115332715 -0.098280795 -0.088911034 -0.11330917 0.17061338 0.034603275 -0.079584904 0.056617472
0.0713875 0.0063206404 -0.052507337 -0.05522164 0.13533919 0.1332277 -0.06986154 -0.03463741
0.055007987 0.11032206 0.10533263 0.08581062 0.012753131 1.258217 0.03942192 -0.11012307
-0.01516373 0.06993031 0.056141607 -0.093974225 -0.018068327 -0.09361351 0.07533338 -0.0709438
0.09791187 -0.10610138 0.016530178 -0.058612008 0.091273114 0.03919517 -0.0737976 -0.056881875
0.08584068 0.05279043 -0.0919295 0.019823369 0.09864 0.053027567 -0.11612154 -0.08462919
-0.16004784 0.056046467 -0.061983783 -0.07838722 -0.022354232 0.02972822 -0.07424871 0.07028757
-0.009353741 0.12174711 0.10998857 -0.06716212 0.00057547836 -0.0041903225 -0.0078266375 0.029448884
0.022769965 -0.13519919 -0.091950916 0.020389155 -0.020401856 -0.18233627 0.03177612 -0.09215095
-0.039208684 -0.0647174 0.009435879 0.044474933 -0.049198154 0.02064348 0.11051767 0.017223286
-0.009046033 0.065087244 0.05129412 0.018988077 -0.09243486 0.035149347 0.06959997 0.20359659
-0.29599184 -0.10478287 0.013206132 -0.033781637 -0.20269518 -0.09428976 -0.09165651 -0.08287577
0.009034801 0.09143505 1.2646722 -0.11071652 0.04398858 -0.012376263 -0.047309507 -0.059303075
0.03819123 0.04084902 -0.063037075 -0.10829322 0.0038344155 0.13851292 -0.02068635 0.061721705
-0.048259407 0.027575277 0.106884815 -0.02608815 0.09297413 0.040461134 -0.103654265 0.049283605
0.04704405 -0.071534745 0.08053934 -0.03159532 0.08650458 0.034040328 0.07306064 0.035874106
0.16381618 0.027926046 -0.0055675483 -0.016236687 -0.05222968 0.09032092 0.098854244 0.075689845
-0.081194624 0.0042728526 -0.04533464 -0.07229024 -0.082025304 0.04688032 -0.044989254 0.07438146
0.02240741 0.09966288 -0.045396257 0.08548261 -0.029419178 0.103275925 -0.07829654 0.10717131
0.073675394 0.04576874 0.018380389 -0.023337886 0.013488278 -0.0126657495 -0.009496235 -0.015738245
-0.11728997 -0.022410782 0.10919362 -0.070609376 0.006512656 0.050073225 0.08292517 0.026024027
-0.03103289 -0.008744391 -0.13505222 -0.019544112 -0.036586143 0.0056897094 0.0004368229 1.7337503
0.005703658 0.06356408 0.05562118 -0.06581487 -0.0055522374 -0.06853724 -0.028346173 0.108983055
0.0944806 0.017331867 -0.011547197 0.07822837 0.055223852 -0.106867015 0.07736261 -0.05965266
0.016565885 -0.028026909 -0.068543665 0.006539277 0.046540394 0.005196268 -0.09251704 -0.048067164

net.0.bias f4 [128]
00000000: 9c32 0abd ffa2 8ebc 12c1 a1bd 8d1d e03c
00000010: bbf3 80bd 391c 6fbd 61e3 2c3d 9c6d 2fbd
00000020: 25d0 9d3c cfed 30bb 1b62 263d 0e29 853d
00000030: 3921 d8bd 0109 61bd 64b6 503e eb9d c03c
00000040: 24c3 4dbc e423 9d3d ec13 0c3e 2f34 5b3d
00000050: e4f6 41bd ef14 e23d 1d85 ddbd d334 dbbd
00000060: e21f 7f3c eb62 2c3b dd29 e6bd 51a9 b53d
00000070: 57c2 4a3b ab42 93bd c478 f93c de14 bf3d
00000080: 353b 2d3b 0324 ad3d 9d68 6b3d 07bd 0c3d
00000090: 2f04 43bd e081 acbd 9e60 8bbc b1a4 efbc
000000a0: 988e b5bd 79ce d1bd 8f53 94bd 6eba 503b
000000b0: 8775 33bd 7117 c4bd 743a 7dba 446f 1bbd
000000c0: e79a 1dbd 131a b93d d672 283d 4dcc 043e
000000d0: 929d c93d dc48 863c 5770 56bd 853d ccbb
000000e0: 7eda 553d 30ed 39bd aa46 c53d 0418 cd3d
000000f0: b9f2 9ebd 5567 483d 2469 163d 36a9 3d3d
00000100: be50 9cbd 9d47 043e 3906 2ebd 6ee4 353d
00000110: f12c 94bd 8062 443d d44e 05bd 6cf6 73bd
00000120: 2c17 cdbd 329f fe3c d99c 433d af65 cb3c
00000130: 06ef a1bc 96d2 923c 96ee 4abd aa44 ef3c
00000140: 50f8 b13d 2b0f b9bd d39e 373d 1b4c 4dbd
00000150: 483a eb3c 70ac cbbc 22e6 3f3d b97a c3bd
00000160: 4f50 9e3d d625 863d 3d9d b4bd 8583 a6bd
00000170: 189a 913d 65fc a1bd 25bf f63c e697 6bbd
00000180: 882b d7bd 8465 2e3d 900c e9bc 1c56 4fbd
00000190: 8837 3b3d e3f3 3f3d 8008 ca3d c1bf d63d
000001a0: f13d 113d 6850 b53b dd74 0f3d 2bdc 803d
000001b0: dd98 94bd 6fb5 b23d 87bb 163d 543f 343d
000001c0: 0cd9 603c 38fd f2bd 18be 9d3d 429f 193c
000001d0: d679 b8ba 5489 65bd dea3 a03d edbc 75bc
000001e0: 8288 ed3b 460b d5bd a7af f03d 5436 dbbd
000001f0: 115c 7d3d a2f4 713d 0e74 723c 2129 a7bd
-0.03373967 -0.017411707 -0.07898153 0.02735784 -0.06296488 -0.058376525 0.042209033 -0.04282914
0.01926429 -0.0026997214 0.040620904 0.06501971 -0.10553212 -0.054940227 0.20382077 0.023512801
-0.012558732 0.07672861 0.13679475 0.053516563 -0.047354594 0.11039149 -0.10816405 -0.10703435
0.015571566 0.0026304077 -0.112384535 0.08870185 0.003093859 -0.0719045 0.030453093 0.09330152
0.0026432995 0.08454134 0.057472814 0.034359958 -0.04761141 -0.08423209 -0.017013844 -0.029253336
-0.08865088 -0.1024446 -0.072425 0.0031849402 -0.043813255 -0.095747836 -0.0009659894 -0.037947908
-0.038477805 0.090381764 0.04112514 0.1296856 0.09844507 0.016392164 -0.05235323 -0.0062329196
0.052210324 -0.045392215 0.09632619 0.10014346 -0.077611394 0.04892667 0.036721364 0.04630395
-0.07632588 0.12917943 -0.042486403 0.0444073 -0.072351344 0.0479455 -0.03254588 -0.059561178
-0.10014185 0.03108177 0.047757003 0.02482876 -0.019767296 0.01792268 -0.04954394 0.029207546
0.0868994 -0.09036096 0.0448292 -0.050121408 0.028714314 -0.024862498 0.04685033 -0.09544892
0.077301614 0.065501854 -0.08819053 -0.08130554 0.07109469 -0.079094686 0.030120442 -0.05751791
-0.1050635 0.04257728 -0.028448373 -0.05061923 0.045707256 0.046863448 0.098649025 0.10485793
0.035459463 0.005533267 0.03502356 0.06291994 -0.07255719 0.08726012 0.036799934 0.044005707
0.013723623 -0.11864704 0.07702273 0.009376349 -0.0014074396 -0.05603917 0.07843755 -0.014998657
0.007248939 -0.10402541 0.11752253 -0.10703722 0.06185538 0.05907119 0.014798177 -0.081621416

net.2.weight f4 [128, 128]
00000000: 696d 33bd 5021 c0bb 7a14 86bd 844f eabc
00000010: cd42 bdbc 1906 f7bc 75ae 6f3d ac5c 9f3d
00000020: 58ec 2bbd 86f3 3a3d 8ed2 253b b14e 7c3d
00000030: 19e0 9dbd 885c 33bd d40d 91bc 01da ad3d
00000040: 7c27 893d 16ed dcbc 032b 5fbd 954a 41bd
00000050: a81b 323c b9c6 8a3c f2c7 43bd 0006 cc3c
00000060: 5871 27bc c474 803d cd02 0abd d520 57bd
00000070: b090 5e3c b8ad c23a bfe7 3f3d edb7 b03d
00000080: 65cd 11bd f354 a83d b261 1d3d 391c 9a3d
00000090: 3f4d c63c 2084 58bc 07ea 193c 003c 183b
000000a0: 62b1 85bd 7340 04bd c71a 893d 44e2 8d3c
000000b0: ae1b a73c 3028 0c3c c839 9c3c a903 7cbd
000000c0: 385c 88bc 3d7e b5bc ae7a 08bd e80d 71bd
000000d0: f8f4 16bc 6c52 a9bb eae0 02bd 80fa b0bc
000000e0: fc59 debc 147b 7dbc c9cb 96bd 998b 933d
000000f0: 955d 41bd 6fe4 2f3d 1722 a4bd bcad c6bb
00000100: 8006 36bc 273d a0bd 2a46 d03a f325 8dbd
00000110: f80f 003d cd81 583d e0eb 5fbc 20ff 6f3c
00000120: 8f34 35bd 28bf f03c 9ae6 aabd 26f6 ad3d
00000130: a025 a3bb 5f5f 7c3c d508 933d ce54 98bd
00000140: 2f95 3cbd 4d42 523c 722a babd d4b3 a43c
00000150: 6825 2cbc 84cc a9bd 55a0 cdbc f87c 8abd
00000160: b0e5 0b3c 0d91 7e3d 330d a63d 21b2 acbd
00000170: e43a e93c 6654 8bbd 9a17 e83c 3e48 473d
00000180: fc72 acbd 3cc5 88bd dd50 a2bd 38c7 07bc
00000190: 07b5 f33c 7b01 8bbd 7fde 0fbc 54ad 0abd
000001a0: 3e04 9e3d baf7 a5bd 1ef2 48bd 98d0 7bbb
000001b0: 8025 93bd c156 8b3d 8ca7 acbd c57b 01bd
000001c0: 2813 24bd e1f2 7cbb 6f02 2cbd dc64 773d
000001d0: 39ef a1bd f37e 4abd e79a 31bd 8703 adbd
000001e0: 9eda b9bd b246 e63c 1e3b a43d d26b 87bc
000001f0: 16cd 18bd e0a0 113d aa54 553d 2775 a2bd
00000200: df9b e3bd cffa 17bd 8d7f f93c 8f1a 85bd
00000210: 7b8c e63c f1ea 7d3c 31a0 a3bd f106 c3bb
00000220: 5cd4 113e ef98 643c 1e8e e23d e7e8 09bd
00000230: 703f c7bb eea9 173e 8ac4 73be 6da7 a8bc
00000240: 9316 a9bd d596 d13c 860e b2bd dea1 a0bd
00000250: aff2 2cbe 44b6 043e 533d 8f3d 1bac c5bd
00000260: feaa 1a3d 3c06 20be 52a9 de3d 9ac6 413d
00000270: 767b 7e3c 1c28 a13d 8b62 f73b 628c 393d
00000280: c4c5 073c cf7b f7bc 6278 37bb c7b3 023e
00000290: 2727 173d b86d 44be ff00 afbd 73f3 87bb
000002a0: 04e0 38bd f152 a93c 2cbb abbd 827c 173d
000002b0: 4368 08bd e2d5 34bd be5d c23d 98a4 b03d
000002c0: 480d 0c3e 6560 5bbc e803 073e 5666 293d
000002d0: 19c5 4a3d f245 013d eebf a4bd 08d2 d33d
000002e0: f73e ffbd ee96 dd3d 691e dabd cf9e a83d
000002f0: 0431 a63d 03f4 b8bd 290b 2cbd 2ec0 2d3e
00000300: 40b5 a13c 7da5 01be bbd9 7c3d 0693 423d
00000310: 6ba1 9fbc 5efa 4e3c 597f 03bc 5774 a43c
00000320: 8325 393c 412b ac3d b932 9dbd 609f 0c3e
00000330: d07c b4bd f0ab bd3d 6d4d 12bc e1ed 1b3d
00000340: 247d 783d 22df 1a3e 136e b93d ec99 a9bc
00000350: 8652 e63b 1f02 953d d6d6 46bd 34ea dd3d
00000360: 5639 653d 7be7 3b3c 5b50 a5bc 3bf4 f43d
00000370: 0698 253d 7842 0abd bfc3 ac3d 5f3d 113c
00000380: 0391 bc3d 100d d1bd cba8 f03b 90ff e13d
00000390: 7974 6c3d 36f7 5ebd a633 05be f021 843d
000003a0: 07b8 19be 9aec 51be 1335 53be 952e cbbc
000003b0: 603c afbd b24e 3cbd cacc cdbc 4c11 3d3d
000003c0: e238 dbb9 3363 a1bb c92f 0c3d 13d5 1cbc
000003d0: e11a 3f3b 3d78 ccbd 142b fcbd 345c 8a3d
000003e0: 262c b0bc bfac 453e b9c2 1abd a090 f23d
000003f0: 9fe0 cf3b 8c09 13bd bce8 a03d 68d8 263e
-0.043805514 -0.005863346 -0.06546874 -0.02860237 -0.023103142 -0.030154275 0.058515985 0.07781348
-0.04197344 0.0456424 0.0025302502 0.061598483 -0.07708759 -0.043789417 -0.01770679 0.084888466
0.06696984 -0.02696852 -0.05448438 -0.047190268 0.010870852 0.016940461 -0.047798105 0.024905205
-0.010219894 0.06272271 -0.033694077 -0.052521545 0.013584301 0.0014852798 0.04685187 0.08628831
-0.03559627 0.08219328 0.038423248 0.07524914 0.024206756 -0.013215095 0.009394175 0.0023229122
-0.06527974 -0.032288026 0.066945605 0.017319806 0.02039894 0.008554503 0.019070521 -0.061526928
-0.016645536 -0.022154922 -0.03332012 -0.058851153 -0.009213679 -0.005167296 -0.031952776 -0.021603823
-0.027142517 -0.015471239 -0.07363088 0.072043605 -0.047208387 0.04294246 -0.080143146 -0.006063191
-0.011109948 -0.07824164 0.0015890051 -0.06892004 0.03126523 0.052858163 -0.013667077 0.014648229
-0.044239577 0.029388025 -0.08344765 0.08494215 -0.0049788505 0.015403598 0.07179419 -0.0743805
-0.04604071 0.01283319 -0.09090127 0.02010528 -0.010506965 -0.082909614 -0.025100866 -0.06762117
0.0085386485 0.06215005 0.08107986 -0.08432413 0.028470464 -0.06803207 0.028331567 0.04865288
-0.08420369 -0.066782445 -0.0792558 -0.008287244 0.029749407 -0.06787392 -0.008781075 -0.033856705
0.07715653 -0.08103891 -0.049059026 -0.0038423892 -0.07184887 0.06803656 -0.084303945 -0.031612176
-0.04005733 -0.0038596916 -0.04199451 0.06039892 -0.07906956 -0.049437474 -0.043360617 -0.084479384
-0.09074901 0.028109882 0.08019088 -0.016530905 -0.03730496 0.035553813 0.052082695 -0.07932501
-0.111137144 -0.037104424 0.030456329 -0.06499206 0.028143158 0.015497909 -0.079895385 -0.005951755
0.14241165 0.013952478 0.11062263 -0.03366938 -0.0060805604 0.14810917 -0.23805442 -0.020587647
-0.08256259 0.025584618 -0.086941764 -0.07843374 -0.16889451 0.12960154 0.069941185 -0.09651967
0.037760727 -0.15627378 0.10872139 0.04730854 0.015532365 0.078689784 0.007549589 0.045299895
0.008286897 -0.030210404 -0.0027995338 0.12763892 0.036902573 -0.1918248 -0.08545112 -0.0041488945
-0.045135513 0.020669432 -0.083853096 0.036983974 -0.033302557 -0.044149287 0.09490536 0.08625144
0.13676941 -0.0133896815 0.13185084 0.04135736 0.049504373 0.031560846 -0.0804442 0.10342795
-0.124631815 0.10819803 -0.106503315 0.08233415 0.08114818 -0.090309165 -0.04200283 0.16967842
0.019739747 -0.12660785 0.06173108 0.047503494 -0.01948615 0.012632934 -0.0080259675 0.020075006
0.011300447 0.084066875 -0.0767569 0.13732672 -0.088128686 0.0926131 -0.008929593 0.038068656
0.06066622 0.15124181 0.09054198 -0.020703278 0.0070288805 0.07275795 -0.048544727 0.10835686
0.055962883 0.011468763 -0.020179918 0.11960646 0.040428184 -0.033754796 0.08435773 0.00886473
0.09207346 -0.102075696 0.0073443404 0.11035073 0.057728264 -0.054434977 -0.13007984 0.064517856
-0.15011607 -0.20500413 -0.20625715 -0.024802485 -0.085564375 -0.045973487 -0.025122065 0.046159074
-0.00041813316 -0.0049251555 0.03422526 -0.009572285 0.0029160308 -0.09983871 -0.12312904 0.067558676
-0.021505427 0.19304179 -0.03778336 0.11843991 0.0063439156 -0.035897776 0.078568906 0.1629349

net.2.bias f4 [128]
00000000: f046 02bd f3e8 a0bd 32b0 bc3d 7b7d 883d
00000010: 823e 72bc ed72 01bd 9ce4 503d 1f12 57bd
00000020: 297b c5bd 78ab 903d 1618 8b3d bc00 03bd
00000030: 9cc4 a23d b3a6 42bc 74ea 0c3c 1dba 8ebc
00000040: c70b 223d cec0 b73d 1124 68bc 02f2 5c3d
00000050: ac0f 1a3c 6ec4 2d3d 8eb7 1fbd 5438 3fbd
00000060: ba4b 963d e46d 3c3d df02 c2bd eb27 213c
00000070: b297 333d a613 133d e280 9a3d e249 833d
00000080: cb5a a9bd 7365 83bd 9eb3 d13d 5908 2c3c
00000090: 852d aabc a69c b43d a4a7 f7ba 3274 3a3d
000000a0: 1a68 5bbd 6f57 683d 0163 41bb d6f5 d4bd
000000b0: 5f1f f93c 109a f4bc d59b d93c 0724 b8b7
000000c0: d3e4 763d ccb2 80bd 4a5a 5c3d 409a 363d
000000d0: 0c1a 88bd f6e4 453d 7f3a 8e3a e296 b43d
000000e0: c089 81bd 9a5b 9ebd 48a2 0d3c a2ef 963c
000000f0: b6f6 4fbc 28b7 16bc 7bd3 5abd d477 6d3c
00000100: a145 4c3d de34 98bd 5e97 433d 8a07 e5bc
00000110: ce2c 58bd aaab bcbc 893b 533d 80ea a1bd
00000120: 881d a9bd 7d5a bebd 810c 94bd 0ce8 663d
00000130: a361 a3bd 0719 bb3b 56c9 1f3d 9b07 b7bd
00000140: 7563 2b3d ca2c 24bd e761 c3bd a9d6 fa3c
00000150: bc73 ac3d 6052 fbbc 8101 073b e311 703d
00000160: e518 82bd d070 5cbc 2e99 3fbb 9bb6 3f3c
00000170: 8f47 923c 6e02 a7bd 3957 32bd bf01 77bc
00000180: f6ab 4dbd e881 25bd 26f8 ea3b ef90 ccbb
00000190: 50dc c6b9 64e6 1abd ae40 d13c cd7b 64bd
000001a0: 0c51 093d 8902 783c b9dc 203d dcd7 193d
000001b0: 0ee3 8dbb 59ac 7e3b bf95 e33b 9741 c93c
000001c0: fda7 a13d d3fe 223d 2a4e 4abc 282d 69bd
000001d0: f30e 1d3d a3d6 153d f302 203d 432a 0ebb
000001e0: 3fa3 9a3d cde3 423d 755b 0bbc 73fd 2b3d
000001f0: 13c6 8f3d 333b 26bb 0efe 9f3c 13a5 923d
-0.031805933 -0.078569315 0.09213294 0.066645585 -0.014785411 -0.031603742 0.05099927 -0.052507516
-0.096426316 0.07063955 0.067917034 -0.031983122 0.079476565 -0.0118805645 0.00860082 -0.01742273
0.039562013 0.089723215 -0.014168755 0.053941734 0.0094031505 0.042423658 -0.03899341 -0.046684578
0.073386624 0.046003237 -0.09473204 0.009836177 0.04384584 0.03590741 0.07544114 0.064105764
-0.082692705 -0.06415834 0.102393374 0.010500037 -0.020773659 0.08818941 -0.0018894565 0.04552097
-0.053566076 0.05672401 -0.0029508474 -0.10398452 0.030410467 -0.029858619 0.026563564 -2.1951286e-05
0.060276818 -0.06284103 0.053797044 0.044580698 -0.06645593 0.048314057 0.0010851173 0.08817841
-0.06325102 -0.07732315 0.008644648 0.018424813 -0.012693098 -0.009198941 -0.05342434 0.014493901
0.04987109 -0.074319586 0.047751777 -0.027957696 -0.052777104 -0.023031075 0.05157045 -0.079060555
-0.08257586 -0.09294603 -0.072289474 0.05637364 -0.07977607 0.0057097706 0.03901037 -0.089369975
0.041842896 -0.040081777 -0.09540158 0.030619936 0.08420512 -0.030678928 0.0020600262 0.058610808
-0.063524045 -0.013454631 -0.002923559 0.011701251 0.017856387 -0.0815476 -0.043540213 -0.0150761
-0.050212823 -0.04040709 0.007170695 -0.0062428634 -0.00037929649 -0.037817374 0.025543537 -0.055782128
0.033524558 0.015137323 0.039272998 0.037559375 -0.0043300455 0.0038860051 0.0069453414 0.024567408
0.07893369 0.0397938 -0.012347737 -0.05692783 0.038344335 0.036581647 0.039065313 -0.002169267
0.07550668 0.04758053 -0.008505692 0.041989755 0.070202015 -0.0025364875 0.019530322 0.07160392

net.4.weight f4 [15, 128]
00000000: cc5a df3c 6b29 053e 04f7 c2bd a095 6abd
00000010: 9d86 093e 80a0 42be f481 babd 00ad b93d
00000020: 0994 d13d b6f8 bc3d 45f3 d6bd 49da 37bd
00000030: cda9 d6bd 4df7 4cbb b034 ca3d 2327 d63d
00000040: f45a b33d 1dd6 47be 1be7 26bc 20cd b3bd
00000050: e5f5 183e d6aa d73d f50d 5b3e 6ae0 5f3e
00000060: c20e b33d 9423 903d d5a5 cd3d a5a3 35bd
00000070: 1fbe 323e ab0d dc3c c0eb ccbd 224b aa3d
00000080: 0164 6bbc 6ccf e0bc 0f20 27be 7bea 0d3e
00000090: b60f 223d 0c87 423d e7f9 24bd f12e 0a3e
000000a0: d0bf 353e 8d18 7b3d ad2e 2a3e 1b32 463e
000000b0: 528e bb3d 0f1f 233d 29e2 63be 096c 9c3d
000000c0: d5d5 70bc 7ff5 ec3d 6e76 263c 24dd d6bd
000000d0: 241d aabd 2518 713e c303 7a3d f79a 17be
000000e0: 770e 163e 186b d8bc 66cf c63d 90ec f6bc
000000f0: 9699 bb3d 8dab 153c 2cbd d4bd c06e 55be
00000100: adc2 a33d c719 593d 6fd8 003e e59d 063e
00000110: e9d7 0f3e c91c 27bd 9931 b0bb 4f6e 0e3e
00000120: e629 f23c 30ac 853d 7632 623e 8db5 cc3d
00000130: 8f7b 343e e7a1 79bd 5fca cd3d 17da 5a3e
00000140: 631f abbc e65d 1a3e d9bf 2a3e e718 d93d
00000150: e18f a63d 8ef6 58bd 5970 1e3e 65a9 903d
00000160: f242 763e c42c 943e 0fc2 a03c f9e3 543e
00000170: 892e 3abe bf2e 233e 13db 13be 702a 3a3e
00000180: b595 afbd 8445 9dbc 1ea8 08be ca16 da3d
00000190: 67b4 18bd e564 073e 5822 b73d b077 10be
000001a0: 9790 423e 66c1 bebc dfe5 073d 1db4 0e3d
000001b0: ea54 1e3d 48d5 86bd 16aa 6ebd 84f7 3e3d
000001c0: eeab d33d dd76 d13d a983 d03d 67f9 ce3d
000001d0: 523b f53c cadc 1fbb 4cbc 473e f7f3 e73d
000001e0: 6a6c c43d a317 0e3c c063 5abd 67b6 7e3d
000001f0: b99c 55bd b2fd e83d 1564 373d 111f c93d
00000200: d02f 6abc 1183 793e fac0 00be 210c cebc
00000210: 6d86 313e 8ec6 05be 5e7b 21be f2a1 2e3d
00000220: f63d 153e 8fba 133e d73e 24be 6378 1fbd
00000230: 28bf f9bb fd96 dd3d 0aa2 443e de21 763d
00000240: ef55 603e 56de 5ebe fee3 8ebd bc42 72bd
00000250: fa93 f43d ed99 a33c 72bf d43d 6d9f 753d
00000260: 4ce8 573d 01b4 28bc cf37 ad3d 7bb0 79bd
00000270: a761 083e 5659 d53c b00f e4bd c6fe a3bd
00000280: d1a8 c43d 7209 78bc d73c 15be 6d55 0b3d
00000290: 8674 f3bc 2621 39bd 3c33 1cbe 6d49 2b3e
000002a0: b0a4 f33d f900 043e 334f 1f3e 3048 0b3e
000002b0: ca5d 663d 1682 7a3d 7009 9bbd 5f7e 1b3e
000002c0: 246c 88bd 99f7 363e e20c c13d faaa 21bc
000002d0: a561 823d 6c36 333e 54aa d83d 5d12 22be
000002e0: 1125 503e 4938 2d3e 937e 3abc 2b9e 863b
000002f0: e015 c73d 3220 8d3c f913 d7bd 3874 65be
00000300: c9ce dc3d 4c7a de3d cbda 013e 9efc 2c3e
00000310: 382f 3c3e fcfe b63c b1eb ec3c a712 7cbd
00000320: 0210 a43b c527 293e 2001 02bd 836d 103d
00000330: 6598 4a3e 7cc1 e33a 9fbb 133e 5aa4 743e
00000340: 59a7 b13d 0fdd 853d 055f a63d f24d dc3d
00000350: af0d 96bb c0b9 7ebd 9c24 bc3c a0d9 ca3b
00000360: 08f5 5a3e 54e5 693e 0332 e23c 1db9 0c3e
00000370: 7005 3ebe f391 8f3e 14a9 aebd 6bbc 3c3e
00000380: fcc7 03be 1ebc cdbc 3ba6 7e3d c405 b93d
00000390: c300 dd3d 482c e03d 440b 6aba 7b3e 47be
000003a0: a0e8 273e c012 eabd b724 873c 5beb 033e
000003b0: bc1b a83c 4a1b d1bc 3ee5 cebd 6efe fe3c
000003c0: 1e65 bf3d 4c49 893d c87e 4c3e 9b1c b03d
000003d0: 6c86 a83d d934 ce3d 34cd 073e 0192 7ebd
000003e0: e1e5 a73d 88c1 93bc 741c 2fbe a778 e93d
000003f0: 02f7 b5bd cb1f ad3d cd6f 643d d9b7 203b
0.027264975 0.13004081 -0.09519771 -0.0572716 0.13430257 -0.19006538 -0.09106818 0.090662
0.102333136 0.09227125 -0.10495619 -0.044885907 -0.10481606 -0.0031275332 0.098733306 0.104566835
0.08757582 -0.19515271 -0.010186936 -0.08779359 0.14937551 0.10530631 0.21392043 0.21862951
0.08743049 0.07038036 0.100413956 -0.044345517 0.17455338 0.026861986 -0.10005903 0.08315112
-0.0143671045 -0.027442656 -0.16320823 0.13858978 0.039565764 0.047492072 -0.040277388 0.13494469
0.17748952 0.06130271 0.16619368 0.19355051 0.09158005 0.03982454 -0.22254242 0.076377936
-0.014699419 0.11570262 0.010160072 -0.10491398 -0.083063394 0.23544367 0.061038744 -0.14805208
0.14653955 -0.026418254 0.09707527 -0.030142099 0.091601536 0.009135139 -0.10387644 -0.20843029
0.07996116 0.0530031 0.12582563 0.1314617 0.14047207 -0.040798936 -0.0053770063 0.13909267
0.029560994 0.06526983 0.22089562 0.099955656 0.17625259 -0.060945418 0.10048365 0.21372257
-0.02088899 0.15074882 0.16674747 0.10600453 0.081329115 -0.052969508 0.15472545 0.070635594
0.24048975 0.28940403 0.019623784 0.2079009 -0.18181814 0.15935801 -0.14439039 0.18180251
-0.08573476 -0.019198187 -0.13345382 0.10648878 -0.03728142 0.13222082 0.089420974 -0.14108157
0.19000469 -0.023285579 0.033178207 0.03483974 0.0386552 -0.06583649 -0.058267675 0.046622768
0.10335527 0.102277495 0.10181362 0.101061635 0.029935513 -0.0024393075 0.19505423 0.113258295
0.09590991 0.008672628 -0.053317785 0.06218567 -0.052151415 0.113765135 0.04477318 0.098203786
-0.014293626 0.24366404 -0.12573615 -0.025152268 0.17336436 -0.13064024 -0.15769717 0.04263491
0.14574417 0.14426635 -0.16039596 -0.03893317 -0.0076216646 0.10819814 0.19202438 0.060090892
0.21907781 -0.21764502 -0.0697708 -0.059145674 0.11942287 0.019970858 0.10388078 0.059966493
0.05271177 -0.0102968225 0.0845791 -0.06095932 0.13318501 0.026043575 -0.11135805 -0.080075786
0.09602512 -0.015138971 -0.1457399 0.034017015 -0.029718649 -0.04519763 -0.1525392 0.16727228
0.11896646 0.12890996 0.15557556 0.13601756 0.056241788 0.061159216 -0.075701594 0.15184925
-0.06661251 0.17867889 0.09426285 -0.009867424 0.063662805 0.17501229 0.105793625 -0.15827318
0.2032664 0.16916002 -0.011382717 0.0041082106 0.09720969 0.017227266 -0.10501856 -0.22407615
0.10781629 0.1086317 0.12681119 0.16893241 0.18377388 0.022338383 0.02892098 -0.061541226
0.005006791 0.16519077 -0.031739354 0.03526069 0.19784696 0.0017376388 0.1442704 0.2389082
0.08674497 0.06536304 0.08123592 0.107570544 -0.004579268 -0.062188864 0.022966675 0.0061904937
0.21382535 0.22841388 0.027611738 0.1374249 -0.18556762 0.28041038 -0.08528343 0.18431251
-0.12869257 -0.025114115 0.06217025 0.09034303 0.10791161 0.10945946 -0.00089280703 -0.19457428
0.16397333 -0.114293575 0.016497 0.1288275 0.020521037 -0.025525708 -0.10102318 0.03112718
0.093454584 0.067034334 0.19970238 0.08599206 0.08228764 0.10068674 0.13261873 -0.06215096
0.08198143 -0.018036619 -0.17100698 0.11399966 -0.088850036 0.0845333 0.055770684 0.0024523644

net.4.bias f4 [15]
00000000: 967b 37bd 84dd 9b3d f4fc 90bc d5d8 08bd
00000010: 72a0 ea3b 688e 033d 6e72 823d 08b6 2abd
00000020: 4717 4e3d b3a2 9d3d bbe8 023d d952 983d
00000030: 9032 ac3c 871c 343d d4bd a23c
-0.044795595 0.0761061 -0.017698742 -0.033409912 0.00716024 0.03211823 0.06369482 -0.041677505
0.050315168 0.07697048 0.03196023 0.07437677 0.021020204 0.04397252 0.019865908

net.0.weight f4 [128, 77]
00000000: e4c0 a8be b883 523d e758 9dbd df18 0bbe
00000010: 8e44 30bc c162 603d c11e e33c d2e9 e83d
00000020: f8aa 893d d111 0fbd e431 c53b 41b0 0bbe
00000030: 7b00 9fbd 5146 df3b dfc6 28bd 8a32 6a3b
00000040: a295 193d d872 9c3d fcb1 a6bd 8a27 73bd
00000050: cda7 013d cdfb 803d 0587 9bbc b9a2 e23d
00000060: a66f a8bb bbb1 753d 8840 d83d 3024 a9bd
00000070: 7885 f7bd 9459 babd 62ed b6bd 11f1 013e
00000080: 2b44 c1bc 6dbf 13bd 0fe3 9fbd 865a e5bd
00000090: f3b6 8fbd 37d2 bf3d 2066 283d 4459 3a3d
000000a0: 1768 19bd 647a 04be 0c1a 693d 3cd6 b9bd
000000b0: 9721 e8bd 1b07 a1bc cd33 2a3d b120 c6bc
000000c0: 4fb1 82be b84c acbd 081d b73d 1a44 2b3e
000000d0: 6464 353d b4a3 abbb 14a6 c03d 9fb4 70bd
000000e0: f9bb 383c a5e4 c8bd 31b4 b5bd c3dc e6bd
000000f0: d24c 303e ca3a 0a3d 82db a4bd 5944 793d
00000100: 4cbc 913d c190 813b 5aa0 61bd f086 68bd
00000110: 3846 0a3e 959a 023e 7ff2 92bd 7fb3 13bd
00000120: ac84 5b3d d133 e23d ea55 d73d b32f af3d
00000130: 2309 543c c015 a03f b14d 1e3d 97f7 e5bd
00000140: 714f 74bc bce3 8f3d 4e0b 723d a016 c3bd
00000150: eabc 8cbc 6ecc bebd 31ef 9c3d 1131 95bd
00000160: 00fc ce3d 3fe2 dbbd d9f7 8f3c 386d 6dbd
00000170: ca9c bf3d f4d3 1f3d 5634 96bd 4270 69bd
00000180: a137 ae3d 970f 553d 9866 bebd c5b6 a23c
00000190: ab86 cb3d 212d 5b3d 9a9e efbd e266 a9bd
000001a0: 30b4 23be 0a29 693d 857c 7bbd 8154 9bbd
000001b0: 2c5f c2bc f4d0 ea3c 5d99 98bd 0617 933d
000001c0: 12ce 2ebc 0535 f93d fd02 e33d e721 8bbd
000001d0: 10ce 4fb9 e58b 96bb 3e47 ddbb 3b11 f93c
000001e0: fbd3 be3c bacb 0abe d7aa b8bd 2bec ac3c
000001f0: 96fa 97bc 2a3a 36be dd89 133d 7a34 bebd
00000200: 4561 28bd 5794 85bd f287 373c 6b5f 2f3d
00000210: ebae 4dbd 913c ab3c 7bc1 e03d 5ec1 863c
00000220: 0db9 1cbc 6b36 833d 3c9e 583d e0ee a83c
00000230: f60a b1bd 3e5a 2a3d bdda 923d 28ee 4f3e
00000240: dcc4 93be 2623 d1bd 6d6d 943c e735 0abd
00000250: b936 4dbe ba1f bebd a910 c1bd a293 aabd
00000260: 91f5 173c b1ac b93d 7552 a13f 7e85 e2bd
00000270: ab13 373d 6378 54bc 4c6a 44bd 365e 75bd
00000280: 2446 1d3d e428 263d 3b8b 7fbd ec15 e1bd
00000290: 80e9 693b 1300 0c3e ff99 a7bc 0de9 7c3d
000002a0: 78b3 42bd 27d9 d83c 7bb5 d93d d98a d2bc
000002b0: e557 bf3d 472e 263d d60e d4bd 44f7 4d3d
000002c0: 6167 3e3d 64bd 94bd fe35 a43d 63cc 04bd
000002d0: a56f b03d c848 053d 316f 963d 55a9 103d
000002e0: c31d 273e d4b5 eb3c ee3c a4bb 6b58 88bc
000002f0: 0274 59bd 9588 b73d 8bdf c93d 912e 9b3d
00000300: 840f a6bd d3a0 8f3b 2614 3cbd 93a9 92bd
00000310: bbf1 a6bd 778c 3e3d 5ffb 38bd 259c 993d
00000320: 22f1 aa3c f07c c93d 889c 3bbd 5e8a a93d
00000330: 985c e6bc 1099 d43d c4a2 9fbd 657e da3d
00000340: 2979 943d 171d 3b3d afb3 943c be47 bebc
00000350: bbcc 5e3c 1358 40bc 3b4b fcbb 568f 81bc
00000360: e58a efbd ccb6 a1bc 4b46 de3d 027a 8fbd
00000370: a969 7c3b 959a 4b3d 179e a93d 1439 c03c
00000380: 66d9 05bd f0d0 0bbc b5af 0abe bbe3 a5bc
00000390: ffc0 1abd 9a2b af3b e76e 0f3a b64d dd3f
000003a0: 2298 b13b 1028 813d 5491 663d 9d0f 88bd
000003b0: e679 b6bb 66a7 90bd 2a54 f3bc 2015 df3d
000003c0: 83d3 bd3d 1ae6 853c 04f1 4dbc c7e6 993d
000003d0: 3725 603d 5a11 dbbd d3e6 9b3d 3324 7bbd
000003e0: df04 863c 6916 e6bc 6ff5 8cbd d0f9 cc3b
000003f0: 6d4a 3d3d 5a9c c73b dfd7 bcbd 6e56 47bd
-0.32959664 0.051395148 -0.076829724 -0.13583706 -0.010758532 0.05478168 0.027724626 0.11372723
0.06722063 -0.0349291 0.0060179103 -0.13641454 -0.077637635 0.0068138023 -0.041205283 0.003573569
0.037496217 0.07639092 -0.081394166 -0.05936388 0.031654168 0.06298027 -0.01898528 0.11066193
-0.0051402627 0.05998395 0.10559183 -0.08258855 -0.12086004 -0.09099117 -0.08931996 0.12689616
-0.023592075 -0.03607123 -0.0780698 -0.111989066 -0.07017317 0.09366267 0.04111302 0.045495287
-0.037452783 -0.12937313 0.056909606 -0.09074065 -0.11334532 -0.019656708 0.041553307 -0.02418551
-0.255259 -0.084130704 0.08941084 0.16725197 0.044285193 -0.005238021 0.09406677 -0.058766004
0.011275285 -0.098092355 -0.088722594 -0.11272576 0.17216805 0.033747472 -0.0804968 0.060856197
0.07115993 0.0039540236 -0.055084564 -0.05676931 0.13503349 0.12754281 -0.07175159 -0.036059853
0.053593323 0.110450394 0.10514434 0.0855402 0.0129416315 1.2506638 0.03864831 -0.11228865
-0.014911518 0.07025859 0.059092812 -0.095258 -0.017179925 -0.093163356 0.0766281 -0.07284749
0.10106659 -0.107365124 0.017574238 -0.057965487 0.09356077 0.039020494 -0.07334201 -0.056991823
0.08506704 0.05201682 -0.09296912 0.019862542 0.09937795 0.053509835 -0.11700173 -0.082715765
-0.15986705 0.056923904 -0.061398048 -0.07584477 -0.023727022 0.02866409 -0.07451127 0.07182126
-0.010669248 0.12168316 0.11084554 -0.06793576 -0.00019817823 -0.0045943134 -0.0067528775 0.030403724
0.02329444 -0.13554278 -0.0901696 0.021108707 -0.018552106 -0.17795625 0.03602015 -0.09287353
-0.04110839 -0.06522434 0.0112018455 0.042815607 -0.050215643 0.020902904 0.109744035 0.016449627
-0.009565604 0.06406864 0.05288528 0.020621717 -0.08644669 0.041589968 0.07170627 0.20305693
-0.2886113 -0.10211782 0.018118585 -0.03374281 -0.20040406 -0.09283395 -0.09427006 -0.0832894
0.009274856 0.090661414 1.2603289 -0.11060618 0.04469649 -0.012968156 -0.047952935 -0.0599043
0.03839697 0.04056634 -0.06238864 -0.109905094 0.0035692155 0.13671903 -0.020459173 0.061745692
-0.047534436 0.026470734 0.10630318 -0.025700973 0.093429364 0.040571477 -0.10354392 0.05028464
0.04648531 -0.07262686 0.08018111 -0.03242148 0.086150445 0.032540113 0.07345427 0.035317738
0.16319947 0.028773226 -0.005012146 -0.016643723 -0.05308915 0.08961598 0.098570906 0.07577241
-0.08108428 0.0043831854 -0.045917653 -0.0716125 -0.08151575 0.046520676 -0.0451616 0.07500485
0.020866934 0.09838283 -0.045803577 0.082783446 -0.028120324 0.10380757 -0.07794717 0.10668639
0.07249672 0.04568204 0.018152086 -0.023227569 0.013598616 -0.0117397485 -0.007699398 -0.015815418
-0.11696414 -0.019740485 0.10853251 -0.07005693 0.0038515127 0.049707968 0.08282106 0.023464717
-0.03267803 -0.008533701 -0.1354359 -0.020250192 -0.03778171 0.005345774 0.0005471543 1.728934
0.005419747 0.063064694 0.05629094 -0.06643603 -0.0055687306 -0.07063179 -0.029703218 0.10892701
0.09268858 0.016345073 -0.01256967 0.075147204 0.05472299 -0.10696669 0.076123856 -0.06131382
0.016359745 -0.028086858 -0.0688275 0.006255366 0.046213556 0.0060916366 -0.09220862 -0.04866641

net.0.bias f4 [128]
00000000: ef6c 09bd 7af9 94bc 3887 a1bd 29ca dd3c
00000010: cf92 7fbd 983e 6fbd ab3a 2b3d 4e85 2fbd
00000020: c9b2 9f3c 2ec9 0fbb f8fd 263d ca4f 853d
00000030: 3921 d8bd aa22 61bd b3c0 4f3e f0d2 bb3c
00000040: 464e 4fbc 1110 9d3d 539a 0c3e 2a98 5a3d
00000050: 7161 43bd 54bd e13d 46b8 ddbd a9e1 d9bd
00000060: 53c6 823c 3da2 063b 7a81 e7bd 86b3 b53d
00000070: 37ba 5c3b 626b 93bd fde4 f83c a04b c13d
00000080: d74d 2b3b fb48 ac3d 6c33 6b3d ae5b 0c3d
00000090: 47b4 42bd dad5 acbd b0dd 87bc fed5 ecbc
000000a0: f230 b5bd 5fc0 d1bd 1579 91bd 1ec5 283b
000000b0: 996d 33bd 7117 c4bd 9dd9 7cba c8b3 1bbd
000000c0: c51c 1dbd 67f4 b83d d8eb 273d 67bc 033e
000000d0: 36e1 c93d 9eb1 833c c708 53bd 4c82 c4bb
000000e0: 17c0 4e3d ec5f 37bd a2ba c53d 2979 ca3d
000000f0: 8919 a3bd 416e 483d f873 163d 47bf 3d3d
00000100: 817e 9cbd 602f 043e b4b0 2dbd a451 363d
00000110: 491a 94bd c4bc 453d 5a41 05bd b0bd 74bd
00000120: b9da ccbd a81d 013d 715c 433d 4397 cb3c
00000130: 8f45 98bc c60a 933c 88e4 49bd 0865 ed3c
00000140: 50f8 b13d c3ad b8bd 216f 323d a1a1 50bd
00000150: 693c e83c 70ac cbbc 1b8b 3d3d 8f98 c3bd
00000160: 0177 9e3d 6b04 863d d187 b4bd 4262 a6bd
00000170: 0eb7 913d febc a0bd c2ef f73c e182 62bd
00000180: 2011 d6bd 626f 2d3d 2a24 e9bc bb50 51bd
00000190: 2a56 3b3d a6b3 3f3d c5cc c93d cbe8 d63d
000001a0: 7900 113d fbbe ae3b cd1b 0e3d 0b9b 803d
000001b0: 8dcf 94bd 70e1 b13d 9d9e 163d 567d 333d
000001c0: d971 5e3c 001e f1bd 31de 9a3d 107c 173c
000001d0: 46a7 baba 0418 65bd dd6d a03d 1493 6cbc
000001e0: 0ba2 ea3b 5e2a d5bd cd28 f03d defb dabd
000001f0: ce45 7b3d 94d5 713d 7086 7b3c fd8b a8bd
-0.033551153 -0.018185366 -0.07887119 0.027073937 -0.062395867 -0.058409303 0.041803997 -0.04285174
0.019494431 -0.002193998 0.040769547 0.06509359 -0.10553212 -0.0549647 0.20288353 0.022927731
-0.012652939 0.0766908 0.13730745 0.05336777 -0.04770035 0.110224396 -0.10826163 -0.106387444
0.015963709 0.002054348 -0.113039926 0.08872132 0.0033680329 -0.07198216 0.030382628 0.094382524
0.0026138925 0.084123574 0.057422087 0.03426712 -0.047535207 -0.084392264 -0.016585201 -0.028910633
-0.08847226 -0.1024177 -0.07103173 0.0025752257 -0.043805692 -0.095747836 -0.0009645464 -0.03801325
-0.038357515 0.09030991 0.040996403 0.12864839 0.09857409 0.016075905 -0.051522043 -0.005996978
0.05047616 -0.044769213 0.09654738 0.09886391 -0.07963855 0.04893327 0.03673169 0.046324994
-0.07641316 0.12908697 -0.042404845 0.044511452 -0.07231576 0.048275724 -0.032533027 -0.059751213
-0.100026555 0.031522423 0.04769558 0.0248524 -0.018587856 0.017949473 -0.04929021 0.02897884
0.0868994 -0.090175174 0.043563012 -0.05093539 0.028349118 -0.024862498 0.04627524 -0.095505826
0.07737542 0.065438114 -0.088149674 -0.0812421 0.07114993 -0.078485474 0.030265693 -0.055300597
-0.10452485 0.04234255 -0.028459627 -0.05110238 0.04573647 0.046802185 0.0985351 0.104936205
0.03540084 0.0053328252 0.03469448 0.06279572 -0.0726615 0.08685577 0.03677236 0.0438207
0.013576948 -0.117733 0.07561911 0.009245887 -0.0014240525 -0.055931106 0.07833455 -0.014439363
0.0071604303 -0.104084715 0.11726532 -0.10692571 0.061345868 0.059041575 0.015351877 -0.08229826

net.2.weight f4 [128, 128]
00000000: 696d 33bd 5021 c0bb 7a14 86bd 844f eabc
00000010: cd42 bdbc 1906 f7bc 75ae 6f3d ac5c 9f3d
00000020: 58ec 2bbd 86f3 3a3d 8ed2 253b b14e 7c3d
00000030: 19e0 9dbd 885c 33bd d40d 91bc 01da ad3d
00000040: 7c27 893d 16ed dcbc 032b 5fbd 954a 41bd
00000050: a81b 323c b9c6 8a3c f2c7 43bd 0006 cc3c
00000060: 5871 27bc c474 803d cd02 0abd d520 57bd
00000070: b090 5e3c b8ad c23a bfe7 3f3d edb7 b03d
00000080: 65cd 11bd f354 a83d b261 1d3d 391c 9a3d
00000090: 3f4d c63c 2084 58bc 07ea 193c 003c 183b
000000a0: 62b1 85bd 7340 04bd c71a 893d 44e2 8d3c
000000b0: ae1b a73c 3028 0c3c c839 9c3c a903 7cbd
000000c0: 385c 88bc 3d7e b5bc ae7a 08bd e80d 71bd
000000d0: f8f4 16bc 6c52 a9bb eae0 02bd 80fa b0bc
000000e0: fc59 debc 147b 7dbc c9cb 96bd 998b 933d
000000f0: 955d 41bd 6fe4 2f3d 1722 a4bd bcad c6bb
00000100: 8006 36bc 273d a0bd 2a46 d03a f325 8dbd
00000110: f80f 003d cd81 583d e0eb 5fbc 20ff 6f3c
00000120: 8f34 35bd 28bf f03c 9ae6 aabd 26f6 ad3d
00000130: a025 a3bb 5f5f 7c3c d508 933d ce54 98bd
00000140: 2f95 3cbd 4d42 523c 722a babd d4b3 a43c
00000150: 6825 2cbc 84cc a9bd 55a0 cdbc f87c 8abd
00000160: b0e5 0b3c 0d91 7e3d 330d a63d 21b2 acbd
00000170: e43a e93c 6654 8bbd 9a17 e83c 3e48 473d
00000180: fc72 acbd 3cc5 88bd dd50 a2bd 38c7 07bc
00000190: 07b5 f33c 7b01 8bbd 7fde 0fbc 54ad 0abd
000001a0: 3e04 9e3d baf7 a5bd 1ef2 48bd 98d0 7bbb
000001b0: 8025 93bd c156 8b3d 8ca7 acbd c57b 01bd
000001c0: 2813 24bd e1f2 7cbb 6f02 2cbd dc64 773d
000001d0: 39ef a1bd f37e 4abd e79a 31bd 8703 adbd
000001e0: 9eda b9bd b246 e63c 1e3b a43d d26b 87bc
000001f0: 16cd 18bd e0a0 113d aa54 553d 2775 a2bd
00000200: cd42 e2bd f34b ffbc bedd e03c 46ed 87bd
00000210: 29eb e63c 75c3 7d3c a9b7 a3bd 2364 b5bb
00000220: 3e19 123e c21e 733c 4b38 e43d 5a62 09bd
00000230: 703f c7bb c0cb 173e 76e1 6abe 9b1a a1bc
00000240: 815b a8bd ff3c d63c 6f93 a1bd cdb1 9fbd
00000250: 3bc9 2abe c727 053e c747 913d df27 c2bd
00000260: 46b8 183d f4bd 1cbe a1d2 dc3d b91a 423d
00000270: 1ea8 803c b110 a43d 571d 0e3c 82bb 383d
00000280: 2f98 c73b b7c3 d8bc c93b 2abb 44fb 013e
00000290: 3631 223d 65b0 43be f99d b1bd 6707 6dbb
000002a0: e781 39bd 00cf ab3c a462 a2bd 99bd 0f3d
000002b0: 54e6 08bd e2d5 34bd fb24 c23d da06 af3d
000002c0: 7b6d 0a3e e47c 39bc 8a26 083e d48d 373d
000002d0: 1dfe 523d 86c8 013d 23bc 9fbd b60c da3d
000002e0: 9ff3 f6bd f945 e03d 5594 dabd 281a b03d
000002f0: be38 a63d a0eb b2bd 2499 29bd 6e1e 2d3e
00000300: 402b 933c 13a5 00be a070 7c3d 67e0 443d
00000310: 1977 9ebc 21c9 553c 2828 06bc d645 8d3c
00000320: 7c28 283c b5f6 ae3d 0cd1 9abd 8607 0d3e
00000330: 8121 a5bd 96f5 bd3d 3c1a e8bb 8559 1f3d
00000340: 247d 783d df0b 1c3e da52 ba3d 4e4b b5bc
00000350: 2c35 ec3b 1f02 953d 48a3 44bd 9951 e33d
00000360: 902c 673d 610b 4d3c 3bbc a3bc 9185 f43d
00000370: 32cd 273d ca67 05bd 3409 ac3d 8cf7 e73b
00000380: c5f0 bb3d 8d9d cebd 4444 b13b ef67 e63d
00000390: f559 6b3d 4e4a 58bd 2e2d 04be f156 863d
000003a0: 0749 18be 8c31 53be 56d0 4bbe 985b c8bc
000003b0: a8cf aebd 361c 37bd f42b d5bc 4376 403d
000003c0: 37ba c0ba 4f5c aebb 9ec3 093d 3ce8 0bbc
000003d0: 0259 4f3b 1979 c9bd a4d4 fbbd b8bf 8e3d
000003e0: 1f04 a5bc 9dca 463e d3d3 0cbd 35c4 f33d
000003f0: d515 b43b 518e 11bd 3576 a73d c6f7 253e
-0.043805514 -0.005863346 -0.06546874 -0.02860237 -0.023103142 -0.030154275 0.058515985 0.07781348
-0.04197344 0.0456424 0.0025302502 0.061598483 -0.07708759 -0.043789417 -0.01770679 0.084888466
0.06696984 -0.02696852 -0.05448438 -0.047190268 0.010870852 0.016940461 -0.047798105 0.024905205
-0.010219894 0.06272271 -0.033694077 -0.052521545 0.013584301 0.0014852798 0.04685187 0.08628831
-0.03559627 0.08219328 0.038423248 0.07524914 0.024206756 -0.013215095 0.009394175 0.0023229122
-0.06527974 -0.032288026 0.066945605 0.017319806 0.02039894 0.008554503 0.019070521 -0.061526928
-0.016645536 -0.022154922 -0.03332012 -0.058851153 -0.009213679 -0.005167296 -0.031952776 -0.021603823
-0.027142517 -0.015471239 -0.07363088 0.072043605 -0.047208387 0.04294246 -0.080143146 -0.006063191
-0.011109948 -0.07824164 0.0015890051 -0.06892004 0.03126523 0.052858163 -0.013667077 0.014648229
-0.044239577 0.029388025 -0.08344765 0.08494215 -0.0049788505 0.015403598 0.07179419 -0.0743805
-0.04604071 0.01283319 -0.09090127 0.02010528 -0.010506965 -0.082909614 -0.025100866 -0.06762117
0.0085386485 0.06215005 0.08107986 -0.08432413 0.028470464 -0.06803207 0.028331567 0.04865288
-0.08420369 -0.066782445 -0.0792558 -0.008287244 0.029749407 -0.06787392 -0.008781075 -0.033856705
0.07715653 -0.08103891 -0.049059026 -0.0038423892 -0.07184887 0.06803656 -0.084303945 -0.031612176
-0.04005733 -0.0038596916 -0.04199451 0.06039892 -0.07906956 -0.049437474 -0.043360617 -0.084479384
-0.09074901 0.028109882 0.08019088 -0.016530905 -0.03730496 0.035553813 0.052082695 -0.07932501
-0.110478975 -0.031164145 0.027449485 -0.06637053 0.028188305 0.015488495 -0.07994015 -0.005535619
0.14267442 0.014838876 0.111435495 -0.03354106 -0.0060805604 0.14823818 -0.22937569 -0.019666007
-0.08220578 0.026152132 -0.07889449 -0.07797585 -0.16678326 0.13003455 0.070937686 -0.09480261
0.03728511 -0.15306836 0.10782362 0.047388766 0.015705165 0.08010996 0.008673987 0.045100696
0.0060911397 -0.026460512 -0.0025975576 0.12693506 0.039597712 -0.19110258 -0.08672709 -0.0036167742
-0.0452899 0.020972729 -0.079289705 0.035092924 -0.033422783 -0.044149287 0.0947971 0.08546229
0.13518326 -0.01132128 0.13295951 0.044812992 0.051511873 0.031685375 -0.07799556 0.10646956
-0.12058186 0.10950846 -0.10672823 0.08598739 0.081162915 -0.08736348 -0.041405812 0.16906139
0.01796496 -0.12562971 0.061630845 0.04806557 -0.0193439 0.013048441 -0.008188285 0.017245214
0.0102635585 0.085431494 -0.07559404 0.13772401 -0.08063031 0.092753574 -0.0070832055 0.03890373
0.06066622 0.15238903 0.09097834 -0.022130635 0.007208487 0.07275795 -0.04800728 0.11099548
0.056438982 0.01251492 -0.019987216 0.11939538 0.040967174 -0.032569684 0.08400193 0.0070790704
0.091767825 -0.10088644 0.005409749 0.112502925 0.057458837 -0.052805237 -0.1290786 0.065595515
-0.14871608 -0.2062437 -0.19903693 -0.024457738 -0.08535701 -0.04470464 -0.026021935 0.046987783
-0.0014703934 -0.0053210626 0.03363382 -0.008539256 0.0031638746 -0.09837551 -0.12296417 0.06970161
-0.020143567 0.19413228 -0.0343817 0.11902658 0.0054957666 -0.035536114 0.08176843 0.162078

net.2.bias f4 [128]
00000000: f046 02bd 592a 9fbd 1794 ba3d e14b 873d
00000010: 413d 77bc 0fc1 06bd 7275 523d aca0 57bd
00000020: ba24 c5bd bebc 913d 73e8 883d 88a8 00bd
00000030: 374f a23d bda8 41bc 661d 0e3c cdff 8bbc
00000040: cf7a 213d 353b b63d ea72 5abc 8da1 5d3d
00000050: 06f7 193c a4aa 2a3d 1846 21bd 7711 3dbd
00000060: 60f5 953d 1fab 443d 61c6 c2bd 19b2 0e3c
00000070: e4de 323d 482b 143d db08 9a3d 4510 843d
00000080: 280f aabd 5792 84bd fe7d cf3d 8b60 2b3c
00000090: a672 bebc 978a b43d 1175 34bb df3a 393d
000000a0: b64e 59bd 6544 663d 7d23 50bb e4d5 d4bd
000000b0: 02fa f53c 200c f5bc cb0e d43c d366 6339
000000c0: 06d4 743d 8393 80bd 1020 5a3d feb3 333d
000000d0: f2e7 88bd bc3e 463d 1264 b0b9 5ead b63d
000000e0: a83f 81bd 403e 9fbd 2f6d 083c 52ef 943c
000000f0: 26bb 4abc 1335 22bc e6ec 5abd 78f4 7d3c
00000100: a32c 4a3d f59e 98bd 9cd0 433d 7863 e3bc
00000110: 79fc 54bd c8d2 bebc 64d2 543d 36ce a3bd
00000120: e3fd a8bd 6cda bebd 18b3 95bd 3a69 613d
00000130: 8532 a3bd 9884 833b 1661 1e3d 8238 b6bd
00000140: 82da 2a3d 8431 25bd 07a7 c1bd a1c8 fa3c
00000150: 9d90 ab3d c580 f5bc 12d8 cc3a a7f0 693d
00000160: 5a45 82bd bf17 61bc 47c0 ceba 5763 3d3c
00000170: 2813 8d3c bdb6 a6bd ca76 33bd 21c6 6fbc
00000180: d283 4bbd 5118 23bd e72f ee3b 39f6 dbbb
00000190: 9cc6 ee39 730a 1ebd cfa9 d53c 4caf 65bd
000001a0: 725b 0a3d 55a1 7d3c 3ad9 203d 889c 1b3d
000001b0: e391 9cbb a5da 9b3b c6d0 d33b 3f4f c93c
000001c0: 4033 a13d cacb 203d cf93 4fbc 90e2 6bbd
000001d0: 6ccf 193d 22d5 2d3d 53d9 203d 0768 1dbb
000001e0: b882 9a3d 1365 423d 4640 15bc e864 2c3d
000001f0: 50fe 8e3d 9400 84bb ac51 9d3c 0833 923d
-0.031805933 -0.07771749 0.09110277 0.0660627 -0.015090288 -0.03289896 0.051381536 -0.052643463
-0.09626146 0.07116078 0.06684961 -0.031410724 0.07925265 -0.0118200155 0.008674001 -0.017089749
0.03942376 0.088980116 -0.013333062 0.054109145 0.009397274 0.04166664 -0.039373487 -0.046159234
0.07322192 0.048014756 -0.09510494 0.008709454 0.043669596 0.03617409 0.0752122 0.06448416
-0.08303672 -0.064732246 0.10131453 0.010460029 -0.023248028 0.088154964 -0.0027535597 0.04522216
-0.05305358 0.05621757 -0.0031759434 -0.10392359 0.03002644 -0.029913008 0.02588596 0.00021686712
0.059772514 -0.06278136 0.053253233 0.043872826 -0.06684865 0.048399672 -0.00033643894 0.08919786
-0.063109696 -0.07775545 0.008326813 0.018180523 -0.012373721 -0.009900349 -0.05344858 0.01550018
0.049358975 -0.07452194 0.047806367 -0.027757391 -0.05199859 -0.023293868 0.051958457 -0.07998316
-0.0825155 -0.093190044 -0.0730955 0.055031992 -0.0796862 0.004013609 0.038666807 -0.08897497
0.04171229 -0.040330425 -0.09455686 0.030613245 0.08377192 -0.029968629 0.0015628359 0.05711427
-0.06360884 -0.013738572 -0.0015773856 0.011559329 0.017221048 -0.08140323 -0.043814458 -0.01463464
-0.04968626 -0.03981811 0.007268894 -0.0067127016 0.00045542873 -0.038584184 0.026081948 -0.05607538
0.033778615 0.015480359 0.039269663 0.037991077 -0.0047781332 0.004756289 0.0064640967 0.02457392
0.07871103 0.03925685 -0.012669518 -0.057589114 0.03755133 0.042439587 0.039269757 -0.0024018304
0.07544464 0.047459673 -0.009109562 0.04208842 0.069821 -0.004028389 0.019203983 0.0713864
