dqn_out/dqn_ep3900.pt (torch, 314997 bytes, 24 tensors)

net.0.weight f4 [128, 4]
000000 5b 8f 27 3f bd b5 b2 3e a4 dd a0 be e2 ad 93 be
       0.6545312 0.3490428 -0.31419098 -0.288436
000010 b4 cd cb bf f7 f5 22 3e 57 07 8a 3c 6f 4a d7 3e
       -1.5922151 0.1591414 0.016849203 0.42048976
000020 a9 b2 f2 3f 79 ad bf 3d 57 68 06 be 76 2d a0 bd
       1.8960773 0.09359259 -0.1312574 -0.07821171
000030 85 0d 86 bf 5b 47 0e bf 9f 05 3f be ef 5a af bb
       -1.0472876 -0.5557763 -0.18654488 -0.0053514163
000040 a6 17 60 3f aa 5a c1 3e c7 10 5b be 02 d1 5a be
       0.87536085 0.37764484 -0.21393119 -0.21368793
000050 01 3e c0 3f 57 98 c7 3e 4b 3f d1 bd d4 5d b7 3e
       1.5018922 0.38983414 -0.1021715 0.35813773
000060 e8 00 b8 3f c5 b4 70 3d a6 9d ee 3e 5a df ec be
       1.4375277 0.058766145 0.4660465 -0.46264154
000070 bc f5 4f 3c 7c ee 6a bd e3 60 46 be d4 53 d0 3e
       0.012692865 -0.057356343 -0.19372897 0.40688956
000080 46 a5 03 bf 9c 65 35 3b ea 36 9f be 38 f0 fc be
       -0.5142406 0.0027678972 -0.31096584 -0.49402022
000090 2d 21 9e bf 07 93 d2 3e 10 65 29 3e c1 a7 69 3e
       -1.2353874 0.41127798 0.16542459 0.228179
0000a0 5f 4b af 3f b0 6f 0f be 6c f8 f6 3d 26 fd fc be
       1.3694876 -0.14007449 0.120591015 -0.49411887
0000b0 94 d2 d1 bf 24 9b ac be e8 68 ab 3e c5 25 94 3e
       -1.6392388 -0.33712113 0.33478475 0.28935066
0000c0 e0 03 3e 3f 1f 14 b0 ba 66 49 87 3e 27 a9 fd 3e
       0.7422466 -0.0013433731 0.26423186 0.49543115
0000d0 07 10 65 3e 68 31 6e 3d 01 0c d7 3e 28 87 83 be
       0.22369395 0.058152586 0.42001346 -0.25689054
0000e0 ec 4c c0 3f ae 89 eb be 71 05 9d be c6 6d 3e be
       1.5023475 -0.4600348 -0.30668214 -0.18596563
0000f0 0d a9 a5 be 7b 34 a3 3e 6b 8c 99 be 99 af 3a 3e
       -0.32355538 0.31875977 -0.29989943 0.18231048
000100 f9 f1 f8 3f 17 1a cd bb 94 16 0c 3d 0e dc dc 3d
       1.9448844 -0.0062592137 0.03420122 0.107841596
000110 aa fb 38 3f 02 79 0b 3f 9b 48 a1 be 28 18 d4 bd
       0.7225901 0.5448152 -0.31500706 -0.1035617
000120 e2 44 d2 3f fa c8 bc 3e c1 9c e0 3e 99 8c d8 3e
       1.6427271 0.36872083 0.43869594 0.42294767
000130 f3 8f d2 3f 45 1a 05 bf 32 b4 2d 3d d4 44 ad be
       1.645018 -0.5199321 0.042408176 -0.33841574
000140 0e 3c b1 3e 99 7b fc 3e 80 43 db 3e 1e bc d3 be
       0.3461613 0.49313048 0.42824936 -0.4135446
000150 08 aa bf 3d c8 80 ac bd b8 82 a8 bd 1c 5f 6a be
       0.09358603 -0.084230006 -0.082280576 -0.22887844
000160 70 41 2e 3e 4e 42 8a be 9d cb 4f 3e a9 52 85 3e
       0.1701715 -0.2700371 0.20292516 0.26039627
000170 bf f3 ae be 05 3d 86 3e 53 84 d7 be fc 1b a0 be
       -0.3417034 0.2621843 -0.42093143 -0.3127135
000180 38 a6 7f 3e 18 53 d6 3d 96 b3 c7 be e8 68 93 be
       0.24965751 0.104650676 -0.390042 -0.28790975
000190 00 f3 06 3f 00 b7 bf 3e ff a1 6c be ed 44 10 be
       0.5271454 0.37444305 -0.23108672 -0.14088793
0001a0 78 dd f3 be 80 3e 13 bc 78 c8 c0 be a2 77 c5 be
       -0.47629905 -0.008987069 -0.37652946 -0.38567835
0001b0 b0 d1 e3 3f 01 29 cb 3c 45 80 4a be f5 2e 94 3e
       1.7798367 0.024799826 -0.19775493 0.28942075
0001c0 9c d4 4b 3f 58 51 03 3f 80 9f 04 3f 3c b0 8b be
       0.7962129 0.51295996 0.5180588 -0.27282894
0001d0 e0 c9 ad 3f 23 a6 b8 bc 4a 65 64 3d 68 ab e1 3d
       1.3577232 -0.022540158 0.05576066 0.11019021
0001e0 ca 74 ba 3f 5a 10 a7 bc 1e 8e 4e be 57 58 95 3e
       1.4566891 -0.02039354 -0.20171401 0.2916896
0001f0 56 91 f5 be a0 bb 97 be 3c 2b 00 be ec 66 79 be
       -0.47962445 -0.29635334 -0.12516493 -0.24355668
000200 b5 3a 41 3f 64 31 c2 be 0c e9 23 be 97 aa 04 3e
       0.75480205 -0.37928307 -0.16006869 0.129557
000210 e5 e5 d1 bf 99 10 a3 bc d8 7c ac 3e f3 dc 8b bd
       -1.6398283 -0.019905375 0.33688998 -0.06829252
000220 bb 01 ad bf bf 09 db 3c ce db e7 3d 14 ae a2 3e
       -1.3516153 0.026738046 0.11321221 0.31773436
000230 95 35 04 40 8e 03 9d 3e 26 d6 fb 3e fd 78 0a bd
       2.0657704 0.30666775 0.4918682 -0.03380679
000240 1d 30 d5 be 8b 56 58 be c0 3d af 3e 2e 06 83 3c
       -0.4163827 -0.21126764 0.342268 0.015994158
000250 6f 17 76 bf 7e fe ab be dc 6d ea be d5 1b 89 be
       -0.96129507 -0.335926 -0.4578694 -0.26779047
000260 fb 38 e9 bd 1a 3a 84 3e 38 3d 82 3e 6e 9b fe be
       -0.11387821 0.25825578 0.2543733 -0.49727958
000270 2e b0 9f 3e 8a 52 c8 be f0 7b d8 bd 1c 9a 4f be
       0.31189102 -0.39125472 -0.10570514 -0.20273632
000280 6f c0 d3 3d 87 81 18 bd 00 ac 02 bf 2f e0 c3 be
       0.10339438 -0.037232902 -0.510437 -0.38256976
000290 28 3c a0 bd 80 e1 d3 3b b8 96 68 be b8 de 40 3e
       -0.07823974 0.0064660907 -0.22713745 0.1883496
0002a0 8f aa 41 3f b1 a4 3c bd dc 2d eb 3e 84 85 52 be
       0.75650877 -0.0460555 0.45933425 -0.20558745
0002b0 43 35 b1 3f 96 45 42 3e 83 fa e3 be d8 1f b0 3e
       1.3844379 0.18971857 -0.44527063 0.34399295
0002c0 ef 1c d0 bf 31 36 62 bd 89 a3 c7 3e 84 79 02 bf
       -1.625883 -0.055227462 0.38991955 -0.5096667
0002d0 69 e4 bb 3f 15 34 32 bc e5 b2 cb 3e 96 04 0c 3e
       1.467908 -0.010876675 0.39784923 0.13673624
0002e0 f0 38 f0 3f 1e f1 23 3e a9 78 e1 bd 07 3a cc bd
       1.8767376 0.16009948 -0.11009342 -0.09972005
0002f0 22 b5 e8 bf 75 cd 88 3e 19 05 ca 3e 07 81 a9 3e
       -1.8180277 0.2671925 0.39457014 0.33106253
000300 ac 93 b4 be 60 ae b6 3c 90 76 b4 be 88 ec 8c be
       -0.35268915 0.022299945 -0.35246706 -0.2752421
000310 30 2c 95 be 34 f9 2e 3e c4 8d 98 be 00 ba 32 bc
       -0.29135275 0.17087251 -0.2979566 -0.010908604
000320 d7 52 cf 3b 98 3f b3 3e 61 fb c9 be 4d aa c6 be
       0.006327014 0.35009456 -0.394496 -0.38801804
000330 c3 66 ff bf 2e 20 b6 3e 7d fa 50 be df a2 ce 3e
       -1.9953235 0.35571426 -0.20408054 0.40358636
000340 a0 24 39 3e 40 aa 81 3d 00 ed 73 bb 08 6d ca bd
       0.18080378 0.06331301 -0.003722012 -0.09884077
000350 56 af ac bf de 8d 05 be 65 0b 14 bd 6b 53 17 3d
       -1.3491008 -0.130424 -0.03614368 0.036944788
000360 65 aa 04 c0 19 2d d0 3c bd 34 c3 3e 7d 0b 34 bf
       -2.0729 0.02541213 0.38126174 -0.7033003
000370 5d 6e cd bf 75 bb 00 3f 1d 5c 27 3e 07 7d e5 3c
       -1.6049305 0.50286037 0.16343732 0.02801372
000380 ac eb a6 bf fd 43 7f 3e 60 66 c3 be b7 de 2e be
       -1.3040671 0.24928279 -0.38164043 -0.17077146
000390 d5 3f 30 bf ad 41 84 bd 0f 8c bf bc 9d 72 c6 3e
       -0.688474 -0.06457839 -0.023382215 0.38759318
0003a0 03 f4 37 3e 54 75 cd 3e 0a ca 97 3e b2 ce ae be
       0.17964177 0.40128577 0.2964633 -0.3414207
0003b0 77 fa ed 3f 31 62 ae be a4 57 48 be 35 e2 20 3e
       1.8592061 -0.3405929 -0.19564682 0.15711291
0003c0 e5 b7 81 3f 3e 5f df 3e b2 26 c5 bd f9 ff e1 bc
       1.0134245 0.43627352 -0.09626521 -0.027587878
0003d0 7a cb 83 3e 5a 93 f7 be 42 15 b9 3e 30 b1 d3 be
       0.25741178 -0.48354608 0.3614903 -0.4134612
0003e0 d6 0c 6f be 90 13 04 3d 66 23 88 be 24 cd ff 3d
       -0.2334474 0.03224522 -0.26589507 0.12490299
0003f0 1e 2b 0d 40 cb 52 24 be 9b ef 95 be d6 26 41 be
       2.2057567 -0.16047208 -0.29284367 -0.18862471

net.0.bias f4 [128]
000000 f3 fb 57 bd d3 ba bf bd a2 1e ee 3d 20 01 4c 3e
       -0.052730512 -0.09361806 0.116269365 0.19922304
000010 6e 64 42 be b5 2d c1 3b b7 01 8c 3e a7 ed bc bd
       -0.18983623 0.0058953413 0.27345058 -0.09225016
000020 aa 36 78 3e fb 0f e4 bd 01 a6 46 3e 84 7c b4 be
       0.24239603 -0.111358605 0.19399263 -0.35251248
000030 10 a6 b9 be cc 92 58 be 5d 8a ea 3e 2c 43 b3 bd
       -0.36259508 -0.21149749 0.45808688 -0.087530464
000040 8c ed 6f bc 7a 1e 53 be 4b 93 ec 3e 60 3e e7 3e
       -0.014644038 -0.20617095 0.46206126 0.45164776
000050 57 82 bc be 10 88 cf be 71 36 be be b4 dd bc 3d
       -0.3681819 -0.40533495 -0.3715091 0.09221974
000060 c4 82 02 be ed f4 93 be e0 a3 37 be 24 96 82 3d
       -0.12745196 -0.288978 -0.17933607 0.06376293
000070 db d5 55 be 9f 13 6e 3d 43 ad a1 bd b0 18 78 be
       -0.2088236 0.05812418 -0.07894375 -0.24228168
000080 08 cf 50 3d a8 1a db 3e 6c de ab be a9 b7 99 3a
       0.05097869 0.42793775 -0.33568132 0.0011727709
000090 c3 d3 4f be 56 fb 0b 3f 62 0c fb be d2 6a f5 be
       -0.20295624 0.54680383 -0.49032885 -0.4793306
0000a0 b4 7b fd 3e f8 f7 a1 be 8f dd a4 3d 01 d3 3b 3d
       0.4950844 -0.31634498 0.080500714 0.045855526
0000b0 88 a8 d6 bd b7 8c 34 be a4 b3 9a 3e b0 cd 3c 3d
       -0.104813635 -0.17631803 0.3021518 0.046094596
0000c0 ce 3e f9 be d8 21 97 be 26 58 15 be 91 50 88 3e
       -0.4868073 -0.29518008 -0.14584407 0.26623967
0000d0 8e aa a5 be e4 26 f5 3e c5 ca dc bc 0d ef 1c bb
       -0.32356685 0.47881234 -0.026952157 -0.0023946196
0000e0 cf f1 ce 3e 15 1e 83 3e 91 ef d6 3e 16 3d 8f 3e
       0.4041886 0.25608888 0.4197965 0.27976292
0000f0 47 06 fb bd 54 d9 a9 be 50 c1 52 3c 33 a4 c6 3e
       -0.12257057 -0.3317362 0.012863472 0.3879715
000100 3f c5 c6 bd 8d 04 e8 be 86 68 40 3e 00 40 ee 3e
       -0.097055905 -0.45315972 0.18789873 0.46533203
000110 00 c2 11 be 5a f9 d3 be 10 35 e8 be 27 93 9f 3d
       -0.14234161 -0.41401178 -0.45352983 0.07791739
000120 d5 8b 4f 3d d8 46 81 be ec ea b2 3d fa 0d 23 3e
       0.050670464 -0.25249362 0.08736214 0.159233
000130 1f 23 c1 3e 89 99 bc 3e ed d6 34 bd 7e bb e1 be
       0.37722108 0.36835888 -0.04415028 -0.44088358
000140 d8 53 e7 be 8f c3 dd 3e fa c6 8b 3e ec a4 3d 3e
       -0.45181155 0.43313262 0.27300245 0.18519944
000150 ba 1d e7 be b0 29 f2 3e a1 72 f4 3e 66 58 cf 3e
       -0.45139867 0.4729743 0.47743705 0.4049713
000160 86 c0 be be 28 63 10 be ee 40 7d be e1 af e2 3e
       -0.3725626 -0.14100325 -0.247318 0.4427481
000170 b1 e6 4d be 84 c1 69 be d5 fd 6e 3e b3 a8 2a be
       -0.20107533 -0.22827727 0.23339017 -0.16665916
000180 b0 72 59 be d6 63 28 3d 1a ac 72 bd f8 05 ac be
       -0.21235156 0.041110836 -0.05924616 -0.33598304
000190 47 7d be 3e 3c 72 7f be e6 19 2e 3e e1 4e d2 3e
       0.37204954 -0.2494592 0.17002067 0.41075805
0001a0 9b 55 60 3e 1c e4 e6 3d 5e ae d4 3e 7d 04 38 3e
       0.21907656 0.11273977 0.41539282 0.17970462
0001b0 54 e1 6c be 01 77 f8 3e 53 47 35 3e 23 7b f8 be
       -0.23132831 0.48528293 0.1770299 -0.48531446
0001c0 46 d9 47 be 88 07 94 be 06 ec d4 3e 00 1c a9 bd
       -0.19516477 -0.28911996 0.41586322 -0.08257294
0001d0 b2 59 e9 be 51 c9 b0 3c f8 94 83 3e ef d7 3c 3e
       -0.45576245 0.02158037 0.25699592 0.18441747
0001e0 fb d5 82 3e 1b 89 8c 3c bb c6 2a 3e 7a b7 34 be
       0.2555388 0.01715522 0.16677372 -0.17648116
0001f0 b7 fe 3f be 57 3b f4 be 13 14 c1 be 2e 08 41 3e
       -0.1874951 -0.47701523 -0.37710628 0.18850777

net.2.weight f4 [128, 128]
000000 8e b8 21 ba 04 a0 32 bd b0 8c 3b 3e c6 75 44 be
       -0.00061691634 -0.043609634 0.18315387 -0.19185552
000010 7c 95 7c 3d 5d 48 e3 3d 19 54 bb bc d8 e8 8e 3d
       0.061665997 0.110977866 -0.02286725 0.06978005
000020 9f 48 9e bd eb b4 43 bd b9 ba be 3d ab 7b 07 be
       -0.07728695 -0.04777996 0.09312958 -0.1323077
000030 c4 24 f8 3d ac 8d 66 be 8a 42 5c bc ba 25 5a be
       0.121163875 -0.22514981 -0.0134435985 -0.21303454
000040 87 2b 30 3e ea 90 4a 3e 30 7d 0b bd 34 45 93 3d
       0.17204104 0.19781843 -0.034054935 0.07190934
000050 8d 1a a3 3d 6c 06 9d bc 07 9f 6d 3d 86 9f 93 bd
       0.079640485 -0.019168101 0.05801299 -0.07208161
000060 38 d0 19 3c 95 f8 24 3e 80 fe 46 bc 02 05 03 3e
       0.009388022 0.16110452 -0.0121456385 0.12794879
000070 86 95 f7 3d bf f2 ec 3d 25 38 08 3d a0 b6 50 bc
       0.12089066 0.11569738 0.03325667 -0.012738854
000080 72 6b 9b 3d 34 f1 6f 3b dd d1 0d be 83 c8 f6 3d
       0.07588853 0.0036612274 -0.13849588 0.12049963
000090 ab 58 3f bd 7e b6 27 bd 69 9c 75 3d 78 ea c3 bc
       -0.04671542 -0.040945522 0.059963617 -0.023915514
0000a0 24 1a 70 3d bc 0c 71 bd a8 d8 54 3c 94 c6 9b 3d
       0.05861868 -0.058850035 0.012991108 0.07606235
0000b0 96 24 62 3c a3 17 2e 3e fc 4e eb 3c 66 b7 d9 bd
       0.013802668 0.17001204 0.028724186 -0.106306836
0000c0 2a 63 33 3d 34 98 d8 3c 3e 43 eb 3d fa a9 cc bd
       0.043795742 0.026439764 0.11487435 -0.09993358
0000d0 aa 01 69 3d d7 8f 74 3d 11 54 c1 bd 32 5b 19 be
       0.056886353 0.05970749 -0.094398625 -0.14976195
0000e0 2f 0c 56 bb 15 4a 9b bd 25 fb b1 3c 4c 9b 91 3d
       -0.003266107 -0.075824894 0.0217262 0.07109699
0000f0 a1 83 0c 3d d8 1e fc 3c e4 22 22 be eb 3d c7 3d
       0.03430522 0.030776426 -0.15833622 0.09728607
000100 1d a5 13 be 40 5e 50 bd 83 31 8c 3d e8 e0 8f 3d
       -0.14418454 -0.050871134 0.06845381 0.07025319
000110 6a bc 2c bd 5e ef 67 3d f0 f6 37 bc 9f 45 d1 bb
       -0.042171873 0.056624763 -0.011228308 -0.0063864733
000120 65 45 a2 3d ac 16 a6 bd b3 42 4b 3e 65 ac 4b 3c
       0.07923392 -0.08109793 0.19849662 0.012431239
000130 9c 69 e1 3c 90 93 b6 3d 77 3f e5 3d cd 7e 9a 3d
       0.027516179 0.08914864 0.111937456 0.075437166
000140 4f cf 92 3d 15 12 51 bd 09 db 43 3d 5d c9 96 3b
       0.07168447 -0.051042635 0.04781631 0.004601641
000150 85 ff 32 bc a8 df 15 3b a3 0a 8f 3d d2 9c 87 bd
       -0.010925178 0.0022868905 0.06984451 -0.06621708
000160 75 58 85 3e a3 97 b0 bd 26 0e c8 bc 82 13 b7 3d
       0.2604405 -0.086226724 -0.024420809 0.08939268
000170 28 75 1f 3d e0 dc 03 3c 0a 1e 3f bd 1d ca 84 3d
       0.03893009 0.008048266 -0.046659507 0.064838625
000180 e7 6a 59 bd 84 8e 49 be 0a 1c b8 bc e3 5d 13 3d
       -0.053080466 -0.19683272 -0.022474308 0.03597821
000190 5d f1 58 bd 68 6b 30 ba 32 fa 18 3e 66 56 ff 3c
       -0.052964557 -0.0006729872 0.14939192 0.031169128
0001a0 96 08 68 3d 52 d6 51 3d ce 0c e4 3d 2d 03 01 be
       0.056648813 0.051229782 0.11135255 -0.12598868
0001b0 18 bf 1e bc 9c 28 0e bb 36 3b f2 bd 97 7c 52 bd
       -0.009689115 -0.0021691686 -0.118277 -0.05138835
0001c0 95 5c 1c 3e 14 b3 2e 3e 3e 83 11 3d 64 74 a4 3c
       0.15269692 0.170605 0.035525553 0.02007503
0001d0 00 bc 1c bd 5b 76 19 3d ea 27 20 3c af 47 0f be
       -0.03826523 0.03746639 0.009775141 -0.13992189
0001e0 7f 65 1e bd b9 18 9c 3d f7 f4 5c bc ee da c0 3e
       -0.038671013 0.07621903 -0.013486139 0.3766703
0001f0 12 f2 a1 3c c7 21 5c be a4 9d 97 bc b6 61 c1 3d
       0.019768748 -0.2149726 -0.018507786 0.09442465
000200 62 e2 8a bd 5b 73 cf bc 68 18 c9 3c 0f 8a a5 bd
       -0.0678146 -0.02532356 0.02454777 -0.08082973
000210 0e 78 46 3d 15 b0 2d 3d 93 d0 53 3d 14 d1 66 bd
       0.048454337 0.042404253 0.051712584 -0.056351736
000220 ba e7 ae 3d 33 6f 5c bd 2f 49 ae 3d f7 b8 ad bd
       0.08540292 -0.053816985 0.085100524 -0.08482545
000230 60 3c a0 bd e2 5c 5e 3d 73 ee b1 3b 10 16 a7 3b
       -0.078240156 0.0542878 0.0054300367 0.0050990656
000240 47 b0 4c bd a6 dd 1b bd b0 87 ef bc 79 21 b7 bd
       -0.0499728 -0.038053177 -0.029239506 -0.08941931
000250 43 19 80 3b 3c 0f 80 3c 00 f0 9c b8 c2 84 d6 3c
       0.0039092614 0.015632264 -7.483363e-05 0.02618635
000260 a7 c2 ab 3d 48 85 c0 3c 49 88 04 bd 8a 06 27 bd
       0.08386736 0.023501053 -0.032356534 -0.04077772
000270 b6 4d 69 bd f1 cb 83 bd a0 39 69 bc 78 10 80 bc
       -0.056958877 -0.06435383 -0.01423493 -0.015632853
000280 be 8a 1d 3d c6 fb 27 bd 2d 4f 90 3d e8 9c 84 bd
       0.038462393 -0.041011594 0.070463516 -0.0647524
000290 00 b6 83 39 2b ac 9a 3d c1 00 b4 3d 20 b7 51 bd
       0.00025121868 0.0755237 0.08789206 -0.051200032
0002a0 28 c1 3e 3c 58 0f 2b 3c d4 fc 33 bd ee 3e f6 bc
       0.011642732 0.01044067 -0.043942288 -0.030059304
0002b0 df 7d bc 3c 75 05 80 bd 13 ac 2e 3c 5d 84 11 3d
       0.023009239 -0.06251041 0.010661143 0.035526622
0002c0 2b ab 0e bd b3 5c 96 3d 80 9b be bb ef f3 13 3d
       -0.034831207 0.073419 -0.005816877 0.036121305
0002d0 bd 43 b3 3d bc 25 fa bc 27 78 41 3d 79 33 e1 bc
       0.087531544 -0.030535571 0.047233727 -0.027490364
0002e0 19 76 8c bc 39 7f 97 bc 5e a3 84 bb ff 8c 17 bd
       -0.017146157 -0.018493282 -0.004047795 -0.0369997
0002f0 dd 49 a2 3c a0 44 5a 3b 1e 7e 65 3d a7 b5 b2 bc
       0.019810611 0.0033305064 0.056028478 -0.021815134
000300 a0 38 11 3c 53 4c 04 bd 0e 1d 9f bd 18 7f 02 3d
       0.008863598 -0.03229935 -0.077692136 0.031859487
000310 88 4d 39 3c 98 fd 10 bd 6c d0 f4 bc 9a 9e 9c 3c
       0.011309989 -0.035398096 -0.02988454 0.019118596
000320 e8 ec 82 bc 62 95 6c 3d 00 36 5a 3b cb af ed 3c
       -0.015982106 0.05775965 0.0033296347 0.029014489
000330 76 5e 10 3d 5f 0e d4 bc d8 b4 18 3d 87 94 85 3d
       0.035246335 -0.025885759 0.03728184 0.0652247
000340 90 48 85 3b 17 9f 61 3c a8 4d e6 b8 c3 7c 68 3d
       0.004067488 0.01377084 -0.00010981719 0.056759607
000350 72 e7 1a bd 39 5f 4d bd b6 3b 0f 3d 60 6a a5 bd
       -0.03781838 -0.05013964 0.034969054 -0.0807693
000360 80 bd b9 3a 94 7f 26 bd 2a f5 6e 3d ce a2 af bd
       0.0014170855 -0.04064901 0.058339275 -0.085759744
000370 0e 84 5b 3d bb 17 b3 3d 9e 00 6e 3c c3 0d b1 bb
       0.053592734 0.087447606 0.014526514 -0.005403252
000380 a8 d1 b0 3d ff 6d 25 bd 70 17 e8 bb dd 89 1e bd
       0.08633739 -0.040388104 -0.007082872 -0.038705695
000390 60 f0 83 bc 7d 06 97 3c 62 f4 ee 3b 9f 04 aa bc
       -0.01610583 0.018435711 0.0072923163 -0.020754157
0003a0 df fb bb bd 45 71 36 3b df 8d c5 bb 0b d8 1b 3c
       -0.091789 0.002783851 -0.0060288752 0.009511958
0003b0 c3 b4 8a 3d 45 6a a9 3d af 20 5f bd 00 99 b4 bb
       0.06772759 0.082722224 -0.05447453 -0.005511403
0003c0 28 20 14 bd ef d5 a6 bd f2 69 8c bd cf e5 a9 3d
       -0.03616348 -0.08146273 -0.06856145 0.08295786
0003d0 36 17 53 3d 2d 5b 3e 3d e5 a1 3b 3d 91 76 98 bd
       0.051535808 0.04647367 0.04580869 -0.0744449
0003e0 79 e9 e5 3b 49 21 a2 3d 40 c4 58 bd ff 10 9f 3d
       0.0070163575 0.07916505 -0.052921534 0.077669136
0003f0 b4 4b b8 3c ad 37 7d 3d c8 17 1b bd f0 9c 16 3d
       0.022497036 0.061820675 -0.037864476 0.03677076

net.2.bias f4 [128]
000000 18 83 8b bc 46 83 a4 3d 61 db 33 bd 28 5f 3f 3c
       -0.017030284 0.08032851 -0.043910388 0.011680402
000010 9f 86 a4 3c 9f 80 a0 bd dc ea 67 3d 05 7e 87 3d
       0.020083724 -0.078370325 0.056620464 0.06615833
000020 74 15 83 3d 58 2d 62 3d 8a 25 36 3d 6a b5 5b bd
       0.06400576 0.055219024 0.044469394 -0.053639807
000030 68 e0 77 3d 25 20 08 bd 38 01 c8 3c ad 4f a9 bd
       0.060516745 -0.03323378 0.024414644 -0.0826715
000040 0d ea 43 3c be a5 3f bd ff be 2c bd a3 d7 86 bd
       0.0119576575 -0.046788923 -0.042174336 -0.06584098
000050 91 60 1d bc 8b db 72 bd 74 67 62 bd ff 7d b4 bd
       -0.009605543 -0.059291404 -0.05527444 -0.08813094
000060 eb 91 71 3d 04 a0 88 3d 48 24 5d bc a4 04 52 3d
       0.05897705 0.066711456 -0.01349742 0.051273957
000070 30 55 a4 3c 71 d6 4a bd 64 00 76 bc 27 2b 0f 3d
       0.020060152 -0.049520914 -0.015014742 0.034953263
000080 02 26 48 3d 40 d9 94 bb 10 92 59 bc dd 3c 64 3d
       0.048864372 -0.0045425 -0.013279453 0.055722106
000090 05 b5 8c bc 5b d3 05 3c f3 4d 67 bd ec 56 a5 3d
       -0.01717616 0.008168067 -0.056470823 0.0807322
0000a0 ba f4 a6 3a c4 07 60 bd e7 9d 95 bd 28 3a 05 bc
       0.0012737729 -0.054694906 -0.07305508 -0.008131541
0000b0 81 db f8 3c 46 8f 5e 3d 58 db 91 bc 75 bb 3c bd
       0.030378105 0.054335855 -0.017804787 -0.04607721
0000c0 88 3c af bd 89 a4 21 bc 98 f5 9b 3d 30 dd b4 bd
       -0.08556467 -0.009865888 0.07615203 -0.08831251
0000d0 51 93 9f bc 2b e2 75 3d fd 55 84 3d e2 6e 6e bd
       -0.019479426 0.060030144 0.064617135 -0.058211215
0000e0 97 c7 e4 bd 85 6f fa 3d a9 a6 47 bd e2 50 6e 3c
       -0.11170881 0.12228302 -0.048742924 0.014545651
0000f0 16 cd b9 bd 5d d8 de 3c 26 e9 92 bb 51 8b ed bc
       -0.0907232 0.02720278 -0.00448336 -0.028997095
000100 1a 36 44 bd ee ba 8d 3d 3c b1 10 bd b1 37 10 bd
       -0.047903158 0.0692042 -0.035325274 -0.03520936
000110 69 2e 55 bd a1 a2 6c 3d 30 36 1e 3c d0 c4 65 bc
       -0.052046213 0.057772283 0.009656474 -0.014023975
000120 d6 27 4d 3d e6 07 75 3d dc 34 97 bd a0 da 66 3d
       0.05008682 0.059821986 -0.07383129 0.05636084
000130 80 8a a0 3d 95 ce 5e 3d d8 9b 09 bd 61 85 80 bd
       0.07838917 0.05439623 -0.03359589 -0.0627544
000140 69 12 79 3c 5d d8 81 3d d7 a8 c8 bd 9d a1 9c bd
       0.015202143 0.06340096 -0.09797829 -0.07648013
000150 ae 68 c0 bc 84 84 13 3d 25 1e a7 bd e9 60 26 bd
       -0.023487415 0.03601505 -0.081600465 -0.040619764
000160 24 35 04 3d 39 49 79 3a 54 cc b6 bd 33 98 01 bd
       0.03227724 0.0009509507 -0.08925691 -0.03163929
000170 4f a1 18 bd 4a 43 73 3d 63 a3 b4 bd 3e 2b 58 3c
       -0.03726321 0.059390344 -0.08820226 0.0131939035
000180 e7 9a d1 bc 02 f8 52 3d c2 9b 4b bd f3 24 72 3d
       -0.025586559 0.05150605 -0.04970909 0.05911727
000190 bb 6f 43 3a 5d b8 8e 3d fa e4 b6 bd 3f bb bc bc
       0.0007455309 0.06968758 -0.089303926 -0.023038505
0001a0 e7 af dc bc 4e 65 85 3d 62 46 92 bd 53 ef 86 3d
       -0.026939346 0.06513463 -0.07142331 0.06588616
0001b0 14 40 78 bd a2 4f 84 3c 1e c0 bf bc db 53 9b bd
       -0.060607985 0.016151253 -0.023407038 -0.075843535
0001c0 e0 1c ba 3b 31 63 ab bd d4 40 a3 3c cf 2b 91 3d
       0.0056797117 -0.08368529 0.019928373 0.07088434
0001d0 f0 2c 0a bc 92 e4 3f bd 53 9c 5d 3d d0 be 19 3c
       -0.0084335655 -0.04684884 0.05410416 0.009383872
0001e0 a4 b0 45 3c 44 73 5b 3d 58 1f b3 bd 7e 25 3a bd
       0.01206604 0.053576723 -0.08746213 -0.04544591
0001f0 fa 21 02 3d c0 e7 5c 3d 89 fb 2f bd 84 6b 84 bd
       0.031770684 0.05393195 -0.042964492 -0.064658195

net.4.weight f4 [15, 128]
000000 61 0c 1c 3e 02 83 c6 bc 5b ef c5 3d a2 9b 4c 3d
       0.15239097 -0.024232391 0.09664794 0.04995311
000010 2a b3 7d bb 1f cb 16 ba ba 0b 52 3d 0c c7 96 3d
       -0.0038711526 -0.00057523133 0.051280715 0.07362184
000020 83 0f a0 3d 8d 19 f8 3d 7a 69 39 3d b5 de b2 3d
       0.078154586 0.121142484 0.045266606 0.08733884
000030 ac c7 ff 3d 5e 5e 2f 3d 0d 92 9d 3d 83 e4 0a 3e
       0.12489256 0.042814605 0.076938726 0.13563733
000040 cf c9 af bd 10 60 04 3e 3e e0 69 3e f2 56 42 3d
       -0.08583414 0.1292727 0.22839448 0.0474462
000050 3b c7 c1 bd 3a e8 ed 3d e4 bd 81 3c 38 cc c6 bc
       -0.09461828 0.11616559 0.015837617 -0.024267301
000060 3d f1 43 3d e7 f9 18 3d ec c2 a3 3c 3c b6 7a 3d
       0.047837485 0.0373477 0.019990407 0.06120895
000070 9c a6 ae 3c 41 53 6c 3c c0 48 8d 3a 84 8e 94 3d
       0.02131968 0.014424146 0.0010779127 0.07253745
000080 15 33 9f be 20 57 23 bc b2 1f 47 3d 7b 3c 97 3d
       -0.3109366 -0.009969503 0.04861421 0.073845826
000090 ad 9a 35 be 58 53 fd 3d c4 f0 ad bd 37 16 53 be
       -0.17734785 0.12369412 -0.08493188 -0.20613943
0000a0 3f aa 18 be fb c5 9b 3d 96 89 59 3d a6 48 75 3d
       -0.14908694 0.07606121 0.053109728 0.059883736
0000b0 b1 6a f7 bc 19 f4 72 3d ef cd a9 3d 20 99 f5 3b
       -0.030202242 0.05931482 0.08291232 0.0074950606
0000c0 b4 14 a3 3c 0a 3f 9c bc a0 d0 0e 3d ed 56 4a 3d
       0.019907333 -0.019073028 0.03486693 0.049399305
0000d0 d9 6b de 3d 2e b5 65 3d 49 29 28 bd fc d7 2b bd
       0.10860414 0.05608099 -0.041054998 -0.041954026
0000e0 55 76 ff 3d cd 97 64 be 6b e4 54 3d 05 41 c5 3c
       0.12473742 -0.22323532 0.05197565 0.024078855
0000f0 50 28 e9 bb 43 db d2 3c 6a 05 f7 3d f2 53 70 bd
       -0.0071154013 0.025739318 0.120615795 -0.058673806
000100 a6 87 ec bc ff f2 1a be ee 30 1a 3d 0f a2 c9 3d
       -0.028873276 -0.15131758 0.03764432 0.09845363
000110 6d 84 36 bb c6 ab 77 3b dc b9 c8 3c 24 ab 8d bd
       -0.0027849928 0.0037791594 0.024502687 -0.06917408
000120 fe 47 16 be 9d be 54 bd 91 11 fc 3d af 8e f5 3c
       -0.146759 -0.051939595 0.12308038 0.029975263
000130 d2 64 31 be 4f 60 09 3e 6b d4 08 3e b6 af 29 3e
       -0.17323616 0.13415645 0.13362281 0.16570935
000140 83 4b ed bd ae 57 00 3c 90 c4 73 3e 80 ce 0f 3e
       -0.11586668 0.0078334045 0.23805451 0.14043617
000150 69 5c 89 3d b1 e8 31 bd d8 67 03 3d 36 15 9d 3e
       0.06707079 -0.043434802 0.032081455 0.30680245
000160 c7 32 b6 bd a3 e3 22 be ff 8f a3 3e 5b dd 53 bd
       -0.08896404 -0.15907149 0.31945798 -0.051724773
000170 66 4f b1 3c e3 16 23 be 0c 7e 9d bd dd 21 55 bd
       0.021644305 -0.159267 -0.07690057 -0.052034248
000180 dd 13 e7 3c 39 9e 66 bc c1 6c 4a 3d ca 21 59 bd
       0.028207714 -0.014075809 0.049420122 -0.05301074
000190 ae 5c 0f 3e 69 31 5d be b6 94 90 3c d1 34 46 bc
       0.14000198 -0.2160088 0.017649036 -0.012097553
0001a0 d4 be 95 be 74 35 21 be 14 02 18 3e 02 99 6d 3d
       -0.29247153 -0.15743047 0.14844543 0.058007248
0001b0 cc 9b 0d be b6 21 58 3e f6 cb 31 3e 3e 81 47 3d
       -0.13828963 0.2110661 0.17362961 0.04870724
0001c0 a5 a1 af 3d fe ff 45 bd 88 50 6e bd aa be 5c bd
       0.08575753 -0.048339836 -0.05818227 -0.05389277
0001d0 80 51 5a bc bc 45 3d bc 92 f4 b6 3d 63 a9 3b bd
       -0.013325095 -0.0115522705 0.08933367 -0.045815837
0001e0 b7 ae aa bc ca ad 7b 3d f0 46 7f 3c 80 52 c7 3c
       -0.020835264 0.061445035 0.015580878 0.024331331
0001f0 7d 97 18 3d c8 c8 89 be a0 97 af 3d f3 d1 b3 3d
       0.037253845 -0.26910996 0.08573842 0.08780279
000200 ff ed 6a 3d 8e a5 76 bc a6 59 09 3e d0 39 40 bd
       0.057355877 -0.01505412 0.13413104 -0.046930134
000210 4a 1a a6 bd d5 4f a1 bc be 2d d4 3d 11 ef b2 3d
       -0.08110483 -0.019691387 0.10360287 0.087370045
000220 85 12 bd 3d db 75 b9 3c d0 d3 d3 3b 90 01 82 3b
       0.09232048 0.022639206 0.006464459 0.0039674714
000230 a8 d3 03 3e 31 d3 59 bd 99 61 85 3d 4b 95 1d 3e
       0.12873709 -0.053179923 0.06512756 0.15388982
000240 42 7f af bd 3e 99 c2 3c 0b 2a 5e 3e 7a 1f 48 bd
       -0.085691944 0.023754712 0.21695726 -0.048858143
000250 bc 49 99 bd f5 ee c6 bb 48 27 a6 3c 21 d5 b0 3d
       -0.07484767 -0.0060709664 0.020282403 0.08634401
000260 4b 79 fc 3d 9f f6 88 3b 20 98 10 bc b3 4a 22 3d
       0.12327822 0.00417979 -0.008825332 0.03962202
000270 75 24 1e bd b8 a0 ad bc 78 9b c0 3c 87 74 12 bd
       -0.038608987 -0.0211948 0.023511633 -0.03575566
000280 9c 90 b5 be 98 99 41 3c 53 0d ac 3d 97 82 0a 3d
       -0.3546189 0.011816405 0.08400979 0.033815946
000290 25 5e 43 be b4 51 a8 ba 97 0c 98 3d cf 67 4c be
       -0.19078882 -0.0012841732 0.07424276 -0.19961475
0002a0 07 27 27 bd 68 a0 43 3c e6 01 b2 3c 5d 1b 98 bd
       -0.040808704 0.011940099 0.02172942 -0.07427094
0002b0 2b ae 0b be 24 bd 9c 3d e8 f1 68 bc 5e 25 6c 3d
       -0.13640659 0.07653263 -0.014217831 0.057652824
0002c0 40 55 07 bd 6c 87 e4 bc da 26 9b b9 1d ca 7f 3d
       -0.033040285 -0.027896605 -0.0002959285 0.06244861
0002d0 f6 b4 18 3e 5d 30 a1 3c eb 7b 37 bd 34 6b 09 3d
       0.14912781 0.019676382 -0.04479591 0.033549502
0002e0 8d 1d 0a 3e b7 39 0a be d7 bc 29 3d 95 57 9f 3d
       0.13487835 -0.13498579 0.041439857 0.07780377
0002f0 3e ed 9b 3d 1d 3c c3 bc ff 4a ff 3d 7e 52 af bc
       0.0761361 -0.023832375 0.12465476 -0.02140164
000300 65 a7 ab bd d7 c2 ef bd 50 c7 42 bd 95 08 8b 3d
       -0.08381537 -0.117070846 -0.04755336 0.06788746
000310 f8 69 0c 3e 6f 6a c6 bc 7a a4 0c 3e 18 72 ac 3c
       0.13712299 -0.024220673 0.13734618 0.021050498
000320 bd 1d 5a be 4e a9 0b 3d a9 df 88 3c 2b 38 c5 3c
       -0.21300407 0.03409701 0.016708212 0.024074635
000330 f0 f7 8a be 12 a4 26 3e 95 96 a7 3d 25 4d 6b 3e
       -0.27142286 0.16273525 0.08183018 0.22978647
000340 16 f0 1a be de b9 34 3c bb 73 82 3e 1f a5 bf 3d
       -0.15130648 0.011030642 0.2547892 0.09357666
000350 72 03 47 3d f8 a6 4a bc fd 81 4b 3d 96 15 58 3e
       0.04858727 -0.01236891 0.049684513 0.21101984
000360 3d f0 c0 bd bc cc 2e be ad 2a 7a 3e 68 ab 84 bc
       -0.09420822 -0.17070287 0.24430342 -0.016195014
000370 99 00 ae 3d d7 2e 24 be a8 18 00 3c 00 2c 07 bd
       0.08496208 -0.16033493 0.0078183785 -0.033000946
000380 b5 05 af bb 32 1d 4f bd 5f 41 5a bd db 27 f4 bd
       -0.0053412565 -0.050564952 -0.053285 -0.11921664
000390 e9 96 b5 3c ff 78 27 be 64 db 4c bd a8 1c 46 3d
       0.022166686 -0.1635475 -0.050013915 0.048367172
0003a0 61 ec 5d be 33 fb 0c be d3 19 ef 3d b0 81 92 bd
       -0.21672203 -0.137677 0.116748475 -0.07153642
0003b0 1c db f2 bd 44 66 95 3e b2 b4 5c 3d 47 82 9a 3d
       -0.11858198 0.29179585 0.053883262 0.0754438
0003c0 23 6c a2 3d 7b 0b a8 3c 67 a8 31 bd 17 bd 4c 3b
       0.07930782 0.020513287 -0.04337349 0.0031240636
0003d0 4c b0 96 3c 77 57 63 3d d7 f5 37 3d 39 de b1 3d
       0.018394612 0.055503335 0.044912186 0.08684964
0003e0 ce 9f 72 3d 13 5d be 3d 4d de 06 bd 72 b3 ed bc
       0.059234433 0.09295096 -0.032926846 -0.02901623
0003f0 d7 e5 e8 3d 35 77 89 be 8d e8 23 3e 2c 52 1f bd
       0.113719635 -0.2684876 0.1600668 -0.038896725

net.4.bias f4 [15]
000000 5e c3 55 3d 14 76 c2 3d 68 43 7f bd 81 ce 69 bd
       0.05218827 0.09495178 -0.062320143 -0.057081703
000010 87 c5 7e bd 43 71 88 3d 91 af 17 bd ac e5 5b 3d
       -0.062200096 0.06662228 -0.037032668 0.05368583
000020 a3 71 a4 bc f0 37 5c 3d ba 9d 93 3b 9a 9c 9a bc
       -0.020073717 0.053764284 0.0045048865 -0.018873502
000030 4c 39 8c 3d d0 86 a5 3d 6d bb c2 bc
       0.06846866 0.08082354 -0.023771012

net.0.weight f4 [128, 4]
000000 7f 8a 27 3f bb 0b b3 3e 66 95 a0 be eb 6a 93 be
       0.65445703 0.34969887 -0.31363982 -0.2879251
000010 e1 ae cb bf ae 84 23 3e e3 83 87 3c 6d 19 d7 3e
       -1.5912744 0.15968582 0.01654238 0.42011586
000020 dc 63 f2 3f 78 2c c0 3d 6b d1 06 be 32 06 a0 bd
       1.8936725 0.09383482 -0.13165824 -0.07813682
000030 04 25 86 bf 99 05 0e bf a1 6e 3f be 28 6e c9 bb
       -1.0480046 -0.5547729 -0.18694545 -0.006147165
000040 06 09 60 3f 67 8d c1 3e 5e a3 5a be eb 08 5a be
       0.8751377 0.37803194 -0.21351382 -0.21292464
000050 42 0e c0 3f 79 a0 c7 3e ea ab d1 bd ca 68 b7 3e
       1.5004351 0.38989618 -0.10237868 0.35822135
000060 f5 db b7 3f eb 50 70 3d 91 3b ee 3e eb e4 ec be
       1.4364 0.05867092 0.4652982 -0.462684
000070 04 2e 3a 3c fb a2 6e bd e6 f5 46 be 87 1f d0 3e
       0.01136351 -0.0582609 -0.1942974 0.40649053
000080 31 87 03 bf e5 ac 15 3b 94 1b 9f be 51 3b fc be
       -0.5137816 0.002283865 -0.31075728 -0.49264005
000090 35 e7 9d bf 9b c7 d2 3e 99 4d 29 3e 41 94 69 3e
       -1.2336184 0.41167912 0.16533507 0.2281046
0000a0 5e 29 af 3f 67 df 0f be 4d 16 f5 3d 96 b5 fc be
       1.3684499 -0.14050065 0.11967144 -0.4935729
0000b0 44 19 d1 bf a4 5f ac be f5 4c ab 3e 5e 1b 94 3e
       -1.6335835 -0.33666718 0.3345715 0.2892713
0000c0 b6 5a 3d 3f 57 be 2d bb cb 04 87 3e 56 45 fd 3e
       0.7396654 -0.0026511156 0.26370844 0.49466962
0000d0 2d f1 66 3e 2c a5 6a 3d 31 4e d7 3e 74 b2 84 be
       0.22552939 0.057286426 0.42051843 -0.259174
0000e0 97 2e c0 3f 01 ff ea be 1e 3c 9d be d5 84 3e be
       1.5014218 -0.45897678 -0.30709928 -0.18605359
0000f0 ff 4a a5 be 82 0f a3 3e 06 5d 99 be 85 ab 3b 3e
       -0.3228378 0.3184777 -0.29953784 0.18327148
000100 71 ba f8 3f 00 e4 cf bb ee bb 0a 3d 3f 0c dd 3d
       1.9431897 -0.0063443184 0.03387063 0.107933514
000110 33 e8 38 3f 6c 7b 0b 3f f9 32 a1 be 34 cf d5 bd
       0.7222931 0.544852 -0.31484202 -0.104399115
000120 ce 29 d2 3f fb d6 bc 3e 68 08 e0 3e 8f 84 d8 3e
       1.6419008 0.36882767 0.43756413 0.42288634
000130 8d 71 d2 3f d2 e9 04 bf dc b1 2b 3d 80 71 ad be
       1.6440903 -0.5191928 0.041917667 -0.33875656
000140 4c e1 b0 3e d7 5c fc 3e 3c 0f db 3e 62 5f d3 be
       0.34546888 0.4928958 0.4278506 -0.4128371
000150 08 aa bf 3d c8 80 ac bd b8 82 a8 bd 1c 5f 6a be
       0.09358603 -0.084230006 -0.082280576 -0.22887844
000160 a9 07 2d 3e 2b e3 8a be 29 6c 4e 3e 0e a5 84 3e
       0.16897453 -0.2712644 0.20158447 0.25907177
000170 a4 3c ae be a2 3b 86 3e 9e 61 d7 be 8a d1 9f be
       -0.3403064 0.2621737 -0.42066664 -0.31214553
000180 38 a6 7f 3e 18 53 d6 3d 96 b3 c7 be e8 68 93 be
       0.24965751 0.104650676 -0.390042 -0.28790975
000190 d8 c6 06 3f 98 98 be 3e 83 13 6f be 35 de 0f be
       0.5264716 0.37225795 -0.23347287 -0.14049609
0001a0 78 dd f3 be 80 3e 13 bc 78 c8 c0 be a2 77 c5 be
       -0.47629905 -0.008987069 -0.37652946 -0.38567835
0001b0 cd 94 e3 3f 4a e1 ca 3c 8e 0a 4b be 46 3a 94 3e
       1.7779785 0.02476563 -0.19828245 0.2895071
0001c0 0d a3 4b 3f 41 3d 03 3f 63 4f 04 3f 50 48 8c be
       0.7954567 0.5126534 0.51683635 -0.2739892
0001d0 09 96 ad 3f 28 35 b8 bc ca c1 62 3d ae e0 e1 3d
       1.3561412 -0.022486284 0.055360593 0.110291824
0001e0 09 7a ba 3f e5 78 a8 bc ca 55 4e be 2b 4f 95 3e
       1.4568492 -0.02056546 -0.20149913 0.29161963
0001f0 56 91 f5 be a0 bb 97 be 3c 2b 00 be ec 66 79 be
       -0.47962445 -0.29635334 -0.12516493 -0.24355668
000200 f0 07 41 3f e1 81 c2 be 9d 8e 23 be f2 74 04 3e
       0.75402737 -0.37989715 -0.15972371 0.12935236
000210 de a6 d1 bf 60 88 a2 bc c0 88 ac 3e 38 14 8c bd
       -1.6379049 -0.01984042 0.33698082 -0.06839794
000220 24 18 ac bf f3 6d ea 3c 81 30 e9 3d 26 1b a3 3e
       -1.3444867 0.028616881 0.113862045 0.3185665
000230 64 1c 04 40 7c f8 9c 3e 36 9b fb 3e 05 31 0a bd
       2.0642328 0.3065833 0.49141854 -0.033738155
000240 2e 18 d6 be 86 8b 59 be d9 d5 ae 3e e5 e6 80 3c
       -0.41815323 -0.2124463 0.34147528 0.0157351
000250 d5 c1 75 bf cd ce ab be af 40 ea be 34 5b 89 be
       -0.9599889 -0.33556214 -0.45752475 -0.26827395
000260 fb 38 e9 bd 1a 3a 84 3e 38 3d 82 3e 6e 9b fe be
       -0.11387821 0.25825578 0.2543733 -0.49727958
000270 2e b0 9f 3e 8a 52 c8 be f0 7b d8 bd 1c 9a 4f be
       0.31189102 -0.39125472 -0.10570514 -0.20273632
000280 78 df d8 3d ce c2 18 bd 24 62 02 bf cd bc c3 be
       0.10589498 -0.037295155 -0.50931 -0.3822998
000290 28 3c a0 bd 80 e1 d3 3b b8 96 68 be b8 de 40 3e
       -0.07823974 0.0064660907 -0.22713745 0.1883496
0002a0 c0 69 41 3f 1b 98 3b bd 23 c8 ea 3e f1 60 52 be
       0.75551987 -0.045799356 0.45855817 -0.20544793
0002b0 d7 53 b1 3f ee e0 42 3e c0 ec e2 be b0 5c b0 3e
       1.3853711 0.19031116 -0.4432125 0.34445715
0002c0 0d c6 cf bf 3c 75 61 bd 3a e2 c7 3e 6b 8d 02 bf
       -1.6232315 -0.055043444 0.39039785 -0.50997037
0002d0 06 cd bb 3f 06 6e 34 bc 73 60 cb 3e df 1e 0c 3e
       1.4671943 -0.01101256 0.39722022 0.13683651
0002e0 f4 0f f0 3f 01 f2 23 3e 90 3f e2 bd 73 15 cc bd
       1.8754869 0.16010286 -0.1104728 -0.099650286
0002f0 43 84 e8 bf d8 d4 88 3e 46 19 ca 3e a0 74 a9 3e
       -1.8165363 0.26724887 0.39472407 0.3309679
000300 ac 93 b4 be 60 ae b6 3c 90 76 b4 be 88 ec 8c be
       -0.35268915 0.022299945 -0.35246706 -0.2752421
000310 30 2c 95 be 34 f9 2e 3e c4 8d 98 be 00 ba 32 bc
       -0.29135275 0.17087251 -0.2979566 -0.010908604
000320 3a b1 85 3b 55 22 b2 3e 46 48 cb be b2 72 c6 be
       0.004079965 0.34791818 -0.39703578 -0.3875938
000330 1a 32 ff bf 7a 1f b6 3e 2d 93 50 be c4 98 ce 3e
       -1.9937165 0.3557089 -0.20368643 0.40350926
000340 a0 24 39 3e 40 aa 81 3d 00 ed 73 bb 08 6d ca bd
       0.18080378 0.06331301 -0.003722012 -0.09884077
000350 1d 6d ac bf b2 76 05 be ad ff 12 bd 95 d3 16 3d
       -1.3470799 -0.1303356 -0.035888363 0.036822874
000360 05 86 04 c0 0b 5b d1 3c 04 e7 c3 3e d5 8e 33 bf
       -2.07068 0.025556108 0.38262188 -0.7013982
000370 e5 3e cd bf 7a b8 00 3f f0 d5 27 3e a4 49 e4 3c
       -1.6034819 0.5028149 0.16390204 0.027867146
000380 1e 8a a6 bf cd 7d 7f 3e 72 f9 c2 be f6 3c 2e be
       -1.30109 0.24950333 -0.38080937 -0.17015442
000390 e6 c2 2f bf 6a 68 84 bd c2 26 be bc 94 53 c6 3e
       -0.68656766 -0.06465228 -0.02321184 0.3873564
0003a0 e4 3c 3a 3e 1e a5 cd 3e 23 56 97 3e a3 af ae be
       0.1818729 0.40165037 0.29557905 -0.34118375
0003b0 98 d3 ed 3f 22 7d ae be c9 cf 48 be 25 cc 20 3e
       1.8580198 -0.34079844 -0.19610514 0.15702875
0003c0 bc b2 81 3f c1 dd de 3e cf 65 c7 bd 7c 30 ec bc
       1.013267 0.4352856 -0.09736215 -0.028831713
0003d0 7a cb 83 3e 5a 93 f7 be 42 15 b9 3e 30 b1 d3 be
       0.25741178 -0.48354608 0.3614903 -0.4134612
0003e0 1d ff 6b be 04 40 05 3d 54 e4 87 be 74 63 00 3e
       -0.23046537 0.032531753 -0.26541388 0.12537938
0003f0 df 14 0d 40 67 ef 23 be 2c 0f 96 be 31 d4 40 be
       2.2043989 -0.16009293 -0.2930845 -0.18830945

net.0.bias f4 [128]
000000 67 05 54 bd cb 05 c1 bd 1c e5 ed 3d f6 a3 4b 3e
       -0.051762965 -0.09424933 0.11615965 0.19886765
000010 78 b5 41 be 10 38 c0 3b 17 ce 8b 3e a0 e2 bd bd
       -0.18916881 0.005866058 0.27305672 -0.09271741
000020 ef 56 78 3e 30 fb e4 bd 01 43 46 3e a5 94 b4 be
       0.24251913 -0.11180723 0.19361497 -0.35269657
000030 1b 2d ba be 29 ba 57 be a7 71 ea 3e 4e 8b b2 bd
       -0.36362538 -0.21067108 0.45789835 -0.087179765
000040 9e a8 71 bc f6 9e 52 be 70 44 ec 3e 2a 13 e7 3e
       -0.014749674 -0.20568451 0.46145964 0.4513181
000050 89 ba bc be 10 88 cf be 0c e4 be be e1 60 bf 3d
       -0.36861065 -0.40533495 -0.3728336 0.0934465
000060 c4 82 02 be 30 16 95 be e0 a3 37 be d1 fb 81 3d
       -0.12745196 -0.2911849 -0.17933607 0.06346858
000070 a6 2e 56 be 49 6c 6d 3d ca 06 a1 bd b0 18 78 be
       -0.20916232 0.057964597 -0.07862623 -0.24228168
000080 11 05 4f 3d 06 15 db 3e d6 77 ab be d9 0d 80 3a
       0.05054194 0.42789477 -0.33489865 0.0009769752
000090 49 33 50 be e4 fb 0b 3f 62 0c fb be d2 6a f5 be
       -0.20332064 0.5468123 -0.49032885 -0.4793306
0000a0 e1 ba fd 3e f8 f7 a1 be bb 38 a4 3d f1 ef 40 3d
       0.4955664 -0.31634498 0.08018633 0.047103826
0000b0 96 ea d5 bd 1c 6c 34 be 4c a0 9a 3e a5 80 3c 3d
       -0.10445134 -0.17619365 0.30200422 0.046021122
0000c0 ce 3e f9 be d8 21 97 be 08 7c 17 be 62 5d 88 3e
       -0.4868073 -0.29518008 -0.14793408 0.26633745
0000d0 8e aa a5 be a3 24 f5 3e d5 23 d8 bc 2b 4c 25 bb
       -0.32356685 0.47879514 -0.026384274 -0.0025222402
0000e0 a8 2f cf 3e 2f 13 83 3e bd 91 d6 3e a3 1d 8f 3e
       0.40466046 0.25600573 0.41908064 0.279523
0000f0 a9 3b fd bd 54 d9 a9 be 4b 0a 57 3c 42 a0 c6 3e
       -0.12364895 -0.3317362 0.013125013 0.38794142
000100 0f 11 c8 bd 98 af e7 be b0 33 40 3e 67 4d ee 3e
       -0.09768879 -0.45251155 0.18769717 0.46543428
000110 00 c2 11 be 5a f9 d3 be 10 35 e8 be f2 58 9f 3d
       -0.14234161 -0.41401178 -0.45352983 0.07780637
000120 ae 6a 54 3d d8 46 81 be 24 bd b1 3d 50 fd 22 3e
       0.05185955 -0.25249362 0.08678654 0.15916944
000130 d7 ff c0 3e 22 81 bc 3e f9 93 35 bd 7e bb e1 be
       0.3769519 0.3681727 -0.04433057 -0.44088358
000140 d8 53 e7 be 13 9a dd 3e 35 86 8b 3e c1 9d 3d 3e
       -0.45181155 0.43281612 0.2725083 0.1851721
000150 ff 49 e7 be 7d 23 f2 3e 9b 60 f4 3e 39 54 cf 3e
       -0.45173642 0.472927 0.47729954 0.40493944
000160 25 ef be be 64 45 11 be f7 32 7e be af 7c e2 3e
       -0.37291828 -0.14186627 -0.24824129 0.4423575
000170 b0 23 4d be 84 c1 69 be e3 90 6e 3e eb db 2b be
       -0.20033145 -0.22827727 0.23297457 -0.16783111
000180 76 a3 59 be 7a a8 28 3d a6 f4 76 bd 7d 06 ac be
       -0.21253762 0.041176297 -0.06029191 -0.335987
000190 33 66 be 3e 5e 97 7f be 62 df 2d 3e 01 22 d2 3e
       0.37187347 -0.24960086 0.16979745 0.41041568
0001a0 7f 12 60 3e 3d d0 e6 3d 93 76 d4 3e a4 03 38 3e
       0.21882056 0.11270187 0.41496715 0.17970139
0001b0 54 e1 6c be a2 20 f8 3e 7d 27 35 3e 56 1e f9 be
       -0.23132831 0.48462397 0.17690845 -0.48655957
0001c0 7f 86 48 be c9 72 94 be e4 da d4 3e 00 1c a9 bd
       -0.19582556 -0.28993824 0.4157325 -0.08257294
0001d0 b2 59 e9 be 42 a3 af 3c a5 89 83 3e 6d e4 3c 3e
       -0.45576245 0.021440152 0.25690952 0.18446513
0001e0 ed db 82 3e 3a 89 8a 3c 50 9d 2a 3e d0 67 34 be
       0.25558415 0.016911138 0.16661572 -0.17617726
0001f0 ac d4 3f be d1 5a f4 be 13 14 c1 be 54 e8 40 3e
       -0.18733472 -0.47725537 -0.37710628 0.18838626

net.2.weight f4 [128, 128]
000000 4c a3 02 3a df 79 31 bd 44 4b 3a 3e 0b 1a 44 be
       0.00049834396 -0.043329116 0.18192774 -0.1915056
000010 a4 01 7d 3d d4 e3 e2 3d ce 27 c0 bc 45 a3 8e 3d
       0.061769143 0.11078611 -0.02345648 0.06964735
000020 ef 43 9f bd 1b 17 43 bd 89 f2 bc 3d 73 fc 05 be
       -0.07776629 -0.047629457 0.092259474 -0.13084583
000030 fb 74 f8 3d 46 82 67 be f5 00 6c bc 94 c1 5a be
       0.12131687 -0.22608289 -0.014404525 -0.21362907
000040 6f 9a 2f 3e f4 87 4a 3e 3a 6d 0c bd 0a b6 91 3d
       0.17148755 0.19778425 -0.034283854 0.07114799
000050 56 b8 a2 3d 6c 06 9d bc 90 b9 68 3d 5c 67 92 bd
       0.079453155 -0.019168101 0.05681759 -0.071486205
000060 38 d0 19 3c c8 c1 24 3e 80 fe 46 bc ce a6 02 3e
       0.009388022 0.16089547 -0.0121456385 0.12758943
000070 8e 59 f6 3d 3a 2d ec 3d 11 b2 06 3d a0 b6 50 bc
       0.120288 0.11532064 0.03288466 -0.012738854
000080 41 58 9b 3d 63 79 63 3b 50 4b 0c be 91 0d f6 3d
       0.075851925 0.0034709803 -0.13700604 0.12014306
000090 95 c4 3f bd c5 2e 2b bd 69 9c 75 3d 78 ea c3 bc
       -0.046818335 -0.04179265 0.059963617 -0.023915514
0000a0 20 6c 6d 3d bc 0c 71 bd dc 23 4e 3c 2a 7e 9a 3d
       0.057964444 -0.058850035 0.012581792 0.07543595
0000b0 95 a8 77 3c 6a ae 2d 3e 0b 31 e6 3c ff 72 d9 bd
       0.015115877 0.16961065 0.028099557 -0.10617637
0000c0 2a 63 33 3d 34 98 d8 3c 59 11 e8 3d 81 a3 cc bd
       0.043795742 0.026439764 0.11331434 -0.099921234
0000d0 aa 01 69 3d d2 99 73 3d be 45 c0 bd 9e 4a 19 be
       0.056886353 0.059472866 -0.09388302 -0.1496987
0000e0 ec e5 71 bb b3 6d 9b bd 15 89 ae 3c 62 88 90 3d
       -0.0036910726 -0.07589283 0.0213056 0.07057263
0000f0 e5 ee 0b 3d d8 1e fc 3c 59 3c 23 be 2d 5b c5 3d
       0.034163374 0.030776426 -0.1594099 0.09636531
000100 f6 d8 14 be 5e 2a 4d bd 9f 34 8b 3d d0 8d 8e 3d
       -0.14535889 -0.050089233 0.06797146 0.06960642
000110 6a bc 2c bd 5e ef 67 3d f0 f6 37 bc 31 e0 df bb
       -0.042171873 0.056624763 -0.011228308 -0.0068321456
000120 a1 ec a0 3d ac 16 a6 bd 25 5e 4a 3e d8 57 42 3c
       0.078576334 -0.08109793 0.19762476 0.011861764
000130 32 c1 de 3c b2 db b4 3d 7f 01 e5 3d cd 7e 9a 3d
       0.027191732 0.08830966 0.11181926 0.075437166
000140 4f cf 92 3d 6b 7b 52 bd 12 d8 3e 3d 08 98 85 3b
       0.07168447 -0.05138723 0.04659278 0.0040769614
000150 9b 0f 34 bc b8 e0 0e 3b 94 ab 8e 3d a9 31 88 bd
       -0.010990049 0.0021801423 0.0696632 -0.06650097
000160 07 d6 84 3e 74 24 b2 bd 8b 15 b9 bc 54 08 b6 3d
       0.2594454 -0.08698359 -0.02259328 0.08888307
000170 d9 fc 1d 3d e0 dc 03 3c 53 05 40 bd 44 a1 85 3d
       0.038571212 0.008048266 -0.046880078 0.065248996
000180 27 db 58 bd 4c f1 48 be f3 25 b1 bc 2b 00 11 3d
       -0.052943375 -0.19623297 -0.02162454 0.03540055
000190 48 2e 5a bd 34 f9 a0 39 ca 14 18 3e 9d 9a f8 3c
       -0.053266793 0.0003070325 0.1485168 0.030347163
0001a0 9b 41 67 3d 17 ef 52 3d 9b 46 e2 3d af f3 00 be
       0.05645905 0.051497545 0.11048623 -0.12592958
0001b0 18 bf 1e bc e2 b9 38 bb 69 6c f1 bd 23 0c 51 bd
       -0.009689115 -0.0028186967 -0.11788256 -0.051036965
0001c0 42 71 1c 3e 52 15 2e 3e f7 71 0e 3d 64 74 a4 3c
       0.1527758 0.1700032 0.034776654 0.02007503
0001d0 00 bc 1c bd 40 b8 1a 3d 25 03 12 3c 11 36 0f be
       -0.03826523 0.03777337 0.0089118825 -0.13985468
0001e0 93 73 1e bd 76 b3 9b 3d 09 68 66 bc 57 2a c0 3e
       -0.03868444 0.07602589 -0.01406289 0.37532303
0001f0 10 0e a8 3c 16 7d 5b be a4 9d 97 bc 5b ca c0 3d
       0.020514518 -0.21434435 -0.018507786 0.09413596
000200 62 e2 8a bd 5b 73 cf bc 68 18 c9 3c 0f 8a a5 bd
       -0.0678146 -0.02532356 0.02454777 -0.08082973
000210 0e 78 46 3d 15 b0 2d 3d 93 d0 53 3d 14 d1 66 bd
       0.048454337 0.042404253 0.051712584 -0.056351736
000220 ba e7 ae 3d 33 6f 5c bd 2f 49 ae 3d f7 b8 ad bd
       0.08540292 -0.053816985 0.085100524 -0.08482545
000230 60 3c a0 bd e2 5c 5e 3d 73 ee b1 3b 10 16 a7 3b
       -0.078240156 0.0542878 0.0054300367 0.0050990656
000240 47 b0 4c bd a6 dd 1b bd b0 87 ef bc 79 21 b7 bd
       -0.0499728 -0.038053177 -0.029239506 -0.08941931
000250 43 19 80 3b 3c 0f 80 3c 00 f0 9c b8 c2 84 d6 3c
       0.0039092614 0.015632264 -7.483363e-05 0.02618635
000260 a7 c2 ab 3d 48 85 c0 3c 49 88 04 bd 8a 06 27 bd
       0.08386736 0.023501053 -0.032356534 -0.04077772
000270 b6 4d 69 bd f1 cb 83 bd a0 39 69 bc 78 10 80 bc
       -0.056958877 -0.06435383 -0.01423493 -0.015632853
000280 be 8a 1d 3d c6 fb 27 bd 2d 4f 90 3d e8 9c 84 bd
       0.038462393 -0.041011594 0.070463516 -0.0647524
000290 00 b6 83 39 2b ac 9a 3d c1 00 b4 3d 20 b7 51 bd
       0.00025121868 0.0755237 0.08789206 -0.051200032
0002a0 28 c1 3e 3c 58 0f 2b 3c d4 fc 33 bd ee 3e f6 bc
       0.011642732 0.01044067 -0.043942288 -0.030059304
0002b0 df 7d bc 3c 75 05 80 bd 13 ac 2e 3c 5d 84 11 3d
       0.023009239 -0.06251041 0.010661143 0.035526622
0002c0 2b ab 0e bd b3 5c 96 3d 80 9b be bb ef f3 13 3d
       -0.034831207 0.073419 -0.005816877 0.036121305
0002d0 bd 43 b3 3d bc 25 fa bc 27 78 41 3d 79 33 e1 bc
       0.087531544 -0.030535571 0.047233727 -0.027490364
0002e0 19 76 8c bc 39 7f 97 bc 5e a3 84 bb ff 8c 17 bd
       -0.017146157 -0.018493282 -0.004047795 -0.0369997
0002f0 dd 49 a2 3c a0 44 5a 3b 1e 7e 65 3d a7 b5 b2 bc
       0.019810611 0.0033305064 0.056028478 -0.021815134
000300 a0 38 11 3c 53 4c 04 bd 0e 1d 9f bd 18 7f 02 3d
       0.008863598 -0.03229935 -0.077692136 0.031859487
000310 88 4d 39 3c 98 fd 10 bd 6c d0 f4 bc 9a 9e 9c 3c
       0.011309989 -0.035398096 -0.02988454 0.019118596
000320 e8 ec 82 bc 62 95 6c 3d 00 36 5a 3b cb af ed 3c
       -0.015982106 0.05775965 0.0033296347 0.029014489
000330 76 5e 10 3d 5f 0e d4 bc d8 b4 18 3d 87 94 85 3d
       0.035246335 -0.025885759 0.03728184 0.0652247
000340 90 48 85 3b 17 9f 61 3c a8 4d e6 b8 c3 7c 68 3d
       0.004067488 0.01377084 -0.00010981719 0.056759607
000350 72 e7 1a bd 39 5f 4d bd b6 3b 0f 3d 60 6a a5 bd
       -0.03781838 -0.05013964 0.034969054 -0.0807693
000360 80 bd b9 3a 94 7f 26 bd 2a f5 6e 3d ce a2 af bd
       0.0014170855 -0.04064901 0.058339275 -0.085759744
000370 0e 84 5b 3d bb 17 b3 3d 9e 00 6e 3c c3 0d b1 bb
       0.053592734 0.087447606 0.014526514 -0.005403252
000380 a8 d1 b0 3d ff 6d 25 bd 70 17 e8 bb dd 89 1e bd
       0.08633739 -0.040388104 -0.007082872 -0.038705695
000390 60 f0 83 bc 7d 06 97 3c 62 f4 ee 3b 9f 04 aa bc
       -0.01610583 0.018435711 0.0072923163 -0.020754157
0003a0 df fb bb bd 45 71 36 3b df 8d c5 bb 0b d8 1b 3c
       -0.091789 0.002783851 -0.0060288752 0.009511958
0003b0 c3 b4 8a 3d 45 6a a9 3d af 20 5f bd 00 99 b4 bb
       0.06772759 0.082722224 -0.05447453 -0.005511403
0003c0 28 20 14 bd ef d5 a6 bd f2 69 8c bd cf e5 a9 3d
       -0.03616348 -0.08146273 -0.06856145 0.08295786
0003d0 36 17 53 3d 2d 5b 3e 3d e5 a1 3b 3d 91 76 98 bd
       0.051535808 0.04647367 0.04580869 -0.0744449
0003e0 79 e9 e5 3b 49 21 a2 3d 40 c4 58 bd ff 10 9f 3d
       0.0070163575 0.07916505 -0.052921534 0.077669136
0003f0 b4 4b b8 3c ad 37 7d 3d c8 17 1b bd f0 9c 16 3d
       0.022497036 0.061820675 -0.037864476 0.03677076

net.2.bias f4 [128]
000000 90 4a 8e bc 46 83 a4 3d 89 36 35 bd 28 5f 3f 3c
       -0.017369539 0.08032851 -0.044241462 0.011680402
000010 9f 86 a4 3c f6 0d a1 bd 29 37 67 3d 0c e1 86 3d
       0.020083724 -0.07863991 0.05644909 0.06585893
000020 5d af 81 3d 15 77 61 3d 8a 25 36 3d 6a b5 5b bd
       0.06332276 0.055045206 0.044469394 -0.053639807
000030 b7 50 76 3d 25 20 08 bd 38 01 c8 3c 1f 73 aa bd
       0.06013557 -0.03323378 0.024414644 -0.08322739
000040 d0 63 48 3c a3 6f 3e bd 6d 26 2f bd a3 d7 86 bd
       0.012230828 -0.046493184 -0.042761255 -0.06584098
000050 d0 22 27 bc 48 7a 72 bd 74 67 62 bd ff 7d b4 bd
       -0.010201171 -0.059198648 -0.05527444 -0.08813094
000060 a2 3c 6f 3d 48 99 87 3d 48 24 5d bc 6b 0c 50 3d
       0.058407433 0.06621033 -0.01349742 0.050793093
000070 30 55 a4 3c 20 89 4f bd 64 00 76 bc 27 2b 0f 3d
       0.020060152 -0.050667882 -0.015014742 0.034953263
000080 0f 89 46 3d 40 d9 94 bb 10 92 59 bc a2 d4 62 3d
       0.048470553 -0.0045425 -0.013279453 0.055378564
000090 26 76 8c bc d5 39 f2 3b f3 4d 67 bd 3c 9e a4 3d
       -0.017146181 0.007392148 -0.056470823 0.08037993
0000a0 8b 62 b7 3a c4 07 60 bd e7 9d 95 bd 28 3a 05 bc
       0.001399116 -0.054694906 -0.07305508 -0.008131541
0000b0 7c 3d f2 3c 0d be 5d 3d 58 db 91 bc 75 bb 3c bd
       0.029570334 0.054136325 -0.017804787 -0.04607721
0000c0 88 3c af bd 89 a4 21 bc 56 bb 9b 3d 07 e2 b4 bd
       -0.08556467 -0.009865888 0.07604091 -0.08832174
0000d0 76 01 a2 bc 2b e2 75 3d fd 55 84 3d e2 6e 6e bd
       -0.019776087 0.060030144 0.064617135 -0.058211215
0000e0 3f 00 e5 bd 15 5a fa 3d 61 7f 47 bd e2 50 6e 3c
       -0.111816876 0.12224213 -0.048705462 0.014545651
0000f0 16 cd b9 bd be 2a da 3c 0e 4b 9f bb 51 8b ed bc
       -0.0907232 0.02663171 -0.004861242 -0.028997095
000100 1a 36 44 bd 71 7e 8c 3d 3c b1 10 bd 3f 55 11 bd
       -0.047903158 0.06860054 -0.035325274 -0.035481688
000110 a1 62 55 bd a1 a2 6c 3d da 04 15 3c d0 c4 65 bc
       -0.052096013 0.057772283 0.009095395 -0.014023975
000120 7d a2 4b 3d e6 07 75 3d 15 41 98 bd b2 3d 65 3d
       0.049715508 0.059821986 -0.074342884 0.05596704
000130 77 d6 9f 3d 84 8b 5c 3d c6 09 0b bd 93 d6 81 bd
       0.07804578 0.05384399 -0.033944868 -0.06339755
000140 6b 88 73 3c be b9 81 3d 94 a5 c9 bd 23 4b 9d bd
       0.014864068 0.06334256 -0.09846035 -0.07680347
000150 ae 68 c0 bc 84 84 13 3d 25 1e a7 bd 93 15 27 bd
       -0.023487415 0.03601505 -0.081600465 -0.04079206
000160 5b 13 04 3d bf e4 d1 39 5c 39 b5 bd 33 98 01 bd
       0.03224502 0.00040034016 -0.08848831 -0.03163929
000170 f1 d5 1a bd b1 05 71 3d 63 a3 b4 bd 3e 2b 58 3c
       -0.037801687 0.05884332 -0.08820226 0.0131939035
000180 e7 9a d1 bc 02 f8 52 3d e4 61 51 bd 33 f5 70 3d
       -0.025586559 0.05150605 -0.051118746 0.05882759
000190 4d c0 2c 3a b0 7c 8d 3d fa e4 b6 bd 3f bb bc bc
       0.00065899343 0.06908548 -0.089303926 -0.023038505
0001a0 e7 8a d5 bc b2 57 85 3d 2e 59 93 bd 53 ef 86 3d
       -0.02606721 0.06510867 -0.07194744 0.06588616
0001b0 d6 7f 76 bd 59 2c 82 3c 2d a0 c5 bc db 53 9b bd
       -0.060180508 0.015890287 -0.02412423 -0.075843535
0001c0 e0 1c ba 3b 31 63 ab bd d4 40 a3 3c 5d 5c 94 3d
       0.0056797117 -0.08368529 0.019928373 0.072441794
0001d0 f0 2c 0a bc e2 23 41 bd 3f b9 5c 3d d0 be 19 3c
       -0.0084335655 -0.04715336 0.053887602 0.009383872
0001e0 2d be 42 3c 4c ee 59 3d 58 1f b3 bd 7e 25 3a bd
       0.011886162 0.053205773 -0.08746213 -0.04544591
0001f0 e0 08 02 3d 65 ee 59 3d 7f 50 30 bd 84 6b 84 bd
       0.031746745 0.053205866 -0.043045517 -0.064658195
