dqn_out/dqn_ep2400.pt (torch, 314997 bytes, 24 tensors)

net.0.weight f4 [128, 4]
0.615462 0.3503585 -0.30756488 -0.26737726 -1.5524791 0.1668284 0.03497248 0.40961242
1.7551992 0.12085896 -0.1372377 -0.080043994 -1.0267516 -0.48394102 -0.18557924 -0.002655338
0.8422478 0.3707723 -0.22118625 -0.19492753 1.4184433 0.39553088 -0.105471924 0.3570875
1.3959349 0.06700431 0.45424926 -0.46618915 0.014624509 -0.083967976 -0.20786008 0.40549392
-0.42886004 -0.008098964 -0.3130901 -0.40660033 -1.1232119 0.41103923 0.19785888 0.2317632
1.3431708 -0.16467148 0.11387438 -0.45060664 -1.3783518 -0.33900428 0.32862532 0.29062527
0.7069085 -0.018211644 0.2723329 0.48438 0.21588767 0.08172865 0.3755015 -0.30313045
1.4732592 -0.4245525 -0.3148941 -0.19442667 -0.29832876 0.3042532 -0.297364 0.18856595
1.8505455 -0.0069068004 0.031742297 0.1065767 0.6991052 0.5169599 -0.32782108 -0.1577426
1.6227863 0.3732485 0.42108056 0.4223024 1.6264522 -0.46781403 0.04208581 -0.33235726
0.31942657 0.48686624 0.44721568 -0.4125258 0.09358603 -0.084230006 -0.082280576 -0.22887844
0.18699104 -0.30109754 0.1802611 0.24981952 -0.24687146 0.23556165 -0.43425348 -0.35512412
0.24965751 0.104650676 -0.390042 -0.28790975 0.5132331 0.37084815 -0.21887186 -0.09368384
-0.47629905 -0.008987069 -0.37652946 -0.38567835 1.6706407 0.033589285 -0.2051287 0.28825116
0.8089781 0.51168704 0.48262417 -0.33565623 1.2782935 -0.016692126 0.05372119 0.10986361
1.4596614 -0.0009609896 -0.20172362 0.28563964 -0.47962445 -0.29635334 -0.12516493 -0.24355668
0.7497692 -0.3895484 -0.133364 0.11240138 -1.524899 -0.02123726 0.33567825 -0.066125475
-1.0540309 0.021080352 0.10510861 0.31664458 1.9953221 0.31191295 0.4849125 -0.035741173
-0.43303853 -0.23457004 0.3384179 -0.007395321 -0.9214641 -0.3309133 -0.44254836 -0.2725648
-0.10909127 0.26578513 0.26190266 -0.49220908 0.31189102 -0.39125472 -0.10570514 -0.20273632
0.17338021 -0.03763069 -0.4755737 -0.3840628 -0.07823974 0.0064660907 -0.22713745 0.1883496
0.72689694 -0.036823913 0.44201657 -0.20798495 1.3359982 0.19157696 -0.40661016 0.3498752
-1.5064137 -0.10962606 0.39488187 -0.54501903 1.4817563 -0.035909787 0.37784204 0.13445565
1.812267 0.1657053 -0.113614775 -0.10129883 -1.726566 0.26571026 0.39300838 0.33278835
-0.35268915 0.022299945 -0.35246706 -0.2752421 -0.29135275 0.17087251 -0.2979566 -0.010908604
-0.04758097 0.34227583 -0.39434287 -0.32779846 -1.906952 0.35402322 -0.197367 0.4066927
0.18080378 0.06331301 -0.003722012 -0.09884077 -1.2315829 -0.13025235 -0.031471197 0.038713492
-1.9735204 0.0037307767 0.41222358 -0.64150745 -1.5096645 0.49851167 0.18328401 0.027726188
-1.1872588 0.25048032 -0.36965463 -0.15700443 -0.5718041 -0.06343503 -0.011139629 0.39005157
0.3236997 0.39906135 0.28885037 -0.33312374 1.7968997 -0.35155112 -0.20277181 0.15125945
1.0144929 0.41855273 -0.08701154 -0.024567228 0.25741178 -0.48354608 0.3614903 -0.4134612
-0.13674799 0.031484023 -0.26015255 0.12558068 2.1291378 -0.15900461 -0.29733545 -0.1892329
00000000: eb8e 1d3f 3062 b33e 2579 9dbe ace5 88be
00000010: a3b7 c6bf 10d5 2a3e 4e3f 0f3d b8b8 d13e
00000020: 5eaa e03f e784 f73d 0a88 0cbe 1bee a3bd
00000030: 996c 83bf 1ec7 f7be 7c08 3ebe 2e05 2ebb
00000040: 8d9d 573f ded5 bd3e a67e 62be 159b 47be
00000050: 8d8f b53f 0683 ca3e aa01 d8bd 2cd4 b63e
00000060: ffad b23f 8e39 893d 5c93 e83e 58b0 eebe
00000070: a39b 6f3c 67f7 abbd 46d9 54be e69c cf3e
00000080: 8b93 dbbe 84b1 04bc 584d a0be eb2d d0be
00000090: 68c5 8fbf bc73 d23e 859b 4a3e 5553 6d3e
000000a0: 05ed ab3f a49f 28be f936 e93d eab5 e6be
000000b0: d56d b0bf f891 adbe 9441 a83e d6cc 943e
000000c0: f5f7 343f 9630 95bc 386f 8b3e a800 f83e
000000d0: a811 5d3e 5a61 a73d bc41 c03e ea33 9bbe
000000e0: c293 bc3f f25e d9be cd39 a1be c917 47be
000000f0: 8cbe 98be 13c7 9b3e 1840 98be 6f17 413e
00000100: adde ec3f 7152 e2bb 3604 023d e344 da3d
00000110: 8ff8 323f 7c57 043f 2ad8 a7be 4787 21be
00000120: 76b7 cf3f 6d1a bf3e df97 d73e 0538 d83e
00000130: 962f d03f 5285 efbe 2c62 2c3d bb2a aabe
00000140: e18b a33e 8846 f93e 74f9 e43e 9536 d3be
00000150: 08aa bf3d c880 acbd b882 a8bd 1c5f 6abe
00000160: 947a 3f3e 7529 9abe 5e96 383e b0d0 7f3e
00000170: dfcb 7cbe 1337 713e 7956 debe d4d2 b5be
00000180: 38a6 7f3e 1853 d63d 96b3 c7be e868 93be
00000190: 3f63 033f cfdf bd3e f21f 60be 50dd bfbd
000001a0: 78dd f3be 803e 13bc 78c8 c0be a277 c5be
000001b0: 8ed7 d53f eb94 093d 420d 52be a895 933e
000001c0: 3019 4f3f ecfd 023f 841a f73e 22db abbe
000001d0: 1f9f a33f edbd 88bc c00a 5c3d 2c00 e13d
000001e0: 2fd6 ba3f ecea 7bba a390 4ebe 5c3f 923e
000001f0: 5691 f5be a0bb 97be 3c2b 00be ec66 79be
00000200: e0f0 3f3f e372 c7be 9390 08be b232 e63d
00000210: e42f c3bf c3f9 adbc 05de ab3e cb6c 87bd
00000220: 7cea 86bf b4b0 ac3c 2f43 d73d 3d1f a23e
00000230: b766 ff3f 0eb3 9f3e 7446 f83e 5665 12bd
00000240: 3ab7 ddbe 2133 70be 1c45 ad3e 7354 f2bb
00000250: 12e5 6bbf 786d a9be b395 e2be 9d8d 8bbe
00000260: 3e6b dfbd fd14 883e 1b18 863e d402 fcbe
00000270: 2eb0 9f3e 8a52 c8be f07b d8bd 1c9a 4fbe
00000280: 958a 313e a322 1abd 657e f3be e1a3 c4be
00000290: 283c a0bd 80e1 d33b b896 68be b8de 403e
000002a0: eb15 3a3f acd4 16bd ff4f e23e 02fa 54be
000002b0: fd01 ab3f c02c 443e 352f d0be d822 b33e
000002c0: 2ad2 c0bf a183 e0bd f52d ca3e 5e86 0bbf
000002d0: 31aa bd3f 2416 13bd 8374 c13e beae 093e
000002e0: 5df8 e73f a6ae 293e ddae e8bd c375 cfbd
000002f0: 1d00 ddbf 2d0b 883e 6538 c93e 3c63 aa3e
00000300: ac93 b4be 60ae b63c 9076 b4be 88ec 8cbe
00000310: 302c 95be 34f9 2e3e c48d 98be 00ba 32bc
00000320: 43e4 42bd c73e af3e 4fe7 c9be 33d5 a7be
00000330: 0117 f4bf 8842 b53e 931a 4abe 073a d03e
00000340: a024 393e 40aa 813d 00ed 73bb 086d cabd
00000350: 82a4 9dbf df60 05be f1e7 00bd 0a92 1e3d
00000360: 519c fcbf 0c80 743b f80e d33e d539 24bf
00000370: b03c c1bf ec3c ff3e ceae 3b3e 0822 e33c
00000380: 19f8 97bf f53e 803e 5f43 bdbe c5c5 20be
00000390: c161 12bf 3aea 81bd fe82 36bc d7b4 c73e
000003a0: f8bb a53e c551 cc3e 32e4 933e 328f aabe
000003b0: cf00 e63f 82fe b3be 6aa3 4fbe c2e3 1a3e
000003c0: e7da 813f 8b4c d63e 1b33 b2bd 3641 c9bc
000003d0: 7acb 833e 5a93 f7be 4215 b93e 30b1 d3be
000003e0: aa07 0cbe 64f5 003d b732 85be 3998 003e
000003f0: cb43 0840 1bd2 22be 5a3c 98be 45c6 41be

net.0.bias f4 [128]
-0.060992613 -0.104292 0.118779466 0.19936104 -0.19395228 0.008046581 0.27444208 -0.075699225
0.23702331 -0.10315603 0.18815865 -0.3574036 -0.35138547 -0.22022618 0.45750415 -0.08575251
-0.013216462 -0.22424005 0.45995945 0.46050808 -0.3604127 -0.40533495 -0.3820313 0.04656454
-0.12745196 -0.2929028 -0.17933607 0.06632076 -0.19918814 0.06277739 -0.07852818 -0.24228168
0.048757058 0.4238046 -0.33822542 0.003622355 -0.19383585 0.5430221 -0.4827995 -0.4793306
0.49615 -0.31634498 0.08007097 0.030060897 -0.098101355 -0.1545663 0.3026701 0.038382728
-0.4868073 -0.29518008 -0.15079723 0.26459628 -0.32356685 0.47508687 -0.052405808 -0.016512182
0.40830916 0.2567763 0.3979415 0.27647796 -0.14290132 -0.3317362 0.006355373 0.39012876
-0.095705524 -0.43521932 0.19047597 0.46483362 -0.14234161 -0.41401178 -0.45352983 0.08107678
0.04588496 -0.25249362 0.08995757 0.16381909 0.37756842 0.36725786 -0.045210175 -0.44088358
-0.45181155 0.4311746 0.25928545 0.18922724 -0.43235403 0.46922997 0.47158155 0.41165945
-0.3824882 -0.15297966 -0.25382668 0.44376996 -0.19926672 -0.22827727 0.23508984 -0.18004167
-0.23360807 0.044355847 -0.06433453 -0.34054947 0.37995517 -0.25740275 0.17225522 0.40642136
0.22303607 0.09891832 0.417978 0.17388809 -0.23132831 0.47415456 0.1672096 -0.49494722
-0.18038248 -0.26985696 0.4186527 -0.08257294 -0.45576245 0.0043074153 0.25198275 0.17779496
0.2533518 0.019362763 0.16769901 -0.15249282 -0.19639261 -0.4732311 -0.37666845 0.19182514
00000000: 64d3 79bd 0b97 d5bd a642 f33d 4d25 4c3e
00000010: 6d9b 46be cfd5 033c ac83 8c3e 3208 9bbd
00000020: 3db6 723e 7843 d3bd a9ac 403e 9bfd b6be
00000030: cce8 b3be f982 61be fc3d ea3e 039f afbd
00000040: dc89 58bc 2f9f 65be ce7f eb3e b7c7 eb3e
00000050: 0388 b8be 1088 cfbe 9b99 c3be 76ba 3e3d
00000060: c482 02be 5bf7 95be e0a3 37be 2ed3 873d
00000070: faf7 4bbe 6f91 803d 62d3 a0bd b018 78be
00000080: 7bb5 473d ebfc d83e e22b adbe 0865 6d3b
00000090: e87c 46be 7f03 0b3f 7f31 f7be d26a f5be
000000a0: 5f07 fe3e f8f7 a1be 40fc a33d 4542 f63c
000000b0: 5de9 c8bd a146 1ebe 93f7 9a3e 3537 1d3d
000000c0: ce3e f9be d821 97be 976a 1abe 2a79 873e
000000d0: 8eaa a5be 963e f33e 79a7 56bd 8e44 87bc
000000e0: e60d d13e 2f78 833e fdbe cb3e 858e 8d3e
000000f0: b954 12be 54d9 a9be bc40 d03b f5be c73e
00000100: 4201 c4bd 11d5 debe 220c 433e acfe ed3e
00000110: 00c2 11be 5af9 d3be 1035 e8be 950b a63d
00000120: def1 3b3d d846 81be ad3b b83d 31c0 273e
00000130: a650 c13e 3909 bc3e 4e2e 39bd 7ebb e1be
00000140: d853 e7be ebc2 dc3e 10c1 843e c9c4 413e
00000150: 825d ddbe e93e f03e 2373 f13e 07c5 d23e
00000160: 7ed5 c3be b3a6 1cbe 92f5 81be d135 e33e
00000170: 930c 4cbe 84c1 69be 64bb 703e d85c 38be
00000180: f436 6fbe 7aae 353d d2c1 83bd 805c aebe
00000190: 7c89 c23e 4bca 83be ac63 303e 7616 d03e
000001a0: 9163 643e b095 ca3d 3601 d63e b80f 323e
000001b0: 54e1 6cbe 63c4 f23e fe38 2b3e b969 fdbe
000001c0: 2fb6 38be b12a 8abe a659 d63e 001c a9bd
000001d0: b259 e9be 3825 8d3b e203 813e e20f 363e
000001e0: 54b7 813e a89e 9e3c 4ab9 2b3e 1427 1cbe
000001f0: 251b 49be 594b f2be b0da c0be cf6d 443e

net.2.weight f4 [128, 128]
-0.008728358 -0.03577767 0.15451126 -0.13613366 0.05433045 0.10820643 -0.027458498 0.058571704
-0.06295273 -0.0436774 0.07428981 -0.16273834 0.09107757 -0.12786892 -0.027323237 -0.18120442
0.150017 0.17967778 -0.03667228 0.05955274 0.08246598 -0.019168101 0.06941784 -0.08575354
0.009388022 0.13777009 -0.0121456385 0.114978835 0.11278822 0.104908295 0.02957415 -0.012738854
0.038142376 0.005336495 -0.11318412 0.113258794 -0.005008751 -0.036795452 0.06181377 -0.023915514
0.06095759 -0.058850035 0.006727148 0.055246584 -0.023466215 0.13904482 0.02331292 -0.10244838
0.043795742 0.026439764 0.061447054 -0.09255094 0.056886353 0.061213836 -0.10696639 -0.14156695
0.011591974 -0.07648565 0.022360519 0.058060043 0.045893874 0.030776426 -0.13374506 0.08688701
-0.16190007 -0.058746465 0.056801826 0.07279872 -0.042171873 0.056624763 -0.011228308 -0.00800905
0.050308894 -0.08109793 0.17624249 0.006301292 0.019525006 0.08066975 0.10052605 0.075437166
0.07168447 -0.053598333 0.02111122 -0.0006765411 -0.01325596 0.002177452 0.07144073 -0.06883332
0.2117773 -0.10253525 -0.00092136016 0.08691161 0.0553857 0.008048266 -0.049903158 0.0635354
-0.039413203 -0.1671645 -0.0114248805 0.018672058 -0.057699382 -0.010337897 0.14463979 0.024354015
0.050904118 0.052198667 0.098723106 -0.113519065 -0.009689115 -0.011380489 -0.1134836 -0.010929415
0.117781945 0.17208026 0.03338991 0.02007503 -0.03826523 0.034572795 -0.012208519 -0.12793995
-0.030102285 0.07234018 -0.026658788 0.3209136 0.008748659 -0.14755014 -0.019039512 0.09038562
-0.0678146 -0.02532356 0.02454777 -0.08082973 0.048454337 0.042404253 0.051712584 -0.056351736
0.08540292 -0.053816985 0.085100524 -0.08482545 -0.078240156 0.0542878 0.0054300367 0.0050990656
-0.0499728 -0.038053177 -0.029239506 -0.08941931 0.0039092614 0.015632264 -7.483363e-05 0.02618635
0.08386736 0.023501053 -0.032356534 -0.04077772 -0.056958877 -0.06435383 -0.01423493 -0.015632853
0.038462393 -0.041011594 0.070463516 -0.0647524 0.00025121868 0.0755237 0.08789206 -0.051200032
0.011642732 0.01044067 -0.043942288 -0.030059304 0.023009239 -0.06251041 0.010661143 0.035526622
-0.034831207 0.073419 -0.005816877 0.036121305 0.087531544 -0.030535571 0.047233727 -0.027490364
-0.017146157 -0.018493282 -0.004047795 -0.0369997 0.019810611 0.0033305064 0.056028478 -0.021815134
0.008863598 -0.03229935 -0.077692136 0.031859487 0.011309989 -0.035398096 -0.02988454 0.019118596
-0.015982106 0.05775965 0.0033296347 0.029014489 0.035246335 -0.025885759 0.03728184 0.0652247
0.004067488 0.01377084 -0.00010981719 0.056759607 -0.03781838 -0.05013964 0.034969054 -0.0807693
0.0014170855 -0.04064901 0.058339275 -0.085759744 0.053592734 0.087447606 0.014526514 -0.005403252
0.08633739 -0.040388104 -0.007082872 -0.038705695 -0.01610583 0.018435711 0.0072923163 -0.020754157
-0.091789 0.002783851 -0.0060288752 0.009511958 0.06772759 0.082722224 -0.05447453 -0.005511403
-0.03616348 -0.08146273 -0.06856145 0.08295786 0.051535808 0.04647367 0.04580869 -0.0744449
0.0070163575 0.07916505 -0.052921534 0.077669136 0.022497036 0.061820675 -0.037864476 0.03677076
00000000: 6301 0fbc 9b8b 12bd 3338 1e3e 9f66 0bbe
00000010: 9b89 5e3d 559b dd3d a5f0 e0bc e2e8 6f3d
00000020: 5ced 80bd 13e7 32bd 4225 983d e1a4 26be
00000030: e186 ba3d 12f0 02be fbd4 dfbc a78d 39be
00000040: 0e9e 193e 74fd 373e ac35 16bd 93ed 733d
00000050: ece3 a83d 6c06 9dbc f12a 8e3d 8d9f afbd
00000060: 38d0 193c 9a13 0d3e 80fe 46bc 067a eb3d
00000070: 83fd e63d 29da d63d 7d45 f23c a0b6 50bc
00000080: 2e3b 1c3d c4dd ae3b 13cd e7bd 3af4 e73d
00000090: 7320 a4bb d4b6 16bd 7030 7d3d 78ea c3bc
000000a0: aaae 793d bc0c 71bd 686f dc3b 3e4a 623d
000000b0: 383c c0bc c461 0e3e bdfa be3c 75d0 d1bd
000000c0: 2a63 333d 3498 d83c e8af 7b3d 598b bdbd
000000d0: aa01 693d 5cbb 7a3d 3211 dbbd edf6 10be
000000e0: 43ec 3d3c 82a4 9cbd 682d b73c 5ed0 6d3d
000000f0: 37fb 3b3d d81e fc3c 77f4 08be d1f1 b13d
00000100: 22c9 25be 22a0 70bd 08a9 683d 7f17 953d
00000110: 6abc 2cbd 5eef 673d f0f6 37bc 6438 03bc
00000120: b310 4e3d ac16 a6bd e978 343e 127b ce3b
00000130: e8f2 9f3c 2f36 a53d 9ae0 cd3d cd7e 9a3d
00000140: 4fcf 923d ed89 5bbd 70f1 ac3c e859 31ba
00000150: 872f 59bc 95b3 0e3b 844f 923d 7cf8 8cbd
00000160: 26dc 583e 00fe d1bd 6f87 71ba b7fe b13d
00000170: 1edc 623d e0dc 033c 4167 4cbd d91e 823d
00000180: bd6f 21bd 2c2d 2bbe 6c2f 3bbc 25f6 983c
00000190: 3056 6cbd 4860 29bc 741c 143e 1282 c73c
000001a0: d680 503d 45ce 553d 572f ca3d af7c e8bd
000001b0: 18bf 1ebc 3b75 3abc 176a e8bd 4a11 33bc
000001c0: a937 f13d cf35 303e dcc3 083d 6474 a43c
000001d0: 00bc 1cbd 349c 0d3d 3d06 48bc b102 03be
000001e0: 1199 f6bc 1727 943d 8863 dabc ca4e a43e
000001f0: 8956 0f3c 6217 17be c0f8 9bbc 191c b93d
00000200: 62e2 8abd 5b73 cfbc 6818 c93c 0f8a a5bd
00000210: 0e78 463d 15b0 2d3d 93d0 533d 14d1 66bd
00000220: bae7 ae3d 336f 5cbd 2f49 ae3d f7b8 adbd
00000230: 603c a0bd e25c 5e3d 73ee b13b 1016 a73b
00000240: 47b0 4cbd a6dd 1bbd b087 efbc 7921 b7bd
00000250: 4319 803b 3c0f 803c 00f0 9cb8 c284 d63c
00000260: a7c2 ab3d 4885 c03c 4988 04bd 8a06 27bd
00000270: b64d 69bd f1cb 83bd a039 69bc 7810 80bc
00000280: be8a 1d3d c6fb 27bd 2d4f 903d e89c 84bd
00000290: 00b6 8339 2bac 9a3d c100 b43d 20b7 51bd
000002a0: 28c1 3e3c 580f 2b3c d4fc 33bd ee3e f6bc
000002b0: df7d bc3c 7505 80bd 13ac 2e3c 5d84 113d
000002c0: 2bab 0ebd b35c 963d 809b bebb eff3 133d
000002d0: bd43 b33d bc25 fabc 2778 413d 7933 e1bc
000002e0: 1976 8cbc 397f 97bc 5ea3 84bb ff8c 17bd
000002f0: dd49 a23c a044 5a3b 1e7e 653d a7b5 b2bc
00000300: a038 113c 534c 04bd 0e1d 9fbd 187f 023d
00000310: 884d 393c 98fd 10bd 6cd0 f4bc 9a9e 9c3c
00000320: e8ec 82bc 6295 6c3d 0036 5a3b cbaf ed3c
00000330: 765e 103d 5f0e d4bc d8b4 183d 8794 853d
00000340: 9048 853b 179f 613c a84d e6b8 c37c 683d
00000350: 72e7 1abd 395f 4dbd b63b 0f3d 606a a5bd
00000360: 80bd b93a 947f 26bd 2af5 6e3d cea2 afbd
00000370: 0e84 5b3d bb17 b33d 9e00 6e3c c30d b1bb
00000380: a8d1 b03d ff6d 25bd 7017 e8bb dd89 1ebd
00000390: 60f0 83bc 7d06 973c 62f4 ee3b 9f04 aabc
000003a0: dffb bbbd 4571 363b df8d c5bb 0bd8 1b3c
000003b0: c3b4 8a3d 456a a93d af20 5fbd 0099 b4bb
000003c0: 2820 14bd efd5 a6bd f269 8cbd cfe5 a93d
000003d0: 3617 533d 2d5b 3e3d e5a1 3b3d 9176 98bd
000003e0: 79e9 e53b 4921 a23d 40c4 58bd ff10 9f3d
000003f0: b44b b83c ad37 7d3d c817 1bbd f09c 163d

net.2.bias f4 [128]
-0.017953789 0.08032851 -0.051696524 0.011680402 0.020083724 -0.08064286 0.04821138 0.061344065
0.056069102 0.05258435 0.044469394 -0.053639807 0.053706687 -0.03323378 0.024414644 -0.09226245
0.0017663379 -0.049070053 -0.052400943 -0.06584098 -0.015275687 -0.061362594 -0.05527444 -0.08813094
0.050594542 0.061420318 -0.01349742 0.04397653 0.020060152 -0.054249957 -0.015014742 0.034953263
0.034937292 -0.0045425 -0.013279453 0.056007903 -0.030774446 0.0067220246 -0.056470823 0.06729462
-0.008972042 -0.054694906 -0.07305508 -0.008131541 0.022715311 0.04810593 -0.017804787 -0.04607721
-0.08556467 -0.009865888 0.07000385 -0.08316944 -0.027613936 0.060030144 0.064617135 -0.058211215
-0.10635292 0.109687366 -0.044238877 0.014545651 -0.0907232 0.033611603 -0.009934027 -0.028997095
-0.047903158 0.05677309 -0.035325274 -0.041970957 -0.061392486 0.057772283 4.0237257e-05 -0.014023975
0.038090523 0.059821986 -0.07725996 0.05107086 0.06449624 0.046441484 -0.035866175 -0.06032711
0.0012634905 0.06356258 -0.091092974 -0.080324374 -0.023487415 0.03601505 -0.081600465 -0.025227679
0.026963651 -0.010955986 -0.08367871 -0.03163929 -0.043282993 0.04701041 -0.08820226 0.0131939035
-0.025586559 0.05150605 -0.054700878 0.056871086 -0.0052736974 0.07136915 -0.089303926 -0.015321497
-0.034319527 0.06035022 -0.07694999 0.06588616 -0.06219787 0.022565765 -0.030360667 -0.075843535
0.0056797117 -0.08051736 0.022831691 0.07682303 -0.0084335655 -0.048895366 0.055102743 0.009383872
0.0072668437 0.04810953 -0.08746213 -0.04544591 0.024924863 0.039552685 -0.042004712 -0.064658195
00000000: d313 93bc 4683 a43d bcbf 53bd 285f 3f3c
00000010: 9f86 a43c 1528 a5bd 4c79 453d ea43 7b3d
00000020: b7a8 653d b062 573d 8a25 363d 6ab5 5bbd
00000030: 8bfb 5b3d 2520 08bd 3801 c83c 18f4 bcbd
00000040: 7784 e73a aefd 48bd 5fa2 56bd a3d7 86bd
00000050: e046 7abc 5857 7bbd 7467 62bd ff7d b4bd
00000060: 393c 4f3d df93 7b3d 4824 5dbc bc20 343d
00000070: 3055 a43c 3435 5ebd 6400 76bc 272b 0f3d
00000080: 681a 0f3d 40d9 94bb 1092 59bc 8b68 653d
00000090: b11a fcbc 6e44 dc3b f34d 67bd c3d1 893d
000000a0: 79ff 12bc c407 60bd e79d 95bd 283a 05bc
000000b0: 7615 ba3c b90a 453d 58db 91bc 75bb 3cbd
000000c0: 883c afbd 89a4 21bc 2e5e 8f3d bd54 aabd
000000d0: 9f36 e2bc 2be2 753d fd55 843d e26e 6ebd
000000e0: 8fcf d9bd c5a3 e03d d333 35bd e250 6e3c
000000f0: 16cd b9bd 52ac 093d 54c2 22bc 518b edbc
00000100: 1a36 44bd e68a 683d 3cb1 10bd bde9 2bbd
00000110: b076 7bbd a1a2 6c3d 6dc4 2838 d0c4 65bc
00000120: cf04 1c3d e607 753d 783a 9ebd ae2f 513d
00000130: 9b16 843d 6d39 3e3d 69e8 12bd 8f19 77bd
00000140: b59b a53a 192d 823d f48e babd 1b81 a4bd
00000150: ae68 c0bc 8484 133d 251e a7bd 47aa cebc
00000160: e0e2 dc3c bc80 33bc be5f abbd 3398 01bd
00000170: 8249 31bd fd8d 403d 63a3 b4bd 3e2b 583c
00000180: e79a d1bc 02f8 523d 070e 60bd a8f1 683d
00000190: fbce acbb fd29 923d fae4 b6bd 0407 7bbc
000001a0: a292 0cbd cb31 773d f597 9dbd 53ef 863d
000001b0: 32c3 7ebd d7db b83c efb6 f8bc db53 9bbd
000001c0: e01c ba3b 49e6 a4bd 8709 bb3c 6555 9d3d
000001d0: f02c 0abc 8246 48bd 6ab3 613d d0be 193c
000001e0: b41e ee3b 800e 453d 581f b3bd 7e25 3abd
000001f0: 3a2f cc3c ff01 223d 220d 2cbd 846b 84bd

net.4.weight f4 [15, 128]
0.13762291 -0.024232391 0.08564776 0.04995311 -0.0038711526 -0.010690772 0.03820647 0.06505102
0.070200205 0.11011399 0.045266606 0.08733884 0.11502448 0.042814605 0.076938726 0.124747954
-0.035472825 0.093298115 0.21598624 0.0474462 -0.07833516 0.10487563 0.015837617 -0.024267301
0.035485808 0.027803604 0.019990407 0.05195241 0.02131968 -0.02719527 0.0010779127 0.07253745
-0.26672822 -0.009969503 0.04861421 0.066712394 -0.13361923 0.11360852 -0.08493188 -0.15896827
-0.099936895 0.07606121 0.053109728 0.059883736 0.0038481427 0.04895248 0.08291232 0.0074950606
0.019907333 -0.019073028 0.025925487 0.013452642 0.09817621 0.05608099 -0.041054998 -0.041954026
0.09067564 -0.17822793 0.023902925 0.024078855 -0.0071154013 0.025308248 0.11017839 -0.058673806
-0.028873276 -0.105455875 0.03764432 0.08844329 -0.0113943005 0.0037791594 0.014692947 -0.06917408
-0.09515615 -0.051939595 0.115160845 0.017896699 -0.13489176 0.12395679 0.113869384 0.14429075
-0.07831004 0.0016969338 0.19011992 0.13287485 0.06707079 -0.043434802 0.032081455 0.2653597
-0.074452475 -0.11796007 0.18478215 -0.051724773 0.010908979 -0.11133379 -0.07690057 -0.052034248
0.028207714 -0.014075809 0.042878713 -0.015238176 0.12980331 -0.19955494 0.017649036 -0.027127424
-0.20686395 -0.120511234 0.1379647 0.058007248 -0.11852072 0.16351636 0.16533862 0.04870724
0.08575753 -0.048339836 -0.05818227 -0.051467776 -0.013325095 0.0058257473 0.08341422 -0.045815837
-0.028343672 0.054563493 0.015580878 0.024331331 0.026351484 -0.21891518 0.057991654 0.08780279
0.046312433 -0.01505412 0.12613428 -0.046930134 -0.08110483 -0.029565528 0.094172694 0.07783956
0.084552564 0.012997741 0.006464459 0.0039674714 0.1210839 -0.053179923 0.06512756 0.1438456
-0.056287803 -0.009593811 0.20797804 -0.048858143 -0.03259337 -0.017772637 0.020282403 0.08634401
0.11478191 -0.0067996704 -0.008825332 0.030724866 -0.038608987 -0.035580542 0.023511633 -0.03575566
-0.2909968 0.011816405 0.08400979 0.022332942 -0.126928 -0.009682717 0.07424276 -0.12911507
0.01613171 0.011940099 0.02172942 -0.07427094 -0.09752028 0.06771288 -0.014217831 0.057652824
-0.033040285 -0.027896605 -0.012309795 0.047372334 0.13974704 0.019676382 -0.04479591 0.033549502
0.11561624 -0.07472254 0.03688736 0.07780377 0.0761361 -0.034363307 0.11403389 -0.02140164
-0.08381537 -0.047554776 -0.04755336 0.060396675 0.12839645 -0.024220673 0.12897035 0.021050498
-0.14611049 0.03409701 0.007847207 0.016834807 -0.21322231 0.154295 0.06905993 0.19433422
-0.09056193 0.009212398 0.2334955 0.08506961 0.04858727 -0.01236891 0.049684513 0.19232553
-0.04791309 -0.1098642 0.05669034 -0.016195014 0.07625722 -0.088645875 0.0078183785 -0.033000946
-0.0053412565 -0.050564952 -0.028256219 -0.099175 0.011793468 -0.17036678 -0.050013915 0.0135658225
-0.15700608 -0.09797672 0.10630734 -0.07153642 -0.08925699 0.2725198 0.046542365 0.0754438
0.07930782 0.020513287 -0.04337349 0.010873513 0.018394612 0.012416679 0.022290045 0.08684964
0.050414998 0.08393294 -0.032926846 -0.02901623 0.10618603 -0.20188627 0.15084821 -0.038896725
00000000: 05ed 0c3e 0283 c6bc 1868 af3d a29b 4c3d
00000010: 2ab3 7dbb 5928 2fbc 637e 1c3d 7839 853d
00000020: 20c5 8f3d 7283 e13d 7a69 393d b5de b23d
00000030: f491 eb3d 5e5e 2f3d 0d92 9d3d db7b ff3d
00000040: f44b 11bd 1513 bf3d 7f2b 5d3e f256 423d
00000050: 2f6e a0bd 09c9 d63d e4bd 813c 38cc c6bc
00000060: 9159 113d 62c4 e33c ecc2 a33c 0dcc 543d
00000070: 9ca6 ae3c 9dc8 debc c048 8d3a 848e 943d
00000080: 9a90 88be 2057 23bc b21f 473d 82a0 883d
00000090: 7bd3 08be 95ab e83d c4f0 adbd 94c8 22be
000000a0: b7ab ccbd fbc5 9b3d 9689 593d a648 753d
000000b0: 1f31 7c3b 6582 483d efcd a93d 2099 f53b
000000c0: b414 a33c 0a3f 9cbc b061 d43c 7868 5c3c
000000d0: 9c10 c93d 2eb5 653d 4929 28bd fcd7 2bbd
000000e0: 26b4 b93d 6281 36be 11d0 c33c 0541 c53c
000000f0: 5028 e9bb 3e53 cf3c 35a5 e13d f253 70bd
00000100: a687 ecbc 40f9 d7bd ee30 1a3d c121 b53d
00000110: 29af 3abc c6ab 773b b0ba 703c 24ab 8dbd
00000120: 3ae1 c2bd 9dbe 54bd 73d9 eb3d 199c 923c
00000130: 1121 0abe 0fdd fd3d 5a34 e93d f4c0 133e
00000140: 0461 a0bd a66b de3a ccae 423e 5810 083e
00000150: 695c 893d b1e8 31bd d867 033d 3add 873e
00000160: 8a7a 98bd 0d95 f1bd 8837 3d3e 5bdd 53bd
00000170: 93bb 323c f802 e4bd 0c7e 9dbd dd21 55bd
00000180: dd13 e73c 399e 66bc 97a1 2f3d 8ba9 79bc
00000190: 29eb 043e 2158 4cbe b694 903c 553a debc
000001a0: 25d4 53be 98ce f6bd 9e46 0d3e 0299 6d3d
000001b0: feba f2bd d570 273e 874e 293e 3e81 473d
000001c0: a5a1 af3d feff 45bd 8850 6ebd e0cf 52bd
000001d0: 8051 5abc e9e5 be3b 13d5 aa3d 63a9 3bbd
000001e0: fd30 e8bc f87d 5f3d f046 7f3c 8052 c73c
000001f0: 11df d73c 4d2b 60be a888 6d3d f3d1 b33d
00000200: 1bb2 3d3d 8ea5 76bc 5829 013e d039 40bd
00000210: 4a1a a6bd 6833 f2bc 9ddd c03d 596a 9f3d
00000220: e529 ad3d 7af4 543c d0d3 d33b 9001 823b
00000230: d6fa f73d 31d3 59bd 9961 853d 434c 133e
00000240: 0a8e 66bd 5c2f 1dbc 32f8 543e 7a1f 48bd
00000250: a080 05bd ec97 91bc 4827 a63c 21d5 b03d
00000260: c712 eb3d c5cf debb 2098 10bc b7b2 fb3c
00000270: 7524 1ebd e7bc 11bd 789b c03c 8774 12bd
00000280: 88fd 94be 9899 413c 530d ac3d 93f3 b63c
00000290: 6af9 01be 42a4 1ebc 970c 983d be36 04be
000002a0: a626 843c 68a0 433c e601 b23c 5d1b 98bd
000002b0: b6b8 c7bd 0dad 8a3d e8f1 68bc 5e25 6c3d
000002c0: 4055 07bd 6c87 e4bc 06af 49bc 7e09 423d
000002d0: d919 0f3e 5d30 a13c eb7b 37bd 346b 093d
000002e0: 35c8 ec3d 2208 99bd 3317 173d 9557 9f3d
000002f0: 3eed 9b3d 8ac0 0cbd 9a8a e93d 7e52 afbc
00000300: 65a7 abbd ccc8 42bd 50c7 42bd 8162 773d
00000310: 5c7a 033e 6f6a c6bc ce10 043e 1872 ac3c
00000320: fd9d 15be 4ea9 0b3d 9291 003c 26e9 893c
00000330: f356 5abe 82ff 1d3e 4b6f 8d3d 8dff 463e
00000340: 8878 b9bd 99ef 163c 7219 6f3e fa38 ae3d
00000350: 7203 473d f8a6 4abc fd81 4b3d fcf0 443e
00000360: 8440 44bd 7b00 e1bd 2134 683d 68ab 84bc
00000370: bf2c 9c3d f88b b5bd a818 003c 002c 07bd
00000380: b505 afbb 321d 4fbd 9679 e7bc 431c cbbd
00000390: 6439 413c a174 2ebe 64db 4cbd 2f43 5e3c
000003a0: 34c6 20be 05a8 c8bd aab7 d93d b081 92bd
000003b0: 5ecc b6bd b787 8b3e 35a3 3e3d 4782 9a3d
000003c0: 236c a23d 7b0b a83c 67a8 31bd d226 323c
000003d0: 4cb0 963c 546f 4b3c 9d99 b63c 39de b13d
000003e0: f57f 4e3d 09e5 ab3d 4dde 06bd 72b3 edbc
000003f0: 1078 d93d 46bb 4ebe f477 1a3e 2c52 1fbd

net.4.bias f4 [15]
0.05468261 0.08638723 -0.06547099 -0.058317296 -0.063421205 0.06359412 -0.045380823 0.051492836
-0.028924085 0.0465163 0.0038509788 -0.02315404 0.06565741 0.08014006 -0.0322322
00000000: dffa 5f3d caeb b03d a815 86bd 1ede 6ebd
00000010: fae2 81bd a23d 823d 3ee1 39bd 27ea 523d
00000020: 34f2 ecbc e087 3e3d b460 7c3b 8bad bdbc
00000030: 6477 863d 7920 a43d e905 04bd

net.0.weight f4 [128, 4]
0.61452574 0.34960377 -0.30746865 -0.2681585 -1.5472335 0.16794167 0.03554881 0.40954012
1.7475221 0.12195179 -0.13757029 -0.08025899 -1.0214629 -0.48408112 -0.18698929 -0.0031529309
0.84139484 0.36960888 -0.22232299 -0.19510384 1.4121002 0.39603022 -0.105960675 0.35698912
1.3919584 0.06792595 0.45358846 -0.4662542 0.013034333 -0.08325173 -0.20747815 0.40663102
-0.42204577 -0.008756456 -0.3138446 -0.40615228 -1.1159277 0.41008905 0.19888371 0.23167667
1.3403012 -0.16491476 0.11371806 -0.44983006 -1.3667486 -0.34070122 0.3283143 0.2905645
0.70122194 -0.01922268 0.2714958 0.48394048 0.21071027 0.08046947 0.3729456 -0.30253828
1.4692125 -0.42449194 -0.31576234 -0.19512698 -0.2964576 0.30446196 -0.29731965 0.18802252
1.8437533 -0.0068634273 0.031625826 0.10656863 0.6955692 0.51484233 -0.32973245 -0.15906835
1.619427 0.3746807 0.42018837 0.42242327 1.6227621 -0.46632135 0.041759826 -0.33254278
0.3200662 0.48679298 0.4486041 -0.41343462 0.09358603 -0.084230006 -0.082280576 -0.22887844
0.18168981 -0.30695757 0.1742387 0.24379711 -0.23666176 0.23771867 -0.43239388 -0.3532024
0.24965751 0.104650676 -0.390042 -0.28790975 0.51507723 0.37236977 -0.21517758 -0.092184775
-0.47629905 -0.008987069 -0.37652946 -0.38567835 1.6634353 0.034261703 -0.2053246 0.28825444
0.8066829 0.5120941 0.4803 -0.3376892 1.2722946 -0.015984213 0.053566877 0.11002935
1.4577127 -0.00075155305 -0.2022564 0.28519198 -0.47962445 -0.29635334 -0.12516493 -0.24355668
0.74884766 -0.38880488 -0.13113166 0.1118414 -1.5174856 -0.021348499 0.33562154 -0.0661541
-1.0390214 0.018804196 0.105494 0.31662712 1.9893638 0.31251547 0.4846121 -0.03577286
-0.4353582 -0.23755243 0.33636275 -0.011433956 -0.9159313 -0.33065045 -0.44226393 -0.2731764
-0.10909127 0.26578513 0.26190266 -0.49220908 0.31189102 -0.39125472 -0.10570514 -0.20273632
0.177781 -0.036762927 -0.4745478 -0.38539046 -0.07823974 0.0064660907 -0.22713745 0.1883496
0.7228821 -0.03642483 0.44125438 -0.20829234 1.3339542 0.19179471 -0.4053333 0.34981403
-1.4949979 -0.110122815 0.39581573 -0.54853684 1.4792339 -0.036375634 0.377142 0.13484302
1.8068303 0.16639112 -0.11389588 -0.101388946 -1.7197573 0.26560113 0.39318934 0.33273673
-0.35268915 0.022299945 -0.35246706 -0.2752421 -0.29135275 0.17087251 -0.2979566 -0.010908604
-0.051803377 0.34157753 -0.39348575 -0.3284269 -1.9006512 0.3537712 -0.19718409 0.40674505
0.18080378 0.06331301 -0.003722012 -0.09884077 -1.223776 -0.13011758 -0.031310342 0.038736723
-1.9616834 0.0033677844 0.41390118 -0.6408948 -1.5030601 0.49809822 0.18380997 0.02711616
-1.1805805 0.2501536 -0.369588 -0.1570757 -0.56501603 -0.063295886 -0.01054244 0.3905308
0.32958162 0.40307796 0.2875243 -0.33283824 1.7916663 -0.35029256 -0.20284258 0.15126532
1.0155133 0.41805834 -0.087211505 -0.025192628 0.25741178 -0.48354608 0.3614903 -0.4134612
-0.12858926 0.0320124 -0.26040417 0.12508836 2.1229563 -0.15885401 -0.2974635 -0.18921082
00000000: 8f51 1d3f 44ff b23e 886c 9dbe 124c 89be
00000010: bf0b c6bf e7f8 2b3e a19b 113d 3eaf d13e
00000020: ceae df3f dcc1 f93d 3adf 0cbe d35e a4bd
00000030: 4cbf 82bf 7bd9 f7be 1f7a 3fbe 67a1 4ebb
00000040: a765 573f 603d bd3e a3a8 63be 4dc9 47be
00000050: b3bf b43f 79c4 ca3e e901 d9bd 47c7 b63e
00000060: b12b b23f c31c 8b3d bf3c e83e dfb8 eebe
00000070: f48d 553c e27f aabd 2775 54be f131 d03e
00000080: 6216 d8be 3d77 0fbc 3db0 a0be 31f3 cfbe
00000090: b8d6 8ebf 31f7 d13e 2ca8 4b3e a63c 6d3e
000000a0: fd8e ab3f 6adf 28be 04e5 e83d 2050 e6be
000000b0: 9ef1 aebf 6470 aebe d018 a83e dfc4 943e
000000c0: 4883 333f e278 9dbc 7f01 8b3e 0cc7 f73e
000000d0: 6fc4 573e 2dcd a43d baf2 be3e 4ce6 9abe
000000e0: 280f bc3f 0257 d9be 9aab a1be 5ecf 47be
000000f0: 4ac9 97be 70e2 9b3e 483a 98be fa88 403e
00000100: 1c00 ec3f 9ae6 e0bb 158a 013d a740 da3d
00000110: d310 323f b5cc 033f b1d2 a8be d0e2 22be
00000120: 6249 cf3f 26d6 bf3e ee22 d73e dd47 d83e
00000130: abb6 cf3f acc1 eebe 5a0c 2b3d 0c43 aabe
00000140: b8df a33e ee3c f93e 70af e53e b4ad d3be
00000150: 08aa bf3d c880 acbd b882 a8bd 1c5f 6abe
00000160: e50c 3a3e 8b29 9dbe a16b 323e f3a5 793e
00000170: 7657 72be 866c 733e bb62 ddbe f2d6 b4be
00000180: 38a6 7f3e 1853 d63d 96b3 c7be e868 93be
00000190: 1adc 033f 40a7 be3e 8357 5cbe 5fcb bcbd
000001a0: 78dd f3be 803e 13bc 78c8 c0be a277 c5be
000001b0: 73eb d43f 0056 0c3d 9d40 52be 1696 933e
000001c0: c582 4e3f 9918 033f e2e9 f53e 99e5 acbe
000001d0: 8dda a23f 53f1 82bc f168 5b3d 1157 e13d
000001e0: 5496 ba3f df03 45ba 4d1c 4fbe af04 923e
000001f0: 5691 f5be a0bb 97be 3c2b 00be ec66 79be
00000200: 7bb4 3f3f 6f11 c7be 6147 06be 1b0d e53d
00000210: f83c c2bf 0ce3 aebc 96d6 ab3e cd7b 87bd
00000220: a7fe 84bf 420b 9a3c 3d0d d83d f31c a23e
00000230: 79a3 fe3f 0702 a03e 141f f83e 9086 12bd
00000240: 45e7 debe f240 73be bd37 ac3e 7d55 3bbc
00000250: 797a 6abf 044b a9be 6b70 e2be c7dd 8bbe
00000260: 3e6b dfbd fd14 883e 1b18 863e d402 fcbe
00000270: 2eb0 9f3e 8a52 c8be f07b d8bd 1c9a 4fbe
00000280: 390c 363e b994 16bd eef7 f2be e651 c5be
00000290: 283c a0bd 80e1 d33b b896 68be b8de 403e
000002a0: cd0e 393f 3432 15bd 18ec e13e 964a 55be
000002b0: 03bf aa3f d565 443e d987 cfbe d31a b33e
000002c0: 175c bfbf 1288 e1bd 5ca8 ca3e e96c 0cbf
000002d0: 8957 bd3f 9efe 14bd c218 c13e 4a14 0a3e
000002e0: 3746 e73f 6f62 2a3e 3e42 e9bd 02a5 cfbd
000002f0: 0221 dcbf dffc 873e 1d50 c93e 785c aa3e
00000300: ac93 b4be 60ae b63c 9076 b4be 88ec 8cbe
00000310: 302c 95be 34f9 2e3e c48d 98be 00ba 32bc
00000320: c72f 54bd 40e3 ae3e f776 c9be 9227 a8be
00000330: 8a48 f3bf 8021 b53e a0ea 49be e340 d03e
00000340: a024 393e 40aa 813d 00ed 73bb 086d cabd
00000350: b1a4 9cbf 8b3d 05be 463f 00bd 66aa 1e3d
00000360: 7118 fbbf 0cb6 5c3b dbea d33e ae11 24bf
00000370: 4664 c0bf bb06 ff3e ae38 3c3e b622 de3c
00000380: 431d 97bf 2214 803e a33a bdbe 74d8 20be
00000390: e4a4 10bf 46a1 81bd 33ba 2cbc a7f3 c73e
000003a0: ecbe a83e 3c60 ce3e 6336 933e c669 aabe
000003b0: 5255 e53f 8c59 b3be f7b5 4fbe 4ce5 1a3e
000003c0: 57fc 813f be0b d63e f29b b2bd c560 cebc
000003d0: 7acb 833e 5a93 f7be 4215 b93e 30b1 d3be
000003e0: e7ac 03be 6f1f 033d b253 85be 2a17 003e
000003f0: 84de 0740 a0aa 22be 234d 98be 7bc0 41be

net.0.bias f4 [128]
-0.062275615 -0.10460921 0.118830726 0.19818957 -0.19494757 0.007875165 0.2744185 -0.07439287
0.23658031 -0.103480116 0.18784663 -0.35772848 -0.3516668 -0.22195347 0.4569008 -0.08580673
-0.013119329 -0.22652085 0.45986703 0.46057555 -0.3591785 -0.40533495 -0.3880536 0.04871975
-0.12745196 -0.2914508 -0.17933607 0.066534564 -0.19935657 0.06299205 -0.078969166 -0.24228168
0.050164696 0.4235672 -0.33828112 0.0037757661 -0.1956656 0.54279745 -0.4827995 -0.4793306
0.49622238 -0.31634498 0.07994293 0.029514818 -0.09741369 -0.15313707 0.30269882 0.038200974
-0.4868073 -0.29518008 -0.15147454 0.2644617 -0.32356685 0.47491828 -0.05263016 -0.017505514
0.40811983 0.2567654 0.39720902 0.2767285 -0.14310546 -0.3317362 0.0068377065 0.3902477
-0.09402622 -0.43481156 0.19053166 0.4648187 -0.14234161 -0.41401178 -0.45352983 0.0812532
0.0451117 -0.25249362 0.08995492 0.16407087 0.37751898 0.36732504 -0.04520954 -0.44088358
-0.45181155 0.43112764 0.25962126 0.1894504 -0.43232954 0.46900553 0.4713555 0.41209835
-0.38433126 -0.15375173 -0.25389642 0.44382358 -0.19826867 -0.22827727 0.23515886 -0.18045138
-0.23453838 0.044336423 -0.06400987 -0.34061208 0.38039076 -0.25799417 0.17242466 0.40639564
0.22326893 0.0982905 0.41758296 0.17318605 -0.23132831 0.47374156 0.16670899 -0.49770805
-0.180421 -0.27057672 0.41876176 -0.08257294 -0.45576245 0.003672309 0.2522353 0.17720361
0.25343814 0.019465879 0.16774209 -0.1513688 -0.1975451 -0.4732133 -0.37666845 0.19207175
00000000: b714 7fbd 5a3d d6bd 865d f33d 35f2 4a3e
00000010: 56a0 47be d606 013c 9580 8c3e 4a5b 98bd
00000020: 1c42 723e 62ed d3bd de5a 403e 3028 b7be
00000030: ac0d b4be c547 63be e7ee e93e 70bb afbd
00000040: 74f2 56bc 15f5 67be b173 eb3e 8fd0 eb3e
00000050: 3fe6 b7be 1088 cfbe f6ae c6be 5c8e 473d
00000060: c482 02be 0a39 95be e0a3 37be 4643 883d
00000070: 2124 4cbe fa01 813d 96ba a1bd b018 78be
00000080: 7f79 4d3d cddd d83e 2f33 adbe d872 773b
00000090: 905c 48be c6f4 0a3f 7f31 f7be d26a f5be
000000a0: dc10 fe3e f8f7 a1be 1eb9 a33d 0fc9 f13c
000000b0: d480 c7bd f7cf 1cbe 57fb 9a3e a078 1c3d
000000c0: ce3e f9be d821 97be 241c 1bbe 8667 873e
000000d0: 8eaa a5be 7d28 f33e b992 57bd b967 8fbc
000000e0: 15f5 d03e c176 833e fb5e cb3e 5caf 8d3e
000000f0: 3d8a 12be 54d9 a9be d70e e03b 8cce c73e
00000100: d290 c0bd 9f9f debe bb1a 433e b7fc ed3e
00000110: 00c2 11be 5af9 d3be 1035 e8be 1468 a63d
00000120: 0cc7 383d d846 81be 493a b83d 3202 283e
00000130: 2b4a c13e 0712 bc3e a32d 39bd 7ebb e1be
00000140: d853 e7be c3bc dc3e 14ed 843e 49ff 413e
00000150: 4c5a ddbe 7e21 f03e 8255 f13e 8efe d23e
00000160: 11c7 c4be 1871 1dbe b6fe 81be d83c e33e
00000170: f106 4bbe 84c1 69be 7ccd 703e 3fc8 38be
00000180: d42a 70be 1c9a 353d 9b17 83bd b564 aebe
00000190: 94c2 c23e d017 84be 1790 303e 1713 d03e
000001a0: 9ca0 643e 884c c93d 6fcd d53e af57 313e
000001b0: 54e1 6cbe 418e f23e c3b5 2a3e 97d3 febe
000001c0: 48c0 38be 0889 8abe f167 d63e 001c a9bd
000001d0: b259 e9be 1fab 703b fc24 813e dd74 353e
000001e0: a5c2 813e e876 9f3c 95c4 2b3e 6c00 1bbe
000001f0: 4349 4abe 0349 f2be b0da c0be 75ae 443e

net.2.weight f4 [128, 128]
-0.011789064 -0.0350337 0.15271588 -0.13195059 0.052401498 0.10782643 -0.02778219 0.05858723
-0.06342764 -0.042895097 0.07380979 -0.16140814 0.09011933 -0.12059373 -0.027989559 -0.18093365
0.14797981 0.17669839 -0.036712896 0.059032675 0.083394706 -0.019168101 0.06354035 -0.09157833
0.009388022 0.13176142 -0.0121456385 0.11397342 0.111545615 0.104115345 0.029085228 -0.012738854
0.036158163 0.0058379946 -0.10983915 0.112709366 -0.0073003066 -0.03606493 0.06181377 -0.023915514
0.061137952 -0.058850035 0.006379193 0.05412957 -0.024141185 0.13670501 0.02280257 -0.10176644
0.043795742 0.026439764 0.054282814 -0.09176315 0.056886353 0.061684433 -0.10606318 -0.14041269
0.012596978 -0.07623093 0.0225109 0.057261333 0.046736244 0.030776426 -0.13459958 0.08583739
-0.16400044 -0.057046954 0.055929873 0.073031686 -0.042171873 0.056624763 -0.011228308 -0.008509962
0.048915714 -0.08109793 0.17489552 0.005598628 0.019166205 0.07973977 0.09973239 0.075437166
0.07168447 -0.053701796 0.019436521 -0.0013957593 -0.0135125015 0.0025581557 0.07176965 -0.06892146
0.21201745 -0.10294903 -0.0005167902 0.086763605 0.054791406 0.008048266 -0.050036136 0.06356276
-0.038460247 -0.16512924 -0.01126153 0.014519744 -0.057970583 -0.010130649 0.1437375 0.023627814
0.05065077 0.052771904 0.09808746 -0.112207755 -0.009689115 -0.011643764 -0.112648636 -0.010549703
0.11527391 0.17236456 0.033015344 0.02007503 -0.03826523 0.035073426 -0.0126228025 -0.1266646
-0.029103098 0.07207989 -0.02768344 0.3158448 0.008782392 -0.14274368 -0.019039512 0.09008832
-0.0678146 -0.02532356 0.02454777 -0.08082973 0.048454337 0.042404253 0.051712584 -0.056351736
0.08540292 -0.053816985 0.085100524 -0.08482545 -0.078240156 0.0542878 0.0054300367 0.0050990656
-0.0499728 -0.038053177 -0.029239506 -0.08941931 0.0039092614 0.015632264 -7.483363e-05 0.02618635
0.08386736 0.023501053 -0.032356534 -0.04077772 -0.056958877 -0.06435383 -0.01423493 -0.015632853
0.038462393 -0.041011594 0.070463516 -0.0647524 0.00025121868 0.0755237 0.08789206 -0.051200032
0.011642732 0.01044067 -0.043942288 -0.030059304 0.023009239 -0.06251041 0.010661143 0.035526622
-0.034831207 0.073419 -0.005816877 0.036121305 0.087531544 -0.030535571 0.047233727 -0.027490364
-0.017146157 -0.018493282 -0.004047795 -0.0369997 0.019810611 0.0033305064 0.056028478 -0.021815134
0.008863598 -0.03229935 -0.077692136 0.031859487 0.011309989 -0.035398096 -0.02988454 0.019118596
-0.015982106 0.05775965 0.0033296347 0.029014489 0.035246335 -0.025885759 0.03728184 0.0652247
0.004067488 0.01377084 -0.00010981719 0.056759607 -0.03781838 -0.05013964 0.034969054 -0.0807693
0.0014170855 -0.04064901 0.058339275 -0.085759744 0.053592734 0.087447606 0.014526514 -0.005403252
0.08633739 -0.040388104 -0.007082872 -0.038705695 -0.01610583 0.018435711 0.0072923163 -0.020754157
-0.091789 0.002783851 -0.0060288752 0.009511958 0.06772759 0.082722224 -0.05447453 -0.005511403
-0.03616348 -0.08146273 -0.06856145 0.08295786 0.051535808 0.04647367 0.04580869 -0.0744449
0.0070163575 0.07916505 -0.052921534 0.077669136 0.022497036 0.061820675 -0.037864476 0.03677076
00000000: eb26 41bc 7f7f 0fbd 8d61 1c3e 0e1e 07be
00000010: f4a2 563d 1ad4 dc3d 7a97 e3bc 2af9 6f3d
00000020: 5ae6 81bd c5b2 2fbd 9629 973d 2d48 25be
00000030: 7c90 b83d d8f9 f6bd 5c4a e5bc ac46 39be
00000040: 0588 173e 6cf0 343e 4360 16bd 3fcc 713d
00000050: d8ca aa3d 6c06 9dbc 7121 823d 6b8d bbbd
00000060: 38d0 193c 77ec 063e 80fe 46bc e56a e93d
00000070: 0772 e43d 6d3a d53d 2544 ee3c a0b6 50bc
00000080: 951a 143d a64c bf3b 59f3 e0bd 2bd4 e63d
00000090: 6937 efbb d2b8 13bd 7030 7d3d 78ea c3bc
000000a0: ca6b 7a3d bc0c 71bd 8d08 d13b f8b6 5d3d
000000b0: bcc3 c5bc 66fc 0b3e 75cc ba3c ec6a d0bd
000000c0: 2a63 333d 3498 d83c a857 5e3d 52ee bbbd
000000d0: aa01 693d d1a8 7c3d a737 d9bd 58c8 0fbe
000000e0: 8e63 4e3c f61e 9cbd c768 b83c dc8a 6a3d
000000f0: 816e 3f3d d81e fc3c 79d4 09be 83cb af3d
00000100: bbef 27be 11aa 69bd b916 653d a391 953d
00000110: 6abc 2cbd 5eef 673d f0f6 37bc 5e6d 0bbc
00000120: d85b 483d ac16 a6bd d017 333e b274 b73b
00000130: 7202 9d3c 9b4e a33d 7f40 cc3d cd7e 9a3d
00000140: 4fcf 923d 6af6 5bbd 5739 9f3c e9f1 b6ba
00000150: 8a63 5dbc bba6 273b f7fb 923d b226 8dbd
00000160: 1a1b 593e f1d6 d2bd 3479 07ba 1eb1 b13d
00000170: f46c 603d e0dc 033c b1f2 4cbd 312d 823d
00000180: 7e88 1dbd a417 29be 4882 38bc 38e4 6d3c
00000190: 9072 6dbd 06fb 25bc ec2f 133e 1e8f c13c
000001a0: 2f77 4f3d 5a27 583d 14e2 c83d 2ecd e5bd
000001b0: 18bf 1ebc 7cc5 3ebc 54b4 e6bd a9d8 2cbc
000001c0: ba14 ec3d 5680 303e 193b 073d 6474 a43c
000001d0: 00bc 1cbd 27a9 0f3d dfcf 4ebc 5db4 01be
000001e0: 9f69 eebc 9f9e 933d 62c8 e2bc 69b6 a13e
000001f0: 06e4 0f3c 662b 12be c0f8 9bbc 3a80 b83d
00000200: 62e2 8abd 5b73 cfbc 6818 c93c 0f8a a5bd
00000210: 0e78 463d 15b0 2d3d 93d0 533d 14d1 66bd
00000220: bae7 ae3d 336f 5cbd 2f49 ae3d f7b8 adbd
00000230: 603c a0bd e25c 5e3d 73ee b13b 1016 a73b
00000240: 47b0 4cbd a6dd 1bbd b087 efbc 7921 b7bd
00000250: 4319 803b 3c0f 803c 00f0 9cb8 c284 d63c
00000260: a7c2 ab3d 4885 c03c 4988 04bd 8a06 27bd
00000270: b64d 69bd f1cb 83bd a039 69bc 7810 80bc
00000280: be8a 1d3d c6fb 27bd 2d4f 903d e89c 84bd
00000290: 00b6 8339 2bac 9a3d c100 b43d 20b7 51bd
000002a0: 28c1 3e3c 580f 2b3c d4fc 33bd ee3e f6bc
000002b0: df7d bc3c 7505 80bd 13ac 2e3c 5d84 113d
000002c0: 2bab 0ebd b35c 963d 809b bebb eff3 133d
000002d0: bd43 b33d bc25 fabc 2778 413d 7933 e1bc
000002e0: 1976 8cbc 397f 97bc 5ea3 84bb ff8c 17bd
000002f0: dd49 a23c a044 5a3b 1e7e 653d a7b5 b2bc
00000300: a038 113c 534c 04bd 0e1d 9fbd 187f 023d
00000310: 884d 393c 98fd 10bd 6cd0 f4bc 9a9e 9c3c
00000320: e8ec 82bc 6295 6c3d 0036 5a3b cbaf ed3c
00000330: 765e 103d 5f0e d4bc d8b4 183d 8794 853d
00000340: 9048 853b 179f 613c a84d e6b8 c37c 683d
00000350: 72e7 1abd 395f 4dbd b63b 0f3d 606a a5bd
00000360: 80bd b93a 947f 26bd 2af5 6e3d cea2 afbd
00000370: 0e84 5b3d bb17 b33d 9e00 6e3c c30d b1bb
00000380: a8d1 b03d ff6d 25bd 7017 e8bb dd89 1ebd
00000390: 60f0 83bc 7d06 973c 62f4 ee3b 9f04 aabc
000003a0: dffb bbbd 4571 363b df8d c5bb 0bd8 1b3c
000003b0: c3b4 8a3d 456a a93d af20 5fbd 0099 b4bb
000003c0: 2820 14bd efd5 a6bd f269 8cbd cfe5 a93d
000003d0: 3617 533d 2d5b 3e3d e5a1 3b3d 9176 98bd
000003e0: 79e9 e53b 4921 a23d 40c4 58bd ff10 9f3d
000003f0: b44b b83c ad37 7d3d c817 1bbd f09c 163d

net.2.bias f4 [128]
-0.017797602 0.08032851 -0.05182117 0.011680402 0.020083724 -0.08062996 0.047997337 0.061055616
0.056297116 0.05278249 0.044469394 -0.053639807 0.05377673 -0.03323378 0.024414644 -0.092402875
0.0014588274 -0.049539123 -0.05257334 -0.06584098 -0.015275687 -0.061196472 -0.05527444 -0.08813094
0.050559733 0.06141096 -0.01349742 0.04364389 0.020060152 -0.054249957 -0.015014742 0.034953263
0.0335528 -0.0045425 -0.013279453 0.055762053 -0.03132029 0.0064891214 -0.056470823 0.06716855
-0.008764113 -0.054694906 -0.07305508 -0.008131541 0.021993594 0.04799576 -0.017804787 -0.04607721
-0.08556467 -0.009865888 0.07005913 -0.08282888 -0.027474754 0.060030144 0.064617135 -0.058211215
-0.10607276 0.10901077 -0.044717904 0.014545651 -0.0907232 0.033362374 -0.010062925 -0.028997095
-0.047903158 0.05604968 -0.035325274 -0.0423972 -0.061303 0.057772283 -0.000108391614 -0.014023975
0.03704231 0.059821986 -0.07719408 0.050730824 0.06377388 0.046226162 -0.03583863 -0.06065124
0.00069799635 0.06336456 -0.091371335 -0.080177136 -0.023487415 0.03601505 -0.081600465 -0.02527157
0.025957944 -0.011411169 -0.083297394 -0.03163929 -0.04352 0.046121527 -0.08820226 0.0131939035
-0.025586559 0.054678198 -0.054506794 0.05688217 -0.0053238785 0.07098544 -0.089303926 -0.015023379
-0.034843523 0.0601021 -0.07749 0.06588616 -0.062612705 0.022434628 -0.030475385 -0.075843535
0.0056797117 -0.08051736 0.022831691 0.07692586 -0.0084335655 -0.048907544 0.055669926 0.009383872
0.0067423265 0.047456983 -0.08746213 -0.04544591 0.02486306 0.038517877 -0.042034566 -0.064658195
00000000: 47cc 91bc 4683 a43d 6f42 54bd 285f 3f3c
00000010: 9f86 a43c 5221 a5bd db98 443d 7415 7a3d
00000020: ce97 663d 7432 583d 8a25 363d 6ab5 5bbd
00000030: fd44 5c3d 2520 08bd 3801 c83c b83d bdbd
00000040: 2036 bf3a 89e9 4abd 2457 57bd a3d7 86bd
00000050: e046 7abc 27a9 7abd 7467 62bd ff7d b4bd
00000060: b917 4f3d 0f8a 7b3d 4824 5dbc f0c3 323d
00000070: 3055 a43c 3435 5ebd 6400 76bc 272b 0f3d
00000080: a96e 093d 40d9 94bb 1092 59bc c066 643d
00000090: b449 00bd b2a2 d43b f34d 67bd aa8f 893d
000000a0: 5b97 0fbc c407 60bd e79d 95bd 283a 05bc
000000b0: e92b b43c 3497 443d 58db 91bc 75bb 3cbd
000000c0: 883c afbd 89a4 21bc 297b 8f3d 30a2 a9bd
000000d0: bc12 e1bc 2be2 753d fd55 843d e26e 6ebd
000000e0: ad3c d9bd 0a41 df3d 1f2a 37bd e250 6e3c
000000f0: 16cd b9bd fca6 083d f7de 24bc 518b edbc
00000100: 1a36 44bd 5994 653d 3cb1 10bd b0a8 2dbd
00000110: db18 7bbd a1a2 6c3d 4e50 e3b8 d0c4 65bc
00000120: adb9 173d e607 753d ee17 9ebd 20cb 4f3d
00000130: e19b 823d a557 3d3d 87cb 12bd 6f6d 78bd
00000140: bef9 363a 47c5 813d e520 bbbd e933 a4bd
00000150: ae68 c0bc 8484 133d 251e a7bd 5306 cfbc
00000160: c1a5 d43c e9f5 3abc d397 aabd 3398 01bd
00000170: 0742 32bd ede9 3c3d 63a3 b4bd 3e2b 583c
00000180: e79a d1bc 3ff6 5f3d 8442 5fbd 47fd 683d
00000190: ee73 aebb d060 913d fae4 b6bd 9e24 76bc
000001a0: 15b8 0ebd 9f2d 763d 14b3 9ebd 53ef 863d
000001b0: 173b 80bd d3c8 b73c 84a7 f9bc db53 9bbd
000001c0: e01c ba3b 49e6 a4bd 8709 bb3c 4e8b 9d3d
000001d0: f02c 0abc 4753 48bd 2606 643d d0be 193c
000001e0: bcee dc3b 4162 423d 581f b3bd 7e25 3abd
000001f0: 9ead cb3c ecc4 1d3d 702c 2cbd 846b 84bd
