dqn_out/dqn_ep3700.pt (torch, 314997 bytes, 24 tensors)

net.0.weight f4 [128, 4]
0.33087185 0.35125253 -0.3291794 -0.19916345 -1.6779813 0.25898004 0.044104975 0.41875175
2.3815808 0.10109456 -0.1463553 -0.147563 1.5523022 -0.23635866 -0.09758634 0.07468191
0.6431222 0.41865018 -0.18614888 -0.072731934 2.134308 0.35509688 -0.042809274 0.36145276
1.9587743 0.060742453 0.5269671 -0.41637957 0.31933278 -0.16542318 -0.17207608 0.47776482
-1.0366349 -0.023390086 -0.34152997 -0.4049161 -0.42208928 0.5539544 0.10127296 0.17349154
2.1661017 -0.053368412 0.17710786 -0.44868848 -1.3790532 -0.37345007 0.30583438 0.27148306
0.24949113 -0.13162936 0.3269062 0.50779533 0.38062674 0.02025565 0.41145518 -0.38376266
1.9982185 -0.3627376 -0.23781434 -0.1480555 -0.18009244 0.259014 -0.32154238 0.23394583
2.357543 -0.011877462 0.07387977 0.1004666 -0.076104715 0.46198553 -0.47529122 -0.14670935
1.6017835 0.37251356 0.5202825 0.42656755 2.0495615 -0.36832172 0.13601851 -0.26477507
0.05373431 0.48867074 0.41246548 -0.41865745 0.09358603 -0.084230006 -0.082280576 -0.22887844
0.15175231 -0.3104363 0.18844047 0.23602034 -0.11813757 0.3078987 -0.42393437 -0.06401997
0.24965751 0.104650676 -0.390042 -0.28790975 0.28959194 0.3724612 -0.27464426 -0.07213641
-0.47629905 -0.008987069 -0.37652946 -0.38567835 2.209639 0.023327816 -0.14501862 0.29593545
0.9683819 0.4437333 0.6045966 -0.35844737 1.8783861 -0.055042997 0.08938409 0.09804542
1.4186082 0.11734266 -0.26242235 0.30530384 -0.47962445 -0.29635334 -0.12516493 -0.24355668
1.8657756 -0.26848572 0.03687431 0.15206912 -1.472437 0.024656177 0.3049997 -0.0581553
-0.33240405 -0.1448988 0.0757084 0.29570326 2.437932 0.2544744 0.53017414 -0.042981025
-2.0564082 0.0064784535 0.4117339 0.051164757 0.31072545 -0.5021646 -0.511206 -0.24624816
-0.078967914 0.30749777 0.31331033 -0.43974626 0.31189102 -0.39125472 -0.10570514 -0.20273632
0.3998493 -0.12200228 -0.443666 -0.37378633 -0.07823974 0.0064660907 -0.22713745 0.1883496
1.3788033 -0.028528994 0.5060293 -0.1698984 1.5371639 0.19151403 -0.4926912 0.374536
-2.3748953 -0.46432304 0.33522585 -0.15403974 1.8643861 -0.08306582 0.45308146 0.102962725
2.3432603 0.11879344 -0.07026323 -0.09675456 -2.030954 0.3252945 0.36753508 0.33241272
-0.35268915 0.022299945 -0.35246706 -0.2752421 -0.29135275 0.17087251 -0.2979566 -0.010908604
0.72416824 0.44404945 -0.3100274 -0.11939447 -1.9452028 0.38739544 -0.2470186 0.40467963
0.18080378 0.06331301 -0.003722012 -0.09884077 -1.2823132 -0.07207424 -0.072804295 0.045367565
-3.0396743 0.059020594 0.24123633 -0.47013155 -1.7809347 0.53543717 0.019796269 -0.042246282
1.3577684 0.21290523 -0.34251183 -0.14075728 0.5847531 -0.040334854 0.10951258 0.40045837
1.3153185 0.42279547 0.39184874 -0.31635344 2.3402395 -0.2954757 -0.13526748 0.17001618
0.7881716 0.44723746 -0.1711137 -0.0007948774 0.25741178 -0.48354608 0.3614903 -0.4134612
0.27413654 -0.040820844 -0.24004376 0.14885606 2.639256 -0.12947103 -0.22961083 -0.15711501
00000000: 0968 a93e 5fd7 b33e 348a a8be 81f1 4bbe
00000010: 17c8 d6bf 0899 843e 6ba7 343d a166 d63e
00000020: d26b 1840 aa0a cf3d 2ade 15be c11a 17be
00000030: d7b1 c63f 0108 72be 59db c7bd d4f2 983d
00000040: a8a3 243f 5159 d63e d09d 3ebe 7bf4 94bd
00000050: 8198 0840 42cf b53e c758 2fbd 5610 b93e
00000060: 1eb9 fa3f 14cd 783d 51e7 063f b42f d5be
00000070: 967f a33e b264 29be b634 30be 979d f43e
00000080: 74b0 84bf 919c bfbc 04dd aebe 2a51 cfbe
00000090: 161c d8be f5cf 0d3f 3368 cf3d c4a7 313e
000000a0: 69a1 0a40 d698 5abd c35b 353e 7fba e5be
000000b0: d184 b0bf d934 bfbe 5396 9c3e d4ff 8a3e
000000c0: 9a7a 7f3e d9c9 06be 4060 a73e e0fe 013f
000000d0: 82e1 c23e 2def a53c 41aa d23e 8a7c c4be
000000e0: a0c5 ff3f beb8 b9be 9a85 73be dc9b 17be
000000f0: 276a 38be 7c9d 843e 34a1 a4be 7f8f 6f3e
00000100: fce1 1640 b099 42bc 474e 973d 6fc1 cd3d
00000110: cadc 9bbd 5e89 ec3e 5f59 f3be fa3a 16be
00000120: 3e07 cd3f 19ba be3e 3c31 053f 1067 da3e
00000130: 042c 0340 aa94 bcbe 7048 0b3e 9990 87be
00000140: 8218 5c3d 0d33 fa3e ad2e d33e 455a d6be
00000150: 08aa bf3d c880 acbd b882 a8bd 1c5f 6abe
00000160: f564 1b3e 82f1 9ebe 8af6 403e 51af 713e
00000170: 1cf2 f1bd e6a4 9d3e ed0d d9be e71c 83bd
00000180: 38a6 7f3e 1853 d63d 96b3 c7be e868 93be
00000190: 6545 943e 3cb3 be3e 2c9e 8cbe 41bc 93bd
000001a0: 78dd f3be 803e 13bc 78c8 c0be a277 c5be
000001b0: ba6a 0d40 fa19 bf3c c37f 14be da84 973e
000001c0: e0e7 773f 0331 e33e d8c6 1a3f 6a86 b7be
000001d0: f56e f03f c474 61bd 010f b73d 0acc c83d
000001e0: f494 b53f 5951 f03d 395c 86be c950 9c3e
000001f0: 5691 f5be a0bb 97be 3c2b 00be ec66 79be
00000200: bcd1 ee3f f676 89be 8409 173d 02b8 1b3e
00000210: d178 bcbf c0fb c93c ec28 9c3e 4034 6ebd
00000220: dd30 aabe 5a60 14be 010d 9b3d 6b66 973e
00000230: 1407 1c40 784a 823e 7eb9 073f df0c 30bd
00000240: 319c 03c0 3549 d43b c9ce d23e 2392 513d
00000250: 6817 9f3e dc8d 00bf 65de 02bf 7a28 7cbe
00000260: eeb9 a1bd 5970 9d3e 366a a03e 6c26 e1be
00000270: 2eb0 9f3e 8a52 c8be f07b d8bd 1c9a 4fbe
00000280: 0cb9 cc3e 55dc f9bd 3128 e3be ec60 bfbe
00000290: 283c a0bd 80e1 d33b b896 68be b8de 403e
000002a0: a07c b03f a3b5 e9bc 238b 013f d9f9 2dbe
000002b0: c9c1 c43f 411c 443e 0542 fcbe 2fc3 bf3e
000002c0: 49fe 17c0 c0bb edbe b9a2 ab3e 98bc 1dbe
000002d0: 34a4 ee3f 6a1e aabd 4bfa e73e 1fde d23d
000002e0: faf7 1540 fa49 f33d 2be6 8fbd 4127 c6bd
000002f0: 26fb 01c0 008d a63e 8f2d bc3e 0032 aa3e
00000300: ac93 b4be 60ae b63c 9076 b4be 88ec 8cbe
00000310: 302c 95be 34f9 2e3e c48d 98be 00ba 32bc
00000320: 1763 393f 735a e33e e9bb 9ebe 1685 f4bd
00000330: 68fc f8bf b258 c63e 72f2 7cbe 2b32 cf3e
00000340: a024 393e 40aa 813d 00ed 73bb 086d cabd
00000350: d722 a4bf a99b 93bd 6b1a 95bd 57d3 393d
00000360: 068a 42c0 94bf 713d a806 773e 15b5 f0be
00000370: abf5 e3bf 6912 093f c92b a23c 700a 2dbd
00000380: 5bcb ad3f d403 5a3e b65d afbe ad22 10be
00000390: 61b2 153f 2936 25bd 2248 e03d e108 cd3e
000003a0: 5b5c a83f a678 d83e 66a0 c83e 14f9 a1be
000003b0: 7cc6 1540 9748 97be 8f83 0abe b918 2e3e
000003c0: 9dc5 493f 4ffc e43e 6e38 2fbe 525f 50ba
000003d0: 7acb 833e 5a93 f7be 4215 b93e 30b1 d3be
000003e0: a05b 8c3e c233 27bd 08ce 75be b96d 183e
000003f0: 92e9 2840 0e94 04be 1a1f 6bbe c2e2 20be

net.0.bias f4 [128]
-0.10526436 -0.037043188 0.1031753 0.22138344 -0.16233404 0.013064933 0.3049256 -0.09103367
0.24040824 -0.13814642 0.21484497 -0.3791848 -0.38427237 -0.19796604 0.5277462 -0.113549836
-0.053120345 -0.28032333 0.57674927 0.5354192 -0.385937 -0.40533495 -0.39587438 0.23047389
-0.12745196 -0.2993541 -0.17933607 0.06945711 -0.22585054 0.027550604 0.016975002 -0.24228168
0.13343023 0.46961838 -0.360257 -0.025697952 0.085005775 0.5745015 -0.44096732 -0.4793306
0.6129848 -0.31634498 0.08500244 0.07083395 -0.058534715 -0.20932186 0.2968262 0.09806746
-0.4868073 -0.29518008 -0.017321186 0.29684624 -0.32356685 0.5322666 0.014201888 -0.04727919
0.45883694 0.37895846 0.501908 0.29893458 -0.16936533 -0.3317362 -0.029511062 0.41628602
-0.09902124 -0.42629027 0.1967309 0.5444531 -0.14234161 -0.41401178 -0.45352983 0.06895801
0.067675896 -0.25249362 -0.022216331 0.14024994 0.41270193 0.37845126 -0.059314933 -0.44088358
-0.45181155 0.52366894 0.2724276 0.1775724 -0.48995325 0.5348111 0.5647142 0.5890217
-0.43578288 -0.12341586 -0.24871056 0.50699353 -0.18934773 -0.22827727 0.24000682 -0.14433964
-0.22858518 -0.037157614 -0.04830481 -0.33550856 0.37736538 -0.3263981 0.17879325 0.42689228
0.2172851 0.053506505 0.39887387 0.17742088 -0.23132831 0.52239686 0.1667377 -0.42507347
-0.22323693 -0.22658959 0.4726136 -0.08257294 -0.45576245 0.07167404 0.27423546 0.13905504
0.25498155 0.02572412 0.16652474 -0.08453469 -0.13886003 -0.45900583 -0.37666845 0.18485907
00000000: d794 d7bd 99ba 17bd 924d d33d 57b2 623e
00000010: e53a 26be 4d0e 563c 351f 9c3e dc6f babd
00000020: 942d 763e 4176 0dbe 5200 5c3e 8324 c2be
00000030: 59bf c4be 9cb7 4abe 601a 073f d18c e8bd
00000040: b894 59bd 8a86 8fbe d7a5 133f 3c11 093f
00000050: 8999 c5be 1088 cfbe 0cb0 cabe 5901 6c3e
00000060: c482 02be f144 99be e0a3 37be 873f 8e3d
00000070: 5d45 67be ceb1 e13c 290f 8b3c b018 78be
00000080: efa1 083e d271 f03e 9b73 b8be 8384 d2bc
00000090: 8217 ae3d 8812 133f 78c6 e1be d26a f5be
000000a0: 92ec 1c3f f8f7 a1be c215 ae3d 6411 913d
000000b0: 19c2 6fbd 7858 56be 9bf9 973e 98d7 c83d
000000c0: ce3e f9be d821 97be 29e5 8dbc 3bfc 973e
000000d0: 8eaa a5be a042 083f 09af 683c d3a7 41bd
000000e0: adec ea3e d806 c23e 0b7d 003f f40d 993e
000000f0: 1b6e 2dbe 54d9 a9be 2fc1 f1bc 7123 d53e
00000100: a6cb cabd b842 dabe d373 493e 4761 0b3f
00000110: 00c2 11be 5af9 d3be 1035 e8be db39 8d3d
00000120: a999 8a3d d846 81be 06ff b5bc ae9d 0f3e
00000130: ab4d d33e 5dc4 c13e 37f4 72bd 7ebb e1be
00000140: d853 e7be 2b0f 063f a17b 8b3e 8ad5 353e
00000150: 27db fabe 61e9 083f 1c91 103f 20ca 163f
00000160: ef1e dfbe 74c1 fcbd fbad 7ebe 54ca 013f
00000170: 5fe4 41be 84c1 69be 59c4 753e c5cd 13be
00000180: 3c12 6abe 9532 18bd 44db 45bd c7c7 abbe
00000190: 0936 c13e a71d a7be 9415 373e a091 da3e
000001a0: fc7f 5e3e a329 5b3d 3239 cc3e d2ad 353e
000001b0: 54e1 6cbe cdbb 053f 4abd 2a3e 3ba3 d9be
000001c0: 3998 64be 1a07 68be 69fa f13e 001c a9bd
000001d0: b259 e9be d7c9 923d 9768 8c3e 7264 0e3e
000001e0: f18c 823e 64bb d23c 7685 2a3e 8620 adbd
000001f0: 5331 0ebe d002 ebbe b0da c0be b24b 3d3e

net.2.weight f4 [128, 128]
0.044278454 -0.03405158 0.323489 0.12890181 0.0783633 0.15785858 0.036005445 0.0961142
-0.14010991 -0.08085098 0.23391177 -0.22513919 0.16091791 -0.32092935 0.0045576147 -0.15070105
0.31764635 0.12309876 -9.051682e-05 0.11221865 0.09238946 -0.019168101 0.11979216 -0.09675527
0.009388022 0.14196444 -0.0121456385 0.17126255 0.1863312 0.20145577 0.030291969 -0.012738854
0.1416976 0.045081016 -0.050491787 0.19114986 -0.12435936 0.022175128 0.0035746421 -0.023915514
0.11321399 -0.058850035 0.08888733 0.14327674 -0.30387852 0.24892434 0.076663435 -0.084421195
0.043795742 0.026439764 0.12866941 -0.09302031 0.056886353 0.092940904 -0.18395549 -0.15565151
0.106216446 -0.022801543 0.07381792 0.11732489 0.11690378 0.030776426 -0.24779738 0.14402713
-0.24014759 0.10342038 0.13181892 0.07572149 -0.042171873 0.056624763 -0.011228308 0.048145864
0.13677227 -0.08109793 0.31554025 0.07094352 0.074910454 0.13428974 0.15939845 0.075437166
0.07168447 -0.012673835 0.22425072 0.045445353 0.040803496 0.030744607 0.11065337 -0.03364076
-0.29710832 -0.18171334 -0.16804399 0.1338546 0.20868428 0.008048266 -0.007700335 0.06961845
0.062320706 0.13639717 -0.17096388 0.05124874 -0.023004806 0.17398424 0.20312175 0.080226846
0.09335718 0.13564447 0.18149406 -0.13288452 -0.009689115 0.048800312 -0.17230627 -0.23105583
0.27357632 0.14036253 0.06975958 0.02007503 -0.03826523 0.029711 0.112068504 -0.021482758
-0.027207099 0.1097988 0.05841186 0.33905265 0.023826055 -0.18486276 -0.019039512 0.12690033
-0.07145126 -0.02960118 0.023526253 -0.08232388 0.048454337 0.04133329 0.048032098 -0.056351736
0.08563683 -0.05749199 0.08224709 -0.08482545 -0.07875136 0.0542878 0.0030876382 0.0018522226
-0.05020945 -0.038043518 -0.032902177 -0.09268942 0.003617609 0.015632264 -7.483363e-05 0.02485749
0.08386736 0.023501053 -0.032356534 -0.041039836 -0.060770273 -0.066916876 -0.01423493 -0.015632853
0.037559148 -0.04461956 0.070463516 -0.06849379 -0.00075216644 0.07357427 0.08789206 -0.051200032
0.009523542 0.01044067 -0.04786023 -0.03420076 0.021788586 -0.063611135 0.008154071 0.03184336
-0.034831207 0.073419 -0.0094898855 0.033963207 0.087531544 -0.033674564 0.04587771 -0.030433074
-0.01917197 -0.02132526 -0.0074614016 -0.039139345 0.016480278 0.0033305064 0.056028478 -0.02410556
0.008863598 -0.03372386 -0.07968566 0.029202856 0.011309989 -0.035398096 -0.02988454 0.017999696
-0.015982106 0.05775965 0.002385316 0.028025527 0.03194475 -0.02771338 0.036702257 0.0652247
0.004067488 0.0103073185 -0.00023781892 0.055738527 -0.038394153 -0.05388961 0.031546295 -0.08360302
0.0014170855 -0.044246785 0.058339275 -0.08929852 0.053592734 0.087447606 0.011046604 -0.005889021
0.08249892 -0.04259108 -0.007082872 -0.038705695 -0.018722787 0.01881474 0.006362436 -0.022967644
-0.09478382 0.002604225 -0.008928726 0.009233105 0.06772759 0.079198025 -0.057523802 -0.005511403
-0.03683697 -0.08146273 -0.07071045 0.08295786 0.051535808 0.042007316 0.042632196 -0.07480834
0.0068980735 0.07587703 -0.054899547 0.0763446 0.021565955 0.061216928 -0.037864476 0.034619052
00000000: 535d 353d ab79 0bbd 5aa0 a53e d6fe 033e
00000010: f07c a03d aea5 213e 727a 133d 86d7 c43d
00000020: f978 0fbe 3395 a5bd 9186 6f3e e38a 66be
00000030: aac7 243e da50 a4be 0b58 953b 6051 1abe
00000040: 8ba2 a23e 341b fc3d d9d3 bdb8 e4d2 e53d
00000050: af36 bd3d 6c06 9dbc 9855 f53d a127 c6bd
00000060: 38d0 193c 205f 113e 80fe 46bc 735f 2f3e
00000070: 9bcd 3e3e 6c4a 4e3e dd26 f83c a0b6 50bc
00000080: 2d19 113e dfa6 383d 7ad0 4ebd cabc 433e
00000090: 1fb0 febd 9da8 b53c 8b44 6a3b 78ea c3bc
000000a0: bddc e73d bc0c 71bd 8f0a b63d 23b7 123e
000000b0: f795 9bbe 06e6 7e3e b801 9d3d 05e5 acbd
000000c0: 2a63 333d 3498 d83c eac1 033e 6f81 bebd
000000d0: aa01 693d cd57 be3d d45e 3cbe 1c63 1fbe
000000e0: 0288 d93d 4dca babc da2d 973d 0848 f03d
000000f0: 406b ef3d d81e fc3c 99be 7dbe d97b 133e
00000100: 40e9 75be 10ce d33d 8afb 063e de13 9b3d
00000110: 6abc 2cbd 5eef 673d f0f6 37bc 9934 453d
00000120: 080e 0c3e ac16 a6bd 7e8e a13e d64a 913d
00000130: a76a 993d 4083 093e 5939 233e cd7e 9a3d
00000140: 4fcf 923d eba5 4fbc fba1 653e e824 3a3d
00000150: 9121 273d 1ddc fb3c 3c9e e23d e5ca 09bd
00000160: 951e 98be 1013 3abe b913 2cbe 2e11 093e
00000170: 55b1 553e e0dc 033c 1753 fcbb 1e94 8e3d
00000180: ff43 7f3d b3ab 0b3e 2811 2fbe 33ea 513d
00000190: 9374 bcbc ed28 323e 26ff 4f3e f94d a43d
000001a0: 0d32 bf3d 62e6 0a3e 94d9 393e e112 08be
000001b0: 18bf 1ebc d6e2 473d 0e71 30be e699 6cbe
000001c0: 3212 8c3e 32bb 0f3e 1cde 8e3d 6474 a43c
000001d0: 00bc 1cbd 7c64 f33c 2c84 e53d 9cfc afbc
000001e0: 6ce1 debc 31de e03d 4641 6f3d 4f98 ad3e
000001f0: dc2e c33c aa4c 3dbe c0f8 9bbc 29f2 013e
00000200: 0a55 92bd 2d7e f2bc 21ba c03c 6c99 a8bd
00000210: 0e78 463d 194d 293d 4ebd 443d 14d1 66bd
00000220: 5d62 af3d b97c 6bbd 2a71 a83d f7b8 adbd
00000230: 6548 a1bd e25c 5e3d f959 4a3b 47c6 f23a
00000240: 6da8 4dbd 85d3 1bbd 6fc4 06bd f3d3 bdbd
00000250: 6815 6d3b 3c0f 803c 00f0 9cb8 efa1 cb3c
00000260: a7c2 ab3d 4885 c03c 4988 04bd 6319 28bd
00000270: 40ea 78bd b70b 89bd a039 69bc 7810 80bc
00000280: 9fd7 193d 00c3 36bd 2d4f 903d 7946 8cbd
00000290: 092d 45ba 1bae 963d c100 b43d 20b7 51bd
000002a0: a108 1c3c 580f 2b3c 1709 44bd 1916 0cbd
000002b0: fa7d b23c 8e46 82bd a798 053c 2f6e 023d
000002c0: 2bab 0ebd b35c 963d 777b 1bbc 011d 0b3d
000002d0: bd43 b33d 57ee 09bd 44ea 3b3d c84e f9bc
000002e0: 890e 9dbc 50b2 aebc c67e f4bb 9450 20bd
000002f0: a601 873c a044 5a3b 1e7e 653d 0679 c5bc
00000300: a038 113c 0822 0abd 3c32 a3bd d43a ef3c
00000310: 884d 393c 98fd 10bd 6cd0 f4bc 1974 933c
00000320: e8ec 82bc 6295 6c3d f652 1c3b ca95 e53c
00000330: 80d8 023d 2c07 e3bc 1b55 163d 8794 853d
00000340: 9048 853b 07e0 283c 085f 79b9 154e 643d
00000350: 3043 1dbd 5abb 5cbd b036 013d 0f38 abbd
00000360: 80bd b93a 1e3c 35bd 2af5 6e3d 24e2 b6bd
00000370: 0e84 5b3d bb17 b33d d1fc 343c b0f8 c0bb
00000380: 32f5 a83d fc73 2ebd 7017 e8bb dd89 1ebd
00000390: 8860 99bc 5f21 9a3c fb7b d03b a426 bcbc
000003a0: 051e c2bd a5ab 2a3b cb49 12bc 7346 173c
000003b0: c3b4 8a3d 9332 a23d 149e 6bbd 0099 b4bb
000003c0: 5de2 16bd efd5 a6bd a4d0 90bd cfe5 a93d
000003d0: 3617 533d dd0f 2c3d 199f 2e3d 1d35 99bd
000003e0: 3c09 e23b 6b65 9b3d 59de 60bd 8f5a 9c3d
000003f0: 16ab b03c 9abe 7a3d c817 1bbd b5cc 0d3d

net.2.bias f4 [128]
0.007883387 0.07684395 -0.022586616 0.011680402 0.019091874 -0.052347954 0.075444244 0.09639667
0.07173768 0.0723653 0.08708614 -0.053639807 0.071946524 -0.03323378 0.02128497 -0.072812594
0.14663176 -0.055784956 -0.036283493 -0.06584098 -0.014908098 -0.04426237 -0.05527444 -0.08417861
0.07920434 0.09197417 -0.01349742 0.0779501 0.020060152 -0.03199492 -0.015640786 0.03496942
0.1576235 -0.0045425 -0.014129915 0.09810889 -0.07407893 0.036586996 -0.056470823 0.1999192
0.09235963 -0.055071168 -0.06541855 -0.008131541 0.0068387156 0.07969472 -0.017804787 -0.04607721
-0.08556467 -0.010146704 0.09665757 -0.06116163 -0.0141123645 0.06743937 0.21572831 -0.058211215
-0.08159078 0.21735603 -0.036177006 0.013284233 -0.09402388 0.066817135 0.018568508 -0.018132683
-0.047934487 0.14540131 -0.035325274 -0.011313177 -0.034453038 0.06123285 0.036725286 -0.014023975
0.005326236 0.059821986 -0.04345248 0.07527952 0.20202924 0.07979437 -0.019147245 -0.055432748
-0.043855917 0.0794948 -0.05368723 -0.061372638 -0.024579884 0.03396768 0.046113852 0.0031157758
0.13840143 0.108025655 -0.064210534 -0.03163929 -0.012913432 0.15933065 -0.08820226 0.011483172
-0.030041838 0.051265623 -0.0036682195 0.18413861 0.014986625 0.022704428 -0.09181628 -0.020017376
-0.060394198 0.16756907 -0.035132177 0.06588616 -0.0712607 0.05880562 -0.001587894 -0.075843535
0.0056797117 -0.060805034 0.020654177 0.07392049 0.043890927 -0.030316053 0.057278883 0.03855196
0.042524185 0.08552675 -0.08799275 -0.04665602 0.049980164 0.13058579 -0.012674234 -0.064658195
00000000: 5229 013c 5c60 9d3d 9107 b9bc 285f 3f3c
00000010: 9066 9c3c cf6a 56bd 8382 9a3d 9e6b c53d
00000020: 34eb 923d 4234 943d 385a b23d 6ab5 5bbd
00000030: b358 933d 2520 08bd d15d ae3c c51e 95bd
00000040: a326 163e c47e 64bd 009e 14bd a3d7 86bd
00000050: 1841 74bc 754c 35bd 7467 62bd d665 acbd
00000060: e335 a23d f45c bc3d 4824 5dbc 4da4 9f3d
00000070: 3055 a43c 1b0d 03bd 1b21 80bc 183c 0f3d
00000080: 0e68 213e 40d9 94bb 2981 67bc 50ed c83d
00000090: b2b6 97bd 3fdc 153d f34d 67bd 9eb7 4c3e
000000a0: 0c27 bd3d 4e92 61bd 29fa 85bd 283a 05bc
000000b0: 4e17 e03b fc36 a33d 58db 91bc 75bb 3cbd
000000c0: 883c afbd 5c3e 26bc 67f4 c53d 9e84 7abd
000000d0: 8c37 67bc a71d 8a3d e2e7 5c3e e26e 6ebd
000000e0: 1119 a7bd 9492 5e3e 572e 14bd 1da6 593c
000000f0: 988f c0bd 6cd7 883d fc1c 983c fe8a 94bc
00000100: f456 44bd 15e4 143e 3cb1 10bd e75a 39bc
00000110: a11e 0dbd 4ccf 7a3d 416d 163d d0c4 65bc
00000120: b587 ae3b e607 753d 3afb 31bd 262c 9a3d
00000130: c1e0 4e3e 3b6b a33d afda 9cbc 730d 63bd
00000140: 43a2 33bd 2bce a23d 24e7 5bbd e061 7bbd
00000150: c15b c9bc b221 0b3d e1e1 3c3d 0b32 4c3b
00000160: 1bb9 0d3e 8e3c dd3d d080 83bd 3398 01bd
00000170: dc92 53bc 9327 233e 63a3 b4bd ea23 3c3c
00000180: 4d1a f6bc e7fb 513d 8366 70bb d58e 3c3e
00000190: 768a 753c a3fe b93c 2c0a bcbd 7bfb a3bc
000001a0: e85f 77bd 3a97 2b3e c2e6 0fbd 53ef 863d
000001b0: 21f1 91bd 29de 703d e220 d0ba db53 9bbd
000001c0: e01c ba3b b30e 79bd f332 a93c a063 973d
000001d0: f9c6 333d 5f59 f8bc 439d 6a3d a9e8 1d3d
000001e0: d72d 2e3d a628 af3d 8b35 b4bd 621a 3fbd
000001f0: 00b8 4c3d 48b8 053e 97a7 4fbc 846b 84bd

net.4.weight f4 [15, 128]
0.18571891 -0.024905885 0.1013409 0.04995311 -0.0012142435 0.036053043 0.032228656 0.098239124
0.09584314 0.15783103 0.15217605 0.08733884 0.13153517 0.042814605 0.076938726 0.15298478
-0.30589217 -0.023047445 0.24010187 0.0474462 -0.0683466 0.14469941 0.015837617 -0.025127426
0.0613427 0.0652148 0.019990407 0.08377908 0.02131968 0.26223373 -0.0052797874 0.07263386
-0.45861468 -0.009969503 0.048759017 0.10663443 0.039999638 0.16833426 -0.08493188 -0.4622692
-0.4506245 0.07606121 0.23344122 0.059883736 0.19659123 0.071026295 0.08291232 0.0074950606
0.019907333 -0.019339431 0.05821958 0.13116646 0.11888654 0.05531654 -0.3959916 -0.041954026
0.081775226 -0.45619938 0.15718105 0.023330988 -0.0071154013 0.06975263 0.14384422 0.14166695
-0.028873276 -0.28817043 0.03764432 0.14672963 0.01365131 -0.007339221 0.040073056 -0.06917408
0.014994486 -0.051939595 0.14943564 0.044220172 -0.3305032 0.13224499 0.16571146 0.01455763
0.20107344 0.049407545 0.19265248 0.17780893 0.06707079 -0.043434802 -0.24567665 0.19813697
-0.34928927 -0.35510623 0.15090531 -0.051724773 0.039342523 -0.34957716 -0.07690057 -0.049702436
0.02616418 -0.0053977952 -0.13635093 -0.24557136 0.15779996 -0.012205622 0.031127246 -0.017212715
0.047778852 -0.43947715 0.17495275 0.058007248 0.0878037 0.14862679 0.1649463 0.04870724
0.08575753 0.17907298 -0.058621485 0.048984773 0.049100485 0.1614503 0.13499083 0.36514723
0.012509926 0.096605785 0.016692368 0.024331331 0.066997945 -0.44759288 0.055209503 0.08780279
0.097707346 -0.016077582 0.14963475 -0.046930134 -0.08094204 0.013599054 0.09102163 0.114816435
0.11559413 0.05559359 0.11696207 0.0039674714 0.13740307 -0.053179923 0.06512756 0.20039956
-0.3502434 -0.07367793 0.21072316 -0.048858143 -0.015751923 0.015364757 0.020282403 0.08634401
0.1472441 0.031011049 -0.008825332 0.060316328 -0.038608987 0.22040468 0.023738388 -0.0358184
-0.46842805 0.011816405 0.07926016 0.056732427 0.08855157 0.042993 0.07424276 -0.41637605
-0.30273664 0.011940099 0.19706017 -0.07427094 0.14944449 0.09419342 -0.014217831 0.057652824
-0.033040285 -0.035162218 0.015581047 0.16998632 0.16050397 0.018894894 -0.41117358 0.033549502
0.116864815 -0.2945482 0.17031915 0.08608251 0.076477505 0.0053489557 0.14498769 0.19321404
-0.08634037 -0.26032707 -0.04755336 0.12340371 0.16064483 -0.015592625 0.1627047 0.021050498
0.005339656 0.03409701 0.04044598 0.045295008 -0.4306538 0.16358905 0.10287052 0.06925047
0.19947474 0.0508616 0.27563813 0.13229983 0.04858727 -0.015379733 -0.3218618 0.12761103
-0.29959956 -0.37925905 0.08895927 -0.016195014 0.104786575 -0.36274967 0.0078183785 -0.028740779
-0.024888044 -0.051579952 -0.15312675 -0.45104238 0.04142439 0.00824006 -0.03528256 0.008375595
0.08565863 -0.42032588 0.14473858 -0.07153642 0.081668876 0.28313908 0.05296407 0.0754438
0.07930782 0.20754611 -0.045047287 0.09410298 0.07524676 0.18155646 0.071888775 0.41097042
0.09577535 0.12988766 -0.03372649 -0.02901623 0.15519166 -0.3692743 0.16288267 -0.038896725
00000000: 192d 3e3e 6d07 ccbc d18b cf3d a29b 4c3d
00000010: 4027 9fba 5bac 133d 3202 043d 9831 c93d
00000020: 6849 c43d 759e 213e 0ad4 1b3e b5de b23d
00000030: 28b1 063e 5e5e 2f3d 0d92 9d3d 0ba8 1c3e
00000040: e69d 9cbe ffcd bcbc 44dd 753e f256 423d
00000050: 4df9 8bbd 152c 143e e4bd 813c 08d8 cdbc
00000060: 7c42 7b3d 568f 853d ecc2 a33c 5e94 ab3d
00000070: 9ca6 ae3c 8043 863e 1102 adbb 10c1 943d
00000080: 8bcf eabe 2057 23bc 89b7 473d 2763 da3d
00000090: a9d6 233d d15f 2c3e c4f0 adbd 8cae ecbe
000000a0: 41b8 e6be fbc5 9b3d 370b 6f3e a648 753d
000000b0: 364f 493e 3c76 913d efcd a93d 2099 f53b
000000c0: b414 a33c ba6d 9ebc a877 6e3d 8050 063e
000000d0: c97a f33d 9993 623d 69bf cabe fcd7 2bbd
000000e0: c579 a73d f792 e9be 12f4 203e a120 bf3c
000000f0: 5028 e9bb 78da 8e3d e64b 133e 2411 113e
00000100: a687 ecbc 138b 93be ee30 1a3d 4b40 163e
00000110: bea9 5f3c d97d f0bb a523 243d 24ab 8dbd
00000120: 6fab 753c 9dbe 54bd a805 193e 3620 353d
00000130: b737 a9be 3b6b 073e 44b0 293e 2083 6e3c
00000140: 32e6 4d3e 915f 4a3d b146 453e 8b13 363e
00000150: 695c 893d b1e8 31bd a992 7bbe 6be4 4a3e
00000160: 0bd6 b2be 7cd0 b5be ec86 1a3e 5bdd 53bd
00000170: a025 213d c7fb b2be 0c7e 9dbd c894 4bbd
00000180: 4356 d63c fddf b0bb 949f 0bbe 0f77 7bbe
00000190: 5096 213e 17fa 47bc 91fe fe3c ae01 8dbc
000001a0: c2b3 433d 2603 e1be d026 333e 0299 6d3d
000001b0: 6dd2 b33d 9f31 183e afe7 283e 3e81 473d
000001c0: a5a1 af3d e85e 373e 151d 70bd 42a4 483d
000001d0: 971d 493d 3a53 253e 093b 0a3e 94f4 ba3e
000001e0: 6ff6 4c3c 41d9 c53d 6fbe 883c 8052 c73c
000001f0: 3836 893d e52a e5be 5c23 623d f3d1 b33d
00000200: ca1a c83d 22b5 83bc da39 193e d039 40bd
00000210: f1c4 a5bd 91ce 5e3c 8c69 ba3d e124 eb3d
00000220: 9dbc ec3d 1bb6 633d cf89 ef3d 9001 823b
00000230: 64b3 0c3e 31d3 59bd 9961 853d 8b35 4d3e
00000240: 1a53 b3be 74e4 96bd d0c7 573e 7a1f 48bd
00000250: 2d0a 81bc 76bc 7b3c 4827 a63c 21d5 b03d
00000260: 28c7 163e e20a fe3c 2098 10bc 410e 773d
00000270: 7524 1ebd c4b1 613e 0277 c23c 51b6 12bd
00000280: cdd5 efbe 9899 413c 2753 a23d 4360 683d
00000290: 875a b53d 6e19 303d 970c 983d 3e2f d5be
000002a0: 4c00 9bbe 68a0 433c 24ca 493e 5d1b 98bd
000002b0: fa07 193e 7be8 c03d e8f1 68bc 5e25 6c3d
000002c0: 4055 07bd 4206 10bd a647 7f3c e510 2e3e
000002d0: 275b 243e 77c9 9a3c 5885 d2be 346b 093d
000002e0: d256 ef3d 06cf 96be 2568 2e3e 074c b03d
000002f0: 3da0 9c3d 4b46 af3b a777 143e e7d9 453e
00000300: 38d3 b0bd 9749 85be 50c7 42bd 16bb fc3d
00000310: 1480 243e 3678 7fbc 109c 263e 1872 ac3c
00000320: 48f8 ae3b 4ea9 0b3d afaa 253d 4287 393d
00000330: a87e dcbe e383 273e c7ad d23d 31d3 8d3d
00000340: 1b43 4c3e 4154 503d 7120 8d3e 9b79 073e
00000350: 7203 473d 47fb 7bbc 12cb a4be 77ac 023e
00000360: 1d65 99be 3e2e c2be 4730 b63d 68ab 84bc
00000370: 589a d63d 53ba b9be a818 003c c871 ebbc
00000380: 03e2 cbbc 8045 53bd 42cd 1cbe 07ef e6be
00000390: 9fac 293d 5101 073c 7284 10bd cb39 093c
000003a0: cb6d af3d f434 d7be 5a36 143e b081 92bd
000003b0: 0342 a73d 9bf7 903e daf0 583d 4782 9a3d
000003c0: 236c a23d f886 543e 8183 38bd 10b9 c03d
000003d0: f91a 9a3d f0e9 393e 6c3a 933d b76a d23e
000003e0: de25 c43d 4501 053e ca24 0abd 72b3 edbc
000003f0: 90ea 1e3e 8511 bdbe b7ca 263e 2c52 1fbd

net.4.bias f4 [15]
0.06978312 0.10149671 -0.023610128 -0.039803263 -0.031235976 0.07131345 -0.03321069 0.041437272
-0.017995615 0.050762072 -0.019124128 -0.03122907 0.065679945 0.06292219 -0.029335907
00000000: 74ea 8e3d 82dd cf3d 076a c1bc bf08 23bd
00000010: 97e2 ffbc c90c 923d ef07 08bd 21ba 293d
00000020: 8a6b 93bc e4eb 4f3d 34aa 9cbc 1bd4 ffbc
00000030: 3583 863d 59dd 803d db51 f0bc

net.0.weight f4 [128, 4]
0.33156887 0.35109437 -0.32989633 -0.19819033 -1.6777874 0.2595318 0.044597592 0.41896242
2.3820992 0.100583896 -0.14644195 -0.14711162 1.5532217 -0.2359418 -0.09738774 0.07483952
0.6439586 0.4186447 -0.18617842 -0.07228065 2.1351144 0.35478967 -0.04286486 0.361425
1.9596915 0.06025824 0.5268856 -0.41646641 0.3199319 -0.16508153 -0.17263779 0.47740233
-1.0375817 -0.023385493 -0.34250632 -0.40570793 -0.42252395 0.5541169 0.1018124 0.17380625
2.167125 -0.054105587 0.17743029 -0.44771424 -1.3808061 -0.3744293 0.3048739 0.2706486
0.2503646 -0.13023637 0.32733545 0.50800437 0.3787952 0.020501358 0.41084775 -0.38464078
1.9990283 -0.36272302 -0.23747739 -0.14766984 -0.18050665 0.25926957 -0.32079238 0.23414157
2.3585362 -0.011222291 0.07420166 0.10053896 -0.07482856 0.46273163 -0.47451577 -0.14762086
1.6026937 0.3726964 0.5204219 0.4274318 2.0504315 -0.36872384 0.1361332 -0.2646444
0.054900866 0.4890672 0.41348398 -0.4176547 0.09358603 -0.084230006 -0.082280576 -0.22887844
0.15175231 -0.3104363 0.18844047 0.23602034 -0.118597 0.3082638 -0.42373005 -0.06413986
0.24965751 0.104650676 -0.390042 -0.28790975 0.29052958 0.3725872 -0.2743926 -0.072521284
-0.47629905 -0.008987069 -0.37652946 -0.38567835 2.2104664 0.023020264 -0.14506292 0.29587498
0.9694017 0.44311482 0.60467494 -0.3584194 1.8792418 -0.05515442 0.08932738 0.097961746
1.4198627 0.11706561 -0.26200745 0.3051784 -0.47962445 -0.29635334 -0.12516493 -0.24355668
1.866863 -0.2678617 0.03710417 0.15214917 -1.472672 0.02516654 0.30516395 -0.05777449
-0.33240405 -0.1448988 0.0757084 0.29570326 2.4389179 0.25413984 0.53011614 -0.04294942
-2.0572305 0.007007779 0.4117713 0.051273186 0.31057817 -0.5015122 -0.5110631 -0.24571723
-0.078377 0.3082586 0.3139633 -0.4391609 0.31189102 -0.39125472 -0.10570514 -0.20273632
0.40027118 -0.12113029 -0.4432731 -0.37302044 -0.07823974 0.0064660907 -0.22713745 0.1883496
1.3798139 -0.029407145 0.50590676 -0.17011423 1.538697 0.19113283 -0.4923574 0.3743701
-2.3741891 -0.4630767 0.3353127 -0.15462908 1.8647916 -0.083674684 0.45298257 0.102750994
2.3441398 0.11860563 -0.07022093 -0.096675225 -2.0314484 0.3257458 0.3676232 0.33267197
-0.35268915 0.022299945 -0.35246706 -0.2752421 -0.29135275 0.17087251 -0.2979566 -0.010908604
0.72266567 0.4437401 -0.31002834 -0.12011654 -1.9459157 0.3878393 -0.24688052 0.40486512
0.18080378 0.06331301 -0.003722012 -0.09884077 -1.2826843 -0.07156113 -0.072597 0.045733746
-3.0380046 0.06018865 0.24168913 -0.47045645 -1.78139 0.5355322 0.020284675 -0.04256308
1.3584268 0.21342169 -0.34205925 -0.13996726 0.5855045 -0.040157344 0.109590955 0.40115845
1.3161267 0.42295057 0.39197707 -0.31563914 2.3410704 -0.29573497 -0.1352507 0.17011623
0.78894895 0.44712013 -0.17088114 -0.0009155133 0.25741178 -0.48354608 0.3614903 -0.4134612
0.2732385 -0.041645035 -0.23961583 0.14894538 2.6400795 -0.1296876 -0.22958831 -0.1569888
00000000: 65c3 a93e a4c2 b33e 2ce8 a8be 68f2 4abe
00000010: bdc1 d6bf 5ae1 843e f7ab 363d 3e82 d63e
00000020: 5074 1840 eefe cd3d e1f4 15be 6ea4 16be
00000030: f8cf c63f ba9a 71be 3973 c7bd 7645 993d
00000040: 79da 243f 9958 d63e 8ea5 3ebe e107 94bd
00000050: b7a5 0840 fea6 b53e 1093 2fbd b30c b93e
00000060: 2cd7 fa3f 58d1 763d fae1 063f 163b d5be
00000070: 1dce a33e 220b 29be f6c7 30be 146e f43e
00000080: 7acf 84bf ef92 bfbc fd5c afbe f3b8 cfbe
00000090: 0f55 d8be 9bda 0d3f 0583 d03d 44fa 313e
000000a0: 2db2 0a40 d29d 5dbd 49b0 353e cd3a e5be
000000b0: 41be b0bf 32b5 bfbe 6f18 9c3e 7492 8a3e
000000c0: ca2f 803e af5c 05be 8398 a73e 930c 023f
000000d0: 72f1 c13e 77f2 a73c a35a d23e a3ef c4be
000000e0: 29e0 ff3f d5b6 b9be 462d 73be c336 17be
000000f0: bcd6 38be fbbe 843e e63e a4be cfc2 6f3e
00000100: 42f2 1640 b3dd 37bc 0af7 973d 5fe7 cd3d
00000110: b73f 99bd 29eb ec3e bbf3 f2be ec29 17be
00000120: 1125 cd3f 10d2 be3e 5f3a 053f 57d8 da3e
00000130: 453a 0340 5fc9 bcbe 8066 0b3e 797f 87be
00000140: bbdf 603d 0467 fa3e 2cb4 d33e d6d6 d5be
00000150: 08aa bf3d c880 acbd b882 a8bd 1c5f 6abe
00000160: f564 1b3e 82f1 9ebe 8af6 403e 51af 713e
00000170: fce2 f2bd c1d4 9d3e 25f3 d8be c25b 83bd
00000180: 38a6 7f3e 1853 d63d 96b3 c7be e868 93be
00000190: 4bc0 943e c0c3 be3e 307d 8cbe 0a86 94bd
000001a0: 78dd f3be 803e 13bc 78c8 c0be a277 c5be
000001b0: 4878 0d40 fe94 bc3c 608b 14be ed7c 973e
000001c0: b62a 783f f2df e23e facb 1a3f bf82 b7be
000001d0: ff8a f03f 9ae9 61bd 46f1 b63d 2ba0 c83d
000001e0: 10be b53f 18c0 ef3d d725 86be 5840 9c3e
000001f0: 5691 f5be a0bb 97be 3c2b 00be ec66 79be
00000200: 5ef5 ee3f 2b25 89be 8bfa 173d fecc 1b3e
00000210: 8480 bcbf 0f2a ce3c 733e 9c3e f2a4 6cbd
00000220: dd30 aabe 5a60 14be 010d 9b3d 6b66 973e
00000230: 3b17 1c40 9e1e 823e b1b5 073f bbeb 2fbd
00000240: aaa9 03c0 83a1 e53b b0d3 d23e d503 523d
00000250: 1a04 9f3e 1b63 00bf 08d5 02bf 4c9d 7bbe
00000260: 1f84 a0bd 12d4 9d3e ccbf a03e b3d9 e0be
00000270: 2eb0 9f3e 8a52 c8be f07b d8bd 1c9a 4fbe
00000280: 58f0 cc3e 2813 f8bd b1f4 e2be 89fc bebe
00000290: 283c a0bd 80e1 d33b b896 68be b8de 403e
000002a0: be9d b03f 41e7 f0bc 1b83 013f 6d32 2ebe
000002b0: 06f4 c43f 53b8 433e 4516 fcbe 70ad bf3e
000002c0: b7f2 17c0 6418 edbe 1bae ab3e 1657 1ebe
000002d0: 7eb1 ee3f a25d abbd 55ed e73e 1d6f d23d
000002e0: 6306 1640 82e7 f23d fecf 8fbd a9fd c5bd
000002f0: 4003 02c0 27c8 a63e 1c39 bc3e fb53 aa3e
00000300: ac93 b4be 60ae b63c 9076 b4be 88ec 8cbe
00000310: 302c 95be 34f9 2e3e c48d 98be 00ba 32bc
00000320: 9e00 393f e731 e33e 09bc 9ebe a9ff f5bd
00000330: c413 f9bf df92 c63e 3fce 7cbe 7b4a cf3e
00000340: a024 393e 40aa 813d 00ed 73bb 086d cabd
00000350: 002f a4bf a48e 92bd bcad 94bd 4f53 3b3d
00000360: ab6e 42c0 6088 763d 5b7d 773e abdf f0be
00000370: 9604 e4bf a318 093f 0c2c a63c a056 2ebd
00000380: eee0 ad3f 378b 5a3e 6422 afbe 9453 0fbe
00000390: 9fe3 153f 077c 24bd 3971 e03d a464 cd3e
000003a0: d776 a83f fa8c d83e 38b1 c83e 749b a1be
000003b0: 19d4 1540 936a 97be 297f 0abe f332 2e3e
000003c0: 8ff8 493f eeec e43e 77fb 2ebe 0fff 6fba
000003d0: 7acb 833e 5a93 f7be 4215 b93e 30b1 d3be
000003e0: ebe5 8b3e fc93 2abd da5d 75be 2385 183e
000003f0: 10f7 2840 d4cc 04be 3319 6bbe acc1 20be

net.0.bias f4 [128]
-0.10529179 -0.036240593 0.10297285 0.22145276 -0.16210562 0.012895266 0.30458483 -0.09120935
0.23980752 -0.13756917 0.21487999 -0.38001922 -0.3834797 -0.19844171 0.5275856 -0.11291766
-0.052335758 -0.2795585 0.57649064 0.5351345 -0.3849245 -0.40533495 -0.39587438 0.23048769
-0.12745196 -0.29906365 -0.17933607 0.06932384 -0.22570586 0.027515663 0.017047232 -0.24228168
0.13351214 0.4697064 -0.360257 -0.025754102 0.0851137 0.57444775 -0.44020483 -0.4793306
0.6129815 -0.31634498 0.08473333 0.07082808 -0.058561143 -0.20920032 0.29667506 0.098155975
-0.4868073 -0.29518008 -0.018380592 0.29695424 -0.32356685 0.532299 0.01500197 -0.046416577
0.45857486 0.37861577 0.5016513 0.29875636 -0.16941634 -0.3317362 -0.029484272 0.41607594
-0.09837839 -0.42609614 0.1965616 0.54452515 -0.14234161 -0.41401178 -0.45352983 0.06879829
0.0675203 -0.25249362 -0.021252953 0.14013375 0.41246796 0.37829244 -0.05923731 -0.44088358
-0.45181155 0.5234847 0.2720273 0.17744 -0.49022847 0.53489214 0.56466764 0.5887544
-0.43577525 -0.12314214 -0.24897484 0.50677705 -0.19006808 -0.22827727 0.23985858 -0.14495383
-0.22873034 -0.037053306 -0.04901358 -0.33671993 0.3771663 -0.32568067 0.1786578 0.42673525
0.2171067 0.053661942 0.3984512 0.1777336 -0.23132831 0.5220699 0.16672395 -0.4242625
-0.22337312 -0.22683105 0.47235963 -0.08257294 -0.45576245 0.07167977 0.27422443 0.13887921
0.25477263 0.025543338 0.1664078 -0.08424929 -0.13845879 -0.459062 -0.37666845 0.18473423
00000000: 39a3 d7bd 0471 14bd 6ee3 d23d 83c4 623e
00000010: 04ff 25be aa46 533c 8bf2 9b3e f8cb babd
00000020: 1a90 753e efde 0cbe 8009 5c3e e191 c2be
00000030: 7457 c4be 4e34 4bbe da0f 073f 6041 e7bd
00000040: 055e 56bd 4b22 8fbe e494 133f 93fe 083f
00000050: d314 c5be 1088 cfbe 0cb0 cabe f704 6c3e
00000060: c482 02be df1e 99be e0a3 37be a8f9 8d3d
00000070: 701f 67be 8768 e13c a3a6 8b3c b018 78be
00000080: 68b7 083e 5b7d f03e 9b73 b8be 44fa d2bc
00000090: 1750 ae3d 020f 133f 8762 e1be d26a f5be
000000a0: 5bec 1c3f f8f7 a1be ab88 ad3d 500e 913d
000000b0: cfdd 6fbd 9c38 56be cbe5 973e 0006 c93d
000000c0: ce3e f9be d821 97be e592 96bc 630a 983e
000000d0: 8eaa a5be bf44 083f d3ca 753c 4f1f 3ebd
000000e0: 53ca ea3e edd9 c13e 386c 003f 98f6 983e
000000f0: 7a7b 2dbe 54d9 a9be 0089 f1bc e807 d53e
00000100: 9c7a c9bd 4629 dabe 7247 493e 0066 0b3f
00000110: 00c2 11be 5af9 d3be 1035 e8be 1ee6 8c3d
00000120: 1548 8a3d d846 81be ac1a aebc 397f 0f3e
00000130: 002f d33e 8caf c13e d2a2 72bd 7ebb e1be
00000140: d853 e7be 1803 063f 2a47 8b3e d5b2 353e
00000150: 3aff fabe b1ee 083f 0f8e 103f 9cb8 163f
00000160: ef1d dfbe f231 fcbd 43f3 7ebe 24bc 013f
00000170: 35a1 42be 84c1 69be 7d9d 753e c76e 14be
00000180: 4938 6abe 35c5 17bd 77c2 48bd 8e66 acbe
00000190: f11b c13e 9ebf a6be 12f2 363e 0b7d da3e
000001a0: 3851 5e3e a0cc 5b3d cc01 cc3e ccff 353e
000001b0: 54e1 6cbe 5fa6 053f afb9 2a3e ef38 d9be
000001c0: ecbb 64be 6646 68be 1fd9 f13e 001c a9bd
000001d0: b259 e9be d8cc 923d 2567 8c3e 5a36 0e3e
000001e0: 8f71 823e 4340 d13c ce66 2a3e e48a acbd
000001f0: 24c8 0dbe 2d0a ebbe b0da c0be f82a 3d3e

net.2.weight f4 [128, 128]
0.04506456 -0.034012236 0.3238041 0.12916474 0.07916479 0.15822284 0.03634975 0.09616811
-0.1403705 -0.08035986 0.23425739 -0.22404319 0.16102844 -0.31859398 0.004726484 -0.15033698
0.31843582 0.12280056 0.00011179372 0.112452604 0.09159807 -0.019168101 0.11979216 -0.096729785
0.009388022 0.14111048 -0.0121456385 0.17164175 0.18663049 0.20200817 0.030591713 -0.012738854
0.1420273 0.04510554 -0.050491787 0.1917213 -0.12444517 0.021993153 0.003517341 -0.023915514
0.11315983 -0.058850035 0.089359865 0.14342852 -0.30198997 0.24967538 0.076987006 -0.08440555
0.043795742 0.026439764 0.12908442 -0.093108006 0.056886353 0.09290031 -0.18362018 -0.15526944
0.10635102 -0.022654 0.07403682 0.11760025 0.11766396 0.030776426 -0.24843492 0.14430287
-0.24070507 0.10325782 0.13216877 0.07563908 -0.042171873 0.056624763 -0.011228308 0.04855528
0.1367776 -0.08109793 0.3160434 0.07130597 0.07513884 0.13454309 0.15981449 0.075437166
0.07168447 -0.012439113 0.22430962 0.04579128 0.04124211 0.030759836 0.11076364 -0.033498675
-0.29684708 -0.18132484 -0.16899718 0.13411775 0.20706652 0.008048266 -0.0074178306 0.06977755
0.06270965 0.13710569 -0.17217447 0.049075283 -0.022793584 0.17381455 0.20349073 0.08046966
0.09359922 0.13587876 0.1816965 -0.13297229 -0.009689115 0.049075004 -0.172234 -0.23048803
0.2740052 0.1409409 0.06994846 0.02007503 -0.03826523 0.029702133 0.112350404 -0.021247162
-0.027403481 0.110147975 0.05880715 0.33976364 0.023990352 -0.1849076 -0.019039512 0.12716909
-0.07145126 -0.02960118 0.023526253 -0.08232388 0.048454337 0.04133329 0.048032098 -0.056351736
0.08563683 -0.05749199 0.08224709 -0.08482545 -0.07875136 0.0542878 0.0030876382 0.0018522226
-0.05020945 -0.038043518 -0.032902177 -0.09268942 0.003617609 0.015632264 -7.483363e-05 0.02485749
0.08386736 0.023501053 -0.032356534 -0.041039836 -0.060770273 -0.066916876 -0.01423493 -0.015632853
0.037559148 -0.04461956 0.070463516 -0.06849379 -0.00075216644 0.07357427 0.08789206 -0.051200032
0.009523542 0.01044067 -0.04786023 -0.03420076 0.021788586 -0.063611135 0.008154071 0.03184336
-0.034831207 0.073419 -0.0094898855 0.033963207 0.087531544 -0.033674564 0.04587771 -0.030433074
-0.01917197 -0.02132526 -0.0074614016 -0.039139345 0.016480278 0.0033305064 0.056028478 -0.02410556
0.008863598 -0.03372386 -0.07968566 0.029202856 0.011309989 -0.035398096 -0.02988454 0.017999696
-0.015982106 0.05775965 0.002385316 0.028025527 0.03194475 -0.02771338 0.036702257 0.0652247
0.004067488 0.0103073185 -0.00023781892 0.055738527 -0.038394153 -0.05388961 0.031546295 -0.08360302
0.0014170855 -0.044246785 0.058339275 -0.08929852 0.053592734 0.087447606 0.011046604 -0.005889021
0.08249892 -0.04259108 -0.007082872 -0.038705695 -0.018722787 0.01881474 0.006362436 -0.022967644
-0.09478382 0.002604225 -0.008928726 0.009233105 0.06772759 0.079198025 -0.057523802 -0.005511403
-0.03683697 -0.08146273 -0.07071045 0.08295786 0.051535808 0.042007316 0.042632196 -0.07480834
0.0068980735 0.07587703 -0.054899547 0.0763446 0.021565955 0.061216928 -0.037864476 0.034619052
00000000: 9e95 383d 6a50 0bbd a7c9 a53e c343 043e
00000010: 2621 a23d 2b05 223e 7ae3 143d c9f3 c43d
00000020: 49bd 0fbe b693 a4bd 2be1 6f3e 946b 65be
00000030: a4e4 243e c01e a3be 9fe0 9a3b f0f1 19be
00000040: 050a a33e dc7e fb3d cc72 ea38 8d4d e63d
00000050: c597 bb3d 6c06 9dbc 9855 f53d 441a c6bd
00000060: 38d0 193c 447f 103e 80fe 46bc dbc2 2f3e
00000070: 101c 3f3e 3bdb 4e3e 799b fa3c a0b6 50bc
00000080: 9b6f 113e 96c0 383d 7ad0 4ebd 9752 443e
00000090: 1cdd febd fc2a b43c 3183 663b 78ea c3bc
000000a0: 57c0 e73d bc0c 71bd 4e02 b73d edde 123e
000000b0: 6e9e 9abe e7aa 7f3e 5dab 9d3d d1dc acbd
000000c0: 2a63 333d 3498 d83c b52e 043e 69af bebd
000000d0: aa01 693d 8542 be3d ee06 3cbe f4fe 1ebe
000000e0: 90ce d93d e294 b9bc 9ea0 973d 66d8 f03d
000000f0: cdf9 f03d d81e fc3c b965 7ebe 22c4 133e
00000100: 647b 76be d678 d33d 4057 073e a9e8 9a3d
00000110: 6abc 2cbd 5eef 673d f0f6 37bc e7e1 463d
00000120: 6d0f 0c3e ac16 a6bd 71d0 a13e dd08 923d
00000130: 64e2 993d aac5 093e 69a6 233e cd7e 9a3d
00000140: 4fcf 923d 6ccd 4bbc 6cb1 653e a38f 3b3d
00000150: 7ded 283d 0dfc fb3c 0cd8 e23d e835 09bd
00000160: 57fc 97be 38ad 39be 990d 2dbe 2a56 093e
00000170: 3f09 543e e0dc 033c 4611 f3bb 88e7 8e3d
00000180: eb6d 803d 6f65 0c3e 814e 30be 2a03 493d
00000190: 9cb9 babc 71fc 313e e05f 503e 47cd a43d
000001a0: f3b0 bf3d cd23 0b3e a60e 3a3e e329 08be
000001b0: 18bf 1ebc df02 493d 1c5e 30be 0e05 6cbe
000001c0: 694a 8c3e d052 103e 2341 8f3d 6474 a43c
000001d0: 00bc 1cbd e351 f33c f817 e63d 870e aebc
000001e0: 447d e0bc 4395 e13d c4df 703d 80f5 ad3e
000001f0: 6a87 c43c 6b58 3dbe c0f8 9bbc 9d38 023e
00000200: 0a55 92bd 2d7e f2bc 21ba c03c 6c99 a8bd
00000210: 0e78 463d 194d 293d 4ebd 443d 14d1 66bd
00000220: 5d62 af3d b97c 6bbd 2a71 a83d f7b8 adbd
00000230: 6548 a1bd e25c 5e3d f959 4a3b 47c6 f23a
00000240: 6da8 4dbd 85d3 1bbd 6fc4 06bd f3d3 bdbd
00000250: 6815 6d3b 3c0f 803c 00f0 9cb8 efa1 cb3c
00000260: a7c2 ab3d 4885 c03c 4988 04bd 6319 28bd
00000270: 40ea 78bd b70b 89bd a039 69bc 7810 80bc
00000280: 9fd7 193d 00c3 36bd 2d4f 903d 7946 8cbd
00000290: 092d 45ba 1bae 963d c100 b43d 20b7 51bd
000002a0: a108 1c3c 580f 2b3c 1709 44bd 1916 0cbd
000002b0: fa7d b23c 8e46 82bd a798 053c 2f6e 023d
000002c0: 2bab 0ebd b35c 963d 777b 1bbc 011d 0b3d
000002d0: bd43 b33d 57ee 09bd 44ea 3b3d c84e f9bc
000002e0: 890e 9dbc 50b2 aebc c67e f4bb 9450 20bd
000002f0: a601 873c a044 5a3b 1e7e 653d 0679 c5bc
00000300: a038 113c 0822 0abd 3c32 a3bd d43a ef3c
00000310: 884d 393c 98fd 10bd 6cd0 f4bc 1974 933c
00000320: e8ec 82bc 6295 6c3d f652 1c3b ca95 e53c
00000330: 80d8 023d 2c07 e3bc 1b55 163d 8794 853d
00000340: 9048 853b 07e0 283c 085f 79b9 154e 643d
00000350: 3043 1dbd 5abb 5cbd b036 013d 0f38 abbd
00000360: 80bd b93a 1e3c 35bd 2af5 6e3d 24e2 b6bd
00000370: 0e84 5b3d bb17 b33d d1fc 343c b0f8 c0bb
00000380: 32f5 a83d fc73 2ebd 7017 e8bb dd89 1ebd
00000390: 8860 99bc 5f21 9a3c fb7b d03b a426 bcbc
000003a0: 051e c2bd a5ab 2a3b cb49 12bc 7346 173c
000003b0: c3b4 8a3d 9332 a23d 149e 6bbd 0099 b4bb
000003c0: 5de2 16bd efd5 a6bd a4d0 90bd cfe5 a93d
000003d0: 3617 533d dd0f 2c3d 199f 2e3d 1d35 99bd
000003e0: 3c09 e23b 6b65 9b3d 59de 60bd 8f5a 9c3d
000003f0: 16ab b03c 9abe 7a3d c817 1bbd b5cc 0d3d

net.2.bias f4 [128]
0.0079639675 0.07684395 -0.022886924 0.011680402 0.019091874 -0.05258496 0.07510631 0.096012995
0.071515135 0.0719181 0.08690441 -0.053639807 0.071659505 -0.03323378 0.02128497 -0.0730216
0.14665021 -0.055784956 -0.036520466 -0.06584098 -0.014908098 -0.044591006 -0.05527444 -0.08417861
0.07893115 0.09190883 -0.01349742 0.077944934 0.020060152 -0.031930532 -0.015640786 0.03496942
0.15761875 -0.0045425 -0.014129915 0.09831727 -0.07407893 0.03637546 -0.056470823 0.20026448
0.09264595 -0.055071168 -0.06544105 -0.008131541 0.0067095845 0.079354614 -0.017804787 -0.04607721
-0.08556467 -0.010146704 0.09651143 -0.06132281 -0.014160785 0.06888591 0.21578234 -0.058211215
-0.081757545 0.2180087 -0.036086395 0.013284233 -0.09402388 0.06682257 0.018623177 -0.018388059
-0.047934487 0.14486845 -0.035325274 -0.011273847 -0.034573726 0.06123285 0.03684629 -0.014023975
0.005326236 0.059821986 -0.043413877 0.074614815 0.20236829 0.079575874 -0.019266162 -0.055432748
-0.04397581 0.07862505 -0.053886514 -0.061613742 -0.024579884 0.03396768 0.045653436 0.0029418357
0.13843885 0.10791322 -0.064523846 -0.03163929 -0.013394043 0.15894465 -0.08820226 0.011483172
-0.030041838 0.051265623 -0.0035433632 0.18449612 0.014750125 0.022704428 -0.09181628 -0.020017376
-0.060394198 0.16725178 -0.03533259 0.06588616 -0.07127732 0.058297552 -0.001483579 -0.075843535
0.0056797117 -0.061053682 0.020654177 0.07375355 0.044070356 -0.030360926 0.057218526 0.03823332
0.04201924 0.08493664 -0.08799275 -0.04665602 0.049790077 0.13092417 -0.012781132 -0.064658195
00000000: 4d7b 023c 5c60 9d3d 5c7d bbbc 285f 3f3c
00000010: 9066 9c3c 5463 57bd 56d1 993d 76a2 c43d
00000020: 8776 923d cc49 933d f0fa b13d 6ab5 5bbd
00000030: 38c2 923d 2520 08bd d15d ae3c 598c 95bd
00000040: 792b 163e c47e 64bd 7c96 15bd a3d7 86bd
00000050: 1841 74bc 0fa5 36bd 7467 62bd d665 acbd
00000060: a8a6 a13d b23a bc3d 4824 5dbc 98a1 9f3d
00000070: 3055 a43c 97c9 02bd 1b21 80bc 183c 0f3d
00000080: cf66 213e 40d9 94bb 2981 67bc 915a c93d
00000090: b2b6 97bd 6ffe 143d f34d 67bd 2212 4d3e
000000a0: 29bd bd3d 4e92 61bd f505 86bd 283a 05bc
000000b0: 13dc db3b ac84 a23d 58db 91bc 75bb 3cbd
000000c0: 883c afbd 5c3e 26bc c9a7 c53d a02d 7bbd
000000d0: a302 68bc 0e14 8d3d 0cf6 5c3e e26e 6ebd
000000e0: 8070 a7bd ac3d 5f3e 54cf 13bd 1da6 593c
000000f0: 988f c0bd 46da 883d a28f 983c 8ea2 96bc
00000100: f456 44bd 6558 143e 3cb1 10bd f1b5 38bc
00000110: 2e9d 0dbd 4ccf 7a3d 23ec 163d d0c4 65bc
00000120: b587 ae3b e607 753d c0d2 31bd a7cf 983d
00000130: a239 4f3e adf8 a23d 12d4 9dbc 730d 63bd
00000140: fb1f 34bd 2c06 a13d 1bb8 5cbd b15e 7cbd
00000150: c15b c9bc b221 0b3d 19ff 3a3d d0cb 403b
00000160: eac2 0d3e 9b01 dd3d 1425 84bd 3398 01bd
00000170: b072 5bbc 63c2 223e 63a3 b4bd ea23 3c3c
00000180: 4d1a f6bc e7fb 513d c537 68bb 8dec 3c3e
00000190: 82aa 713c a3fe b93c 2c0a bcbd 7bfb a3bc
000001a0: e85f 77bd 0d44 2b3e e8b8 10bd 53ef 863d
000001b0: d8f9 91bd 6ac9 6e3d a774 c2ba db53 9bbd
000001c0: e01c ba3b 6d13 7abd f332 a93c 1a0c 973d
000001d0: 1e83 343d 7ab7 f8bc f95d 6a3d 8b9a 1c3d
000001e0: 5e1c 2c3d 43f3 ad3d 8b35 b4bd 621a 3fbd
000001f0: aef0 4b3d fc10 063e f467 51bc 846b 84bd

net.4.weight f4 [15, 128]
0.18615855 -0.024905885 0.101790465 0.04995311 -0.0012142435 0.036488954 0.03262074 0.09868186
0.096273035 0.15829718 0.15261541 0.08733884 0.13195506 0.042814605 0.076938726 0.15347882
-0.30628058 -0.023047445 0.24058963 0.0474462 -0.0683466 0.14513388 0.015837617 -0.025127426
0.06174881 0.065636285 0.019990407 0.08416998 0.02131968 0.2624581 -0.0052797874 0.07263386
-0.45888296 -0.009969503 0.048759017 0.10700432 0.039999638 0.16871016 -0.08493188 -0.4624035
-0.4506374 0.07606121 0.23389922 0.059883736 0.19705676 0.07143525 0.08291232 0.0074950606
0.019907333 -0.019339431 0.058684383 0.13160771 0.11931781 0.055914428 -0.39614534 -0.041954026
0.08220005 -0.45633754 0.15758407 0.023330988 -0.0071154013 0.069983214 0.14418806 0.14213115
-0.028873276 -0.28838354 0.03764432 0.14708966 0.014096692 -0.007339221 0.040493585 -0.06917408
0.014994486 -0.051939595 0.14982918 0.044602226 -0.33075368 0.13271448 0.16613173 0.01455763
0.20232302 0.04975133 0.19308971 0.17825343 0.06707079 -0.043434802 -0.24613027 0.1986555
-0.3494198 -0.3554339 0.15134726 -0.051724773 0.0397135 -0.34987688 -0.07690057 -0.049702436
0.02616418 -0.0053977952 -0.13633792 -0.24576122 0.15829818 -0.012205622 0.031127246 -0.017212715
0.047778852 -0.43960616 0.1753188 0.058007248 0.08808649 0.14908724 0.1654209 0.04870724
0.08575753 0.17949994 -0.058621485 0.050125863 0.04928569 0.1618 0.13533185 0.36543134
0.012941756 0.09698432 0.016692368 0.024331331 0.067384146 -0.44769573 0.055708215 0.08780279
0.09771396 -0.016077582 0.14964335 -0.046930134 -0.08094204 0.013610168 0.09103464 0.11483198
0.11562456 0.055595446 0.11698433 0.0039674714 0.13743158 -0.053179923 0.06512756 0.20037934
-0.34991488 -0.07367793 0.2107154 -0.048858143 -0.015751923 0.0153646115 0.020282403 0.08634401
0.14726467 0.031008802 -0.008825332 0.060340445 -0.038608987 0.22053146 0.023738388 -0.0358184
-0.46813437 0.011816405 0.07926016 0.056753054 0.08855157 0.043018494 0.07424276 -0.4160429
-0.3023825 0.011940099 0.19704333 -0.07427094 0.14945184 0.09421602 -0.014217831 0.057652824
-0.033040285 -0.035162218 0.015579692 0.17001311 0.1605223 0.018902585 -0.41080558 0.033549502
0.11688568 -0.29417327 0.17032756 0.08608251 0.076477505 0.005398273 0.14502403 0.19321291
-0.08634037 -0.2600474 -0.04755336 0.123419456 0.16066244 -0.015592625 0.16271542 0.021050498
0.005339656 0.03409701 0.040461414 0.045326833 -0.43030855 0.16359577 0.10288902 0.06925047
0.19933286 0.050908275 0.27563864 0.13231827 0.04858727 -0.015379733 -0.32153118 0.1276075
-0.29927364 -0.37897837 0.0889573 -0.016195014 0.10479366 -0.36251155 0.0078183785 -0.028740779
-0.024888044 -0.051579952 -0.15282921 -0.4506639 0.041424643 0.00824006 -0.03528256 0.008375595
0.08565863 -0.41994882 0.14476869 -0.07153642 0.081697255 0.28313592 0.052991353 0.0754438
0.07930782 0.20753066 -0.045047287 0.09399148 0.07531875 0.18156786 0.07190845 0.41114604
0.09578302 0.12991205 -0.03372649 -0.02901623 0.15519746 -0.36890167 0.16287954 -0.038896725
00000000: 59a0 3e3e 6d07 ccbc 8577 d03d a29b 4c3d
00000010: 4027 9fba 7175 153d 539d 053d b719 ca3d
00000020: cc2a c53d a818 223e 3747 1c3e b5de b23d
00000030: 3a1f 073e 5e5e 2f3d 0d92 9d3d 8d29 1d3e
00000040: cfd0 9cbe ffcd bcbc 215d 763e f256 423d
00000050: 4df9 8bbd fa9d 143e e4bd 813c 08d8 cdbc
00000060: 52ec 7c3d 516c 863d ecc2 a33c 4f61 ac3d
00000070: 9ca6 ae3c e860 863e 1102 adbb 10c1 943d
00000080: b5f2 eabe 2057 23bc 89b7 473d 1525 db3d
00000090: a9d6 233d 5bc2 2c3e c4f0 adbd 27c0 ecbe
000000a0: f2b9 e6be fbc5 9b3d 4783 6f3e a648 753d
000000b0: 3fc9 493e a54c 923d efcd a93d 2099 f53b
000000c0: b414 a33c ba6d 9ebc 095f 703d 2cc4 063e
000000d0: e55c f43d 8706 653d 90d3 cabe fcd7 2bbd
000000e0: 8058 a83d 13a5 e9be b85d 213e a120 bf3c
000000f0: 5028 e9bb 5c53 8f3d 09a6 133e d48a 113e
00000100: a687 ecbc 02a7 93be ee30 1a3d ac9e 163e
00000110: d0f5 663c d97d f0bb 9adc 253d 24ab 8dbd
00000120: 6fab 753c 9dbe 54bd d26c 193e d3b0 363d
00000130: 8c58 a9be 4ee6 073e 701e 2a3e 2083 6e3c
00000140: c42d 4f3e 0dc8 4b3d 4fb9 453e 1188 363e
00000150: 695c 893d b1e8 31bd 9309 7cbe 596c 4b3e
00000160: 27e7 b2be 6ffb b5be c7fa 1a3e 5bdd 53bd
00000170: 9faa 223d 1023 b3be 0c7e 9dbd c894 4bbd
00000180: 4356 d63c fddf b0bb 2b9c 0bbe d4a8 7bbe
00000190: eb18 223e 17fa 47bc 91fe fe3c ae01 8dbc
000001a0: c2b3 433d 0f14 e1be c686 333e 0299 6d3d
000001b0: b166 b43d 53aa 183e 1964 293e 3e81 473d
000001c0: a5a1 af3d d5ce 373e 151d 70bd c750 4d3d
000001d0: cbdf 493d e6ae 253e 6f94 0a3e d119 bb3e
000001e0: a909 543c b79f c63d 6fbe 883c 8052 c73c
000001f0: b300 8a3d 6038 e5be 4c2e 643d f3d1 b33d
00000200: 421e c83d 22b5 83bc 1b3c 193e d039 40bd
00000210: f1c4 a5bd 2ffd 5e3c 5f70 ba3d 072d eb3d
00000220: 92cc ec3d 0db8 633d 7b95 ef3d 9001 823b
00000230: ddba 0c3e 31d3 59bd 9961 853d 3e30 4d3e
00000240: 0b28 b3be 74e4 96bd c7c5 573e 7a1f 48bd
00000250: 2d0a 81bc dabb 7b3c 4827 a63c 21d5 b03d
00000260: 8dcc 163e 2c06 fe3c 2098 10bc 8b27 773d
00000270: 7524 1ebd 00d3 613e 0277 c23c 51b6 12bd
00000280: 4faf efbe 9899 413c 2753 a23d e475 683d
00000290: 875a b53d 2934 303d 970c 983d 9303 d5be
000002a0: e1d1 9abe 68a0 433c bac5 493e 5d1b 98bd
000002b0: e709 193e 54f4 c03d e8f1 68bc 5e25 6c3d
000002c0: 4055 07bd 4206 10bd f741 7f3c eb17 2e3e
000002d0: f55f 243e 98d9 9a3c 1c55 d2be 346b 093d
000002e0: c261 ef3d e19d 96be 596a 2e3e 074c b03d
000002f0: 3da0 9c3d ffe3 b03b 2e81 143e 9bd9 453e
00000300: 38d3 b0bd ef24 85be 50c7 42bd 57c3 fc3d
00000310: b284 243e 3678 7fbc df9e 263e 1872 ac3c
00000320: 48f8 ae3b 4ea9 0b3d deba 253d a1a8 393d
00000330: 6751 dcbe a685 273e 7bb7 d23d 31d3 8d3d
00000340: ea1d 4c3e 3285 503d 8220 8d3e 717e 073e
00000350: 7203 473d 47fb 7bbc bc9f a4be 8aab 023e
00000360: 653a 99be 7409 c2be 3f2f b63d 68ab 84bc
00000370: 0f9e d63d 1d9b b9be a818 003c c871 ebbc
00000380: 03e2 cbbc 8045 53bd 437f 1cbe 6bbd e6be
00000390: e3ac 293d 5101 073c 7284 10bd cb39 093c
000003a0: cb6d af3d 8803 d7be 3e3e 143e b081 92bd
000003b0: e450 a73d 31f7 903e 760d 593d 4782 9a3d
000003c0: 236c a23d eb82 543e 8183 38bd 9b7e c03d
000003d0: b840 9a3d edec 393e bd44 933d bc81 d23e
000003e0: e329 c43d aa07 053e ca24 0abd 72b3 edbc
000003f0: 15ec 1e3e aee0 bcbe e5c9 263e 2c52 1fbd
