dqn_out/dqn_ep3350.pt (torch, 314997 bytes, 24 tensors)

net.0.weight f4 [128, 4]
00000000: 631e 243f 95f8 b23e a513 a1be 5eaf 91be
00000010: c29d cabf e40a 273e fd4b aa3c 61de d53e
00000020: e20c ee3f 7a91 ce3d 7a3a 09be d6f2 a0bd
00000030: a72a 86bf 22c8 09bf a76e 3dbe 58dc b2bb
00000040: 7783 5d3f 9e56 c13e 6284 59be 2819 59be
00000050: 9be0 bd3f 595c c83e 70aa d3bd a747 b73e
00000060: 0bf3 b63f ca5f 763d a201 ec3e 03d2 edbe
00000070: 9f55 853c 6bb2 81bd 9af1 4abe bf86 cf3e
00000080: 6da0 00bf ed14 80b8 d9d1 9dbe 17ba f0be
00000090: 5145 9bbf f706 d33e 04c8 313e b315 6a3e
000000a0: 0d09 af3f 6a2a 14be 29ed f13d 21fc f3be
000000b0: c1d6 c5bf a4ae aebe f236 aa3e 0543 943e
000000c0: a3c3 3a3f 4298 efbb c860 873e f7b3 fa3e
000000d0: f1fd 6b3e 452a 5e3d c606 d03e d0ae 91be
000000e0: 8545 bf3f c1e1 e8be e618 9fbe df93 40be
000000f0: 7a54 a0be 17bc a13e 7363 99be b79c 3d3e
00000100: 7836 f63f 4fcd e1bb f6fb 053d b853 dc3d
00000110: c907 383f 6540 0a3f d430 a1be 6895 ecbd
00000120: fa27 d23f d7c9 bd3e 9a0c dd3e 40a9 d83e
00000130: 7a6f d23f f2ce ffbe 3654 283d 57d3 adbe
00000140: 7d81 ad3e 9429 fc3e 02d9 de3e e180 d0be
00000150: 08aa bf3d c880 acbd b882 a8bd 1c5f 6abe
00000160: bc26 3d3e d333 91be ef17 4b3e 221f 863e
00000170: 144a abbe 9781 813e d94e d8be 0ef6 a4be
00000180: 38a6 7f3e 1853 d63d 96b3 c7be e868 93be
00000190: 45d3 063f 1a7a bf3e 59a0 6abe 7a87 f0bd
000001a0: 78dd f3be 803e 13bc 78c8 c0be a277 c5be
000001b0: 47a5 e03f a7d2 d63c 338e 4ebe e70a 943e
000001c0: d76b 4d3f ae87 023f 30b0 023f d813 93be
000001d0: f685 ab3f 92ae a8bc 336f 5e3d a69f e13d
000001e0: fef2 ba3f b66f 7ebc d038 4ebe 47ae 943e
000001f0: 5691 f5be a0bb 97be 3c2b 00be ec66 79be
00000200: 1658 3f3f c883 c1be e989 21be 8dbc 003e
00000210: 1c55 cebf 2659 a5bc cf85 ac3e 1fcc 8abd
00000220: bb13 a1bf 1639 e33c 2c43 e23d cdd0 a23e
00000230: bf44 0340 6f90 9d3e 3076 fa3e 1fd4 0bbd
00000240: 1d4d e0be 9399 67be 203c ac3e ff7d ec3b
00000250: a338 74bf 1709 aabe 60b7 e7be 3bf6 89be
00000260: fb38 e9bd 1a3a 843e 383d 823e 6e9b febe
00000270: 2eb0 9f3e 8a52 c8be f07b d8bd 1c9a 4fbe
00000280: 4bfb f93d 39e8 1bbd 4a77 ffbe 2d55 c2be
00000290: 283c a0bd 80e1 d33b b896 68be b8de 403e
000002a0: 4ccd 403f 6ee5 2cbd 2ae7 e73e 2090 52be
000002b0: 322a b03f a48b 443e f6d6 ddbe 1e15 b13e
000002c0: c665 ccbf 915e 90bd 0b24 c83e 62fd 02bf
000002d0: 3321 bc3f 11e9 8cbc 88e1 c83e 0806 0a3e
000002e0: 5a96 ee3f a135 253e 34c8 e5bd 20e3 ccbd
000002f0: 8b18 e6bf fd7e 883e ae05 ca3e d5cb a93e
00000300: ac93 b4be 60ae b63c 9076 b4be 88ec 8cbe
00000310: 302c 95be 34f9 2e3e c48d 98be 00ba 32bc
00000320: 7d03 8c3a 45fb b23e f2c0 c8be 848c bdbe
00000330: 7bc5 fcbf 68d8 b53e 49e6 4dbe 4efe ce3e
00000340: a024 393e 40aa 813d 00ed 73bb 086d cabd
00000350: d809 a9bf b6b2 05be d2d2 0bbd bad0 183d
00000360: 3d9b 03c0 8b1e a73c 166a c83e 174f 2ebf
00000370: 6d5a cabf 8370 003f 386e 2e3e cc0a ea3c
00000380: d9b6 a2bf 5017 803e 7e53 c0be 6446 28be
00000390: e941 28bf 94c2 83bd d61a a5bc 79d7 c63e
000003a0: 4a5e 643e 191e ce3e 900c 963e 833e aebe
000003b0: 6042 ec3f 81ac b0be 6aa3 4bbe 0f06 1f3e
000003c0: 28ac 813f 0837 db3e d6e9 bfbd d8d2 ecbc
000003d0: 7acb 833e 5a93 f7be 4215 b93e 30b1 d3be
000003e0: b01f 52be 7806 073d 4875 86be f56a 013e
000003f0: ca27 0c40 1922 22be 6fd1 96be 6f51 40be
0.64108866 0.34955278 -0.314603 -0.28454107 -1.5829394 0.16312748 0.020788187 0.41771224
1.8597682 0.10086341 -0.13401213 -0.07858817 -1.0481766 -0.53821003 -0.18499242 -0.005458396
0.86528724 0.37761396 -0.21241906 -0.21201003 1.4834169 0.39132956 -0.10335243 0.35796854
1.4292921 0.060149945 0.46094996 -0.4644929 0.016276179 -0.06332859 -0.19818726 0.4053249
-0.5024479 -6.107413e-05 -0.30824164 -0.47016975 -1.2130529 0.4121625 0.17361456 0.2285984
1.3674637 -0.14469305 0.11812813 -0.47653297 -1.5456163 -0.34117615 0.33245045 0.28957382
0.7295477 -0.0073118517 0.26441026 0.48965427 0.2304609 0.05423953 0.40630168 -0.28453684
1.4943091 -0.45484737 -0.31073684 -0.18806408 -0.3131445 0.31588814 -0.29958686 0.18516813
1.9235373 -0.00689093 0.03271099 0.107581556 0.7188688 0.5400451 -0.31482565 -0.115519345
1.641845 0.37068054 0.43173677 0.42316628 1.644027 -0.49962574 0.041095935 -0.33950302
0.33887854 0.49250472 0.4352494 -0.40723327 0.09358603 -0.084230006 -0.082280576 -0.22887844
0.18471807 -0.2835985 0.19833349 0.26195627 -0.33454955 0.25294182 -0.42247656 -0.32218975
0.24965751 0.104650676 -0.390042 -0.28790975 0.5266612 0.37397844 -0.2291273 -0.1174459
-0.47629905 -0.008987069 -0.37652946 -0.38567835 1.7550439 0.026223494 -0.20171432 0.28914568
0.80242676 0.5098828 0.5105009 -0.28726077 1.3400257 -0.020591054 0.054305267 0.11016779
1.4605405 -0.015529564 -0.2013886 0.29039213 -0.47962445 -0.29635334 -0.12516493 -0.24355668
0.74743783 -0.37795854 -0.15775265 0.12571926 -1.6119723 -0.02018411 0.33695838 -0.06777214
-1.2584146 0.027737182 0.11047968 0.31799927 2.051071 0.30774257 0.48918295 -0.03413784
-0.43808833 -0.22617178 0.33639622 0.0072171683 -0.9539892 -0.3321006 -0.45257092 -0.2694567
-0.11387821 0.25825578 0.2543733 -0.49727958 0.31189102 -0.39125472 -0.10570514 -0.20273632
0.122061335 -0.03806326 -0.49895698 -0.3795561 -0.07823974 0.0064660907 -0.22713745 0.1883496
0.7531326 -0.04221099 0.45293552 -0.20562792 1.3762877 0.19193894 -0.43328065 0.34586424
-1.5968559 -0.07049287 0.3909 -0.5116788 1.4697632 -0.017200978 0.39234567 0.13478863
1.8639634 0.16133739 -0.11219826 -0.10004258 -1.797624 0.26659384 0.39457458 0.33163324
-0.35268915 0.022299945 -0.35246706 -0.2752421 -0.29135275 0.17087251 -0.2979566 -0.010908604
0.0010682192 0.34957328 -0.39209706 -0.37021267 -1.9747766 0.35516667 -0.20107378 0.40428394
0.18080378 0.06331301 -0.003722012 -0.09884077 -1.3206129 -0.13056454 -0.0341366 0.037308432
-2.05635 0.020400306 0.39143437 -0.6808943 -1.5808846 0.5017168 0.17034233 0.028569601
-1.2712051 0.25017786 -0.375637 -0.16433102 -0.6572557 -0.06433597 -0.020154398 0.38836268
0.22301593 0.40257338 0.2930646 -0.34032068 1.8457756 -0.3450661 -0.19886556 0.15529655
1.0130663 0.42815423 -0.093707725 -0.028909132 0.25741178 -0.48354608 0.3614903 -0.4134612
-0.205199 0.032965153 -0.26261353 0.12638457 2.1899285 -0.1583332 -0.2945666 -0.18781064

net.0.bias f4 [128]
00000000: c9e1 5cbd 8bb8 c4bd 1854 ef3d 3bb9 4b3e
00000010: caf6 41be f917 dc3b 2759 8b3e 1801 b3bd
00000020: d714 783e 6400 e0bd f3e1 463e 7252 b5be
00000030: 7e6e babe fb6c 5dbe 56e5 e93e 1dce adbd
00000040: 23a7 6bbc bff2 53be 4ace eb3e 6459 e83e
00000050: 442c bbbe 1088 cfbe c165 bdbe 6ff2 ab3d
00000060: c482 02be 5b42 94be e0a3 37be 38bc 813d
00000070: 2347 54be 439b 723d 393f 9ebd b018 78be
00000080: b1c0 423d 1c53 da3e d8fa abbe 9134 c23a
00000090: a38f 4dbe 28c2 0b3f 620c fbbe d26a f5be
000000a0: 171f fe3e f8f7 a1be 141f a23d 94e8 373d
000000b0: a25d d2bd 6120 31be 1ca0 9a3e 503f 333d
000000c0: ce3e f9be d821 97be e1b8 14be 0634 883e
000000d0: 8eaa a5be b995 f43e 5850 03bd 8d0b adbb
000000e0: 3a67 d03e 2fd5 823e 7c7a d33e cc97 8e3e
000000f0: b5cc 06be 54d9 a9be c9eb 1b3c 4c27 c73e
00000100: dfeb c0bd 6fd6 e6be 6b7e 403e 6427 ee3e
00000110: 00c2 11be 5af9 d3be 1035 e8be 5e57 a13d
00000120: 564f 4e3d d846 81be 3cc1 b53d 6527 243e
00000130: 0cf4 c03e a754 bc3e ce82 35bd 7ebb e1be
00000140: d853 e7be 7974 dd3e 0784 8a3e 198a 3e3e
00000150: 266e e4be 41b0 f13e 2271 f33e 22f9 cf3e
00000160: 0883 bfbe d408 14be 3393 7fbe 4397 e23e
00000170: c200 4bbe 84c1 69be e3c8 6e3e e24c 2dbe
00000180: 57d4 5fbe 385b 233d 195c 7fbd 2a86 acbe
00000190: bd75 bf3e 99db 80be bef9 2d3e 9ba0 d13e
000001a0: b0f3 603e 5468 df3d 85bd d43e 9d26 373e
000001b0: 54e1 6cbe 75e0 f63e 054d 323e 0625 f8be
000001c0: c9d7 47be ce36 92be b10d d53e 001c a9bd
000001d0: b259 e9be e41f 8c3c 849a 823e e1cf 3b3e
000001e0: fcf1 823e aa99 8f3c 79d5 2a3e 5d75 2fbe
000001f0: 9cb6 42be b737 f4be ae40 c0be 73c9 413e
-0.053926263 -0.09605511 0.116859615 0.19894879 -0.18941799 0.006716725 0.27216455 -0.08740443
0.242267 -0.109375745 0.1942213 -0.35414463 -0.36412424 -0.21623604 0.45682782 -0.084865786
-0.01438311 -0.20698069 0.46055824 0.453807 -0.3655721 -0.40533495 -0.36991695 0.0839585
-0.12745196 -0.28956875 -0.17933607 0.06334728 -0.20730262 0.0592301 -0.077269025 -0.24228168
0.047547046 0.42641532 -0.33589816 0.0014816691 -0.20074324 0.54593134 -0.49032885 -0.4793306
0.49633095 -0.31634498 0.07916084 0.04489954 -0.10271765 -0.17297508 0.3020028 0.04376155
-0.4868073 -0.29518008 -0.1452365 0.2660219 -0.32356685 0.4777048 -0.032059044 -0.005280918
0.40703756 0.2555327 0.41304386 0.27850187 -0.13164027 -0.3317362 0.009516665 0.3889717
-0.09419989 -0.45085475 0.18798225 0.46514428 -0.14234161 -0.41401178 -0.45352983 0.07877992
0.05036863 -0.25249362 0.08874747 0.16030653 0.37686193 0.36783335 -0.0443142 -0.44088358
-0.45181155 0.43252924 0.27053854 0.18607368 -0.44615287 0.47204784 0.4754725 0.4061976
-0.37404656 -0.14456493 -0.24958496 0.4425603 -0.19824508 -0.22827727 0.2331882 -0.1692386
-0.21858345 0.039881915 -0.06234369 -0.3369611 0.37394515 -0.2516754 0.169898 0.40942845
0.2196796 0.10908571 0.41550842 0.17885824 -0.23132831 0.48218122 0.17412193 -0.48465747
-0.19515909 -0.28557438 0.41612008 -0.08257294 -0.45576245 0.01710505 0.2550851 0.18341018
0.25575244 0.017529327 0.16682996 -0.17134614 -0.19014972 -0.47698757 -0.37549347 0.18924503

net.2.weight f4 [128, 128]
00000000: 615f 143b 354e 30bd ec15 353e c3e2 38be
00000010: 0cd2 833d b925 e53d 87c4 c7bc 5859 873d
00000020: 74e0 98bd 68f2 3fbd a20c b03d 39dc 0cbe
00000030: 6f47 e93d c29c 50be aaee 8fbc 690d 55be
00000040: df95 2c3e 41f6 473e ec6b 0dbd a27e 8a3d
00000050: ee19 a83d 6c06 9dbc 10e3 843d 1c3c 9abd
00000060: 38d0 193c 5457 1f3e 80fe 46bc b74f 013e
00000070: a3c0 f83d 71bd e83d 32f9 0e3d a0b6 50bc
00000080: e4a4 8a3d e370 543b 2082 05be aa96 f43d
00000090: 19dd 05bd 4db4 26bd 699c 753d 78ea c3bc
000000a0: f93e 763d bc0c 71bd 00ee 303c 7bda 953d
000000b0: 02c6 7f3c f9dc 273e bcd0 e53c a86e d8bd
000000c0: 2a63 333d 3498 d83c 0253 c93d bac4 c8bd
000000d0: aa01 693d ebd6 723d 4aee c4bd 3f53 17be
000000e0: badf 573a 2823 9cbd bd14 b33c 9324 8b3d
000000f0: 4a1d 1c3d d81e fc3c f36a 1abe c785 c23d
00000100: ba1a 1ebe 7f60 35bd a852 873d d6df 903d
00000110: 6abc 2cbd 5eef 673d f0f6 37bc e12d 9cbb
00000120: feb1 973d ac16 a6bd 4bb6 443e 9881 483c
00000130: 19c0 ce3c 4dd1 b33d c5a5 e03d cd7e 9a3d
00000140: 4fcf 923d 5c7a 52bd 4edf 253d b18d a43b
00000150: 8e42 15bc c4dd ca3a 2dc7 8f3d 954b 88bd
00000160: 631d 823e d84b b5bd b3de 9cbc 4625 b63d
00000170: 4dc7 193d e0dc 033c 82ca 40bd 15db 833d
00000180: 9325 4cbd cba6 3fbe 163e a0bc efa5 fa3c
00000190: 230c 5cbd fba3 3fbb 5ed2 193e 046a f63c
000001a0: 84d9 623d 3b89 4e3d 2b0e dc3d c099 fbbd
000001b0: 18bf 1ebc 7d86 b7bb b1b2 f2bd bf44 6abd
000001c0: 47ad 143e 3299 2e3e 31d6 123d 6474 a43c
000001d0: 00bc 1cbd 15ba 123d 0df5 f73a 3a33 0cbe
000001e0: afc2 17bd b8b9 9b3d 30cc 84bc 786d ba3e
000001f0: 4f54 843c 62c4 4abe 65da 94bc e8d7 c03d
00000200: 62e2 8abd 5b73 cfbc 6818 c93c 0f8a a5bd
00000210: 0e78 463d 15b0 2d3d 93d0 533d 14d1 66bd
00000220: bae7 ae3d 336f 5cbd 2f49 ae3d f7b8 adbd
00000230: 603c a0bd e25c 5e3d 73ee b13b 1016 a73b
00000240: 47b0 4cbd a6dd 1bbd b087 efbc 7921 b7bd
00000250: 4319 803b 3c0f 803c 00f0 9cb8 c284 d63c
00000260: a7c2 ab3d 4885 c03c 4988 04bd 8a06 27bd
00000270: b64d 69bd f1cb 83bd a039 69bc 7810 80bc
00000280: be8a 1d3d c6fb 27bd 2d4f 903d e89c 84bd
00000290: 00b6 8339 2bac 9a3d c100 b43d 20b7 51bd
000002a0: 28c1 3e3c 580f 2b3c d4fc 33bd ee3e f6bc
000002b0: df7d bc3c 7505 80bd 13ac 2e3c 5d84 113d
000002c0: 2bab 0ebd b35c 963d 809b bebb eff3 133d
000002d0: bd43 b33d bc25 fabc 2778 413d 7933 e1bc
000002e0: 1976 8cbc 397f 97bc 5ea3 84bb ff8c 17bd
000002f0: dd49 a23c a044 5a3b 1e7e 653d a7b5 b2bc
00000300: a038 113c 534c 04bd 0e1d 9fbd 187f 023d
00000310: 884d 393c 98fd 10bd 6cd0 f4bc 9a9e 9c3c
00000320: e8ec 82bc 6295 6c3d 0036 5a3b cbaf ed3c
00000330: 765e 103d 5f0e d4bc d8b4 183d 8794 853d
00000340: 9048 853b 179f 613c a84d e6b8 c37c 683d
00000350: 72e7 1abd 395f 4dbd b63b 0f3d 606a a5bd
00000360: 80bd b93a 947f 26bd 2af5 6e3d cea2 afbd
00000370: 0e84 5b3d bb17 b33d 9e00 6e3c c30d b1bb
00000380: a8d1 b03d ff6d 25bd 7017 e8bb dd89 1ebd
00000390: 60f0 83bc 7d06 973c 62f4 ee3b 9f04 aabc
000003a0: dffb bbbd 4571 363b df8d c5bb 0bd8 1b3c
000003b0: c3b4 8a3d 456a a93d af20 5fbd 0099 b4bb
000003c0: 2820 14bd efd5 a6bd f269 8cbd cfe5 a93d
000003d0: 3617 533d 2d5b 3e3d e5a1 3b3d 9176 98bd
000003e0: 79e9 e53b 4921 a23d 40c4 58bd ff10 9f3d
000003f0: b44b b83c ad37 7d3d c817 1bbd f09c 163d
0.0022639858 -0.043043334 0.17684144 -0.18055253 0.06436548 0.11188836 -0.024385704 0.06608838
-0.07464686 -0.046862036 0.085961595 -0.13755883 0.11390578 -0.20372298 -0.017569859 -0.20805897
0.16854046 0.19527532 -0.03452675 0.067624345 0.08208071 -0.019168101 0.06488621 -0.07530996
0.009388022 0.15560657 -0.0121456385 0.12628065 0.121461175 0.11364258 0.03490562 -0.012738854
0.06769732 0.0032415919 -0.1303792 0.119427994 -0.03268156 -0.040699292 0.059963617 -0.023915514
0.06011865 -0.058850035 0.010798931 0.073170625 0.015611174 0.16392888 0.028053634 -0.10567981
0.043795742 0.026439764 0.098302856 -0.098031476 0.056886353 0.059286993 -0.096157625 -0.1477785
0.0008234937 -0.07623893 0.021860475 0.06794085 0.03811387 0.030776426 -0.1507986 0.09498172
-0.15439883 -0.04428148 0.06607562 0.07073943 -0.042171873 0.056624763 -0.011228308 -0.0047662114
0.07406996 -0.08109793 0.19210164 0.012237929 0.025238084 0.08780155 0.10969118 0.075437166
0.07168447 -0.051386222 0.040496163 0.0050217737 -0.009110106 0.0015477468 0.07020412 -0.06655041
0.25413045 -0.08852357 -0.01914916 0.08893828 0.037543584 0.008048266 -0.047068126 0.06438271
-0.04984052 -0.1871597 -0.019560855 0.030596701 -0.053722512 -0.0029242027 0.15021655 0.030079849
0.05538322 0.050423842 0.1074489 -0.12285185 -0.009689115 -0.005600749 -0.11850489 -0.057194468
0.14519225 0.17050627 0.0358488 0.02007503 -0.03826523 0.035821993 0.0018917635 -0.13691416
-0.0370509 0.076037824 -0.016210645 0.36411643 0.016153483 -0.19801477 -0.018170545 0.09416181
-0.0678146 -0.02532356 0.02454777 -0.08082973 0.048454337 0.042404253 0.051712584 -0.056351736
0.08540292 -0.053816985 0.085100524 -0.08482545 -0.078240156 0.0542878 0.0054300367 0.0050990656
-0.0499728 -0.038053177 -0.029239506 -0.08941931 0.0039092614 0.015632264 -7.483363e-05 0.02618635
0.08386736 0.023501053 -0.032356534 -0.04077772 -0.056958877 -0.06435383 -0.01423493 -0.015632853
0.038462393 -0.041011594 0.070463516 -0.0647524 0.00025121868 0.0755237 0.08789206 -0.051200032
0.011642732 0.01044067 -0.043942288 -0.030059304 0.023009239 -0.06251041 0.010661143 0.035526622
-0.034831207 0.073419 -0.005816877 0.036121305 0.087531544 -0.030535571 0.047233727 -0.027490364
-0.017146157 -0.018493282 -0.004047795 -0.0369997 0.019810611 0.0033305064 0.056028478 -0.021815134
0.008863598 -0.03229935 -0.077692136 0.031859487 0.011309989 -0.035398096 -0.02988454 0.019118596
-0.015982106 0.05775965 0.0033296347 0.029014489 0.035246335 -0.025885759 0.03728184 0.0652247
0.004067488 0.01377084 -0.00010981719 0.056759607 -0.03781838 -0.05013964 0.034969054 -0.0807693
0.0014170855 -0.04064901 0.058339275 -0.085759744 0.053592734 0.087447606 0.014526514 -0.005403252
0.08633739 -0.040388104 -0.007082872 -0.038705695 -0.01610583 0.018435711 0.0072923163 -0.020754157
-0.091789 0.002783851 -0.0060288752 0.009511958 0.06772759 0.082722224 -0.05447453 -0.005511403
-0.03616348 -0.08146273 -0.06856145 0.08295786 0.051535808 0.04647367 0.04580869 -0.0744449
0.0070163575 0.07916505 -0.052921534 0.077669136 0.022497036 0.061820675 -0.037864476 0.03677076

net.2.bias f4 [128]
00000000: b9fc 8fbc 4683 a43d e0f4 3fbd 285f 3f3c
00000010: 9f86 a43c 8044 a2bd 0b10 5d3d 3f93 833d
00000020: 51a7 7d3d c8bf 5b3d 8a25 363d 6ab5 5bbd
00000030: 34e2 6d3d 2520 08bd 3801 c83c d08f afbd
00000040: fff3 203c 31ef 40bd 7303 39bd a3d7 86bd
00000050: 893c 34bc aae2 77bd 7467 62bd ff7d b4bd
00000060: e190 693d c79d 843d 4824 5dbc f24c 473d
00000070: 3055 a43c 7544 4bbd 6400 76bc 272b 0f3d
00000080: 778f 383d 40d9 94bb 1092 59bc dfd2 5f3d
00000090: c816 abbc 96ef e93b f34d 67bd c5d0 9e3d
000000a0: c914 fcba c407 60bd e79d 95bd 283a 05bc
000000b0: d03b e23c ab51 553d 58db 91bc 75bb 3cbd
000000c0: 883c afbd 89a4 21bc b88e 973d 8039 b0bd
000000d0: 715c b4bc 2be2 753d fd55 843d e26e 6ebd
000000e0: 4627 e0bd 1787 f43d bc5c 42bd e250 6e3c
000000f0: 16cd b9bd 32b1 e53c 6103 d0bb 518b edbc
00000100: 1a36 44bd b498 883d 3cb1 10bd 170d 19bd
00000110: 955e 60bd a1a2 6c3d c125 d43b d0c4 65bc
00000120: 0b61 3f3d e607 753d b58e 99bd e2e1 5d3d
00000130: 80d2 9a3d 3afc 543d fe3b 11bd f36b 7abd
00000140: 1b1a 463c e24e 813d a8ce c3bd 5816 9fbd
00000150: ae68 c0bc 8484 133d 251e a7bd 1268 19bd
00000160: de4c fe3c 143a b8ba 3fae adbd 3398 01bd
00000170: 4b47 1fbd 53eb 653d 63a3 b4bd 3e2b 583c
00000180: e79a d1bc 02f8 523d 1842 55bd 3787 6d3d
00000190: c096 9eba 0459 8c3d fae4 b6bd 7591 a4bc
000001a0: 214c e2bc 9395 823d aad7 95bd 53ef 863d
000001b0: 9a7e 7ebd 3064 963c d6de d3bc db53 9bbd
000001c0: e01c ba3b 49e6 a4bd d440 a33c 3bc0 913d
000001d0: f02c 0abc e24d 41bd b7ac 5d3d d0be 193c
000001e0: 4f4e 283c 112e 543d 581f b3bd 7e25 3abd
000001f0: 675f f13c 3f69 4b3d f326 2fbd 846b 84bd
-0.017576562 0.08032851 -0.04686439 0.011680402 0.020083724 -0.079232216 0.053970378 0.06424569
0.061927143 0.053649694 0.044469394 -0.053639807 0.058077052 -0.03323378 0.024414644 -0.08572352
0.009823798 -0.04710311 -0.045169305 -0.06584098 -0.011000761 -0.060518898 -0.05527444 -0.08813094
0.057022933 0.06475406 -0.01349742 0.048657365 0.020060152 -0.049625833 -0.015014742 0.034953263
0.045058694 -0.0045425 -0.013279453 0.05464446 -0.020884886 0.0071391566 -0.056470823 0.077546634
-0.0019232269 -0.054694906 -0.07305508 -0.008131541 0.027616411 0.052079838 -0.017804787 -0.04607721
-0.08556467 -0.009865888 0.07400268 -0.08604717 -0.022016736 0.060030144 0.064617135 -0.058211215
-0.10944991 0.11939829 -0.04745172 0.014545651 -0.0907232 0.028038595 -0.006348059 -0.028997095
-0.047903158 0.06669751 -0.035325274 -0.037366 -0.0547777 0.057772283 0.006474227 -0.014023975
0.046723407 0.059821986 -0.07497922 0.054170497 0.07559681 0.051998354 -0.035457604 -0.061138105
0.012091185 0.06313874 -0.09560901 -0.077679336 -0.023487415 0.03601505 -0.081600465 -0.037452765
0.031042513 -0.0014055395 -0.084805004 -0.03163929 -0.03888635 0.056132626 -0.08820226 0.0131939035
-0.025586559 0.05150605 -0.052064985 0.05799028 -0.001209937 0.06852916 -0.089303926 -0.02008889
-0.027624192 0.06376185 -0.07316525 0.06588616 -0.062132455 0.01835832 -0.025863092 -0.075843535
0.0056797117 -0.08051736 0.019928373 0.07116743 -0.0084335655 -0.047193415 0.05411979 0.009383872
0.0102725765 0.051801745 -0.08746213 -0.04544591 0.029464437 0.049660917 -0.042761754 -0.064658195

net.4.weight f4 [15, 128]
00000000: 7dec 183e 0283 c6bc 630d c13d a29b 4c3d
00000010: 2ab3 7dbb e10f 41bb 574e 473d dfb6 923d
00000020: e0fc 9b3d 0a4e f43d 7a69 393d b5de b23d
00000030: 26b7 fa3d 5e5e 2f3d 0d92 9d3d f29f 083e
00000040: 5e94 97bd 4f13 053e 203b 673e f256 423d
00000050: 7405 a9bd 910b e93d e4bd 813c 38cc c6bc
00000060: 7d30 383d 8694 103d ecc2 a33c 7719 713d
00000070: 9ca6 ae3c 6ca7 acbb c048 8d3a 848e 943d
00000080: 5587 99be 2057 23bc b21f 473d 6323 943d
00000090: 7f96 2abe 2381 f83d c4f0 adbd b954 48be
000000a0: 3f84 0bbe fbc5 9b3d 9689 593d a648 753d
000000b0: 9268 a7bc 18a5 693d efcd a93d 2099 f53b
000000c0: b414 a33c 0a3f 9cbc 83dc 063d 1ad0 273d
000000d0: e875 d93d 2eb5 653d 4929 28bd fcd7 2bbd
000000e0: 94af ee3d 806f 58be 014d 2e3d 0541 c53c
000000f0: 5028 e9bb c51f ce3c 1faa f23d f253 70bd
00000100: a687 ecbc 817c 0fbe ee30 1a3d 4990 c53d
00000110: 26c8 9bbb c6ab 773b 5f58 b83c 24ab 8dbd
00000120: 5422 0abe 9dbe 54bd 93d4 f73d 64a1 e03c
00000130: dd62 27be da16 073e d2af 043e ff74 283e
00000140: 3827 d9bd f7bd ce3b 661c 683e 9b41 0e3e
00000150: 695c 893d b1e8 31bd d867 033d b35d 973e
00000160: 1257 a9bd 666b 18be dfa2 993e 5bdd 53bd
00000170: 135c 9f3c 6319 17be 0c7e 9dbd dd21 55bd
00000180: dd13 e73c 399e 66bc db4f 473d c4d9 38bd
00000190: 9435 0d3e af7d 51be b694 903c 2fcc 38bc
000001a0: 92fe 8bbe 44cb 17be 7172 153e 0299 6d3d
000001b0: b79e 08be 23bb 4c3e 75be 2f3e 3e81 473d
000001c0: a5a1 af3d feff 45bd 8850 6ebd 4166 63bd
000001d0: 8051 5abc 6db5 1dbc c362 b33d 63a9 3bbd
000001e0: ec27 b8bc d39d 733d f046 7f3c 8052 c73c
000001f0: f538 103d 6567 83be b7a4 a13d f3d1 b33d
00000200: f1f6 653d 8ea5 76bc 91b8 083e d039 40bd
00000210: 4a1a a6bd ace6 acbc 0c06 d23d 044a b03d
00000220: 4502 bb3d 22b8 b43c d0d3 d33b 9001 823b
00000230: 1cd8 023e 31d3 59bd 9961 853d 7ed4 1b3e
00000240: 0256 b5bd 051e 973c 94ef 5c3e 7a1f 48bd
00000250: 06d1 80bd 7cb5 04bc 4827 a63c 21d5 b03d
00000260: 3f10 fa3d c89d 243b 2098 10bc 9b8d 1e3d
00000270: 7524 1ebd 06f3 b4bc 789b c03c 8774 12bd
00000280: 6d2a aebe 9899 413c 530d ac3d 03b4 033d
00000290: 7b6a 34be 940c 18bb 970c 983d e427 3cbe
000002a0: 665d e3bc 68a0 433c e601 b23c 5d1b 98bd
000002b0: 4fe9 00be a7d5 9a3d e8f1 68bc 5e25 6c3d
000002c0: 4055 07bd 6c87 e4bc 563e 11bb f5ae 6d3d
000002d0: 7d6d 173e 5d30 a13c eb7b 37bd 346b 093d
000002e0: a6c3 053e babf f8bd 424a 213d 9557 9f3d
000002f0: 3eed 9b3d c3c4 cdbc 36b1 fb3d 7e52 afbc
00000300: 65a7 abbd 0646 ccbd 50c7 42bd 8c50 893d
00000310: 7312 0b3e 6f6a c6bc dbe4 0b3e 1872 ac3c
00000320: de9e 49be 4ea9 0b3d f152 793c 34d9 c43c
00000330: 828e 83be 9bda 253e a399 a43d 9766 5d3e
00000340: 71d5 0bbe 0675 563c 9b17 7f3e fc44 bd3d
00000350: 7203 473d f8a6 4abc fd81 4b3d f3b9 523e
00000360: 77ca 94bd 49c1 1fbe 728e 4d3e 68ab 84bc
00000370: 5927 ad3d c081 13be a818 003c 002c 07bd
00000380: b505 afbb 321d 4fbd 5ae2 38bd 9b7c efbd
00000390: 4e39 ad3c 95e1 31be 64db 4cbd 621d 303d
000003a0: 6750 56be f6eb f9bd 5209 ec3d b081 92bd
000003b0: 4b2a efbd 4cb2 923e 34d8 5a3d 4782 9a3d
000003c0: 236c a23d 7b0b a83c 67a8 31bd d5be 643a
000003d0: 4cb0 963c f221 223d 7380 1c3d 39de b13d
000003e0: 198a 6e3d b67b bb3d 4dde 06bd 72b3 edbc
000003f0: 46c5 e63d 3a94 81be c940 233e 2c52 1fbd
0.14933963 -0.024232391 0.094263814 0.04995311 -0.0038711526 -0.0029458927 0.048658695 0.07163786
0.076165915 0.11928947 0.045266606 0.08733884 0.12241964 0.042814605 0.076938726 0.13342264
-0.07401346 0.12995647 0.22581148 0.0474462 -0.08252993 0.11379159 0.015837617 -0.024267301
0.044968117 0.035297893 0.019990407 0.058862176 0.02131968 -0.0052689817 0.0010779127 0.07253745
-0.29986063 -0.009969503 0.04861421 0.07233312 -0.16658972 0.12134006 -0.08493188 -0.19563569
-0.13624667 0.07606121 0.053109728 0.059883736 -0.020435605 0.05704221 0.08291232 0.0074950606
0.019907333 -0.019073028 0.03292514 0.040969945 0.10618192 0.05608099 -0.041054998 -0.041954026
0.116545826 -0.21136284 0.042553905 0.024078855 -0.0071154013 0.025161633 0.11848854 -0.058673806
-0.028873276 -0.14012338 0.03764432 0.09646661 -0.004754084 0.0037791594 0.022503076 -0.06917408
-0.13489658 -0.051939595 0.12101092 0.027420707 -0.16346307 0.13192311 0.12957695 0.1645088
-0.106031835 0.0063092667 0.22667083 0.13892214 0.06707079 -0.043434802 0.032081455 0.29563674
-0.082685605 -0.14884719 0.30007073 -0.051724773 0.019453084 -0.14755778 -0.07690057 -0.052034248
0.028207714 -0.014075809 0.04866014 -0.045129552 0.1378997 -0.204581 0.017649036 -0.01127915
-0.2734266 -0.14823633 0.14594437 0.058007248 -0.13341795 0.19993262 0.17162497 0.04870724
0.08575753 -0.048339836 -0.05818227 -0.05551744 -0.013325095 -0.009625775 0.08759072 -0.045815837
-0.022479974 0.059476685 0.015580878 0.024331331 0.03521057 -0.2566482 0.07892745 0.08780279
0.056143705 -0.01505412 0.13351656 -0.046930134 -0.08110483 -0.021106087 0.102550596 0.08607867
0.09131292 0.022060458 0.006464459 0.0039674714 0.12777752 -0.053179923 0.06512756 0.15217778
-0.08854295 0.018446932 0.21575767 -0.048858143 -0.06289868 -0.00809991 0.020282403 0.08634401
0.1221013 0.002511846 -0.008825332 0.038709264 -0.038608987 -0.022088539 0.023511633 -0.03575566
-0.34016743 0.011816405 0.08400979 0.032154094 -0.17618744 -0.0023200857 0.07424276 -0.18374592
-0.027754497 0.011940099 0.02172942 -0.07427094 -0.12589 0.07560282 -0.014217831 0.057652824
-0.033040285 -0.027896605 -0.00221624 0.05802818 0.1478786 0.019676382 -0.04479591 0.033549502
0.13062915 -0.12145944 0.03937746 0.07780377 0.0761361 -0.025118237 0.1228966 -0.02140164
-0.08381537 -0.099742934 -0.04755336 0.06704816 0.13581257 -0.024220673 0.1366152 0.021050498
-0.1968951 0.03409701 0.015217529 0.024029352 -0.25694662 0.16196673 0.080371164 0.21621166
-0.1365564 0.013089424 0.24911349 0.09241673 0.04858727 -0.01236891 0.049684513 0.20578746
-0.072651796 -0.15601076 0.2007387 -0.016195014 0.084547706 -0.14404964 0.0078183785 -0.033000946
-0.0053412565 -0.050564952 -0.04513774 -0.116936885 0.021145489 -0.17371209 -0.050013915 0.04299677
-0.20929109 -0.12203209 0.11525215 -0.07153642 -0.116779886 0.28651655 0.053428844 0.0754438
0.07930782 0.020513287 -0.04337349 0.0008725946 0.018394612 0.039583154 0.038208436 0.08684964
0.05823717 0.09154455 -0.032926846 -0.02901623 0.11268096 -0.253084 0.15942682 -0.038896725

net.4.bias f4 [15]
00000000: 82c1 563d abbf be3d a270 82bd aaf3 6bbd
00000010: e3da 81bd 01c2 863d 9f9d 1cbd 4a51 5c3d
00000020: 1ac1 adbc c360 503d 1d25 9d3b 9c48 a8bc
00000030: 4670 8a3d 69ad a23d ca2f dabc
0.052430637 0.093139015 -0.06369139 -0.057605423 -0.063405775 0.06579972 -0.038236257 0.05378846
-0.021210242 0.05087353 0.004795684 -0.020542435 0.06759696 0.079432316 -0.026634116

net.0.weight f4 [128, 4]
00000000: 9f0a 243f 91e5 b23e 7413 a1be 35ea 91be
00000010: ce7c cabf e07f 273e 655c ac3c 57ed d53e
00000020: b0e5 ed3f 9795 cd3d 4e9c 09be a06e a2bd
00000030: cc22 86bf f2ea 09bf 830f 3ebe 89ba bcbb
00000040: 936c 5d3f aa49 c13e d96e 59be 1283 59be
00000050: 0abe bd3f ab28 c83e 70d0 d3bd 0639 b73e
00000060: 2bd0 b63f 4395 733d 5dc1 eb3e af02 eebe
00000070: 45bb 7e3c 99bc 82bd 9a44 4bbe 4772 cf3e
00000080: e38f 00bf 60e2 18b9 e00a 9ebe 69d9 f0be
00000090: c323 9bbf ea34 d33e b7d5 313e c019 6a3e
000000a0: 54ec ae3f 7181 14be ea7d f13d 413b f4be
000000b0: 7ab3 c5bf 36db aebe 002a aa3e f12e 943e
000000c0: f499 3a3f 9fcd f6bb 5745 873e 80a7 fa3e
000000d0: b4f6 6c3e 38f2 603d c488 d03e 0d38 91be
000000e0: 8921 bf3f ba25 e9be f63c 9fbe 06c9 40be
000000f0: 03eb 9fbe cbdd a13e 005d 99be 8dbf 3d3e
00000100: d413 f63f dda2 eebb 53d7 053d 9228 dc3d
00000110: ed07 383f bf32 0a3f 5735 a1be 8258 edbd
00000120: b606 d23f 1483 bd3e 42c5 dc3e 1771 d83e
00000130: 864c d23f f202 00bf cc00 273d a1f8 adbe
00000140: b606 ad3e d7dd fb3e 887f de3e ebf6 d0be
00000150: 08aa bf3d c880 acbd b882 a8bd 1c5f 6abe
00000160: bfbf 3b3e c2f6 91be d91f 493e d528 853e
00000170: f722 abbe 0a61 813e 9063 d8be f70e a5be
00000180: 38a6 7f3e 1853 d63d 96b3 c7be e868 93be
00000190: efad 063f c653 bf3e dd9c 6abe 16a9 f1bd
000001a0: 78dd f3be 803e 13bc 78c8 c0be a277 c5be
000001b0: ec81 e03f 7ce9 d33c 65a0 4ebe 4201 943e
000001c0: 973d 4d3f 3c6b 023f 31a5 023f 4d63 93be
000001d0: 5662 ab3f 3b50 acbc 97d9 5d3d b04d e13d
000001e0: fddb ba3f 0670 81bc 865c 4ebe e7a3 943e
000001f0: 5691 f5be a0bb 97be 3c2b 00be ec66 79be
00000200: aa2a 3f3f aa73 c1be b573 21be b8d9 003e
00000210: ec30 cebf 84e0 a1bc 7188 ac3e d87d 8abd
00000220: f3f2 a0bf ec77 df3c 3f02 e23d 1cb1 a23e
00000230: a833 0340 965e 9d3e 4f6a fa3e 5c15 0cbd
00000240: 3d1f e1be ac3e 69be f348 ab3e e240 ae3b
00000250: 130c 74bf 1619 aabe 79d7 e7be c312 8abe
00000260: fb38 e9bd 1a3a 843e 383d 823e 6e9b febe
00000270: 2eb0 9f3e 8a52 c8be f07b d8bd 1c9a 4fbe
00000280: 4767 fb3d 789f 1abd 2f83 ffbe c22d c2be
00000290: 283c a0bd 80e1 d33b b896 68be b8de 403e
000002a0: 5599 403f a73e 2ebd c8d1 e73e 5c99 52be
000002b0: 6d0b b03f 3b2d 443e b9ea ddbe d304 b13e
000002c0: 065e ccbf 4112 91bd 69ee c73e 9723 03bf
000002d0: 5400 bc3f c0bd 92bc 32c1 c83e 71dc 093e
000002e0: 4375 ee3f d6d4 243e 830d e6bd bf09 cdbd
000002f0: b2f8 e5bf b3ab 883e 7bff c93e 06cc a93e
00000300: ac93 b4be 60ae b63c 9076 b4be 88ec 8cbe
00000310: 302c 95be 34f9 2e3e c48d 98be 00ba 32bc
00000320: c380 c039 7bb6 b23e e5fb c8be 7feb bdbe
00000330: 33a3 fcbf f40f b63e 0fcf 4dbe 8b0e cf3e
00000340: a024 393e 40aa 813d 00ed 73bb 086d cabd
00000350: 21e8 a8bf c357 05be 94e2 0bbd 400c 193d
00000360: d398 03c0 71ba a43c fa37 c83e 3b65 2ebf
00000370: cc3d cabf 6289 003f e173 2e3e c2e9 e93c
00000380: 4995 a2bf 2e44 803e 0d56 c0be ab38 28be
00000390: a10e 28bf 165f 83bd fdeb a6bc cec4 c63e
000003a0: fec5 633e d5dd cd3e d275 953e 5990 aebe
000003b0: 7f21 ec3f 4bdd b0be 0ebb 4bbe 85f1 1e3e
000003c0: 6b92 813f 50ea da3e 768d c1bd b45d f1bc
000003d0: 7acb 833e 5a93 f7be 4215 b93e 30b1 d3be
000003e0: fbff 50be e0dc 083d f591 86be 4f38 013e
000003f0: 5016 0c40 5691 22be 7dda 96be a460 40be
0.64078707 0.3494077 -0.31460154 -0.28498998 -1.5819337 0.16357374 0.02104015 0.41782638
1.858572 0.100382976 -0.13438532 -0.07931256 -1.0479369 -0.53874123 -0.18560605 -0.0057595414
0.86493796 0.37751514 -0.21233691 -0.21241406 1.482362 0.39093527 -0.10342491 0.35785693
1.4282278 0.05946852 0.46045962 -0.46486422 0.015547578 -0.063836284 -0.19850388 0.40516874
-0.50219554 -0.00014580181 -0.30867672 -0.4704087 -1.2120289 0.41251308 0.17366682 0.22861385
1.3665872 -0.14502503 0.11791594 -0.47701457 -1.5445397 -0.3415162 0.33235168 0.28942063
0.72891164 -0.007531836 0.2642009 0.48955917 0.23140985 0.054918498 0.40729344 -0.28363076
1.4932109 -0.45536596 -0.31101197 -0.18826684 -0.31233987 0.31614527 -0.29953766 0.18530102
1.9224801 -0.0072825984 0.032676052 0.10749926 0.71887094 0.5398368 -0.31486008 -0.11589147
1.6408298 0.37014067 0.43119246 0.4227378 1.6429603 -0.50004494 0.040772244 -0.3397875
0.33794183 0.49192688 0.43456674 -0.40813383 0.09358603 -0.084230006 -0.082280576 -0.22887844
0.18334864 -0.28508574 0.19641055 0.26007715 -0.33425114 0.25269347 -0.4226346 -0.3223798
0.24965751 0.104650676 -0.390042 -0.28790975 0.5260915 0.37368602 -0.22911401 -0.11799829
-0.47629905 -0.008987069 -0.37652946 -0.38567835 1.7539649 0.02586817 -0.20178373 0.2890721
0.80172104 0.50944877 0.5103331 -0.28786698 1.3389385 -0.02103435 0.054162588 0.11001146
1.4598385 -0.015800487 -0.20152482 0.29031298 -0.47962445 -0.29635334 -0.12516493 -0.24355668
0.74674475 -0.37783557 -0.15766795 0.12583053 -1.610868 -0.019760378 0.33697847 -0.06762284
-1.2574142 0.027278863 0.11035585 0.3177575 2.0500278 0.30736226 0.48909232 -0.034200057
-0.43969145 -0.22777814 0.33454093 0.005317793 -0.95330924 -0.33222264 -0.4528158 -0.2696744
-0.11387821 0.25825578 0.2543733 -0.49727958 0.31189102 -0.39125472 -0.10570514 -0.20273632
0.12275558 -0.037749738 -0.49904773 -0.37925535 -0.07823974 0.0064660907 -0.22713745 0.1883496
0.75233966 -0.04254022 0.45277238 -0.20566314 1.3753487 0.19157879 -0.43343142 0.34573993
-1.5966194 -0.0708356 0.3904908 -0.5122618 1.46876 -0.017912745 0.39209896 0.13462998
1.8629535 0.16096815 -0.11233046 -0.100116245 -1.7966521 0.26693496 0.3945273 0.3316347
-0.35268915 0.022299945 -0.35246706 -0.2752421 -0.29135275 0.17087251 -0.2979566 -0.010908604
0.0003671703 0.34904847 -0.3925468 -0.37093732 -1.9737304 0.35559046 -0.20098518 0.40440783
0.18080378 0.06331301 -0.003722012 -0.09884077 -1.319584 -0.1302176 -0.03415163 0.037365198
-2.0562027 0.020108433 0.39105207 -0.68123215 -1.5800109 0.5020963 0.17036392 0.028553847
-1.2701808 0.25052017 -0.37565652 -0.16427867 -0.6564732 -0.064146206 -0.0203762 0.38822025
0.22243497 0.40208307 0.29191452 -0.34094504 1.8447722 -0.34543833 -0.19895574 0.1552182
1.0122808 0.4275689 -0.0945081 -0.029463626 0.25741178 -0.48354608 0.3614903 -0.4134612
-0.20410149 0.033413768 -0.2628323 0.12619136 2.1888618 -0.15875754 -0.29463568 -0.18786865

net.0.bias f4 [128]
00000000: d824 5dbd ac34 c4bd 3a90 ee3d 6c30 4b3e
00000010: 6003 42be a676 d83b 501a 8b3e a998 b3bd
00000020: eda6 773e 9507 e0bd 14ac 463e 9d66 b5be
00000030: 6285 babe 7d71 5cbe c0ba e93e 3e61 adbd
00000040: 2278 6cbc 9107 54be 1889 eb3e bf2d e83e
00000050: 6e83 bbbe 1088 cfbe 0b5c bebe 89b0 ab3d
00000060: c482 02be d368 94be e0a3 37be 238f 813d
00000070: e552 54be 77f6 713d d0bf 9ebd b018 78be
00000080: b391 423d 2159 da3e 461a acbe b902 b63a
00000090: 1c4b 4fbe 3eb2 0b3f 620c fbbe d26a f5be
000000a0: ea0a fe3e f8f7 a1be dde2 a13d 59ca 363d
000000b0: 9456 d3bd b95b 31be d28e 9a3e 8c13 333d
000000c0: ce3e f9be d821 97be 5442 15be af3f 883e
000000d0: 8eaa a5be 1692 f43e 7181 05bd 40f6 aebb
000000e0: 4368 d03e e7b4 823e 58f3 d23e ea88 8e3e
000000f0: 929b 07be 54d9 a9be 3743 1b3c b118 c73e
00000100: 31b2 c0bd 12fa e6be 8059 403e a40b ee3e
00000110: 00c2 11be 5af9 d3be 1035 e8be f9f2 a03d
00000120: 92c5 4c3d d846 81be ec4b b53d 8b0f 243e
00000130: 19d2 c03e cb45 bc3e c2c2 35bd 7ebb e1be
00000140: d853 e7be b14d dd3e c487 8a3e 7f76 3e3e
00000150: a9b0 e4be 3cb0 f13e a869 f33e 50f0 cf3e
00000160: 26df bfbe c37e 13be d4f4 7fbe 8169 e23e
00000170: 093e 4bbe 84c1 69be 7c93 6e3e 7e2d 2dbe
00000180: 71ac 5fbe bc06 233d 7d8e 80bd c4d9 acbe
00000190: ee66 bf3e a8c8 80be d1e3 2d3e 926a d13e
000001a0: e9c0 603e 1086 df3d ad91 d43e b936 373e
000001b0: 54e1 6cbe b093 f63e ea29 323e ed22 f8be
000001c0: 1eca 47be 9641 92be a4e9 d43e 001c a9bd
000001d0: b259 e9be a25e 8c3c d67e 823e a8db 3b3e
000001e0: 7df2 823e 28f4 8d3c 919e 2a3e 15cd 2fbe
000001f0: f519 43be 5835 f4be ae40 c0be 20a3 413e
-0.053990215 -0.09580359 0.11648603 0.1984269 -0.189466 0.006605941 0.27168512 -0.08769352
0.24184771 -0.10938946 0.1940158 -0.3542985 -0.36429888 -0.21527667 0.4565029 -0.08465813
-0.014432939 -0.20706011 0.46003032 0.45347401 -0.3662371 -0.40533495 -0.37179598 0.08383281
-0.12745196 -0.28986225 -0.17933607 0.06326129 -0.20734747 0.059072938 -0.07751429 -0.24228168
0.04750223 0.42646125 -0.33613795 0.001388631 -0.20243496 0.5456885 -0.49032885 -0.4793306
0.49617702 -0.31634498 0.07904599 0.044626568 -0.10319248 -0.17320146 0.30187088 0.043719813
-0.4868073 -0.29518008 -0.14576083 0.26611087 -0.32356685 0.47767705 -0.032594148 -0.005339414
0.40704545 0.25528643 0.41201282 0.27838832 -0.13242939 -0.3317362 0.0094764745 0.38886026
-0.09408987 -0.45112664 0.18784142 0.46493256 -0.14234161 -0.41401178 -0.45352983 0.07858843
0.049993105 -0.25249362 0.088523716 0.16021554 0.37660292 0.36771998 -0.04437519 -0.44088358
-0.45181155 0.43223336 0.27056706 0.1859989 -0.4466603 0.4720477 0.47541547 0.4061303
-0.37474936 -0.14403825 -0.24995738 0.44221118 -0.19847883 -0.22827727 0.23298448 -0.16911885
-0.21843125 0.039801344 -0.062771775 -0.33759892 0.37383217 -0.2515309 0.16981436 0.4090162
0.2194859 0.10914242 0.41517392 0.17891969 -0.23132831 0.48159552 0.17398801 -0.48464146
-0.19510695 -0.28565663 0.41584504 -0.08257294 -0.45576245 0.017134968 0.25487393 0.18345511
0.2557563 0.017328337 0.16662051 -0.17168076 -0.1905287 -0.47696948 -0.37549347 0.18909883

net.2.weight f4 [128, 128]
00000000: 3f47 083b 2cee 2dbd 232e 343e b77f 38be
00000010: be4f 833d 5aff e43d 2cdf cabc cd6b 883d
00000020: 278f 99bd dda6 3ebd 1a40 af3d 111b 0cbe
00000030: d75c ea3d f316 51be 05eb 92bc 5f66 55be
00000040: 1a2b 2c3e 568b 473e 3951 0dbd 91e1 893d
00000050: c935 a73d 6c06 9dbc 5359 813d 25ab 9abd
00000060: 38d0 193c b50e 1f3e 80fe 46bc 9f35 013e
00000070: c35a f73d d47c e83d a08f 0f3d a0b6 50bc
00000080: 1a4f 8a3d 1af6 5d3b 7048 04be 2710 f43d
00000090: f8c6 0bbd af46 27bd 699c 753d 78ea c3bc
000000a0: 71a5 743d bc0c 71bd 3995 2d3c 5dc6 953d
000000b0: 94c9 813c 26cd 273e 3ec1 e23c 10b3 d7bd
000000c0: 2a63 333d 3498 d83c 4616 c93d 222c c8bd
000000d0: aa01 693d 2286 733d bfe5 c3bd 6730 17be
000000e0: 98e0 283a 1093 9bbd 9e64 b13c ba03 8b3d
000000f0: ab8d 1a3d d81e fc3c a1bc 1abe ca67 c13d
00000100: a23a 1ebe 9977 32bd 3f0b 873d 7147 903d
00000110: 6abc 2cbd 5eef 673d f0f6 37bc c0f0 a7bb
00000120: fd8b 973d ac16 a6bd 9d26 443e e8da 433c
00000130: 8424 cf3c 2ed3 b23d d2d5 e03d cd7e 9a3d
00000140: 4fcf 923d b1eb 52bd aa4b 233d 6fd1 993b
00000150: a6d0 13bc 0a77 ea3a a3f4 8f3d 5241 88bd
00000160: fd03 823e dcc2 b5bd 0930 a0bc 9d7f b53d
00000170: a362 183d e0dc 033c b8c8 40bd 37f4 843d
00000180: edf5 4abd d96c 3fbe 4ea8 a3bc a806 f53c
00000190: d900 5cbd 907a 16bb 0109 193e 4c56 f23c
000001a0: 4154 633d ac11 513d a71f db3d b6cc fabd
000001b0: 18bf 1ebc bb6a bfbb 1137 f1bd b16c 6abd
000001c0: 21ff 143e 1abf 2e3e b0e7 103d 6474 a43c
000001d0: 00bc 1cbd 652f 153d c67c c63a 91cd 0bbe
000001e0: 3ff9 15bd 74a3 9b3d 2da7 86bc f9f8 b93e
000001f0: 6aa7 893c 1fea 4abe 65da 94bc 2bc8 c03d
00000200: 62e2 8abd 5b73 cfbc 6818 c93c 0f8a a5bd
00000210: 0e78 463d 15b0 2d3d 93d0 533d 14d1 66bd
00000220: bae7 ae3d 336f 5cbd 2f49 ae3d f7b8 adbd
00000230: 603c a0bd e25c 5e3d 73ee b13b 1016 a73b
00000240: 47b0 4cbd a6dd 1bbd b087 efbc 7921 b7bd
00000250: 4319 803b 3c0f 803c 00f0 9cb8 c284 d63c
00000260: a7c2 ab3d 4885 c03c 4988 04bd 8a06 27bd
00000270: b64d 69bd f1cb 83bd a039 69bc 7810 80bc
00000280: be8a 1d3d c6fb 27bd 2d4f 903d e89c 84bd
00000290: 00b6 8339 2bac 9a3d c100 b43d 20b7 51bd
000002a0: 28c1 3e3c 580f 2b3c d4fc 33bd ee3e f6bc
000002b0: df7d bc3c 7505 80bd 13ac 2e3c 5d84 113d
000002c0: 2bab 0ebd b35c 963d 809b bebb eff3 133d
000002d0: bd43 b33d bc25 fabc 2778 413d 7933 e1bc
000002e0: 1976 8cbc 397f 97bc 5ea3 84bb ff8c 17bd
000002f0: dd49 a23c a044 5a3b 1e7e 653d a7b5 b2bc
00000300: a038 113c 534c 04bd 0e1d 9fbd 187f 023d
00000310: 884d 393c 98fd 10bd 6cd0 f4bc 9a9e 9c3c
00000320: e8ec 82bc 6295 6c3d 0036 5a3b cbaf ed3c
00000330: 765e 103d 5f0e d4bc d8b4 183d 8794 853d
00000340: 9048 853b 179f 613c a84d e6b8 c37c 683d
00000350: 72e7 1abd 395f 4dbd b63b 0f3d 606a a5bd
00000360: 80bd b93a 947f 26bd 2af5 6e3d cea2 afbd
00000370: 0e84 5b3d bb17 b33d 9e00 6e3c c30d b1bb
00000380: a8d1 b03d ff6d 25bd 7017 e8bb dd89 1ebd
00000390: 60f0 83bc 7d06 973c 62f4 ee3b 9f04 aabc
000003a0: dffb bbbd 4571 363b df8d c5bb 0bd8 1b3c
000003b0: c3b4 8a3d 456a a93d af20 5fbd 0099 b4bb
000003c0: 2820 14bd efd5 a6bd f269 8cbd cfe5 a93d
000003d0: 3617 533d 2d5b 3e3d e5a1 3b3d 9176 98bd
000003e0: 79e9 e53b 4921 a23d 40c4 58bd ff10 9f3d
000003f0: b44b b83c ad37 7d3d c817 1bbd f09c 163d
0.002079442 -0.042463467 0.17595725 -0.1801747 0.06411694 0.11181517 -0.02476462 0.06661186
-0.07498007 -0.046545852 0.08557148 -0.136822 0.11443489 -0.2041891 -0.017934332 -0.20839833
0.16813317 0.19486746 -0.034501288 0.067324765 0.081645556 -0.019168101 0.06315865 -0.075521745
0.009388022 0.15532954 -0.0121456385 0.12618111 0.12077858 0.11351934 0.03504908 -0.012738854
0.06753369 0.0033868612 -0.12918258 0.11917143 -0.0341253 -0.040838894 0.059963617 -0.023915514
0.05972809 -0.058850035 0.0105946595 0.073132254 0.01584319 0.16386852 0.027680036 -0.105322
0.043795742 0.026439764 0.098187014 -0.09774043 0.056886353 0.05945409 -0.09565305 -0.14764558
0.00064421585 -0.07596409 0.021654423 0.0678782 0.03773276 0.030776426 -0.15111019 0.09443624
-0.15452054 -0.04357109 0.06593942 0.07044876 -0.042171873 0.056624763 -0.011228308 -0.005125135
0.073997475 -0.08109793 0.19155355 0.011954047 0.025285967 0.087316856 0.10978283 0.075437166
0.07168447 -0.051494304 0.03986708 0.004694156 -0.009021914 0.001788826 0.070290826 -0.06653084
0.25393668 -0.08875057 -0.019554155 0.08862231 0.037203442 0.008048266 -0.04706642 0.06491893
-0.04955094 -0.18693866 -0.019977715 0.0299104 -0.053711746 -0.0022961237 0.14944841 0.029582165
0.055500273 0.051042244 0.106993966 -0.12246077 -0.009689115 -0.0058415807 -0.11778081 -0.057232562
0.14550449 0.17065087 0.035377204 0.02007503 -0.03826523 0.036422152 0.0015143387 -0.13652636
-0.036614653 0.075995356 -0.016437137 0.36322764 0.016803462 -0.19815873 -0.018170545 0.09413179
-0.0678146 -0.02532356 0.02454777 -0.08082973 0.048454337 0.042404253 0.051712584 -0.056351736
0.08540292 -0.053816985 0.085100524 -0.08482545 -0.078240156 0.0542878 0.0054300367 0.0050990656
-0.0499728 -0.038053177 -0.029239506 -0.08941931 0.0039092614 0.015632264 -7.483363e-05 0.02618635
0.08386736 0.023501053 -0.032356534 -0.04077772 -0.056958877 -0.06435383 -0.01423493 -0.015632853
0.038462393 -0.041011594 0.070463516 -0.0647524 0.00025121868 0.0755237 0.08789206 -0.051200032
0.011642732 0.01044067 -0.043942288 -0.030059304 0.023009239 -0.06251041 0.010661143 0.035526622
-0.034831207 0.073419 -0.005816877 0.036121305 0.087531544 -0.030535571 0.047233727 -0.027490364
-0.017146157 -0.018493282 -0.004047795 -0.0369997 0.019810611 0.0033305064 0.056028478 -0.021815134
0.008863598 -0.03229935 -0.077692136 0.031859487 0.011309989 -0.035398096 -0.02988454 0.019118596
-0.015982106 0.05775965 0.0033296347 0.029014489 0.035246335 -0.025885759 0.03728184 0.0652247
0.004067488 0.01377084 -0.00010981719 0.056759607 -0.03781838 -0.05013964 0.034969054 -0.0807693
0.0014170855 -0.04064901 0.058339275 -0.085759744 0.053592734 0.087447606 0.014526514 -0.005403252
0.08633739 -0.040388104 -0.007082872 -0.038705695 -0.01610583 0.018435711 0.0072923163 -0.020754157
-0.091789 0.002783851 -0.0060288752 0.009511958 0.06772759 0.082722224 -0.05447453 -0.005511403
-0.03616348 -0.08146273 -0.06856145 0.08295786 0.051535808 0.04647367 0.04580869 -0.0744449
0.0070163575 0.07916505 -0.052921534 0.077669136 0.022497036 0.061820675 -0.037864476 0.03677076

net.2.bias f4 [128]
00000000: fef4 8fbc 4683 a43d 51b1 40bd 285f 3f3c
00000010: 9f86 a43c 4c61 a2bd 9b20 5c3d 077d 823d
00000020: 6443 7d3d 5c46 593d 8a25 363d 6ab5 5bbd
00000030: 8cb2 6c3d 2520 08bd 3801 c83c 08de afbd
00000040: 9e19 183c ef80 43bd ccfd 39bd a3d7 86bd
00000050: 81a1 25bc 7850 79bd 7467 62bd ff7d b4bd
00000060: 1e9a 683d 40d9 833d 4824 5dbc 6458 473d
00000070: 3055 a43c 3524 4abd 6400 76bc 272b 0f3d
00000080: 7d8d 363d 40d9 94bb 1092 59bc 9f5c 5e3d
00000090: 000c b0bc ed2c e73b f34d 67bd c38e 9d3d
000000a0: b614 19bb c407 60bd e79d 95bd 283a 05bc
000000b0: e353 e03c 64e9 543d 58db 91bc 75bb 3cbd
000000c0: 883c afbd 89a4 21bc e46e 963d 5d14 b1bd
000000d0: 7b39 b6bc 2be2 753d fd55 843d e26e 6ebd
000000e0: 590f e1bd 5502 f43d 6f9c 43bd e250 6e3c
000000f0: 16cd b9bd 855e e43c 4738 dfbb 518b edbc
00000100: 1a36 44bd e020 873d 3cb1 10bd ea6f 1abd
00000110: 3709 62bd a1a2 6c3d 66aa d13b d0c4 65bc
00000120: 98e5 3c3d e607 753d c92c 9abd ecda 5d3d
00000130: 07c1 993d a02a 543d c050 12bd 1aee 7dbd
00000140: 28f8 3a3c 5da5 803d 113d c5bd 143a a0bd
00000150: ae68 c0bc 8484 133d 251e a7bd 4d85 1bbd
00000160: 2771 fd3c d552 f1ba 0ee9 aebd 3398 01bd
00000170: 4f59 1fbd c6cc 633d 63a3 b4bd 3e2b 583c
00000180: e79a d1bc 02f8 523d 3ebd 56bd 73d8 6e3d
00000190: a6f1 ebba 76e7 8b3d fae4 b6bd 8da0 a4bc
000001a0: 7fa9 e3bc a278 813d ff4c 96bd 53ef 863d
000001b0: e9c3 7abd 1d21 913c b365 d6bc db53 9bbd
000001c0: e01c ba3b 49e6 a4bd d440 a33c 57af 923d
000001d0: f02c 0abc 6a57 43bd 9133 5c3d d0be 193c
000001e0: 575e 273c 16cb 523d 581f b3bd 7e25 3abd
000001f0: cbaa ee3c 8f14 493d a079 31bd 846b 84bd
-0.017572876 0.08032851 -0.047044102 0.011680402 0.020083724 -0.07928714 0.053742032 0.06371503
0.061831847 0.053045616 0.044469394 -0.053639807 0.057787463 -0.03323378 0.024414644 -0.08587271
0.009283451 -0.047730383 -0.045408055 -0.06584098 -0.010109306 -0.060867757 -0.05527444 -0.08813094
0.056787603 0.064379215 -0.01349742 0.04866828 0.020060152 -0.049350936 -0.015014742 0.034953263
0.044568527 -0.0045425 -0.013279453 0.05428755 -0.021490097 0.007054916 -0.056470823 0.07693245
-0.0023358292 -0.054694906 -0.07305508 -0.008131541 0.02738375 0.05198039 -0.017804787 -0.04607721
-0.08556467 -0.009865888 0.073453695 -0.08646462 -0.022244206 0.060030144 0.064617135 -0.058211215
-0.109892555 0.11914507 -0.04775661 0.014545651 -0.0907232 0.027877102 -0.0068121287 -0.028997095
-0.047903158 0.06598067 -0.035325274 -0.037704386 -0.05518457 0.057772283 0.006398487 -0.014023975
0.046117395 0.059821986 -0.07528073 0.05416386 0.0750752 0.051798463 -0.03572154 -0.06199465
0.011411704 0.062815405 -0.09630788 -0.078235775 -0.023487415 0.03601505 -0.081600465 -0.037968922
0.030937744 -0.0018411527 -0.085405454 -0.03163929 -0.03890353 0.05561521 -0.08820226 0.0131939035
-0.025586559 0.05150605 -0.05242657 0.05831189 -0.0018001094 0.06831257 -0.089303926 -0.020096088
-0.027790783 0.06321837 -0.073389046 0.06588616 -0.06122199 0.017715985 -0.02617154 -0.075843535
0.0056797117 -0.08051736 0.019928373 0.0716235 -0.0084335655 -0.047690786 0.053760115 0.009383872
0.010215363 0.05146321 -0.08746213 -0.04544591 0.029134175 0.04909187 -0.04332888 -0.064658195
