dqn_out/dqn_ep4000.pt (torch, 314997 bytes, 24 tensors)

net.0.weight f4 [128, 4]
000000 4f c3 a0 3e db 5f b1 3e 8c f3 a3 be 19 3a 4f be
       0.3139901 0.34643444 -0.3202175 -0.20237006
000010 d1 a2 d5 bf 65 f6 84 3e b3 3e 3d 3d 37 25 d5 3e
       -1.6690313 0.25969234 0.046202373 0.41629955
000020 c0 8f 18 40 2c 14 d4 3d 53 b5 1c be 31 94 0c be
       2.3837738 0.1035541 -0.15303545 -0.13728406
000030 c7 6f c3 3f 0b cb 6c be d9 2f ba bd 7b 52 9f 3d
       1.5268487 -0.2312433 -0.090911575 0.07779404
000040 4f 1f 24 3f 29 e1 d5 3e 6b f4 39 be f7 74 62 bd
       0.64110273 0.41773346 -0.18159644 -0.055287328
000050 b0 13 07 40 eb b5 b4 3e c2 eb 25 bd c1 9e ba 3e
       2.1105766 0.35295042 -0.04050804 0.36449245
000060 3d b1 f6 3f d5 cf 65 3d 1c f7 08 3f 89 d3 d6 be
       1.9272839 0.056106407 0.5350206 -0.41958264
000070 00 7f 92 3e 3e 22 20 be cc 27 1a be 2d b6 fa 3e
       0.28612518 -0.15638062 -0.15054244 0.48967114
000080 4c 30 83 bf c9 f8 2a bc 1d 2f aa be 3b ac d1 be
       -1.0249114 -0.010435292 -0.3323907 -0.40951714
000090 c1 3c c5 be 29 03 10 3f be 7d c8 3d 50 5f 2d 3e
       -0.38522914 0.5625482 0.097896084 0.1693089
0000a0 0c c0 09 40 ec 16 51 bd 36 ed 35 3e 1f 84 e0 be
       2.1523466 -0.05104725 0.1776627 -0.438508
0000b0 10 76 b4 bf 88 29 b3 be 53 94 9d 3e 84 4d 89 3e
       -1.409853 -0.34992623 0.30777225 0.26816952
0000c0 5a 60 5c 3e 8c 50 05 be 56 1c ae 3e 1d 32 02 3f
       0.2152113 -0.13019007 0.34005994 0.50857717
0000d0 3b ec c8 3e df 1b cc 3c 8e b7 d4 3e 69 a1 c9 be
       0.3924273 0.024915634 0.4154629 -0.3938096
0000e0 20 8c fc 3f 91 72 b8 be 20 65 6b be 08 50 15 be
       1.9730263 -0.36024907 -0.22987795 -0.14581311
0000f0 a2 09 2d be 9a 74 85 3e 7e fd ac be 22 74 74 3e
       -0.16898206 0.26065522 -0.3378715 0.23872426
000100 aa 2f 15 40 6e ef 3b bc 3d 50 82 3d 5c da bd 3d
       2.3310342 -0.011470659 0.063629605 0.09270164
000110 d3 07 eb bd 63 bc db 3e fc 00 fe be 15 5e 1a be
       -0.11476102 0.42917165 -0.49610126 -0.15074952
000120 57 eb c8 3f 3e ef ba 3e 6d f4 09 3f 40 f0 d9 3e
       1.569682 0.36510652 0.5388859 0.4256611
000130 a3 60 01 40 aa bd bb be 9b 3c 15 3e 04 f5 85 be
       2.0215232 -0.3666814 0.145739 -0.26163495
000140 13 a4 57 3d d4 ad f8 3e 73 af cf 3e 8b 89 db be
       0.052646708 0.4857012 0.40563545 -0.42878374
000150 08 aa bf 3d c8 80 ac bd b8 82 a8 bd 1c 5f 6a be
       0.09358603 -0.084230006 -0.082280576 -0.22887844
000160 a4 5a 11 3e 36 67 a3 be ac 8a 37 3e 8a 42 68 3e
       0.14194733 -0.3191468 0.17923993 0.22681633
000170 bb c3 d8 bd 72 da 9f 3e f9 51 dd be d6 02 7c bd
       -0.105842076 0.31221348 -0.43226603 -0.061526142
000180 38 a6 7f 3e 18 53 d6 3d 96 b3 c7 be e8 68 93 be
       0.24965751 0.104650676 -0.390042 -0.28790975
000190 d2 48 8d 3e b1 c7 bf 3e bd 51 8c be b4 88 5d bd
       0.2759462 0.3745704 -0.2740611 -0.05408545
0001a0 78 dd f3 be 80 3e 13 bc 78 c8 c0 be a2 77 c5 be
       -0.47629905 -0.008987069 -0.37652946 -0.38567835
0001b0 9f f1 0b 40 43 ce af 3c 4d 81 12 be 97 10 99 3e
       2.1866224 0.021460658 -0.14307137 0.2989547
0001c0 d5 1b 78 3f 9f 07 e5 3e 09 9b 19 3f e3 43 b0 be
       0.9691747 0.44732377 0.6000219 -0.34426793
0001d0 0f 7a ed 3f 01 1e 72 bd da 51 bb 3d 68 9e ce 3d
       1.8552874 -0.059110645 0.09146471 0.10088807
0001e0 ac 38 b2 3f 7f 42 fc 3d 7a 1e 84 be 56 45 9f 3e
       1.3923545 0.123173706 -0.25804502 0.31107587
0001f0 56 91 f5 be a0 bb 97 be 3c 2b 00 be ec 66 79 be
       -0.47962445 -0.29635334 -0.12516493 -0.24355668
000200 2d c6 ea 3f 66 12 8c be 96 e8 24 3d c2 00 1f 3e
       1.8341728 -0.27357787 0.040260874 0.15527633
000210 df 62 bc bf 97 4b cb 3c 84 b2 9e 3e 88 d6 7c bd
       -1.4717673 0.024816317 0.30995572 -0.06172803
000220 dd 30 aa be 5a 60 14 be 01 0d 9b 3d 6b 66 97 3e
       -0.33240405 -0.1448988 0.0757084 0.29570326
000230 7b 4d 1a 40 33 a3 80 3e e9 df 08 3f 09 e7 2a bd
       2.410979 0.2512451 0.5346666 -0.04172424
000240 4c a1 03 c0 83 9c 5a 39 54 d3 d2 3e 0b 59 3c 3d
       -2.0567198 0.00020848405 0.41176856 0.045983355
000250 42 f9 9d 3e 9c 92 06 bf 6d e5 01 bf bb ac 7e be
       0.3085423 -0.5256746 -0.507407 -0.24870579
000260 9f 9d 78 bd 82 f7 a4 3e 14 81 a8 3e 64 1c df be
       -0.060697194 0.32220083 0.3291098 -0.43576348
000270 2e b0 9f 3e 8a 52 c8 be f0 7b d8 bd 1c 9a 4f be
       0.31189102 -0.39125472 -0.10570514 -0.20273632
000280 85 bb c3 3e ab 60 fe bd b2 b9 e1 be 26 39 c4 be
       0.38229004 -0.12420782 -0.44086987 -0.3832485
000290 28 3c a0 bd 80 e1 d3 3b b8 96 68 be b8 de 40 3e
       -0.07823974 0.0064660907 -0.22713745 0.1883496
0002a0 d6 80 ac 3f 21 20 d0 bc 35 3e 03 3f e8 52 2e be
       1.3476818 -0.025405945 0.51266795 -0.17023814
0002b0 19 2e bf 3f ef f5 4c 3e 66 2e fa be 64 92 c3 3e
       1.4935943 0.20015691 -0.48863524 0.38197625
0002c0 fc 6f 18 c0 44 90 00 bf 79 b2 ab 3e e9 a2 d5 bd
       -2.381835 -0.5022013 0.335346 -0.10431463
0002d0 e9 c9 e9 3f 9b cd 80 bd e7 56 ed 3e 3f 41 bc 3d
       1.8264743 -0.06289216 0.46355364 0.09192132
0002e0 98 52 14 40 cd 1c f0 3d d7 97 87 bd e1 9e c0 bd
       2.3175411 0.11724243 -0.06620758 -0.09405304
0002f0 3a 83 01 c0 a3 5d a6 3e 4d 3c be 3e b9 af a8 3e
       -2.0236344 0.32493314 0.3715538 0.32946566
000300 ac 93 b4 be 60 ae b6 3c 90 76 b4 be 88 ec 8c be
       -0.35268915 0.022299945 -0.35246706 -0.2752421
000310 30 2c 95 be 34 f9 2e 3e c4 8d 98 be 00 ba 32 bc
       -0.29135275 0.17087251 -0.2979566 -0.010908604
000320 7e 4e 3d 3f 72 eb e4 3e 69 87 9b be 43 5d db bd
       0.73947895 0.4471088 -0.30376747 -0.10711148
000330 b4 b7 f6 bf b1 a3 c7 3e 7b 09 7e be 83 79 cd 3e
       -1.9274812 0.38992074 -0.24808304 0.4013177
000340 a0 24 39 3e 40 aa 81 3d 00 ed 73 bb 08 6d ca bd
       0.18080378 0.06331301 -0.003722012 -0.09884077
000350 fd 24 a4 bf ba e1 8e bd b9 9d 91 bd 47 71 2b 3d
       -1.2823788 -0.06976648 -0.07110161 0.041856077
000360 80 8f 44 c0 31 a5 97 3d 6f 68 7d 3e 0b a9 da be
       -3.0712585 0.07404555 0.2474687 -0.42707095
000370 38 89 e0 bf ba fe 0c 3f 70 57 8f 3c 02 07 fd bc
       -1.7541876 0.5507618 0.017497748 -0.03088713
000380 16 c0 aa 3f 93 b0 5d 3e 99 0e ac be 84 55 11 be
       1.333987 0.21649389 -0.33604887 -0.14192778
000390 03 f5 0d 3f fa 7b 2b bd 70 41 fe 3d af a7 cc 3e
       0.55451983 -0.04186628 0.12414825 0.39971682
0003a0 8c 8d a4 3f 7c bc d6 3e 7a c8 d0 3e bb 4a a2 be
       1.2855697 0.41940677 0.4077795 -0.3169764
0003b0 76 24 14 40 0a e6 95 be 94 18 04 be 9d f3 30 3e
       2.3147254 -0.29277068 -0.12900001 0.17280431
0003c0 87 61 47 3f 7a a6 e4 3e f1 e5 30 be f0 04 3b 3c
       0.7788319 0.44658262 -0.17275216 0.011414751
0003d0 7a cb 83 3e 5a 93 f7 be 42 15 b9 3e 30 b1 d3 be
       0.25741178 -0.48354608 0.3614903 -0.4134612
0003e0 c0 4d a4 3e 01 a4 bd bc 8e c2 81 be 17 aa 1b 3e
       0.3209057 -0.023149492 -0.25343746 0.15201603
0003f0 51 42 27 40 3d f8 05 be 2c 01 66 be 93 3a 1e be
       2.6134226 -0.13082977 -0.22461385 -0.15452032

net.0.bias f4 [128]
000000 1c 4a f7 bd f7 27 1c bd ce 47 eb 3d 44 8c 6b 3e
       -0.12074682 -0.03812405 0.11488305 0.23002726
000010 82 a4 30 be b8 f2 86 3c 1e a9 9e 3e c8 6e aa bd
       -0.17250255 0.01647316 0.309884 -0.08321911
000020 08 d3 71 3e 29 2e 0c be 5e e6 68 3e b8 c1 c3 be
       0.23615658 -0.13689484 0.22744128 -0.38233733
000030 83 3e c9 be 4a 16 4a be cc d1 0a 3f 2f dc e3 bd
       -0.39305505 -0.19735065 0.54226375 -0.11125981
000040 e6 80 a2 bd 59 8f a0 be 77 c2 18 3f 87 9d 0c 3f
       -0.07934742 -0.31359366 0.5967173 0.5492787
000050 65 c7 c8 be 10 88 cf be f4 65 cf be a4 ec 6b 3e
       -0.39214626 -0.40533495 -0.40507472 0.2303949
000060 c4 82 02 be 94 7f 98 be e0 a3 37 be 08 06 94 3d
       -0.12745196 -0.29784834 -0.17933607 0.07227713
000070 52 be 6c be 94 1c ec 3c c1 d3 cc 3c b0 18 78 be
       -0.23119476 0.02882222 0.025003316 -0.24228168
000080 4e 1e 0d 3e 59 b3 f2 3e 9b 73 b8 be 1f 89 c3 bc
       0.13781092 0.47402456 -0.360257 -0.023869095
000090 6f fb a2 3d ef 69 14 3f 40 02 da be d2 6a f5 be
       0.079581134 0.5797414 -0.42579842 -0.4793306
0000a0 32 48 1f 3f f8 f7 a1 be 6e 2c b4 3d a1 82 a8 3d
       0.62219536 -0.31634498 0.08797537 0.082280405
0000b0 1d 56 69 bd 29 f7 68 be 7e 3c 9b 3e 6d d1 cb 3d
       -0.05696689 -0.22750534 0.3031959 0.09952054
0000c0 ce 3e f9 be d8 21 97 be f2 b3 b2 3a 05 4a 98 3e
       -0.4868073 -0.29518008 0.001363395 0.29743972
0000d0 8e aa a5 be 99 99 09 3f 5b 8f 7f 3c 7d d2 6f bd
       -0.32356685 0.53749996 0.015598143 -0.058550347
0000e0 3d 4b f5 3e a9 f5 cb 3e 9c 91 05 3f 13 ef 9c 3e
       0.47908965 0.3983586 0.5217531 0.3065115
0000f0 3c 40 36 be 54 d9 a9 be 85 1d db bc fd 33 d9 3e
       -0.17797941 -0.3317362 -0.026747474 0.42422476
000100 7b 9c b8 bd 12 24 e4 be db d1 4e 3e 78 36 0c 3f
       -0.09014221 -0.4455877 0.20197241 0.5477061
000110 00 c2 11 be 5a f9 d3 be 10 35 e8 be 3b 34 94 3d
       -0.14234161 -0.41401178 -0.45352983 0.07236525
000120 08 4e 94 3d d8 46 81 be 6c 25 fd bc ed cc 12 3e
       0.07241446 -0.25249362 -0.030901633 0.14335985
000130 12 ce d8 3e cc 72 c5 3e 0e 1e 4e bd 7e bb e1 be
       0.4234472 0.38564146 -0.05032163 -0.44088358
000140 d8 53 e7 be 06 6f 0a 3f ed 65 91 3e 68 b1 39 3e
       -0.45181155 0.5407566 0.28398076 0.18134081
000150 f0 76 01 bf a4 27 0a 3f 66 01 14 3f f1 1e 1c 3f
       -0.5057211 0.53966737 0.57814634 0.6098471
000160 06 12 e4 be 75 1a fa bd a5 34 7c be 7b c2 05 3f
       -0.44545 -0.122120775 -0.24629457 0.5224988
000170 bf 39 39 be 84 c1 69 be 1d 15 7e 3e 12 ef 13 be
       -0.18088435 -0.22827727 0.24812742 -0.14446667
000180 b6 75 73 be 4b 61 1a bd bd 0d 43 bd 35 0b a9 be
       -0.23775372 -0.037690442 -0.047620524 -0.33016363
000190 5f 32 c5 3e 20 15 b0 be 22 3d 3c 3e 19 af df 3e
       0.38514993 -0.34391117 0.18382695 0.43688276
0001a0 1d cb 64 3e af e3 73 3d 86 3b d3 3e aa 6c 36 3e
       0.22343107 0.059543308 0.4125635 0.1781489
0001b0 54 e1 6c be b6 56 09 3f ae 89 2b 3e 12 05 da be
       -0.23132831 0.53647935 0.1675174 -0.42581993
0001c0 7f 5d 76 be de 61 6e be 74 d2 f9 3e 00 1c a9 bd
       -0.24059103 -0.23279521 0.48793375 -0.08257294
0001d0 b2 59 e9 be c8 22 92 3d 9c 5a 8e 3e d0 29 15 3e
       -0.45576245 0.0713554 0.27803504 0.14566731
0001e0 d3 fb 82 3e 43 fa fd 3c bf 03 2f 3e bf fe a6 bd
       0.25582752 0.031003123 0.17091273 -0.08154058
0001f0 0c 67 0e be 5a 75 ea be e1 7a c2 be b9 b1 42 3e
       -0.13906497 -0.45792657 -0.37984374 0.19013108

net.2.weight f4 [128, 128]
000000 5e e4 ef 3c 70 27 e7 bc 28 38 a5 3e 42 af 04 3e
       0.029283699 -0.028217047 0.32269406 0.1295748
000010 1d 81 9c 3d 37 02 1b 3e 4e 32 25 3d 2d d4 c3 3d
       0.07641814 0.15137564 0.040331177 0.09561954
000020 df c3 e8 bd 35 b9 b4 bd 60 4c 72 3e b4 08 81 be
       -0.113654844 -0.08824388 0.23661947 -0.25201952
000030 2f f1 22 3e 71 8f c1 be 7c 48 14 3c 8b 9d 19 be
       0.15912317 -0.3780475 0.009050485 -0.15001504
000040 7a e8 95 3e 21 f7 06 3e 12 fd be 3b 97 cc f2 3d
       0.29278928 0.1318021 0.005828508 0.11855429
000050 2b e6 cb 3d 6c 06 9d bc c7 86 eb 3d 37 fb cd bd
       0.099560104 -0.019168101 0.11500316 -0.10057681
000060 38 d0 19 3c f8 f5 14 3e 80 fe 46 bc 58 5d 27 3e
       0.009388022 0.14546955 -0.0121456385 0.16344202
000070 5a fa 34 3e a7 39 45 3e 69 0e a7 3c a0 b6 50 bc
       0.17673627 0.19260274 0.020392613 -0.012738854
000080 f2 64 0f 3e bb bf 76 3d 7a d0 4e bd e9 6e 3e 3e
       0.14003351 0.060241442 -0.050491787 0.18596996
000090 a3 af d6 bd bb ff 0c 3d de 6d 8a bc 78 ea c3 bc
       -0.10482719 0.03442357 -0.016898092 -0.023915514
0000a0 04 33 f9 3d bc 0c 71 bd a4 f6 bc 3d 3d b8 0a 3e
       0.121679336 -0.058850035 0.092267305 0.13546844
0000b0 85 81 a9 be 08 28 7f 3e 0c 28 99 3d 1b 43 92 bd
       -0.33106628 0.24917614 0.074783415 -0.071417056
0000c0 2a 63 33 3d 34 98 d8 3c 78 e7 f1 3d 75 63 a7 bd
       0.043795742 0.026439764 0.11811727 -0.08173267
0000d0 aa 01 69 3d 27 88 dc 3d a3 e2 3f be 17 c8 29 be
       0.056886353 0.107681565 -0.18738799 -0.16580234
0000e0 33 51 df 3d a2 62 81 bc 64 ba a3 3d c6 be f0 3d
       0.109041594 -0.015794102 0.079945356 0.11755137
0000f0 3d 1b f4 3d d8 1e fc 3c 7e 80 87 be 52 5d 12 3e
       0.11919258 0.030776426 -0.2646522 0.14293411
000100 d9 fe 78 be 85 2b 05 3e c7 25 04 3e df 50 b5 3d
       -0.24315967 0.13004883 0.12905036 0.088533156
000110 6a bc 2c bd 5e ef 67 3d f0 f6 37 bc 91 b1 1b 3d
       -0.042171873 0.056624763 -0.011228308 0.038011137
000120 de 7a 06 3e ac 16 a6 bd 10 2d a0 3e f4 92 7d 3d
       0.13132808 -0.08109793 0.3128438 0.061907724
000130 88 03 a4 3d 05 d4 06 3e 73 17 1f 3e cd 7e 9a 3d
       0.08008486 0.13166817 0.15536289 0.075437166
000140 4f cf 92 3d bc 9c 02 bc ba ab 6e 3e e5 9e 18 3d
       0.07168447 -0.007971939 0.23307696 0.03726091
000150 19 d0 24 3d 2c a9 39 3d 54 5c f4 3d b7 8a e2 bc
       0.04023752 0.04532735 0.11931673 -0.027654035
000160 59 35 a3 be 63 2f 39 be 22 b9 2f be 82 ab 0d 3e
       -0.3187664 -0.18084483 -0.17160466 0.13834956
000170 97 fa 87 3e e0 dc 03 3c 27 93 ad bb a4 c5 90 3d
       0.26558372 0.008048266 -0.005297083 0.07068947
000180 86 73 75 3d 4b f8 f4 3d f5 97 32 be d7 5d e6 3d
       0.059924625 0.119614206 -0.1744078 0.11248367
000190 fe a1 ae bc dc 30 4f 3e e8 6b 46 3e 89 10 a2 3d
       -0.021317478 0.20233482 0.193771 0.0791331
0001a0 6a 77 c4 3d 29 e4 0c 3e c6 b8 43 3e 55 17 01 be
       0.09593089 0.13758911 0.19113454 -0.12606557
0001b0 18 bf 1e bc 3e 91 66 3d 49 69 24 be b2 e9 58 be
       -0.009689115 0.056290857 -0.16055788 -0.21182898
0001c0 07 d9 93 3e bb b1 04 3e 8f 97 90 3d 64 74 a4 3c
       0.28876516 0.12958424 0.070601575 0.02007503
0001d0 00 bc 1c bd 79 e7 21 3d da ad e7 3d 7d d5 c8 bc
       -0.03826523 0.03952739 0.113124564 -0.024515862
0001e0 5d 44 91 bc ef bb e0 3d cd ed 5d 3d 2a df a8 3e
       -0.017732793 0.109733455 0.054181863 0.3298276
0001f0 be 84 e9 3c cb 7c 34 be 0a 08 b5 bc cd fa 00 3e
       0.02850568 -0.1762573 -0.02209856 0.12595673
000200 0a 55 92 bd 2d 7e f2 bc 21 ba c0 3c 6c 99 a8 bd
       -0.07145126 -0.02960118 0.023526253 -0.08232388
000210 0e 78 46 3d 19 4d 29 3d 4e bd 44 3d 14 d1 66 bd
       0.048454337 0.04133329 0.048032098 -0.056351736
000220 5d 62 af 3d b9 7c 6b bd 2a 71 a8 3d f7 b8 ad bd
       0.08563683 -0.05749199 0.08224709 -0.08482545
000230 65 48 a1 bd e2 5c 5e 3d f9 59 4a 3b 47 c6 f2 3a
       -0.07875136 0.0542878 0.0030876382 0.0018522226
000240 6d a8 4d bd 85 d3 1b bd 6f c4 06 bd f3 d3 bd bd
       -0.05020945 -0.038043518 -0.032902177 -0.09268942
000250 68 15 6d 3b 3c 0f 80 3c 00 f0 9c b8 ef a1 cb 3c
       0.003617609 0.015632264 -7.483363e-05 0.02485749
000260 a7 c2 ab 3d 48 85 c0 3c 49 88 04 bd 63 19 28 bd
       0.08386736 0.023501053 -0.032356534 -0.041039836
000270 40 ea 78 bd b7 0b 89 bd a0 39 69 bc 78 10 80 bc
       -0.060770273 -0.066916876 -0.01423493 -0.015632853
000280 9f d7 19 3d 00 c3 36 bd 2d 4f 90 3d 79 46 8c bd
       0.037559148 -0.04461956 0.070463516 -0.06849379
000290 09 2d 45 ba 1b ae 96 3d c1 00 b4 3d 20 b7 51 bd
       -0.00075216644 0.07357427 0.08789206 -0.051200032
0002a0 a1 08 1c 3c 58 0f 2b 3c 17 09 44 bd 19 16 0c bd
       0.009523542 0.01044067 -0.04786023 -0.03420076
0002b0 fa 7d b2 3c 8e 46 82 bd a7 98 05 3c 2f 6e 02 3d
       0.021788586 -0.063611135 0.008154071 0.03184336
0002c0 2b ab 0e bd b3 5c 96 3d 77 7b 1b bc 01 1d 0b 3d
       -0.034831207 0.073419 -0.0094898855 0.033963207
0002d0 bd 43 b3 3d 57 ee 09 bd 44 ea 3b 3d c8 4e f9 bc
       0.087531544 -0.033674564 0.04587771 -0.030433074
0002e0 89 0e 9d bc 50 b2 ae bc c6 7e f4 bb 94 50 20 bd
       -0.01917197 -0.02132526 -0.0074614016 -0.039139345
0002f0 a6 01 87 3c a0 44 5a 3b 1e 7e 65 3d 06 79 c5 bc
       0.016480278 0.0033305064 0.056028478 -0.02410556
000300 a0 38 11 3c 08 22 0a bd 3c 32 a3 bd d4 3a ef 3c
       0.008863598 -0.03372386 -0.07968566 0.029202856
000310 88 4d 39 3c 98 fd 10 bd 6c d0 f4 bc 19 74 93 3c
       0.011309989 -0.035398096 -0.02988454 0.017999696
000320 e8 ec 82 bc 62 95 6c 3d f6 52 1c 3b ca 95 e5 3c
       -0.015982106 0.05775965 0.002385316 0.028025527
000330 80 d8 02 3d 2c 07 e3 bc 1b 55 16 3d 87 94 85 3d
       0.03194475 -0.02771338 0.036702257 0.0652247
000340 90 48 85 3b 07 e0 28 3c 08 5f 79 b9 15 4e 64 3d
       0.004067488 0.0103073185 -0.00023781892 0.055738527
000350 30 43 1d bd 5a bb 5c bd b0 36 01 3d 0f 38 ab bd
       -0.038394153 -0.05388961 0.031546295 -0.08360302
000360 80 bd b9 3a 1e 3c 35 bd 2a f5 6e 3d 24 e2 b6 bd
       0.0014170855 -0.044246785 0.058339275 -0.08929852
000370 0e 84 5b 3d bb 17 b3 3d d1 fc 34 3c b0 f8 c0 bb
       0.053592734 0.087447606 0.011046604 -0.005889021
000380 32 f5 a8 3d fc 73 2e bd 70 17 e8 bb dd 89 1e bd
       0.08249892 -0.04259108 -0.007082872 -0.038705695
000390 88 60 99 bc 5f 21 9a 3c fb 7b d0 3b a4 26 bc bc
       -0.018722787 0.01881474 0.006362436 -0.022967644
0003a0 05 1e c2 bd a5 ab 2a 3b cb 49 12 bc 73 46 17 3c
       -0.09478382 0.002604225 -0.008928726 0.009233105
0003b0 c3 b4 8a 3d 93 32 a2 3d 14 9e 6b bd 00 99 b4 bb
       0.06772759 0.079198025 -0.057523802 -0.005511403
0003c0 5d e2 16 bd ef d5 a6 bd a4 d0 90 bd cf e5 a9 3d
       -0.03683697 -0.08146273 -0.07071045 0.08295786
0003d0 36 17 53 3d dd 0f 2c 3d 19 9f 2e 3d 1d 35 99 bd
       0.051535808 0.042007316 0.042632196 -0.07480834
0003e0 3c 09 e2 3b 6b 65 9b 3d 59 de 60 bd 8f 5a 9c 3d
       0.0068980735 0.07587703 -0.054899547 0.0763446
0003f0 16 ab b0 3c 9a be 7a 3d c8 17 1b bd b5 cc 0d 3d
       0.021565955 0.061216928 -0.037864476 0.034619052

net.2.bias f4 [128]
000000 1c af 93 3c 5c 60 9d 3d c1 99 4e bc 28 5f 3f 3c
       0.018027835 0.07684395 -0.0126099 0.011680402
000010 90 66 9c 3c 88 7c 32 bd e9 07 ac 3d bc 6d d8 3d
       0.019091874 -0.043575794 0.08399946 0.10567805
000020 f7 60 a4 3d 01 d7 a4 3d e6 f9 c6 3d 6a b5 5b bd
       0.08026307 0.08048821 0.09715633 -0.053639807
000030 ca 9d a6 3d 25 20 08 bd d1 5d ae 3c ac e6 7d bd
       0.081355646 -0.03323378 0.02128497 -0.061987564
000040 d0 03 1d 3e c4 7e 64 bd ed 7b cc bc a3 d7 86 bd
       0.15333486 -0.055784956 -0.024961436 -0.06584098
000050 18 41 74 bc 45 b2 16 bd 74 67 62 bd d6 65 ac bd
       -0.014908098 -0.036791105 -0.05527444 -0.08417861
000060 dc cb b7 3d e6 3d ca 3d 48 24 5d bc 9a 6e b3 3d
       0.0897443 0.098750874 -0.01349742 0.0876133
000070 30 55 a4 3c 82 32 e8 bc 1b 21 80 bc 18 3c 0f 3d
       0.020060152 -0.028344397 -0.015640786 0.03496942
000080 2b fa 25 3e 40 d9 94 bb 29 81 67 bc e5 87 d8 3d
       0.16208713 -0.0045425 -0.014129915 0.10572795
000090 b2 b6 97 bd df f2 40 3d f3 4d 67 bd 8d 97 50 3e
       -0.07407893 0.04710662 -0.056470823 0.20370312
0000a0 bb 8e c3 3d 4e 92 61 bd f7 51 63 bd 28 3a 05 bc
       0.09548708 -0.055071168 -0.05549809 -0.008131541
0000b0 b1 10 8a 3c 33 d9 b8 3d 58 db 91 bc 75 bb 3c bd
       0.016853662 0.090258025 -0.017804787 -0.04607721
0000c0 88 3c af bd 5c 3e 26 bc dc 23 d5 3d 41 39 53 bd
       -0.08556467 -0.010146704 0.1040723 -0.051568273
0000d0 3a b1 a9 bb de 71 85 3d fc d0 5f 3e e2 6e 6e bd
       -0.0051785978 0.06515859 0.21857065 -0.058211215
0000e0 36 2f 92 bd 17 0d 63 3e 47 c2 e3 bc 1d a6 59 3c
       -0.07137911 0.22172962 -0.0278026 0.013284233
0000f0 98 8f c0 bd 13 7b 9a 3d ab 38 df 3c b9 e3 0c bc
       -0.09402388 0.07543006 0.027248701 -0.008599215
000100 f4 56 44 bd 79 3c 18 3e 3c b1 10 bd b6 6a c4 ba
       -0.047934487 0.14866818 -0.035325274 -0.0014985416
000110 5f 01 d6 bc 4c cf 7a 3d ed 6d 3e 3d d0 c4 65 bc
       -0.0261237 0.06123285 0.046491552 -0.014023975
000120 b5 87 ae 3b e6 07 75 3d c2 fd 0b bd 26 3c ac 3d
       0.005326236 0.059821986 -0.03417755 0.0840991
000130 cf e8 52 3e 05 47 ba 3d 5a 7a 40 bc 73 0d 63 bd
       0.20596622 0.09095577 -0.011747921 -0.055432748
000140 9b 96 03 bd 2e 08 b1 3d 51 0a 30 bd 96 a0 57 bd
       -0.03212605 0.08644138 -0.04297859 -0.05264338
000150 c1 5b c9 bc b2 21 0b 3d 33 51 50 3d b6 94 63 3c
       -0.024579884 0.03396768 0.050858688 0.013890436
000160 98 5e 11 3e 02 60 e7 3d 1b 2c 60 bd 33 98 01 bd
       0.14196241 0.11297609 -0.054729562 -0.03163929
000170 71 6c f9 ba 63 bf 27 3e 63 a3 b4 bd ea 23 3c 3c
       -0.001902951 0.16381602 -0.08820226 0.011483172
000180 4d 1a f6 bc e7 fb 51 3d 4f 46 8e b8 7d 32 42 3e
       -0.030041838 0.051265623 -6.784184e-05 0.18964572
000190 3e 69 b2 3c a3 fe b9 3c 2c 0a bc bd 7b fb a3 bc
       0.021778699 0.022704428 -0.09181628 -0.020017376
0001a0 e8 5f 77 bd 38 da 2e 3e bc ed c4 bc 53 ef 86 3d
       -0.060394198 0.17075431 -0.024039142 0.06588616
0001b0 dd 24 86 bd 5f b1 8f 3d b9 d4 03 3c db 53 9b bd
       -0.0655 0.07016253 0.0080463225 -0.075843535
0001c0 e0 1c ba 3b a7 1d 51 bd f3 32 a9 3c 05 02 ac 3d
       0.0056797117 -0.05105367 0.020654177 0.08398823
0001d0 09 ed 57 3d 50 fd a4 bc 3d ad 80 3d 36 89 28 3d
       0.05271629 -0.02014032 0.062830426 0.04114648
0001e0 ad ba 50 3d c3 ec c3 3d 8b 35 b4 bd 62 1a 3f bd
       0.050959278 0.09566643 -0.08799275 -0.04665602
0001f0 4d 85 6c 3d f9 9f 09 3e 96 29 6c bb 84 6b 84 bd
       0.057744313 0.13439931 -0.003603553 -0.064658195

net.4.weight f4 [15, 128]
000000 43 e7 3e 3e 6d 07 cc bc 5d 2e cd 3d a2 9b 4c 3d
       0.18642907 -0.024905885 0.10018609 0.04995311
000010 40 27 9f ba b1 58 0d 3d b6 e3 03 3d d5 dd c7 3d
       -0.0012142435 0.03450841 0.032199584 0.09759108
000020 f2 e3 c2 3d e9 fe 21 3e 6a 74 1a 3e b5 de b2 3d
       0.09516133 0.15819897 0.15083471 0.08733884
000030 f5 41 05 3e 5e 5e 2f 3d 0d 92 9d 3d 77 2c 1b 3e
       0.13013442 0.042814605 0.076938726 0.1515368
000040 a9 5a 9d be ff cd bc bc a3 7c 74 3e f2 56 42 3d
       -0.3073323 -0.023047445 0.2387567 0.0474462
000050 4d f9 8b bd df dc 14 3e e4 bd 81 3c 08 d8 cd bc
       -0.0683466 0.1453738 0.015837617 -0.025127426
000060 0a e9 78 3d c1 45 84 3d ec c2 a3 3c ae 0f ab 3d
       0.06076912 0.06458617 0.019990407 0.083526
000070 9c a6 ae 3c 5d b9 98 3e 11 02 ad bb 10 c1 94 3d
       0.02131968 0.2982892 -0.0052797874 0.07263386
000080 c9 b7 f0 be 20 57 23 bc 89 b7 47 3d 97 f2 dd 3d
       -0.47015217 -0.009969503 0.048759017 0.10837286
000090 a9 d6 23 3d 1a 60 2c 3e c4 f0 ad bd a8 68 f3 be
       0.039999638 0.16833535 -0.08493188 -0.47540784
0000a0 e8 3a f4 be fb c5 9b 3d f0 54 6f 3e a6 48 75 3d
       -0.47701192 0.07606121 0.23372245 0.059883736
0000b0 4e f5 47 3e 26 26 90 3d ef cd a9 3d 20 99 f5 3b
       0.1952717 0.07038526 0.08291232 0.0074950606
0000c0 b4 14 a3 3c ba 6d 9e bc 51 15 6b 3d f5 41 04 3e
       0.019907333 -0.019339431 0.057393376 0.12915786
0000d0 0f 6f f1 3d 3b a1 6c 3d 51 bf d2 be fc d7 2b bd
       0.11788761 0.05777095 -0.41161588 -0.041954026
0000e0 3d cc a6 3d d2 2a f4 be 17 dd 20 3e a1 20 bf 3c
       0.08144424 -0.4768892 0.15709339 0.023330988
0000f0 50 28 e9 bb c5 12 92 3d ae d1 13 3e d1 1d 10 3e
       -0.0071154013 0.07132486 0.14435455 0.14073874
000100 a6 87 ec bc fc f8 9b be ee 30 1a 3d f1 02 16 3e
       -0.028873276 -0.30463398 0.03764432 0.1464956
000110 9c 9a 42 3c d9 7d f0 bb 5f 2f 22 3d 24 ab 8d bd
       0.011877682 -0.007339221 0.039595958 -0.06917408
000120 6f ab 75 3c 9d be 54 bd 33 af 19 3e 27 ab 34 3d
       0.014994486 -0.051939595 0.1500824 0.044108536
000130 f8 0d ac be 78 b3 06 3e 51 d5 29 3e 20 83 6e 3c
       -0.33604407 0.131544 0.1658528 0.01455763
000140 27 68 57 3e 19 fb 50 3d 4d 2a 45 3e 6e 5c 35 3e
       0.21035825 0.051020715 0.19254418 0.1771104
000150 69 5c 89 3d b1 e8 31 bd 08 8b 81 be cb 19 49 3e
       0.06707079 -0.043434802 -0.25301385 0.19638745
000160 2a ea bd be 51 3c b9 be 03 b8 1a 3e 5b dd 53 bd
       -0.37092716 -0.3617883 0.15109257 -0.051724773
000170 5a 8c 27 3d 94 33 b9 be 0c 7e 9d bd c8 94 4b bd
       0.040905334 -0.36172163 -0.07690057 -0.049702436
000180 43 56 d6 3c fd df b0 bb c1 91 27 be c3 a6 84 be
       0.02616418 -0.0053977952 -0.16364194 -0.2590848
000190 3d cc 20 3e 17 fa 47 bc 91 fe fe 3c ae 01 8d bc
       0.1570291 -0.012205622 0.031127246 -0.017212715
0001a0 c2 b3 43 3d 5c 89 ec be 82 5d 33 3e 02 99 6d 3d
       0.047778852 -0.46198547 0.17516139 0.058007248
0001b0 8e 57 b8 3d 5c 38 17 3e 34 8a 27 3e 3e 81 47 3d
       0.09001075 0.14767593 0.16361314 0.04870724
0001c0 a5 a1 af 3d 03 d5 37 3e 15 1d 70 bd f5 8f 84 3d
       0.08575753 0.17952351 -0.058621485 0.0647277
0001d0 70 64 60 3d 75 e9 25 3e 63 4b 0b 3e 3c 20 cd 3e
       0.054783285 0.16202338 0.13602977 0.40063655
0001e0 48 3a 43 3c fe 1f c5 3d 6f be 88 3c 80 52 c7 3c
       0.011915751 0.09625243 0.016692368 0.024331331
0001f0 0b c3 87 3d 68 93 f0 be 95 b1 5a 3d f3 d1 b3 3d
       0.06628998 -0.46987462 0.05339201 0.08780279
000200 e2 4b c7 3d 22 b5 83 bc 11 1d 19 3e d0 39 40 bd
       0.097312704 -0.016077582 0.14952494 -0.046930134
000210 f1 c4 a5 bd 69 82 62 3c 75 a0 ba 3d e4 2a ec 3d
       -0.08094204 0.0138250375 0.09112636 0.11531618
000220 91 a8 ec 3d 42 0d 61 3d 51 40 f0 3d 90 01 82 3b
       0.11555589 0.054944284 0.117310174 0.0039674714
000230 cf 6a 0c 3e 31 d3 59 bd 99 61 85 3d 67 d3 4c 3e
       0.13712619 -0.053179923 0.06512756 0.20002519
000240 68 46 b9 be 74 e4 96 bd 85 bd 56 3e 7a 1f 48 bd
       -0.36186528 -0.07367793 0.20970733 -0.048858143
000250 2d 0a 81 bc 54 23 79 3c 48 27 a6 3c 21 d5 b0 3d
       -0.015751923 0.015206177 0.020282403 0.08634401
000260 77 07 17 3e 0a a6 ff 3c 20 98 10 bc ca f5 77 3d
       0.14748941 0.031207103 -0.008825332 0.060537137
000270 75 24 1e bd 34 50 7c 3e 02 77 c2 3c 51 b6 12 bd
       -0.038608987 0.2463997 0.023738388 -0.0358184
000280 01 2d f6 be 98 99 41 3c 27 53 a2 3d eb d9 6d 3d
       -0.4808121 0.011816405 0.07926016 0.05806915
000290 87 5a b5 3d b4 3b 31 3d 97 0c 98 3d 84 6e da be
       0.08855157 0.043269828 0.07424276 -0.42662442
0002a0 c0 63 a1 be 68 a0 43 3c fc c9 48 3e 5d 1b 98 bd
       -0.31521416 0.011940099 0.19608301 -0.07427094
0002b0 ac 42 18 3e 56 48 c1 3d e8 f1 68 bc 5e 25 6c 3d
       0.14869183 0.09437625 -0.014217831 0.057652824
0002c0 40 55 07 bd 42 06 10 bd 0e 83 80 3c 87 b7 2d 3e
       -0.033040285 -0.035162218 0.015687492 0.16964541
0002d0 a3 19 24 3e dc 2f 88 3c ce 5a d8 be 34 6b 09 3d
       0.16025405 0.016624384 -0.42256778 0.033549502
0002e0 6e 1c ef 3d 0c 2f 9c be 0c 84 2d 3e 07 4c b0 3d
       0.116753444 -0.30504644 0.16944903 0.08608251
0002f0 3d a0 9c 3d b3 cb e1 3b f4 a3 14 3e 2e 16 45 3e
       0.076477505 0.006890738 0.14515668 0.19246742
000300 38 d3 b0 bd 7e 17 8c be 50 c7 42 bd cf 39 fd 3d
       -0.08634037 -0.27361673 -0.04755336 0.12364542
000310 cf 87 24 3e 36 78 7f bc 36 06 27 3e 18 72 ac 3c
       0.16067432 -0.015592625 0.16310963 0.021050498
000320 48 f8 ae 3b 4e a9 0b 3d df 41 29 3d 8e 79 3a 3d
       0.005339656 0.03409701 0.041322585 0.04552608
000330 54 7f e1 be 02 a8 27 3e 0b 5f d0 3d 31 d3 8d 3d
       -0.44042456 0.16372684 0.10174378 0.06925047
000340 e9 8b 4b 3e 14 9d 53 3d c7 c5 8c 3e 8a 4a 07 3e
       0.1987759 0.051663473 0.27494642 0.13212028
000350 72 03 47 3d 47 fb 7b bc cd 9b aa be 04 0d 02 3e
       0.04858727 -0.015379733 -0.33321992 0.12700278
000360 82 62 a1 be 5d 44 c8 be ac 03 b6 3d 68 ab 84 bc
       -0.31520468 -0.39114657 0.08887419 -0.016195014
000370 a7 7c d8 3d d8 17 c1 be a8 18 00 3c c8 71 eb bc
       0.105706505 -0.37713504 0.0078183785 -0.028740779
000380 03 e2 cb bc 80 45 53 bd a6 33 28 be 7c fb ec be
       -0.024888044 -0.051579952 -0.16425952 -0.46285617
000390 83 25 28 3d 51 01 07 3c 72 84 10 bd cb 39 09 3c
       0.0410514 0.00824006 -0.03528256 0.008375595
0003a0 cb 6d af 3d c3 ce de be 3c 77 14 3e b0 81 92 bd
       0.08565863 -0.43517122 0.1449861 -0.07153642
0003b0 d9 6e a7 3d 47 83 90 3e 74 9a 59 3d 47 82 9a 3d
       0.081754394 0.28225157 0.053125814 0.0754438
0003c0 23 6c a2 3d 59 0b 54 3e 81 83 38 bd 17 1d c8 3d
       0.07930782 0.20707454 -0.045047287 0.097711734
0003d0 aa 71 9e 3d 54 df 39 3e c4 3e 93 3d c4 68 e0 3e
       0.077365234 0.18151599 0.07189706 0.4382993
0003e0 9e 87 c5 3d 1e 9e 05 3e ca 24 0a bd 72 b3 ed bc
       0.096450076 0.13048598 -0.03372649 -0.02901623
0003f0 df fd 1e 3e 5e ce c2 be 42 80 26 3e 2c 52 1f bd
       0.15526532 -0.3804807 0.16259864 -0.038896725

net.4.bias f4 [15]
000000 94 97 99 3d c9 07 dd 3d 67 fa a1 bc 29 f7 05 bd
       0.07499614 0.107925005 -0.019772721 -0.032706413
000010 cb 18 dd bc e6 b2 94 3d d7 81 01 bd 3c dd 36 3d
       -0.026989361 0.07260685 -0.031617966 0.04464458
000020 0d ff 83 bc 81 8c 5c 3d 66 37 80 bc 61 59 07 bd
       -0.016112829 0.053844932 -0.015651416 -0.033044223
000030 cd 85 89 3d 20 9c 7c 3d b4 98 dd bc
       0.067149736 0.06167233 -0.027050354

net.0.weight f4 [128, 4]
000000 1b c5 a0 3e 76 29 b1 3e 01 51 a4 be 91 b0 4f be
       0.3140038 0.34601945 -0.3209305 -0.20282198
000010 2f a7 d5 bf 8a c4 84 3e aa 19 3d 3d 31 59 d5 3e
       -1.6691645 0.25931197 0.046167053 0.4166961
000020 d4 7d 18 40 2e ab d4 3d a6 fa 1b be b6 82 0c be
       2.38268 0.103842124 -0.15232334 -0.13721737
000030 c4 5c c3 3f 81 cb 6c be 00 1f ba bd 3d dc 9e 3d
       1.5262685 -0.23124506 -0.09087944 0.07756851
000040 72 cc 23 3f 4e de d5 3e 1e 99 3a be 7e 9a 62 bd
       0.63983834 0.41771168 -0.18222472 -0.055323116
000050 47 0d 07 40 08 db b4 3e 84 fa 24 bd 04 6d ba 3e
       2.1101854 0.35323358 -0.040277973 0.36411297
000060 99 9b f6 3f 5c 4e 66 3d 2a f8 08 3f cb d2 d6 be
       1.9266235 0.056227073 0.5350367 -0.41957697
000070 3a c6 92 3e 86 5e 20 be 08 97 1a be b4 3b fa 3e
       0.2866686 -0.15661058 -0.15096676 0.48873675
000080 fc 30 83 bf 23 53 2e bc dc 49 aa be 63 e4 d1 be
       -1.0249324 -0.0106399385 -0.33259475 -0.40994558
000090 15 ef c4 be 35 f8 0f 3f 02 36 c8 3d 85 cf 2d 3e
       -0.38463655 0.5623811 0.09775926 0.16973694
0000a0 03 ae 09 40 e1 38 51 bd 36 50 36 3e 04 83 e0 be
       2.1512458 -0.051079635 0.17804036 -0.43849957
0000b0 24 3a b4 bf 91 fd b2 be 4a 3a 9e 3e e6 fe 89 3e
       -1.4080243 -0.3495908 0.30903846 0.26952285
0000c0 70 6f 5c 3e d3 29 05 be ed ed ad 3e 57 10 02 3f
       0.21526885 -0.13004236 0.33970585 0.5080618
0000d0 fe ac c9 3e 4e ec cc 3c 12 97 d4 3e c2 57 c9 be
       0.39389795 0.025015023 0.41521508 -0.39324766
0000e0 7d 72 fc 3f 38 9b b8 be fa 9f 6b be a8 1d 15 be
       1.9722439 -0.36055923 -0.23010245 -0.14562094
0000f0 d8 4a 2c be e2 91 85 3e 70 74 ac be 28 46 75 3e
       -0.16825426 0.26087862 -0.33682585 0.23952544
000100 fe 25 15 40 d7 93 48 bc 2c d9 81 3d 46 33 bd 3d
       2.3304439 -0.012242279 0.063402504 0.09238295
000110 eb 86 e9 bd 4c 24 dc 3e 60 e1 fd be 8e ed 19 be
       -0.11402687 0.42996442 -0.4958601 -0.15032026
000120 bb cb c8 3f 0a c6 ba 3e c5 cb 09 3f 9b 30 da 3e
       1.5687174 0.36479217 0.5382655 0.42615208
000130 22 53 01 40 66 dd bb be 52 0e 15 3e ce ec 85 be
       2.020699 -0.3669235 0.14556244 -0.2615723
000140 ac bd 56 3d d5 de f8 3e 1d c4 cf 3e 98 3d db be
       0.05242698 0.48607507 0.4057931 -0.4282043
000150 08 aa bf 3d c8 80 ac bd b8 82 a8 bd 1c 5f 6a be
       0.09358603 -0.084230006 -0.082280576 -0.22887844
000160 a4 5a 11 3e 36 67 a3 be ac 8a 37 3e 8a 42 68 3e
       0.14194733 -0.3191468 0.17923993 0.22681633
000170 61 92 d8 bd 38 c3 9f 3e e4 46 dd be bb 49 79 bd
       -0.105747946 0.31203628 -0.43218148 -0.06086133
000180 38 a6 7f 3e 18 53 d6 3d 96 b3 c7 be e8 68 93 be
       0.24965751 0.104650676 -0.390042 -0.28790975
000190 a1 cf 8d 3e da da bf 3e db 78 8c be 1d e4 5e bd
       0.2769747 0.37471658 -0.27435955 -0.054416765
0001a0 78 dd f3 be 80 3e 13 bc 78 c8 c0 be a2 77 c5 be
       -0.47629905 -0.008987069 -0.37652946 -0.38567835
0001b0 b1 eb 0b 40 50 fc b1 3c e6 40 12 be ba da 98 3e
       2.1862605 0.021726757 -0.1428257 0.29854375
0001c0 2f c5 77 3f c4 04 e5 3e 46 cf 19 3f 8b 29 b0 be
       0.96785253 0.44730198 0.600819 -0.34406695
0001d0 6b 6f ed 3f 94 77 70 bd 03 f2 bb 3d ba b6 cd 3d
       1.8549627 -0.05870779 0.091770194 0.10044618
0001e0 ea 21 b2 3f 0c 65 fc 3d 59 43 84 be 10 0b 9f 3e
       1.39166 0.12323961 -0.25832632 0.31063128
0001f0 56 91 f5 be a0 bb 97 be 3c 2b 00 be ec 66 79 be
       -0.47962445 -0.29635334 -0.12516493 -0.24355668
000200 15 bf ea 3f 8d d2 8b be af f3 25 3d 18 9e 1e 3e
       1.8339564 -0.27309075 0.040515598 0.15489995
000210 f9 6f bc bf cc f7 c7 3c 32 69 9e 3e bc 32 7a bd
       -1.4721671 0.024410151 0.30939633 -0.06108354
000220 dd 30 aa be 5a 60 14 be 01 0d 9b 3d 6b 66 97 3e
       -0.33240405 -0.1448988 0.0757084 0.29570326
000230 ab 46 1a 40 c1 ba 80 3e 4d f0 08 3f 46 39 2c bd
       2.4105632 0.25142482 0.5349167 -0.042046808
000240 87 97 03 c0 2c 9f 01 39 38 a3 d2 3e 6d 9b 3e 3d
       -2.0561235 0.00012361695 0.4114015 0.046534944
000250 c7 f0 9d 3e f4 37 06 bf 56 10 02 bf b4 1b 7e be
       0.3084776 -0.5242913 -0.50806177 -0.24815255
000260 ee 2f 79 bd 4d eb a4 3e 5c 64 a8 3e a4 05 df be
       -0.060836725 0.3221077 0.32889068 -0.4355899
000270 2e b0 9f 3e 8a 52 c8 be f0 7b d8 bd 1c 9a 4f be
       0.31189102 -0.39125472 -0.10570514 -0.20273632
000280 8e 3c c3 3e 28 41 ff bd 59 0f e2 be 7e ba c3 be
       0.38132137 -0.124635994 -0.44152334 -0.3822822
000290 28 3c a0 bd 80 e1 d3 3b b8 96 68 be b8 de 40 3e
       -0.07823974 0.0064660907 -0.22713745 0.1883496
0002a0 30 73 ac 3f d9 63 cf bc 95 48 03 3f ce 83 2e be
       1.3472652 -0.025316166 0.51282626 -0.17042467
0002b0 0e 2f bf 3f 0d ec 4c 3e 69 40 fa be 34 50 c3 3e
       1.4936235 0.20011921 -0.48877266 0.38147128
0002c0 52 98 18 c0 49 e5 00 bf bc a2 aa 3e 62 c3 da bd
       -2.384297 -0.5034986 0.3332728 -0.106817976
0002d0 67 e7 e9 3f d2 9e 80 bd 56 d8 ed 3e 85 b4 bc 3d
       1.8273743 -0.062802926 0.46454114 0.09214119
0002e0 59 48 14 40 f5 52 f0 3d 50 54 87 bd 4d 1b c1 bd
       2.3169158 0.11734573 -0.06607878 -0.09429035
0002f0 07 84 01 c0 50 37 a6 3e df ff bd 3e f1 01 a9 3e
       -2.0236833 0.32464075 0.37109277 0.33009294
000300 ac 93 b4 be 60 ae b6 3c 90 76 b4 be 88 ec 8c be
       -0.35268915 0.022299945 -0.35246706 -0.2752421
000310 30 2c 95 be 34 f9 2e 3e c4 8d 98 be 00 ba 32 bc
       -0.29135275 0.17087251 -0.2979566 -0.010908604
000320 cb 02 3d 3f ff ff e4 3e e7 c3 9b be a6 76 da bd
       0.73832387 0.4472656 -0.304229 -0.10667162
000330 cb b7 f6 bf f4 74 c7 3e 70 73 7e be 59 be cd 3e
       -1.9274839 0.38956416 -0.24848723 0.40184286
000340 a0 24 39 3e 40 aa 81 3d 00 ed 73 bb 08 6d ca bd
       0.18080378 0.06331301 -0.003722012 -0.09884077
000350 7f 37 a4 bf f4 a6 8f bd 57 c3 92 bd fc 0a 2e 3d
       -1.2829436 -0.07014266 -0.07166164 0.042490944
000360 10 8c 44 c0 cd 62 97 3d 43 ca 7c 3e 2f d5 da be
       -3.0710487 0.07391892 0.24686532 -0.4274077
000370 55 8c e0 bf a1 d8 0c 3f fe fd 8e 3c da fd fa bc
       -1.7542826 0.5501805 0.017455097 -0.030638624
000380 15 a2 aa 3f 34 57 5d 3e b4 66 ac be d4 8d 10 be
       1.3330714 0.21615297 -0.33672106 -0.14116603
000390 54 b8 0d 3f 8d f3 2c bd f1 91 fd 3d 8d 11 cd 3e
       0.5535939 -0.042224456 0.12381352 0.40052453
0003a0 21 6e a4 3f 7e 76 d6 3e b7 88 d0 3e db ff a1 be
       1.2846109 0.41887277 0.40729305 -0.31640515
0003b0 8e 1b 14 40 f9 ba 95 be d5 ea 03 be b4 ab 30 3e
       2.3141818 -0.2924421 -0.1288255 0.17253
0003c0 05 e3 46 3f 7a 8c e4 3e 7a d2 31 be aa af 32 3c
       0.77690154 0.44638425 -0.17365447 0.010906139
0003d0 7a cb 83 3e 5a 93 f7 be 42 15 b9 3e 30 b1 d3 be
       0.25741178 -0.48354608 0.3614903 -0.4134612
0003e0 75 bd a3 3e 5b 5f c4 bc 5f 18 82 be df 1f 1b 3e
       0.31980482 -0.02397125 -0.2540922 0.15148877
0003f0 7c 37 27 40 a1 d4 05 be cb f4 65 be fa 68 1e be
       2.6127615 -0.13069393 -0.22456662 -0.15469733

net.0.bias f4 [128]
000000 fa ee f7 bd 33 17 1d bd 12 e4 eb 3d 43 9e 6b 3e
       -0.12106128 -0.038352203 0.1151811 0.23009591
000010 de f1 30 be 86 80 88 3c 9a bb 9e 3e b6 5e ab bd
       -0.17279765 0.016662847 0.31002504 -0.08367674
000020 37 ab 71 3e 00 17 0c be c7 3e 69 3e 65 10 c3 be
       0.2360047 -0.13680649 0.22777854 -0.38098446
000030 79 50 c9 be 38 2d 4a be d5 c4 0a 3f c3 0b e2 bd
       -0.39319208 -0.19743812 0.5420659 -0.110373996
000040 25 32 a2 bd ad 27 a0 be 73 a0 18 3f c3 93 0c 3f
       -0.079197206 -0.3128027 0.59619826 0.54912966
000050 a2 95 c8 be 10 88 cf be f4 65 cf be 39 e5 6b 3e
       -0.3917666 -0.40533495 -0.40507472 0.2303666
000060 c4 82 02 be 9e 74 98 be e0 a3 37 be b1 66 94 3d
       -0.12745196 -0.29776472 -0.17933607 0.07246149
000070 35 21 6c be 21 5b ee 3c 33 fc ca 3c b0 18 78 be
       -0.23059542 0.029096188 0.024778461 -0.24228168
000080 bb 52 0d 3e 87 81 f2 3e 9b 73 b8 be 28 85 c1 bc
       0.1380109 0.47364447 -0.360257 -0.023623064
000090 90 b2 a2 3d 6c 55 14 3f a4 18 da be d2 6a f5 be
       0.07944214 0.57942843 -0.42596924 -0.4793306
0000a0 72 28 1f 3f f8 f7 a1 be 00 a7 b4 3d d3 43 a8 3d
       0.6217109 -0.31634498 0.08820915 0.082160614
0000b0 e4 67 71 bd 46 58 67 be 32 46 9b 3e 3c 3e cb 3d
       -0.05893697 -0.22592267 0.30326992 0.0992398
0000c0 ce 3e f9 be d8 21 97 be e4 2e bc 3a 5b 20 98 3e
       -0.4868073 -0.29518008 0.0014357236 0.29712185
0000d0 8e aa a5 be f7 7d 09 3f 1a 2d 7f 3c f4 57 6f bd
       -0.32356685 0.5370783 0.015574718 -0.058433488
0000e0 fb 0c f5 3e be d8 cb 3e a6 77 05 3f 68 04 9d 3e
       0.47861466 0.398138 0.52135694 0.30667424
0000f0 96 d0 36 be 54 d9 a9 be fa 8c e1 bc 2f 3a d9 3e
       -0.17853007 -0.3317362 -0.027533043 0.42427203
000100 a0 0e b8 bd ac 3b e4 be eb f7 4e 3e 2f 1f 0c 3f
       -0.089871645 -0.44576776 0.2021176 0.5473508
000110 00 c2 11 be 5a f9 d3 be 10 35 e8 be bf 95 94 3d
       -0.14234161 -0.41401178 -0.45352983 0.07255124
000120 dd 9f 93 3d d8 46 81 be 36 96 fc bc 44 f8 12 3e
       0.07208226 -0.25249362 -0.030833345 0.14352518
000130 4c cc d8 3e b3 7f c5 3e 05 b6 4d bd 7e bb e1 be
       0.42343366 0.3857399 -0.050222415 -0.44088358
000140 d8 53 e7 be 58 61 0a 3f 7a 7f 91 3e 6f dc 39 3e
       -0.45181155 0.54054785 0.2841757 0.18150495
000150 6c 61 01 bf 28 0d 0a 3f 7e db 13 3f 39 05 1c 3f
       -0.5053928 0.53926325 0.57756793 0.6094547
000160 95 cc e4 be 53 bf f7 bd 30 11 7c be a8 b2 05 3f
       -0.44687334 -0.12097039 -0.24615932 0.5222573
000170 5b e8 39 be 84 c1 69 be 7f 2f 7e 3e b2 f8 12 be
       -0.18155043 -0.22827727 0.24822806 -0.14352682
000180 04 9a 73 be 90 68 19 bd 0a dc 42 bd 8b 18 a9 be
       -0.23789221 -0.037453234 -0.047573127 -0.33026537
000190 0d 40 c5 3e 30 f1 af be 2f 5f 3c 3e f0 af df 3e
       0.3852543 -0.343637 0.18395685 0.43688917
0001a0 4a ef 64 3e 76 d2 73 3d 6b 29 d3 3e 94 e9 35 3e
       0.22356907 0.059526883 0.41242537 0.17764884
0001b0 54 e1 6c be 36 46 09 3f e7 9f 2a 3e bc e3 da be
       -0.23132831 0.5362276 0.1666256 -0.42751873
0001c0 84 8a 75 be 36 77 6e be 11 b1 f9 3e 00 1c a9 bd
       -0.23978621 -0.23287663 0.48767903 -0.08257294
0001d0 b2 59 e9 be 17 14 91 3d 97 b1 8e 3e bb 32 15 3e
       -0.45576245 0.0708391 0.27869865 0.14570133
0001e0 71 f4 82 3e ea 3f ff 3c f1 2d 2f 3e 4e ad a7 bd
       0.2557712 0.031158406 0.17107369 -0.08187352
0001f0 88 bb 0e be 68 50 ea be e1 7a c2 be 93 e0 42 3e
       -0.13938725 -0.4576447 -0.37984374 0.19030981

net.2.weight f4 [128, 128]
000000 2c d7 f5 3c af 46 eb bc 95 0a a5 3e ce 6a 04 3e
       0.030009829 -0.028720228 0.32234636 0.12931368
000010 c0 07 9e 3d 67 97 1a 3e 68 07 26 3d d7 4b c2 3d
       0.07716322 0.15096818 0.040534407 0.094871216
000020 81 6f e8 bd 69 b2 b4 bd 2c 86 72 3e 5e 96 81 be
       -0.11349393 -0.088230915 0.23683995 -0.25310034
000030 17 95 22 3e b7 f9 c0 be 4d d7 14 3c fb c1 19 be
       0.15877186 -0.37690517 0.009084535 -0.15015404
000040 8c 9b 95 3e ae d0 06 3e 9f 27 b7 3b a2 e4 f2 3d
       0.29220235 0.13165542 0.00558944 0.118600145
000050 d6 1b cd 3d 6c 06 9d bc c7 86 eb 3d ee b2 cc bd
       0.10015075 -0.019168101 0.11500316 -0.09995066
000060 38 d0 19 3c ac 15 16 3e 80 fe 46 bc 7f dc 26 3e
       0.009388022 0.14656705 -0.0121456385 0.1629505
000070 85 54 35 3e d0 c8 44 3e 18 41 a3 3c a0 b6 50 bc
       0.17708023 0.19217229 0.0199285 -0.012738854
000080 e4 f4 0e 3e 8d 88 76 3d 7a d0 4e bd 3a 4c 3e 3e
       0.13960606 0.06018882 -0.050491787 0.18583766
000090 94 fc d6 bd 7e 94 0e 3d 11 ed 89 bc 78 ea c3 bc
       -0.10497394 0.034809582 -0.016836675 -0.023915514
0000a0 af 3a fa 3d bc 0c 71 bd 75 ea bc 3d 85 5e 0a 3e
       0.12218224 -0.058850035 0.09224407 0.13512619
0000b0 92 93 a8 be cc 30 7e 3e 72 43 99 3d 29 fa 92 bd
       -0.32925087 0.24823302 0.07483567 -0.071766205
0000c0 2a 63 33 3d 34 98 d8 3c 8e 53 f3 3d e3 f4 a7 bd
       0.043795742 0.026439764 0.11881171 -0.08201005
0000d0 aa 01 69 3d d4 58 dc 3d f2 6f 3e be 54 c1 28 be
       0.056886353 0.1075913 -0.18597391 -0.16479999
0000e0 82 af df 3d 1a 1a 84 bc 05 f7 a3 3d 4e 17 f0 3d
       0.10922147 -0.016125727 0.080060996 0.11723195
0000f0 02 e3 f4 3d d8 1e fc 3c cb 84 87 be 04 77 12 3e
       0.11957361 0.030776426 -0.264685 0.14303213
000100 60 e3 78 be 44 05 04 3e e3 cf 03 3e 72 fc b5 3d
       -0.24305487 0.12892634 0.12872271 0.08886041
000110 6a bc 2c bd 5e ef 67 3d f0 f6 37 bc cc 0e 1b 3d
       -0.042171873 0.056624763 -0.011228308 0.03785591
000120 88 27 06 3e ac 16 a6 bd 69 3a a0 3e 06 a9 7c 3d
       0.13101017 -0.08109793 0.31294563 0.06168463
000130 11 5e a3 3d d4 de 06 3e e5 74 1e 3e cd 7e 9a 3d
       0.07976926 0.1317094 0.15474279 0.075437166
000140 4f cf 92 3d 00 78 04 bc 93 7f 6e 3e f0 c2 17 3d
       0.07168447 -0.008085251 0.23290853 0.03705114
000150 29 5c 22 3d b4 9c 38 3d 26 0a f4 3d f8 90 e4 bc
       0.039638672 0.04507132 0.11915998 -0.027901158
000160 c8 e3 a2 be 46 38 39 be e3 6c 2f be 69 d7 0d 3e
       -0.31814408 -0.18087873 -0.1713138 0.13851704
000170 a3 01 87 3e e0 dc 03 3c 49 35 b7 bb c9 3e 8f 3d
       0.26368436 0.008048266 -0.005591069 0.06994397
000180 ce 6a 73 3d af e9 f4 3d 66 ef 32 be 49 5b e3 3d
       0.05942803 0.11958634 -0.17474136 0.11101396
000190 bc 74 b1 bc b2 52 4e 3e 94 8e 46 3e 1b 60 a2 3d
       -0.021662109 0.20148733 0.19390327 0.07928487
0001a0 03 8a c3 3d 9d 4c 0c 3e a0 de 43 3e d1 41 01 be
       0.09547808 0.137011 0.19127893 -0.12622763
0001b0 18 bf 1e bc 4d 25 67 3d 88 21 25 be 85 a2 57 be
       -0.009689115 0.056432057 -0.16126072 -0.2105809
0001c0 86 87 93 3e 27 2e 04 3e df e0 90 3d 64 74 a4 3c
       0.28814334 0.1290823 0.07074141 0.02007503
0001d0 00 bc 1c bd a0 9d 1f 3d aa 81 e8 3d 25 41 cb bc
       -0.03826523 0.038968682 0.113528565 -0.024811337
0001e0 08 ae 94 bc cc 0e e0 3d 16 d8 5c 3d 5e b2 a8 3e
       -0.01814939 0.10940322 0.053917013 0.32948583
0001f0 61 97 e4 3c b4 3e 34 be 0a 08 b5 bc 60 9f 00 3e
       0.027904214 -0.17602044 -0.02209856 0.12560797
000200 0a 55 92 bd 2d 7e f2 bc 21 ba c0 3c 6c 99 a8 bd
       -0.07145126 -0.02960118 0.023526253 -0.08232388
000210 0e 78 46 3d 19 4d 29 3d 4e bd 44 3d 14 d1 66 bd
       0.048454337 0.04133329 0.048032098 -0.056351736
000220 5d 62 af 3d b9 7c 6b bd 2a 71 a8 3d f7 b8 ad bd
       0.08563683 -0.05749199 0.08224709 -0.08482545
000230 65 48 a1 bd e2 5c 5e 3d f9 59 4a 3b 47 c6 f2 3a
       -0.07875136 0.0542878 0.0030876382 0.0018522226
000240 6d a8 4d bd 85 d3 1b bd 6f c4 06 bd f3 d3 bd bd
       -0.05020945 -0.038043518 -0.032902177 -0.09268942
000250 68 15 6d 3b 3c 0f 80 3c 00 f0 9c b8 ef a1 cb 3c
       0.003617609 0.015632264 -7.483363e-05 0.02485749
000260 a7 c2 ab 3d 48 85 c0 3c 49 88 04 bd 63 19 28 bd
       0.08386736 0.023501053 -0.032356534 -0.041039836
000270 40 ea 78 bd b7 0b 89 bd a0 39 69 bc 78 10 80 bc
       -0.060770273 -0.066916876 -0.01423493 -0.015632853
000280 9f d7 19 3d 00 c3 36 bd 2d 4f 90 3d 79 46 8c bd
       0.037559148 -0.04461956 0.070463516 -0.06849379
000290 09 2d 45 ba 1b ae 96 3d c1 00 b4 3d 20 b7 51 bd
       -0.00075216644 0.07357427 0.08789206 -0.051200032
0002a0 a1 08 1c 3c 58 0f 2b 3c 17 09 44 bd 19 16 0c bd
       0.009523542 0.01044067 -0.04786023 -0.03420076
0002b0 fa 7d b2 3c 8e 46 82 bd a7 98 05 3c 2f 6e 02 3d
       0.021788586 -0.063611135 0.008154071 0.03184336
0002c0 2b ab 0e bd b3 5c 96 3d 77 7b 1b bc 01 1d 0b 3d
       -0.034831207 0.073419 -0.0094898855 0.033963207
0002d0 bd 43 b3 3d 57 ee 09 bd 44 ea 3b 3d c8 4e f9 bc
       0.087531544 -0.033674564 0.04587771 -0.030433074
0002e0 89 0e 9d bc 50 b2 ae bc c6 7e f4 bb 94 50 20 bd
       -0.01917197 -0.02132526 -0.0074614016 -0.039139345
0002f0 a6 01 87 3c a0 44 5a 3b 1e 7e 65 3d 06 79 c5 bc
       0.016480278 0.0033305064 0.056028478 -0.02410556
000300 a0 38 11 3c 08 22 0a bd 3c 32 a3 bd d4 3a ef 3c
       0.008863598 -0.03372386 -0.07968566 0.029202856
000310 88 4d 39 3c 98 fd 10 bd 6c d0 f4 bc 19 74 93 3c
       0.011309989 -0.035398096 -0.02988454 0.017999696
000320 e8 ec 82 bc 62 95 6c 3d f6 52 1c 3b ca 95 e5 3c
       -0.015982106 0.05775965 0.002385316 0.028025527
000330 80 d8 02 3d 2c 07 e3 bc 1b 55 16 3d 87 94 85 3d
       0.03194475 -0.02771338 0.036702257 0.0652247
000340 90 48 85 3b 07 e0 28 3c 08 5f 79 b9 15 4e 64 3d
       0.004067488 0.0103073185 -0.00023781892 0.055738527
000350 30 43 1d bd 5a bb 5c bd b0 36 01 3d 0f 38 ab bd
       -0.038394153 -0.05388961 0.031546295 -0.08360302
000360 80 bd b9 3a 1e 3c 35 bd 2a f5 6e 3d 24 e2 b6 bd
       0.0014170855 -0.044246785 0.058339275 -0.08929852
000370 0e 84 5b 3d bb 17 b3 3d d1 fc 34 3c b0 f8 c0 bb
       0.053592734 0.087447606 0.011046604 -0.005889021
000380 32 f5 a8 3d fc 73 2e bd 70 17 e8 bb dd 89 1e bd
       0.08249892 -0.04259108 -0.007082872 -0.038705695
000390 88 60 99 bc 5f 21 9a 3c fb 7b d0 3b a4 26 bc bc
       -0.018722787 0.01881474 0.006362436 -0.022967644
0003a0 05 1e c2 bd a5 ab 2a 3b cb 49 12 bc 73 46 17 3c
       -0.09478382 0.002604225 -0.008928726 0.009233105
0003b0 c3 b4 8a 3d 93 32 a2 3d 14 9e 6b bd 00 99 b4 bb
       0.06772759 0.079198025 -0.057523802 -0.005511403
0003c0 5d e2 16 bd ef d5 a6 bd a4 d0 90 bd cf e5 a9 3d
       -0.03683697 -0.08146273 -0.07071045 0.08295786
0003d0 36 17 53 3d dd 0f 2c 3d 19 9f 2e 3d 1d 35 99 bd
       0.051535808 0.042007316 0.042632196 -0.07480834
0003e0 3c 09 e2 3b 6b 65 9b 3d 59 de 60 bd 8f 5a 9c 3d
       0.0068980735 0.07587703 -0.054899547 0.0763446
0003f0 16 ab b0 3c 9a be 7a 3d c8 17 1b bd b5 cc 0d 3d
       0.021565955 0.061216928 -0.037864476 0.034619052

net.2.bias f4 [128]
000000 79 1d 93 3c 5c 60 9d 3d d4 ae 4f bc 28 5f 3f 3c
       0.01795839 0.07684395 -0.01267596 0.011680402
000010 90 66 9c 3c 92 4c 33 bd 4a c7 ab 3d 59 76 d8 3d
       0.019091874 -0.043774195 0.08387621 0.10569448
000020 5c 13 a5 3d 7c 16 a5 3d ea 99 c7 3d 6a b5 5b bd
       0.08060333 0.08060929 0.09746154 -0.053639807
000030 e2 06 a6 3d 25 20 08 bd d1 5d ae 3c 57 d0 7e bd
       0.081067815 -0.03323378 0.02128497 -0.062210407
000040 ec 79 1c 3e c4 7e 64 bd a5 ef cb bc a3 d7 86 bd
       0.15280885 -0.055784956 -0.024894545 -0.06584098
000050 18 41 74 bc d0 37 17 bd 74 67 62 bd d6 65 ac bd
       -0.014908098 -0.03691846 -0.05527444 -0.08417861
000060 d2 98 b8 3d 01 be c9 3d 48 24 5d bc 78 4f b3 3d
       0.09013523 0.098506935 -0.01349742 0.08755392
000070 30 55 a4 3c a9 c7 e7 bc 1b 21 80 bc 18 3c 0f 3d
       0.020060152 -0.028293448 -0.015640786 0.03496942
000080 99 97 25 3e 40 d9 94 bb 29 81 67 bc dc 8c d8 3d
       0.16171111 -0.0045425 -0.014129915 0.10573742
000090 b2 b6 97 bd c2 35 41 3d f3 4d 67 bd 3e 6d 50 3e
       -0.07407893 0.047170408 -0.056470823 0.20354173
0000a0 6b 5f c3 3d 4e 92 61 bd 26 4a 64 bd 28 3a 05 bc
       0.09539684 -0.055071168 -0.055734776 -0.008131541
0000b0 ff 24 8a 3c 8c 6f b9 3d 58 db 91 bc 75 bb 3c bd
       0.016863344 0.09054479 -0.017804787 -0.04607721
0000c0 88 3c af bd 5c 3e 26 bc ff 16 d5 3d 37 97 54 bd
       -0.08556467 -0.010146704 0.10404777 -0.051902022
0000d0 b1 94 ad bb 66 6c 85 3d 31 9f 5f 3e e2 6e 6e bd
       -0.0052972664 0.06514816 0.2183807 -0.058211215
0000e0 17 2d 92 bd da 74 62 3e f0 4e e5 bc 1d a6 59 3c
       -0.071375065 0.22114888 -0.027991742 0.013284233
0000f0 98 8f c0 bd 1c a3 9a 3d 65 6c de 3c 62 26 10 bc
       -0.09402388 0.07550642 0.027151296 -0.008798214
000100 f4 56 44 bd 67 b9 17 3e 3c b1 10 bd 77 b6 aa ba
       -0.047934487 0.14816819 -0.035325274 -0.001302435
000110 2f ef d7 bc 4c cf 7a 3d b0 e8 3d 3d d0 c4 65 bc
       -0.026359169 0.06123285 0.046364486 -0.014023975
000120 b5 87 ae 3b e6 07 75 3d f5 b4 0a bd e5 a0 ac 3d
       0.005326236 0.059821986 -0.03386398 0.08429126
000130 98 67 52 3e a1 73 ba 3d e6 0a 44 bc 73 0d 63 bd
       0.2054733 0.09104086 -0.011965489 -0.055432748
000140 e9 2d 04 bd d8 13 b2 3d c4 08 31 bd c8 98 57 bd
       -0.032270346 0.08695191 -0.04322125 -0.052635938
000150 c1 5b c9 bc b2 21 0b 3d 1b 15 4d 3d 54 eb 60 3c
       -0.024579884 0.03396768 0.050068956 0.013727982
000160 2c f5 10 3e 15 97 e6 3d e0 ae 60 bd 33 98 01 bd
       0.14156026 0.11259285 -0.054854274 -0.03163929
000170 dd bd e9 ba ed 33 27 3e 63 a3 b4 bd ea 23 3c 3c
       -0.0017833073 0.16328402 -0.08820226 0.011483172
000180 4d 1a f6 bc e7 fb 51 3d e1 20 81 b9 c0 0c 42 3e
       -0.030041838 0.051265623 -0.00024629294 0.18950176
000190 d4 bf b2 3c a3 fe b9 3c 2c 0a bc bd 7b fb a3 bc
       0.021819986 0.022704428 -0.09181628 -0.020017376
0001a0 e8 5f 77 bd e7 93 2e 3e c9 12 c0 bc 53 ef 86 3d
       -0.060394198 0.17048608 -0.023446457 0.06588616
0001b0 62 10 87 bd dd f1 8f 3d cd 71 03 3c db 53 9b bd
       -0.06594922 0.07028554 0.008022738 -0.075843535
0001c0 e0 1c ba 3b 04 b7 50 bd f3 32 a9 3c 2f 38 ab 3d
       0.0056797117 -0.050955787 0.020654177 0.083603255
0001d0 25 fa 56 3d a3 07 a4 bc e7 41 82 3d 8f 7c 28 3d
       0.05248465 -0.020023173 0.06360226 0.041134413
0001e0 44 3b 51 3d 9b 35 c5 3d 8b 35 b4 bd 62 1a 3f bd
       0.05108191 0.09629365 -0.08799275 -0.04665602
0001f0 f9 a3 6c 3d 75 68 09 3e cb 79 79 bb 84 6b 84 bd
       0.057773564 0.13418753 -0.003806698 -0.064658195
