dqn_out/dqn_ep5650.pt (torch, 464501 bytes, 24 tensors)

net.0.weight f4 [128, 77]
0	0xbeff403e	-0.498537
1	0x3d6653e7	0.05623236
2	0xbd9c8f0f	-0.07644474
3	0xbe107a19	-0.14109077
4	0x3c89ee09	0.016837137
5	0x3d13641b	0.03598414
6	0x3c7b54e9	0.015340068
7	0x3dd57d6b	0.10424312
8	0x3d9e5402	0.07730867
9	0xbda0929d	-0.07840464
10	0x3ccb145c	0.024789982
11	0xbe7d28f5	-0.24722655
12	0xbdf69cc8	-0.120416224
13	0xbc2eb33d	-0.010662851
14	0xbd00e64d	-0.031469632
15	0x3ca4c693	0.020114219
16	0x3d3057a2	0.043052323
17	0x3dc90824	0.09816006
18	0xbd52b504	-0.05144216
19	0xbd5f575b	-0.054526668
20	0x3d157817	0.03649148
21	0x3c9e0916	0.019291442
22	0xbda6d838	-0.08146709
23	0x3e041584	0.12898833
24	0xbce13f51	-0.027496012
25	0x3cc2f4a1	0.023798289
26	0x3dcbdd4b	0.09954318
27	0xbdb619fd	-0.088916756
28	0xbe0d101e	-0.1377568
29	0xbd7b8353	-0.061404537
30	0xbe2da581	-0.16957666
31	0x3ddabb91	0.10680307
32	0xbd0847f3	-0.03327174
33	0xbce3b51c	-0.02779632
34	0xbd9ea492	-0.07746233
35	0xbdc858ed	-0.09782586
36	0xbd563a7b	-0.052301865
37	0x3dce8cb2	0.10085429
38	0x3d3c364f	0.04595023
39	0x3d4e2973	0.050332498
40	0xbd9713c2	-0.073768154
41	0xbe0cb923	-0.13742499
42	0x3d57c2b2	0.05267591
43	0xbdf8261e	-0.12116645
44	0xbe21f5a6	-0.15816364
45	0xbd0188ad	-0.031624485
46	0x3d1c4e70	0.03816074
47	0xbd5591e9	-0.052141104
48	0xbe75647f	-0.23964117
49	0xbdbc049a	-0.09180565
50	0x3d9602a6	0.07324724
51	0x3e18bdaa	0.14916101
52	0x3d3e5a87	0.046473052
53	0x3c814d9d	0.01578408
54	0x3dcd1767	0.10014229
55	0xbd16f2a1	-0.036852483
56	0x3cd7df69	0.026351647
57	0xbdbefc85	-0.09325508
58	0xbdabcc11	-0.08388532
59	0xbe212235	-0.15735705
60	0x3dae27ce	0.08503686
61	0x3c2dc367	0.01060567
62	0xbdd27749	-0.10276658
63	0x3ccedf6e	0.025253024
64	0x3c10ccff	0.008837937
65	0x3d2fdf7a	0.042937733
66	0xbcd870ca	-0.02642097
67	0xbd8aa468	-0.06769639
68	0x3e33b661	0.17550041
69	0x3e2df817	0.1698917
70	0xbd0c8144	-0.034302965
71	0xbce7f1b4	-0.028313495
72	0x3db68742	0.08912517
73	0x3e09784b	0.13424794
74	0x3e04ced7	0.12969528
75	0x3dd4159e	0.10355686
76	0x3c91a590	0.017779142
77	0x3fc2dc46	1.5223472
78	0x3d508c13	0.050914835
79	0xbd88627d	-0.0665941
80	0xbc4a5909	-0.012350329
81	0x3d1609e5	0.03663053
82	0x3b6df0f3	0.0036306947
83	0xbd4c2d0f	-0.04984766
84	0x3b1f0f3a	0.002427055
85	0xbdbfd762	-0.09367253
86	0x3d1ccc6b	0.038280886
87	0xbd174356	-0.03692945
88	0x3da892e9	0.08231146
89	0xbd7c3ad8	-0.061579555
90	0x3b890698	0.0041816942
91	0xbd162063	-0.03665198
92	0x3dbc153b	0.09183737
93	0x3d0095bb	0.031392794
94	0xbd51f5c4	-0.05125977
95	0xbd57f78e	-0.05272632
96	0x3dc7570d	0.097334005
97	0x3d83a71f	0.0642836
98	0xbd45191d	-0.048119653
99	0x3bdfbc20	0.006827846
100	0x3d3faf0d	0.0467978
101	0x3cea0f67	0.028571798
102	0xbd93f7f1	-0.072250254
103	0xbdb5d459	-0.08878393
104	0xbe161741	-0.14657308
105	0x3c9a93b9	0.018869268
106	0xbc048a28	-0.00808958
107	0xbe0b3684	-0.13595015
108	0x3c44c6d6	0.012010297
109	0x3d219d53	0.039456677
110	0xbd0e0d6f	-0.03468078
111	0x3daadc3e	0.08342789
112	0xbba26f73	-0.0049571334
113	0x3dfa3de9	0.1221884
114	0x3dce6a2a	0.10078843
115	0xbd64058d	-0.055669356
116	0x3c45ba15	0.012068291
117	0x3c4b8d16	0.012423774
118	0xbcd1f4fb	-0.025629511
119	0x3ba3a8b9	0.0049944785
120	0xba88573c	-0.0010401974
121	0xbdc4e742	-0.096144214
122	0xbd53e9f8	-0.051736802
123	0xbc88cc92	-0.01669911
124	0xbdea18b0	-0.1143049
125	0xbe6a5224	-0.22882897
126	0xbda07ac0	-0.07835913
127	0xbdc6e59b	-0.097117625
128	0xbc37b5f7	-0.011212817
129	0xbcb4cbe4	-0.022069879
130	0x3cd31ac0	0.025769591
131	0x3d5a9834	0.05336781
132	0xbd2cd575	-0.042195756
133	0x3ce83e2f	0.028349964
134	0x3df9e0e7	0.122011
135	0x3ceb3e0f	0.028716115
136	0xbb995be8	-0.0046801455
137	0x3d634de0	0.05549419
138	0x3cff9b14	0.031201877
139	0xbb7bca18	-0.0038420018
140	0xbe4ce945	-0.2001086
141	0xbc2672e0	-0.010159224
142	0x3b69993c	0.0035644313
143	0x3d80b054	0.06283632
144	0xbee1f428	-0.4413159
145	0xbe92d909	-0.2868121
146	0xbc7ce5cc	-0.015435647
147	0xbc29e43f	-0.0103693595
148	0xbe3a01c7	-0.1816474
149	0xbd731d21	-0.05935395
150	0xbd3ac0b5	-0.045593936
151	0xbda896d6	-0.08231895
152	0x3c52c188	0.012863524
153	0x3dd2cc1d	0.10292838
154	0x3fac96b7	1.3483495
155	0xbdea901c	-0.11453268
156	0x3d201ea8	0.039091736
157	0xbc67e86b	-0.014154534
158	0xbd2c7e15	-0.04211243
159	0xbd63ce9d	-0.055616964
160	0x3d108a1b	0.035287958
161	0x3d0b097c	0.033944592
162	0xbd4d52c7	-0.05012777
163	0xbda3252f	-0.079660766
164	0x3c93d01d	0.018043572
165	0x3e232a06	0.15934
166	0xbc82c1ca	-0.015961546
167	0x3d37d390	0.044879496
168	0xbd465ee6	-0.048430346
169	0x3d123456	0.035694443
170	0x3de18d75	0.11013309
171	0xbcd46572	-0.02592728
172	0x3d96c193	0.0736114
173	0x3d1619f6	0.036645852
174	0xbddc1974	-0.10747042
175	0x3d46aac1	0.048502687
176	0x3d08602e	0.03329485
177	0xbd54b0cb	-0.051926415
178	0x3d892f23	0.06698444
179	0xbd224ae9	-0.03962222
180	0x3db6844f	0.089119546
181	0x3d4c084d	0.049812604
182	0x3dc518dd	0.09623883
183	0x3d4a00b9	0.049317095
184	0x3e38cd88	0.18047154
185	0x3c842b6a	0.016133983
186	0x3c921a0c	0.017834686
187	0xbcaa2647	-0.020770205
188	0xbd2c62fd	-0.04208659
189	0x3dc9cd55	0.09853617
190	0x3de7cb61	0.11318088
191	0x3d93f878	0.07225126
192	0xbdae1a22	-0.08501078
193	0x39efc7fa	0.00045734626
194	0xbd007637	-0.03136274
195	0xbd957232	-0.07297172
196	0xbdaf8720	-0.08570695
197	0x3d4149e8	0.047189623
198	0xbd3571cd	-0.044297982
199	0x3d9a0470	0.07520378
200	0x3d3ce46a	0.04611627
201	0x3e165c90	0.14683747
202	0xbc9e2eec	-0.019309483
203	0x3e0159cb	0.1263191
204	0xbcc4ca50	-0.024022251
205	0x3ddd6d30	0.108118415
206	0xbda8387e	-0.082139
207	0x3ddd18cd	0.10795746
208	0x3db679c1	0.089099415
209	0x3d85c37c	0.06531426
210	0x3d0b5e51	0.034025494
211	0xbcde708f	-0.027153281
212	0x3c1e7a87	0.0096727675
213	0xbc04d865	-0.008108233
214	0xbd1e192c	-0.038598225
215	0xbc8946fa	-0.016757477
216	0xbdbf6f64	-0.09347418
217	0xbd49c225	-0.049257416
218	0x3df0f6d9	0.117658325
219	0xbd380eb5	-0.0449359
220	0x3d5882af	0.052859005
221	0x3d784590	0.060613215
222	0x3e098521	0.13429691
223	0x3cd92f0c	0.026511692
224	0x3c2e73ea	0.010647753
225	0xbccc28cb	-0.024921795
226	0xbdf9d6d5	-0.12199179
227	0x3bc32f94	0.0059565995
228	0xbc4c9ca3	-0.012488517
229	0x3c7cd2cb	0.015431116
230	0xbb5d6d0b	-0.0033786919
231	0x3fea8026	1.8320358
232	0x3bc60b27	0.00604381
233	0x3d5df882	0.054192074
234	0x3d5f6783	0.054542076
235	0xbd5e9dba	-0.05434964
236	0xbc02f813	-0.007993716
237	0xbd608491	-0.054813925
238	0xbd318550	-0.043340027
239	0x3d90971f	0.07060074
240	0x3d9f2c02	0.07772066
241	0x3ce711cc	0.028206728
242	0xbd1ace3e	-0.037794344
243	0x3d9f9d10	0.07793629
244	0x3d0ba393	0.034091543
245	0xbdff9e89	-0.1248141
246	0x3db150f5	0.086580195
247	0xbd144a33	-0.036203574
248	0x3ca37b65	0.0199563
249	0xbcd22f7d	-0.02565741
250	0xbd8badf7	-0.068202905
251	0x3be16cd5	0.006879429
252	0x3d3b74b7	0.045765605
253	0x3c13ef20	0.00902918
254	0xbda66c99	-0.08126182
255	0xbd76ad79	-0.06022403

net.0.bias f4 [128]
0	0xbceb3982	-0.028713945
1	0xbbc1f353	-0.005918899
2	0xbda991d4	-0.08279768
3	0x3ce2e70e	0.027698066
4	0xbd877145	-0.06613401
5	0xbd651e9b	-0.05593739
6	0x3d4421f3	0.04788394
7	0xbd34ace1	-0.044110183
8	0x3caf7ebc	0.021422736
9	0x39f4d6bd	0.000466993
10	0x3d26387c	0.04058121
11	0x3d8a30fb	0.067476235
12	0xbdd82139	-0.10553212
13	0xbd70a04f	-0.058746632
14	0x3e5f0cdc	0.21782249
15	0x3d051e21	0.032499436
16	0xbc2f6418	-0.010705017
17	0x3d9ca5bf	0.07648801
18	0x3e1730d5	0.14764722
19	0x3d61cb64	0.05512561
20	0xbd5f2bd3	-0.054485153
21	0x3de5af45	0.11215071
22	0xbdb69e36	-0.08916895
23	0xbdde814b	-0.108645044
24	0x3c6b9b18	0.014380239
25	0x3cd302e6	0.025758218
26	0xbdd200b3	-0.102540396
27	0x3dbd4a2e	0.09242664
28	0xb9e8473e	-0.00044303568
29	0xbd8af2fb	-0.06784626
30	0x3d03aa45	0.032144804
31	0x3db84ae8	0.08998662
32	0x3c136854	0.008997042
33	0x3da9cdf1	0.08291233
34	0x3d759cd5	0.05996402
35	0x3d0a0cfa	0.03370378
36	0xbd515992	-0.05111081
37	0xbdaf2b12	-0.08553137
38	0xbcc5101f	-0.024055539
39	0xbd0e559e	-0.03474962
40	0xbdbacfb2	-0.09121646
41	0xbdd37b30	-0.103262305
42	0xbd9e0684	-0.077160865
43	0x3adce356	0.0016852419
44	0xbd28cfaa	-0.04121367
45	0xbdc41771	-0.095747836
46	0x3c92d1c6	0.017922293
47	0xbd11342f	-0.035450157
48	0xbd35b4f9	-0.044362042
49	0x3dbce505	0.092233695
50	0x3d345aeb	0.04403202
51	0x3e140c54	0.14457828
52	0x3dc6de79	0.09710402
53	0x3ca83019	0.020530747
54	0xbd54e6eb	-0.051978033
55	0xbbea6a41	-0.0071537797
56	0x3d92f50d	0.07175646
57	0xbd44ad54	-0.04801686
58	0x3dc1b863	0.09458997
59	0x3de4c254	0.11169878
60	0xbd87778e	-0.066146
61	0x3d6d7fa8	0.05798307
62	0x3d15e282	0.036592968
63	0x3d448e6a	0.04798738
64	0xbda9a373	-0.082831286
65	0x3e0468ee	0.12930652
66	0xbd337c80	-0.043819904
67	0x3d4486d9	0.047980163
68	0xbd90a477	-0.07062619
69	0x3d448e36	0.047987185
70	0xbcfa673f	-0.03056681
71	0xbd6fafbd	-0.058517206
72	0xbdd35ed4	-0.103208214
73	0x3d0074a7	0.03136125
74	0x3d4a58fd	0.049401272
75	0x3cdce97d	0.026966805
76	0xbcbaae84	-0.022788294
77	0x3c9c3263	0.019066995
78	0xbd3ea242	-0.04654146
79	0x3d0b0753	0.03394253
80	0x3db1f850	0.0868994
81	0xbdb2f6fa	-0.08738513
82	0x3d524443	0.05133463
83	0xbd31bb1e	-0.04339134
84	0x3d06c38e	0.03290134
85	0xbccbac70	-0.024862498
86	0x3d6f96f1	0.05849356
87	0xbd9b5e4e	-0.075863466
88	0x3d9945d4	0.07484022
89	0x3d89bb30	0.06725156
90	0xbdbefa90	-0.09325135
91	0xbda49fcb	-0.080382906
92	0x3d9406d8	0.07227868
93	0xbda1d3d7	-0.07901733
94	0x3cfc9004	0.03083039
95	0xbd40e6c5	-0.04709508
96	0xbddf96d2	-0.109174386
97	0x3d3454b3	0.044026088
98	0xbcf67e2e	-0.030089464
99	0xbd4f8263	-0.050661456
100	0x3d477e06	0.04870417
101	0x3d592ba8	0.05302015
102	0x3dca64fb	0.09882542
103	0x3dd831a8	0.10556346
104	0x3d0799cf	0.033105668
105	0x3c250a06	0.010073191
106	0x3d731c21	0.059352998
107	0x3d791b85	0.06081726
108	0xbd92a559	-0.07160444
109	0x3dba3342	0.09091808
110	0x3d1350de	0.035965793
111	0x3d397e74	0.04528661
112	0x3c70fb52	0.014708357
113	0xbe060fbd	-0.13091941
114	0x3dced2c2	0.100987926
115	0x3c2f16ba	0.010686571
116	0xbb571183	-0.0032816834
117	0xbd5fd333	-0.054644775
118	0x3da2c952	0.07948555
119	0xbc7ac329	-0.015305319
120	0x3c094a19	0.008379483
121	0xbddc3ff9	-0.10754389
122	0x3e0274f8	0.12739933
123	0xbddb133a	-0.106970266
124	0x3d6d4646	0.057928346
125	0x3d7f4ffb	0.062332135
126	0x3c8f586a	0.017498214
127	0xbd8ee247	-0.06976753

net.2.weight f4 [128, 128]
0	0xbd0f4345	-0.034976263
1	0x3b655fbb	0.0034999687
2	0xbda40dca	-0.080104426
3	0xbcf8d239	-0.03037368
4	0xbd09034f	-0.03345042
5	0xbc37f93a	-0.011228854
6	0x3d97d42a	0.07413514
7	0x3d9f3a23	0.077747606
8	0xbcef8a84	-0.029240854
9	0x3d96646c	0.07343373
10	0x3c953893	0.018215453
11	0x3d8b45f6	0.06800453
12	0xbd9de019	-0.07708759
13	0xbca31adc	-0.019910268
14	0xbc488bd7	-0.012240372
15	0x3dd3c69b	0.10340615
16	0x3d92a072	0.07159509
17	0xbca2ad6e	-0.019858088
18	0xbd98b578	-0.074564874
19	0xbd1b93ed	-0.03798287
20	0x3cfe2a8a	0.031026144
21	0x3cdc71c2	0.026909713
22	0xbcd52dfd	-0.026022905
23	0x3d012379	0.03152797
24	0xbbb3f136	-0.005491401
25	0x3db4dae6	0.08830814
26	0xbcfb9426	-0.030710291
27	0xbd242f2c	-0.04008405
28	0x3cd38fe6	0.025825452
29	0x3bcfa9e2	0.0063373903
30	0x3d72aac6	0.059244893
31	0x3dbeb986	0.093127295
32	0xbc760359	-0.015015447
33	0x3dcacc71	0.09902275
34	0x3d7c9df2	0.061674066
35	0x3d9ff5b5	0.07810537
36	0x3cc56274	0.024094798
37	0x3ba3cae6	0.0049985526
38	0x3ceb8ffa	0.028755177
39	0x3ac45429	0.0014978695
40	0xbd808a63	-0.06276395
41	0xbc3a53ff	-0.011372565
42	0x3d9506a8	0.0727666
43	0x3c9eda70	0.019391268
44	0x3d0dc7ca	0.03461436
45	0x3c0c2830	0.008554503
46	0x3c1b9152	0.009495096
47	0xbd4c3725	-0.049857277
48	0x3c897991	0.0167816
49	0xbbef2e04	-0.0072991867
50	0xbcb72e43	-0.022360926
51	0xbd64da71	-0.055872384
52	0x3bc8a77b	0.006123481
53	0x3a4e757e	0.0007875784
54	0xbd080550	-0.03320819
55	0x3bea2699	0.0071457145
56	0xbb6ed14f	-0.0036440676
57	0x3c2b1baf	0.010443612
58	0xbd97ce52	-0.07412399
59	0x3da4c607	0.08045583
60	0xbd2b941b	-0.04188929
61	0x3d830c5b	0.06398841
62	0xbd698a05	-0.05701639
63	0xbb8728e2	-0.0041247467
64	0xbc2a1807	-0.010381705
65	0xbd997656	-0.07493274
66	0xbabe7728	-0.0014531361
67	0xbd5a67ae	-0.053321533
68	0x3d21f1c0	0.03953719
69	0x3d4b843a	0.049686648
70	0xbbaa45f5	-0.005196328
71	0x3d03bbf7	0.03216168
72	0xbd5b4bed	-0.053539205
73	0x3d264ac5	0.04059865
74	0xbd9dd145	-0.077059306
75	0x3db0cdd7	0.08633011
76	0xbcd1f4b3	-0.025629377
77	0x3d15478d	0.03644519
78	0x3d9dd7e0	0.077071905
79	0xbd9500c3	-0.07275536
80	0xbd3c952f	-0.04604071
81	0x3cbdb6ef	0.023158519
82	0xbdc21878	-0.09477323
83	0x3ccf30d0	0.02529183
84	0xbbabb67f	-0.005240261
85	0xbda9cc84	-0.082909614
86	0xbc297025	-0.010341679
87	0xbd84f1e0	-0.064914465
88	0x3cf3e8b2	0.029774044
89	0x3da1aee0	0.07894683
90	0x3dac18d1	0.08403171
91	0xbdc6b7a2	-0.09702994
92	0x3d159e66	0.036528014
93	0xbd5b3b86	-0.053523563
94	0x3d0d5908	0.034508735
95	0x3d6b7832	0.057487674
96	0xbdc60627	-0.09669142
97	0xbd6595da	-0.056051113
98	0xbda0d698	-0.078534305
99	0xbc64b5d6	-0.013959369
100	0x3cb4e65c	0.0220825
101	0xbd81826a	-0.06323703
102	0x3af23edb	0.0018481867
103	0xbc82aacb	-0.015950581
104	0x3da4a3e6	0.08039074
105	0xbd2d1266	-0.042253874
106	0xbd4265f8	-0.047460526
107	0xbb8e5345	-0.0043434226
108	0xbd7f6a20	-0.062357068
109	0x3d8b2e2b	0.06795915
110	0xbdb20317	-0.086919956
111	0xbc96448b	-0.01834323
112	0xbd2cd868	-0.04219857
113	0xbc6fc2de	-0.014633862
114	0xbcfec8c3	-0.03110159
115	0x3d711e24	0.058866635
116	0xbd91c9f6	-0.07118599
117	0xbd2e396a	-0.042535223
118	0xbd04d0f0	-0.03242582
119	0xbd8a4db6	-0.067531034
120	0xbda93719	-0.08262462
121	0x3d2f064e	0.042730622
122	0x3dcc0bfd	0.09963224
123	0xbc5f2824	-0.01362041
124	0xbd0100f8	-0.031495064
125	0x3d3ec321	0.04657281
126	0x3dbd37c2	0.092391506
127	0xbd8b8e9b	-0.06814309
128	0xbdf899cb	-0.12138709
129	0xbdb45bd8	-0.0880658
130	0x3d30663d	0.043066252
131	0xbd4505b5	-0.048101146
132	0x3d17db2a	0.037074246
133	0x3cd308a1	0.02576095
134	0xbd9d41bf	-0.07678556
135	0xbc0f63b7	-0.008751801
136	0x3e14eced	0.14543505
137	0xbb7981bc	-0.0038071712
138	0x3ded1f60	0.1157825
139	0xbcc90981	-0.024540665
140	0xbbc73f70	-0.0060805604
141	0x3e1e8ddd	0.15483804
142	0xbec2dd51	-0.38059476
143	0xbcefee85	-0.02928854
144	0xbda4d4fe	-0.080484375
145	0x3caf190a	0.021374244
146	0xbdaff9f2	-0.08592595
147	0xbdb22bc3	-0.08699753
148	0xbe270d48	-0.1631366
149	0x3e05ae0e	0.13054678
150	0x3d22b435	0.03972264
151	0xbdc90308	-0.09815031
152	0x3d7c0956	0.06153234
153	0xbe381d82	-0.17980006
154	0x3df27fbc	0.1184077
155	0x3d4d5dcd	0.050138284
156	0x3cbc9814	0.023021735
157	0x3d84bf4f	0.06481802
158	0x3bae6d7c	0.00532311
159	0x3d09fbb7	0.03368732
160	0x3d062863	0.03275336
161	0xbd46b6fd	-0.048514355
162	0x3c2d60c7	0.010582156
163	0x3e16b762	0.14718392
164	0x3a4530d9	0.00075222325
165	0xbe554b16	-0.20829424
166	0xbd60101e	-0.05470287
167	0xbc6214bc	-0.013798889
168	0xbd46405b	-0.048401218
169	0x3cbf968c	0.023387216
170	0xbdfc41b4	-0.123172194
171	0x3d0e1bfa	0.03469465
172	0xbcbecaa9	-0.023289995
173	0xbd34d5e2	-0.044149287
174	0x3d58d3ac	0.05293624
175	0x3dc246ee	0.09486185
176	0x3e36e1ff	0.17859648
177	0xbca25fee	-0.019821133
178	0x3e081081	0.13287546
179	0x3cdbed0e	0.026846435
180	0x3d0f061b	0.034917932
181	0x3ceb8cbf	0.028753636
182	0xbdb4cdbc	-0.08828303
183	0x3da997f1	0.08280934
184	0xbe35f442	-0.17768958
185	0x3dd8258e	0.10554038
186	0xbdb59872	-0.08866967
187	0xbe0335fc	-0.12813562
188	0xbd8a1404	-0.06742099
189	0xbdc00834	-0.093765646
190	0xbd2b15c2	-0.041768797
191	0x3e37723e	0.17914674
192	0x3ce569ce	0.028004553
193	0xbe07e8e3	-0.13272433
194	0x3d874170	0.06604278
195	0x3d4ad837	0.049522605
196	0xbd11179a	-0.0354229
197	0x3bc1c3c0	0.005913228
198	0xbab6a373	-0.001393421
199	0x3d4dcdf7	0.05024525
200	0x3cc46cb3	0.023977613
201	0x3dbde997	0.09273069
202	0xbd9d3a88	-0.076771796
203	0x3e1d2cc9	0.15349115
204	0xbe0e2113	-0.13879804
205	0x3dc78644	0.09742406
206	0xbc8e1dae	-0.017348137
207	0x3d08214b	0.033234876
208	0x3d787d24	0.06066622
209	0x3e21b6f7	0.15792452
210	0x3d8150ae	0.063142166
211	0xbca790bf	-0.020454763
212	0x3cea52a1	0.028603854
213	0x3d95021f	0.07275795
214	0xbd26f89f	-0.040764447
215	0x3db5c7c9	0.088759966
216	0x3d7c60cb	0.061615746
217	0x3c21fda2	0.009887131
218	0xbcef7d19	-0.029234456
219	0x3df4f415	0.119606175
220	0x3d4fa1b9	0.05069134
221	0xbceec09a	-0.029144574
222	0x3dd320a4	0.1030896
223	0x3cd2dd85	0.025740394
224	0x3de2e8b2	0.11079539
225	0xbde82f5b	-0.11337157
226	0xbc6acd31	-0.014331148
227	0x3dbcebc2	0.09224655
228	0x3d967a59	0.07347555
229	0xbdaeefdd	-0.08541844
230	0xbe12c61e	-0.14333388
231	0x3d80c1b1	0.06286944
232	0xbe375306	-0.17902765
233	0xbe457aa0	-0.19285059
234	0xbeb72484	-0.35770047
235	0xbc9db18c	-0.0192497
236	0xbda6281a	-0.081131175
237	0xbd740db8	-0.059583396
238	0xbc8a1283	-0.01685453
239	0x3d2737e6	0.040824793
240	0x3c63d017	0.013904593
241	0xbc9d8e7d	-0.019232983
242	0xbb36ad02	-0.0027874117
243	0xbc70fe07	-0.014709002
244	0x3b96cfb0	0.004602395
245	0xbdf791a0	-0.12088323
246	0xbdf81931	-0.1211418
247	0x3d2cb8f7	0.042168584
248	0xbcebe1e3	-0.028794235
249	0x3e405a56	0.1878446
250	0xbd74f8eb	-0.0598077
251	0x3dfa2cf2	0.12215604
252	0x3d3c5029	0.045974884
253	0xbd285b64	-0.041102782
254	0x3d4ffb6c	0.050776884
255	0x3dbbd0e7	0.09170704

net.2.bias f4 [128]
0	0xbc9dbf6a	-0.019256312
1	0xbda49a56	-0.0803725
2	0x3dd85b8f	0.105643384
3	0x3d9d3a0b	0.076770864
4	0xbc4b19cf	-0.01239629
5	0xbc4bd0b9	-0.0124399
6	0x3d3715d8	0.044698566
7	0xbd0f22c2	-0.034945257
8	0xbdc5819d	-0.096438624
9	0x3dbbebe8	0.09175855
10	0x3da6c0d2	0.08142246
11	0xbd39a7b7	-0.04532596
12	0x3db8f144	0.09030393
13	0xbc137add	-0.009001461
14	0x3c4b631e	0.012413768
15	0xbc862c48	-0.016378537
16	0x3d30666e	0.043066435
17	0x3dd4e5af	0.10395371
18	0xbced218c	-0.02894666
19	0x3d8b0d9c	0.06789705
20	0x3c52a590	0.012856856
21	0x3d6a217f	0.05716085
22	0xbd23c83e	-0.039985888
23	0xbd3ffe68	-0.04687348
24	0x3d90e223	0.07074382
25	0x3d5b5451	0.053547207
26	0xbdb7f8f0	-0.08983028
27	0x3c1adaf6	0.009451618
28	0x3d310fc2	0.04322792
29	0x3d48cb98	0.049022287
30	0x3db66cec	0.08907494
31	0x3d89d239	0.0672955
32	0xbd9a5f1e	-0.075376734
33	0xbd795ead	-0.060881305
34	0x3ded6d36	0.11593096
35	0x3c416da8	0.011805929
36	0xbca069ad	-0.01958164
37	0x3db5adf5	0.0887107
38	0x3c413229	0.011791744
39	0x3d5fa4cb	0.05460052
40	0xbd55e87c	-0.052223668
41	0x3d5f4bbe	0.054515593
42	0xbafec6ce	-0.001943791
43	0xbdd2f440	-0.10300493
44	0x3d3f243d	0.04666542
45	0xbc5f64f5	-0.01363491
46	0x3d0d468b	0.034491103
47	0x3b19ddb9	0.0023478104
48	0x3d9d8b87	0.07692628
49	0xbd6c3122	-0.057664044
50	0x3d8c9299	0.06863899
51	0x3d66f062	0.05638159
52	0xbd6966ff	-0.05698299
53	0x3d50e7ae	0.051002197
54	0x3c1b31df	0.009472339
55	0x3dc34785	0.09535126
56	0xbd80723f	-0.06271791
57	0xbda44df2	-0.080226794
58	0x3ca90b24	0.020635195
59	0x3c5a9688	0.0133415535
60	0xbc264c94	-0.010150094
61	0x3b10c304	0.0022088895
62	0xbd2c4994	-0.042062357
63	0xbc482390	-0.01221551
64	0x3d5da7e2	0.054115184
65	0xbd8b7550	-0.06809485
66	0x3d49dfd3	0.04928572
67	0xbcda89a3	-0.026676958
68	0xbd4818e2	-0.048851855
69	0xbc85e6f4	-0.016345479
70	0x3d5f2727	0.054480698
71	0xbda07c10	-0.07836163
72	0xbdaf645e	-0.085640654
73	0xbdbc409a	-0.09192009
74	0xbd94ea9b	-0.0727131
75	0x3d7c171e	0.061545484
76	0xbd9db08f	-0.076996915
77	0xbc186996	-0.009302517
78	0x3d6723ab	0.0564305
79	0xbdbf9ce2	-0.09356095
80	0x3d6a16ad	0.05715053
81	0xbcf76bad	-0.030202711
82	0xbdc59539	-0.096476026
83	0x3d39e0ca	0.04538039
84	0x3dca7d78	0.098872125
85	0xbcf27cec	-0.029600583
86	0xbb7c040b	-0.0038454558
87	0x3d875188	0.06607348
88	0xbd75a0eb	-0.059967916
89	0xbc46dc11	-0.012137429
90	0x3bea3946	0.007147941
91	0x3ca90391	0.020631583
92	0x3cc914fe	0.024546143
93	0xbda5bedb	-0.080930434
94	0xbd14ad4e	-0.03629809
95	0x3c26d64a	0.010182926
96	0xbd8b4bb4	-0.068015486
97	0xbd25fe0d	-0.040525485
98	0x3c5631f3	0.013073432
99	0x3bb9696e	0.00565832
100	0xb9af4be0	-0.00033435132
101	0xbca7f746	-0.020503651
102	0x3d01392c	0.031548664
103	0xbd3086a6	-0.04309716
104	0x3d1607aa	0.036628403
105	0x3c9ddc18	0.019269988
106	0x3d35055e	0.04419457
107	0x3d2e676d	0.042579103
108	0xbc2c6d2a	-0.010524074
109	0xbc6405ee	-0.013917429
110	0x3ca2c1a1	0.01986772
111	0x3d2a8e85	0.041639823
112	0x3dc30e50	0.09524214
113	0x3d6222c1	0.055208925
114	0xbc3c82d4	-0.011505801
115	0xbd394457	-0.04523119
116	0x3d4cb431	0.04997653
117	0x3d13e0b4	0.036102965
118	0x3d31504a	0.04328946
119	0xbace37e0	-0.0015733205
120	0x3dbf0c70	0.09328544
121	0x3d43d251	0.047807995
122	0x3bbf58e2	0.005839453
123	0x3d33e0b1	0.043915454
124	0x3da842a3	0.08215835
125	0x3c8e8155	0.017395655
126	0x3cbe1bcd	0.023206616
127	0x3db0bce0	0.08629775

net.4.weight f4 [15, 128]
0	0x3d22c0ee	0.039734773
1	0x3e227f7d	0.15868945
2	0xbe301dc1	-0.1719885
3	0xbdccbc2f	-0.09996831
4	0x3e13637a	0.14393416
5	0xbe84c587	-0.2593195
6	0xbe2ae17a	-0.16687575
7	0x3dbdc060	0.09265208
8	0x3dff79d9	0.124744125
9	0x3e0700fd	0.13183971
10	0xbe36fa85	-0.17869003
11	0xbe093b08	-0.13401425
12	0xbe33462b	-0.17507236
13	0x3d2aa7c0	0.041663885
14	0x3e1f9818	0.15585363
15	0x3dea94d1	0.11454166
16	0x3dc2124e	0.094761476
17	0xbe8fcdb1	-0.28086618
18	0xbd989f4c	-0.074522585
19	0xbde8e860	-0.11372447
20	0x3e2cdde2	0.16881517
21	0x3ddf5600	0.10905075
22	0x3e725e6a	0.23668829
23	0x3e9551b2	0.2916389
24	0x3e1fd4e0	0.15608549
25	0x3c85b70e	0.016322639
26	0x3df8fcdc	0.12157604
27	0x3aaba951	0.0013096725
28	0x3e473481	0.19453622
29	0x3d47b827	0.048759606
30	0xbe344caf	-0.17607377
31	0x3e1dec04	0.15422064
32	0x3c21db10	0.009878889
33	0xbcb50e88	-0.022101656
34	0xbe6ed159	-0.23322047
35	0x3e3cf659	0.18453349
36	0x3d3583d9	0.044315193
37	0x3d3556e2	0.04427231
38	0xbdcad001	-0.09902955
39	0x3e103686	0.14083299
40	0x3e55d385	0.2088147
41	0x3db54a57	0.0885207
42	0x3e3a4975	0.18192084
43	0x3e579741	0.21053793
44	0x3dbe0398	0.09278029
45	0x3d2847b1	0.041083995
46	0xbe89b3b0	-0.26894903
47	0x3dbc04f9	0.09180636
48	0xbdaab966	-0.08336143
49	0x3e122375	0.14271338
50	0x3c2fc8cc	0.010729026
51	0xbe3e1d66	-0.18565902
52	0xbe0b41d2	-0.13599327
53	0x3e836aa7	0.25667307
54	0x3dbab792	0.091170445
55	0xbe4197ca	-0.18905559
56	0x3e24d1af	0.16095613
57	0x3d25a0dd	0.040436614
58	0x3dca2d5b	0.09871932
59	0x3d36e957	0.044656124
60	0x3df20c16	0.118187115
61	0x3c0138e9	0.007887104
62	0xbe1bb7aa	-0.15206781
63	0xbe9878de	-0.29779714
64	0x3dc9c676	0.098523065
65	0x3d9ee9c2	0.077594295
66	0x3e196e0d	0.14983387
67	0x3e255d2a	0.1614882
68	0x3e267098	0.16253889
69	0x3d86bea4	0.065793306
70	0xbad62f6e	-0.001634104
71	0x3e509021	0.20367481
72	0x3dccd075	0.100006975
73	0x3d95dfe4	0.073180944
74	0x3e663057	0.22479378
75	0x3e40410c	0.18774813
76	0x3e43033d	0.19044204
77	0xbe128e9d	-0.14312215
78	0x3dcb366e	0.09922491
79	0x3e8432a9	0.258199
80	0xbc97b9cd	-0.018521214
81	0x3e316f32	0.17327574
82	0x3e41ecb7	0.18937956
83	0x3de1e1fe	0.11029433
84	0x3db4f150	0.08835089
85	0xbd30c34b	-0.043154996
86	0x3e10baec	0.14133805
87	0x3e086205	0.13318641
88	0x3e8114ad	0.25211087
89	0x3e9b9442	0.3038655
90	0x3dd3f55d	0.10349534
91	0x3e556229	0.20838226
92	0xbe853c84	-0.26022732
93	0x3e3cd401	0.18440248
94	0xbe2b56f5	-0.1673239
95	0x3e70332d	0.23457022
96	0xbe55a8fd	-0.20865245
97	0xbd0de0d1	-0.03463823
98	0xbe5ef844	-0.21774393
99	0x3e03b522	0.12862065
100	0x3db3980b	0.08769234
101	0x3e090dac	0.13384122
102	0x3dec3a92	0.11534609
103	0xbe4e1c2a	-0.20127931
104	0x3e575001	0.21026613
105	0xbd2e634a	-0.04257516
106	0x3d8f3fed	0.06994615
107	0x3d904d20	0.070459604
108	0x3dcd9857	0.10038822
109	0xbe566c32	-0.2093971
110	0xbdfb809b	-0.12280389
111	0x3d531afa	0.0515394
112	0x3dd18c79	0.10231871
113	0x3dcd2063	0.10015943
114	0x3e1a18ab	0.15048473
115	0x3de665c8	0.11249882
116	0x3d0840f2	0.03326506
117	0xbb3f83ef	-0.0029222926
118	0x3e611089	0.21978964
119	0x3de944d4	0.11390081
120	0x3dc5b453	0.09653535
121	0x3b3e2d19	0.002901858
122	0xbe126528	-0.142964
123	0x3db07f20	0.08617997
124	0xbe1aff7d	-0.15136524
125	0x3e2b0ce9	0.16704144
126	0x3d874e61	0.066067465
127	0x3dcb964b	0.099407755
128	0xbaee07b3	-0.0018160254
129	0x3e821f57	0.25414535
130	0xbe72e437	-0.2371987
131	0xbdd889b6	-0.10573141
132	0x3e39b4f8	0.1813544
133	0xbe51887b	-0.2046222
134	0xbe5c63e4	-0.2152248
135	0x3d53d2ba	0.051714636
136	0x3e2c206e	0.16809246
137	0x3e76db8b	0.24107186
138	0xbe85ff4a	-0.26171333
139	0xbd92d26a	-0.071690395
140	0xbdbc9b20	-0.09209275
141	0x3e137f95	0.14404137
142	0x3e59c61a	0.21266976
143	0x3d807bff	0.062736504
144	0x3e65cb94	0.2244094
145	0xbea1b027	-0.31579706
146	0xbda98f40	-0.08279276
147	0xbdcc3669	-0.099713154
148	0x3e0878e4	0.13327366
149	0x3d102600	0.03519249
150	0x3e003dc0	0.12523556
151	0x3dc84880	0.09779453
152	0x3e04448f	0.12916778
153	0xbc8d19ec	-0.017224275
154	0x3dd27e99	0.10278053
155	0xbd5b9946	-0.05361297
156	0x3e0d86c4	0.1382094
157	0x3d2af4d7	0.041737404
158	0xbe3d834f	-0.18507122
159	0xbd06692e	-0.03281515
160	0x3dd78079	0.10522551
161	0xbb36b3dc	-0.00278782
162	0xbe89d7c0	-0.26922417
163	0x3dc4f288	0.09616572
164	0x3c60b078	0.013713948
165	0xbd2b12ac	-0.041765854
166	0xbe6c6d75	-0.2308863
167	0x3e2eed02	0.17082599
168	0x3e04ccf6	0.12968811
169	0x3e5a231d	0.21302457
170	0x3e26461c	0.16237682
171	0x3e28e63a	0.16494074
172	0x3d8325d3	0.06403699
173	0x3d8f5275	0.06998149
174	0xbe401cb3	-0.18760948
175	0x3e24ce80	0.16094398
176	0xbe134597	-0.14382015
177	0x3e45a24b	0.19300191
178	0x3dcfe513	0.10151114
179	0xbdb8dc67	-0.090264134
180	0x3bed3ac0	0.0072396696
181	0x3e3f5b28	0.18687117
182	0x3e0233dc	0.12715095
183	0xbe62bf15	-0.22143205
184	0x3e551775	0.2080973
185	0x3e69cd18	0.22832143
186	0xbad37346	-0.0016132377
187	0x3d38a13a	0.045075633
188	0x3de3c3eb	0.11121353
189	0x3cbe34cf	0.02321854
190	0xbe30a825	-0.17251642
191	0xbeaffa02	-0.34370428
192	0x3de4687f	0.111527435
193	0x3e0ad7d8	0.135589
194	0x3e13cc4d	0.14433403
195	0x3e42726c	0.18988961
196	0x3e43be7d	0.19115634
197	0x3e066bae	0.13127014
198	0x3ce5f8de	0.02807277
199	0x3c65e51b	0.014031674
200	0x3de95567	0.11393242
201	0x3e30ede2	0.17278245
202	0xbc87a27c	-0.01655697
203	0x3de97d1a	0.11400814
204	0x3e592e55	0.2120908
205	0xbde62ea8	-0.11239368
206	0x3e196613	0.14980344
207	0x3e855eba	0.26048833
208	0x3dbd27df	0.092361204
209	0x3da25f8b	0.079283796
210	0x3dc81fcb	0.09771689
211	0x3df22b9b	0.11824723
212	0x3c2281f6	0.00991868
213	0xbda43c56	-0.08019321
214	0x3bf875c0	0.0075823963
215	0x3db73dbf	0.08947324
216	0x3e648127	0.22314893
217	0x3e726e22	0.23674825
218	0x3dbf0a1b	0.09328099
219	0x3e0d0040	0.13769627
220	0xbe89be7e	-0.26903147
221	0x3e94ebc6	0.2908613
222	0xbe4b5459	-0.19856395
223	0x3e92ff2b	0.28710303
224	0xbe797eff	-0.24364851
225	0xbd73c86c	-0.05951731
226	0x391af599	0.00014778077
227	0x3dc10b24	0.09425953
228	0x3e4034f5	0.18770202
229	0x3dee271e	0.11628555
230	0x3bb3d75d	0.00548832
231	0xbe95811d	-0.29200068
232	0x3e38ca45	0.1804591
233	0xbe1e1b4c	-0.154401
234	0x3d2d331e	0.042285077
235	0x3e341004	0.17584234
236	0x3d73813e	0.059449427
237	0xbe1ad064	-0.15118557
238	0xbe268a5e	-0.1626372
239	0x3d2ce3c8	0.042209417
240	0x3dd56540	0.104197025
241	0x3d93c10b	0.072145544
242	0x3e7e4693	0.2483161
243	0x3dcdb621	0.10044504
244	0x3db68e5a	0.0891387
245	0x3e32d9f0	0.17465949
246	0x3e26591b	0.16244929
247	0xbd0f342c	-0.034961864
248	0x3dba3c5f	0.09093546
249	0xbc9bf021	-0.0190354
250	0xbe82678e	-0.2546963
251	0x3dfedde5	0.12444667
252	0xbe225fa7	-0.15856801
253	0x3e209683	0.15682416
254	0x3d7f2248	0.062288553
255	0x3c3de5a9	0.0115904

net.4.bias f4 [15]
0	0xbd1bdc32	-0.03805179
1	0x3db8b5f7	0.09019082
2	0xbc4cf6be	-0.01251
3	0xbccc43ec	-0.024934731
4	0x3c6fff98	0.014648341
5	0x3d3c2b17	0.04593953
6	0x3d856561	0.06513477
7	0xbd0af263	-0.033922564
8	0x3d8919dc	0.066943854
9	0x3d9f589a	0.07780571
10	0x3d2f1cb0	0.042751968
11	0x3da9bbb1	0.082877524
12	0x3cfb8200	0.030701637
13	0x3d5f40cd	0.05450516
14	0x3cfa79e0	0.030575693

net.0.weight f4 [128, 77]
0	0xbefdbea4	-0.4955951
1	0x3d65c93c	0.056100115
2	0xbd9bb090	-0.07602036
3	0xbe0f8680	-0.14016151
4	0x3c8c3ccc	0.017118834
5	0x3d1652a3	0.036699902
6	0x3c70caf7	0.014696828
7	0x3dd54413	0.10413375
8	0x3d9d1317	0.07669657
9	0xbda1279f	-0.07868885
10	0x3cc6b2d5	0.024255196
11	0xbe7afc51	-0.24510314
12	0xbdf61153	-0.12015023
13	0xbc24571e	-0.010030536
14	0xbd0102a5	-0.031496663
15	0x3ca172c9	0.019708054
16	0x3d2f2d3b	0.042767745
17	0x3dc896f3	0.09794416
18	0xbd54ce6f	-0.051954683
19	0xbd5fe206	-0.054658912
20	0x3d14ed6c	0.036359236
21	0x3cab5fff	0.020919798
22	0xbda37094	-0.07980457
23	0x3e04e8c9	0.12979425
24	0xbcd870a1	-0.026420893
25	0x3cba99e8	0.022778466
26	0x3dcb996f	0.099413745
27	0xbdb6eb03	-0.08931544
28	0xbe0c5964	-0.13705975
29	0xbd8071dc	-0.06271717
30	0xbe2c07e0	-0.16799879
31	0x3ddb001b	0.106933795
32	0xbd069aeb	-0.032862585
33	0xbcde5c21	-0.02714354
34	0xbd9d8865	-0.07692031
35	0xbdc8019c	-0.09765932
36	0xbd556f8c	-0.052108333
37	0x3dcee8eb	0.10103019
38	0x3d3baba4	0.045817986
39	0x3d4d9ec8	0.050200254
40	0xbd969922	-0.073534265
41	0xbe0a7836	-0.1352242
42	0x3d5bef8b	0.053695243
43	0xbdf71220	-0.12064004
44	0xbe2234d6	-0.15840468
45	0xbd00f341	-0.031481985
46	0x3d1edaae	0.038782768
47	0xbd57050b	-0.052495044
48	0xbe7708f1	-0.24124505
49	0xbdbc7601	-0.09202195
50	0x3d962eaa	0.07333119
51	0x3e19233e	0.1495485
52	0x3d3dda35	0.046350677
53	0x3c86628e	0.016404416
54	0x3dcc8bb3	0.09987583
55	0xbd16596a	-0.036706366
56	0x3cd7ca4b	0.026341578
57	0xbdbf41d5	-0.09338728
58	0xbdac1161	-0.08401752
59	0xbe2067d2	-0.15664604
60	0x3db1d73d	0.086836316
61	0x3c44cbbd	0.012011466
62	0xbdd24b47	-0.10268264
63	0x3cc75bb1	0.024335714
64	0x3c0ccac2	0.008593263
65	0x3d2f1611	0.042745654
66	0xbcd27851	-0.025692137
67	0xbd8e88ca	-0.06959684
68	0x3e3328de	0.17496058
69	0x3e2d87b9	0.16946305
70	0xbd0e6c97	-0.034771528
71	0xbce03e61	-0.027373495
72	0x3db6ac5c	0.08919594
73	0x3e09534f	0.13410686
74	0x3e04afd2	0.12957695
75	0x3dd400d0	0.103517175
76	0x3c909036	0.01764689
77	0x3fc2668c	1.5187545
78	0x3d4f99a2	0.050683625
79	0xbd89ae7e	-0.06722735
80	0xbc563ef0	-0.013076529
81	0x3d13c083	0.036072265
82	0x3b231b5e	0.0024888138
83	0xbd4c64e7	-0.049900915
84	0x3b0711ff	0.0020610092
85	0xbdc3b0d4	-0.09555212
86	0x3d178c34	0.036998942
87	0xbd1202cc	-0.0356472
88	0x3da7fbaf	0.08202302
89	0xbd7b913a	-0.061417796
90	0x3bad3d38	0.005286839
91	0xbd163a80	-0.036676884
92	0x3dbca8d5	0.0921189
93	0x3cfe5d3e	0.03105032
94	0xbd53cfa6	-0.0517117
95	0xbd5842b0	-0.052797973
96	0x3dc6ddda	0.097102836
97	0x3d832dec	0.06405243
98	0xbd4a1bd0	-0.04934293
99	0x3bef00fc	0.0072938185
100	0x3d40f379	0.047107194
101	0x3ce3d48f	0.027811317
102	0xbd97f3dc	-0.07419559
103	0xbdb5ba60	-0.08873439
104	0xbe17c75f	-0.14822148
105	0x3ca2c399	0.019868659
106	0xbbdf89f9	-0.0068218675
107	0xbe09c3ef	-0.13453649
108	0x3c39f24c	0.011349272
109	0x3d218dc3	0.039441835
110	0xbd0b7199	-0.034043882
111	0x3da9a4a5	0.082833566
112	0xbbb49260	-0.0055106133
113	0x3df8213f	0.12115716
114	0x3dce7224	0.10080364
115	0xbd64f7fe	-0.055900566
116	0x3c41f049	0.011837074
117	0x3c445727	0.011983669
118	0xbcd22e2d	-0.025656784
119	0x3ba0e941	0.0049106185
120	0xb6e0a7f4	-6.6952725e-06
121	0xbdc731b8	-0.0972628
122	0xbd5744bc	-0.052555785
123	0xbc7b427c	-0.015335675
124	0xbdea3bda	-0.11437197
125	0xbe6a2c40	-0.22868443
126	0xbd9f355e	-0.07773851
127	0xbdc9f083	-0.09860327
128	0xbc38aa6f	-0.011271103
129	0xbcaf606d	-0.021408284
130	0x3ccee453	0.025255358
131	0x3d58f77a	0.052970387
132	0xbd3069c7	-0.043069627
133	0x3ce4ca53	0.027928507
134	0x3df967b4	0.12177983
135	0x3ce9592e	0.028484907
136	0xbb957041	-0.004560501
137	0x3d67b948	0.056573182
138	0x3cf5fb8a	0.03002717
139	0xbb60c361	-0.0034296142
140	0xbe4e23c8	-0.20130837
141	0xbc14cced	-0.009082061
142	0x3ba09344	0.004900368
143	0x3d8517ec	0.06498703
144	0xbedfd262	-0.43715197
145	0xbe91d9fa	-0.28486615
146	0xbc859a21	-0.016308846
147	0xbc1e7757	-0.0096720075
148	0xbe3adee8	-0.18249094
149	0xbd753b84	-0.05987121
150	0xbd3cfbd5	-0.046138603
151	0xbda89a60	-0.0823257
152	0x3c45aa12	0.012064474
153	0x3dd252ea	0.10269721
154	0x3faca1ad	1.348684
155	0xbdea413e	-0.11438225
156	0x3d1e524a	0.038652696
157	0xbc561294	-0.013065953
158	0xbd2c03e1	-0.041995887
159	0xbd614966	-0.05500164
160	0x3d114266	0.035463713
161	0x3d0641b3	0.0327775
162	0xbd49d5da	-0.04927621
163	0xbda1b941	-0.078966625
164	0x3c93d41f	0.018045483
165	0x3e2397c5	0.15975864
166	0xbc93b93c	-0.018032663
167	0x3d3bbf20	0.045836568
168	0xbd481b55	-0.04885419
169	0x3d11e753	0.035621
170	0x3de1e4cd	0.110299684
171	0xbcd22898	-0.025654122
172	0x3d96d474	0.07364741
173	0x3d16b797	0.03679618
174	0xbddbca96	-0.107319996
175	0x3d4a0651	0.04932243
176	0x3d0a6dc8	0.0337961
177	0xbd54ec1c	-0.051982984
178	0x3d8a9075	0.06765834
179	0xbd221af0	-0.03957647
180	0x3db6c8b2	0.08924998
181	0x3d4dd1fc	0.050249085
182	0x3dc312a2	0.09525038
183	0x3d47d6e9	0.04878894
184	0x3e37ae94	0.1793769
185	0x3c7f062f	0.015565439
186	0x3c96bae9	0.018399673
187	0xbcadf076	-0.021232825
188	0xbd2bec78	-0.04197356
189	0x3dc938e0	0.09825301
190	0x3de8cb12	0.113668576
191	0x3d9330bc	0.0718703
192	0xbdadcb44	-0.084860355
193	0x3a1f4ccc	0.0006076812
194	0xbcfdc12f	-0.030975906
195	0xbd94ee5d	-0.07272027
196	0xbdafd5c1	-0.08585692
197	0x3d3f44ef	0.0466966
198	0xbd37c6d3	-0.044867348
199	0x3d99ddc4	0.075130016
200	0x3d3af9af	0.045648273
201	0x3e15adec	0.14617127
202	0xbca1594b	-0.019695899
203	0x3e00d190	0.12579942
204	0xbcba9f63	-0.02278108
205	0x3dde6707	0.10859495
206	0xbda9144c	-0.082558244
207	0x3ddd1766	0.107954785
208	0x3db68865	0.08912734
209	0x3d8583c7	0.06519275
210	0x3d088f5a	0.033339836
211	0xbcdd3541	-0.027002933
212	0x3c20f10a	0.009823093
213	0xbc0e467a	-0.008683795
214	0xbd1c14c4	-0.03810574
215	0xbc81b74a	-0.01583447
216	0xbdbf02a9	-0.09326679
217	0xbd4820ac	-0.048859283
218	0x3df0b201	0.117527016
219	0xbd38ea02	-0.045145042
220	0x3d51ef66	0.0512537
221	0x3d70bd15	0.058774073
222	0x3e0859bd	0.13315482
223	0x3cd5f497	0.026117606
224	0x3c27f63f	0.010251581
225	0xbcc8b7a8	-0.024501637
226	0xbdfad097	-0.122468166
227	0x3bb90c5b	0.005647225
228	0xbc4ea61c	-0.012612846
229	0x3c765c34	0.015036631
230	0xbb5392d5	-0.0032283564
231	0x3fea7285	1.8316199
232	0x3bc0e4aa	0.005886634
233	0x3d5d748c	0.054066226
234	0x3d620b5b	0.05518661
235	0xbd62013d	-0.055176962
236	0xbbedb8f9	-0.0072547165
237	0xbd5579ae	-0.052117996
238	0xbd30f6a6	-0.043203972
239	0x3d94f453	0.07273164
240	0x3da3247f	0.079659455
241	0x3ce34df0	0.027747124
242	0xbd1a0be7	-0.037609007
243	0x3d9ca1ce	0.07648049
244	0x3d09dcd0	0.03365785
245	0xbe0070f8	-0.12543094
246	0x3db0806b	0.08618244
247	0xbd1654d6	-0.036702
248	0x3ca5a6b7	0.020221097
249	0xbcd2a4eb	-0.025713405
250	0xbd8c006c	-0.06836018
251	0x3bdc4658	0.006722253
252	0x3d3d95dc	0.046285495
253	0x3c0ad3ee	0.00847338
254	0xbda78d9a	-0.08181305
255	0xbd763dca	-0.06011752

net.0.bias f4 [128]
0	0xbcec4edb	-0.028846195
1	0xbbc986e8	-0.0061501153
2	0xbda942f6	-0.08264725
3	0x3ce19d68	0.027540877
4	0xbd87821c	-0.06616613
5	0xbd661131	-0.05616874
6	0x3d4685ae	0.04846733
7	0xbd35c945	-0.0443814
8	0x3cae85ef	0.021304099
9	0xba0ab728	-0.00052915746
10	0x3d25dc94	0.040493563
11	0x3d89e0f2	0.06732358
12	0xbdd82139	-0.10553212
13	0xbd7038c2	-0.05864788
14	0x3e5e42f0	0.21705222
15	0x3d049853	0.03237183
16	0xbc331c38	-0.010932021
17	0x3d9ca300	0.07648277
18	0x3e1788dc	0.14798301
19	0x3d617e04	0.05505182
20	0xbd63aed1	-0.05558664
21	0x3de5642e	0.112007484
22	0xbdb6e4a1	-0.08930326
23	0xbdde9621	-0.108684786
24	0x3c6a84cb	0.014313887
25	0x3cce3504	0.025171764
26	0xbdd3a894	-0.10334888
27	0x3dbd04a0	0.09229398
28	0xb93b54d4	-0.0001786531
29	0xbd8b29f8	-0.06795114
30	0x3d027d61	0.031857852
31	0x3db7466c	0.08948979
32	0x3c132d3e	0.008982955
33	0x3da82816	0.08210771
34	0x3d74ff49	0.05981377
35	0x3d095fe1	0.033538703
36	0xbd5173e6	-0.05113592
37	0xbdaf3c3e	-0.08556412
38	0xbcc98b23	-0.024602478
39	0xbd0cfaac	-0.034418747
40	0xbdbb3284	-0.091404945
41	0xbdd3c680	-0.10340595
42	0xbd9f8088	-0.07788187
43	0x3a8e0dd7	0.0010837865
44	0xbd28c30d	-0.04120164
45	0xbdc41771	-0.095747836
46	0x3c97d989	0.018536346
47	0xbd1187d4	-0.035529926
48	0xbd344e44	-0.044019952
49	0x3dbce596	0.092234775
50	0x3d339555	0.043843586
51	0x3e147664	0.14498287
52	0x3dc63d7f	0.09679698
53	0x3ca85587	0.020548595
54	0xbd571ab4	-0.0525157
55	0xbbefa14b	-0.007312929
56	0x3d93e110	0.07220662
57	0xbd4388bf	-0.047737833
58	0x3dc21c72	0.09478082
59	0x3de3a0ad	0.11114631
60	0xbd879a0a	-0.066211775
61	0x3d6d9909	0.058007274
62	0x3d15d4d1	0.03657991
63	0x3d4454b3	0.047932338
64	0xbdaab20e	-0.083347425
65	0x3e047374	0.12934667
66	0xbd342535	-0.043980796
67	0x3d449e03	0.048002254
68	0xbd91e24b	-0.0712324
69	0x3d431528	0.047627598
70	0xbcfb0a5d	-0.03064459
71	0xbd6f951f	-0.058491822
72	0xbdd23e4b	-0.10265788
73	0x3d002337	0.031283583
74	0x3d4a4574	0.049382642
75	0x3cdaf4d4	0.026728071
76	0xbcb856ee	-0.022502389
77	0x3c9b2d22	0.01894242
78	0xbd3f5e49	-0.046720777
79	0x3d0a8be9	0.033824835
80	0x3db1f850	0.0868994
81	0xbdb37eeb	-0.08764442
82	0x3d4d4001	0.050109867
83	0xbd310518	-0.04321775
84	0x3d0700aa	0.032959618
85	0xbccbac70	-0.024862498
86	0x3d6d6707	0.057959583
87	0xbd9d0b61	-0.07668186
88	0x3d98e620	0.07465768
89	0x3d89c385	0.067267455
90	0xbdbeaf82	-0.09310819
91	0xbda4a4ba	-0.080392316
92	0x3d9403a5	0.07227258
93	0xbda13daf	-0.07873093
94	0x3cfccd6c	0.030859672
95	0xbd4054ee	-0.046955995
96	0xbddfbecc	-0.109250635
97	0x3d34719e	0.044053666
98	0xbcf0e931	-0.02940807
99	0xbd5030ae	-0.050827675
100	0x3d46d310	0.04854113
101	0x3d57ece0	0.052716136
102	0x3dca5728	0.09879905
103	0x3dd825bf	0.105540745
104	0x3d09fdbc	0.033689246
105	0x3c16f713	0.0092141805
106	0x3d7159cd	0.05892353
107	0x3d7a63d1	0.06113035
108	0xbd927753	-0.071516655
109	0x3db9672e	0.09052883
110	0x3d12f580	0.03587866
111	0x3d3aba03	0.04558755
112	0x3c72617c	0.01479375
113	0xbe063052	-0.1310437
114	0x3dce2258	0.10065144
115	0x3c3014c9	0.010747143
116	0xbb44f63d	-0.0030053996
117	0xbd5fd567	-0.054646876
118	0x3da2b259	0.07944173
119	0xbc78a6c8	-0.0151764825
120	0x3c09ba3c	0.008406218
121	0xbddba320	-0.10724473
122	0x3e01fb7e	0.12693593
123	0xbddb4c8c	-0.107079595
124	0x3d6d7ea1	0.05798209
125	0x3d7ebac6	0.06218984
126	0x3c93f60b	0.018061658
127	0xbd917c7f	-0.07103824

net.2.weight f4 [128, 128]
0	0xbd15e4ae	-0.03659504
1	0x3b3c4361	0.0028726684
2	0xbdab9395	-0.083777584
3	0xbd0f06ee	-0.034918718
4	0xbd0c31d1	-0.034227196
5	0xbc5d27e2	-0.013498278
6	0x3d969ed4	0.07354513
7	0x3d9af922	0.075670496
8	0xbd08c5ce	-0.033391766
9	0x3d8dce00	0.06924057
10	0x3c81848a	0.01581027
11	0x3d855833	0.06510963
12	0xbd9de019	-0.07708759
13	0xbcb1ec8d	-0.021719242
14	0xbc2c2eb5	-0.010509183
15	0x3dd1da00	0.10246658
16	0x3d8cd53d	0.068766095
17	0xbcbcd85e	-0.02305239
18	0xbd8ff6d8	-0.070295036
19	0xbd1a7608	-0.03771022
20	0x3cf173c8	0.029474154
21	0x3cc2b051	0.023765715
22	0xbce9ced9	-0.028541015
23	0x3d04c5e7	0.032415297
24	0xbc0a1fcc	-0.0084304325
25	0x3db23a7a	0.0870256
26	0xbcf2c8b3	-0.029636716
27	0xbd3227a5	-0.04349484
28	0x3cc08103	0.023499018
29	0x3bbdfe1f	0.005798116
30	0x3d66f450	0.05638534
31	0x3db3e3c0	0.08783674
32	0xbc7d0e17	-0.015445254
33	0x3dc427cc	0.09577903
34	0x3d6d9441	0.058002714
35	0x3d994de3	0.07485559
36	0x3cc7bf3a	0.024383176
37	0xba405639	-0.0007337067
38	0x3ce2e0f5	0.027695158
39	0xbad97976	-0.0016591984
40	0xbd7903f8	-0.0607948
41	0xbc81c7a6	-0.01584227
42	0x3d97957a	0.07401557
43	0x3c9b13ea	0.018930394
44	0x3d04a213	0.03238113
45	0x3c0c2830	0.008554503
46	0x3c4a3093	0.012340683
47	0xbd558cd1	-0.052136246
48	0x3c38595b	0.011251773
49	0xbc0e7c1d	-0.008696583
50	0xbcc2a22a	-0.023758966
51	0xbd64af53	-0.055831265
52	0x3afa6f3a	0.0019106634
53	0xba17224e	-0.00057653047
54	0xbd0eff50	-0.034911454
55	0x3b3593c0	0.0027706474
56	0xbba1cbb8	-0.0049376152
57	0x3bbb3fa0	0.005714372
58	0xbd9804b1	-0.0742277
59	0x3da87aab	0.08226522
60	0xbd1ba0d4	-0.037995175
61	0x3d7fcc50	0.062450707
62	0xbd7457d2	-0.059654064
63	0xbbc0aefd	-0.005880235
64	0xbc399e3f	-0.011329233
65	0xbd9d499d	-0.07680056
66	0xbbc3ccd3	-0.0059753447
67	0xbd64c7d5	-0.055854637
68	0x3d0f1e00	0.03494072
69	0x3d51ce4e	0.051222138
70	0xbbdeb58a	-0.0067965435
71	0x3cfc1ea9	0.030776339
72	0xbd6ac583	-0.057317268
73	0x3d1963b5	0.037448604
74	0xbda11c36	-0.07866709
75	0x3daabb75	0.08336536
76	0xbcacae94	-0.02107934
77	0x3d0a5040	0.03376794
78	0x3d9b5480	0.075844765
79	0xbd993b5b	-0.07482024
80	0xbd3c952f	-0.04604071
81	0x3cae1d8f	0.021254329
82	0xbdc8eb13	-0.09810462
83	0x3cc9047b	0.02453827
84	0xbbdf945b	-0.0068231053
85	0xbda9cc84	-0.082909614
86	0xbc408384	-0.011750106
87	0xbd811e7d	-0.06304643
88	0x3cd04e0e	0.025427844
89	0x3d9d5a5d	0.07683251
90	0x3da5a0b3	0.080872916
91	0xbdcb7958	-0.09935254
92	0x3d0e42c7	0.034731653
93	0xbd6ac203	-0.05731393
94	0x3d04a6cb	0.03238563
95	0x3d71b407	0.059009578
96	0xbdc7afe3	-0.097503446
97	0xbd6a4c55	-0.057201702
98	0xbda24c5c	-0.07924721
99	0xbc71a874	-0.014749635
100	0x3ca0fef8	0.019652829
101	0xbd82d067	-0.06387406
102	0x3abb5f48	0.0014295364
103	0xbc930e63	-0.017951196
104	0x3da2540f	0.07926189
105	0xbd393bea	-0.045223154
106	0xbd386126	-0.045014523
107	0xbbb3778d	-0.005476898
108	0xbd84a685	-0.064770736
109	0x3d88cc7f	0.066796295
110	0xbdb7105e	-0.08938669
111	0xbca64edc	-0.020301275
112	0xbd369e5a	-0.04458461
113	0xbc87911c	-0.016548686
114	0xbd02af11	-0.031905238
115	0x3d71956c	0.05898039
116	0xbd989ad5	-0.07451407
117	0xbd27ccda	-0.040966846
118	0xbd0d7434	-0.034534648
119	0xbd8fada0	-0.07015538
120	0xbda9ebc4	-0.08296922
121	0x3d219167	0.039445307
122	0x3dc9cef9	0.0985393
123	0xbc73dda7	-0.014884389
124	0xbd11c273	-0.03558583
125	0x3d3618f1	0.04445738
126	0x3db415a7	0.08793192
127	0xbd892c35	-0.06697885
128	0xbdf531ca	-0.11972387
129	0xbdb155b1	-0.086589225
130	0x3d30e83f	0.043190237
131	0xbd4001bb	-0.04687665
132	0x3d1498bd	0.036278475
133	0x3cd19575	0.025583962
134	0xbd9d5062	-0.076813474
135	0xbc06d868	-0.008230306
136	0x3e151e39	0.1456231
137	0xbb82de70	-0.003993802
138	0x3dedfabb	0.11620089
139	0xbccf244d	-0.025285864
140	0xbbc73f70	-0.0060805604
141	0x3e1e12d4	0.1543687
142	0xbec2e517	-0.38065407
143	0xbcf6b7ec	-0.030116998
144	0xbda51071	-0.080597766
145	0x3cb14991	0.021641525
146	0xbdb153ca	-0.086585596
147	0xbdb0ab2a	-0.08626397
148	0xbe276960	-0.16348791
149	0x3e051eba	0.13000003
150	0x3d2b34d0	0.041798413
151	0xbdc8c114	-0.09802452
152	0x3d7a7181	0.061143402
153	0xbe37c006	-0.17944345
154	0x3df1d088	0.11807352
155	0x3d4c336f	0.04985374
156	0x3cb74286	0.022370588
157	0x3d8573b7	0.065162115
158	0x3b931ec8	0.0044897534
159	0x3d09e0b1	0.033661548
160	0x3d03cea5	0.032179493
161	0xbd3f6e36	-0.046735965
162	0x3c311fcc	0.010810804
163	0x3e16048b	0.1465017
164	0x3aeedd41	0.0018223898
165	0xbe55f213	-0.20893125
166	0xbd5ef055	-0.054428417
167	0xbc604727	-0.013688839
168	0xbd4365f3	-0.04770465
169	0x3cc49b96	0.02399997
170	0xbdfaadb4	-0.122401625
171	0x3d0b665d	0.034033168
172	0xbcbb5f9e	-0.022872742
173	0xbd34d5e2	-0.044149287
174	0x3d5c273c	0.053748354
175	0x3dc16bf3	0.09444418
176	0x3e35ca78	0.17753017
177	0xbc9e7cea	-0.019346673
178	0x3e080d2d	0.13286276
179	0x3ccd8d53	0.025091803
180	0x3d10cda3	0.03535236
181	0x3cef46e0	0.0292086
182	0xbdb65159	-0.089022346
183	0x3dab1e42	0.083553806
184	0xbe35b61c	-0.1774525
185	0x3dd7f630	0.105450034
186	0xbdb7643c	-0.08954665
187	0xbe01c62c	-0.12673253
188	0xbd7dc855	-0.06195863
189	0xbdbde3a9	-0.09271938
190	0xbd29f84d	-0.041496564
191	0x3e3740ef	0.17895864
192	0x3ce5192f	0.02796611
193	0xbe0782ee	-0.1323354
194	0x3d8711be	0.06595181
195	0x3d48dfb9	0.049041484
196	0xbd142aee	-0.036173753
197	0x3bdb2ae4	0.0066884626
198	0xbb0bf3f8	-0.0021355134
199	0x3d4cb936	0.04998132
200	0x3cca419c	0.024689488
201	0x3dbe0469	0.09278185
202	0xbd9e06b7	-0.077161245
203	0x3e1d3c98	0.15355146
204	0xbe0e65b4	-0.13905984
205	0x3dc6d340	0.097082615
206	0xbc8ee3dd	-0.017442638
207	0x3d09e50f	0.033665713
208	0x3d787d24	0.06066622
209	0x3e21c3f9	0.15797414
210	0x3d7fe8ad	0.062477756
211	0xbca9b6aa	-0.020716984
212	0x3ce83013	0.028343236
213	0x3d95021f	0.07275795
214	0xbd25ebd0	-0.04050809
215	0x3db58898	0.08863944
216	0x3d7f4984	0.06232597
217	0x3c181cad	0.009284181
218	0xbceffd01	-0.029295446
219	0x3df49e5c	0.11944267
220	0x3d5158da	0.051110126
221	0xbcfeabbe	-0.031087752
222	0x3dd41db8	0.10357231
223	0x3cb532aa	0.022118885
224	0x3de0cdfb	0.10976788
225	0xbde83ec5	-0.11340097
226	0xbc780e6c	-0.015140157
227	0x3dbd4d39	0.09243245
228	0x3d967d62	0.073481336
229	0xbdad900d	-0.08474741
230	0xbe127932	-0.14304045
231	0x3d80a8c4	0.062821895
232	0xbe36c75f	-0.17849492
233	0xbe469889	-0.19394125
234	0xbeb7e0dc	-0.35913742
235	0xbc98600f	-0.018600492
236	0xbda62ca2	-0.08113982
237	0xbd789b0a	-0.06069473
238	0xbc8dc035	-0.017303566
239	0x3d280ab6	0.04102584
240	0x3c621742	0.01379949
241	0xbc97a392	-0.018510614
242	0xbb862e6b	-0.004094889
243	0xbc72bfb5	-0.014816214
244	0x3ba48fa7	0.0050220075
245	0xbdf5c2db	-0.12000056
246	0xbdf9a979	-0.121905275
247	0x3d25723c	0.040392146
248	0xbcebaa8d	-0.028767848
249	0x3e3fd5d7	0.18733917
250	0xbd71c714	-0.059027746
251	0x3dfbc981	0.12294293
252	0x3d3ab30a	0.0455809
253	0xbd256898	-0.04038295
254	0x3d444756	0.047919594
255	0x3dc22d88	0.09481341

net.2.bias f4 [128]
0	0xbcaa4902	-0.020786766
1	0xbda4c0f1	-0.08044613
2	0x3dd85260	0.10562587
3	0x3d9ebcca	0.077508524
4	0xbc4dccd0	-0.012561038
5	0xbc530474	-0.01287948
6	0x3d362c1e	0.044475667
7	0xbd111830	-0.035423458
8	0xbdc5ebba	-0.09664102
9	0x3dbb6d7e	0.09151743
10	0x3da67ba1	0.08129049
11	0xbd346531	-0.044041816
12	0x3db79bc3	0.08965256
13	0xbc123949	-0.008924791
14	0x3c4aa4f2	0.012368428
15	0xbc89b2e5	-0.016808936
16	0x3d2d7881	0.04235125
17	0x3dd50a0a	0.104023054
18	0xbce03516	-0.027369063
19	0x3d89ec4b	0.067345224
20	0x3c58fb05	0.0132434415
21	0x3d68cd28	0.056836277
22	0xbd24a27f	-0.04019403
23	0xbd3c1cb4	-0.04592581
24	0x3d917d91	0.07104028
25	0x3d5f9651	0.054586712
26	0xbdb8301e	-0.089935526
27	0x3c1f68a7	0.009729541
28	0x3d300747	0.04297569
29	0x3d46e5b1	0.048558895
30	0x3db4c6cc	0.0882698
31	0x3d876782	0.066115394
32	0xbd9a6db2	-0.07540454
33	0xbd7b26c9	-0.061316285
34	0x3deca3dd	0.11554692
35	0x3c4989e3	0.012300941
36	0xbcad95fd	-0.021189684
37	0x3db6a652	0.08918442
38	0x3c354a95	0.011065145
39	0x3d5f032e	0.05444639
40	0xbd58d01c	-0.052932844
41	0x3d60ccde	0.054882877
42	0xbb1610fb	-0.0022898305
43	0xbdd2fdc9	-0.10302312
44	0x3d3e8b1f	0.046519395
45	0xbc65353d	-0.013989744
46	0x3d0c063c	0.034185633
47	0x3b05a1c6	0.0020390614
48	0x3d9d6aeb	0.076864086
49	0xbd6c6948	-0.05771759
50	0x3d8d19f3	0.06889715
51	0x3d64632b	0.055758636
52	0xbd6bca1a	-0.057565786
53	0x3d4f6b86	0.05063965
54	0x3c1d6f2c	0.009609025
55	0x3dc1c5ec	0.09461579
56	0xbd809349	-0.062780924
57	0xbda2ef88	-0.07955843
58	0x3ca3f379	0.020013558
59	0x3c5b5d95	0.013389011
60	0xbc24fdb3	-0.010070252
61	0x3b3229e5	0.0027185616
62	0xbd2e1e05	-0.042509098
63	0xbc44f16e	-0.012020452
64	0x3d5bd072	0.053665586
65	0xbd8ae1ed	-0.06781373
66	0x3d496b78	0.049174756
67	0xbcd9c82e	-0.02658471
68	0xbd48ca78	-0.049021214
69	0xbc8cc053	-0.017181551
70	0x3d5f236a	0.054477133
71	0xbda097f1	-0.078414805
72	0xbdae9e43	-0.0852628
73	0xbdbbae8a	-0.0916415
74	0xbd94d934	-0.07267991
75	0x3d794945	0.06086089
76	0xbd9e1cfe	-0.077203736
77	0xbc17f623	-0.009274992
78	0x3d6681e7	0.05627623
79	0xbdbe0836	-0.0927891
80	0x3d6881fb	0.056764584
81	0xbcf5fdc1	-0.030028226
82	0xbdc6c204	-0.09704974
83	0x3d396f62	0.04527224
84	0x3dca6291	0.09882081
85	0xbcf00091	-0.029297145
86	0xbb5a0c69	-0.0033271557
87	0x3d858ceb	0.065210186
88	0xbd7736a0	-0.06035483
89	0xbc4a0129	-0.012329378
90	0x3bd27c05	0.0064234757
91	0x3ca707da	0.020389486
92	0x3cc93c7d	0.024564976
93	0xbda6a5ce	-0.081370935
94	0xbd18368e	-0.037161402
95	0x3c239871	0.009985075
96	0xbd8b4911	-0.06801046
97	0xbd26e618	-0.04074678
98	0x3c41e9f9	0.011835569
99	0x3bb84708	0.005623702
100	0xba4e949e	-0.0007880422
101	0xbca95ca1	-0.020674052
102	0x3cfde69a	0.030993748
103	0xbd30618c	-0.043061778
104	0x3d16170f	0.036643084
105	0x3c9a0faf	0.018806307
106	0x3d35036c	0.044192716
107	0x3d2cf7bd	0.04222845
108	0xbc2f7750	-0.010709599
109	0xbc6138bc	-0.013746437
110	0x3ca12ffd	0.019676203
111	0x3d282c2d	0.041057754
112	0x3dc289f8	0.09498972
113	0x3d5ff6d9	0.05467877
114	0xbc3b6183	-0.011436823
115	0xbd3a1cd7	-0.04543766
116	0x3d4e58f3	0.050377797
117	0x3d13532a	0.035967983
118	0x3d30e9df	0.043191787
119	0xbb1c585a	-0.0023856373
120	0x3dbe8c64	0.09304121
121	0x3d438cb4	0.047741607
122	0x3ba2c8aa	0.0049677687
123	0x3d33538f	0.04378086
124	0x3da6bc85	0.08141426
125	0x3c900b6d	0.017583573
126	0x3cbb6266	0.022874068
127	0x3db0210d	0.08600054
