dqn_out/dqn_ep2300.pt (torch, 314997 bytes, 24 tensors)

net.0.weight f4 [128, 4]
0.61043954 0.3489555 -0.30681822 -0.26890603 -1.5417608 0.16955282 0.037421823 0.40896273
1.7382808 0.123353094 -0.13798904 -0.08008399 -1.0216248 -0.48013455 -0.18814784 -0.00359435
0.8388075 0.36996347 -0.22203317 -0.19058737 1.4060594 0.39608085 -0.10672929 0.3568177
1.3878016 0.06895875 0.45270294 -0.4652743 0.009581167 -0.08565321 -0.20881376 0.4071066
-0.41776267 -0.008962235 -0.31491855 -0.39977834 -1.106791 0.41070554 0.20166135 0.23213218
1.3387839 -0.16585208 0.113792896 -0.44770223 -1.3484123 -0.3409771 0.32780457 0.2904994
0.69531953 -0.021992048 0.27082032 0.48324054 0.20951876 0.08061122 0.3715498 -0.2975795
1.4669011 -0.42445087 -0.31754097 -0.19646245 -0.29685566 0.3038594 -0.29711545 0.1885821
1.8371606 -0.0075344625 0.031133085 0.1061761 0.6900747 0.51300764 -0.33013657 -0.16398105
1.6168815 0.37509346 0.41909721 0.42237929 1.6202787 -0.46511653 0.041213684 -0.3314852
0.31724524 0.48794955 0.45016494 -0.41337547 0.09358603 -0.084230006 -0.082280576 -0.22887844
0.18190737 -0.3067412 0.17364524 0.24320365 -0.22262773 0.23732764 -0.43371776 -0.35038978
0.24965751 0.104650676 -0.390042 -0.28790975 0.5166328 0.37147024 -0.2119277 -0.092417255
-0.47629905 -0.008987069 -0.37652946 -0.38567835 1.6557359 0.03467084 -0.20584536 0.2879894
0.8090575 0.51253444 0.47828406 -0.34223723 1.2663722 -0.016034568 0.053155765 0.109839365
1.4583406 0.0006803892 -0.20263837 0.28457022 -0.47962445 -0.29635334 -0.12516493 -0.24355668
0.7506063 -0.38526425 -0.12601392 0.112373255 -1.5101177 -0.02075717 0.3358986 -0.06559118
-1.0133668 0.015898334 0.10633501 0.31760237 1.9837574 0.31234753 0.48392203 -0.035951428
-0.43527752 -0.23915498 0.3338252 -0.012291169 -0.91359144 -0.32813478 -0.44085068 -0.27319384
-0.10909127 0.26578513 0.26190266 -0.49220908 0.31189102 -0.39125472 -0.10570514 -0.20273632
0.18182914 -0.034370188 -0.47152886 -0.38203245 -0.07823974 0.0064660907 -0.22713745 0.1883496
0.72036093 -0.035459865 0.440483 -0.20715904 1.3303226 0.19066605 -0.4035956 0.34994987
-1.4843619 -0.11159498 0.39675188 -0.55032957 1.4793286 -0.03955057 0.37516242 0.13494979
1.8016597 0.16650593 -0.1142693 -0.10139533 -1.7128398 0.26665923 0.3936661 0.33341348
-0.35268915 0.022299945 -0.35246706 -0.2752421 -0.29135275 0.17087251 -0.2979566 -0.010908604
-0.056105815 0.33977118 -0.3920365 -0.32820696 -1.8942782 0.3541108 -0.19646843 0.4072073
0.18080378 0.06331301 -0.003722012 -0.09884077 -1.2154685 -0.12903495 -0.030647501 0.039225385
-1.9578745 -0.0005678973 0.41516262 -0.63651246 -1.4975388 0.49814907 0.18453242 0.026441716
-1.173838 0.2505868 -0.3689731 -0.15663636 -0.55815625 -0.062792204 -0.009258969 0.39135304
0.33570695 0.40364558 0.28690386 -0.33037928 1.7874106 -0.35063082 -0.20337632 0.15090275
1.0151849 0.41665164 -0.08722878 -0.024903765 0.25741178 -0.48354608 0.3614903 -0.4134612
-0.12392444 0.03388267 -0.26130846 0.12417439 2.1168153 -0.1606126 -0.29824063 -0.19005564
00000000: c445 1c3f 4caa b23e 4717 9dbe 0dae 89be
00000010: 6b58 c5bf 419f 2d3e a047 193d 9063 d13e
00000020: fc7f de3f 8ca0 fc3d 004d 0dbe 1303 a4bd
00000030: 9ac4 82bf 32d4 f5be d4a9 40be 308f 6bbb
00000040: 17bc 563f da6b bd3e aa5c 63be 5629 43be
00000050: c1f9 b33f 1ccb ca3e e394 dabd cfb0 b63e
00000060: 7ca3 b13f 3f3a 8d3d aec8 e73e 6f38 eebe
00000070: 54fa 1c3c f36a afbd 46d3 55be 4770 d03e
00000080: fde4 d5be 57d6 12bc 013d a1be bfaf ccbe
00000090: 54ab 8dbf ff47 d23e 5080 4e3e 0fb4 6d3e
000000a0: 455d ab3f 21d5 29be 400c e93d 3a39 e5be
000000b0: c698 acbf 8d94 aebe 00d6 a73e 56bc 943e
000000c0: 7600 323f ab28 b4bc f6a8 8a3e 4e6b f73e
000000d0: 168c 563e 7f17 a53d c63b be3e 575c 98be
000000e0: 6ac3 bb3f a051 d9be bb94 a2be 742d 49be
000000f0: 77fd 97be 7693 9b3e 841f 98be ab1b 413e
00000100: 1428 eb3f a7e3 f6bb d00a ff3c db72 d93d
00000110: bca8 303f 7854 033f a907 a9be a6ea 27be
00000120: f9f5 ce3f 400c c03e e993 d63e 1942 d83e
00000130: 4b65 cf3f c123 eebe aecf 283d 6eb8 a9be
00000140: f86d a23e 86d4 f93e 057c e63e f3a5 d3be
00000150: 08aa bf3d c880 acbd b882 a8bd 1c5f 6abe
00000160: ed45 3a3e 2f0d 9dbe 0fd0 313e 610a 793e
00000170: 86f8 63be 0406 733e 4110 debe 4a66 b3be
00000180: 38a6 7f3e 1853 d63d 96b3 c7be e868 93be
00000190: 0c42 043f 5931 be3e 9303 59be 4245 bdbd
000001a0: 78dd f3be 803e 13bc 78c8 c0be a277 c5be
000001b0: 27ef d33f 0303 0e3d 20c9 52be 5973 933e
000001c0: 641e 4f3f 7535 033f a6e1 f43e b839 afbe
000001d0: 7c18 a23f ed5a 83bc dcb9 593d 76f3 e03d
000001e0: e8aa ba3f 255c 323a 6f80 4fbe 30b3 913e
000001f0: 5691 f5be a0bb 97be 3c2b 00be ec66 79be
00000200: bc27 403f 5b41 c5be cb09 01be f323 e63d
00000210: 894b c1bf f10a aabc e7fa ab3e ab54 86bd
00000220: 01b6 81bf 393d 823c 2bc6 d93d c79c a23e
00000230: c3eb fd3f 04ec 9f3e a1c4 f73e ce41 13bd
00000240: b2dc debe 0be5 74be 23eb aa3e e660 49bc
00000250: 21e1 69bf 4801 a8be 2eb7 e1be 10e0 8bbe
00000260: 3e6b dfbd fd14 883e 1b18 863e d402 fcbe
00000270: 2eb0 9f3e 8a52 c8be f07b d8bd 1c9a 4fbe
00000280: 6b31 3a3e c1c7 0cbd 3b6c f1be c299 c3be
00000290: 283c a0bd 80e1 d33b b896 68be b8de 403e
000002a0: 9369 383f 5d3e 11bd fd86 e13e 8021 54be
000002b0: 0348 aa3f f63d 433e 15a4 cebe a12c b33e
000002c0: 92ff bdbf e98b e4bd 1023 cb3e 66e2 0cbf
000002d0: a45a bd3f c7ff 21bd 4a15 c03e 4730 0a3e
000002e0: c99c e63f 8880 2a3e 0606 eabd 5ba8 cfbd
000002f0: 563e dbbf 8f87 883e 9a8e c93e 2cb5 aa3e
00000300: ac93 b4be 60ae b63c 9076 b4be 88ec 8cbe
00000310: 302c 95be 34f9 2e3e c48d 98be 00ba 32bc
00000320: 36cf 65bd 7df6 ad3e 02b9 c8be be0a a8be
00000330: b577 f2bf 034e b53e 052f 49be 7a7d d03e
00000340: a024 393e 40aa 813d 00ed 73bb 086d cabd
00000350: 7994 9bbf bd21 04be 7810 fbbc ccaa 203d
00000360: a29b fabf f1de 14ba 3290 d43e 7bf2 22bf
00000370: 5aaf bfbf 650d ff3e 11f6 3c3e 4c9c d83c
00000380: 5340 96bf ea4c 803e 0bea bcbe 4865 20be
00000390: 54e3 0ebf 3399 80bd eeb2 17bc 6d5f c83e
000003a0: c8e1 ab3e a2aa ce3e 10e5 923e 7927 a9be
000003b0: dfc9 e43f e285 b3be e241 50be 4086 1a3e
000003c0: 94f1 813f 5d53 d53e 01a5 b2bd fb02 ccbc
000003d0: 7acb 833e 5a93 f7be 4215 b93e 30b1 d3be
000003e0: 19cc fdbd 8ec8 0a3d 39ca 85be 254f fe3d
000003f0: e779 0740 a177 24be ffb2 98be f29d 42be

net.0.bias f4 [128]
-0.0648092 -0.10518245 0.11938254 0.19718227 -0.19476649 0.008044634 0.27534732 -0.07426468
0.23601499 -0.10304253 0.18840405 -0.35820338 -0.35137084 -0.22226575 0.45652106 -0.08558712
-0.012923038 -0.22846527 0.46057 0.46134353 -0.3564577 -0.40533495 -0.38864684 0.049917325
-0.12745196 -0.2924651 -0.17933607 0.06702297 -0.1973066 0.06352069 -0.07862415 -0.24228168
0.05469548 0.42334566 -0.3373833 0.004115706 -0.19783832 0.5427989 -0.4827995 -0.4793306
0.49732146 -0.31634498 0.080861196 0.02796541 -0.09696051 -0.15112574 0.30311325 0.03794212
-0.4868073 -0.29518008 -0.1533492 0.26428595 -0.32356685 0.47488567 -0.054969285 -0.019526126
0.40795964 0.25676206 0.39667132 0.27702543 -0.14409143 -0.3317362 0.006313763 0.39021766
-0.09534515 -0.4363439 0.19088042 0.46500492 -0.14234161 -0.41401178 -0.45352983 0.08173889
0.04521241 -0.25249362 0.09014198 0.16462079 0.37786353 0.36765894 -0.04510448 -0.44088358
-0.45181155 0.43145883 0.26124942 0.18986091 -0.43134925 0.4689798 0.47115785 0.41254264
-0.37960005 -0.15229686 -0.25371554 0.4443302 -0.19819646 -0.22827727 0.23553962 -0.18042995
-0.23422082 0.04370043 -0.06398802 -0.34482747 0.38085923 -0.25707066 0.17348623 0.40667757
0.22362134 0.0960586 0.41791034 0.1726023 -0.23132831 0.47394437 0.16626857 -0.49568868
-0.17880236 -0.26981056 0.41924506 -0.08257294 -0.45576245 0.00335195 0.2532626 0.17669308
0.25306264 0.019874962 0.16805953 -0.14920856 -0.19506662 -0.47203362 -0.37666845 0.19256455
00000000: b0ba 84bd e569 d7bd d57e f43d 26ea 493e
00000010: de70 47be a4cd 033c 53fa 8c3e 1518 98bd
00000020: eaad 713e f607 d3bd feec 403e 6f66 b7be
00000030: e1e6 b3be a299 63be 21bd e93e 4d48 afbd
00000040: 26bb 53bc cdf2 69be d5cf eb3e 3835 ec3e
00000050: a081 b6be 1088 cfbe b8fc c6be 1c76 4c3d
00000060: c482 02be fcbd 95be e0a3 37be 5743 893d
00000070: be0a 4abe 2317 823d b305 a1bd b018 78be
00000080: 5e08 603d c3c0 d83e 81bd acbe 0bdd 863b
00000090: 2196 4abe def4 0a3f 7f31 f7be d26a f5be
000000a0: eba0 fe3e f8f7 a1be 8e9a a53d b717 e53c
000000b0: 3b93 c6bd b5c0 1abe a931 9b3e 3269 1b3d
000000c0: ce3e f9be d821 97be 9307 1dbe 7d50 873e
000000d0: 8eaa a5be 3724 f33e 7927 61bd 41f5 9fbc
000000e0: 16e0 d03e 5176 833e 8118 cb3e 47d6 8d3e
000000f0: b48c 13be 54d9 a9be afe3 ce3b 9cca c73e
00000100: 5144 c3bd 7868 dfbe 2876 433e 2015 ee3e
00000110: 00c2 11be 5af9 d3be 1035 e8be b866 a73d
00000120: a630 393d d846 81be 5c9c b83d 5a92 283e
00000130: 5477 c13e cb3d bc3e 7abf 38bd 7ebb e1be
00000140: d853 e7be 2ce8 dc3e 7cc2 853e e66a 423e
00000150: cfd9 dcbe 1f1e f03e 9a3b f13e ca38 d33e
00000160: f05a c2be b5f3 1bbe 01e7 81be 3f7f e33e
00000170: 03f4 4abe 84c1 69be 4c31 713e a1c2 38be
00000180: 95d7 6fbe 39ff 323d 270c 83bd 3a8d b0be
00000190: fbff c23e c49e 83be 60a6 313e 0b38 d03e
000001a0: fefc 643e 5fba c43d 58f8 d53e a8be 303e
000001b0: 54e1 6cbe d6a8 f23e 4f42 2a3e e8ca fdbe
000001c0: f717 37be 9c24 8abe 4aa7 d63e 001c a9bd
000001d0: b259 e9be 64ac 5b3b a3ab 813e 08ef 343e
000001e0: 6d91 813e d1d0 a23c cc17 2c3e 21ca 18be
000001f0: 8bbf 47be 64ae f1be b0da c0be a42f 453e

net.2.weight f4 [128, 128]
-0.014881823 -0.03490211 0.15137829 -0.12662081 0.049605504 0.10669129 -0.028126989 0.058017366
-0.06084403 -0.044286 0.07364288 -0.16340832 0.08649598 -0.11412888 -0.026914623 -0.18070745
0.14577101 0.1750783 -0.03717055 0.059332147 0.08249458 -0.019168101 0.066499874 -0.09502057
0.009388022 0.13041417 -0.0121456385 0.11297251 0.10822851 0.1031693 0.027983883 -0.012738854
0.034394402 0.0061503137 -0.10696939 0.11124408 -0.0073013683 -0.033680208 0.06181377 -0.023915514
0.0627085 -0.058850035 0.0055496464 0.052657515 -0.023190532 0.13250512 0.022656541 -0.10220828
0.043795742 0.026439764 0.048803896 -0.091437444 0.056886353 0.06236696 -0.10635747 -0.14106716
0.0145215085 -0.07621528 0.022460984 0.057329733 0.044529434 0.030776426 -0.13428806 0.08644155
-0.16406117 -0.060403544 0.05556834 0.074126065 -0.042171873 0.056624763 -0.011228308 -0.00935844
0.047496013 -0.08109793 0.17389946 0.0055231447 0.01902345 0.0804338 0.09825327 0.075437166
0.07168447 -0.054100733 0.020190086 -0.0019347193 -0.01688811 0.0026750045 0.07168905 -0.06904162
0.20163357 -0.1103687 -0.005192487 0.08648291 0.0513438 0.008048266 -0.0507239 0.06267381
-0.03949694 -0.16430674 -0.014919267 0.0051043583 -0.058186546 -0.010955213 0.14351818 0.024231616
0.050196044 0.052995607 0.0986348 -0.11123307 -0.009689115 -0.011426342 -0.11211791 -0.008505587
0.11135753 0.1711378 0.033527307 0.02007503 -0.03826523 0.034445792 -0.0130352 -0.12579215
-0.027792934 0.070937894 -0.028012484 0.3093618 0.0074802367 -0.14350332 -0.019039512 0.08963942
-0.0678146 -0.02532356 0.02454777 -0.08082973 0.048454337 0.042404253 0.051712584 -0.056351736
0.08540292 -0.053816985 0.085100524 -0.08482545 -0.078240156 0.0542878 0.0054300367 0.0050990656
-0.0499728 -0.038053177 -0.029239506 -0.08941931 0.0039092614 0.015632264 -7.483363e-05 0.02618635
0.08386736 0.023501053 -0.032356534 -0.04077772 -0.056958877 -0.06435383 -0.01423493 -0.015632853
0.038462393 -0.041011594 0.070463516 -0.0647524 0.00025121868 0.0755237 0.08789206 -0.051200032
0.011642732 0.01044067 -0.043942288 -0.030059304 0.023009239 -0.06251041 0.010661143 0.035526622
-0.034831207 0.073419 -0.005816877 0.036121305 0.087531544 -0.030535571 0.047233727 -0.027490364
-0.017146157 -0.018493282 -0.004047795 -0.0369997 0.019810611 0.0033305064 0.056028478 -0.021815134
0.008863598 -0.03229935 -0.077692136 0.031859487 0.011309989 -0.035398096 -0.02988454 0.019118596
-0.015982106 0.05775965 0.0033296347 0.029014489 0.035246335 -0.025885759 0.03728184 0.0652247
0.004067488 0.01377084 -0.00010981719 0.056759607 -0.03781838 -0.05013964 0.034969054 -0.0807693
0.0014170855 -0.04064901 0.058339275 -0.085759744 0.053592734 0.087447606 0.014526514 -0.005403252
0.08633739 -0.040388104 -0.007082872 -0.038705695 -0.01610583 0.018435711 0.0072923163 -0.020754157
-0.091789 0.002783851 -0.0060288752 0.009511958 0.06772759 0.082722224 -0.05447453 -0.005511403
-0.03616348 -0.08146273 -0.06856145 0.08295786 0.051535808 0.04647367 0.04580869 -0.0744449
0.0070163575 0.07916505 -0.052921534 0.077669136 0.022497036 0.061820675 -0.037864476 0.03677076
00000000: e4d2 73bc 84f5 0ebd e902 1b3e e3a8 01be
00000010: 242f 4b3d f780 da3d 926a e6bc 9ea3 6d3d
00000020: 9737 79bd 3d65 35bd 14d2 963d 8354 27be
00000030: ce24 b13d 67bc e9bd 0e7c dcbc 600b 39be
00000040: ff44 153e ba47 333e 2640 18bd 4406 733d
00000050: ebf2 a83d 6c06 9dbc 1631 883d 259a c2bd
00000060: 38d0 193c 4b8b 053e 80fe 46bc 225e e73d
00000070: e9a6 dd3d 6d4a d33d 753e e53c a0b6 50bc
00000080: 25e1 0c3d 9288 c93b c412 dbbd f0d3 e33d
00000090: 5140 efbb 42f4 09bd 7030 7d3d 78ea c3bc
000000a0: 506d 803d bc0c 71bd cfd9 b53b 68af 573d
000000b0: 12fa bdbc 6caf 073e 369a b93c 9352 d1bd
000000c0: 2a63 333d 3498 d83c 98e6 473d 8e43 bbbd
000000d0: aa01 693d 7f74 7f3d f2d1 d9bd e973 10be
000000e0: 9feb 6d3c c216 9cbd 1900 b83c 95d2 6a3d
000000f0: 7f64 363d d81e fc3c cf82 09be 4408 b13d
00000100: a7ff 27be b569 77bd a19b 633d 68cf 973d
00000110: 6abc 2cbd 5eef 673d f0f6 37bc 2454 19bc
00000120: 2e8b 423d ac16 a6bd b312 323e 7ffb b43b
00000130: 11d7 9b3c 7aba a43d 0339 c93d cd7e 9a3d
00000140: 4fcf 923d bb98 5dbd ae65 a53c 6896 fdba
00000150: ef58 8abc 214f 2f3b b5d1 923d b165 8dbd
00000160: 0879 4e3e fc08 e2bd bd25 aabb f41d b13d
00000170: e04d 523d e0dc 033c ddc3 4fbd 205b 803d
00000180: 8bc7 21bd 0740 28be f16f 74bc 7642 a73b
00000190: 0455 6ebd 7e7d 33bc 6ef6 123e 6281 c63c
000001a0: 5e9a 4d3d ec11 593d 0b01 ca3d 2ace e3bd
000001b0: 18bf 1ebc 8d35 3bbc 139e e5bd 045b 0bbc
000001c0: 6b0f e43d bf3e 2f3e ee53 093d 6474 a43c
000001d0: 00bc 1cbd 0817 0d3d 9791 55bc a8cf 00be
000001e0: 02ae e3bc e347 913d 707a e5bc ab64 9e3e
000001f0: c61c f53b 89f2 12be c0f8 9bbc df94 b73d
00000200: 62e2 8abd 5b73 cfbc 6818 c93c 0f8a a5bd
00000210: 0e78 463d 15b0 2d3d 93d0 533d 14d1 66bd
00000220: bae7 ae3d 336f 5cbd 2f49 ae3d f7b8 adbd
00000230: 603c a0bd e25c 5e3d 73ee b13b 1016 a73b
00000240: 47b0 4cbd a6dd 1bbd b087 efbc 7921 b7bd
00000250: 4319 803b 3c0f 803c 00f0 9cb8 c284 d63c
00000260: a7c2 ab3d 4885 c03c 4988 04bd 8a06 27bd
00000270: b64d 69bd f1cb 83bd a039 69bc 7810 80bc
00000280: be8a 1d3d c6fb 27bd 2d4f 903d e89c 84bd
00000290: 00b6 8339 2bac 9a3d c100 b43d 20b7 51bd
000002a0: 28c1 3e3c 580f 2b3c d4fc 33bd ee3e f6bc
000002b0: df7d bc3c 7505 80bd 13ac 2e3c 5d84 113d
000002c0: 2bab 0ebd b35c 963d 809b bebb eff3 133d
000002d0: bd43 b33d bc25 fabc 2778 413d 7933 e1bc
000002e0: 1976 8cbc 397f 97bc 5ea3 84bb ff8c 17bd
000002f0: dd49 a23c a044 5a3b 1e7e 653d a7b5 b2bc
00000300: a038 113c 534c 04bd 0e1d 9fbd 187f 023d
00000310: 884d 393c 98fd 10bd 6cd0 f4bc 9a9e 9c3c
00000320: e8ec 82bc 6295 6c3d 0036 5a3b cbaf ed3c
00000330: 765e 103d 5f0e d4bc d8b4 183d 8794 853d
00000340: 9048 853b 179f 613c a84d e6b8 c37c 683d
00000350: 72e7 1abd 395f 4dbd b63b 0f3d 606a a5bd
00000360: 80bd b93a 947f 26bd 2af5 6e3d cea2 afbd
00000370: 0e84 5b3d bb17 b33d 9e00 6e3c c30d b1bb
00000380: a8d1 b03d ff6d 25bd 7017 e8bb dd89 1ebd
00000390: 60f0 83bc 7d06 973c 62f4 ee3b 9f04 aabc
000003a0: dffb bbbd 4571 363b df8d c5bb 0bd8 1b3c
000003b0: c3b4 8a3d 456a a93d af20 5fbd 0099 b4bb
000003c0: 2820 14bd efd5 a6bd f269 8cbd cfe5 a93d
000003d0: 3617 533d 2d5b 3e3d e5a1 3b3d 9176 98bd
000003e0: 79e9 e53b 4921 a23d 40c4 58bd ff10 9f3d
000003f0: b44b b83c ad37 7d3d c817 1bbd f09c 163d

net.2.bias f4 [128]
-0.017500773 0.08032851 -0.051984515 0.011680402 0.020083724 -0.08010631 0.047717027 0.060906824
0.05682242 0.053344388 0.044469394 -0.053639807 0.05403634 -0.03323378 0.024414644 -0.092288844
0.0002894302 -0.049747374 -0.052655358 -0.06584098 -0.015275687 -0.060868386 -0.05527444 -0.08813094
0.050607543 0.062201895 -0.01349742 0.043635845 0.020060152 -0.054249957 -0.015014742 0.034953263
0.033280235 -0.0045425 -0.013279453 0.056133788 -0.031822074 0.0072718477 -0.056470823 0.066942394
-0.010131783 -0.054694906 -0.07305508 -0.008131541 0.023081226 0.047587547 -0.017804787 -0.04607721
-0.08556467 -0.009865888 0.07009259 -0.08334506 -0.027521458 0.060030144 0.064617135 -0.058211215
-0.10528559 0.10906058 -0.043944053 0.014545651 -0.0907232 0.03413109 -0.009762582 -0.028997095
-0.047903158 0.056117136 -0.035325274 -0.042660583 -0.061671827 0.057772283 -0.00027777164 -0.014023975
0.03620478 0.059821986 -0.07673215 0.05077197 0.0642594 0.046088044 -0.034811452 -0.06115977
0.000419922 0.06367489 -0.090826094 -0.07983943 -0.023487415 0.03601505 -0.081600465 -0.024090178
0.025890423 -0.012005058 -0.08241656 -0.03163929 -0.043321386 0.046074376 -0.08820226 0.0131939035
-0.025586559 0.054678198 -0.053093582 0.05749125 -0.0048849676 0.07061994 -0.089303926 -0.0138900615
-0.035417248 0.058921885 -0.07785853 0.06588616 -0.061962783 0.022831826 -0.030003149 -0.075843535
0.0056797117 -0.08051736 0.022831691 0.075833514 -0.0084335655 -0.048809476 0.05641177 0.009383872
0.0062484145 0.046585802 -0.08746213 -0.04544591 0.024706112 0.037900973 -0.04223971 -0.064658195
00000000: c85d 8fbc 4683 a43d b7ed 54bd 285f 3f3c
00000010: 9f86 a43c c70e a4bd ee72 433d 6f79 793d
00000020: a0be 683d a57f 5a3d 8a25 363d 6ab5 5bbd
00000030: 3655 5d3d 2520 08bd 3801 c83c ef01 bdbd
00000040: aabe 9739 e7c3 4bbd 25ad 57bd a3d7 86bd
00000050: e046 7abc 2151 79bd 7467 62bd ff7d b4bd
00000060: db49 4f3d 6ac7 7e3d 4824 5dbc 80bb 323d
00000070: 3055 a43c 3435 5ebd 6400 76bc 272b 0f3d
00000080: db50 083d 40d9 94bb 1092 59bc 8bec 653d
00000090: dd57 02bd ae48 ee3b f34d 67bd 1819 893d
000000a0: c7ff 25bc c407 60bd e79d 95bd 283a 05bc
000000b0: d714 bd3c 29eb 423d 58db 91bc 75bb 3cbd
000000c0: 883c afbd 89a4 21bc b48c 8f3d d1b0 aabd
000000d0: ae74 e1bc 2be2 753d fd55 843d e26e 6ebd
000000e0: f99f d7bd 275b df3d aefe 33bd e250 6e3c
000000f0: 16cd b9bd 0bcd 0b3d 3df3 1fbc 518b edbc
00000100: 1a36 44bd 15db 653d 3cb1 10bd ddbc 2ebd
00000110: 999b 7cbd a1a2 6c3d e1a1 91b9 d0c4 65bc
00000120: 774b 143d e607 753d bf25 9dbd 45f6 4f3d
00000130: 6f9a 833d d1c6 3c3d 7496 0ebd ab82 7abd
00000140: fa28 dc39 fb67 823d 0803 babd db82 a3bd
00000150: ae68 c0bc 8484 133d 251e a7bd c458 c5bc
00000160: 2718 d43c ddb0 44bc 03ca a8bd 3398 01bd
00000170: c471 31bd 7cb8 3c3d 63a3 b4bd 3e2b 583c
00000180: e79a d1bc 3ff6 5f3d a878 59bd f27b 6b3d
00000190: 1412 a0bb 30a1 903d fae4 b6bd 2493 63bc
000001a0: ad11 11bd 1358 713d 4b74 9fbd 53ef 863d
000001b0: b0cc 7dbd cf09 bb3c 2ac9 f5bc db53 9bbd
000001c0: e01c ba3b 49e6 a4bd 8709 bb3c 9a4e 9b3d
000001d0: f02c 0abc 72ec 47bd 0710 673d d0be 193c
000001e0: 80bf cc3b c1d0 3e3d 581f b3bd 7e25 3abd
000001f0: 7964 ca3c 0d3e 1b3d 8c03 2dbd 846b 84bd

net.4.weight f4 [15, 128]
0.13594374 -0.024232391 0.08406109 0.04995311 -0.0038711526 -0.012104351 0.03610393 0.06375958
0.06858307 0.10845642 0.045266606 0.08733884 0.113380246 0.042814605 0.076938726 0.12300395
-0.030792285 0.094163366 0.21403994 0.0474462 -0.07833516 0.103376076 0.015837617 -0.024267301
0.033662066 0.026016794 0.019990407 0.050470073 0.02131968 -0.02719527 0.0010779127 0.07253745
-0.25932083 -0.009969503 0.04861421 0.0658337 -0.12643108 0.11165768 -0.08493188 -0.15195543
-0.093640245 0.07606121 0.053109728 0.059883736 0.0066004843 0.047089856 0.08291232 0.0074950606
0.019907333 -0.019073028 0.024737068 0.009081839 0.09684812 0.05608099 -0.041054998 -0.041954026
0.086855575 -0.17240389 0.020448582 0.024078855 -0.0071154013 0.02461405 0.108575106 -0.058673806
-0.028873276 -0.097647846 0.03764432 0.08661879 -0.0130549595 0.0037791594 0.013327833 -0.06917408
-0.086042285 -0.051939595 0.11415812 0.016080642 -0.12788695 0.12283625 0.11125636 0.13714914
-0.07257569 0.0008585965 0.18409944 0.13154876 0.06707079 -0.043434802 0.032081455 0.2615316
-0.0665913 -0.11021873 0.15982872 -0.051724773 0.009132987 -0.103371635 -0.07690057 -0.052034248
0.028207714 -0.014075809 0.042157974 -0.009719179 0.12847085 -0.19935936 0.017649036 -0.027161509
-0.19930099 -0.11256712 0.13635164 0.058007248 -0.115936294 0.15766633 0.16402309 0.04870724
0.08575753 -0.048339836 -0.05818227 -0.051057257 -0.013325095 0.007700497 0.08439308 -0.045815837
-0.029380133 0.053515095 0.015580878 0.024331331 0.024714347 -0.21141869 0.05527354 0.08780279
0.043068927 -0.01505412 0.12336833 -0.046930134 -0.08110483 -0.032158747 0.091293484 0.07536563
0.08220772 0.010282443 0.006464459 0.0039674714 0.118526846 -0.053179923 0.06512756 0.1408272
-0.048018403 -0.020154165 0.20507012 -0.048858143 -0.03259337 -0.020736463 0.020282403 0.08634401
0.112268396 -0.009464274 -0.008825332 0.028185258 -0.038608987 -0.035580542 0.023511633 -0.03575566
-0.2810545 0.011816405 0.08400979 0.019902034 -0.1176938 -0.012280493 0.07424276 -0.12117343
0.022099249 0.011940099 0.02172942 -0.07427094 -0.09464937 0.065141454 -0.014217831 0.057652824
-0.033040285 -0.027896605 -0.015049957 0.044083875 0.13699134 0.019676382 -0.04479591 0.033549502
0.11140461 -0.0677678 0.034744218 0.07780377 0.0761361 -0.03632747 0.11136909 -0.02140164
-0.08381537 -0.038795963 -0.04755336 0.057706367 0.12598802 -0.024220673 0.12629953 0.021050498
-0.13718903 0.03409701 0.005463825 0.0141510535 -0.20455442 0.15156645 0.06618642 0.19028276
-0.08181385 0.0071551707 0.22886246 0.08257766 0.04858727 -0.01236891 0.049684513 0.18826722
-0.041372567 -0.10069585 0.032407124 -0.016195014 0.07373555 -0.07917887 0.0078183785 -0.033000946
-0.0053412565 -0.050564952 -0.025559457 -0.09931003 0.008909713 -0.17015642 -0.050013915 0.008258896
-0.1469666 -0.09359718 0.10374304 -0.07153642 -0.08884109 0.267858 0.043833666 0.0754438
0.07930782 0.020513287 -0.04337349 0.010357145 0.018394612 0.014485493 0.019024998 0.08684964
0.047970165 0.0816043 -0.032926846 -0.02901623 0.10364753 -0.19272624 0.14720102 -0.038896725
00000000: d634 0b3e 0283 c6bc 3928 ac3d a29b 4c3d
00000010: 2ab3 7dbb 5451 46bc b7e1 133d 6294 823d
00000020: 4875 8c3d 661e de3d 7a69 393d b5de b23d
00000030: e733 e83d 5e5e 2f3d 0d92 9d3d 7fe9 fb3d
00000040: 1a40 fcbc b9d8 c03d 492d 5b3e f256 423d
00000050: 2f6e a0bd d6b6 d33d e4bd 813c 38cc c6bc
00000060: 3ce1 093d 2c21 d53c ecc2 a33c b5b9 4e3d
00000070: 9ca6 ae3c 9dc8 debc c048 8d3a 848e 943d
00000080: b3c5 84be 2057 23bc b21f 473d d2d3 863d
00000090: 2677 01be c8ac e43d c4f0 adbd 349a 1bbe
000000a0: 75c6 bfbd fbc5 9b3d 9689 593d a648 753d
000000b0: e048 d83b 4be1 403d efcd a93d 2099 f53b
000000c0: b414 a33c 0a3f 9cbc 64a5 ca3c fecb 143c
000000d0: 4f58 c63d 2eb5 653d 4929 28bd fcd7 2bbd
000000e0: 56e1 b13d a58a 30be c983 a73c 0541 c53c
000000f0: 5028 e9bb 67a3 c93c a05c de3d f253 70bd
00000100: a687 ecbc 98fb c7bd ee30 1a3d 3165 b13d
00000110: 78e4 55bc c6ab 773b fc5c 5a3c 24ab 8dbd
00000120: f036 b0bd 9dbe 54bd bbcb e93d 8dbb 833c
00000130: ccf4 02be 9291 fb3d 60da e33d d370 0c3e
00000140: 90a2 94bd 7013 613a 9084 3c3e b8b4 063e
00000150: 695c 893d b1e8 31bd d867 033d 78e7 853e
00000160: 0561 88bd 5cba e1bd 24aa 233e 5bdd 53bd
00000170: 86a2 153c 82b4 d3bd 0c7e 9dbd dd21 55bd
00000180: dd13 e73c 399e 66bc d7ad 2c3d 313d 1fbc
00000190: dd8d 033e dc24 4cbe b694 903c d081 debc
000001a0: 8f15 4cbe 9789 e6bd c49f 0b3e 0299 6d3d
000001b0: 0270 edbd 4873 213e abf5 273e 3e81 473d
000001c0: a5a1 af3d feff 45bd 8850 6ebd 6a21 51bd
000001d0: 8051 5abc 7354 fc3b 47d6 ac3d 63a9 3bbd
000001e0: 9bae f0bc a532 5b3d f046 7f3c 8052 c73c
000001f0: be75 ca3c 247e 58be 8266 623d f3d1 b33d
00000200: 0b69 303d 8ea5 76bc 89a8 fc3d d039 40bd
00000210: 4a1a a6bd e4b8 03bd 14f8 ba3d 4c59 9a3d
00000220: 855c a83d b177 283c d0d3 d33b 9001 823b
00000230: 34be f23d 31d3 59bd 9961 853d 0135 103e
00000240: f2ae 44bd 591a a5bc e7fd 513e 7a1f 48bd
00000250: a080 05bd 84df a9bc 4827 a63c 21d5 b03d
00000260: f9ec e53d 0b10 1bbc 2098 10bc c5e4 e63c
00000270: 7524 1ebd e7bc 11bd 789b c03c 8774 12bd
00000280: 60e6 8fbe 9899 413c 530d ac3d 9709 a33c
00000290: 7209 f1bd 1f34 49bc 970c 983d c629 f8bd
000002a0: 7c09 b53c 68a0 433c e601 b23c 5d1b 98bd
000002b0: 87d7 c1bd e268 853d e8f1 68bc 5e25 6c3d
000002c0: 4055 07bd 6c87 e4bc 1894 76bc 4b91 343d
000002d0: 7547 0c3e 5d30 a13c eb7b 37bd 346b 093d
000002e0: 1a28 e43d d8c9 8abd f44f 0e3d 9557 9f3d
000002f0: 3eed 9b3d 1dcc 14bd 7a15 e43d 7e52 afbc
00000300: 65a7 abbd 84e8 1ebd 50c7 42bd 835d 6c3d
00000310: 0103 013e 6f6a c6bc aa54 013e 1872 ac3c
00000320: 487b 0cbe 4ea9 0b3d e309 b33b d2d9 673c
00000330: b776 51be 3c34 1b3e bf8c 873d 7cd9 423e
00000340: 058e a7bd ec75 ea3b ec5a 6a3e 7a1e a93d
00000350: 7203 473d f8a6 4abc fd81 4b3d 1fc9 403e
00000360: 4876 29bd a039 cebd 55bd 043d 68ab 84bc
00000370: aa02 973d 8828 a2bd a818 003c 002c 07bd
00000380: b505 afbb 321d 4fbd 1162 d1bc 0f63 cbbd
00000390: 0bfa 113c 7c3d 2ebe 64db 4cbd 5250 073c
000003a0: 6a7e 16be e1af bfbd 3b77 d43d b081 92bd
000003b0: 51f2 b5bd af24 893e ee8a 333d 4782 9a3d
000003c0: 236c a23d 7b0b a83c 67a8 31bd 04b1 293c
000003d0: 4cb0 963c 9054 6d3c 50da 9b3c 39de b13d
000003e0: 5d7c 443d 2820 a73d 4dde 06bd 72b3 edbc
000003f0: 2845 d43d 075a 45be ddbb 163e 2c52 1fbd

net.4.bias f4 [15]
0.0550011 0.08492007 -0.066880025 -0.058518935 -0.06381926 0.06460823 -0.046045262 0.05216273
-0.028125295 0.046969723 0.0037276712 -0.023254959 0.06504496 0.08230057 -0.033515617
00000000: d548 613d 93ea ad3d 65f8 88bd 8db1 6fbd
00000010: acb3 82bd 5251 843d f599 3cbd 96a8 553d
00000020: 0567 e6bc 5363 403d f24b 743b 2f81 bebc
00000030: 4b36 853d 348d a83d ac47 09bd

net.0.weight f4 [128, 4]
0.60436344 0.34841424 -0.30702782 -0.26912946 -1.5373709 0.16886437 0.039248586 0.4082005
1.7299805 0.12430978 -0.13859518 -0.08053603 -1.020561 -0.47671816 -0.18896276 -0.0033856719
0.833818 0.37037793 -0.22198254 -0.18733305 1.3996943 0.39647067 -0.10687237 0.35690597
1.3830154 0.069317214 0.45220247 -0.465771 0.006919164 -0.08747807 -0.21031809 0.4070384
-0.41183373 -0.009088334 -0.31534472 -0.39407393 -1.0969495 0.41079792 0.20414905 0.23247714
1.3353994 -0.16732372 0.11357891 -0.44731125 -1.3353521 -0.34218648 0.32809952 0.290958
0.6893114 -0.02340861 0.26962137 0.48266327 0.20730965 0.07868449 0.36827704 -0.29827806
1.4632807 -0.42370787 -0.3182151 -0.19678718 -0.2942832 0.30352333 -0.29604292 0.18895976
1.830558 -0.007773889 0.030908588 0.10616374 0.6836845 0.5114646 -0.3319518 -0.16584209
1.6134083 0.3756061 0.41871873 0.4224697 1.6163828 -0.46436343 0.041170243 -0.3304309
0.31680965 0.4908525 0.4548022 -0.41096315 0.09358603 -0.084230006 -0.082280576 -0.22887844
0.18035397 -0.30832526 0.17039013 0.23994854 -0.21109352 0.23711072 -0.4346654 -0.34604782
0.24965751 0.104650676 -0.390042 -0.28790975 0.51328856 0.36990583 -0.21119608 -0.091038674
-0.47629905 -0.008987069 -0.37652946 -0.38567835 1.6480718 0.034583822 -0.2069777 0.28798246
0.8079349 0.5128103 0.4769831 -0.34545445 1.2603219 -0.015838979 0.05302128 0.109922394
1.4578943 0.0043010483 -0.20216005 0.28482935 -0.47962445 -0.29635334 -0.12516493 -0.24355668
0.7503754 -0.38212287 -0.122430496 0.1139569 -1.5030005 -0.020909203 0.33590204 -0.06549994
-0.999541 0.012618445 0.10569641 0.3167402 1.977974 0.31241798 0.48342857 -0.036101554
-0.4371375 -0.24071766 0.33119032 -0.016339961 -0.9105071 -0.32858315 -0.44022688 -0.2732738
-0.10815011 0.26799905 0.2641166 -0.49104342 0.31189102 -0.39125472 -0.10570514 -0.20273632
0.18470462 -0.035808075 -0.47083664 -0.3817978 -0.07823974 0.0064660907 -0.22713745 0.1883496
0.7164457 -0.03461681 0.43988407 -0.20757325 1.3250123 0.19043109 -0.4032533 0.3501142
-1.4830464 -0.114419095 0.39589703 -0.54880244 1.478262 -0.04173766 0.3739687 0.13510007
1.7961314 0.16641995 -0.114695355 -0.101489976 -1.7059076 0.2667759 0.39392182 0.33339357
-0.35268915 0.022299945 -0.35246706 -0.2752421 -0.29135275 0.17087251 -0.2979566 -0.010908604
-0.05784296 0.34176642 -0.38605782 -0.3255662 -1.8879704 0.35394025 -0.19616885 0.40739438
0.18080378 0.06331301 -0.003722012 -0.09884077 -1.2081072 -0.12895572 -0.03029058 0.03957291
-1.953504 -0.0029542157 0.41667318 -0.6307705 -1.4897206 0.49795103 0.18544932 0.026062211
-1.1675385 0.2505152 -0.36884996 -0.15676941 -0.5508254 -0.062449344 -0.008666919 0.39082116
0.34145093 0.40636706 0.2880571 -0.33004206 1.7824558 -0.35236666 -0.20404491 0.1507603
1.0114824 0.41568685 -0.08899301 -0.025481258 0.25741178 -0.48354608 0.3614903 -0.4134612
-0.119716085 0.03508696 -0.26205766 0.12263061 2.1105893 -0.16090098 -0.29860017 -0.1902353
00000000: 90b7 1a3f 5a63 b23e c032 9dbe 56cb 89be
00000010: 92c8 c4bf c8ea 2c3e 20c3 203d a8ff d03e
00000020: 0070 dd3f 2096 fe3d e5eb 0dbe 13f0 a4bd
00000030: bea1 82bf 6714 f4be 747f 41be 26e2 5dbb
00000040: 1975 553f 2da2 bd3e 644f 63be 3cd4 3fbe
00000050: 2f29 b33f 34fe ca3e e7df dabd 61bc b63e
00000060: a606 b13f 2ff6 8d3d 1587 e73e 8979 eebe
00000070: 28ba e23b b427 b3bd a05d 57be 5667 d03e
00000080: dfdb d2be 3ce7 14bc dd74 a1be 0fc4 c9be
00000090: d768 8cbf 1b54 d23e 730c 513e 7d0e 6e3e
000000a0: 5eee aa3f e956 2bbe 0f9c e83d fb05 e5be
000000b0: d1ec aabf 1133 afbe a9fc a73e 72f8 943e
000000c0: b676 303f 6ac3 bfbc d00b 8a3e a41f f73e
000000d0: fb48 543e 5525 a13d cf8e bc3e e7b7 98be
000000e0: c84c bb3f 3df0 d8be 17ed a2be 9482 49be
000000f0: 4aac 96be 6967 9b3e f092 97be ab7e 413e
00000100: b94f ea3f 1cbc febb 0234 fd3c 606c d93d
00000110: f305 2f3f 58ef 023f 96f5 a9be 82d2 29be
00000120: 2a84 ce3f 714f c03e 4d62 d63e f34d d83e
00000130: a2e5 ce3f 0bc1 edbe 21a2 283d 3d2e a9be
00000140: e034 a23e 0551 fb3e d5db e83e c369 d2be
00000150: 08aa bf3d c880 acbd b882 a8bd 1c5f 6abe
00000160: b6ae 383e cfdc 9dbe c07a 2e3e 12b5 753e
00000170: e628 58be 27cd 723e 778c debe 2e2d b1be
00000180: 38a6 7f3e 1853 d63d 96b3 c7be e868 93be
00000190: e166 033f 4c64 bd3e c943 58be 7c72 babd
000001a0: 78dd f3be 803e 13bc 78c8 c0be a277 c5be
000001b0: 04f4 d23f c4a7 0d3d f6f1 53be 7072 933e
000001c0: d2d4 4e3f 8947 033f 2137 f43e 68df b0be
000001d0: 3a52 a13f bfc0 81bc d72c 593d fe1e e13d
000001e0: 489c ba3f cfef 8c3b 0b03 4fbe 27d5 913e
000001f0: 5691 f5be a0bb 97be 3c2b 00be ec66 79be
00000200: 9a18 403f 9ca5 c3be d7bc fabd 3c62 e93d
00000210: 5262 c0bf c749 abbc 5afb ab3e d524 86bd
00000220: ebe1 7fbf 98bd 4e3c 5c77 d83d c62b a23e
00000230: 412e fd3f 40f5 9f3e f383 f73e 39df 13bd
00000240: 7dd0 dfbe b17e 76be c791 a93e 62db 85bc
00000250: fe16 69bf 0d3c a8be 6b65 e1be 8bea 8bbe
00000260: ce7d ddbd 2c37 893e 4a3a 873e 0b6a fbbe
00000270: 2eb0 9f3e 8a52 c8be f07b d8bd 1c9a 4fbe
00000280: 3523 3d3e 7dab 12bd 8011 f1be 007b c3be
00000290: 283c a0bd 80e1 d33b b896 68be b8de 403e
000002a0: fc68 373f 5bca 0dbd 7c38 e13e 158e 54be
000002b0: 019a a93f 5e00 433e 3777 cebe 2b42 b33e
000002c0: 77d4 bdbf 8f54 eabd 04b3 ca3e 517e 0cbf
000002d0: b037 bd3f 1cf5 2abd d378 bf3e ac57 0a3e
000002e0: a2e7 e53f fe69 2a3e 66e5 eabd fad9 cfbd
000002f0: 2e5b dabf da96 883e 1fb0 c93e 90b2 aa3e
00000300: ac93 b4be 60ae b63c 9076 b4be 88ec 8cbe
00000310: 302c 95be 34f9 2e3e c48d 98be 00ba 32bc
00000320: bdec 6cbd 02fc ae3e 5fa9 c5be 9db0 a6be
00000330: 04a9 f1bf a837 b53e 7de0 48be ff95 d03e
00000340: a024 393e 40aa 813d 00ed 73bb 086d cabd
00000350: 42a3 9abf f80c 04be f323 f8bc 3417 223d
00000360: 6b0c fabf 849b 41bb 3056 d53e 2d7a 21bf
00000370: 2aaf bebf 70f3 fe3e 6de6 3d3e 6b80 d53c
00000380: e771 95bf 8743 803e e7d9 bcbe 2988 20be
00000390: e502 0dbf e2ca 7fbd b1ff 0dbc b619 c83e
000003a0: a8d2 ae3e 580f d03e 387c 933e 46fb a8be
000003b0: 8327 e43f 6769 b4be 26f1 50be e860 1a3e
000003c0: 4178 813f e8d4 d43e f841 b6bd 12be d0bc
000003d0: 7acb 833e 5a93 f7be 4215 b93e 30b1 d3be
000003e0: b52d f5bd 58b7 0f3d 6c2c 86be c225 fb3d
000003f0: e513 0740 3ac3 24be 1fe2 98be 0bcd 42be

net.0.bias f4 [128]
-0.066447444 -0.10561653 0.119249485 0.19680217 -0.19450702 0.008261253 0.27540594 -0.074329756
0.23644897 -0.10229103 0.18782797 -0.3580249 -0.35142508 -0.22502688 0.45629987 -0.085929856
-0.012932085 -0.23038396 0.4609285 0.46177477 -0.35133538 -0.40533495 -0.39190203 0.0492468
-0.12745196 -0.2941237 -0.17933607 0.06650763 -0.19662304 0.063769974 -0.077519156 -0.24228168
0.057676785 0.42317852 -0.33826897 0.0042122966 -0.20015824 0.54271406 -0.48058558 -0.4793306
0.4967279 -0.31634498 0.080764696 0.026376823 -0.09802467 -0.14987627 0.30304465 0.03793929
-0.4868073 -0.29518008 -0.15112829 0.26420912 -0.32356685 0.47481388 -0.055638064 -0.020360777
0.40773413 0.2568902 0.39753214 0.27657855 -0.1458162 -0.3317362 0.0058024186 0.39021
-0.09536623 -0.4362722 0.19090904 0.46517357 -0.14234161 -0.41401178 -0.45352983 0.08186205
0.04278593 -0.25249362 0.08968879 0.16488732 0.3778371 0.367727 -0.045260254 -0.44088358
-0.45181155 0.43149537 0.26082292 0.18999788 -0.43059313 0.46897045 0.47106254 0.41306233
-0.38045004 -0.15349562 -0.25386727 0.4444664 -0.19826907 -0.22827727 0.23560245 -0.18154113
-0.23621492 0.043285575 -0.0635576 -0.34368938 0.3811319 -0.25579047 0.17381829 0.4066422
0.22393966 0.09503779 0.41780856 0.1722262 -0.23132831 0.47393987 0.16602233 -0.49663165
-0.17910513 -0.2688203 0.41944203 -0.08257294 -0.45576245 0.0024978428 0.2534242 0.17642626
0.2524063 0.020096406 0.16808578 -0.14738968 -0.19370478 -0.47169346 -0.37666845 0.19261223
00000000: 9915 88bd 7b4d d8bd 1339 f43d 8286 493e
00000010: d92c 47be 355a 073c 0202 8d3e 333a 98bd
00000020: ae1f 723e f67d d1bd fa55 403e 0a4f b7be
00000030: fded b3be 726d 66be 23a0 e93e fefb afbd
00000040: 19e1 53bc c6e9 6bbe d2fe eb3e be6d ec3e
00000050: 3be2 b3be 1088 cfbe 62a7 c8be 03b7 493d
00000060: c482 02be 6297 96be e0a3 37be 2735 883d
00000070: 8d57 49be d599 823d 5dc2 9ebd b018 78be
00000080: 7e3e 6c3d dbaa d83e 9731 adbe 4e07 8a3b
00000090: 48f6 4cbe 4fef 0a3f 500f f6be d26a f5be
000000a0: 1f53 fe3e f8f7 a1be f667 a53d 3514 d83c
000000b0: 28c1 c8bd 2a79 19be ab28 9b3e 3b66 1b3d
000000c0: ce3e f9be d821 97be 60c1 1abe 6b46 873e
000000d0: 8eaa a5be ce1a f33e bde4 63bd a5cb a6bc
000000e0: 87c2 d03e 1d87 833e 5589 cb3e b49b 8d3e
000000f0: d850 15be 54d9 a9be 3722 be3b 9bc9 c73e
00000100: 5f4f c3bd 125f dfbe a97d 433e 3b2b ee3e
00000110: 00c2 11be 5af9 d3be 1035 e8be 4aa7 a73d
00000120: 4d40 2f3d d846 81be c2ae b73d 39d8 283e
00000130: dd73 c13e b746 bc3e d162 39bd 7ebb e1be
00000140: d853 e7be f6ec dc3e 958a 853e ce8e 423e
00000150: b476 dcbe e51c f03e 1c2f f13e e87c d33e
00000160: 59ca c2be f52d 1dbe e4fa 81be 1a91 e33e
00000170: 0c07 4bbe 84c1 69be c541 713e ebe5 39be
00000180: 53e2 71be 374c 313d 7d2a 82bd 0ef8 afbe
00000190: b823 c33e f8f6 82be 6cfd 313e 6833 d03e
000001a0: 7050 653e 2ca3 c23d 01eb d53e 115c 303e
000001b0: 54e1 6cbe 3fa8 f23e c201 2a3e 8146 febe
000001c0: 5667 37be d0a2 89be 1bc1 d63e 001c a9bd
000001d0: b259 e9be d9b2 233b d1c0 813e 16a9 343e
000001e0: 663b 813e 38a1 a43c ae1e 2c3e 52ed 16be
000001f0: 8c5a 46be ce81 f1be b0da c0be 243c 453e

net.2.weight f4 [128, 128]
-0.017868755 -0.032809284 0.14835642 -0.12191363 0.047021337 0.10652776 -0.029730735 0.05875875
-0.06458189 -0.04371836 0.070850484 -0.16272964 0.085025616 -0.11118568 -0.0282225 -0.17878844
0.14391789 0.17320502 -0.03738169 0.057902083 0.08274787 -0.019168101 0.06671557 -0.097664416
0.009388022 0.12752827 -0.0121456385 0.1126578 0.105213635 0.10242724 0.028128916 -0.012738854
0.03478052 0.006230127 -0.10415998 0.10986872 -0.006381427 -0.034188364 0.060364783 -0.023915514
0.061209936 -0.058850035 0.0041991402 0.052395955 -0.02377769 0.13065936 0.021434266 -0.10146389
0.043795742 0.026439764 0.04475474 -0.09040214 0.056886353 0.06269452 -0.10659202 -0.14081796
0.014664439 -0.07558863 0.021576915 0.056980602 0.043830283 0.030776426 -0.13099895 0.084742635
-0.16320378 -0.061084405 0.05494472 0.07342881 -0.042171873 0.056624763 -0.011228308 -0.01018856
0.047020096 -0.08109793 0.17147055 0.00494649 0.01879316 0.07914149 0.09800322 0.075437166
0.07168447 -0.05467949 0.01654858 -0.0027046397 -0.017852155 0.0030433303 0.07176051 -0.069043994
0.19557129 -0.1106326 -0.0041251145 0.08522287 0.053095568 0.008048266 -0.051014386 0.063549176
-0.03805485 -0.1632454 -0.012865915 0.0018694523 -0.058222137 -0.010290914 0.14165115 0.022810018
0.050288834 0.054601237 0.09681334 -0.10954921 -0.009689115 -0.012750239 -0.11013509 -0.0037908296
0.110421754 0.1713774 0.03239724 0.02007503 -0.03826523 0.03556633 -0.016064925 -0.12416793
-0.026015183 0.07047474 -0.028943928 0.3053499 0.007965237 -0.14372566 -0.019039512 0.089510396
-0.0678146 -0.02532356 0.02454777 -0.08082973 0.048454337 0.042404253 0.051712584 -0.056351736
0.08540292 -0.053816985 0.085100524 -0.08482545 -0.078240156 0.0542878 0.0054300367 0.0050990656
-0.0499728 -0.038053177 -0.029239506 -0.08941931 0.0039092614 0.015632264 -7.483363e-05 0.02618635
0.08386736 0.023501053 -0.032356534 -0.04077772 -0.056958877 -0.06435383 -0.01423493 -0.015632853
0.038462393 -0.041011594 0.070463516 -0.0647524 0.00025121868 0.0755237 0.08789206 -0.051200032
0.011642732 0.01044067 -0.043942288 -0.030059304 0.023009239 -0.06251041 0.010661143 0.035526622
-0.034831207 0.073419 -0.005816877 0.036121305 0.087531544 -0.030535571 0.047233727 -0.027490364
-0.017146157 -0.018493282 -0.004047795 -0.0369997 0.019810611 0.0033305064 0.056028478 -0.021815134
0.008863598 -0.03229935 -0.077692136 0.031859487 0.011309989 -0.035398096 -0.02988454 0.019118596
-0.015982106 0.05775965 0.0033296347 0.029014489 0.035246335 -0.025885759 0.03728184 0.0652247
0.004067488 0.01377084 -0.00010981719 0.056759607 -0.03781838 -0.05013964 0.034969054 -0.0807693
0.0014170855 -0.04064901 0.058339275 -0.085759744 0.053592734 0.087447606 0.014526514 -0.005403252
0.08633739 -0.040388104 -0.007082872 -0.038705695 -0.01610583 0.018435711 0.0072923163 -0.020754157
-0.091789 0.002783851 -0.0060288752 0.009511958 0.06772759 0.082722224 -0.05447453 -0.005511403
-0.03616348 -0.08146273 -0.06856145 0.08295786 0.051535808 0.04647367 0.04580869 -0.0744449
0.0070163575 0.07916505 -0.052921534 0.077669136 0.022497036 0.061820675 -0.037864476 0.03677076
00000000: 7f61 92bc 0763 06bd bfea 173e daad f9bd
00000010: 7299 403d 3a2b da3d df8d f3bc 04ad 703d
00000020: 8343 84bd 0612 33bd 0f1a 913d 99a2 26be
00000030: e921 ae3d 51b5 e3bd df32 e7bc 5114 37be
00000040: 365f 133e a85c 313e 8b1d 19bd bc2a 6d3d
00000050: b777 a93d 6c06 9dbc 2ca2 883d 4804 c8bd
00000060: 38d0 193c c596 023e 80fe 46bc 22b9 e63d
00000070: 3f7a d73d 5fc5 d13d 9d6e e63c a0b6 50bc
00000080: 0576 0e3d 1826 cc3b d451 d5bd da02 e13d
00000090: 4a1b d1bb 1909 0cbd 1041 773d 78ea c3bc
000000a0: 45b7 7a3d bc0c 71bd f198 893b 249d 563d
000000b0: 6ec9 c2bc 91cb 053e ea96 af3c 4dcc cfbd
000000c0: 2a63 333d 3498 d83c bf50 373d c224 b9bd
000000d0: aa01 693d fc65 803d eb4c dabd 9532 10be
000000e0: 1d43 703c 36ce 9abd 12c2 b03c 7e64 693d
000000f0: 6287 333d d81e fc3c 9724 06be 8c8d ad3d
00000100: e41e 27be a433 7abd b70d 613d d861 963d
00000110: 6abc 2cbd 5eef 673d f0f6 37bc ebed 26bc
00000120: 2598 403d ac16 a6bd fa95 2f3e 2a16 a23b
00000130: 1df4 993c ef14 a23d eab5 c83d cd7e 9a3d
00000140: 4fcf 923d 9af7 5fbd e390 873c 5340 31bb
00000150: af3e 92bc 9c72 473b 2df7 923d f066 8dbd
00000160: d743 483e 5893 e2bd f82b 87bb 5489 ae3d
00000170: bd7a 593d e0dc 033c 76f4 50bd 1226 823d
00000180: 67df 1bbd cd29 27be 8fcb 52bc 6908 f53a
00000190: 567a 6ebd 399b 28bc 000d 113e 13dc ba3c
000001a0: aafb 4d3d 8ca5 5f3d 1346 c63d 565b e0bd
000001b0: 18bf 1ebc 61e6 50bc 828e e1bd 916f 78bb
000001c0: cd24 e23d 8f7d 2f3e f8b2 043d 6474 a43c
000001d0: 00bc 1cbd 00ae 113d 979a 83bc c14b febd
000001e0: cb1d d5bc 0f55 903d d11b edbc d256 9c3e
000001f0: a080 023c d22c 13be c0f8 9bbc 3a51 b73d
00000200: 62e2 8abd 5b73 cfbc 6818 c93c 0f8a a5bd
00000210: 0e78 463d 15b0 2d3d 93d0 533d 14d1 66bd
00000220: bae7 ae3d 336f 5cbd 2f49 ae3d f7b8 adbd
00000230: 603c a0bd e25c 5e3d 73ee b13b 1016 a73b
00000240: 47b0 4cbd a6dd 1bbd b087 efbc 7921 b7bd
00000250: 4319 803b 3c0f 803c 00f0 9cb8 c284 d63c
00000260: a7c2 ab3d 4885 c03c 4988 04bd 8a06 27bd
00000270: b64d 69bd f1cb 83bd a039 69bc 7810 80bc
00000280: be8a 1d3d c6fb 27bd 2d4f 903d e89c 84bd
00000290: 00b6 8339 2bac 9a3d c100 b43d 20b7 51bd
000002a0: 28c1 3e3c 580f 2b3c d4fc 33bd ee3e f6bc
000002b0: df7d bc3c 7505 80bd 13ac 2e3c 5d84 113d
000002c0: 2bab 0ebd b35c 963d 809b bebb eff3 133d
000002d0: bd43 b33d bc25 fabc 2778 413d 7933 e1bc
000002e0: 1976 8cbc 397f 97bc 5ea3 84bb ff8c 17bd
000002f0: dd49 a23c a044 5a3b 1e7e 653d a7b5 b2bc
00000300: a038 113c 534c 04bd 0e1d 9fbd 187f 023d
00000310: 884d 393c 98fd 10bd 6cd0 f4bc 9a9e 9c3c
00000320: e8ec 82bc 6295 6c3d 0036 5a3b cbaf ed3c
00000330: 765e 103d 5f0e d4bc d8b4 183d 8794 853d
00000340: 9048 853b 179f 613c a84d e6b8 c37c 683d
00000350: 72e7 1abd 395f 4dbd b63b 0f3d 606a a5bd
00000360: 80bd b93a 947f 26bd 2af5 6e3d cea2 afbd
00000370: 0e84 5b3d bb17 b33d 9e00 6e3c c30d b1bb
00000380: a8d1 b03d ff6d 25bd 7017 e8bb dd89 1ebd
00000390: 60f0 83bc 7d06 973c 62f4 ee3b 9f04 aabc
000003a0: dffb bbbd 4571 363b df8d c5bb 0bd8 1b3c
000003b0: c3b4 8a3d 456a a93d af20 5fbd 0099 b4bb
000003c0: 2820 14bd efd5 a6bd f269 8cbd cfe5 a93d
000003d0: 3617 533d 2d5b 3e3d e5a1 3b3d 9176 98bd
000003e0: 79e9 e53b 4921 a23d 40c4 58bd ff10 9f3d
000003f0: b44b b83c ad37 7d3d c817 1bbd f09c 163d

net.2.bias f4 [128]
-0.017661916 0.08032851 -0.052362084 0.011680402 0.020083724 -0.0795788 0.047453027 0.06099611
0.056733675 0.053267654 0.044469394 -0.053639807 0.054158185 -0.03323378 0.024414644 -0.09245584
2.2961722e-06 -0.047904383 -0.052874662 -0.06584098 -0.015275687 -0.061414156 -0.05527444 -0.08813094
0.050991356 0.06195681 -0.01349742 0.04306507 0.020060152 -0.054249957 -0.015014742 0.034953263
0.03292584 -0.0045425 -0.013279453 0.05603274 -0.032528035 0.00703381 -0.056470823 0.06763405
-0.009136112 -0.054694906 -0.07305508 -0.008131541 0.022119058 0.04734795 -0.017804787 -0.04607721
-0.08556467 -0.009865888 0.06984224 -0.0824025 -0.027575897 0.060030144 0.064617135 -0.058211215
-0.10531992 0.109514266 -0.043373138 0.014545651 -0.0907232 0.03435578 -0.009531932 -0.028997095
-0.047903158 0.05555421 -0.035325274 -0.043062024 -0.061455466 0.057772283 -0.00025943547 -0.014023975
0.03601083 0.059821986 -0.07710825 0.050450638 0.06342535 0.046069495 -0.035048526 -0.060049318
-0.00029088193 0.063973114 -0.090734035 -0.07986545 -0.023487415 0.03601505 -0.081600465 -0.02399469
0.025198355 -0.012814975 -0.08295614 -0.03163929 -0.0429197 0.04579506 -0.08820226 0.0131939035
-0.025586559 0.054678198 -0.052510038 0.05683 -0.0051287706 0.0700147 -0.089303926 -0.016727682
-0.036506023 0.05923757 -0.07819005 0.06588616 -0.06273537 0.023041952 -0.030338684 -0.075843535
0.0056797117 -0.08051736 0.022831691 0.07524744 -0.0084335655 -0.04965737 0.056529254 0.009383872
0.0062311674 0.045986127 -0.08746213 -0.04544591 0.02517171 0.037563182 -0.041719172 -0.064658195
00000000: b9af 90bc 4683 a43d a079 56bd 285f 3f3c
00000010: 9f86 a43c 36fa a2bd 1b5e 423d 0fd7 793d
00000020: 9261 683d 2f2f 5a3d 8a25 363d 6ab5 5bbd
00000030: f9d4 5d3d 2520 08bd 3801 c83c 7d59 bdbd
00000040: f017 1a36 6337 44bd 1a93 58bd a3d7 86bd
00000050: e046 7abc 698d 7bbd 7467 62bd ff7d b4bd
00000060: 50dc 503d 6dc6 7d3d 4824 5dbc 0065 303d
00000070: 3055 a43c 3435 5ebd 6400 76bc 272b 0f3d
00000080: 3fdd 063d 40d9 94bb 1092 59bc 9682 653d
00000090: 1e3c 05bd e07b e63b f34d 67bd b983 8a3d
000000a0: a2af 15bc c407 60bd e79d 95bd 283a 05bc
000000b0: 0733 b53c edef 413d 58db 91bc 75bb 3cbd
000000c0: 883c afbd 89a4 21bc 7309 8f3d a4c2 a8bd
000000d0: d9e6 e1bc 2be2 753d fd55 843d e26e 6ebd
000000e0: f8b1 d7bd 0449 e03d 08a8 31bd e250 6e3c
000000f0: 16cd b9bd a5b8 0c3d d22b 1cbc 518b edbc
00000100: 1a36 44bd d08c 633d 3cb1 10bd ce61 30bd
00000110: bab8 7bbd a1a2 6c3d d704 88b9 d0c4 65bc
00000120: 1880 133d e607 753d eeea 9dbd 54a5 4e3d
00000130: 26e5 813d 5eb3 3c3d 0b8f 0fbd 46f6 75bd
00000140: 8381 98b9 5604 833d c4d2 b9bd 7f90 a3bd
00000150: ae68 c0bc 8484 133d 251e a7bd 8390 c4bc
00000160: c86c ce3c e7f5 51bc e9e4 a9bd 3398 01bd
00000170: 91cc 2fbd 9a93 3b3d 63a3 b4bd 3e2b 583c
00000180: e79a d1bc 3ff6 5f3d c414 57bd 93c6 683d
00000190: 3f0f a8bb de63 8f3d fae4 b6bd 7e08 89bc
000001a0: 5787 15bd 18a3 723d 1b22 a0bd 53ef 863d
000001b0: 677b 80bd 7ac2 bc3c d588 f8bc db53 9bbd
000001c0: e01c ba3b 49e6 a4bd 8709 bb3c 541b 9a3d
000001d0: f02c 0abc 8765 4bbd 388b 673d d0be 193c
000001e0: d22e cc3b f35b 3c3d 581f b3bd 7e25 3abd
000001f0: e734 ce3c dadb 193d b9e1 2abd 846b 84bd
