dqn_out/dqn_ep350.pt (torch, 314961 bytes, 24 tensors)

net.0.weight f4 [128, 4]
0.05958607 0.32971874 -0.3528537 -0.31404555 -0.3962304 0.12685804 0.0051434604 0.40283263
0.2949014 0.14829277 -0.14301068 -0.08496729 -0.2895564 -0.34108856 -0.20549712 0.01948715
0.2536941 0.36380905 -0.26503393 -0.16179179 0.1856647 0.4102393 -0.10919085 0.36761114
0.20563579 0.058587823 0.4517258 -0.47342363 -0.31309777 -0.12170208 -0.19934675 0.42584363
-0.24349761 -0.17702395 -0.33699867 -0.42689162 -0.20479716 0.43172967 0.22767267 0.24549907
0.2671993 -0.23961887 0.103109375 -0.39250922 -0.58982056 -0.26748893 0.312292 0.28853607
-0.13773866 -0.041845188 0.30883926 0.49267346 0.19844109 0.06754643 0.33524317 -0.29440117
0.347511 -0.3851933 -0.34069717 -0.23522739 0.20051233 0.21145661 -0.28147966 0.16427048
0.37860477 -0.06579082 0.01944548 0.10926884 0.3342253 0.5010541 -0.36975405 -0.19103687
0.45948172 0.4002012 0.41996884 0.43318495 0.40584275 -0.42897984 0.050939795 -0.3094955
-0.44099674 0.47103208 0.3939334 -0.49467888 0.09358603 -0.084230006 -0.082280576 -0.22887844
0.19227809 -0.29615176 0.18329567 0.25285405 0.366619 0.19582441 -0.4851127 -0.31706688
0.24965751 0.104650676 -0.390042 -0.28790975 0.47037464 0.33690894 -0.21801257 -0.12584239
-0.47629905 -0.008987069 -0.37652946 -0.38567835 0.2300263 0.071708545 -0.20214872 0.29637954
-0.1787607 0.48345467 0.36716917 -0.42366466 0.035466433 0.012363893 0.059428975 0.123874314
0.3755966 0.0065359557 -0.24410291 0.24128264 -0.47962445 -0.29635334 -0.12516493 -0.24355668
-0.24502768 -0.4121975 -0.09620156 0.10902584 -0.25659114 -0.03574276 0.3482235 -0.06063106
-0.09179294 -0.04223012 0.09773346 0.31382787 0.6817094 0.32457423 0.48293316 -0.030922135
-0.44922742 -0.23843643 0.33671674 -0.0068293693 -0.15532815 -0.38209322 -0.46764827 -0.41523966
-0.101418376 0.274203 0.27032053 -0.48221594 0.31189102 -0.39125472 -0.10570514 -0.20273632
0.08446321 -0.09650936 -0.4446194 -0.41540053 -0.07823974 0.0064660907 -0.22713745 0.1883496
-0.17037275 -0.025762493 0.4440876 -0.20471819 0.37122086 0.19179772 -0.4531472 0.3149469
-0.37047786 -0.16982496 0.41844767 -0.4803978 0.24548574 -0.09823608 0.36501136 0.14278208
0.53649956 0.17958103 -0.115031 -0.099394836 -0.49008322 0.26714805 0.40519223 0.34337407
-0.35268915 0.022299945 -0.35246706 -0.2752421 -0.29135275 0.17087251 -0.2979566 -0.010908604
0.050405145 0.35064876 -0.34563157 -0.32726216 -0.51500237 0.3489151 -0.18508843 0.41601667
0.18080378 0.06331301 -0.003722012 -0.09884077 0.017327122 -0.12506741 -0.014667549 0.05054731
-0.7883951 -0.16747986 0.4370462 -0.5350019 -0.14698704 0.495499 0.18643785 0.012755214
-0.23542942 0.25765958 -0.35117802 -0.14769785 -0.030450176 -0.068891354 0.012010794 0.41067454
0.21238956 0.44673172 0.29695362 -0.32076666 0.5310421 -0.35894266 -0.2074702 0.15381454
0.2776388 0.411351 -0.1361346 0.012195812 0.25741178 -0.48354608 0.3614903 -0.4134612
0.0068912506 -0.08500838 -0.26333648 0.06608552 0.7489933 -0.13999756 -0.2940494 -0.18632112
00000000: 8610 743d e5d0 a83e 3da9 b4be 94ca a0be
00000010: b6de cabe 13e7 013e 798a a83b 1440 ce3e
00000020: 51fd 963e 0fda 173e 6471 12be 5503 aebd
00000030: bd40 94be 29a3 aebe d66d 52be 84a3 9f3c
00000040: 31e4 813e 2e45 ba3e 87b2 87be bfac 25be
00000050: e31e 3e3e e30a d23e 749f dfbd 8737 bc3e
00000060: 3092 523e c9f9 6f3d 9b48 e73e 9564 f2be
00000070: 5a4e a0be f13e f9bd 8e21 4cbe 2d08 da3e
00000080: 7057 79be c445 35be 178b acbe 8a91 dabe
00000090: 59b6 51be ac0b dd3e 0623 693e 1c64 7b3e
000000a0: 59ce 883e a65e 75be 022b d33d f8f6 c8be
000000b0: 7bfe 16bf 4ff4 88be bde4 9f3e 00bb 933e
000000c0: 5d0b 0dbe dc65 2bbd 2e20 9e3e b23f fc3e
000000d0: 2434 4b3e c855 8a3d fea4 ab3e c0bb 96be
000000e0: f6ec b13e 0e38 c5be dc6f aebe 73df 70be
000000f0: 1b53 4d3e 1588 583e 1a1e 90be 8536 283e
00000100: 7cd8 c13e 56bd 86bd 214c 9f3c 57c8 df3d
00000110: 941f ab3e 1545 003f 6750 bdbe 2b9f 43be
00000120: 3041 eb3e 2ce7 cc3e 2806 d73e 6bca dd3e
00000130: 9fca cf3e 3fa3 dbbe 3fa6 503d 3276 9ebe
00000140: 53ca e1be 1e2b f13e a3b1 c93e 8d46 fdbe
00000150: 08aa bf3d c880 acbd b882 a8bd 1c5f 6abe
00000160: 8ce4 443e 34a1 97be dcb1 3b3e 1676 813e
00000170: 7cb5 bb3e 3286 483e b160 f8be 9756 a2be
00000180: 38a6 7f3e 1853 d63d 96b3 c7be e868 93be
00000190: f2d4 f03e 547f ac3e b03e 5fbe d4dc 00be
000001a0: 78dd f3be 803e 13bc 78c8 c0be a277 c5be
000001b0: 048c 6b3e eedb 923d 1300 4fbe 0fbf 973e
000001c0: 0c0d 37be 5f87 f73e 99fd bb3e 93ea d8be
000001d0: 4045 113d ed91 4a3c cc6b 733d d1b1 fd3d
000001e0: 334e c03e 922b d63b 1df6 79be cc12 773e
000001f0: 5691 f5be a0bb 97be 3c2b 00be ec66 79be
00000200: 89e8 7abe 8d0b d3be 5305 c5bd f148 df3d
00000210: ea5f 83be 0067 12bd 5a4a b23e 4658 78bd
00000220: f0fd bbbd 7ef9 2cbd 7b28 c83d 0cae a03e
00000230: 8284 2e3f 982e a63e 0443 f73e 6b50 fdbc
00000240: 2301 e6be ae28 74be 2366 ac3e e7c8 dfbb
00000250: 580e 1fbe b9a1 c3be 986f efbe 4b9a d4be
00000260: 70b4 cfbd 5664 8c3e 7467 8a3e 02e5 f6be
00000270: 2eb0 9f3e 8a52 c8be f07b d8bd 1c9a 4fbe
00000280: 0cfb ac3d b3a6 c5bd 27a5 e3be 61af d4be
00000290: 283c a0bd 80e1 d33b b896 68be b8de 403e
000002a0: 3276 2ebe dd0b d3bc 735f e33e a5a1 51be
000002b0: a910 be3e 9f66 443e e902 e8be b840 a13e
000002c0: 46af bdbe 98e6 2dbe c63e d63e b3f6 f5be
000002d0: 9d60 7b3e ff2f c9bd c5e2 ba3e 7735 123e
000002e0: 0958 093f 17e4 373e 5f95 ebbd 858f cbbd
000002f0: 30ec fabe a1c7 883e 5b75 cf3e bace af3e
00000300: ac93 b4be 60ae b63c 9076 b4be 88ec 8cbe
00000310: 302c 95be 34f9 2e3e c48d 98be 00ba 32bc
00000320: a075 4e3d 3c88 b33e 9ff6 b0be e88e a7be
00000330: 32d7 03bf 00a5 b23e d287 3dbe 2300 d53e
00000340: a024 393e 40aa 813d 00ed 73bb 086d cabd
00000350: 9cf1 8d3c ac11 00be 2950 70bc b20a 4f3d
00000360: 43d4 49bf d77f 2bbe 85c4 df3e e2f5 08bf
00000370: c583 16be 0cb2 fd3e 90e9 3e3e 3ffb 503c
00000380: 6914 71be f5eb 833e 9bcd b3be 1b3e 17be
00000390: a672 f9bc e916 8dbd ecc8 443c ef43 d23e
000003a0: a67c 593e 05ba e43e 4e0a 983e 873b a4be
000003b0: 60f2 073f 55c7 b7be 1173 54be 8f81 1d3e
000003c0: ac26 8e3e 999c d23e de66 0bbe f1d0 473c
000003d0: 7acb 833e 5a93 f7be 4215 b93e 30b1 d3be
000003e0: 00d0 e13b e018 aebd 0ad4 86be d857 873d
000003f0: 06be 3f3f 855b 0fbe a58d 96be f7ca 3ebe

net.0.bias f4 [128]
-0.07636957 -0.17630512 0.14506616 0.18096384 -0.18048716 0.035146076 0.29495654 -0.054910697
0.1906914 -0.11569456 0.19833629 -0.3665199 -0.30378962 -0.25379527 0.466807 -0.13244268
-0.0012668195 -0.22212991 0.49472827 0.49851808 -0.3601263 -0.40533495 -0.3789965 0.007237719
-0.12745196 -0.32727283 -0.17933607 0.099390544 -0.23644204 0.10283977 -0.10996963 -0.24228168
0.074343465 0.40348879 -0.34213075 0.032607388 -0.18858851 0.48827547 -0.47438163 -0.4793306
0.4979673 -0.31634498 0.10385646 -0.046334315 -0.088153355 -0.1040964 0.32760158 0.023179034
-0.4868073 -0.29518008 -0.14211194 0.24352619 -0.32356685 0.46266773 -0.07981204 -0.086210065
0.39878535 0.25888816 0.42114744 0.29874632 -0.1159205 -0.3317362 -0.037201524 0.4224524
-0.17457525 -0.4678072 0.21484768 0.47784466 -0.14234161 -0.41401178 -0.45352983 0.118216135
-0.018388567 -0.25249362 0.09865818 0.19522053 0.40785024 0.39660376 -0.06717716 -0.44088358
-0.45181155 0.47188008 0.23298237 0.22409827 -0.43368986 0.45563158 0.4729406 0.45706433
-0.3872492 -0.16919087 -0.3438819 0.4744557 -0.20208846 -0.22827727 0.26749557 -0.21793453
-0.23386176 -0.023889596 -0.050368976 -0.38948923 0.4273539 -0.2520306 0.19498993 0.43045664
0.25906003 0.0726125 0.4322571 0.06495324 -0.23132831 0.48143262 0.116478816 -0.4878404
-0.14423251 -0.30503976 0.44928557 -0.08257294 -0.45576245 -0.035679087 0.31981605 0.13219105
0.16332264 0.053488996 0.19218037 -0.12420256 -0.19586854 -0.46198902 -0.37666845 0.22429566
00000000: a667 9cbd 5489 34be 398c 143e 964e 393e
00000010: a0d1 38be 55f5 0f3d 8b04 973e 0aea 60bd
00000020: 9b44 433e 45f1 ecbd ab18 4b3e 7fa8 bbbe
00000030: 508a 9bbe 74f1 81be 5401 ef3e 0e9f 07be
00000040: 690b a6ba 0676 63be 064d fd3e c33d ff3e
00000050: 7962 b8be 1088 cfbe d40b c2be 632a ed3b
00000060: c482 02be 4e90 a7be e0a3 37be 458d cb3d
00000070: dd1d 72be a89d d23d c237 e1bd b018 78be
00000080: 6341 983d 1596 ce3e c32b afbe 538f 053d
00000090: 591d 41be 3eff f93e 26e2 f2be d26a f5be
000000a0: 92f5 fe3e f8f7 a1be b2b2 d43d 0dc9 3dbd
000000b0: bf89 b4bd 7e30 d5bd 65bb a73e f5e1 bd3c
000000c0: ce3e f9be d821 97be cb85 11be ee5e 793e
000000d0: 8eaa a5be c9e2 ec3e 7f74 a3bd e78e b0bd
000000e0: 982d cc3e fd8c 843e a3a0 d73e 47f5 983e
000000f0: ba67 edbd 54d9 a9be a060 18bd ae4b d83e
00000100: dbc3 32be 6d84 efbe 0801 5c3e 0ea8 f43e
00000110: 00c2 11be 5af9 d3be 1035 e8be 4d1b f23d
00000120: 9fa3 96bc d846 81be 4d0d ca3d e4e7 473e
00000130: bfd1 d03e a60f cb3e 2e94 89bd 7ebb e1be
00000140: d853 e7be 449a f13e ee92 6e3e 047a 653e
00000150: 990c debe 8b48 e93e 4525 f23e 5604 ea3e
00000160: 8745 c6be 5f40 2dbe 4a11 b0be dceb f23e
00000170: 47f0 4ebe 84c1 69be 2ef5 883e 3b2a 5fbe
00000180: 7579 6fbe 1db4 c3bc b34f 4ebd 226b c7be
00000190: 21ce da3e 280a 81be 71ab 473e d064 dc3e
000001a0: 84a3 843e ddb5 943d cd50 dd3e 3406 853d
000001b0: 54e1 6cbe 567e f63e 728c ee3d 38c6 f9be
000001c0: b0b1 13be 2c2e 9cbe c208 e63e 001c a9bd
000001d0: b259 e9be 3c24 12bd eebe a33e 175d 073e
000001e0: 0d3e 273e 4717 5b3d eeca 443e e95d febd
000001f0: c391 48be d389 ecbe b0da c0be c3ad 653e

net.2.weight f4 [128, 128]
-0.07056526 0.0047298055 0.04357632 0.011449203 -0.056729913 0.08477754 -0.042306945 0.06677492
-0.05797991 -0.023863731 0.057899892 -0.058998734 0.06587635 -0.060825013 -0.059447903 -0.07596612
0.016371911 0.10015215 -0.039286166 0.039402142 0.0130866375 -0.019168101 0.06499226 -0.082604535
0.009388022 0.08312122 -0.0121456385 0.068409234 0.008165343 0.07285978 -0.033619817 -0.012738854
-0.024101513 0.03231127 0.021018969 0.07332477 -0.013060539 0.008215931 0.06052933 -0.023915514
0.08704609 -0.058850035 -0.005118741 0.006089195 0.025694126 0.05862025 -0.005047814 -0.07386057
0.043795742 0.026439764 0.023960648 -0.05403686 0.056886353 0.088122964 -0.02674974 -0.079569004
0.070356004 -0.06448161 0.027004344 0.019378781 -0.019428855 0.030776426 -0.079057425 0.03382065
-0.05686247 -0.017981794 0.015711572 0.08572326 -0.042171873 0.056624763 -0.011228308 -0.038444404
-0.027179299 -0.08109793 0.10328808 -0.019070685 0.007814591 0.03653052 0.058026657 0.075437166
0.07168447 -0.06066395 0.0032423881 -0.04577559 -0.054007545 0.02327246 0.0857912 -0.068542846
0.0065995553 -0.063131146 -0.017215773 0.07788063 0.032742806 0.008048266 -0.0589859 0.068087935
-0.015576655 -0.060235515 0.02597417 -0.06284565 -0.06723685 -9.5909076e-05 0.085539766 -0.011703391
0.042608898 0.07638854 0.07240246 -0.04763122 -0.009689115 -0.019932583 -0.07316411 3.6522746e-05
0.0644941 0.11313012 0.01880275 0.02007503 -0.03826523 0.062762424 -0.025386898 -0.06295447
0.011778008 0.05445859 -0.07459805 0.10595106 0.025930617 -0.052738395 -0.019039512 0.078355886
-0.0678146 -0.02532356 0.027288893 -0.07831406 0.048454337 0.044552457 0.053517506 -0.056351736
0.08819628 -0.053623404 0.08713807 -0.08482545 -0.078240156 0.0542878 0.008065788 0.0050990656
-0.0499728 -0.038053177 -0.027223485 -0.08726342 0.0039092614 0.015632264 -7.483363e-05 0.028543279
0.08386736 0.023501053 -0.032356534 -0.038063444 -0.056958877 -0.06258943 -0.01423493 -0.015632853
0.038462393 -0.039065212 0.070463516 -0.063430145 0.00025121868 0.07827599 0.08789206 -0.051200032
0.014397521 0.01044067 -0.04267393 -0.030059304 0.023009239 -0.06251041 0.013122257 0.03687648
-0.034831207 0.073419 -0.005816877 0.038597185 0.087531544 -0.02830802 0.047233727 -0.026524223
-0.014439979 -0.016287925 -0.0019521076 -0.034546655 0.019810611 0.0033305064 0.056028478 -0.019205365
0.008863598 -0.03229935 -0.07523807 0.034353312 0.011309989 -0.035398096 -0.02988454 0.021550301
-0.015982106 0.05775965 0.0039782436 0.031778716 0.037324935 -0.023114452 0.03728184 0.0652247
0.004067488 0.015888976 0.002799073 0.059494715 -0.03781838 -0.048240814 0.037112903 -0.0783374
0.0014170855 -0.04064901 0.058339275 -0.08368799 0.053592734 0.087447606 0.016473642 -0.005403252
0.08633739 -0.03866996 -0.007082872 -0.038705695 -0.013613444 0.018435711 0.010109702 -0.018113203
-0.089669 0.0035402155 -0.0037523867 0.0122737335 0.06772759 0.084731996 -0.05317686 -0.005511403
-0.03616348 -0.08146273 -0.065854 0.08295786 0.051535808 0.04647367 0.047831763 -0.07167345
0.009855189 0.0808153 -0.050523505 0.077669136 0.022497036 0.061820675 -0.037864476 0.03925223
00000000: 8584 90bd 7cfc 9a3b 157d 323d 7095 3b3c
00000010: a05d 68bd d99f ad3d 0c4a 2dbd 4ac1 883d
00000020: 587c 6dbd df7d c3bc 7028 6d3d a8a8 71bd
00000030: 2eea 863d a623 79bd a57f 73bd 2094 9bbd
00000040: 631e 863c 921c cd3d 88ea 20bd 2464 213d
00000050: 5669 563c 6c06 9dbc a91a 853d 912c a9bd
00000060: 38d0 193c 753b aa3d 80fe 46bc 241a 8c3d
00000070: eec7 053c 8237 953d efb4 09bd a0b6 50bc
00000080: 8970 c5bc d258 043d f92f ac3c 4c2b 963d
00000090: dffb 55bc 1d9c 063c 9aed 773d 78ea c3bc
000000a0: 3845 b23d bc0c 71bd 1dbb a7bb df87 c73b
000000b0: 7d7c d23c ca1b 703d 2268 a5bb 3644 97bd
000000c0: 2a63 333d 3498 d83c 1f49 c43c c155 5dbd
000000d0: aa01 693d d079 b43d 4522 dbbc 13f5 a2bd
000000e0: cf16 903d ef0e 84bd 3738 dd3c 40c0 9e3c
000000f0: 4329 9fbc d81e fc3c dce8 a1bd 8687 0a3d
00000100: 9fe8 68bd 8e4e 93bc 8eb5 803c ad8f af3d
00000110: 6abc 2cbd 5eef 673d f0f6 37bc e177 1dbd
00000120: 1fa7 debc ac16 a6bd b388 d33d 203a 9cbc
00000130: c508 003c 07a1 153d 5cad 6d3d cd7e 9a3d
00000140: 4fcf 923d c37a 78bd 3f7e 543b 2f7f 3bbd
00000150: 0437 5dbd e3a5 be3c 4cb3 af3d 3160 8cbd
00000160: 1541 d83b e74a 81bd 1808 8dbc e17f 9f3d
00000170: 521d 063d e0dc 033c 339b 71bd b071 8b3d
00000180: 3a35 7fbc 84b9 76bd c8c7 d43c 38b5 80bd
00000190: 79b3 89bd cb22 c9b8 792f af3d 94bf 3fbc
000001a0: ab86 2e3d 9871 9c3d be47 943d f418 43bd
000001b0: 18bf 1ebc a849 a3bc 11d7 95bd 0030 1938
000001c0: 7c15 843d c4b0 e73d 3a08 9a3c 6474 a43c
000001d0: 00bc 1cbd 9689 803d 2ff8 cfbc 46ee 80bd
000001e0: 8cf8 403c f80f 5f3d ddc6 98bd dffc d83d
000001f0: 726c d43c 3704 58bd c0f8 9bbc 0d79 a03d
00000200: 62e2 8abd 5b73 cfbc f58c df3c 1f63 a0bd
00000210: 0e78 463d a37c 363d 2c35 5b3d 14d1 66bd
00000220: 40a0 b43d 37a4 5bbd 7275 b23d f7b8 adbd
00000230: 603c a0bd e25c 5e3d 5e26 043c 1016 a73b
00000240: 47b0 4cbd a6dd 1bbd c903 dfbc 2ab7 b2bd
00000250: 4319 803b 3c0f 803c 00f0 9cb8 98d3 e93c
00000260: a7c2 ab3d 4885 c03c 4988 04bd 6ae8 1bbd
00000270: b64d 69bd e32e 80bd a039 69bc 7810 80bc
00000280: be8a 1d3d d802 20bd 2d4f 903d aae7 81bd
00000290: 00b6 8339 2a4f a03d c100 b43d 20b7 51bd
000002a0: 94e3 6b3c 580f 2b3c dcca 2ebd ee3e f6bc
000002b0: df7d bc3c 7505 80bd bcfe 563c cb0b 173d
000002c0: 2bab 0ebd b35c 963d 809b bebb 1518 1e3d
000002d0: bd43 b33d 39e6 e7bc 2778 413d 5449 d9bc
000002e0: a995 6cbc 416e 85bc dddd ffba cb80 0dbd
000002f0: dd49 a23c a044 5a3b 1e7e 653d 9254 9dbc
00000300: a038 113c 534c 04bd 6b16 9abd 0fb6 0c3d
00000310: 884d 393c 98fd 10bd 6cd0 f4bc 428a b03c
00000320: e8ec 82bc 6295 6c3d ed5b 823b 662a 023d
00000330: 08e2 183d 855a bdbc d8b4 183d 8794 853d
00000340: 9048 853b 9929 823c a770 373b bbb0 733d
00000350: 72e7 1abd 2998 45bd b303 183d 5c6f a0bd
00000360: 80bd b93a 947f 26bd 2af5 6e3d 9c64 abbd
00000370: 0e84 5b3d bb17 b33d bbf3 863c c30d b1bb
00000380: a8d1 b03d 6464 1ebd 7017 e8bb dd89 1ebd
00000390: ec0a 5fbc 7d06 973c 2aa3 253c 2462 94bc
000003a0: 61a4 b7bd f602 683b 9aea 75bb c517 493c
000003b0: c3b4 8a3d f887 ad3d fbcf 59bd 0099 b4bb
000003c0: 2820 14bd efd5 a6bd 76de 86bd cfe5 a93d
000003d0: 3617 533d 2d5b 3e3d 3deb 433d 88c9 92bd
000003e0: a977 213c 7e82 a53d bcf1 4ebd ff10 9f3d
000003f0: b44b b83c ad37 7d3d c817 1bbd f2c6 203d

net.2.bias f4 [128]
-0.0049947356 0.08263891 -0.036869798 0.011680402 0.020083724 -0.071659744 0.05987662 0.07241978
0.073082894 0.068985194 0.04761239 -0.053639807 0.07075028 -0.03323378 0.024414644 -0.08098851
-0.009420879 -0.041950926 -0.042177293 -0.06584098 -0.010142341 -0.04628093 -0.05527444 -0.08189962
0.064894706 0.073048756 -0.01349742 0.056977533 0.020060152 -0.053909853 -0.013024412 0.034953263
-0.0031649112 -0.0045425 -0.013279453 0.069251016 -0.067847766 0.018402955 -0.056470823 0.04450518
-0.014657587 -0.052135512 -0.06830789 -0.008131541 0.004006033 0.060577042 -0.017804787 -0.04607721
-0.08556467 -0.0076775476 0.08188405 -0.07741351 -0.011572617 0.06339122 0.06756628 -0.058211215
-0.08210548 0.08210233 -0.04019745 0.020124944 -0.08769784 0.04662497 0.0061839833 -0.023056882
-0.047903158 0.034300745 -0.035325274 -0.03033823 -0.04728585 0.06558719 0.009927885 -0.014023975
0.009286248 0.059821986 -0.06527558 0.06485679 0.03222279 0.05693884 -0.018525895 -0.04982225
-0.013635406 0.08456024 -0.05975541 -0.06451381 -0.02348739 0.03601505 -0.07361152 -0.0075251013
0.014779927 -0.030252341 -0.072571486 -0.03163929 -0.031007439 0.023851778 -0.08820226 0.015903803
-0.01054259 0.05537495 -0.043144338 0.05106343 0.009697478 0.03210016 -0.08466693 -0.017000126
-0.05248203 0.049805548 -0.068257354 0.06588616 -0.07460444 0.050219502 -0.017282583 -0.075843535
0.0056797117 -0.07916841 0.022831691 0.08434925 -0.0084335655 -0.04759176 0.06991918 0.009383872
0.014818967 0.054538835 -0.0842997 -0.04245094 0.03628619 0.0010886097 -0.024502898 -0.064658195
00000000: e1aa a3bb 973e a93d c904 17bd 285f 3f3c
00000010: 9f86 a43c 58c2 92bd 3041 753d d250 943d
00000020: 7cac 953d 1c48 8d3d 3605 433d 6ab5 5bbd
00000030: 86e5 903d 2520 08bd 3801 c83c 4edd a5bd
00000040: 085a 1abc bcd4 2bbd 19c2 2cbd a3d7 86bd
00000050: 102c 26bc 1391 3dbd 7467 62bd fdba a7bd
00000060: 84e7 843d 969a 953d 4824 5dbc 4661 693d
00000070: 3055 a43c 94d0 5cbd 5864 55bc 272b 0f3d
00000080: 666a 4fbb 40d9 94bb 1092 59bc 7ad3 8d3d
00000090: c5f3 8abd cbc1 963c f34d 67bd 104b 363d
000000a0: 6026 70bc 0c8c 55bd 02e5 8bbd 283a 05bc
000000b0: 0a45 833b a21f 783d 58db 91bc 75bb 3cbd
000000c0: 883c afbd f093 fbbb d3b2 a73d f98a 9ebd
000000d0: 139b 3dbc 42d3 813d 3160 8a3d e26e 6ebd
000000e0: eb26 a8bd 4425 a83d 15a6 24bd 11dd a43c
000000f0: ed9a b3bd d3f9 3e3d 03a3 ca3b c9e1 bcbc
00000100: 1a36 44bd f07e 0c3d 3cb1 10bd e187 f8bc
00000110: cfae 41bd 9452 863d 91a8 223c d0c4 65bc
00000120: 5925 183c e607 753d 34af 85bd a3d3 843d
00000130: 0bfc 033d b338 693d 9ec3 97bc 6a12 4cbd
00000140: 0a67 5fbc eb2d ad3d 17c2 74bd d11f 84bd
00000150: a068 c0bc 8484 133d a3c1 96bd 2095 f6bb
00000160: 8227 723c c2d3 f7bc 5ca0 94bd 3398 01bd
00000170: 5003 febc ce64 c33c 63a3 b4bd b148 823c
00000180: d4ba 2cbc d8d0 623d 1eb8 30bd e327 513d
00000190: 2ce2 1e3c 757b 033d db65 adbd d943 8bbc
000001a0: 66f7 56bd e700 4c3d 83ca 8bbd 53ef 863d
000001b0: 36ca 98bd f7b2 4d3d 3494 8dbc db53 9bbd
000001c0: e01c ba3b 0c23 a2bd 8709 bb3c 4dbf ac3d
000001d0: f02c 0abc 94ef 42bd c931 8f3d d0be 193c
000001e0: 41cb 723c 1d64 5f3d 52a5 acbd 09e1 2dbd
000001f0: d4a0 143d aeaf 8e3a 4dba c8bc 846b 84bd

net.4.weight f4 [15, 128]
0.07504266 -0.024232391 0.00856107 0.04995311 -0.0038711526 -0.057919536 -0.0640225 0.020447107
0.02987974 0.07186227 0.045266606 0.08733884 0.0515818 0.042814605 0.076938726 -0.021259116
0.05083515 -0.016447883 0.04266977 0.0474462 -0.07833516 0.062315542 0.015837617 -0.025127426
-0.023508588 -0.021057632 0.019990407 0.0019647228 0.02131968 -0.028780967 0.0010779127 0.07253745
-0.09997239 -0.009969503 0.04861421 0.047709912 0.026975248 0.06800744 -0.08493188 -0.062868655
-0.078512885 0.07606121 0.057268035 0.059883736 0.076942906 -0.013931119 0.08291232 0.0074950606
0.019907333 -0.019809164 -0.018522283 -0.043802414 0.035883278 0.05608099 -0.045348767 -0.041954026
-0.0044624386 -0.08302221 -0.012805905 0.023560293 -0.0071154013 0.014622151 0.063778654 -0.05854807
-0.028873276 -0.017205197 0.03764432 0.03807917 -0.06467992 0.00010443602 -0.051936526 -0.06917408
0.014991089 -0.051939595 0.08143838 -0.035663217 -0.012631338 0.05817324 0.035384774 0.053554267
0.0035601833 -0.00974178 -0.034221373 0.09791656 0.06707079 -0.043434802 0.05186687 0.03824926
-0.057778988 -0.03536251 0.0075644404 -0.051724773 -0.04571217 0.00267264 -0.07690057 -0.055415954
-5.6250832e-05 -0.013919546 0.049315147 0.07991292 0.074616745 -0.118407965 0.017649036 -0.028804254
0.00022076482 -0.07311908 0.08403412 0.058007248 -0.03934201 -0.027706029 0.101389855 0.04870724
0.08575753 -0.04849285 -0.05818227 -0.071021564 -0.013325095 -0.001751039 0.08048129 -0.045815837
-0.06714247 0.015965696 0.015580878 0.024331331 -0.025788467 -0.067361325 -0.057370745 0.08780279
-0.018431537 -0.01505412 0.059455052 -0.046930134 -0.08110483 -0.07971299 0.009627483 0.035611536
0.04915435 -0.032145333 0.006464459 0.0039674714 0.06026016 -0.053179923 0.06512756 0.0039633736
0.031836525 -0.077987544 0.0331777 -0.048858143 -0.035394803 -0.06551382 0.020282403 0.08634401
0.06906388 -0.055358335 -0.008825332 -0.018637547 -0.038608987 -0.038706716 0.023511633 -0.03575566
-0.09438442 0.011816405 0.08400979 0.0031061913 0.07609683 -0.062209446 0.07424276 0.004075738
0.062035386 0.011940099 0.02864859 -0.07427094 -0.0013777 0.0072939186 -0.014217831 0.057652824
-0.033040285 -0.032776874 -0.05904245 0.012961204 0.08057417 0.019676382 -0.04621514 0.033549502
0.025117656 0.04615108 -0.00044655803 0.0840851 0.076477505 -0.054210704 0.07022691 -0.024246695
-0.08381537 0.0760007 -0.04755336 0.012588438 0.08585725 -0.028601944 0.07480467 0.021050498
0.00561554 0.03409701 -0.033552025 -0.032441728 -0.07766259 0.08862388 -0.031977005 0.15532477
0.015537994 -0.0017121877 0.07913818 0.050840057 0.04858727 -0.01236891 0.04544569 -0.059963778
-0.011016469 0.0036199568 -0.06724348 -0.016195014 0.034003183 0.06215829 0.0078183785 -0.032667186
-0.013845531 -0.050588854 -0.03179062 0.014938717 -0.048677597 -0.05054452 -0.050013915 -0.0013454198
0.055201046 -0.057677887 0.057127096 -0.07153642 -0.05384161 0.10252416 -0.016202845 0.0754438
0.07930782 0.02069331 -0.04337349 0.026978621 0.018394612 0.0038861572 0.014261995 0.08684964
0.01969997 0.048893113 -0.032926846 -0.02901623 0.07319658 0.0014850574 0.05887299 -0.038896725
00000000: f7af 993d 0283 c6bc bb43 0c3c a29b 4c3d
00000010: 2ab3 7dbb 093d 6dbd 3a1e 83bd b180 a73c
00000020: 5bc6 f43c 872c 933d 7a69 393d b5de b23d
00000030: 7047 533d 5e5e 2f3d 0d92 9d3d 9927 aebc
00000040: 8538 503d b6bd 86bc 7fc6 2e3d f256 423d
00000050: 2f6e a0bd 953e 7f3d e4bd 813c 08d8 cdbc
00000060: 1595 c0bc 0e81 acbc ecc2 a33c 94c2 003b
00000070: 9ca6 ae3c 10c6 ebbc c048 8d3a 848e 943d
00000080: 53be ccbd 2057 23bc b21f 473d 786b 433d
00000090: 32fb dc3c 7c47 8b3d c4f0 adbd 48c1 80bd
000000a0: 5dcb a0bd fbc5 9b3d e391 6a3d a648 753d
000000b0: 3e94 9d3d 593f 64bc efcd a93d 2099 f53b
000000c0: b414 a33c d446 a2bc 0bbc 97bc 296a 33bd
000000d0: 58fa 123d 2eb5 653d a1bf 39bd fcd7 2bbd
000000e0: a639 92bb 8c07 aabd dccf 51bc 8401 c13c
000000f0: 5028 e9bb bf91 6f3c 629e 823d 1ad0 6fbd
00000100: a687 ecbc eaf1 8cbc ee30 1a3d e7f8 1b3d
00000110: e876 84bd a904 db38 65bb 54bd 24ab 8dbd
00000120: 2f9d 753c 9dbe 54bd 2ac9 a63d 9813 12bd
00000130: acf3 4ebc 1047 6e3d a0ef 103d b85b 5b3d
00000140: f751 693b fd9b 1fbc b62b 0cbd 7a88 c83d
00000150: 695c 893d b1e8 31bd 5b72 543d 42ab 1c3d
00000160: a9a9 6cbd 47d8 10bd 20df f73b 5bdd 53bd
00000170: af3c 3bbd 7527 2f3b 0c7e 9dbd d7fb 62bd
00000180: dfee 6bb8 cf0e 64bc aefe 493d 63a9 a33d
00000190: aad0 983d e07f f2bd b694 903c e6f6 ebbc
000001a0: 1b7d 6739 75bf 95bd 151a ac3d 0299 6d3d
000001b0: 1625 21bd c1f7 e2bc 7ca5 cf3d 3e81 473d
000001c0: a5a1 af3d 70a0 46bd 8850 6ebd c173 91bd
000001d0: 8051 5abc 1e83 e5ba 60d3 a43d 63a9 3bbd
000001e0: fe81 89bd 7eca 823c f046 7f3c 8052 c73c
000001f0: 5642 d3bc bcf4 89bd 96fd 6abd f3d1 b33d
00000200: bcfd 96bc 8ea5 76bc 2487 733d d039 40bd
00000210: 4a1a a6bd 9040 a3bd 97bc 1d3c 67dd 113d
00000220: 1256 493d d3aa 03bd d0d3 d33b 9001 823b
00000230: 5cd3 763d 31d3 59bd 9961 853d 30df 813b
00000240: 0467 023d efb7 9fbd 57e5 073d 7a1f 48bd
00000250: 24fa 10bd 1c2c 86bd 4827 a63c 21d5 b03d
00000260: 5d71 8d3d 6cbf 62bd 2098 10bc c5ad 98bc
00000270: 7524 1ebd ef8a 1ebd 789b c03c 8774 12bd
00000280: 9e4c c1bd 9899 413c 530d ac3d 3e91 4b3b
00000290: a8d8 9b3d 55cf 7ebd 970c 983d c58d 853b
000002a0: d118 7e3d 68a0 433c 73b0 ea3c 5d1b 98bd
000002b0: f193 b4ba d301 ef3b e8f1 68bc 5e25 6c3d
000002c0: 4055 07bd 0b41 06bd 7fd6 71bd 3b5b 543c
000002d0: 1204 a53d 5d30 a13c 164c 3dbd 346b 093d
000002e0: 8bc3 cd3c ea08 3d3d 0120 eab9 cf34 ac3d
000002f0: 3da0 9c3d 0b0c 5ebd 20d3 8f3d 01a1 c6bc
00000300: 65a7 abbd 41a6 9b3d 50c7 42bd bc3f 4e3c
00000310: edd5 af3d a04e eabc 3133 993d 1872 ac3c
00000320: 9002 b83b 4ea9 0b3d d96d 09bd 9ee1 04bd
00000330: 900d 9fbd 7080 b53d 52fa 02bd 750d 1f3e
00000340: 1293 7e3c 7c6b e0ba 3313 a23d aa3d 503d
00000350: 7203 473d f8a6 4abc 4325 3a3d 949c 75bd
00000360: 6c7e 34bc cc3c 6d3b f3b6 89bd 68ab 84bc
00000370: ec46 0b3d b199 7e3d a818 003c 07ce 05bd
00000380: 5ed8 62bc 4236 4fbd e236 02bd 85c1 743c
00000390: 2962 47bd c507 4fbd 64db 4cbd cc58 b0ba
000003a0: 7e1a 623d a63f 6cbd 1afe 693d b081 92bd
000003b0: 0589 5cbd 30f8 d13d d4bb 84bc 4782 9a3d
000003c0: 236c a23d 0485 a93c 67a8 31bd 4502 dd3c
000003d0: 4cb0 963c e6ae 7e3b 25ab 693c 39de b13d
000003e0: d561 a13c 2544 483d 4dde 06bd 72b3 edbc
000003f0: 17e8 953d 42a6 c23a ce24 713d 2c52 1fbd

net.4.bias f4 [15]
0.05835469 0.08724608 -0.07116713 -0.06352149 -0.063678674 0.071859814 -0.047179624 0.056649577
-0.027362023 0.0542849 0.0042454996 -0.01981528 0.07054195 0.090687245 -0.02981971
00000000: 5405 6f3d 13ae b23d 12c0 91bd 8e17 82bd
00000010: f769 82bd 3d2b 933d 6c3f 41bd 6309 683d
00000020: 5226 e0bc d859 5e3d d51d 8b3b a753 a2bc
00000030: 4c78 903d 3cba b93d 7748 f4bc

net.0.weight f4 [128, 4]
0.022355834 0.30907264 -0.3687148 -0.33179104 -0.32292262 0.12707493 0.00058178 0.4009729
0.18691166 0.15049714 -0.14114219 -0.08695764 -0.356029 -0.33295435 -0.20262809 0.020342495
0.21431303 0.33284304 -0.30421948 -0.19174652 0.16828343 0.41196963 -0.10909891 0.3684706
0.13143738 0.06031273 0.45398337 -0.47147793 -0.3125694 -0.124690525 -0.200862 0.4256536
-0.2597585 -0.18357486 -0.33212256 -0.43587324 -0.2059848 0.43096954 0.22819003 0.24556123
0.18928494 -0.2384334 0.101118594 -0.41074485 -0.5097065 -0.2660197 0.311858 0.28888705
-0.16599026 -0.033426564 0.31352943 0.49459913 0.19844109 0.06754643 0.33524317 -0.29440117
0.25663963 -0.38514817 -0.34271806 -0.24322559 0.21343969 0.20755377 -0.2851841 0.16432974
0.30051517 -0.06226205 0.020183953 0.1099346 0.30848137 0.49670902 -0.37205467 -0.18151921
0.3774019 0.4031731 0.4229349 0.4327237 0.31776366 -0.42457598 0.052226413 -0.30950865
-0.46350548 0.4632854 0.3911549 -0.48555386 0.09358603 -0.084230006 -0.082280576 -0.22887844
0.19227809 -0.29615176 0.18329567 0.25285405 0.35360813 0.17922007 -0.5005794 -0.33242264
0.24965751 0.104650676 -0.390042 -0.28790975 0.47037464 0.33690894 -0.21801257 -0.12584239
-0.47629905 -0.008987069 -0.37652946 -0.38567835 0.13620876 0.074836336 -0.20106268 0.29637173
-0.2188472 0.47703555 0.36645627 -0.4141962 -0.02638166 0.016220594 0.06134744 0.12379018
0.27356023 0.008454918 -0.24666522 0.23708017 -0.47962445 -0.29635334 -0.12516493 -0.24355668
-0.23853363 -0.41456404 -0.10194864 0.10913894 -0.2535452 -0.034625746 0.34969476 -0.059312727
-0.052539665 -0.0421416 0.098926336 0.31531018 0.60604423 0.32565385 0.48350155 -0.0315285
-0.44916075 -0.23703861 0.3404526 -0.003241241 -0.19834052 -0.38254035 -0.46783563 -0.41362348
-0.101418376 0.274203 0.27032053 -0.48221594 0.31189102 -0.39125472 -0.10570514 -0.20273632
0.02908316 -0.09312281 -0.44447404 -0.41700003 -0.07823974 0.0064660907 -0.22713745 0.1883496
-0.2431485 -0.022529857 0.44534585 -0.20349959 0.3902428 0.1886509 -0.45218486 0.31601086
-0.24929737 -0.18975645 0.41738626 -0.4480507 0.1716617 -0.0954632 0.36487764 0.14309175
0.4443974 0.1840468 -0.11385488 -0.0996878 -0.44966322 0.26642668 0.40445584 0.343592
-0.35268915 0.022299945 -0.35246706 -0.2752421 -0.29135275 0.17087251 -0.2979566 -0.010908604
0.026498972 0.32672453 -0.37517238 -0.34331733 -0.427436 0.34388968 -0.18562087 0.41732532
0.18080378 0.06331301 -0.003722012 -0.09884077 0.046754185 -0.1225449 -0.0130997095 0.051750764
-0.6724932 -0.1889027 0.43549228 -0.50159943 -0.067265175 0.49248493 0.18509024 0.01339615
-0.29026234 0.25729442 -0.3504237 -0.14686325 -0.06508961 -0.068462595 0.013002709 0.41145387
0.15771359 0.45034945 0.29857042 -0.32038787 0.4265498 -0.35028473 -0.20628507 0.15222321
0.25179943 0.40876475 -0.13581537 0.018493371 0.25741178 -0.48354608 0.3614903 -0.4134612
0.0068912506 -0.08500838 -0.26333648 0.06608552 0.64481133 -0.13700147 -0.29304922 -0.18680248
00000000: 9523 b73c c53e 9e3e 30c8 bcbe 84e0 a9be
00000010: 1d56 a5be ee1f 023e 9882 183a 524c cd3e
00000020: c565 3f3e ec1b 1a3e 9487 10be d916 b2bd
00000030: 6f49 b6be fe78 aabe bd7d 4fbe 4ea5 a63c
00000040: e074 5b3e 676a aa3e a8c2 9bbe 3359 44be
00000050: 7e52 2c3e afed d23e 406f dfbd 2ea8 bc3e
00000060: 8597 063e 7b0a 773d 8270 e83e 8e65 f1be
00000070: 1909 a0be bf5d ffbd c5ae 4dbe 45ef d93e
00000080: 11ff 84be 0cfb 3bbe f80b aabe c72a dfbe
00000090: aeed 52be 0aa8 dc3e a6aa 693e 6774 7b3e
000000a0: e9d3 413e e327 74be 4417 cf3d 264d d2be
000000b0: 207c 02bf bc33 88be daab 9f3e 01e9 933e
000000c0: 5af9 29be 4bea 08bd ee86 a03e 193c fd3e
000000d0: 2434 4b3e c855 8a3d fea4 ab3e c0bb 96be
000000e0: 4566 833e 2432 c5be be78 afbe 2110 79be
000000f0: ef8f 5a3e fa88 543e a603 92be 0e46 283e
00000100: 20dd 993e 7e06 7fbd d158 a53c 6425 e13d
00000110: 45f1 9d3e a550 fe3e f37d bebe 2ce0 39be
00000120: d23a c13e b46c ce3e ec8a d83e f68d dd3e
00000130: ebb1 a23e 0662 d9be 5deb 553d eb77 9ebe
00000140: 9750 edbe be33 ed3e 7445 c83e 849a f8be
00000150: 08aa bf3d c880 acbd b882 a8bd 1c5f 6abe
00000160: 8ce4 443e 34a1 97be dcb1 3b3e 1676 813e
00000170: 200c b53e 7785 373e f925 00bf 4d33 aabe
00000180: 38a6 7f3e 1853 d63d 96b3 c7be e868 93be
00000190: f2d4 f03e 547f ac3e b03e 5fbe d4dc 00be
000001a0: 78dd f3be 803e 13bc 78c8 c0be a277 c5be
000001b0: 4f7a 0b3e cb43 993d 60e3 4dbe 09be 973e
000001c0: 7b19 60be 013e f43e 28a0 bb3e 8611 d4be
000001d0: 5a1e d8bc 0de1 843c 7447 7b3d b585 fd3d
000001e0: 1610 8c3e 7f86 0a3c cf95 7cbe 25c5 723e
000001f0: 5691 f5be a0bb 97be 3c2b 00be ec66 79be
00000200: 2942 74be bd41 d4be 73ca d0bd 3d84 df3d
00000210: add0 81be bad3 0dbd 310b b33e e7f1 72bd
00000220: d533 57bd ac9c 2cbd e499 ca3d 5670 a13e
00000230: b725 1b3f 1abc a63e 848d f73e 0724 01bd
00000240: 66f8 e5be 40ba 72be ce4f ae3e 006b 54bb
00000250: c719 4bbe 54dc c3be 2788 efbe 75c6 d3be
00000260: 70b4 cfbd 5664 8c3e 7467 8a3e 02e5 f6be
00000270: 2eb0 9f3e 8a52 c8be f07b d8bd 1c9a 4fbe
00000280: cf3f ee3c 2cb7 bebd 1a92 e3be 0781 d5be
00000290: 283c a0bd 80e1 d33b b896 68be b8de 403e
000002a0: ecfb 78be 8990 b8bc 5f04 e43e 3262 50be
000002b0: e7cd c73e b42d 413e c684 e7be 2dcc a13e
000002c0: cf47 7fbe 844f 42be a7b3 d53e e766 e5be
000002d0: 16c8 2f3e 3682 c3bd 3ed1 ba3e a586 123e
000002e0: 0e88 e33e c476 3c3e bf2c e9bd 1e29 ccbd
000002f0: 423a e6be 1469 883e d614 cf3e 4aeb af3e
00000300: ac93 b4be 60ae b63c 9076 b4be 88ec 8cbe
00000310: 302c 95be 34f9 2e3e c48d 98be 00ba 32bc
00000320: 5f14 d93c 7048 a73e 9816 c0be 4ac7 afbe
00000330: e4d8 dabe 4f12 b03e 6613 3ebe aaab d53e
00000340: a024 393e 40aa 813d 00ed 73bb 086d cabd
00000350: 5181 3f3d d2f8 fabd 2aa0 56bc 9cf8 533d
00000360: 8428 2cbf b66f 41be d8f8 de3e d268 00bf
00000370: 53c2 89bd fc26 fc3e 4c88 3d3e 877b 5b3c
00000380: 449d 94be 18bc 833e bc6a b3be 5263 16be
00000390: b44d 85bd 1e36 8cbd 5009 553c 15aa d23e
000003a0: ac7f 213e 3494 e63e 39de 983e e109 a4be
000003b0: bc64 da3e 8558 b3be 653c 53be 67e0 1b3e
000003c0: dbeb 803e 9d49 d13e 2f13 0bbe 697f 973c
000003d0: 7acb 833e 5a93 f7be 4215 b93e 30b1 d3be
000003e0: 00d0 e13b e018 aebd 0ad4 86be d857 873d
000003f0: 5b12 253f 1d4a 0cbe 8c0a 96be 2649 3fbe

net.0.bias f4 [128]
-0.097875684 -0.179473 0.1447069 0.18312278 -0.21145351 0.03595453 0.29639897 -0.056171957
0.18900993 -0.11509956 0.19619043 -0.36645472 -0.29982752 -0.25379527 0.46387985 -0.12934543
-0.0005971323 -0.22592478 0.4961642 0.49916577 -0.3637276 -0.40533495 -0.3789965 -0.010146568
-0.12745196 -0.32727283 -0.17933607 0.09957982 -0.23790617 0.10412403 -0.11417206 -0.24228168
0.069031484 0.404129 -0.34064847 0.0331378 -0.18438387 0.48869938 -0.47438163 -0.4793306
0.49804878 -0.31634498 0.105145715 -0.044982247 -0.08911743 -0.10419804 0.32789662 0.02388524
-0.4868073 -0.29518008 -0.16603586 0.24347939 -0.32356685 0.4638952 -0.08116637 -0.087142624
0.39943784 0.25969228 0.42226583 0.2994874 -0.11722566 -0.3317362 -0.037201524 0.4229231
-0.17383094 -0.46791503 0.21589683 0.47859326 -0.14234161 -0.41401178 -0.45352983 0.11932542
-0.02176045 -0.25249362 0.098009646 0.196311 0.4082975 0.3973103 -0.06731852 -0.44088358
-0.45181155 0.47358882 0.23343483 0.2251878 -0.43366787 0.45621663 0.4744949 0.45808655
-0.39853114 -0.18143211 -0.3438819 0.47528517 -0.20314696 -0.22827727 0.26759198 -0.22263062
-0.23577882 -0.026650002 -0.05043094 -0.38948923 0.42770547 -0.24924885 0.19527137 0.43149126
0.26003554 0.0709658 0.43220735 0.0663648 -0.23132831 0.48164308 0.117056645 -0.4878404
-0.14393935 -0.30727246 0.44963744 -0.08257294 -0.45576245 -0.036492832 0.3233639 0.13276884
0.1611113 0.054950237 0.19351149 -0.12171098 -0.19650333 -0.46401674 -0.37666845 0.22503163
00000000: 0c73 c8bd c5c7 37be 0c2e 143e 8a84 3b3e
00000010: 4587 58be 0f45 133d 9bc1 973e 9114 66bd
00000020: d28b 413e 51b9 ebbd 25e6 483e f49f bbbe
00000030: fe82 99be 74f1 81be a981 ed3e 2173 04be
00000040: df88 1cba d358 67be 3c09 fe3e a892 ff3e
00000050: 813a babe 1088 cfbe d40b c2be ca3d 26bc
00000060: c482 02be 4e90 a7be e0a3 37be 81f0 cb3d
00000070: ad9d 73be fb3e d53d 0ad3 e9bd b018 78be
00000080: 6160 8d3d ffe9 ce3e 7a69 aebe 80bb 073d
00000090: 20cf 3cbe ce36 fa3e 26e2 f2be d26a f5be
000000a0: 4000 ff3e f8f7 a1be a356 d73d 4e3f 38bd
000000b0: 3383 b6bd c865 d5bd 11e2 a73e fbaa c33c
000000c0: ce3e f9be d821 97be 4e05 2abe a952 793e
000000d0: 8eaa a5be ac83 ed3e 8e3a a6bd d577 b2bd
000000e0: 1e83 cc3e 63f6 843e 3a33 d83e 6a56 993e
000000f0: 0214 f0bd 54d9 a9be a060 18bd 6089 d83e
00000100: bd00 32be 8f92 efbe 0f14 5d3e 2d0a f53e
00000110: 00c2 11be 5af9 d3be 1035 e8be e360 f43d
00000120: f942 b2bc d846 81be 48b9 c83d c005 493e
00000130: 5f0c d13e 416c cb3e 4bde 89bd 7ebb e1be
00000140: d853 e7be 3c7a f23e 8a09 6f3e a197 663e
00000150: b709 debe 3a95 e93e fff0 f23e 528a ea3e
00000160: 460c ccbe 57c9 39be 4a11 b0be 9458 f33e
00000170: c205 50be 84c1 69be d101 893e 48f9 63be
00000180: 0170 71be 1b51 dabc ac90 4ebd 226b c7be
00000190: 36fc da3e 173b 7fbe 38f5 473e 6cec dc3e
000001a0: 6123 853e 8456 913d 484a dd3e 45ea 873d
000001b0: 54e1 6cbe ec99 f63e 65bb ef3d 38c6 f9be
000001c0: d664 13be d152 9dbe e136 e63e 001c a9bd
000001d0: b259 e9be 8279 15bd f48f a53e 8ef4 073e
000001e0: 5cfa 243e 8013 613d e027 463e 9b43 f9bd
000001f0: 2b38 49be 9a93 edbe b0da c0be b16e 663e

net.2.weight f4 [128, 128]
-0.06874478 0.0057825637 0.042501558 0.0123603605 -0.054304346 0.08543365 -0.04253287 0.067843676
-0.061736003 -0.022361454 0.05600438 -0.05466906 0.067098044 -0.060825013 -0.060949247 -0.0696345
0.015455626 0.098739386 -0.038862314 0.03904412 0.0127619635 -0.019168101 0.06499226 -0.07879909
0.009388022 0.08312122 -0.0121456385 0.06870233 0.005719574 0.07340603 -0.04269303 -0.012738854
-0.02126967 0.03285103 0.022151778 0.07327969 -0.0131686255 0.0059794583 0.06052933 -0.023915514
0.08615506 -0.058850035 -0.004529104 0.00270379 0.027261708 0.05887319 -0.005528002 -0.072682545
0.043795742 0.026439764 0.02801395 -0.052993137 0.056886353 0.0883781 -0.022545515 -0.07770533
0.07086548 -0.06393416 0.02723067 0.018427012 -0.017934447 0.030776426 -0.079057425 0.032151975
-0.056523405 -0.018444821 0.015271489 0.08519507 -0.042171873 0.056624763 -0.011228308 -0.037823536
-0.033311237 -0.08109793 0.09976087 -0.018517023 0.007876076 0.035168123 0.058294963 0.075437166
0.07168447 -0.060463108 -0.0019256326 -0.046312265 -0.05414941 0.023857482 0.086427666 -0.06798104
0.020189485 -0.046914224 -0.017215773 0.0778494 0.027136877 0.008048266 -0.058618292 0.06914812
-0.014925032 -0.0559364 0.026847433 -0.06284565 -0.06706459 0.00097498536 0.08517775 -0.013090304
0.04309358 0.07667057 0.070379786 -0.04735801 -0.009689115 -0.020109376 -0.07211645 3.6522746e-05
0.06476011 0.10821356 0.01842937 0.02007503 -0.03826523 0.0639845 -0.026390145 -0.061485723
0.012361827 0.05509164 -0.07505191 0.09803995 0.02719189 -0.05155957 -0.019039512 0.07889644
-0.0678146 -0.02532356 0.027288893 -0.07831406 0.048454337 0.044552457 0.053517506 -0.056351736
0.08819628 -0.053623404 0.08713807 -0.08482545 -0.078240156 0.0542878 0.008065788 0.0050990656
-0.0499728 -0.038053177 -0.027223485 -0.08726342 0.0039092614 0.015632264 -7.483363e-05 0.028543279
0.08386736 0.023501053 -0.032356534 -0.038063444 -0.056958877 -0.06258943 -0.01423493 -0.015632853
0.038462393 -0.039065212 0.070463516 -0.063430145 0.00025121868 0.07827599 0.08789206 -0.051200032
0.014397521 0.01044067 -0.04267393 -0.030059304 0.023009239 -0.06251041 0.013122257 0.03687648
-0.034831207 0.073419 -0.005816877 0.038597185 0.087531544 -0.02830802 0.047233727 -0.026524223
-0.014439979 -0.016287925 -0.0019521076 -0.034546655 0.019810611 0.0033305064 0.056028478 -0.019205365
0.008863598 -0.03229935 -0.07523807 0.034353312 0.011309989 -0.035398096 -0.02988454 0.021550301
-0.015982106 0.05775965 0.0039782436 0.031778716 0.037324935 -0.023114452 0.03728184 0.0652247
0.004067488 0.015888976 0.002799073 0.059494715 -0.03781838 -0.048240814 0.037112903 -0.0783374
0.0014170855 -0.04064901 0.058339275 -0.08368799 0.053592734 0.087447606 0.016473642 -0.005403252
0.08633739 -0.03866996 -0.007082872 -0.038705695 -0.013613444 0.018435711 0.010109702 -0.018113203
-0.089669 0.0035402155 -0.0037523867 0.0122737335 0.06772759 0.084731996 -0.05317686 -0.005511403
-0.03616348 -0.08146273 -0.065854 0.08295786 0.051535808 0.04647367 0.047831763 -0.07167345
0.009855189 0.0808153 -0.050523505 0.077669136 0.022497036 0.061820675 -0.037864476 0.03925223
00000000: 10ca 8cbd a97b bd3b 1d16 2e3d 1c83 4a3c
00000010: 3c6e 5ebd d6f7 ae3d f236 2ebd a0f1 8a3d
00000020: e4de 7cbd 5e2f b7bc d964 653d aaec 5fbd
00000030: b36a 893d a623 79bd eba5 79bd 889c 8ebd
00000040: 9839 7d3c e037 ca3d 172e 1fbd baec 1f3d
00000050: 8e17 513c 6c06 9dbc a91a 853d 6b61 a1bd
00000060: 38d0 193c 753b aa3d 80fe 46bc cfb3 8c3d
00000070: 446b bb3b e755 963d e3de 2ebd a0b6 50bc
00000080: bb3d aebc cd8e 063d a577 b53c aa13 963d
00000090: 38c1 57bc 55ef c33b 9aed 773d 78ea c3bc
000000a0: 1072 b03d bc0c 71bd e168 94bb 1232 313b
000000b0: f253 df3c 0425 713d 3e24 b5bb 96da 94bd
000000c0: 2a63 333d 3498 d83c 837d e53c 550f 59bd
000000d0: aa01 693d 94ff b43d 5fb1 b8bc f923 9fbd
000000e0: ec21 913d eaef 82bd db12 df3c 3ff4 963c
000000f0: 43eb 92bc d81e fc3c dce8 a1bd cab1 033d
00000100: 1685 67bd 9819 97bc 4435 7a3c c17a ae3d
00000110: 6abc 2cbd 5eef 673d f0f6 37bc daec 1abd
00000120: 5d71 08bd ac16 a6bd 6d4f cc3d 03b1 97bc
00000130: a80a 013c 730c 103d b3c6 6e3d cd7e 9a3d
00000140: 4fcf 923d 2aa8 77bd 8265 fcba eeb1 3dbd
00000150: c6cb 5dbd c470 c33c fd00 b13d a539 8bbd
00000160: 6b64 a53c 2129 40bd 1808 8dbc 826f 9f3d
00000170: 284e de3c e0dc 033c bc19 70bd 889d 8d3d
00000180: 1f88 74bc 911d 65bd 26ef db3c 38b5 80bd
00000190: 2959 89bd 2996 7f3a ac71 ae3d b778 56bc
000001a0: e582 303d 7605 9d3d 4723 903d 79fa 41bd
000001b0: 18bf 1ebc 6bbc a4bc cab1 93bd 0030 1938
000001c0: f3a0 843d 129f dd3d 31f9 963c 6474 a43c
000001d0: 00bc 1cbd 4e0a 833d 2530 d8bc 74d8 7bbd
000001e0: 4389 4a3c c6a7 613d d1b4 99bd 2bc9 c83d
000001f0: 87c1 de3c 2130 53bd c0f8 9bbc 7594 a13d
00000200: 62e2 8abd 5b73 cfbc f58c df3c 1f63 a0bd
00000210: 0e78 463d a37c 363d 2c35 5b3d 14d1 66bd
00000220: 40a0 b43d 37a4 5bbd 7275 b23d f7b8 adbd
00000230: 603c a0bd e25c 5e3d 5e26 043c 1016 a73b
00000240: 47b0 4cbd a6dd 1bbd c903 dfbc 2ab7 b2bd
00000250: 4319 803b 3c0f 803c 00f0 9cb8 98d3 e93c
00000260: a7c2 ab3d 4885 c03c 4988 04bd 6ae8 1bbd
00000270: b64d 69bd e32e 80bd a039 69bc 7810 80bc
00000280: be8a 1d3d d802 20bd 2d4f 903d aae7 81bd
00000290: 00b6 8339 2a4f a03d c100 b43d 20b7 51bd
000002a0: 94e3 6b3c 580f 2b3c dcca 2ebd ee3e f6bc
000002b0: df7d bc3c 7505 80bd bcfe 563c cb0b 173d
000002c0: 2bab 0ebd b35c 963d 809b bebb 1518 1e3d
000002d0: bd43 b33d 39e6 e7bc 2778 413d 5449 d9bc
000002e0: a995 6cbc 416e 85bc dddd ffba cb80 0dbd
000002f0: dd49 a23c a044 5a3b 1e7e 653d 9254 9dbc
00000300: a038 113c 534c 04bd 6b16 9abd 0fb6 0c3d
00000310: 884d 393c 98fd 10bd 6cd0 f4bc 428a b03c
00000320: e8ec 82bc 6295 6c3d ed5b 823b 662a 023d
00000330: 08e2 183d 855a bdbc d8b4 183d 8794 853d
00000340: 9048 853b 9929 823c a770 373b bbb0 733d
00000350: 72e7 1abd 2998 45bd b303 183d 5c6f a0bd
00000360: 80bd b93a 947f 26bd 2af5 6e3d 9c64 abbd
00000370: 0e84 5b3d bb17 b33d bbf3 863c c30d b1bb
00000380: a8d1 b03d 6464 1ebd 7017 e8bb dd89 1ebd
00000390: ec0a 5fbc 7d06 973c 2aa3 253c 2462 94bc
000003a0: 61a4 b7bd f602 683b 9aea 75bb c517 493c
000003b0: c3b4 8a3d f887 ad3d fbcf 59bd 0099 b4bb
000003c0: 2820 14bd efd5 a6bd 76de 86bd cfe5 a93d
000003d0: 3617 533d 2d5b 3e3d 3deb 433d 88c9 92bd
000003e0: a977 213c 7e82 a53d bcf1 4ebd ff10 9f3d
000003f0: b44b b83c ad37 7d3d c817 1bbd f2c6 203d

net.2.bias f4 [128]
-0.004692595 0.08263891 -0.036621813 0.011680402 0.020083724 -0.07133172 0.060095776 0.072608456
0.073139556 0.06910412 0.047760088 -0.053639807 0.07099393 -0.03323378 0.024414644 -0.081001155
-0.009895501 -0.040590774 -0.041864373 -0.06584098 -0.010142341 -0.046283778 -0.05527444 -0.08189962
0.06521353 0.073202275 -0.01349742 0.057178453 0.020060152 -0.053909853 -0.013024412 0.034953263
-0.0029141484 -0.0045425 -0.013279453 0.069763474 -0.06928426 0.018615717 -0.056470823 0.04465576
-0.014158945 -0.052135512 -0.06835958 -0.008131541 0.003142316 0.06094438 -0.017804787 -0.04607721
-0.08556467 -0.008027221 0.08222298 -0.07788936 -0.01127318 0.063555084 0.06879865 -0.058211215
-0.081829436 0.082612194 -0.040423203 0.020115353 -0.08769784 0.047203477 0.006555997 -0.022497287
-0.047903158 0.034000944 -0.035325274 -0.030015262 -0.04698686 0.0657004 0.010308661 -0.014023975
0.009436698 0.059821986 -0.064966835 0.06485645 0.03258361 0.05723317 -0.018443553 -0.04855091
-0.013290927 0.08454908 -0.059227455 -0.064405315 -0.022036523 0.03601505 -0.073123686 -0.0076686163
0.013989929 -0.030123912 -0.0724255 -0.03163929 -0.03053014 0.024188299 -0.08820226 0.015903803
-0.0080980435 0.056485433 -0.042951837 0.05174877 0.009595413 0.03100769 -0.08466693 -0.017000126
-0.053972647 0.050038077 -0.06804172 0.06588616 -0.07435884 0.050279636 -0.016990203 -0.075843535
0.0056797117 -0.07916841 0.022831691 0.084681295 -0.0084335655 -0.045649715 0.06997903 0.009383872
0.014800773 0.05455997 -0.0842997 -0.04245094 0.036460176 0.0012753132 -0.024052447 -0.064658195
00000000: 57c4 99bb 973e a93d c100 16bd 285f 3f3c
00000010: 9f86 a43c 5d16 92bd fd26 763d beb3 943d
00000020: 31ca 953d 7686 8d3d 15a0 433d 6ab5 5bbd
00000030: 4465 913d 2520 08bd 3801 c83c efe3 a5bd
00000040: bd20 22bc 8342 26bd fa79 2bbd a3d7 86bd
00000050: 102c 26bc 0f94 3dbd 7467 62bd fdba a7bd
00000060: ac8e 853d 13eb 953d 4824 5dbc f433 6a3d
00000070: 3055 a43c 94d0 5cbd 5864 55bc 272b 0f3d
00000080: 4cfb 3ebb 40d9 94bb 1092 59bc 27e0 8e3d
00000090: e8e4 8dbd fd7f 983c f34d 67bd f5e8 363d
000000a0: ebfa 67bc 0c8c 55bd 1c00 8cbd 283a 05bc
000000b0: 50ef 4d3b d0a0 793d 58db 91bc 75bb 3cbd
000000c0: 883c afbd 9b84 03bc 8664 a83d 7584 9fbd
000000d0: 25b3 38bc 2b29 823d 4ee6 8c3d e26e 6ebd
000000e0: 3196 a7bd 9530 a93d cd92 25bd f4c8 a43c
000000f0: ed9a b3bd 6f58 413d b0d3 d63b 3b4c b8bc
00000100: 1a36 44bd 9344 0b3d 3cb1 10bd 91e2 f5bc
00000110: 4b75 40bd ee8d 863d a8e5 283c d0c4 65bc
00000120: 619c 1a3c e607 753d 550d 85bd 75d3 843d
00000130: 6476 053d 546d 6a3d ef16 97bc 52dd 46bd
00000140: 30c2 59bc 1128 ad3d 7d98 72bd efe6 83bd
00000150: f085 b4bc 8484 133d dfc1 95bd 0449 fbbb
00000160: 0436 653c 6cc6 f6bc d253 94bd 3398 01bd
00000170: 581a fabc 8a26 c63c 63a3 b4bd b148 823c
00000180: a8ad 04bc 455d 673d 44ee 2fbd 85f6 533d
00000190: 1436 1d3c d703 fe3c db65 adbd d943 8bbc
000001a0: 6c12 5dbd baf4 4c3d 7559 8bbd 53ef 863d
000001b0: 7349 98bd 05f2 4d3d 0a2f 8bbc db53 9bbd
000001c0: e01c ba3b 0c23 a2bd 8709 bb3c 636d ad3d
000001d0: f02c 0abc 32fb 3abd 2a51 8f3d d0be 193c
000001e0: f17e 723c 467a 5f3d 52a5 acbd 09e1 2dbd
000001f0: 4457 153d 6928 a73a a309 c5bc 846b 84bd
