dqn_out/dqn_ep4550.pt (torch, 464501 bytes, 24 tensors)

net.0.weight f4 [128, 77]
00000000: 2410 b1be dcf6 593d c6eb a5bd ea28 0abe
00000010: 87ea 2b3b 5439 5c3d 31cd a73c c561 ec3d
00000020: 3ff4 7d3d 8b40 37bd 692d 213c 5767 26be
00000030: f29a acbd 3beb 633a 8d4d 21bd d14a b93b
00000040: ff43 1c3d 284c a43d 5a55 94bd 66b4 6bbd
00000050: 0b1b 093d e59c 523d 7c46 f5bc c9bf f33d
00000060: 04a4 0fbc 4ba2 623d 8779 d93d 6f3f b5bd
00000070: e785 00be d055 b4bd a1ee ddbd cdc7 043e
00000080: ce97 05bd 6a96 22bd b6af a0bd afbe e3bd
00000090: 5117 89bd 2a15 c93d 44d9 2f3d 68cc 413d
000000a0: a3d0 3fbd 18c7 08be 452c 7c3d 719b c8bd
000000b0: 1192 fdbd b2f2 c7bc dc6c 123d 9f1a 19bd
000000c0: 0a0d 85be fc7a ccbd fb78 c03d fc5b 1f3e
000000d0: 7f0b 243d e3ba b53a 456d c23d f8d8 57bd
000000e0: 2fa5 753c ed2a c5bd 79fa b1bd f0ca 02be
000000f0: 1d96 1a3e 3f08 0a3d bad0 a9bd 201f 7b3d
00000100: 56a1 803d 6ee2 943c 25ac 6cbd 37bb 80bd
00000110: 5237 093e 4427 1b3e 800f 96bd 5dd4 08bd
00000120: c214 7b3d 9886 eb3d f15e e63d 5599 b83d
00000130: 84d6 713c 9c71 a83f 4c4a 3d3d ad76 c8bd
00000140: fd17 45bc e397 7a3d 993e 403d 691f a9bd
00000150: 7e52 d1bc d02c c4bd ba69 913d be32 8dbd
00000160: 2505 a73d 8d3e cfbd 4ad2 383c 5103 6fbd
00000170: d2ed b93d a2ab 133d 63bf 88bd 61a0 64bd
00000180: eeb5 bd3d 320c 743d 5faa a4bd 4e1e 883c
00000190: 91d0 b53d 669a 5e3d 865f e6bd 593e c6bd
000001a0: 4451 20be 1d08 4b3d 6590 69bd 3fd6 ccbd
000001b0: 92d8 83bc a509 0c3d 1f47 8dbd 53b6 913d
000001c0: bbfd c4bb d89b 013e 7b15 e43d 5447 77bd
000001d0: d466 f13b fb23 a9b9 2ee1 1bbc 07a8 b03c
000001e0: c44f f23c 903f 0dbe 0634 c4bd 8334 893c
000001f0: 8fe6 e3bc e4cc 4bbe 6912 1b3b 76a7 c1bd
00000200: a4f0 06bd 5c38 68bd 350b 483c dc96 363d
00000210: 914d 3abd 6e85 bb3c c83f f03d a7ba c43c
00000220: 8aa1 99ba 7369 8d3d 0169 2f3d 7adc c13c
00000230: 8be1 0cbe df6c 8e3c 544e 803d f523 463e
00000240: d14a a7be dbd6 0cbe 99be c23b b9c2 f0bc
00000250: 761f 5abe 19c7 b8bd b6d7 a9bd 5e9a a5bd
00000260: 594e ea3b fe2a c93d 1ec5 a53f 3a42 e5bd
00000270: 421d 303d 297c e1bb 840e 42bd 0e4d 80bd
00000280: d733 153d 6c4f 163d b551 6ebd 45ea dcbd
00000290: 30c1 8c3b ca4e 153e e46a a4bc ff61 633d
000002a0: b858 4bbd 58b1 f33c a753 e03d ad16 dfbc
000002b0: fd3f b43d 36b5 203d 92cb d6bd dcec 433d
000002c0: 4ba2 423d 5e47 8abd 2ba6 993d 92f2 01bd
000002d0: 9a59 b23d 1e18 213d 51f9 9c3d 1c07 173d
000002e0: 39f4 2a3e 98fe b63c dd35 15bb a438 a1bc
000002f0: 26c8 45bd 7757 c03d 5f21 cf3d 727f 963d
00000300: 40cc a8bd f0ae 473b 97f2 2cbd de20 8ebd
00000310: 5216 aebd 6db3 3b3d 823e 41bd 4057 9a3d
00000320: 319e d93c df0c d63d d93f 3dbd 1ce1 c43d
00000330: d6e2 e4bc daf4 cc3d 1f52 abbd b706 e03d
00000340: 109e 9f3d dba8 463d ccc1 ab3c f539 c9bc
00000350: fce7 483c 7e9e 71bc 7a2f 69bc 21a3 9cbc
00000360: 75dd ebbd 59aa e6bc 3824 e13d ffba 88bd
00000370: a05a 713c 36ce 3f3d a48e b63d e7ce b03c
00000380: a701 c0bc 1f77 46bc e0ba 05be 48c4 58bc
00000390: d073 04bd 2a4e db3b f8db 4eba 5adf e13f
000003a0: 37a5 c53b 31e0 803d e512 523d 76c0 84bd
000003b0: 796c 0dbc 153d 91bd 4e31 ebbc 74a8 db3d
000003c0: dc1e ba3d b135 9b3c 53ac 58bc 56d3 a13d
000003d0: 8275 513d 6046 e4bd 8ae1 a23d 2b9d 57bd
000003e0: a43e a73c 8741 dfbc a4b4 8bbd e506 e13b
000003f0: 9c98 4c3d 4da6 8fba e170 c4bd d4b3 47bd
-0.34582627 0.05321394 -0.08101611 -0.1349217 0.0026232318 0.05376561 0.020483585 0.115420856
0.06200051 -0.044739287 0.009837487 -0.16250359 -0.08427991 0.0008694415 -0.0393806 0.0056546708
0.038150784 0.08022338 -0.07242842 -0.05754509 0.033473056 0.051419158 -0.029940836 0.119018145
-0.008767132 0.055330556 0.106188826 -0.088499896 -0.1255108 -0.0880543 -0.108365305 0.12966843
-0.032615475 -0.039694227 -0.07846014 -0.111203544 -0.066939004 0.0981849 0.04293181 0.047314078
-0.04682983 -0.13357198 0.061565656 -0.09795273 -0.123813756 -0.024407718 0.035748348 -0.037378903
-0.2598651 -0.09984395 0.09398075 0.15562433 0.040050026 0.0013864901 0.09493498 -0.052697152
0.014992996 -0.09627328 -0.08690352 -0.12772727 0.15096326 0.03369927 -0.082917646 0.06130898
0.062807724 0.018174376 -0.057781357 -0.062857084 0.1340001 0.15151697 -0.07327175 -0.03340565
0.061299093 0.11500281 0.112485774 0.09013621 0.014760617 1.3159671 0.046213433 -0.097882606
-0.012029645 0.061180007 0.046934698 -0.08257944 -0.02555203 -0.0957886 0.07100244 -0.06894444
0.08155278 -0.101193525 0.011280606 -0.058352772 0.09078564 0.036052354 -0.06677129 -0.05581701
0.09263216 0.059581943 -0.08040308 0.016616013 0.088776715 0.054346465 -0.112486884 -0.096798606
-0.15656 0.049568284 -0.05702247 -0.10001802 -0.01609448 0.034188885 -0.06898331 0.07114854
-0.0060116923 0.12657106 0.111369096 -0.06037076 0.0073669944 -0.00032261 -0.009514136 0.021564497
0.02957905 -0.13793778 -0.09580235 0.016748672 -0.0278199 -0.19902378 0.0023662096 -0.09455769
-0.032944337 -0.056694373 0.012209703 0.044577464 -0.04548413 0.022890773 0.11730915 0.024014784
-0.0011721116 0.069048785 0.04282475 0.023664702 -0.13757913 0.017385898 0.0626494 0.19349654
-0.32674268 -0.13753836 0.005943131 -0.029389726 -0.21301064 -0.0902235 -0.08293097 -0.08086084
0.007150453 0.09822653 1.295078 -0.11194272 0.042996652 -0.006881256 -0.047377124 -0.06264697
0.03642639 0.036696836 -0.05818339 -0.10786871 0.0042954907 0.14580837 -0.0200705 0.05551338
-0.049645156 0.02974765 0.109534554 -0.027232492 0.08801267 0.039235316 -0.10488047 0.04783331
0.047518056 -0.067518935 0.07502397 -0.031725474 0.087084964 0.03932964 0.07664741 0.036872014
0.16694726 0.022338197 -0.00227677 -0.019680329 -0.04828658 0.093916826 0.10113787 0.07348527
-0.082420826 0.003046926 -0.04222354 -0.06939863 -0.08500351 0.04582541 -0.047178753 0.07536173
0.02656469 0.10451674 -0.046203468 0.09613249 -0.027940195 0.10007639 -0.08365273 0.10938781
0.0779382 0.048500877 0.020966433 -0.024563769 0.012262341 -0.01474726 -0.014232511 -0.019120755
-0.11516849 -0.0281574 0.10993236 -0.06676292 0.014731079 0.046827517 0.08913925 0.021583034
-0.023438288 -0.012113362 -0.13059568 -0.013230391 -0.03233701 0.0066926675 -0.0007891054 1.7646286
0.006031658 0.06292761 0.05128755 -0.064820215 -0.008631819 -0.070917286 -0.028710034 0.10725489
0.09087917 0.0189465 -0.013224679 0.07901637 0.051137455 -0.111462355 0.079531744 -0.05264012
0.020415612 -0.027252926 -0.06821564 0.006867277 0.049950227 -0.0010959596 -0.095918424 -0.04875548

net.0.bias f4 [128]
00000000: cdf9 01bd 5700 2ebc f343 a4bd 65cd e23c
00000010: ef01 82bd f119 6fbd 8f5c 2f3d 31d8 2fbd
00000020: c13f a13c de36 20bb 3868 243d 3bc6 853d
00000030: 3921 d8bd fed1 68bd ba5e 543e 1878 d73c
00000040: 1bf0 53bc c899 9b3d e26d 123e d6c3 5b3d
00000050: 8ab2 44bd 9068 e23d da84 d5bd 3f42 dcbd
00000060: b232 723c ca3e 9f3b 2642 e2bd 88f4 b53d
00000070: 17aa e23a 6ad1 91bd 33d7 fe3c 6d69 bc3d
00000080: 0356 a53b 4c09 a73d 238e 6c3d c4c2 0c3d
00000090: 912c 47bd 6ce5 adbd 0159 99bc 6bf2 f5bc
000000a0: afd7 b5bd a040 d2bd 71cc 93bd c947 803b
000000b0: d033 32bd 7117 c4bd a1e4 91b9 1b32 1bbd
000000c0: e5c9 24bd c675 b93d 3746 2b3d 3a95 073e
000000d0: c6a8 c33d 7601 8f3c 25e8 56bd 38ef b0bb
000000e0: d28d 703d f4cf 3bbd 9333 c63d fa76 d13d
000000f0: b7af 9bbd fe0f 4f3d 7115 173d 9e75 3d3d
00000100: b73d a2bd d467 043e e345 33bd 9fa0 363d
00000110: d06a 95bd a970 423d a521 03bd a4e9 74bd
00000120: a8f7 cfbd 2b0e f53c b678 473d f10b c53c
00000130: fe14 97bc 1363 913c ae2a 4bbd fd0d f53c
00000140: 50f8 b13d 243a b9bd cd49 3b3d 56c5 3fbd
00000150: 4a81 ee3c 70ac cbbc 5bc8 483d 9a7a b9bd
00000160: 0160 9d3d dc6e 863d 596c b8bd aeb3 a5bd
00000170: e0c3 913d 5144 a2bd bbe3 f53c 6dd2 61bd
00000180: 0e4f dabd f7a5 2d3d 466e e4bc 3fd1 4ebd
00000190: dc8e 3d3d 0fde 3f3d 4686 ca3d e83f d63d
000001a0: d3ce 103d 1ea3 d83b 6681 293d b336 7f3d
000001b0: 66e2 93bd d682 b43d 09f3 173d cbb7 343d
000001c0: 8864 623c c9d6 fbbd c8a1 a33d 476d 1f3c
000001d0: 1eb0 d5ba af8c 65bd 65f7 a03d 8704 83bc
000001e0: 6540 fb3b dca6 d4bd 654a f03d 93ab dbbd
000001f0: 303e 7c3d 6ec0 753d b6b1 753c 000d 9dbd
-0.03173237 -0.010620198 -0.08020773 0.02768583 -0.06348025 -0.05837435 0.04281288 -0.042930786
0.01968372 -0.0024446766 0.040138453 0.0653195 -0.10553212 -0.05684089 0.2073926 0.026302382
-0.012935664 0.07597691 0.1429973 0.05365356 -0.04802183 0.110551 -0.1042573 -0.10754823
0.0147825945 0.00485978 -0.11047773 0.08884531 0.0017293122 -0.07120021 0.031108474 0.09199796
0.005045654 0.0815607 0.05775274 0.03436543 -0.048626486 -0.084910244 -0.018719198 -0.03002282
-0.08879029 -0.102662325 -0.072167285 0.0039148075 -0.043506444 -0.095747836 -0.00027826897 -0.03788958
-0.040231604 0.090556666 0.04181501 0.13240519 0.09553675 0.017456751 -0.052467484 -0.005399611
0.058729 -0.045852616 0.09677806 0.10227771 -0.07601874 0.05055236 0.036885682 0.046254747
-0.079219274 0.12930232 -0.04376782 0.044586774 -0.072957635 0.047470722 -0.032014508 -0.05979313
-0.101546586 0.029913982 0.048699103 0.024053546 -0.018442627 0.017747438 -0.04960125 0.029913897
0.0868994 -0.090442926 0.04572468 -0.046819054 0.029114384 -0.024862498 0.0490192 -0.090565875
0.07684327 0.065641135 -0.09005041 -0.08090912 0.07117438 -0.079231866 0.030015817 -0.05513232
-0.1065961 0.042394605 -0.027884614 -0.05049252 0.04627882 0.04684263 0.09888892 0.10461408
0.035353493 0.006611242 0.04138317 0.062308025 -0.072209165 0.088140175 0.03709701 0.04412059
0.013817914 -0.122968264 0.07989842 0.009730644 -0.0016303097 -0.05604237 0.07859687 -0.01599337
0.0076675885 -0.103833884 0.1173294 -0.107260846 0.061582744 0.05999797 0.014995983 -0.07668495

net.2.weight f4 [128, 128]
00000000: 696d 33bd 5021 c0bb 7a14 86bd 844f eabc
00000010: cd42 bdbc 1906 f7bc 75ae 6f3d ac5c 9f3d
00000020: 58ec 2bbd 86f3 3a3d 8ed2 253b b14e 7c3d
00000030: 19e0 9dbd 885c 33bd d40d 91bc 01da ad3d
00000040: 7c27 893d 16ed dcbc 032b 5fbd 954a 41bd
00000050: a81b 323c b9c6 8a3c f2c7 43bd 0006 cc3c
00000060: 5871 27bc c474 803d cd02 0abd d520 57bd
00000070: b090 5e3c b8ad c23a bfe7 3f3d edb7 b03d
00000080: 65cd 11bd f354 a83d b261 1d3d 391c 9a3d
00000090: 3f4d c63c 2084 58bc 07ea 193c 003c 183b
000000a0: 62b1 85bd 7340 04bd c71a 893d 44e2 8d3c
000000b0: ae1b a73c 3028 0c3c c839 9c3c a903 7cbd
000000c0: 385c 88bc 3d7e b5bc ae7a 08bd e80d 71bd
000000d0: f8f4 16bc 6c52 a9bb eae0 02bd 80fa b0bc
000000e0: fc59 debc 147b 7dbc c9cb 96bd 998b 933d
000000f0: 955d 41bd 6fe4 2f3d 1722 a4bd bcad c6bb
00000100: 8006 36bc 273d a0bd 2a46 d03a f325 8dbd
00000110: f80f 003d cd81 583d e0eb 5fbc 20ff 6f3c
00000120: 8f34 35bd 28bf f03c 9ae6 aabd 26f6 ad3d
00000130: a025 a3bb 5f5f 7c3c d508 933d ce54 98bd
00000140: 2f95 3cbd 4d42 523c 722a babd d4b3 a43c
00000150: 6825 2cbc 84cc a9bd 55a0 cdbc f87c 8abd
00000160: b0e5 0b3c 0d91 7e3d 330d a63d 21b2 acbd
00000170: e43a e93c 6654 8bbd 9a17 e83c 3e48 473d
00000180: fc72 acbd 3cc5 88bd dd50 a2bd 38c7 07bc
00000190: 07b5 f33c 7b01 8bbd 7fde 0fbc 54ad 0abd
000001a0: 3e04 9e3d baf7 a5bd 1ef2 48bd 98d0 7bbb
000001b0: 8025 93bd c156 8b3d 8ca7 acbd c57b 01bd
000001c0: 2813 24bd e1f2 7cbb 6f02 2cbd dc64 773d
000001d0: 39ef a1bd f37e 4abd e79a 31bd 8703 adbd
000001e0: 9eda b9bd b246 e63c 1e3b a43d d26b 87bc
000001f0: 16cd 18bd e0a0 113d aa54 553d 2775 a2bd
00000200: 4ed1 dbbd 3f6f 72bd 4b84 223d 436e 64bd
00000210: 881d fd3c 71fd 843c a720 a7bd 6ff4 dcbb
00000220: 47f1 103e d4c4 303c da02 e53d 7840 ecbc
00000230: 703f c7bb 9b61 163e 1e08 91be 33cc b1bc
00000240: b480 a5bd f6cc d13c ef67 b6bd 9864 a4bd
00000250: 438f 2abe 0164 043e b84c 843d 66c0 b9bd
00000260: 16b9 3c3d 70ff 2abe 2ca0 e73d 05ca 493d
00000270: 8b6c 6c3c 70fb 993d 6db2 cb3a d149 3e3d
00000280: d6a2 8f3c b54a f0bc 87cf eeba 68a0 0a3e
00000290: 364e 103d f18f 45be 60c6 99bd dbe8 a2bb
000002a0: 6e79 39bd 07cc a23c 5dbb b8bd 5835 1f3d
000002b0: ae50 02bd e2d5 34bd eeea c83d 0aa2 b13d
000002c0: ce1c 113e e6f8 8abc 15a9 063e 2cf1 163d
000002d0: c77b 3e3d eb5c 013d 21b2 acbd ad03 bd3d
000002e0: 64e5 0dbe fc2b dd3d c9b1 d6bd be2f 303d
000002f0: a02c 8e3d 0375 bcbd 28e5 2cbd 4512 323e
00000300: 53a0 9d3c e878 02be 334c 863d 9d4e 4c3d
00000310: e258 a6bc 16d5 5c3c 298b babb 1779 fd3c
00000320: 39d3 6a3c d267 ac3d aedf 9fbd 2da6 123e
00000330: 9d19 c4bd 589b c03d dffd 09bc 9753 233d
00000340: 247d 783d a31b 1d3e ebbf b73d dcba a8bc
00000350: fe8b 5c3c 1f02 953d 642b 41bd 3c04 fa3d
00000360: c58b 633d b54e 523c 8d38 e3bc f24d f53d
00000370: 6ec8 283d 14bd 00bd 1985 af3d 1b94 d73a
00000380: 487c c63d 601a d2bd 787d 5e3c 8405 d13d
00000390: 14d9 7b3d 6346 7dbd 9199 06be 2859 823d
000003a0: 4819 24be 44ba 50be a83c 83be 72ba babc
000003b0: 491e acbd a408 4ebd c768 c6bc d769 383d
000003c0: 4637 6a3a 5a6a ecba 108a ec3c 8af5 13bc
000003d0: 6379 853b 8208 d2bd 9d5f fbbd f0bb 753d
000003e0: 5ffc aebc 3930 443e 0551 2ebd 59f4 f23d
000003f0: 5a4b 3c3c 58e9 14bd 2c4a 863d e282 193e
-0.043805514 -0.005863346 -0.06546874 -0.02860237 -0.023103142 -0.030154275 0.058515985 0.07781348
-0.04197344 0.0456424 0.0025302502 0.061598483 -0.07708759 -0.043789417 -0.01770679 0.084888466
0.06696984 -0.02696852 -0.05448438 -0.047190268 0.010870852 0.016940461 -0.047798105 0.024905205
-0.010219894 0.06272271 -0.033694077 -0.052521545 0.013584301 0.0014852798 0.04685187 0.08628831
-0.03559627 0.08219328 0.038423248 0.07524914 0.024206756 -0.013215095 0.009394175 0.0023229122
-0.06527974 -0.032288026 0.066945605 0.017319806 0.02039894 0.008554503 0.019070521 -0.061526928
-0.016645536 -0.022154922 -0.03332012 -0.058851153 -0.009213679 -0.005167296 -0.031952776 -0.021603823
-0.027142517 -0.015471239 -0.07363088 0.072043605 -0.047208387 0.04294246 -0.080143146 -0.006063191
-0.011109948 -0.07824164 0.0015890051 -0.06892004 0.03126523 0.052858163 -0.013667077 0.014648229
-0.044239577 0.029388025 -0.08344765 0.08494215 -0.0049788505 0.015403598 0.07179419 -0.0743805
-0.04604071 0.01283319 -0.09090127 0.02010528 -0.010506965 -0.082909614 -0.025100866 -0.06762117
0.0085386485 0.06215005 0.08107986 -0.08432413 0.028470464 -0.06803207 0.028331567 0.04865288
-0.08420369 -0.066782445 -0.0792558 -0.008287244 0.029749407 -0.06787392 -0.008781075 -0.033856705
0.07715653 -0.08103891 -0.049059026 -0.0038423892 -0.07184887 0.06803656 -0.084303945 -0.031612176
-0.04005733 -0.0038596916 -0.04199451 0.06039892 -0.07906956 -0.049437474 -0.043360617 -0.084479384
-0.09074901 0.028109882 0.08019088 -0.016530905 -0.03730496 0.035553813 0.052082695 -0.07932501
-0.10733281 -0.059188124 0.039676946 -0.055769216 0.03089787 0.016234132 -0.08160525 -0.006743006
0.1415454 0.010789115 0.111821845 -0.028839335 -0.0060805604 0.14685671 -0.28326505 -0.021703815
-0.08081189 0.025610428 -0.089065425 -0.08026999 -0.16656213 0.12928773 0.064599454 -0.090699
0.04607495 -0.16699004 0.11309847 0.049264926 0.014430176 0.07518661 0.0015540846 0.046457116
0.0175337 -0.029332498 -0.0018219807 0.13537753 0.035230838 -0.1929319 -0.0750854 -0.004971606
-0.04528182 0.019872678 -0.09020112 0.038869232 -0.031815223 -0.044149287 0.09810434 0.086734846
0.14171144 -0.016964387 0.13150437 0.036851093 0.046504762 0.031582754 -0.08432413 0.09229217
-0.13857037 0.10799405 -0.104831286 0.04301428 0.06942105 -0.09202006 -0.042210728 0.17389782
0.019241488 -0.12741435 0.065575026 0.04987966 -0.020306055 0.013478538 -0.0056928587 0.03094153
0.014332586 0.0841824 -0.078063354 0.14321204 -0.09575198 0.094046295 -0.008422344 0.03987464
0.06066622 0.15342574 0.08972152 -0.020596914 0.013461111 0.07275795 -0.04716052 0.12207839
0.055553216 0.012836148 -0.027736926 0.119777575 0.04120677 -0.03143032 0.08570308 0.0016447337
0.096916735 -0.10258937 0.013579719 0.1020613 0.06148632 -0.061834704 -0.13144518 0.063646615
-0.16025269 -0.20383555 -0.25632215 -0.022793982 -0.08404214 -0.05030121 -0.024219884 0.04502281
0.0008934628 -0.0018037066 0.028874427 -0.009030709 0.0040733083 -0.10255529 -0.12274096 0.059993684
-0.021360574 0.1915902 -0.042557735 0.11863012 0.011492575 -0.036355346 0.06557116 0.14991334

net.2.bias f4 [128]
00000000: f046 02bd 1002 a3bd b074 c13d e067 8a3d
00000010: 109b 73bc 8a82 ecbc b2f2 473d 15bf 4ebd
00000020: af49 c5bd 0e84 973d 11ca 913d e1c9 09bd
00000030: 3b46 a73d 61f5 47bc 50c6 103c 9e45 91bc
00000040: 6bbd 203d f0d2 bc3d 3c63 8dbc d6c7 5f3d
00000050: 7e54 213c 6521 343d 2234 22bd 8877 44bd
00000060: 0b83 943d c048 423d eeb4 c0bd eda9 0c3c
00000070: 2f12 333d 66b0 163d dbd4 a13d 94ee 873d
00000080: a0b8 a9bd f2dc 85bd 39aa d63d 91c4 2e3c
00000090: 4a04 c8bc 953b b43d acfc c13a 38fb 3d3d
000000a0: a9f7 5cbd 19d9 5d3d 94b1 4cbb a65d d6bd
000000b0: bf8c 033d 6630 e4bc 1c3d d03c c5f3 1f3a
000000c0: 19a7 833d acc7 82bd dd99 643d 2ba1 423d
000000d0: e6e2 85bd f31b 463d aa83 353b 18a7 b63d
000000e0: bc40 81bd 5182 a0bd 1d7d 223c 1014 913c
000000f0: 2033 4cbc 226b 02bc 9b34 58bd 2ce9 083c
00000100: 77e4 453d ed67 9abd 2203 433d 6f5d edbc
00000110: fe22 54bd 7152 b1bc d033 523d a0d6 a2bd
00000120: 87f1 adbd d49f c0bd 7c36 9abd 8042 6d3d
00000130: a07b a2bd d465 643b 0345 293d dde1 b8bd
00000140: 96b5 313d c20b 1bbd e18b c4bd 0134 073d
00000150: a55f af3d 9474 02bd a2f5 be3a 8605 753d
00000160: 53f7 80bd a0fb 61bc be2d 52ba d5a3 493c
00000170: b054 9b3c db36 a8bd ce3b 2ebd b7de 33bc
00000180: 172f 5abd e61b 2abd c55a e43b 633a b1bb
00000190: a21c 3d39 c576 12bd cf24 d13c a154 5bbd
000001a0: 5898 0c3d 936e 563c d4db 273d 9b49 1a3d
000001b0: 8478 ddbb 396a 8bba 83f7 073c 1eff db3c
000001c0: ed66 a53d 9530 283d ce9c 4bbc aae1 64bd
000001d0: 9cd9 203d ca87 123d 1091 223d 99f8 c8ba
000001e0: 0bf9 9f3d 7c02 453d 8807 d3bb 22c5 2a3d
000001f0: e4ba 903d f0ef 1cb8 9fd5 8f3c e312 963d
-0.031805933 -0.07959378 0.094460845 0.06758094 -0.014868513 -0.02887084 0.048815437 -0.0504752
-0.09633195 0.07398234 0.07118619 -0.033639792 0.08167692 -0.012204499 0.008836344 -0.017733391
0.039243143 0.09219921 -0.017259233 0.054633938 0.009846805 0.04397716 -0.0396005 -0.047965556
0.07251557 0.04743266 -0.094095096 0.008585435 0.043718513 0.03678932 0.07901927 0.06637302
-0.082871675 -0.065362826 0.10481686 0.010666982 -0.024416108 0.08800427 0.0014800034 0.04638216
-0.053947125 0.05416212 -0.0031233774 -0.10467081 0.032116648 -0.02785511 0.025419764 0.0006101693
0.06428356 -0.06385741 0.055810798 0.047516983 -0.06537418 0.0483665 0.0027696886 0.08918589
-0.06311175 -0.07837356 0.009917525 0.017709762 -0.012463361 -0.007960113 -0.052784543 0.008356374
0.048313584 -0.075393535 0.04761041 -0.028975217 -0.051791184 -0.021645756 0.051318944 -0.07951093
-0.08493333 -0.09405485 -0.07529923 0.057924747 -0.07933736 0.0034850733 0.04132558 -0.09027455
0.043386064 -0.03785301 -0.09596992 0.03300858 0.085631646 -0.03184946 0.0014569054 0.05981972
-0.06297173 -0.013792902 -0.00080176804 0.012307127 0.01896128 -0.08213588 -0.042537503 -0.010978392
-0.053267565 -0.041530512 0.0069688284 -0.0054085716 0.00018035111 -0.0357578 0.025530247 -0.053547505
0.034324974 0.013087886 0.04098113 0.037667852 -0.0067587513 -0.0010636515 0.0082987575 0.026855048
0.08076272 0.041061956 -0.012427522 -0.055879273 0.03927003 0.03577403 0.039689124 -0.0015332877
0.07811173 0.048098072 -0.006440107 0.041691907 0.070668966 -3.7416758e-05 0.017557917 0.07327821

net.4.weight f4 [15, 128]
00000000: cc5a df3c efb7 0c3e 8e1c dcbd 7f58 71bd
00000010: d1c9 0b3e 1b52 4ebe ac09 dbbd 4484 b93d
00000020: 9211 dc3d 713e d83d 979a e7bd fb4a 83bd
00000030: 72d9 eebd 03ff 8a3c d4d7 eb3d 2807 dd3d
00000040: a182 b53d 5ec5 56be b405 8ebc 86a0 b6bd
00000050: c589 1e3e 2edc d83d 7ea8 5f3e ebd6 6e3e
00000060: dfb4 d73d fbea 7a3d 2bd2 d83d f2ce 06bd
00000070: 8fa7 383e bd37 063d 32c5 e0bd 0806 bc3d
00000080: 4e1d 0dbc 1580 ccbc ffe6 33be 21bc 103e
00000090: f94c 0f3d 5b2a 3f3d d6d5 43bd e31b 0b3e
000000a0: bf69 3c3e 0574 893d 5b12 2f3e 2b0a 4a3e
000000b0: 7a78 bc3d d8e4 203d 752b 6abe 9c1a a63d
000000c0: 5ff0 cdbc 5afe f13d 5ce8 163c 19e6 e5bd
000000d0: a152 c4bd c275 753e aaa9 8c3d 702c 2bbe
000000e0: 1a36 193e 699c 74bc d268 c63d 37f2 77bc
000000f0: a8e3 cc3d 6f42 173c 1df2 dcbd 6db6 5fbe
00000100: 0f1f ac3d be84 813d 1913 083e b6ba 0f3e
00000110: f569 153e f97d 5cbc 23ab ffbb 026d 0d3e
00000120: 46d2 4a3d 0888 8a3d 21c9 633e b36c 013e
00000130: 6c80 393e 9ce7 96bd 10e5 cc3d 1459 613e
00000140: 9787 a9bc 5084 203e e44c 303e 653c da3d
00000150: e14a a93d bd57 7fbd 0202 2b3e 06da b53d
00000160: ef8b 783e 9701 963e 5600 333d 91e6 543e
00000170: b02f 46be a819 263e 49f4 1dbe 44aa 4f3e
00000180: d19c dcbd f178 7dbc ab44 1bbe 6668 de3d
00000190: d9db a2bc 4529 073e 8de2 c53d 470f 1cbe
000001a0: f979 483e e331 e5bc b4cf 033d 1efa 413d
000001b0: 8d85 673d 5877 d0bd 63b1 93bd ec8a 403d
000001c0: f320 d23d f326 cd3d 51dd ec3d 4f34 ce3d
000001d0: 7426 eb3c df16 2cbc b4e3 533e 1585 ea3d
000001e0: 8e7a c33d 7d29 2e3b a429 89bd b535 8f3d
000001f0: de34 8cbd ae3d 013e 717d 423d 3771 c83d
00000200: d02f 6abc e2dc 7d3e 7561 11be 9457 10bd
00000210: 1143 323e 7bf6 12be da63 2ebe d246 363d
00000220: e849 1a3e c0f8 1f3e 659a 36be f9be fabc
00000230: d006 d1bc a27c df3d bca9 4b3e 32d4 773d
00000240: eb34 613e ce5c 72be f476 88bd 7354 8fbd
00000250: 2aa8 003e 2fe5 c03c 2982 df3d 25b7 9e3d
00000260: 10b7 893d 0a26 953a 9f5b b03d ac02 80bd
00000270: efa3 093e fd82 ff3c a59f 01be 86e8 80bd
00000280: a4a1 cb3d 76da 4ebc 213f 29be 50d9 4d3d
00000290: 863f 61bc 23c2 3bbd d9ba 2bbe e06a 2b3e
000002a0: 6d31 013e 2557 0c3e f2f3 203e dff6 103e
000002b0: 314c 693d 5da2 813d e32e ccbd 578b 1d3e
000002c0: 4faf abbd 55aa 3e3e afeb c33d 69b9 cdbc
000002d0: 8881 5c3d 8371 363e c1ce ec3d 2311 29be
000002e0: 4022 513e 1d4e 3d3e d6e8 19bc 55c3 ef3a
000002f0: 269c d63d 25a3 9d3c 5048 05be 7f97 7dbe
00000300: e955 df3d 52ea f23d 24db 063e c019 333e
00000310: fd98 3d3e f09c 2a3d 0c9d e43c 9852 54bd
00000320: 169c 9a3c 0260 2b3e b5c6 9fbc 2485 513d
00000330: b02b 4f3e 3efe d5bc 9291 143e a6db 7f3e
00000340: 50de b33d fb9a 8f3d a330 b73d 0b89 e03d
00000350: c419 b9ba 0021 88bd c5bf b93c 9fb7 023d
00000360: 7317 5d3e 1198 6b3e bc06 4c3d d1f2 0b3e
00000370: a64d 47be ab55 913e e02e d0bd 028c 563e
00000380: 09a3 19be 8a61 09bd 9fbe 843d 8055 b73d
00000390: 44d9 f43d 60a1 e13d 1d9d 9f3a 44a0 5abe
000003a0: c472 2b3e 5973 ebbd 6c04 a63c 9c4a 103e
000003b0: fdb9 0c3d 9c49 74bd 2483 e8bd c27b 083d
000003c0: 3d63 c33d 1bc9 8c3d 4a11 5a3e 6662 b63d
000003d0: 792a aa3d c876 f03d 6899 103e 043e 77bd
000003e0: 2c24 ab3d e838 a9bc 3ab0 40be 5d11 ee3d
000003f0: 6edc cebd dd96 db3d c50d 693d 80d8 903b
0.027264975 0.1374204 -0.10747634 -0.058922287 0.13651206 -0.20148508 -0.10695204 0.09058431
0.10745539 0.10558785 -0.113087825 -0.06410786 -0.11662568 0.016967302 0.11515775 0.107923806
0.08862806 -0.20973727 -0.017336704 -0.08917336 0.15482242 0.10588871 0.21841618 0.23324172
0.10532545 0.06125925 0.10586961 -0.032912202 0.18032669 0.032768 -0.10975112 0.09180838
-0.008612944 -0.024963418 -0.17568587 0.14134265 0.034985516 0.046671253 -0.04781135 0.13584857
0.18399714 0.06711582 0.17096846 0.19730441 0.092026666 0.039280742 -0.2286814 0.08110544
-0.025139032 0.11816092 0.009210672 -0.11225528 -0.09586073 0.23970702 0.06868298 -0.1671617
0.14962044 -0.014929869 0.09687962 -0.015133432 0.100043595 0.009232148 -0.10788367 -0.21846934
0.084043615 0.06324147 0.13288535 0.14036068 0.145912 -0.013457769 -0.0078023835 0.13811114
0.04951694 0.06764227 0.22244693 0.12639122 0.18115395 -0.07368395 0.10004628 0.22006637
-0.020694537 0.15675473 0.17216831 0.106560506 0.08266235 -0.062339533 0.16699985 0.08879475
0.2427213 0.29298088 0.043701492 0.20791079 -0.19354129 0.16220725 -0.15425219 0.20279795
-0.10772098 -0.015470729 -0.15162914 0.10859756 -0.019880222 0.13199337 0.09662352 -0.15240203
0.19577779 -0.02797789 0.032180503 0.04735767 0.05652385 -0.10179013 -0.07211568 0.047007486
0.10260191 0.100171946 0.1156565 0.10068571 0.02870486 -0.0105035 0.2069233 0.11451165
0.0954486 0.0026575022 -0.066973954 0.06992666 -0.06846021 0.12621185 0.04748291 0.09787219
-0.014293626 0.24791291 -0.14197333 -0.03523977 0.17408396 -0.14351837 -0.17030278 0.044501133
0.15067255 0.15622234 -0.17832334 -0.030608641 -0.025515944 0.10912444 0.19888967 0.0605051
0.21992843 -0.23668215 -0.066633135 -0.06998529 0.1256415 0.023546783 0.10913498 0.07749776
0.067243695 0.0011379134 0.08611225 -0.062505096 0.13441442 0.03119039 -0.12658556 -0.0629435
0.0994294 -0.012625327 -0.16527988 0.050256073 -0.013748055 -0.04583944 -0.16770495 0.16739988
0.1261651 0.13705118 0.15718058 0.14156674 0.056957427 0.063297965 -0.099698804 0.15385185
-0.08383047 0.18619664 0.095664375 -0.025112825 0.053834468 0.17816739 0.11562873 -0.16510443
0.20423222 0.18486829 -0.009393891 0.0018292466 0.10479002 0.019242832 -0.13015866 -0.24764822
0.10905058 0.11861099 0.13169533 0.17490292 0.18515392 0.041653574 0.027906917 -0.05183658
0.018873256 0.16735843 -0.01950393 0.051152363 0.20231509 -0.026122209 0.14508656 0.24986133
0.08782637 0.07011982 0.089448236 0.10963639 -0.0014122059 -0.06646919 0.02267445 0.031913396
0.21590976 0.23007227 0.04981111 0.13666846 -0.19463214 0.28385672 -0.10165191 0.20951846
-0.15003599 -0.033540286 0.064816706 0.08951855 0.11955503 0.11017108 0.0012177561 -0.21350199
0.16742998 -0.1149661 0.02026578 0.14090961 0.03435706 -0.059640512 -0.11353138 0.03332115
0.095404126 0.06874295 0.21295658 0.08905487 0.08308882 0.11741406 0.1412102 -0.060361877
0.083565086 -0.020657018 -0.18817225 0.116244055 -0.101006374 0.10722134 0.056897897 0.00442034

net.4.bias f4 [15]
00000000: efed 32bd 82ed a03d a5d3 85bc ff16 03bd
00000010: 8ca4 163c cfa6 0f3d ffdf 7d3d 8d10 23bd
00000020: 25e6 563d 251d 9d3d 13ab 053d 522c 9a3d
00000030: 0123 b23c ea6c 353d d65a b03c
-0.043683942 0.07857801 -0.016336272 -0.032004353 0.0091945045 0.03507119 0.061981197 -0.039810706
0.052465577 0.076715745 0.032633852 0.07527985 0.021745207 0.04429332 0.021527689

net.0.weight f4 [128, 77]
00000000: 7fe3 b0be 805c 573d 4bd1 a8bd ec0d 09be
00000010: 4e5e a73a 6331 5a3d f82e a43c ef1f ea3d
00000020: e1b2 773d 62ea 3abd 5f32 053c 7e53 26be
00000030: 45d9 aebd a588 aeb9 ddda 22bd 215e b53b
00000040: 6ca6 193d 1937 a33d e80d 95bd c24e 6ebd
00000050: af80 063d 2805 493d 01cc f8bc b220 f23d
00000060: eedd 22bc 6c50 5f3d 7154 d83d ff8a b6bd
00000070: 3e07 02be 1c98 b7bd 5607 debd 9efd 033e
00000080: 5145 07bd 7a1e 22bd 036d a2bd f760 e5bd
00000090: 2203 8abd 1b36 c83d e83e 2d3d 0c32 3f3d
000000a0: 80a9 46bd 1705 09be 2e91 793d e645 cabd
000000b0: 1a4c 00be 4d76 cebc b380 0e3d e8d0 1abd
000000c0: cb1a 85be 568c cdbd ce12 c03d d8a6 1e3e
000000d0: f13e 233d 5e07 383a 1a10 c03d 23e8 59bd
000000e0: bfef 6a3c 1478 c6bd a047 b3bd b0ea 03be
000000f0: 1478 1b3e c564 0c3d aaca aabd 84ae 723d
00000100: f3e2 7c3d ba17 873c 165b 72bd 8744 82bd
00000110: eb2c 093e bc11 1b3e 5177 97bd ad84 07bd
00000120: 59cc 773d 48a2 e83d a421 e53d 66ef b63d
00000130: 2e6d 673c 4622 a83f 99ed 3a3d 6a8e c8bd
00000140: bab8 56bc e52d 793d 5602 3d3d ab53 aabd
00000150: efd1 d2bc 0d0f c3bd 41a9 903d a15c 8dbd
00000160: 8682 a53d f73c cfbd 2bf0 3f3c b15b 73bd
00000170: 9315 b83d cc42 133d ebe9 89bd 9e2a 66bd
00000180: 9387 bc3d 7faf 713d 185b a5bd 5287 843c
00000190: 0c76 b53d 145e 5c3d 4104 e4bd 1e93 c4bd
000001a0: 68ea 20be 8834 483d 0594 67bd 97e8 ccbd
000001b0: a73a 84bc 2889 073d c484 90bd 44bf 903d
000001c0: 9d61 c9bb 9f19 013e 565a e33d 07a4 79bd
000001d0: 1f81 de3b 8c62 81ba 4116 29bc c9ac ab3c
000001e0: e92b ef3c cee9 0cbe 51b9 c3bd 7459 8d3c
000001f0: a8bb e6bc 49c5 4bbe e4db 613b d1e9 c2bd
00000200: cda5 0cbd 3464 6cbd 5909 3b3c 64d0 363d
00000210: a7e9 3cbd a3f5 b83c 6d11 ef3d 3b01 c03c
00000220: e3c0 ecba 013b 8c3d dd03 2d3d c52b bc3c
00000230: 7624 0bbe 1ab1 983c c673 7e3d 511f 463e
00000240: d7c9 a6be 0c41 0dbe 16a9 b23b 83ec 00bd
00000250: ec40 5bbe 1988 b8bd 8cfe aabd cbac a5bd
00000260: abe7 df3b a3fc c73d 1788 a53f 1acd e5bd
00000270: b3b4 2e3d 0b42 f4bb 16fa 42bd 200d 80bd
00000280: 48cb 123d e605 153d 2b45 6ebd b6d1 dcbd
00000290: 3bf1 913b 1ee9 143e 61ce a8bc 0939 613d
000002a0: 2b6a 4cbd c1f2 f23c 70c9 df3d 0e6e e1bc
000002b0: 63eb b33d 6e9f 1f3d 7256 d7bd 8ac7 433d
000002c0: 8a04 3e3d bc2a 8cbd 9195 983d bdd1 02bd
000002d0: 3647 b13d 569c 233d 64fc 9d3d 17c6 153d
000002e0: c707 2b3e 8682 b63c 6b1b 34bb 5b66 a9bc
000002f0: 61f2 47bd 2800 c03d c70b ce3d 00e8 953d
00000300: 2057 a9bd e652 363b 590f 2dbd 6f98 8ebd
00000310: eca1 afbd 1e38 3a3d 6fe8 41bd d219 9a3d
00000320: 3555 d53c c884 d33d bd13 3fbd 5cac c23d
00000330: f45d e0bc 0375 cc3d 9edc abbd f11c df3d
00000340: 5bbd 9e3d 85dd 433d 8a8a a83c 7965 cbbc
00000350: f890 443c 3156 7cbc 1e43 5abc a7cc 9abc
00000360: 3118 edbd f1dd e5bc 4987 df3d 4df0 8abd
00000370: dfff 713c e355 403d 144d b43d 25a0 b43c
00000380: fa85 c5bc 953c 4dbc 24a2 06be 2b9d 60bc
00000390: 01d8 06bd 955f d63b 1026 8aba a2bd e13f
000003a0: c60e c33b 906b 803d f465 503d 66c3 85bd
000003b0: 87dc 0cbc 299f 91bd fc2f eabc a8b6 db3d
000003c0: 0014 bb3d 5f9a 9d3c bae1 54bc 3ee6 a03d
000003d0: 8f4b 4e3d 6c7c e3bd c0c8 a23d f428 58bd
000003e0: 0f66 a63c e1ad ddbc 08de 8bbd 7470 de3b
000003f0: 6d56 4a3d 1b9a fcba 7d6d c4bd c284 4abd
-0.34548566 0.05257845 -0.082430445 -0.13384217 0.0012769194 0.053269755 0.020041928 0.11431872
0.060473327 -0.04563368 0.008129685 -0.16242787 -0.085375346 -0.00033289674 -0.039759506 0.0055349027
0.037512228 0.079694934 -0.07278043 -0.058180578 0.032837566 0.049077183 -0.030370714 0.118226424
-0.0099406075 0.054520056 0.10562981 -0.0891323 -0.12698075 -0.089645594 -0.10841243 0.12889716
-0.03302509 -0.039579846 -0.079309486 -0.11200135 -0.06738879 0.09775945 0.04229632 0.046678588
-0.04850149 -0.13380848 0.06092947 -0.09876613 -0.1252903 -0.025202895 0.034790706 -0.037796885
-0.25997004 -0.100365326 0.09378587 0.15493333 0.039854947 0.0007020141 0.09378071 -0.0531999
0.0143393865 -0.09690872 -0.08753896 -0.12882495 0.15182525 0.03427579 -0.08339436 0.059248462
0.061739873 0.016490806 -0.059168898 -0.06360727 0.13396041 0.15143484 -0.07395805 -0.033085514
0.060497615 0.11359078 0.11188057 0.089323804 0.014125152 1.313546 0.045636747 -0.09792788
-0.013105566 0.060834784 0.046144806 -0.0831674 -0.02573487 -0.09524355 0.070635326 -0.06902433
0.08081536 -0.1011905 0.011714975 -0.059413616 0.0898849 0.035952374 -0.067340694 -0.056192987
0.09205546 0.059005257 -0.080740154 0.016177807 0.08860406 0.053800657 -0.11133624 -0.09598373
-0.15714419 0.048878223 -0.056537647 -0.100053005 -0.016141249 0.033089787 -0.07056573 0.07067731
-0.0061456696 0.1260743 0.111012146 -0.060947444 0.006790295 -0.0009871288 -0.010320247 0.020956414
0.029195743 -0.13761064 -0.09556831 0.017254569 -0.028165653 -0.19899477 0.003446334 -0.09517253
-0.034337807 -0.05771275 0.011415803 0.04463233 -0.046121266 0.022578066 0.116732456 0.023438087
-0.0018062856 0.068471916 0.042240012 0.02297009 -0.13588127 0.018639136 0.06212213 0.19347884
-0.32575867 -0.13794345 0.0054522855 -0.031475555 -0.21411484 -0.090103336 -0.08349332 -0.08089598
0.006833037 0.097649835 1.2932156 -0.11220761 0.042652797 -0.007454162 -0.04760178 -0.062525034
0.035838395 0.03638258 -0.058171432 -0.10782187 0.0044538057 0.14542052 -0.020606222 0.054986034
-0.049905937 0.02965677 0.10927093 -0.027518298 0.08785131 0.038970403 -0.10514535 0.047797717
0.046391048 -0.068440884 0.074504025 -0.031938303 0.086561605 0.039944015 0.07714155 0.036565866
0.16702186 0.022279035 -0.0027482163 -0.02067869 -0.048815135 0.0937503 0.1006084 0.07319641
-0.08268571 0.0027820407 -0.042250965 -0.06962668 -0.08575806 0.045463674 -0.047340807 0.07524456
0.026041606 0.103280604 -0.046649683 0.09505531 -0.02738855 0.09983256 -0.08391689 0.10894192
0.077509604 0.04781868 0.020573873 -0.02482866 0.011997454 -0.015401409 -0.013321666 -0.018896414
-0.1157688 -0.028059931 0.109144755 -0.06784115 0.014770477 0.046956908 0.08803764 0.02204902
-0.024111737 -0.012526651 -0.13147789 -0.013709347 -0.03292084 0.006542156 -0.0010539908 1.7635996
0.005952689 0.06270516 0.05087848 -0.0653141 -0.0085975 -0.071104355 -0.028587334 0.10728198
0.09134674 0.019238649 -0.0129932705 0.07856415 0.050365027 -0.11107716 0.07948446 -0.05277343
0.020312337 -0.027060451 -0.068294585 0.006788308 0.04939883 -0.0019272001 -0.09591196 -0.049443014

net.0.bias f4 [128]
00000000: 2994 04bd 3273 37bc d3ce a4bd cd27 e23c
00000010: 8c7d 81bd 55b3 6ebd 04f7 2e3d 846d 2fbd
00000020: c849 a13c f197 00bb 717d 243d 8290 853d
00000030: 3921 d8bd 1b54 67bd 2454 543e eb0e d43c
00000040: cbb2 55bc c3b7 9b3d 5f85 113e 70a4 5b3d
00000050: 6a5b 44bd 004b e23d 060f d5bd 29b4 ddbd
00000060: 06f5 703c 99f6 903b da83 e2bd ceb3 b53d
00000070: bf3b e53a 6ff5 91bd 7391 fc3c ff3a be3d
00000080: 93b3 bc3b 97fb a73d 9c56 6c3d 34dd 0d3d
00000090: 50f2 47bd 2d39 aebd b3ed 98bc db1c f6bc
000000a0: 6fec b5bd 522d d2bd f875 93bd 2494 873b
000000b0: 2c2e 32bd 7117 c4bd b426 d837 ab1f 1bbd
000000c0: 170e 26bd 3ca1 b93d f31a 2b3d a7fa 073e
000000d0: 796b c43d 54a9 8e3c 4c27 57bd 5db0 bcbb
000000e0: 48e1 6f3d 49fd 3abd 217b c63d f43d d33d
000000f0: 03d4 9abd 4946 4f3d 9d07 173d 226d 3d3d
00000100: 2801 a2bd fc65 043e edb6 32bd 54a6 363d
00000110: 2c2d 96bd e6ad 413d 491c 03bd 9338 76bd
00000120: 5793 cfbd 0b41 f53c bdff 473d 77e6 c33c
00000130: a1f2 8fbc a990 913c 0d9f 4bbd a675 f43c
00000140: 50f8 b13d e622 b9bd 0813 383d 908f 43bd
00000150: f424 ed3c 70ac cbbc b919 483d 9b68 b8bd
00000160: 91f0 9d3d 0582 863d 4bf7 b7bd efe3 a5bd
00000170: 99af 913d 4aa7 a3bd c054 f53c 77a3 63bd
00000180: 2420 dabd d0a0 2d3d eaf2 e7bc b886 4fbd
00000190: cc55 3d3d b1fd 3f3d b75c ca3d e541 d63d
000001a0: 60b0 113d 77e0 df3b 4115 2b3d f615 7e3d
000001b0: f3f5 93bd 09e1 b33d c5d8 173d e515 333d
000001c0: 945e 633c fa4b fdbd 4069 a43d 6dd6 1e3c
000001d0: 78e4 bfba b2e6 64bd 4dd7 a03d 5223 84bc
000001e0: 9770 f93b 5f3e d4bd de49 f03d a5cc dbbd
000001f0: f1db 7a3d be7a 753d 829a 7e3c 13fc 9dbd
-0.03236786 -0.011196898 -0.08047261 0.02760687 -0.06322774 -0.058276493 0.04271604 -0.04282905
0.019688502 -0.0019621814 0.040158693 0.06521703 -0.10553212 -0.056476694 0.20735222 0.02588602
-0.013043116 0.07603409 0.14211033 0.053623617 -0.04793874 0.11049461 -0.10403256 -0.108253784
0.014706856 0.004423928 -0.11060305 0.08872186 0.0017489119 -0.07126891 0.030831074 0.09288596
0.0057587116 0.08202284 0.057699785 0.034634784 -0.04881507 -0.08506999 -0.018668031 -0.030043056
-0.08882987 -0.102625504 -0.07200235 0.004137533 -0.043501064 -0.095747836 2.5767229e-05 -0.037871998
-0.04054078 0.09063956 0.041773748 0.1327921 0.09590811 0.017414726 -0.05252771 -0.005758329
0.058564454 -0.045651708 0.09691454 0.10314551 -0.07559969 0.05060414 0.036872495 0.046246655
-0.07910377 0.12929529 -0.043631483 0.044592217 -0.073328346 0.047284983 -0.032009397 -0.060112547
-0.10135525 0.029938241 0.048827875 0.023913605 -0.01757175 0.017769175 -0.04971223 0.029841255
0.0868994 -0.090398595 0.044940025 -0.047744334 0.028948285 -0.024862498 0.048852656 -0.09004327
0.077119 0.06567768 -0.08982714 -0.081001155 0.07113571 -0.07990892 0.029947639 -0.055575814
-0.106506616 0.04238969 -0.028314073 -0.050665587 0.0462244 0.0468728 0.09880965 0.10461787
0.035568595 0.006832178 0.041768316 0.062032662 -0.072246455 0.087831564 0.037071962 0.043722052
0.01387753 -0.12368007 0.08027887 0.009694678 -0.0014640233 -0.05588407 0.07853565 -0.016130123
0.0076122987 -0.10363459 0.11732839 -0.10732392 0.06124491 0.05993151 0.015539767 -0.07714095

net.2.weight f4 [128, 128]
00000000: 696d 33bd 5021 c0bb 7a14 86bd 844f eabc
00000010: cd42 bdbc 1906 f7bc 75ae 6f3d ac5c 9f3d
00000020: 58ec 2bbd 86f3 3a3d 8ed2 253b b14e 7c3d
00000030: 19e0 9dbd 885c 33bd d40d 91bc 01da ad3d
00000040: 7c27 893d 16ed dcbc 032b 5fbd 954a 41bd
00000050: a81b 323c b9c6 8a3c f2c7 43bd 0006 cc3c
00000060: 5871 27bc c474 803d cd02 0abd d520 57bd
00000070: b090 5e3c b8ad c23a bfe7 3f3d edb7 b03d
00000080: 65cd 11bd f354 a83d b261 1d3d 391c 9a3d
00000090: 3f4d c63c 2084 58bc 07ea 193c 003c 183b
000000a0: 62b1 85bd 7340 04bd c71a 893d 44e2 8d3c
000000b0: ae1b a73c 3028 0c3c c839 9c3c a903 7cbd
000000c0: 385c 88bc 3d7e b5bc ae7a 08bd e80d 71bd
000000d0: f8f4 16bc 6c52 a9bb eae0 02bd 80fa b0bc
000000e0: fc59 debc 147b 7dbc c9cb 96bd 998b 933d
000000f0: 955d 41bd 6fe4 2f3d 1722 a4bd bcad c6bb
00000100: 8006 36bc 273d a0bd 2a46 d03a f325 8dbd
00000110: f80f 003d cd81 583d e0eb 5fbc 20ff 6f3c
00000120: 8f34 35bd 28bf f03c 9ae6 aabd 26f6 ad3d
00000130: a025 a3bb 5f5f 7c3c d508 933d ce54 98bd
00000140: 2f95 3cbd 4d42 523c 722a babd d4b3 a43c
00000150: 6825 2cbc 84cc a9bd 55a0 cdbc f87c 8abd
00000160: b0e5 0b3c 0d91 7e3d 330d a63d 21b2 acbd
00000170: e43a e93c 6654 8bbd 9a17 e83c 3e48 473d
00000180: fc72 acbd 3cc5 88bd dd50 a2bd 38c7 07bc
00000190: 07b5 f33c 7b01 8bbd 7fde 0fbc 54ad 0abd
000001a0: 3e04 9e3d baf7 a5bd 1ef2 48bd 98d0 7bbb
000001b0: 8025 93bd c156 8b3d 8ca7 acbd c57b 01bd
000001c0: 2813 24bd e1f2 7cbb 6f02 2cbd dc64 773d
000001d0: 39ef a1bd f37e 4abd e79a 31bd 8703 adbd
000001e0: 9eda b9bd b246 e63c 1e3b a43d d26b 87bc
000001f0: 16cd 18bd e0a0 113d aa54 553d 2775 a2bd
00000200: b924 dcbd 43f9 67bd f8fb 213d 948f 64bd
00000210: 396d fd3c b9d8 843c 0579 a7bd 369e dfbb
00000220: 25ff 103e c670 323c 42c1 e43d 5b87 eebc
00000230: 703f c7bb 0a6a 173e a6cd 8fbe 787b aebc
00000240: 2d9a a5bd 2c28 d23c 0614 b6bd 6570 a3bd
00000250: f12d 2abe 7c9a 043e bef0 843d 478b bcbd
00000260: 38de 3a3d aa10 2abe fada e53d 11e5 473d
00000270: 2ea7 633c 7d81 9a3d a8ad dd3a 0f6f 3c3d
00000280: 14b8 8b3c 38c0 e9bc 1955 c8ba 95ee 0a3e
00000290: 524f 133d 7b88 45be f89e 9abd bba2 9ebb
000002a0: 97cd 39bd 2cfa a53c 2eea b9bd 62cc 1f3d
000002b0: 462d 02bd e2d5 34bd d611 cd3d 785b b13d
000002c0: 7986 103e d64a 88bc 1d9a 063e 009d 193d
000002d0: 4fd9 3e3d 4b5e 013d 7885 aabd ae87 bd3d
000002e0: cb3e 0cbe 003d dd3d ad40 d7bd c87a 3a3d
000002f0: f61d 8e3d 10e9 b9bd f605 2cbd 2bb7 313e
00000300: 10ea 9f3c d443 02be 231d 863d c67c 4a3d
00000310: 9556 aabc 872c 603c 54aa c5bb 7489 fa3c
00000320: 7a7f 643c 1172 ab3d 3993 9fbd bd8a 123e
00000330: 0573 c4bd c516 c03d 03cb 0dbc 124f 223d
00000340: 247d 783d 10f5 1c3e e9d3 b73d 82b4 a7bc
00000350: 18b3 553c 1f02 953d 6384 41bd c248 f53d
00000360: 5158 623d e694 4d3c 0e93 e3bc 9199 f53d
00000370: 544f 283d b515 02bd 47a0 b03d 43e2 163b
00000380: 8a06 c53d fa33 d2bd 3d84 5e3c 291e d23d
00000390: 50f7 7a3d 991d 7cbd bd87 06be e630 823d
000003a0: fba7 22be 99a0 50be 5c15 82be b367 b6bc
000003b0: a540 acbd fbd8 4fbd 5eda c5bc faa6 383d
000003c0: 00b9 643a 1a86 ccba 57d3 de3c 695f 12bc
000003d0: 9910 7f3b 116e d1bd 263d fabd 10b2 763d
000003e0: 6515 afbc 8b01 443e 1d2d 2cbd cfd5 f23d
000003f0: 4511 3e3c d737 14bd 33e7 893d f831 193e
-0.043805514 -0.005863346 -0.06546874 -0.02860237 -0.023103142 -0.030154275 0.058515985 0.07781348
-0.04197344 0.0456424 0.0025302502 0.061598483 -0.07708759 -0.043789417 -0.01770679 0.084888466
0.06696984 -0.02696852 -0.05448438 -0.047190268 0.010870852 0.016940461 -0.047798105 0.024905205
-0.010219894 0.06272271 -0.033694077 -0.052521545 0.013584301 0.0014852798 0.04685187 0.08628831
-0.03559627 0.08219328 0.038423248 0.07524914 0.024206756 -0.013215095 0.009394175 0.0023229122
-0.06527974 -0.032288026 0.066945605 0.017319806 0.02039894 0.008554503 0.019070521 -0.061526928
-0.016645536 -0.022154922 -0.03332012 -0.058851153 -0.009213679 -0.005167296 -0.031952776 -0.021603823
-0.027142517 -0.015471239 -0.07363088 0.072043605 -0.047208387 0.04294246 -0.080143146 -0.006063191
-0.011109948 -0.07824164 0.0015890051 -0.06892004 0.03126523 0.052858163 -0.013667077 0.014648229
-0.044239577 0.029388025 -0.08344765 0.08494215 -0.0049788505 0.015403598 0.07179419 -0.0743805
-0.04604071 0.01283319 -0.09090127 0.02010528 -0.010506965 -0.082909614 -0.025100866 -0.06762117
0.0085386485 0.06215005 0.08107986 -0.08432413 0.028470464 -0.06803207 0.028331567 0.04865288
-0.08420369 -0.066782445 -0.0792558 -0.008287244 0.029749407 -0.06787392 -0.008781075 -0.033856705
0.07715653 -0.08103891 -0.049059026 -0.0038423892 -0.07184887 0.06803656 -0.084303945 -0.031612176
-0.04005733 -0.0038596916 -0.04199451 0.06039892 -0.07906956 -0.049437474 -0.043360617 -0.084479384
-0.09074901 0.028109882 0.08019088 -0.016530905 -0.03730496 0.035553813 0.052082695 -0.07932501
-0.10749192 -0.0566342 0.039546937 -0.05580099 0.03093587 0.016216623 -0.081773795 -0.00682428
0.1415983 0.010891145 0.111696735 -0.029117277 -0.0060805604 0.14786544 -0.28086585 -0.021299109
-0.08086047 0.025653921 -0.08890538 -0.07980422 -0.16619088 0.12949556 0.064912304 -0.092062525
0.04562208 -0.1660792 0.11223407 0.04880244 0.013894839 0.07544229 0.0016912716 0.04600435
0.017055549 -0.02853404 -0.001528415 0.13567574 0.035964318 -0.19290344 -0.07549852 -0.0048411763
-0.04536208 0.020260893 -0.09077869 0.039013274 -0.031781457 -0.044149287 0.100131676 0.086600244
0.14113797 -0.016637247 0.13144727 0.037503242 0.04659396 0.031584065 -0.083262384 0.092543945
-0.13695829 0.108026505 -0.10510383 0.04552725 0.06939308 -0.09077656 -0.041997872 0.1735503
0.01952079 -0.12721187 0.06548526 0.0494354 -0.020793239 0.013682491 -0.0060322676 0.03058312
0.013946408 0.08371366 -0.07791752 0.14310737 -0.09592251 0.09379343 -0.008654359 0.03962619
0.06066622 0.15327859 0.089759655 -0.020471815 0.013043188 0.07275795 -0.047245394 0.11976768
0.055260006 0.012547707 -0.027780082 0.11992181 0.04109128 -0.031758983 0.086243205 0.0023023046
0.09620388 -0.1026382 0.013581333 0.10259659 0.06127101 -0.061551664 -0.13137718 0.06356983
-0.15884392 -0.20373763 -0.2540692 -0.022266245 -0.084107675 -0.050744038 -0.024151977 0.045081116
0.0008725077 -0.001560393 0.027200384 -0.00893388 0.0038919805 -0.102260716 -0.122186944 0.060228407
-0.021372506 0.19141214 -0.04203521 0.11857187 0.011600797 -0.036186066 0.06733551 0.14960468

net.2.bias f4 [128]
00000000: f046 02bd 3db9 a2bd 00ec bf3d da11 893d
00000010: 0803 73bc 01d8 e9bc aae3 463d 54a4 4fbd
00000020: 847a c5bd 75bc 963d d53c 913d 4045 00bd
00000030: be29 a73d 11a3 32bc b55e 0b3c 3cb8 8ebc
00000040: b908 213d 28f1 bc3d 0621 89bc d07e 603d
00000050: 1cce 203c ff4f 333d 9bc5 22bd ee12 46bd
00000060: 9719 953d 13ef 433d 1480 c2bd 7c86 073c
00000070: a850 333d bf94 173d b68f a13d c38c 873d
00000080: db59 aabd 87b5 85bd 024e d63d 23eb 243c
00000090: 8996 c2bc 20b8 b43d dfac 6d3a e064 3e3d
000000a0: 99e6 5cbd 51d9 5e3d a6ef 50bb 3f86 d5bd
000000b0: fd70 033d a2fe e4bc 2843 ca3c e706 3b3a
000000c0: 6139 833d ca29 83bd e647 633d b5ac 403d
000000d0: db78 86bd b972 483d 8fe3 033b df4d b63d
000000e0: e362 81bd 29da a1bd b599 233c 12b8 8e3c
000000f0: ce77 4ebc 28d9 04bc 9e55 5abd f3f7 0a3c
00000100: e2aa 453d b6bd 9abd 9da4 433d 5cda eebc
00000110: a1d4 53bd 78e4 b5bc 82a0 523d 44fc a3bd
00000120: 99db aabd 8575 c0bd 796b 98bd f757 693d
00000130: 699c a2bd 68dd 503b 8ff6 283d 149f b9bd
00000140: c321 323d f5d6 1dbd 905f c5bd a003 073d
00000150: dbd5 af3d 29d9 f7bc 9090 d23a 780b 713d
00000160: a93a 81bd ead9 62bc 5f48 d0ba a546 4a3c
00000170: 43fb 983c d106 a8bd 1f31 2ebd f0fd 3bbc
00000180: 8a6f 59bd fd04 29bd 4237 033c 847c 9bbb
00000190: 810a 50ba 3f80 13bd 2bc4 cc3c 91c5 5dbd
000001a0: f17d 0b3d f2a9 5f3c e347 203d bf13 1b3d
000001b0: 8d3f dfbb f45a 09ba bd49 0d3c a4da da3c
000001c0: 6ab1 a53d 6cb2 283d 8d23 52bc 6ee1 63bd
000001d0: 3dc8 203d 08fa 0e3d f9da 1f3d 6c47 97ba
000001e0: 4f6b 9f3d 882d 443d 9809 d7bb ce99 2b3d
000001f0: 5eba 903d ae2f d539 25ca 8f3c fee2 953d
-0.031805933 -0.07945488 0.09371185 0.06692858 -0.014832266 -0.028545382 0.04855696 -0.050693825
-0.096425086 0.07360164 0.07091681 -0.031316042 0.081622586 -0.010903136 0.008506467 -0.017421834
0.03931496 0.092256844 -0.01673938 0.054808438 0.009814765 0.043777462 -0.039739233 -0.048357897
0.072802715 0.04783542 -0.09497085 0.00827181 0.04377809 0.03700709 0.07888739 0.06618645
-0.0831792 -0.06528764 0.104640976 0.010065827 -0.023753421 0.088241816 0.00090665923 0.04648292
-0.053930853 0.054406468 -0.0031881123 -0.10425996 0.032090176 -0.02795345 0.024690226 0.00071345124
0.064074285 -0.06404455 0.05548849 0.047039706 -0.0656602 0.048937533 0.002012465 0.089015715
-0.06317689 -0.07902939 0.009985377 0.017421756 -0.012601806 -0.008108415 -0.053304307 0.008481967
0.04825867 -0.07555716 0.04776441 -0.029156856 -0.05171645 -0.022203669 0.051422603 -0.080071
-0.08342666 -0.09397415 -0.07442374 0.056968655 -0.07939989 0.003187025 0.04125076 -0.09063545
0.04348923 -0.038535077 -0.09637368 0.03296244 0.085857116 -0.030254917 0.0016064811 0.058848828
-0.06310017 -0.0138459 -0.0015890709 0.0123459445 0.018674498 -0.08204425 -0.042527314 -0.011474118
-0.053084888 -0.041264523 0.00800878 -0.004745068 -0.00079361355 -0.036010977 0.024995884 -0.054143492
0.034055654 0.013651358 0.039131057 0.03786063 -0.0068129958 -0.00052396883 0.008623538 0.026715584
0.0809048 0.04118578 -0.012825859 -0.05563491 0.039253462 0.034906417 0.039027188 -0.0011541671
0.07784139 0.047894984 -0.006562423 0.041894726 0.07066797 0.0004066205 0.017552445 0.07318686
