dqn_out/dqn_ep3950.pt (torch, 314997 bytes, 24 tensors)

net.0.weight f4 [128, 4]
00000000: f316 283f 0a69 b33e 0cb5 9fbe 8432 94be
00000010: 1ed5 cbbf be0f 233e 3be6 8a3c f16c d73e
00000020: e616 f33f b24d bd3d 07c8 06be f05d a1bd
00000030: 512d 86bf 3ad6 0ebf fc41 3fbe 435c b0bb
00000040: 2884 603f 899f c13e 5a28 5abe 91d3 5abe
00000050: 3665 c03f 2386 c73e 4a98 d1bd b260 b73e
00000060: 19fb b73f 5aa9 6e3d 819f ee3e bec8 ecbe
00000070: a6a6 443c 98b6 6cbd de89 45be bd82 d03e
00000080: eec7 03bf 27ff 5f3b 031b 9fbe c250 fdbe
00000090: db65 9ebf 12ab d23e f4c3 283e 389f 693e
000000a0: 805f af3f 91ed 0dbe b97c f73d 0f46 fdbe
000000b0: 4c2d d3bf 3acf acbe b86f ab3e f7fb 933e
000000c0: f438 3e3f 3eee 1bbb 9713 873e b3df fd3e
000000d0: 073f 633e 61f6 6d3d 4e17 d73e 18d5 81be
000000e0: 4d54 c03f 8876 ebbe f807 9dbe 971a 3ebe
000000f0: 872e a6be e083 a33e c130 99be 03de 3a3e
00000100: 6424 f93f fb20 c6bb 31e1 0b3d 0118 dd3d
00000110: 5b69 393f 48b5 0b3f 8ed4 a0be 312f d3bd
00000120: c622 d23f 419f bc3e dad2 e03e 15ad d83e
00000130: 7085 d23f d161 05bf 1c1a 2d3d 87f4 acbe
00000140: c0f9 b13e 05a6 fc3e e81a db3e 92c5 d4be
00000150: 08aa bf3d c880 acbd b882 a8bd 1c5f 6abe
00000160: dc8c 2d3e 7b58 8abe 0934 4f3e 6707 853e
00000170: 8b05 afbe 72e0 853e 142a d8be a88e a0be
00000180: 38a6 7f3e 1853 d63d 96b3 c7be e868 93be
00000190: 4ce6 063f 088e bf3e 95d6 6dbe 2997 11be
000001a0: 78dd f3be 803e 13bc 78c8 c0be a277 c5be
000001b0: 710b e43f 76ee c73c 18d9 4abe 1c33 943e
000001c0: 21a3 4b3f 0459 033f 0eb9 043f 5c7a 8bbe
000001d0: f5eb ad3f f8f1 babc 27ca 633d 63bc e13d
000001e0: 79a5 ba3f badf aebc 05e1 4dbe 6a9a 953e
000001f0: 5691 f5be a0bb 97be 3c2b 00be ec66 79be
00000200: 0f4a 413f ff1f c2be fbab 24be 6c85 053e
00000210: 5f32 d2bf 5708 a2bc 1593 ac3e 4329 8cbd
00000220: 30fd adbf 6928 e33c 3ee8 e93d 4fff a23e
00000230: ab41 0440 34ea 9c3e 2bd0 fb3e f449 0abd
00000240: 7986 d6be 58b3 5bbe 85b4 ad3e bdae 583c
00000250: 1536 76bf 6871 acbe ff6e eabe 04cf 88be
00000260: fb38 e9bd 1a3a 843e 383d 823e 6e9b febe
00000270: 2eb0 9f3e 8a52 c8be f07b d8bd 1c9a 4fbe
00000280: a327 d13d 3481 1abd 5ae1 02bf 8ff4 c3be
00000290: 283c a0bd 80e1 d33b b896 68be b8de 403e
000002a0: 5980 413f c74d 3ebd 214f eb3e afa8 52be
000002b0: 5a66 b13f 7ee6 413e 17a1 e4be c510 b03e
000002c0: c3ed d0bf 2d66 61bd 40ea c63e 9015 02bf
000002d0: adcc bb3f 558c 2abc 96fe cb3e a330 0c3e
000002e0: b14d f03f df81 233e 58cf e1bd 0935 ccbd
000002f0: c8df e8bf b7f6 883e 4631 ca3e a179 a93e
00000300: ac93 b4be 60ae b63c 9076 b4be 88ec 8cbe
00000310: 302c 95be 34f9 2e3e c48d 98be 00ba 32bc
00000320: ca83 083c 5e6f b33e 8623 cabe 55c6 c6be
00000330: c39d ffbf e933 b63e 7d14 51be 208b ce3e
00000340: a024 393e 40aa 813d 00ed 73bb 086d cabd
00000350: f1fe acbf 7d56 05be 8fec 13bd 7fe2 163d
00000360: c5e2 04c0 ed34 d13c 0256 c23e b46a 34bf
00000370: 3b88 cdbf 62cb 003f 5731 273e 6ba2 e63c
00000380: e64e a7bf 414d 7f3e ff97 c3be 3894 2fbe
00000390: d81a 31bf f425 84bd 56ce bfbc 5e51 c63e
000003a0: 7826 323e d010 cd3e 390d 983e 809b aebe
000003b0: 3f0c ee3f 0426 aebe 7b57 48be bf3d 213e
000003c0: 3a90 813f d78d df3e c650 c8bd fc64 efbc
000003d0: 7acb 833e 5a93 f7be 4215 b93e 30b1 d3be
000003e0: 52e5 70be 1adb 063d 7d76 88be 3ae0 fe3d
000003f0: 3c39 0d40 9214 24be 9cf2 95be aae6 40be
0.6566002 0.35041076 -0.31192815 -0.2894479 -1.5924413 0.15923974 0.016955486 0.42075303
1.8991363 0.09243335 -0.13162242 -0.07879245 -1.048258 -0.55795634 -0.18677515 -0.005382092
0.87701654 0.37817028 -0.21304455 -0.21369769 1.5030887 0.38969526 -0.10234125 0.3581596
1.4373504 0.058266975 0.46606067 -0.46246904 0.012002623 -0.057791322 -0.19290873 0.40724745
-0.51476943 0.0034179182 -0.31075296 -0.49475676 -1.2374834 0.4114614 0.16481 0.22814643
1.3701019 -0.13860156 0.12084336 -0.49467513 -1.6498199 -0.3375185 0.33483672 0.2890317
0.74305654 -0.0023793126 0.26382133 0.4958473 0.22192012 0.058096293 0.42009968 -0.2535789
1.5025727 -0.4598887 -0.30670142 -0.1856483 -0.32457373 0.3193655 -0.2992001 0.18248753
1.946423 -0.006046412 0.034150306 0.10795594 0.72426385 0.5457349 -0.31412166 -0.103117354
1.6416862 0.3684025 0.43910867 0.4231955 1.6446972 -0.5210238 0.042261228 -0.3378031
0.34760857 0.49345413 0.42793965 -0.41556984 0.09358603 -0.084230006 -0.082280576 -0.22887844
0.16948265 -0.2702063 0.20234694 0.2598221 -0.34183916 0.261478 -0.42219603 -0.31358838
0.24965751 0.104650676 -0.390042 -0.28790975 0.52695155 0.3741305 -0.23226388 -0.1421782
-0.47629905 -0.008987069 -0.37652946 -0.38567835 1.7815992 0.0244057 -0.19809377 0.28945243
0.7954579 0.513077 0.5184487 -0.2724179 1.3587633 -0.022820458 0.05561271 0.1102226
1.4581748 -0.021346916 -0.2010537 0.2921937 -0.47962445 -0.29635334 -0.12516493 -0.24355668
0.7550363 -0.37915036 -0.1608123 0.13039178 -1.6421622 -0.019779367 0.33705965 -0.068438075
-1.3592892 0.02772923 0.1142125 0.3183541 2.066508 0.30647433 0.49182257 -0.033761933
-0.4189947 -0.21455133 0.33926788 0.013225255 -0.9617627 -0.33680272 -0.45787808 -0.2672044
-0.11387821 0.25825578 0.2543733 -0.49727958 0.31189102 -0.39125472 -0.10570514 -0.20273632
0.10212638 -0.037720874 -0.5112511 -0.3827252 -0.07823974 0.0064660907 -0.22713745 0.1883496
0.7558647 -0.046460893 0.45958808 -0.2057216 1.385936 0.18935582 -0.44654152 0.34387794
-1.6322559 -0.055029083 0.38850594 -0.5081415 1.4671837 -0.010409434 0.3984267 0.13690428
1.877371 0.1596751 -0.11025876 -0.09971053 -1.8193293 0.26750728 0.39490718 0.33100608
-0.35268915 0.022299945 -0.35246706 -0.2752421 -0.29135275 0.17087251 -0.2979566 -0.010908604
0.008332202 0.35045904 -0.39480227 -0.3882319 -1.997002 0.3558648 -0.20417972 0.4034052
0.18080378 0.06331301 -0.003722012 -0.09884077 -1.3515302 -0.13021274 -0.03611427 0.036837097
-2.076341 0.025537932 0.37956244 -0.70475316 -1.6057199 0.5031034 0.16327415 0.028153619
-1.3070953 0.24931814 -0.382019 -0.17146385 -0.69181585 -0.064525515 -0.023413818 0.38733953
0.17397487 0.4005189 0.29697588 -0.34103012 1.8597487 -0.3401338 -0.19564621 0.1574621
1.012214 0.43662903 -0.09781031 -0.029222958 0.25741178 -0.48354608 0.3614903 -0.4134612
-0.23524979 0.032923795 -0.266529 0.124451116 2.2066183 -0.16023472 -0.2928666 -0.18837991

net.0.bias f4 [128]
00000000: 861d 4ebd db99 bebd a0fe ec3d f1ae 4b3e
00000010: adbe 41be 038e bb3b 5bd9 8b3e 35d4 bcbd
00000020: dbb1 783e f354 e4bd 84b5 463e 7b8b b4be
00000030: 14ba b9be 5a6d 59be 497a ea3e fe11 b4bd
00000040: f4d0 6fbc 52f1 51be 3d81 ec3e d021 e73e
00000050: c943 bcbe 1088 cfbe 6881 bebe 9d86 bc3d
00000060: c482 02be db1e 94be e0a3 37be 57a2 813d
00000070: cf4d 56be 4df2 6c3d c91a a0bd b018 78be
00000080: 65af 503d 1631 db3e 8b7f abbe 5902 753a
00000090: 68ac 53be 2c12 0c3f 620c fbbe d26a f5be
000000a0: 2a76 fd3e f8f7 a1be f043 a43d 985f 3c3d
000000b0: 1863 d9bd 13b4 34be 6195 9a3e 158f 3e3d
000000c0: ce3e f9be d821 97be cffe 14be c956 883e
000000d0: 8eaa a5be 6f3c f53e 3698 debc 82c8 e2ba
000000e0: 8ad6 ce3e a213 833e b722 d73e d935 8f3e
000000f0: c2c2 fabd 54d9 a9be 14ad 563c cd92 c63e
00000100: 4a2b c5bd ffe3 e7be 9b0e 403e d24a ee3e
00000110: 00c2 11be 5af9 d3be 1035 e8be 070e 9f3d
00000120: 36c0 4e3d d846 81be 378a b13d 14be 223e
00000130: a7fe c03e 0187 bc3e 0f6d 35bd 7ebb e1be
00000140: d853 e7be 12a1 dd3e 75ec 8b3e de68 3d3e
00000150: b811 e7be 2c3d f23e bc80 f43e 033b cf3e
00000160: fbbd bebe abd1 10be fee9 7bbe 4f81 e23e
00000170: 238f 4ebe 84c1 69be 22c4 6e3e 3fde 29be
00000180: a906 59be de84 283d 718b 75bd ce37 abbe
00000190: c940 be3e bfe9 7ebe 1597 2d3e 3935 d23e
000001a0: 0c05 603e 9e21 e83d da4a d43e 1423 383e
000001b0: 54e1 6cbe f163 f83e 0825 353e 361e f7be
000001c0: 55f1 47be 51f9 93be 6bc0 d43e 001c a9bd
000001d0: b259 e9be 77ab b63c 589d 833e 2e1c 3d3e
000001e0: 7bcd 823e 828c 8a3c 9e7c 2a3e 1686 35be
000001f0: abf0 3fbe d8a3 f4be 1314 c1be 7fa6 403e
-0.050321124 -0.09306689 0.11572003 0.19890954 -0.18920393 0.005723716 0.27314267 -0.09220163
0.24286596 -0.11149015 0.1940518 -0.35262665 -0.3627478 -0.2123312 0.4579642 -0.08792494
-0.014637221 -0.20502213 0.4619235 0.45142984 -0.36770466 -0.40533495 -0.37208104 0.09205363
-0.12745196 -0.2892979 -0.17933607 0.06329792 -0.20928119 0.057848264 -0.07817609 -0.24228168
0.05094852 0.42810887 -0.33495745 0.0009346358 -0.20671237 0.5471523 -0.49032885 -0.4793306
0.49504215 -0.31634498 0.080207705 0.045989603 -0.10614604 -0.17646818 0.30192092 0.046523172
-0.4868073 -0.29518008 -0.14550327 0.26628712 -0.32356685 0.4789767 -0.02717219 -0.0017302188
0.40398055 0.25600916 0.42018673 0.2797077 -0.12244178 -0.3317362 0.0131027885 0.38783875
-0.09627397 -0.45291135 0.18755572 0.46541458 -0.14234161 -0.41401178 -0.45352983 0.077663474
0.050476275 -0.25249362 0.086689405 0.15892822 0.37694284 0.3682175 -0.04429346 -0.44088358
-0.45181155 0.4328695 0.2732884 0.18497035 -0.45130706 0.47312295 0.47754467 0.4047471
-0.3725432 -0.14142482 -0.2460098 0.4423928 -0.2017179 -0.22827727 0.23317006 -0.16588686
-0.21193947 0.041142337 -0.059947435 -0.33441013 0.37158802 -0.24893855 0.16952164 0.4105623
0.21876925 0.11334537 0.41463357 0.17982131 -0.23132831 0.4851375 0.17689908 -0.48265237
-0.19525655 -0.2890115 0.41553053 -0.08257294 -0.45576245 0.022298558 0.2570598 0.18467781
0.25547394 0.016912702 0.166491 -0.17726931 -0.18744151 -0.47781253 -0.37710628 0.18813513

net.2.weight f4 [128, 128]
00000000: 0a96 873a c2b4 33bd 0601 3c3e 78ee 46be
00000010: dc10 7f3d 6463 e33d 9129 c1bc d874 8f3d
00000020: 1ada 9dbd d12c 43bd a516 be3d c5fb 07be
00000030: e659 f93d bd1b 67be f6b3 67bc 3e93 59be
00000040: b324 303e f9ea 4a3e 3a16 0dbd 978e 913d
00000050: 9780 a33d 6c06 9dbc 6fac 643d bba8 8ebd
00000060: 38d0 193c 0dbf 273e 80fe 46bc 0228 033e
00000070: 67e4 f63d 685d ec3d cb78 0b3d a0b6 50bc
00000080: 0c64 9c3d 422d 453b cc5e 0ebe e6ee f53d
00000090: 7db4 44bd 54f9 2abd 699c 753d 78ea c3bc
000000a0: 9cf7 6d3d bc0c 71bd 3f5b 473c 3834 9e3d
000000b0: da29 7b3c c2d6 2d3e e563 e83c bc7d dabd
000000c0: 2a63 333d 3498 d83c 6049 f23d ce2f cdbd
000000d0: aa01 693d ca34 723d d3b4 bdbd e12a 19be
000000e0: c8d7 7bbb 9b01 9cbd 9151 ad3c 83e8 903d
000000f0: d4b4 0d3d d81e fc3c 4260 22be 1850 c63d
00000100: 6f5f 11be 1af9 51bd 11a7 8b3d 8bcf 8e3d
00000110: 6abc 2cbd 5eef 673d f0f6 37bc 2004 cfbb
00000120: bf09 a53d ac16 a6bd 6cad 4a3e 6bf4 4a3c
00000130: f098 dd3c 5af8 b53d 69c4 e43d cd7e 9a3d
00000140: 4fcf 923d ecc7 52bd 4abb 423d 94b6 973b
00000150: 911f 32bc b575 e33a db29 8e3d f435 88bd
00000160: 2732 853e 533e b0bd e7ae d2bc 3ff3 b53d
00000170: 8c90 1f3d e0dc 033c 0182 40bd ab93 843d
00000180: 4b86 59bd edff 49be c9e5 b8bc 60c4 183d
00000190: 75f2 59bd ba0c abba 2908 193e c961 fc3c
000001a0: 30ca 663d 6146 503d dda6 e23d 4437 01be
000001b0: 18bf 1ebc a94a 44bb 7b20 f3bd d746 54bd
000001c0: fd5a 1c3e c94d 2f3e a05e 103d 6474 a43c
000001d0: 00bc 1cbd f5f7 183d e214 1c3c 847d 0fbe
000001e0: fc7b 1fbd 7d8e 9b3d 85d9 61bc abc8 c03e
000001f0: 01da a03c 25b9 5ebe a49d 97bc e500 c13d
00000200: 62e2 8abd 5b73 cfbc 6818 c93c 0f8a a5bd
00000210: 0e78 463d 15b0 2d3d 93d0 533d 14d1 66bd
00000220: bae7 ae3d 336f 5cbd 2f49 ae3d f7b8 adbd
00000230: 603c a0bd e25c 5e3d 73ee b13b 1016 a73b
00000240: 47b0 4cbd a6dd 1bbd b087 efbc 7921 b7bd
00000250: 4319 803b 3c0f 803c 00f0 9cb8 c284 d63c
00000260: a7c2 ab3d 4885 c03c 4988 04bd 8a06 27bd
00000270: b64d 69bd f1cb 83bd a039 69bc 7810 80bc
00000280: be8a 1d3d c6fb 27bd 2d4f 903d e89c 84bd
00000290: 00b6 8339 2bac 9a3d c100 b43d 20b7 51bd
000002a0: 28c1 3e3c 580f 2b3c d4fc 33bd ee3e f6bc
000002b0: df7d bc3c 7505 80bd 13ac 2e3c 5d84 113d
000002c0: 2bab 0ebd b35c 963d 809b bebb eff3 133d
000002d0: bd43 b33d bc25 fabc 2778 413d 7933 e1bc
000002e0: 1976 8cbc 397f 97bc 5ea3 84bb ff8c 17bd
000002f0: dd49 a23c a044 5a3b 1e7e 653d a7b5 b2bc
00000300: a038 113c 534c 04bd 0e1d 9fbd 187f 023d
00000310: 884d 393c 98fd 10bd 6cd0 f4bc 9a9e 9c3c
00000320: e8ec 82bc 6295 6c3d 0036 5a3b cbaf ed3c
00000330: 765e 103d 5f0e d4bc d8b4 183d 8794 853d
00000340: 9048 853b 179f 613c a84d e6b8 c37c 683d
00000350: 72e7 1abd 395f 4dbd b63b 0f3d 606a a5bd
00000360: 80bd b93a 947f 26bd 2af5 6e3d cea2 afbd
00000370: 0e84 5b3d bb17 b33d 9e00 6e3c c30d b1bb
00000380: a8d1 b03d ff6d 25bd 7017 e8bb dd89 1ebd
00000390: 60f0 83bc 7d06 973c 62f4 ee3b 9f04 aabc
000003a0: dffb bbbd 4571 363b df8d c5bb 0bd8 1b3c
000003b0: c3b4 8a3d 456a a93d af20 5fbd 0099 b4bb
000003c0: 2820 14bd efd5 a6bd f269 8cbd cfe5 a93d
000003d0: 3617 533d 2d5b 3e3d e5a1 3b3d 9176 98bd
000003e0: 79e9 e53b 4921 a23d 40c4 58bd ff10 9f3d
000003f0: b44b b83c ad37 7d3d c817 1bbd f09c 163d
0.0010344398 -0.043873556 0.18359765 -0.19426906 0.062271938 0.11102942 -0.02357939 0.07004708
-0.07707615 -0.047650162 0.09281663 -0.13279636 0.1217535 -0.22569175 -0.014142027 -0.21247575
0.172015 0.19816197 -0.034445025 0.07107275 0.07983511 -0.019168101 0.055828508 -0.069657765
0.009388022 0.16381474 -0.0121456385 0.1280823 0.12055283 0.11541253 0.034050744 -0.012738854
0.0763627 0.003008679 -0.1390335 0.12008457 -0.04802369 -0.041741684 0.059963617 -0.023915514
0.058097467 -0.058850035 0.012167751 0.07724804 0.015329802 0.16976455 0.028367946 -0.10668513
0.043795742 0.026439764 0.118304014 -0.10018884 0.056886353 0.059132375 -0.09263005 -0.14957763
-0.0038428176 -0.07617494 0.021157058 0.07075598 0.03459628 0.030776426 -0.15857032 0.096832454
-0.14196561 -0.051262952 0.06818975 0.069731794 -0.042171873 0.056624763 -0.011228308 -0.0063176304
0.080584995 -0.08109793 0.19792718 0.012387375 0.027050465 0.0888526 0.11170275 0.075437166
0.07168447 -0.05146019 0.047541894 0.0046299193 -0.010871784 0.0017353805 0.06941577 -0.06650916
0.26014826 -0.086056374 -0.025718166 0.08884286 0.03895621 0.008048266 -0.04699898 0.06473478
-0.053106587 -0.19726534 -0.022570508 0.037296653 -0.05320974 -0.0013050057 0.14944519 0.030808346
0.056345165 0.05084837 0.11066983 -0.12618738 -0.009689115 -0.0029951727 -0.118714295 -0.05182537
0.15269084 0.17119516 0.03524649 0.02007503 -0.03826523 0.037345845 0.009526463 -0.14012724
-0.0389366 0.07595537 -0.013784771 0.37653098 0.019635202 -0.21750315 -0.018507786 0.09423999
-0.0678146 -0.02532356 0.02454777 -0.08082973 0.048454337 0.042404253 0.051712584 -0.056351736
0.08540292 -0.053816985 0.085100524 -0.08482545 -0.078240156 0.0542878 0.0054300367 0.0050990656
-0.0499728 -0.038053177 -0.029239506 -0.08941931 0.0039092614 0.015632264 -7.483363e-05 0.02618635
0.08386736 0.023501053 -0.032356534 -0.04077772 -0.056958877 -0.06435383 -0.01423493 -0.015632853
0.038462393 -0.041011594 0.070463516 -0.0647524 0.00025121868 0.0755237 0.08789206 -0.051200032
0.011642732 0.01044067 -0.043942288 -0.030059304 0.023009239 -0.06251041 0.010661143 0.035526622
-0.034831207 0.073419 -0.005816877 0.036121305 0.087531544 -0.030535571 0.047233727 -0.027490364
-0.017146157 -0.018493282 -0.004047795 -0.0369997 0.019810611 0.0033305064 0.056028478 -0.021815134
0.008863598 -0.03229935 -0.077692136 0.031859487 0.011309989 -0.035398096 -0.02988454 0.019118596
-0.015982106 0.05775965 0.0033296347 0.029014489 0.035246335 -0.025885759 0.03728184 0.0652247
0.004067488 0.01377084 -0.00010981719 0.056759607 -0.03781838 -0.05013964 0.034969054 -0.0807693
0.0014170855 -0.04064901 0.058339275 -0.085759744 0.053592734 0.087447606 0.014526514 -0.005403252
0.08633739 -0.040388104 -0.007082872 -0.038705695 -0.01610583 0.018435711 0.0072923163 -0.020754157
-0.091789 0.002783851 -0.0060288752 0.009511958 0.06772759 0.082722224 -0.05447453 -0.005511403
-0.03616348 -0.08146273 -0.06856145 0.08295786 0.051535808 0.04647367 0.04580869 -0.0744449
0.0070163575 0.07916505 -0.052921534 0.077669136 0.022497036 0.061820675 -0.037864476 0.03677076

net.2.bias f4 [128]
00000000: 71b4 8fbc 4683 a43d 90ad 33bd 285f 3f3c
00000010: 9f86 a43c b9c5 a0bd a14a 683d 8763 873d
00000020: 7d69 823d 73bf 613d 8a25 363d 6ab5 5bbd
00000030: f698 763d 2520 08bd 3801 c83c 1f89 a9bd
00000040: 3ed5 393c 52a0 3fbd 9464 2dbd a3d7 86bd
00000050: 6cff 37bc ce72 74bd 7467 62bd ff7d b4bd
00000060: 2037 713d d284 883d 4824 5dbc 506b 503d
00000070: 3055 a43c 394f 4cbd 6400 76bc 272b 0f3d
00000080: 96ac 473d 40d9 94bb 1092 59bc 867b 653d
00000090: 8880 8abc c4b0 f53b f34d 67bd 079a a53d
000000a0: f693 af3a c407 60bd e79d 95bd 283a 05bc
000000b0: 5f2f f63c 5ed5 5f3d 58db 91bc 75bb 3cbd
000000c0: 883c afbd 89a4 21bc d065 9c3d 1cf8 b5bd
000000d0: fbd7 a2bc 2be2 753d fd55 843d e26e 6ebd
000000e0: 417e e6bd 7868 fa3d 028d 4abd e250 6e3c
000000f0: 16cd b9bd be6d d93c 1e4f 9bbb 518b edbc
00000100: 1a36 44bd 6acf 8d3d 3cb1 10bd 1659 11bd
00000110: c36d 54bd a1a2 6c3d 74ea 1c3c d0c4 65bc
00000120: b74f 4e3d e607 753d 8298 97bd cea2 663d
00000130: 7d89 a03d 8205 5d3d 2db8 0abd ffb8 80bd
00000140: eb41 7e3c c217 833d 3aea c9bd f314 9ebd
00000150: ae68 c0bc 8484 133d 251e a7bd 4d63 28bd
00000160: 7d0a 083d 6e82 953a fa25 b8bd 3398 01bd
00000170: fac4 18bd a303 753d 63a3 b4bd 3e2b 583c
00000180: e79a d1bc 02f8 523d 6c58 4bbd 831c 723d
00000190: 5e02 2c3a 3523 8d3d fae4 b6bd 3fbb bcbc
000001a0: 0ca0 d3bc a303 863d 8274 92bd 53ef 863d
000001b0: 2355 77bd 0963 823c ff5c c2bc db53 9bbd
000001c0: e01c ba3b 3163 abbd d440 a33c 06ea 903d
000001d0: f02c 0abc 3b00 45bd c0b8 593d d0be 193c
000001e0: 73c6 463c c087 5b3d 581f b3bd 7e25 3abd
000001f0: ef54 023d 4555 5d3d a29d 31bd 846b 84bd
-0.017542096 0.08032851 -0.043866694 0.011680402 0.020083724 -0.078502126 0.056711797 0.0661078
0.063677765 0.05511422 0.044469394 -0.053639807 0.06020447 -0.03323378 0.024414644 -0.08278107
0.011342345 -0.046783753 -0.042332247 -0.06584098 -0.011230331 -0.0596798 -0.05527444 -0.08813094
0.058890462 0.066659585 -0.01349742 0.05088359 0.020060152 -0.04988024 -0.015014742 0.034953263
0.048748575 -0.0045425 -0.013279453 0.056026004 -0.016906992 0.0074978787 -0.056470823 0.08086019
0.0013395536 -0.054694906 -0.07305508 -0.008131541 0.030051885 0.054646842 -0.017804787 -0.04607721
-0.08556467 -0.009865888 0.07636607 -0.08885214 -0.019878378 0.060030144 0.064617135 -0.058211215
-0.1125455 0.12226957 -0.04945088 0.014545651 -0.0907232 0.026541587 -0.004739656 -0.028997095
-0.047903158 0.06924327 -0.035325274 -0.03548535 -0.05186249 0.057772283 0.009577382 -0.014023975
0.05036899 0.059821986 -0.074021354 0.056307606 0.07838724 0.05396033 -0.03386705 -0.06285285
0.015518646 0.06401016 -0.09859128 -0.077188395 -0.023487415 0.03601505 -0.081600465 -0.041110326
0.033213127 0.0011406669 -0.089916185 -0.03163929 -0.037297226 0.05981792 -0.08820226 0.0131939035
-0.025586559 0.05150605 -0.049644873 0.059109222 0.0006561632 0.06891481 -0.089303926 -0.023038505
-0.025833152 0.065436624 -0.07151128 0.06588616 -0.060383927 0.015916364 -0.023725985 -0.075843535
0.0056797117 -0.08368529 0.019928373 0.070758864 -0.0084335655 -0.048095923 0.053154707 0.009383872
0.012132275 0.05359626 -0.08746213 -0.04544591 0.03181928 0.054036397 -0.04336322 -0.064658195

net.4.weight f4 [15, 128]
00000000: 684e 1b3e 0283 c6bc fa58 c53d a29b 4c3d
00000010: 2ab3 7dbb e245 64ba 830f 513d 8460 963d
00000020: 18c9 9f3d bb24 f73d 7a69 393d b5de b23d
00000030: d1cf ff3d 5e5e 2f3d 0d92 9d3d d684 0a3e
00000040: 9313 b2bd f88e 023e 00b2 693e f256 423d
00000050: e6d8 c0bd dc43 ed3d e4bd 813c 38cc c6bc
00000060: c8b3 433d 651d 183d ecc2 a33c 54b2 793d
00000070: 9ca6 ae3c 2a8d 813c c048 8d3a 848e 943d
00000080: f8fc 9fbe 2057 23bc b21f 473d 07ea 953d
00000090: 4431 37be 3d36 fd3d c4f0 adbd 5a69 54be
000000a0: ea46 1abe fbc5 9b3d 9689 593d a648 753d
000000b0: bec8 04bd 2954 723d efcd a93d 2099 f53b
000000c0: b414 a33c 0a3f 9cbc e9e1 0c3d cc4b 4c3d
000000d0: d4ee dd3d 2eb5 653d 4929 28bd fcd7 2bbd
000000e0: d4ce ff3d 7d2d 66be 8af6 563d 0541 c53c
000000f0: 5028 e9bb acb9 d33c 9ea4 f63d f253 70bd
00000100: a687 ecbc 67c9 1cbe ee30 1a3d bc0d c93d
00000110: b60f 3dbb c6ab 773b 6d7c c43c 24ab 8dbd
00000120: 7a2b 18be 9dbe 54bd 2dd5 fb3d 54db f33c
00000130: fffa 32be 7ee4 083e 47e0 083e b708 283e
00000140: 6010 f0bd 07e6 e03b 7f96 743e 5f90 0f3e
00000150: 695c 893d b1e8 31bd d867 033d 1c81 9d3e
00000160: 86b8 b8bd 1298 24be 5972 a43e 5bdd 53bd
00000170: 6e5a ac3c 4c9d 24be 0c7e 9dbd dd21 55bd
00000180: dd13 e73c 399e 66bc fa6c 583d bf97 50bd
00000190: 2ff8 0e3e 076d 5ebe b694 903c d134 46bc
000001a0: bbc9 96be d350 23be 72c4 173e 0299 6d3d
000001b0: 8983 0abe 99ff 583e cf81 313e 3e81 473d
000001c0: a5a1 af3d feff 45bd 8850 6ebd 3fba 5bbd
000001d0: 8051 5abc b826 32bc 80b6 b43d 63a9 3bbd
000001e0: b3c6 aebc 90d0 7a3d f046 7f3c 8052 c73c
000001f0: 5f40 173d 659e 8abe 6989 af3d f3d1 b33d
00000200: 0917 693d 8ea5 76bc 7a24 093e d039 40bd
00000210: 4a1a a6bd 1581 a3bc e3db d33d dfbc b23d
00000220: cb2e bd3d 0788 b53c d0d3 d33b 9001 823b
00000230: 7fcb 033e 31d3 59bd 9961 853d eb5b 1d3e
00000240: ef45 acbd fc52 aa3c 88f9 5d3e 7a1f 48bd
00000250: 1387 a3bd cb3b cdbb 4827 a63c 21d5 b03d
00000260: 16f8 fb3d cda0 823b 2098 10bc 1852 213d
00000270: 7524 1ebd cceb 91bc 789b c03c 8774 12bd
00000280: 6687 b6be 9899 413c 530d ac3d 51e5 093d
00000290: 3431 45be 336e b7ba 970c 983d cc61 4ebe
000002a0: 0b04 2cbd 68a0 433c e601 b23c 5d1b 98bd
000002b0: 4d5c 0cbe d18c 9c3d e8f1 68bc 5e25 6c3d
000002c0: 4055 07bd 6c87 e4bc e62c 0dba b61a 803d
000002d0: d38c 183e 5d30 a13c eb7b 37bd 346b 093d
000002e0: a119 0a3e d219 0cbe ce84 293d 9557 9f3d
000002f0: 3eed 9b3d 1930 c2bc a9e4 fe3d 7e52 afbc
00000300: 65a7 abbd 8e13 f4bd 50c7 42bd 723f 8a3d
00000310: b94f 0c3e 6f6a c6bc 3355 0c3e 1872 ac3c
00000320: 2824 5cbe 4ea9 0b3d 9f27 883c ee2d c33c
00000330: e505 8cbe 9061 263e 4cde a63d c766 6b3e
00000340: 35d2 1cbe 01cd 2b3c 8c8f 823e 1e8b bf3d
00000350: 7203 473d f8a6 4abc fd81 4b3d 0d3e 583e
00000360: 70c8 c8bd e6c8 30be 88b1 803e 68ab 84bc
00000370: caf8 ac3d fc18 26be a818 003c 002c 07bd
00000380: b505 afbb 321d 4fbd 8014 59bd 52d4 ecbd
00000390: beb5 b43c c702 24be 64db 4cbd a81c 463d
000003a0: a0b2 5dbe 95ec 0ebe 7b8f ee3d b081 92bd
000003b0: df76 ecbd ac82 953e 4cb7 5c3d 4782 9a3d
000003c0: 236c a23d 7b0b a83c 67a8 31bd da24 8d3b
000003d0: 4cb0 963c 6ea8 643d 80e3 373d 39de b13d
000003e0: b6ad 713d a324 be3d 4dde 06bd 72b3 edbc
000003f0: b757 e83d 2d5e 8abe ebb8 233e 2c52 1fbd
0.15166628 -0.024232391 0.096361116 0.04995311 -0.0038711526 -0.0008707923 0.051040184 0.07342628
0.078020275 0.12067553 0.045266606 0.08733884 0.1249081 0.042814605 0.076938726 0.13527235
-0.0869514 0.12749851 0.22821808 0.0474462 -0.0941637 0.11585209 0.015837617 -0.024267301
0.047778875 0.037137408 0.019990407 0.060961083 0.02131968 0.015814383 0.0010779127 0.07253745
-0.31247687 -0.009969503 0.04861421 0.07320028 -0.17889887 0.12363861 -0.08493188 -0.20743313
-0.15066114 0.07606121 0.053109728 0.059883736 -0.032418005 0.059162293 0.08291232 0.0074950606
0.019907333 -0.019073028 0.034395132 0.049876973 0.108365685 0.05608099 -0.041054998 -0.041954026
0.12490621 -0.2247829 0.05248121 0.024078855 -0.0071154013 0.025845371 0.12043117 -0.058673806
-0.028873276 -0.15311204 0.03764432 0.09817073 -0.0028848476 0.0037791594 0.023985112 -0.06917408
-0.14860335 -0.051939595 0.122965194 0.02976767 -0.1747856 0.13368413 0.13366805 0.16409574
-0.11721873 0.006863359 0.23885535 0.14019917 0.06707079 -0.043434802 0.032081455 0.30762565
-0.0901957 -0.16073635 0.3211849 -0.051724773 0.021039214 -0.16075629 -0.07690057 -0.052034248
0.028207714 -0.014075809 0.052838303 -0.050925966 0.13961862 -0.21721278 0.017649036 -0.012097553
-0.29450783 -0.159488 0.14821032 0.058007248 -0.13526739 0.21191253 0.17334674 0.04870724
0.08575753 -0.048339836 -0.05818227 -0.053644415 -0.013325095 -0.010873489 0.088238716 -0.045815837
-0.021334982 0.061234057 0.015580878 0.024331331 0.036926623 -0.2707397 0.08571131 0.08780279
0.056906734 -0.01505412 0.13392821 -0.046930134 -0.08110483 -0.019959012 0.103446744 0.087274306
0.09237441 0.02215959 0.006464459 0.0039674714 0.12870596 -0.053179923 0.06512756 0.15367095
-0.08411776 0.020791523 0.2167722 -0.048858143 -0.07984748 -0.0062632314 0.020282403 0.08634401
0.12303178 0.003986454 -0.008825332 0.03938493 -0.038608987 -0.017812632 0.023511633 -0.03575566
-0.35650176 0.011816405 0.08400979 0.03366596 -0.19257051 -0.0013994634 0.07424276 -0.20154494
-0.041996043 0.011940099 0.02172942 -0.07427094 -0.13707085 0.07644046 -0.014217831 0.057652824
-0.033040285 -0.027896605 -0.00053854135 0.06255095 0.1489747 0.019676382 -0.04479591 0.033549502
0.13486339 -0.13681725 0.041386418 0.07780377 0.0761361 -0.023704575 0.12445957 -0.02140164
-0.08381537 -0.11917792 -0.04755336 0.067503825 0.13702287 -0.024220673 0.13704376 0.021050498
-0.21498168 0.03409701 0.016620455 0.023825612 -0.27348247 0.16248155 0.081478685 0.22988425
-0.15314563 0.010485888 0.25500143 0.093527064 0.04858727 -0.01236891 0.049684513 0.2111742
-0.098038554 -0.17264137 0.25135446 -0.016195014 0.0844589 -0.16220468 0.0078183785 -0.033000946
-0.0053412565 -0.050564952 -0.052998066 -0.115639344 0.022059318 -0.16016684 -0.050013915 0.048367172
-0.21650171 -0.13957436 0.116484605 -0.07153642 -0.1154611 0.29201257 0.053885743 0.0754438
0.07930782 0.020513287 -0.04337349 0.0043073716 0.018394612 0.05582469 0.044894695 0.08684964
0.059003554 0.09284332 -0.032926846 -0.02901623 0.11344855 -0.27024975 0.1598851 -0.038896725

net.4.bias f4 [15]
00000000: d477 533d 39d3 c23d d306 7dbd 79ae 6cbd
00000010: 51a4 7fbd 7738 8a3d 62e3 17bd f9c8 5c3d
00000020: 5413 a9bc aa7d 5d3d d0af 853b e944 95bc
00000030: 37c7 8a3d 5115 a43d 7c36 bdbc
0.05162795 0.09512944 -0.061774086 -0.057783578 -0.062412564 0.06749051 -0.037082084 0.0539026
-0.0206391 0.05407492 0.0040797964 -0.018221335 0.067762785 0.08011878 -0.02309727

net.0.weight f4 [128, 4]
00000000: 7f8a 273f bb0b b33e 6695 a0be eb6a 93be
00000010: e1ae cbbf ae84 233e e383 873c 6d19 d73e
00000020: dc63 f23f 782c c03d 6bd1 06be 3206 a0bd
00000030: 0425 86bf 9905 0ebf a16e 3fbe 286e c9bb
00000040: 0609 603f 678d c13e 5ea3 5abe eb08 5abe
00000050: 420e c03f 79a0 c73e eaab d1bd ca68 b73e
00000060: f5db b73f eb50 703d 913b ee3e ebe4 ecbe
00000070: 042e 3a3c fba2 6ebd e6f5 46be 871f d03e
00000080: 3187 03bf e5ac 153b 941b 9fbe 513b fcbe
00000090: 35e7 9dbf 9bc7 d23e 994d 293e 4194 693e
000000a0: 5e29 af3f 67df 0fbe 4d16 f53d 96b5 fcbe
000000b0: 4419 d1bf a45f acbe f54c ab3e 5e1b 943e
000000c0: b65a 3d3f 57be 2dbb cb04 873e 5645 fd3e
000000d0: 2df1 663e 2ca5 6a3d 314e d73e 74b2 84be
000000e0: 972e c03f 01ff eabe 1e3c 9dbe d584 3ebe
000000f0: ff4a a5be 820f a33e 065d 99be 85ab 3b3e
00000100: 71ba f83f 00e4 cfbb eebb 0a3d 3f0c dd3d
00000110: 33e8 383f 6c7b 0b3f f932 a1be 34cf d5bd
00000120: ce29 d23f fbd6 bc3e 6808 e03e 8f84 d83e
00000130: 8d71 d23f d2e9 04bf dcb1 2b3d 8071 adbe
00000140: 4ce1 b03e d75c fc3e 3c0f db3e 625f d3be
00000150: 08aa bf3d c880 acbd b882 a8bd 1c5f 6abe
00000160: a907 2d3e 2be3 8abe 296c 4e3e 0ea5 843e
00000170: a43c aebe a23b 863e 9e61 d7be 8ad1 9fbe
00000180: 38a6 7f3e 1853 d63d 96b3 c7be e868 93be
00000190: d8c6 063f 9898 be3e 8313 6fbe 35de 0fbe
000001a0: 78dd f3be 803e 13bc 78c8 c0be a277 c5be
000001b0: cd94 e33f 4ae1 ca3c 8e0a 4bbe 463a 943e
000001c0: 0da3 4b3f 413d 033f 634f 043f 5048 8cbe
000001d0: 0996 ad3f 2835 b8bc cac1 623d aee0 e13d
000001e0: 097a ba3f e578 a8bc ca55 4ebe 2b4f 953e
000001f0: 5691 f5be a0bb 97be 3c2b 00be ec66 79be
00000200: f007 413f e181 c2be 9d8e 23be f274 043e
00000210: dea6 d1bf 6088 a2bc c088 ac3e 3814 8cbd
00000220: 2418 acbf f36d ea3c 8130 e93d 261b a33e
00000230: 641c 0440 7cf8 9c3e 369b fb3e 0531 0abd
00000240: 2e18 d6be 868b 59be d9d5 ae3e e5e6 803c
00000250: d5c1 75bf cdce abbe af40 eabe 345b 89be
00000260: fb38 e9bd 1a3a 843e 383d 823e 6e9b febe
00000270: 2eb0 9f3e 8a52 c8be f07b d8bd 1c9a 4fbe
00000280: 78df d83d cec2 18bd 2462 02bf cdbc c3be
00000290: 283c a0bd 80e1 d33b b896 68be b8de 403e
000002a0: c069 413f 1b98 3bbd 23c8 ea3e f160 52be
000002b0: d753 b13f eee0 423e c0ec e2be b05c b03e
000002c0: 0dc6 cfbf 3c75 61bd 3ae2 c73e 6b8d 02bf
000002d0: 06cd bb3f 066e 34bc 7360 cb3e df1e 0c3e
000002e0: f40f f03f 01f2 233e 903f e2bd 7315 ccbd
000002f0: 4384 e8bf d8d4 883e 4619 ca3e a074 a93e
00000300: ac93 b4be 60ae b63c 9076 b4be 88ec 8cbe
00000310: 302c 95be 34f9 2e3e c48d 98be 00ba 32bc
00000320: 3ab1 853b 5522 b23e 4648 cbbe b272 c6be
00000330: 1a32 ffbf 7a1f b63e 2d93 50be c498 ce3e
00000340: a024 393e 40aa 813d 00ed 73bb 086d cabd
00000350: 1d6d acbf b276 05be adff 12bd 95d3 163d
00000360: 0586 04c0 0b5b d13c 04e7 c33e d58e 33bf
00000370: e53e cdbf 7ab8 003f f0d5 273e a449 e43c
00000380: 1e8a a6bf cd7d 7f3e 72f9 c2be f63c 2ebe
00000390: e6c2 2fbf 6a68 84bd c226 bebc 9453 c63e
000003a0: e43c 3a3e 1ea5 cd3e 2356 973e a3af aebe
000003b0: 98d3 ed3f 227d aebe c9cf 48be 25cc 203e
000003c0: bcb2 813f c1dd de3e cf65 c7bd 7c30 ecbc
000003d0: 7acb 833e 5a93 f7be 4215 b93e 30b1 d3be
000003e0: 1dff 6bbe 0440 053d 54e4 87be 7463 003e
000003f0: df14 0d40 67ef 23be 2c0f 96be 31d4 40be
0.65445703 0.34969887 -0.31363982 -0.2879251 -1.5912744 0.15968582 0.01654238 0.42011586
1.8936725 0.09383482 -0.13165824 -0.07813682 -1.0480046 -0.5547729 -0.18694545 -0.006147165
0.8751377 0.37803194 -0.21351382 -0.21292464 1.5004351 0.38989618 -0.10237868 0.35822135
1.4364 0.05867092 0.4652982 -0.462684 0.01136351 -0.0582609 -0.1942974 0.40649053
-0.5137816 0.002283865 -0.31075728 -0.49264005 -1.2336184 0.41167912 0.16533507 0.2281046
1.3684499 -0.14050065 0.11967144 -0.4935729 -1.6335835 -0.33666718 0.3345715 0.2892713
0.7396654 -0.0026511156 0.26370844 0.49466962 0.22552939 0.057286426 0.42051843 -0.259174
1.5014218 -0.45897678 -0.30709928 -0.18605359 -0.3228378 0.3184777 -0.29953784 0.18327148
1.9431897 -0.0063443184 0.03387063 0.107933514 0.7222931 0.544852 -0.31484202 -0.104399115
1.6419008 0.36882767 0.43756413 0.42288634 1.6440903 -0.5191928 0.041917667 -0.33875656
0.34546888 0.4928958 0.4278506 -0.4128371 0.09358603 -0.084230006 -0.082280576 -0.22887844
0.16897453 -0.2712644 0.20158447 0.25907177 -0.3403064 0.2621737 -0.42066664 -0.31214553
0.24965751 0.104650676 -0.390042 -0.28790975 0.5264716 0.37225795 -0.23347287 -0.14049609
-0.47629905 -0.008987069 -0.37652946 -0.38567835 1.7779785 0.02476563 -0.19828245 0.2895071
0.7954567 0.5126534 0.51683635 -0.2739892 1.3561412 -0.022486284 0.055360593 0.110291824
1.4568492 -0.02056546 -0.20149913 0.29161963 -0.47962445 -0.29635334 -0.12516493 -0.24355668
0.75402737 -0.37989715 -0.15972371 0.12935236 -1.6379049 -0.01984042 0.33698082 -0.06839794
-1.3444867 0.028616881 0.113862045 0.3185665 2.0642328 0.3065833 0.49141854 -0.033738155
-0.41815323 -0.2124463 0.34147528 0.0157351 -0.9599889 -0.33556214 -0.45752475 -0.26827395
-0.11387821 0.25825578 0.2543733 -0.49727958 0.31189102 -0.39125472 -0.10570514 -0.20273632
0.10589498 -0.037295155 -0.50931 -0.3822998 -0.07823974 0.0064660907 -0.22713745 0.1883496
0.75551987 -0.045799356 0.45855817 -0.20544793 1.3853711 0.19031116 -0.4432125 0.34445715
-1.6232315 -0.055043444 0.39039785 -0.50997037 1.4671943 -0.01101256 0.39722022 0.13683651
1.8754869 0.16010286 -0.1104728 -0.099650286 -1.8165363 0.26724887 0.39472407 0.3309679
-0.35268915 0.022299945 -0.35246706 -0.2752421 -0.29135275 0.17087251 -0.2979566 -0.010908604
0.004079965 0.34791818 -0.39703578 -0.3875938 -1.9937165 0.3557089 -0.20368643 0.40350926
0.18080378 0.06331301 -0.003722012 -0.09884077 -1.3470799 -0.1303356 -0.035888363 0.036822874
-2.07068 0.025556108 0.38262188 -0.7013982 -1.6034819 0.5028149 0.16390204 0.027867146
-1.30109 0.24950333 -0.38080937 -0.17015442 -0.68656766 -0.06465228 -0.02321184 0.3873564
0.1818729 0.40165037 0.29557905 -0.34118375 1.8580198 -0.34079844 -0.19610514 0.15702875
1.013267 0.4352856 -0.09736215 -0.028831713 0.25741178 -0.48354608 0.3614903 -0.4134612
-0.23046537 0.032531753 -0.26541388 0.12537938 2.2043989 -0.16009293 -0.2930845 -0.18830945

net.0.bias f4 [128]
00000000: 6705 54bd cb05 c1bd 1ce5 ed3d f6a3 4b3e
00000010: 78b5 41be 1038 c03b 17ce 8b3e a0e2 bdbd
00000020: ef56 783e 30fb e4bd 0143 463e a594 b4be
00000030: 1b2d babe 29ba 57be a771 ea3e 4e8b b2bd
00000040: 9ea8 71bc f69e 52be 7044 ec3e 2a13 e73e
00000050: 89ba bcbe 1088 cfbe 0ce4 bebe e160 bf3d
00000060: c482 02be 3016 95be e0a3 37be d1fb 813d
00000070: a62e 56be 496c 6d3d ca06 a1bd b018 78be
00000080: 1105 4f3d 0615 db3e d677 abbe d90d 803a
00000090: 4933 50be e4fb 0b3f 620c fbbe d26a f5be
000000a0: e1ba fd3e f8f7 a1be bb38 a43d f1ef 403d
000000b0: 96ea d5bd 1c6c 34be 4ca0 9a3e a580 3c3d
000000c0: ce3e f9be d821 97be 087c 17be 625d 883e
000000d0: 8eaa a5be a324 f53e d523 d8bc 2b4c 25bb
000000e0: a82f cf3e 2f13 833e bd91 d63e a31d 8f3e
000000f0: a93b fdbd 54d9 a9be 4b0a 573c 42a0 c63e
00000100: 0f11 c8bd 98af e7be b033 403e 674d ee3e
00000110: 00c2 11be 5af9 d3be 1035 e8be f258 9f3d
00000120: ae6a 543d d846 81be 24bd b13d 50fd 223e
00000130: d7ff c03e 2281 bc3e f993 35bd 7ebb e1be
00000140: d853 e7be 139a dd3e 3586 8b3e c19d 3d3e
00000150: ff49 e7be 7d23 f23e 9b60 f43e 3954 cf3e
00000160: 25ef bebe 6445 11be f732 7ebe af7c e23e
00000170: b023 4dbe 84c1 69be e390 6e3e ebdb 2bbe
00000180: 76a3 59be 7aa8 283d a6f4 76bd 7d06 acbe
00000190: 3366 be3e 5e97 7fbe 62df 2d3e 0122 d23e
000001a0: 7f12 603e 3dd0 e63d 9376 d43e a403 383e
000001b0: 54e1 6cbe a220 f83e 7d27 353e 561e f9be
000001c0: 7f86 48be c972 94be e4da d43e 001c a9bd
000001d0: b259 e9be 42a3 af3c a589 833e 6de4 3c3e
000001e0: eddb 823e 3a89 8a3c 509d 2a3e d067 34be
000001f0: acd4 3fbe d15a f4be 1314 c1be 54e8 403e
-0.051762965 -0.09424933 0.11615965 0.19886765 -0.18916881 0.005866058 0.27305672 -0.09271741
0.24251913 -0.11180723 0.19361497 -0.35269657 -0.36362538 -0.21067108 0.45789835 -0.087179765
-0.014749674 -0.20568451 0.46145964 0.4513181 -0.36861065 -0.40533495 -0.3728336 0.0934465
-0.12745196 -0.2911849 -0.17933607 0.06346858 -0.20916232 0.057964597 -0.07862623 -0.24228168
0.05054194 0.42789477 -0.33489865 0.0009769752 -0.20332064 0.5468123 -0.49032885 -0.4793306
0.4955664 -0.31634498 0.08018633 0.047103826 -0.10445134 -0.17619365 0.30200422 0.046021122
-0.4868073 -0.29518008 -0.14793408 0.26633745 -0.32356685 0.47879514 -0.026384274 -0.0025222402
0.40466046 0.25600573 0.41908064 0.279523 -0.12364895 -0.3317362 0.013125013 0.38794142
-0.09768879 -0.45251155 0.18769717 0.46543428 -0.14234161 -0.41401178 -0.45352983 0.07780637
0.05185955 -0.25249362 0.08678654 0.15916944 0.3769519 0.3681727 -0.04433057 -0.44088358
-0.45181155 0.43281612 0.2725083 0.1851721 -0.45173642 0.472927 0.47729954 0.40493944
-0.37291828 -0.14186627 -0.24824129 0.4423575 -0.20033145 -0.22827727 0.23297457 -0.16783111
-0.21253762 0.041176297 -0.06029191 -0.335987 0.37187347 -0.24960086 0.16979745 0.41041568
0.21882056 0.11270187 0.41496715 0.17970139 -0.23132831 0.48462397 0.17690845 -0.48655957
-0.19582556 -0.28993824 0.4157325 -0.08257294 -0.45576245 0.021440152 0.25690952 0.18446513
0.25558415 0.016911138 0.16661572 -0.17617726 -0.18733472 -0.47725537 -0.37710628 0.18838626

net.2.weight f4 [128, 128]
00000000: 4ca3 023a df79 31bd 444b 3a3e 0b1a 44be
00000010: a401 7d3d d4e3 e23d ce27 c0bc 45a3 8e3d
00000020: ef43 9fbd 1b17 43bd 89f2 bc3d 73fc 05be
00000030: fb74 f83d 4682 67be f500 6cbc 94c1 5abe
00000040: 6f9a 2f3e f487 4a3e 3a6d 0cbd 0ab6 913d
00000050: 56b8 a23d 6c06 9dbc 90b9 683d 5c67 92bd
00000060: 38d0 193c c8c1 243e 80fe 46bc cea6 023e
00000070: 8e59 f63d 3a2d ec3d 11b2 063d a0b6 50bc
00000080: 4158 9b3d 6379 633b 504b 0cbe 910d f63d
00000090: 95c4 3fbd c52e 2bbd 699c 753d 78ea c3bc
000000a0: 206c 6d3d bc0c 71bd dc23 4e3c 2a7e 9a3d
000000b0: 95a8 773c 6aae 2d3e 0b31 e63c ff72 d9bd
000000c0: 2a63 333d 3498 d83c 5911 e83d 81a3 ccbd
000000d0: aa01 693d d299 733d be45 c0bd 9e4a 19be
000000e0: ece5 71bb b36d 9bbd 1589 ae3c 6288 903d
000000f0: e5ee 0b3d d81e fc3c 593c 23be 2d5b c53d
00000100: f6d8 14be 5e2a 4dbd 9f34 8b3d d08d 8e3d
00000110: 6abc 2cbd 5eef 673d f0f6 37bc 31e0 dfbb
00000120: a1ec a03d ac16 a6bd 255e 4a3e d857 423c
00000130: 32c1 de3c b2db b43d 7f01 e53d cd7e 9a3d
00000140: 4fcf 923d 6b7b 52bd 12d8 3e3d 0898 853b
00000150: 9b0f 34bc b8e0 0e3b 94ab 8e3d a931 88bd
00000160: 07d6 843e 7424 b2bd 8b15 b9bc 5408 b63d
00000170: d9fc 1d3d e0dc 033c 5305 40bd 44a1 853d
00000180: 27db 58bd 4cf1 48be f325 b1bc 2b00 113d
00000190: 482e 5abd 34f9 a039 ca14 183e 9d9a f83c
000001a0: 9b41 673d 17ef 523d 9b46 e23d aff3 00be
000001b0: 18bf 1ebc e2b9 38bb 696c f1bd 230c 51bd
000001c0: 4271 1c3e 5215 2e3e f771 0e3d 6474 a43c
000001d0: 00bc 1cbd 40b8 1a3d 2503 123c 1136 0fbe
000001e0: 9373 1ebd 76b3 9b3d 0968 66bc 572a c03e
000001f0: 100e a83c 167d 5bbe a49d 97bc 5bca c03d
00000200: 62e2 8abd 5b73 cfbc 6818 c93c 0f8a a5bd
00000210: 0e78 463d 15b0 2d3d 93d0 533d 14d1 66bd
00000220: bae7 ae3d 336f 5cbd 2f49 ae3d f7b8 adbd
00000230: 603c a0bd e25c 5e3d 73ee b13b 1016 a73b
00000240: 47b0 4cbd a6dd 1bbd b087 efbc 7921 b7bd
00000250: 4319 803b 3c0f 803c 00f0 9cb8 c284 d63c
00000260: a7c2 ab3d 4885 c03c 4988 04bd 8a06 27bd
00000270: b64d 69bd f1cb 83bd a039 69bc 7810 80bc
00000280: be8a 1d3d c6fb 27bd 2d4f 903d e89c 84bd
00000290: 00b6 8339 2bac 9a3d c100 b43d 20b7 51bd
000002a0: 28c1 3e3c 580f 2b3c d4fc 33bd ee3e f6bc
000002b0: df7d bc3c 7505 80bd 13ac 2e3c 5d84 113d
000002c0: 2bab 0ebd b35c 963d 809b bebb eff3 133d
000002d0: bd43 b33d bc25 fabc 2778 413d 7933 e1bc
000002e0: 1976 8cbc 397f 97bc 5ea3 84bb ff8c 17bd
000002f0: dd49 a23c a044 5a3b 1e7e 653d a7b5 b2bc
00000300: a038 113c 534c 04bd 0e1d 9fbd 187f 023d
00000310: 884d 393c 98fd 10bd 6cd0 f4bc 9a9e 9c3c
00000320: e8ec 82bc 6295 6c3d 0036 5a3b cbaf ed3c
00000330: 765e 103d 5f0e d4bc d8b4 183d 8794 853d
00000340: 9048 853b 179f 613c a84d e6b8 c37c 683d
00000350: 72e7 1abd 395f 4dbd b63b 0f3d 606a a5bd
00000360: 80bd b93a 947f 26bd 2af5 6e3d cea2 afbd
00000370: 0e84 5b3d bb17 b33d 9e00 6e3c c30d b1bb
00000380: a8d1 b03d ff6d 25bd 7017 e8bb dd89 1ebd
00000390: 60f0 83bc 7d06 973c 62f4 ee3b 9f04 aabc
000003a0: dffb bbbd 4571 363b df8d c5bb 0bd8 1b3c
000003b0: c3b4 8a3d 456a a93d af20 5fbd 0099 b4bb
000003c0: 2820 14bd efd5 a6bd f269 8cbd cfe5 a93d
000003d0: 3617 533d 2d5b 3e3d e5a1 3b3d 9176 98bd
000003e0: 79e9 e53b 4921 a23d 40c4 58bd ff10 9f3d
000003f0: b44b b83c ad37 7d3d c817 1bbd f09c 163d
0.00049834396 -0.043329116 0.18192774 -0.1915056 0.061769143 0.11078611 -0.02345648 0.06964735
-0.07776629 -0.047629457 0.092259474 -0.13084583 0.12131687 -0.22608289 -0.014404525 -0.21362907
0.17148755 0.19778425 -0.034283854 0.07114799 0.079453155 -0.019168101 0.05681759 -0.071486205
0.009388022 0.16089547 -0.0121456385 0.12758943 0.120288 0.11532064 0.03288466 -0.012738854
0.075851925 0.0034709803 -0.13700604 0.12014306 -0.046818335 -0.04179265 0.059963617 -0.023915514
0.057964444 -0.058850035 0.012581792 0.07543595 0.015115877 0.16961065 0.028099557 -0.10617637
0.043795742 0.026439764 0.11331434 -0.099921234 0.056886353 0.059472866 -0.09388302 -0.1496987
-0.0036910726 -0.07589283 0.0213056 0.07057263 0.034163374 0.030776426 -0.1594099 0.09636531
-0.14535889 -0.050089233 0.06797146 0.06960642 -0.042171873 0.056624763 -0.011228308 -0.0068321456
0.078576334 -0.08109793 0.19762476 0.011861764 0.027191732 0.08830966 0.11181926 0.075437166
0.07168447 -0.05138723 0.04659278 0.0040769614 -0.010990049 0.0021801423 0.0696632 -0.06650097
0.2594454 -0.08698359 -0.02259328 0.08888307 0.038571212 0.008048266 -0.046880078 0.065248996
-0.052943375 -0.19623297 -0.02162454 0.03540055 -0.053266793 0.0003070325 0.1485168 0.030347163
0.05645905 0.051497545 0.11048623 -0.12592958 -0.009689115 -0.0028186967 -0.11788256 -0.051036965
0.1527758 0.1700032 0.034776654 0.02007503 -0.03826523 0.03777337 0.0089118825 -0.13985468
-0.03868444 0.07602589 -0.01406289 0.37532303 0.020514518 -0.21434435 -0.018507786 0.09413596
-0.0678146 -0.02532356 0.02454777 -0.08082973 0.048454337 0.042404253 0.051712584 -0.056351736
0.08540292 -0.053816985 0.085100524 -0.08482545 -0.078240156 0.0542878 0.0054300367 0.0050990656
-0.0499728 -0.038053177 -0.029239506 -0.08941931 0.0039092614 0.015632264 -7.483363e-05 0.02618635
0.08386736 0.023501053 -0.032356534 -0.04077772 -0.056958877 -0.06435383 -0.01423493 -0.015632853
0.038462393 -0.041011594 0.070463516 -0.0647524 0.00025121868 0.0755237 0.08789206 -0.051200032
0.011642732 0.01044067 -0.043942288 -0.030059304 0.023009239 -0.06251041 0.010661143 0.035526622
-0.034831207 0.073419 -0.005816877 0.036121305 0.087531544 -0.030535571 0.047233727 -0.027490364
-0.017146157 -0.018493282 -0.004047795 -0.0369997 0.019810611 0.0033305064 0.056028478 -0.021815134
0.008863598 -0.03229935 -0.077692136 0.031859487 0.011309989 -0.035398096 -0.02988454 0.019118596
-0.015982106 0.05775965 0.0033296347 0.029014489 0.035246335 -0.025885759 0.03728184 0.0652247
0.004067488 0.01377084 -0.00010981719 0.056759607 -0.03781838 -0.05013964 0.034969054 -0.0807693
0.0014170855 -0.04064901 0.058339275 -0.085759744 0.053592734 0.087447606 0.014526514 -0.005403252
0.08633739 -0.040388104 -0.007082872 -0.038705695 -0.01610583 0.018435711 0.0072923163 -0.020754157
-0.091789 0.002783851 -0.0060288752 0.009511958 0.06772759 0.082722224 -0.05447453 -0.005511403
-0.03616348 -0.08146273 -0.06856145 0.08295786 0.051535808 0.04647367 0.04580869 -0.0744449
0.0070163575 0.07916505 -0.052921534 0.077669136 0.022497036 0.061820675 -0.037864476 0.03677076

net.2.bias f4 [128]
00000000: 904a 8ebc 4683 a43d 8936 35bd 285f 3f3c
00000010: 9f86 a43c f60d a1bd 2937 673d 0ce1 863d
00000020: 5daf 813d 1577 613d 8a25 363d 6ab5 5bbd
00000030: b750 763d 2520 08bd 3801 c83c 1f73 aabd
00000040: d063 483c a36f 3ebd 6d26 2fbd a3d7 86bd
00000050: d022 27bc 487a 72bd 7467 62bd ff7d b4bd
00000060: a23c 6f3d 4899 873d 4824 5dbc 6b0c 503d
00000070: 3055 a43c 2089 4fbd 6400 76bc 272b 0f3d
00000080: 0f89 463d 40d9 94bb 1092 59bc a2d4 623d
00000090: 2676 8cbc d539 f23b f34d 67bd 3c9e a43d
000000a0: 8b62 b73a c407 60bd e79d 95bd 283a 05bc
000000b0: 7c3d f23c 0dbe 5d3d 58db 91bc 75bb 3cbd
000000c0: 883c afbd 89a4 21bc 56bb 9b3d 07e2 b4bd
000000d0: 7601 a2bc 2be2 753d fd55 843d e26e 6ebd
000000e0: 3f00 e5bd 155a fa3d 617f 47bd e250 6e3c
000000f0: 16cd b9bd be2a da3c 0e4b 9fbb 518b edbc
00000100: 1a36 44bd 717e 8c3d 3cb1 10bd 3f55 11bd
00000110: a162 55bd a1a2 6c3d da04 153c d0c4 65bc
00000120: 7da2 4b3d e607 753d 1541 98bd b23d 653d
00000130: 77d6 9f3d 848b 5c3d c609 0bbd 93d6 81bd
00000140: 6b88 733c beb9 813d 94a5 c9bd 234b 9dbd
00000150: ae68 c0bc 8484 133d 251e a7bd 9315 27bd
00000160: 5b13 043d bfe4 d139 5c39 b5bd 3398 01bd
00000170: f1d5 1abd b105 713d 63a3 b4bd 3e2b 583c
00000180: e79a d1bc 02f8 523d e461 51bd 33f5 703d
00000190: 4dc0 2c3a b07c 8d3d fae4 b6bd 3fbb bcbc
000001a0: e78a d5bc b257 853d 2e59 93bd 53ef 863d
000001b0: d67f 76bd 592c 823c 2da0 c5bc db53 9bbd
000001c0: e01c ba3b 3163 abbd d440 a33c 5d5c 943d
000001d0: f02c 0abc e223 41bd 3fb9 5c3d d0be 193c
000001e0: 2dbe 423c 4cee 593d 581f b3bd 7e25 3abd
000001f0: e008 023d 65ee 593d 7f50 30bd 846b 84bd
-0.017369539 0.08032851 -0.044241462 0.011680402 0.020083724 -0.07863991 0.05644909 0.06585893
0.06332276 0.055045206 0.044469394 -0.053639807 0.06013557 -0.03323378 0.024414644 -0.08322739
0.012230828 -0.046493184 -0.042761255 -0.06584098 -0.010201171 -0.059198648 -0.05527444 -0.08813094
0.058407433 0.06621033 -0.01349742 0.050793093 0.020060152 -0.050667882 -0.015014742 0.034953263
0.048470553 -0.0045425 -0.013279453 0.055378564 -0.017146181 0.007392148 -0.056470823 0.08037993
0.001399116 -0.054694906 -0.07305508 -0.008131541 0.029570334 0.054136325 -0.017804787 -0.04607721
-0.08556467 -0.009865888 0.07604091 -0.08832174 -0.019776087 0.060030144 0.064617135 -0.058211215
-0.111816876 0.12224213 -0.048705462 0.014545651 -0.0907232 0.02663171 -0.004861242 -0.028997095
-0.047903158 0.06860054 -0.035325274 -0.035481688 -0.052096013 0.057772283 0.009095395 -0.014023975
0.049715508 0.059821986 -0.074342884 0.05596704 0.07804578 0.05384399 -0.033944868 -0.06339755
0.014864068 0.06334256 -0.09846035 -0.07680347 -0.023487415 0.03601505 -0.081600465 -0.04079206
0.03224502 0.00040034016 -0.08848831 -0.03163929 -0.037801687 0.05884332 -0.08820226 0.0131939035
-0.025586559 0.05150605 -0.051118746 0.05882759 0.00065899343 0.06908548 -0.089303926 -0.023038505
-0.02606721 0.06510867 -0.07194744 0.06588616 -0.060180508 0.015890287 -0.02412423 -0.075843535
0.0056797117 -0.08368529 0.019928373 0.072441794 -0.0084335655 -0.04715336 0.053887602 0.009383872
0.011886162 0.053205773 -0.08746213 -0.04544591 0.031746745 0.053205866 -0.043045517 -0.064658195
